results/SliderBehavior-jgf-003/SliderBehavior/SliderBehavior-22711.pt (torch, 447716 bytes, 41 tensors)

network_body.observation_encoder.processors.0.normalizer.running_mean f4 [6]
0	0xc16b85ad	-14.720136
1	0xc063d599	-3.559912
2	0x00000000	0.0
3	0xc16e291e	-14.885038
4	0xc0bffdc9	-5.9997296
5	0x00000000	0.0

network_body.observation_encoder.processors.0.normalizer.running_variance f4 [6]
0	0x48613d5a	230645.4
1	0x477e9af0	65178.938
2	0x3f800000	1.0
3	0x4779e32c	63971.17
4	0x4213fe5a	36.99839
5	0x3f800000	1.0

network_body.processors.0.normalizer.running_mean f4 [6]
0	0xc16b85ad	-14.720136
1	0xc063d599	-3.559912
2	0x00000000	0.0
3	0xc16e291e	-14.885038
4	0xc0bffdc9	-5.9997296
5	0x00000000	0.0

network_body.processors.0.normalizer.running_variance f4 [6]
0	0x48613d5a	230645.4
1	0x477e9af0	65178.938
2	0x3f800000	1.0
3	0x4779e32c	63971.17
4	0x4213fe5a	36.99839
5	0x3f800000	1.0

network_body._body_endoder.seq_layers.0.weight f4 [128, 6]
0	0x3ef27c97	0.4736068
1	0x3f2c634f	0.6733903
2	0xbecf7338	-0.40517592
3	0x3eac1de1	0.33616546
4	0xbe06c9d8	-0.13162935
5	0xbe941c66	-0.28927916
6	0xbf906be9	-1.1282932
7	0x3d54b2af	0.05192822
8	0xbd0f8fb6	-0.035049163
9	0x3f286be5	0.65789634
10	0x3e7df6a1	0.24801113
11	0x3f602538	0.8755679
12	0xbee9c01a	-0.45654374
13	0xbe005995	-0.12534173
14	0x3f1c6b94	0.6110165
15	0xbd9f8880	-0.07789707
16	0x3f943fcb	1.1581968
17	0x3dd1ed20	0.10250306
18	0xbeb6cb78	-0.3570211
19	0xbf151060	-0.5822811
20	0x3f5a0d97	0.85176986
21	0x3ed02f5c	0.40661132
22	0x3dc19d9d	0.094538905
23	0x3e0d0571	0.13771607
24	0xbd2826b5	-0.04105254
25	0xbe8aa95d	-0.2708234
26	0x3f0e69ca	0.5563017
27	0x3f8343b9	1.0255042
28	0x3e8e0d39	0.27744463
29	0xbe5f3624	-0.21797997
30	0xbeca42ce	-0.39504093
31	0x3ea82ce9	0.32846764
32	0xbe58c8bd	-0.21170326
33	0x3ee27dd5	0.44236627
34	0x3d666ff4	0.05625911
35	0xbeb2d08d	-0.34924737
36	0xbf1d6e5c	-0.6149652
37	0x3f18c6a5	0.5967811
38	0x3f315ce6	0.69282377
39	0xbe1dfa66	-0.1542755
40	0x3f2ac290	0.6670313
41	0xbeaf29a5	-0.3421146
42	0xbf863914	-1.0486169
43	0xbebda869	-0.3704255
44	0xbedc58e8	-0.4303658
45	0xbf39ee0a	-0.72628844
46	0xbf6b974e	-0.9202775
47	0xbe985390	-0.29751253
48	0xbf566787	-0.8375172
49	0x3f4b0391	0.79302317
50	0x3edc3f57	0.43017074
51	0x3e8896b7	0.26677486
52	0xbf11d48b	-0.5696494
53	0x3dca22f7	0.0986995
54	0xbec21a57	-0.3791072
55	0xbe94f3e6	-0.2909233
56	0xbea25ab1	-0.31709817
57	0x3e7fe494	0.2498954
58	0xbe8bc7d6	-0.273009
59	0x3ed2605f	0.4108915
60	0x3f1d3a10	0.6141672
61	0x3e7977b0	0.24362063
62	0xbed66ebd	-0.41881362
63	0xbe5aebb5	-0.21378978
64	0x3efaae09	0.48960903
65	0xbed47905	-0.4149858
66	0x3f45274e	0.770131
67	0x3e945389	0.28969982
68	0xbefb7e7b	-0.49119934
69	0xbf203c10	-0.6259165
70	0xbccefe1c	-0.025267653
71	0x3f4a9b21	0.7914296
72	0xbde5f29f	-0.11227917
73	0xbd720030	-0.05908221
74	0xbe95cfa9	-0.29259995
75	0xbe063170	-0.13104796
76	0x3df7bbee	0.120963916
77	0xbe878214	-0.2646643
78	0x3eeb1fa5	0.4592258
79	0x3e73ddd9	0.23815097
80	0x3e49697e	0.19669148
81	0x3ee7fbb4	0.45309222
82	0x3ea51f34	0.3225037
83	0xbe0b7e39	-0.13622369
84	0x3ec42f54	0.38317358
85	0xbe949cec	-0.29025972
86	0x3f33ddaf	0.7026014
87	0xbdbcebe4	-0.0922468
88	0xbe1a7973	-0.15085392
89	0xbf65a2bb	-0.8970143
90	0xbcace53d	-0.021105403
91	0x3e3e2428	0.1856848
92	0x3d99dea8	0.075131714
93	0xbe8bce86	-0.27306002
94	0xbe975012	-0.29553276
95	0x3e4cc886	0.19998369
96	0x3f27203d	0.65283567
97	0xbea7fbde	-0.32809347
98	0x3eb6b3a5	0.35683933
99	0x3e8112ae	0.25209564
100	0x3f247af3	0.64250106
101	0x3e93dd55	0.288798
102	0xbe995641	-0.2994862
103	0x3f1cb823	0.6121847
104	0xbe655909	-0.22397245
105	0xbec343b0	-0.3813758
106	0xbedbbde3	-0.4291831
107	0xbf1fa641	-0.6236306
108	0x3f208a79	0.6271129
109	0x3e5494c7	0.20759879
110	0xbeabf9b4	-0.33588946
111	0x3c9d273b	0.019183746
112	0xbe12ebad	-0.14347716
113	0x3ed971b5	0.42469564
114	0x3e1c51a4	0.15265518
115	0xbe1eb007	-0.15496837
116	0x3ec83cfe	0.39109033
117	0x3e2d1069	0.16900791
118	0xbef36bd0	-0.47543192
119	0x3f11eb5c	0.56999755
120	0x3ea6fd76	0.3261525
121	0x3f14c0a4	0.58106446
122	0x3eb9872f	0.3623595
123	0x3e87f65f	0.26555154
124	0xbe12152d	-0.1426589
125	0xbea391bf	-0.31947133
126	0x3d85aa50	0.06526625
127	0x3ee847ed	0.45367375
128	0xbee6e5c5	-0.45097175
129	0xbeb920c5	-0.36157814
130	0xbe7f81ac	-0.2495181
131	0xbea80493	-0.3281599
132	0x3f0711f1	0.5276175
133	0x3ec0bee7	0.37645647
134	0x3e7115c8	0.23543465
135	0xbd750d6d	-0.059827257
136	0xbf225a1d	-0.6341875
137	0xbed76d0a	-0.42075378
138	0x3e0f5207	0.13996135
139	0x3dec2277	0.11530011
140	0xbe30b5d7	-0.17256866
141	0xbead7d0f	-0.33884475
142	0xbeaeebc4	-0.3416425
143	0x3e003538	0.12520301
144	0x3d9f4082	0.07775976
145	0xbe4203d5	-0.18946774
146	0xbf4f0e27	-0.8088097
147	0xbf06e3df	-0.52691454
148	0xbecc2414	-0.39871275
149	0xbd75aead	-0.059981037
150	0xbe7450a4	-0.23858887
151	0xbec9126b	-0.39271864
152	0xbed4dde9	-0.41575554
153	0x3f0686ff	0.5254974
154	0xbdd61804	-0.10453799
155	0xbe715ee2	-0.23571351
156	0x3d0a9355	0.033831913
157	0x3e1e2cd3	0.15446787
158	0x3d8a4881	0.0675211
159	0x3e18e8f4	0.14932615
160	0x3db93598	0.09043425
161	0x3ca6ed74	0.020376898
162	0x3ebb2575	0.36552015
163	0x3db5870e	0.0886365
164	0xbee541d7	-0.44776794
165	0x3e7613d8	0.24031007
166	0xbc1b2764	-0.009469841
167	0xbe492cf7	-0.19646059
168	0xbe1b1209	-0.15143599
169	0xbf394cc1	-0.7238274
170	0x3f154fef	0.58325094
171	0x3ead9065	0.33899227
172	0xbf02a73d	-0.51036435
173	0x3e57b724	0.21065956
174	0x3e55866f	0.20852064
175	0x3e4c2a77	0.19938074
176	0x3db45c00	0.0880661
177	0x3f5633f7	0.8367304
178	0xbf0f0136	-0.5586122
179	0x3e297ed6	0.1655229
180	0x3e8ecac9	0.27889088
181	0x3e583315	0.21113236
182	0x3d878af8	0.06618303
183	0x3eb43800	0.35198975
184	0xbf004627	-0.50107044
185	0xbb5ae7c1	-0.0033402296
186	0x3f1a0fc4	0.60180306
187	0xbcd2b494	-0.025720872
188	0x3d296656	0.04135736
189	0x3ecd7aa4	0.4013263
190	0xbb0ea053	-0.002176304
191	0x3ee361a2	0.44410425
192	0x3e92543c	0.2857989
193	0xbd364e8f	-0.044508513
194	0x3e539719	0.20663108
195	0x3f0924ac	0.5357158
196	0x3d5a739a	0.053332902
197	0xbf2ce030	-0.6752958
198	0x3ce5dd06	0.028059494
199	0xbc917d56	-0.01775996
200	0x3eb3242c	0.34988534
201	0xbe1798ed	-0.1480443
202	0x3d0d8d2e	0.034558468
203	0xbe52a2cf	-0.20569919
204	0x3dd277aa	0.1027673
205	0xbf1294b9	-0.5725818
206	0x3ecd3188	0.40076852
207	0xbc346585	-0.011010532
208	0xbd4f0261	-0.050539378
209	0x3f489b8b	0.7836234
210	0xbedbe0aa	-0.42944843
211	0xbecd3d58	-0.40085864
212	0x3e54d8ea	0.20785871
213	0xbeb4bebe	-0.35301775
214	0xbe39bc05	-0.1813813
215	0xbf90579d	-1.1276737
216	0xbda4f8d1	-0.080552705
217	0x3ed78640	0.42094612
218	0x3f05166d	0.51987344
219	0x3ed1c22a	0.40968448
220	0xbe1872f3	-0.148876
221	0xbe171ed2	-0.14757851
222	0x3e8b0349	0.27150944
223	0x3dcc94af	0.09989297
224	0x3f06c300	0.52641296
225	0x3de282c5	0.110600986
226	0xbe746ef5	-0.23870452
227	0xbec4bce9	-0.38425377
228	0xbb54e979	-0.0032487793
229	0xbcc56e68	-0.024100497
230	0xbbd154f3	-0.0063883006
231	0x3dcd5db8	0.10027641
232	0xbe2937b5	-0.16525157
233	0xbe1cab78	-0.15299785
234	0x3e32117a	0.1738948
235	0x3e8f89a1	0.2803469
236	0xbd5e65f8	-0.054296464
237	0xbeb7ceb9	-0.35899904
238	0xbda9264f	-0.0825926
239	0x3eb1fb2d	0.34761944
240	0xbf69bfc7	-0.91308254
241	0x3f881f9e	1.0634649
242	0x3ebd5976	0.36982316
243	0xbdf25f74	-0.118346125
244	0x3f5a1e64	0.8520262
245	0xbb58b106	-0.0033064499
246	0x3e988042	0.29785353
247	0xbef10c8d	-0.47079888
248	0xbe669a64	-0.22519833
249	0x3ebe6283	0.37184533
250	0x3ed02367	0.4065201
251	0xbe04731c	-0.12934536
252	0x3e61aef6	0.22039399
253	0x3eecf4e2	0.4628058
254	0xbe8435df	-0.2582235
255	0xbecc755a	-0.39933282

network_body._body_endoder.seq_layers.0.bias f4 [128]
0	0x3c086fdc	0.008327451
1	0x3be06fbc	0.0068492573
2	0xb9bfbf53	-0.00036572907
3	0x3b4be93c	0.003111436
4	0xbb2a2864	-0.0025964016
5	0x3a025ba9	0.0004972765
6	0x3b288e77	0.0025719681
7	0x3a8f2e4c	0.0010923832
8	0x3a4e510f	0.0007870355
9	0x3a8423e6	0.0010081499
10	0x3c62893b	0.013826664
11	0x3c512cee	0.01276706
12	0xbb4836dd	-0.003055028
13	0x3b54eb2d	0.0032488809
14	0x3bbd624c	0.00577954
15	0x3b82718d	0.0039808215
16	0xbb84120f	-0.004030473
17	0xbb2f8b86	-0.0026786043
18	0x3bfcbf39	0.007713225
19	0xbb27a075	-0.0025577818
20	0x391b0776	0.00014784731
21	0xbb836caa	-0.0040107565
22	0xbbd3e699	-0.0064666984
23	0xbbbde003	-0.0057945265
24	0x3bc44d44	0.005990656
25	0x3c0c7dcb	0.008574913
26	0xbb8d9104	-0.0043202657
27	0x3b48d419	0.0030643998
28	0xba160866	-0.00057232974
29	0xba2eddf7	-0.00066706486
30	0x3ba8e94c	0.0051547643
31	0xbb891cb2	-0.004184329
32	0xbbaf8a65	-0.005357074
33	0xbb8a1675	-0.004214103
34	0x3b724d6c	0.0036972417
35	0x3ad0631c	0.0015898678
36	0x3ac3f3a2	0.0014949928
37	0xbb336996	-0.0027376167
38	0x3b1c7b25	0.002387711
39	0x3bb5869a	0.0055397274
40	0xb86ede6f	-5.695078e-05
41	0x3ac67560	0.0015141182
42	0xbbdbebab	-0.0067114434
43	0x3adf575d	0.0017039586
44	0x3ba51ffe	0.005039214
45	0x3bb6848c	0.00557
46	0xbbf79e6d	-0.0075567276
47	0x3b95b0cb	0.0045681945
48	0xbaced546	-0.0015780113
49	0x3bf34468	0.007423926
50	0x3bbcf417	0.0057664025
51	0x3bc29581	0.0059382324
52	0xbb99b807	-0.004691127
53	0xbb66e2d6	-0.003523042
54	0x3c2e14c2	0.010625066
55	0xba129138	-0.0005591097
56	0x3b6d40d8	0.003620198
57	0xbbf49596	-0.007464121
58	0x3b97bf1e	0.0046309372
59	0x3b098387	0.0020982937
60	0x3b07bcfe	0.0020712013
61	0xbc24fc9c	-0.010069992
62	0x3bc23207	0.005926374
63	0x3b72c0ca	0.003704118
64	0x3c007c53	0.007842141
65	0x3b19e075	0.0023479734
66	0x3c07723c	0.008266982
67	0xbaac51c6	-0.0013146929
68	0xba2ae9b8	-0.0006519812
69	0x3b91be9c	0.0044477712
70	0xba483098	-0.00076366356
71	0xbbf3305f	-0.007421538
72	0xba436994	-0.0007454392
73	0x3b22e61a	0.002485639
74	0x3972c9df	0.00023154121
75	0x3c12f4bf	0.008969485
76	0xbb6d972e	-0.003625344
77	0x3abe51ec	0.0014520264
78	0x3bdb232b	0.006687542
79	0xba229597	-0.00062021
80	0xbb03bbcc	-0.002010095
81	0xbab3d8dd	-0.0013721247
82	0x3b2e5fbd	0.0026607357
83	0xbc298fd0	-0.010349229
84	0x3ae6783b	0.0017583439
85	0xbb52e9f8	-0.0032182913
86	0xbaec64ee	-0.001803545
87	0x3ab7cb83	0.0014022443
88	0x3c210ec5	0.0098301815
89	0x3afc1080	0.0019230992
90	0x3af205c4	0.0018464853
91	0x3c10c065	0.008834933
92	0x397f29e4	0.000243343
93	0xba921b92	-0.0011147133
94	0xbb20058d	-0.002441737
95	0x3c264e84	0.0101505555
96	0x3b84552a	0.0040384727
97	0x3b3aba65	0.0028492447
98	0xbab4007a	-0.0013733052
99	0x3a24c11a	0.0006284878
100	0x3aec7f1e	0.0018043255
101	0xbb06ee91	-0.0020588974
102	0xbbb58711	-0.005539783
103	0xba3b2c7d	-0.0007140113
104	0x3b429522	0.002969094
105	0xbb412d41	-0.0029476436
106	0x3b5ba273	0.0033513575
107	0x3a9b45e3	0.0011846389
108	0xbbef2f37	-0.0072993296
109	0x3b1247c3	0.0022320605
110	0x3a8beedb	0.0010676043
111	0x3a35d798	0.0006936728
112	0x36a0c5c3	4.791394e-06
113	0x3c0e79cd	0.008696032
114	0x3b9dcc56	0.0048156185
115	0xba176126	-0.0005774669
116	0xbb9899b6	-0.0046569956
117	0x3b9ff3fd	0.0048813806
118	0xbb70b66c	-0.0036729826
119	0x3ad5e76c	0.001631958
120	0x3b46a734	0.0030312063
121	0xb8e9edf3	-0.00011154627
122	0xba64871c	-0.00087176426
123	0x3c18e64d	0.009332252
124	0x3c020a72	0.007937061
125	0x3b148b14	0.0022665905
126	0x3c806c3e	0.015676614
127	0x3ab45143	0.0013757128

network_body._body_endoder.seq_layers.2.weight f4 [128, 128]
0	0x3d5e214f	0.054230984
1	0x3e180c45	0.1484843
2	0x3d6727ea	0.05643455
3	0x3e27b837	0.16378866
4	0xbdc4ee46	-0.096157596
5	0x3db56dfd	0.08858869
6	0xbcde7f5d	-0.02716034
7	0x3d72849d	0.0592085
8	0x3cc70464	0.024294086
9	0xbd8d13cb	-0.06888541
10	0x3c3fa2a0	0.011696488
11	0xbd8747a1	-0.06605459
12	0xbd4ed496	-0.050495706
13	0xbd21dc5a	-0.039516784
14	0x3d3b9935	0.045800406
15	0xbc69af9b	-0.014263059
16	0xbc4f8aa3	-0.012667331
17	0xbce3b48e	-0.027796056
18	0xbd0935f7	-0.03349873
19	0xbd99b93b	-0.07506033
20	0x3d9c379d	0.07627795
21	0x3d97ee2f	0.07418477
22	0xbe037972	-0.12839296
23	0x3da202a5	0.07910661
24	0x3cfaf535	0.030634502
25	0xbc83e259	-0.016099142
26	0x3e0a7090	0.13519502
27	0x3d30023f	0.042970892
28	0xba805cd6	-0.0009793292
29	0x3de971c9	0.11398656
30	0xbd213f4f	-0.039367016
31	0x3cb38318	0.021913096
32	0xbdcb2e20	-0.09920907
33	0x3cb57a4e	0.022153046
34	0xbd9dc80e	-0.07704173
35	0x3cba248a	0.022722501
36	0xbc78d407	-0.01518727
37	0xbdfa90f5	-0.122346796
38	0xbd8561f8	-0.06512827
39	0x3cef5278	0.029214129
40	0x3e299cab	0.1656367
41	0x3d276bfc	0.040874466
42	0xbd0e2d1b	-0.034710985
43	0x3e3c0eb4	0.18364984
44	0x3db7df2c	0.089781135
45	0x3d16292f	0.03666037
46	0x3e10ce8c	0.14141291
47	0x3e2bd94b	0.1678211
48	0x3de111e6	0.10989742
49	0x3ca2ca99	0.019871997
50	0x3cb3db5b	0.021955183
51	0x3cfae7a8	0.03062804
52	0xbe480901	-0.19534685
53	0xbd4965cb	-0.049169343
54	0xbd1931bb	-0.037400942
55	0x3ccd4b56	0.025060337
56	0x3ccd0d85	0.02503086
57	0x3c5e0311	0.013550536
58	0x3c503ac5	0.012709324
59	0x3d965b29	0.07341606
60	0x3c48ca6d	0.012255293
61	0xbdd9f76b	-0.10642894
62	0x3d80c128	0.06286842
63	0x3de1cfa8	0.110259354
64	0x3a1908a1	0.00058377726
65	0x3e2f536c	0.17121667
66	0xbd69121d	-0.05690204
67	0x3affeeb4	0.0019526095
68	0x3db94e34	0.09048119
69	0xbd0e4be0	-0.03474033
70	0xbd4bdaff	-0.049769398
71	0xbd952a7b	-0.07283493
72	0x3d2025ab	0.039098423
73	0x3d3cc4dd	0.04608618
74	0xbd6d19cc	-0.05788593
75	0x3d8d86f2	0.069105044
76	0x3a804748	0.0009786868
77	0xbd26498a	-0.040597476
78	0x3dd7b734	0.1053299
79	0xbc3b9409	-0.011448869
80	0x3d967db8	0.07348198
81	0xbdba1da0	-0.09087682
82	0x3d2cde03	0.042203914
83	0xbdf11582	-0.117716804
84	0x3dfd0920	0.12355256
85	0xbd35341b	-0.044239145
86	0xbb9fd4b3	-0.0048776506
87	0xbe0944f4	-0.1340521
88	0xbdc94b0f	-0.098287694
89	0x3cb9a7b8	0.022662982
90	0x3dda9d3e	0.10674523
91	0x3d6db0d3	0.05802996
92	0x3dfe04f9	0.12403292
93	0x3d5678dd	0.052361358
94	0x3d94195b	0.07231399
95	0x3da4902d	0.08035312
96	0xbca57bb5	-0.02020059
97	0xbdcf47c1	-0.10121108
98	0x3b9a90eb	0.0047169826
99	0xbdde76df	-0.108625166
100	0x3c58aa94	0.013224263
101	0xbe37c944	-0.1794787
102	0x3e449b99	0.19199981
103	0x3dbc83a5	0.09204797
104	0x3e08dc29	0.13365234
105	0xbc47e812	-0.012201326
106	0x3bdebba9	0.006797273
107	0xbd909933	-0.070604704
108	0xbd96cdf1	-0.07363499
109	0x3d4c1a8d	0.04983001
110	0x3e4c7584	0.19966704
111	0x3a8c7b97	0.0010717985
112	0x3dd298ce	0.102830514
113	0xbd84c399	-0.0648262
114	0x3d8cbfb0	0.06872499
115	0x3c1d7485	0.0096103
116	0x3d9230fb	0.071382485
117	0xbb25c741	-0.0025295767
118	0xbd559f44	-0.05215384
119	0xbdee38f5	-0.116319574
120	0xbbc07612	-0.00587345
121	0xbe181725	-0.14852579
122	0x3e682d5b	0.22673552
123	0xbd9026be	-0.070386395
124	0xbd15dfbd	-0.036590327
125	0x3dd1e1e0	0.1024816
126	0xbd400aca	-0.04688529
127	0xbd14a509	-0.036290202
128	0x3e0136aa	0.12618509
129	0xbd0347e4	-0.032050982
130	0x3d994eec	0.07485756
131	0xbde01c6f	-0.10942923
132	0x3d791e5a	0.06081996
133	0x3d8386eb	0.06422218
134	0x3c75b805	0.014997487
135	0x3dd06587	0.10175615
136	0x3dd96664	0.106152326
137	0x3d8da9c7	0.06917148
138	0xbd9161c7	-0.07098728
139	0x3df9d8ec	0.12199578
140	0x3c16ddda	0.009208167
141	0xbdc2e3e1	-0.09516121
142	0x3ac134c9	0.0014740463
143	0x3df51b5b	0.11968108
144	0xbda2f6a5	-0.079572
145	0x3e404fd0	0.18780446
146	0x3d5ef237	0.054430213
147	0xbdb53f8e	-0.08850013
148	0xbe2f2285	-0.17103012
149	0x3d2715f4	0.04079242
150	0xbdc74445	-0.09729818
151	0x3e35c84e	0.17752191
152	0x3e022ce3	0.12712435
153	0x3d9065b8	0.07050651
154	0x3caed736	0.021342855
155	0xbd0a1c07	-0.033718135
156	0x3da8250c	0.08210191
157	0x3d7b94fc	0.06142138
158	0xbd28f89c	-0.041252717
159	0xbda4b1c8	-0.080417216
160	0xbc255aa7	-0.010092414
161	0xbd99ef18	-0.07516307
162	0xbdf3025d	-0.11865685
163	0x3d67c0db	0.056580406
164	0x3e579dcd	0.2105629
165	0xbc916d5e	-0.017752346
166	0xbda151be	-0.07876919
167	0x3ccf56a4	0.025309868
168	0xbe62fba4	-0.22166306
169	0x3dc0c307	0.094121985
170	0xbc823cf0	-0.015898198
171	0xbe245069	-0.16046299
172	0xbbaedf5b	-0.0053366846
173	0xbd4bc02e	-0.049743824
174	0xbdc6384b	-0.09678706
175	0xbcfa5bc9	-0.030561345
176	0xbd6b0c92	-0.057385035
177	0x3c12965a	0.008946979
178	0xbda56afb	-0.080770455
179	0xbd0b507f	-0.034012314
180	0xbc096c3c	-0.0083876215
181	0xbc957034	-0.01824198
182	0x3e1e351e	0.1544995
183	0xbdd19e7c	-0.102353066
184	0x3ca719eb	0.0203981
185	0xbde4a82d	-0.111648895
186	0x3cd59b90	0.026075155
187	0x3df51ca8	0.11968356
188	0x3e08e531	0.1336868
189	0x3de79b31	0.11308897
190	0xbc6e3186	-0.0145381745
191	0x3e0cf9b1	0.13767125
192	0xbd844d47	-0.06460052
193	0x3e18e8d4	0.14932567
194	0xbdbe1c51	-0.09282745
195	0x3dcdbb63	0.10045507
196	0xbdd8993b	-0.105761014
197	0x3e330b74	0.17484838
198	0xbdfc6f02	-0.123258606
199	0x3e25704c	0.16156119
200	0x3db9a868	0.09065324
201	0x3db15d9d	0.086604334
202	0xb9f9acec	-0.00047621818
203	0xbceb9cf0	-0.028761357
204	0xbdada27a	-0.084782556
205	0x3cf9318f	0.03041914
206	0x3dd5b907	0.10435682
207	0x3d90141d	0.07035086
208	0x3d9264ce	0.07148133
209	0xbd6b6209	-0.05746654
210	0x3d3ea59c	0.046544656
211	0xbe2a26ef	-0.16616414
212	0x3cef20eb	0.029190501
213	0xbdb8e99a	-0.09028931
214	0x3cabb3ee	0.02095982
215	0x3ddf1b0d	0.108938314
216	0x3e1bf980	0.15231895
217	0xbdc5ea52	-0.09663834
218	0xbe157199	-0.14594115
219	0x3d1e492e	0.03864401
220	0x3d07a090	0.03311211
221	0xbdf95a27	-0.12175398
222	0x3cd7e71b	0.026355317
223	0xbd68ca7a	-0.05683372
224	0xbdac3fbc	-0.08410594
225	0x3ce85731	0.028361889
226	0xbd902aab	-0.07039388
227	0xbe0f8bba	-0.14018145
228	0xbdd92bca	-0.10604055
229	0xbd498894	-0.049202517
230	0xbc27b691	-0.010236398
231	0x3dcba15d	0.09942887
232	0x3b0c7d21	0.0021436887
233	0xbd8fdb6f	-0.070242755
234	0x3d22be00	0.03973198
235	0x3ddfe5de	0.109325156
236	0x3e3ffeb5	0.18749507
237	0x3d159cbc	0.036526427
238	0x3dc0e23d	0.094181515
239	0x3dc6af14	0.09701362
240	0x3d7f422b	0.062318962
241	0x3e59a392	0.21253803
242	0x3d48ba77	0.04900595
243	0x3d97e4be	0.07416676
244	0xbe0a5745	-0.13509853
245	0x3d79af23	0.06095804
246	0x3e310467	0.17286836
247	0x3d818437	0.06324046
248	0xbdb68703	-0.0891247
249	0x3d8d130a	0.06888397
250	0xbe08c723	-0.13357215
251	0xbdda9db4	-0.10674611
252	0xbd1200ed	-0.035645414
253	0xbccfbb2b	-0.025357803
254	0x3de19ce8	0.110162556
255	0x3d164284	0.036684528

network_body._body_endoder.seq_layers.2.bias f4 [128]
0	0xba4ceef7	-0.0007817591
1	0xbb50fa95	-0.003188764
2	0x3ae9d8d8	0.0017841114
3	0xbb345a81	-0.0027519765
4	0x3c30689c	0.010767128
5	0xbb77d5ec	-0.0037816716
6	0x3bada043	0.0052986457
7	0xbb0f809e	-0.002189673
8	0xbb5de226	-0.0033856719
9	0xbb2c7d95	-0.002631997
10	0x3bc8f88e	0.0061331457
11	0x3a34a675	0.0006891259
12	0x3b1a7d68	0.0023573283
13	0x3b3b1e57	0.002855202
14	0x3b43fbec	0.0029904796
15	0x3bbcb5e1	0.0057589863
16	0x3be8a9a7	0.0071003023
17	0x3b13f991	0.0022579173
18	0x3a8b09a9	0.0010607737
19	0xbbbad32c	-0.005701443
20	0x3b691231	0.0035563821
21	0xbbbe3840	-0.0058050454
22	0xba9248fc	-0.0011160667
23	0xbb3956da	-0.0028280527
24	0x3bd106e4	0.0063789953
25	0x3b685fc4	0.0035457471
26	0x3bb89987	0.0056335363
27	0xbb7bd328	-0.003842542
28	0x3b238153	0.002494891
29	0xba9144cb	-0.0011083124
30	0x3be4ac9f	0.006978586
31	0xbb1b1465	-0.002366328
32	0x39f60982	0.0004692786
33	0x3bf21bb0	0.0073885545
34	0x3b5effeb	0.003402705
35	0x3b882708	0.0041550435
36	0xbb225d68	-0.0024774913
37	0x3bb9d032	0.005670571
38	0x3bc25c96	0.0059314473
39	0x3c02db08	0.007986791
40	0xbb5634f3	-0.0032685369
41	0x3bbe7534	0.0058123115
42	0x3b907c54	0.0044093523
43	0xbb886f7c	-0.0041636806
44	0x3bbc3ee2	0.005744801
45	0xbb2d3312	-0.0026428145
46	0x3b97f185	0.0046369457
47	0xbb78a783	-0.0037941642
48	0xbb8cbf8d	-0.0042952956
49	0xbb4de57b	-0.0031417299
50	0x3c1af0da	0.009456838
51	0xb9b98340	-0.0003538374
52	0x3b420bd7	0.0029609108
53	0xbb52b172	-0.0032149223
54	0x3b089869	0.0020842797
55	0x3aa2240b	0.0012370361
56	0x3b86798f	0.0041038464
57	0x3b2f7392	0.0026771766
58	0xbb678331	-0.0035326
59	0x3b21e462	0.0024702777
60	0xbb068562	-0.002052628
61	0xbb82aa26	-0.0039875684
62	0xbb1dfc1d	-0.002410657
63	0x3ba93068	0.005163241
64	0xbb85d965	-0.0040847533
65	0x3aea2e6b	0.0017866617
66	0xbba0a9c5	-0.0049030506
67	0xbb928a94	-0.004472086
68	0xba6e8fdc	-0.0009100416
69	0xbba85fed	-0.0051383884
70	0xbb4a5f18	-0.0030879434
71	0xbba8f22b	-0.005155822
72	0xbb4f977b	-0.0031675983
73	0x3bb6cc2b	0.005578538
74	0x3b958e52	0.004564085
75	0xbb04a54a	-0.0020240122
76	0x3bc79ec1	0.006091923
77	0xb9b9bd21	-0.00035426862
78	0x3c0dbb9c	0.008650687
79	0x3b1e3ffd	0.0024147027
80	0xbb037d4b	-0.0020063694
81	0xbbabef7d	-0.005247055
82	0x3ba18785	0.0049294853
83	0x3bb5c0b9	0.005546656
84	0x3b0a23d7	0.002107849
85	0x3ba841a4	0.005134778
86	0xbb9c6c63	-0.004773663
87	0xba4dc368	-0.0007849247
88	0xbb8a69e1	-0.0042240475
89	0xbb0b52bd	-0.0021259033
90	0xbb951d13	-0.004550585
91	0x3b8f6a67	0.004376698
92	0xbb69745a	-0.003562233
93	0xbb665138	-0.0035143625
94	0xbb0d88fc	-0.0021596542
95	0x3bdce319	0.0067409393
96	0xbb7472e1	-0.0037299918
97	0x3c21f582	0.009885194
98	0xbb12e5d9	-0.0022414832
99	0xbb18da79	-0.002332358
100	0xbb5bfe47	-0.003356831
101	0x397c68d2	0.00024071641
102	0xba0ebfa7	-0.00054454285
103	0x3a8d2699	0.0010768949
104	0x3ba23b5a	0.004950923
105	0x3c08b24d	0.0083432915
106	0xbb0adbdd	-0.0021188178
107	0xb918d7a8	-0.00014576188
108	0x3b0a9b13	0.002114956
109	0x3b26b146	0.0025435253
110	0x3b9b9a53	0.0047486215
111	0x3b2b0731	0.0026096816
112	0x3b479738	0.0030455124
113	0xbaef20e1	-0.0018244052
114	0xbba6fbee	-0.0050959503
115	0x3b843eaa	0.0040357905
116	0x3bcf8fb0	0.0063342676
117	0x3bf02646	0.0073287813
118	0x3b8614f1	0.004091852
119	0x3b91f36f	0.0044540684
120	0x3b9d468b	0.004799669
121	0x3b72f8f5	0.003707466
122	0xbb79073d	-0.00379987
123	0xbb51a375	-0.0031988297
124	0xbb99df16	-0.0046957834
125	0x3ba5f117	0.0050641405
126	0x3c0f914d	0.00876267
127	0xbabd062c	-0.0014421395

action_model._continuous_distribution.mu.weight f4 [1, 128]
0	0xbcd7ab66	-0.026326846
1	0xbbc719c5	-0.00607607
2	0x3b548ca4	0.003243246
3	0xbc04073b	-0.0080583645
4	0x3c14dd2b	0.009085934
5	0xbc749b25	-0.014929567
6	0x3cd9a567	0.026568128
7	0xbce6d9da	-0.028180052
8	0xbc4192df	-0.011814802
9	0xbc3a2f36	-0.011363795
10	0x3be14009	0.0068740887
11	0x3bb7391f	0.005591526
12	0x3c1b160d	0.009465707
13	0x3c7f95d8	0.01559969
14	0x3cc86101	0.024460318
15	0x3cc3bd30	0.023893923
16	0x3c8ae6a5	0.016955683
17	0x3cf9bf55	0.030486742
18	0x3cd6e3eb	0.026231727
19	0xbc1959cc	-0.009359788
20	0x3bf46c25	0.007459181
21	0xbc7d5d30	-0.015464112
22	0x3b3add5c	0.0028513288
23	0xbc15a5dd	-0.009133783
24	0x3ccf3f3b	0.025298705
25	0x3cfdd247	0.030984057
26	0x3b3f5c87	0.0029199438
27	0xbd11dd38	-0.03561136
28	0x3b27ce94	0.0025605308
29	0xbc5bf283	-0.0134245185
30	0x3c8c4c34	0.01712618
31	0xbafb3506	-0.0019165582
32	0xb99f8562	-0.0003042622
33	0x3c6bdd38	0.014396004
34	0x3ca73c28	0.020414427
35	0x3c8bdc8b	0.017072937
36	0xbc9bb0bd	-0.019005174
37	0x3d02c225	0.031923432
38	0x3ca6be8f	0.020354537
39	0x3d363739	0.04448626
40	0xbc35d2f3	-0.0110976575
41	0x3bcc0bdd	0.006227
42	0x3ba8cff6	0.005151744
43	0xbc83bc2b	-0.016080936
44	0x3c5b67e1	0.013391466
45	0xbc5ddb24	-0.013541017
46	0x3c774505	0.015092139
47	0xbb0f16e6	-0.0021833717
48	0xbbf59b48	-0.0074953176
49	0xbc47a8ae	-0.012186212
50	0x3c7015a3	0.014653596
51	0xbd1556cb	-0.036459725
52	0x3bac5b48	0.005259905
53	0xbc0bac06	-0.0085249
54	0x3c8f3041	0.017479064
55	0x3c838249	0.016053336
56	0x3ccb5989	0.024822967
57	0x3c179490	0.009251729
58	0xbbfb5615	-0.007670174
59	0x3cb7a8b9	0.02241932
60	0xbd280b77	-0.04102656
61	0xbc80da04	-0.015728958
62	0xbc305122	-0.010761531
63	0x3ca4bf83	0.020110851
64	0xbbcc6d10	-0.006238587
65	0x3b400e0e	0.0029305252
66	0xbc808db9	-0.015692579
67	0xbc0b11b4	-0.0084881075
68	0xbd81a76f	-0.063307635
69	0xbd08f7ec	-0.03343956
70	0xbc2d4f62	-0.010578008
71	0xbb9aac12	-0.0047202194
72	0xba93c554	-0.0011274018
73	0x3cff2922	0.031147543
74	0x3b85cca6	0.004083234
75	0xbcc21baa	-0.023694832
76	0x3bf2d07e	0.007410108
77	0xbd0815a3	-0.03322376
78	0x3bfd6ed7	0.0077341604
79	0x3d7c8eca	0.06165961
80	0xbce0ba32	-0.027432535
81	0xbba13e73	-0.0049207746
82	0x3c1216b2	0.008916544
83	0x3ccc7cc4	0.024961837
84	0x3c3b1bf7	0.011420242
85	0x3bb4ab0b	0.005513554
86	0xbb922c11	-0.0044608195
87	0xbd5a7b36	-0.05334016
88	0xbcb5c080	-0.022186518
89	0xbc6ac0a0	-0.014328152
90	0xbad2ce5d	-0.001608323
91	0x3ce3c7c6	0.02780522
92	0xbabb8e17	-0.0014309314
93	0xb8990233	-7.296018e-05
94	0xbb9c23dc	-0.004765017
95	0x3cc5566f	0.024089066
96	0xbb0784e7	-0.0020678581
97	0x3c1fc609	0.009751805
98	0xbc78d953	-0.015188533
99	0xbc59211c	-0.013252523
100	0xbcccc9a2	-0.02499849
101	0x3c93e90f	0.018055467
102	0xbd232f2a	-0.0398399
103	0x3c144cda	0.009051526
104	0x3cb1a3c0	0.021684527
105	0x3c31b99d	0.010847476
106	0xbc088071	-0.008331404
107	0xbd09637c	-0.03354214
108	0x3d0c21bf	0.03421187
109	0x3ab69ecf	0.0013932827
110	0x3ca3c9b5	0.019993642
111	0x3cf40457	0.029787226
112	0x3ce381d1	0.027771862
113	0xbbd02101	-0.0063515906
114	0xbbee7dec	-0.0072781947
115	0x3ba52331	0.0050395955
116	0x3cb8c2ad	0.022553766
117	0x3c4743a7	0.012162126
118	0x3cce55bd	0.025187368
119	0x3c526962	0.012842508
120	0x3d0d6d97	0.03452834
121	0x3c9929da	0.018696714
122	0xbb9eee82	-0.0048502097
123	0xbd3aa64a	-0.04556874
124	0xbccf4dc4	-0.025305636
125	0x3ca57436	0.020197015
126	0x3c0d0732	0.0086076725
127	0xbcf404bf	-0.02978742

action_model._discrete_distribution.branches.0.weight f4 [1, 128]
0	0xbb899cc8	-0.004199598
1	0xbbd1a11d	-0.00639738
2	0x3b284e97	0.0025681609
3	0xbc23c28b	-0.009995113
4	0x3b89fd8e	0.0042111343
5	0xbb5b0733	-0.003342104
6	0x39c26c17	0.00037083097
7	0xbbd0a7e2	-0.0063676694
8	0xbc4f2508	-0.012643106
9	0x3c0ecb48	0.008715458
10	0xbc04de41	-0.00810963
11	0xbc28b4ed	-0.010297042
12	0x3b4bb95f	0.0031085832
13	0xba3d1414	-0.00072127697
14	0xba93ad17	-0.0011266795
15	0xbaa91fb3	-0.0012903124
16	0x3a2dcc47	0.0006629866
17	0xbbf714cb	-0.0075403205
18	0xbb5064a7	-0.0031798275
19	0x3bdbcc83	0.0067077293
20	0x3c008799	0.007844829
21	0xb9ba72d0	-0.00035562227
22	0xbbe7cebb	-0.0070742047
23	0xbb9c054b	-0.004761373
24	0x3bf6c395	0.0075306394
25	0xbbb5c65b	-0.0055473275
26	0x3b0aef5c	0.0021199798
27	0xbb5bb107	-0.0033522265
28	0x38aef506	8.342606e-05
29	0x3ad7552f	0.0016428585
30	0xbae49a65	-0.0017441033
31	0x3bf6fb42	0.0075372765
32	0x3a4aafe0	0.0007731896
33	0x3c1f95d5	0.009740313
34	0x3a766272	0.0009398825
35	0xbc0d694c	-0.008631062
36	0x3bbd12e2	0.0057700733
37	0x3a759c5d	0.0009369308
38	0xbb0e272e	-0.0021690833
39	0xbbfe302a	-0.0077572064
40	0xbc543532	-0.012952136
41	0xbc5c4950	-0.013445213
42	0x3b292763	0.002581083
43	0x3c52c760	0.0128649175
44	0xbac75e23	-0.001521055
45	0xbc497a8d	-0.012297285
46	0xbbb45d3e	-0.0055042794
47	0xb9ff5078	-0.00048697344
48	0x3b853044	0.0040645916
49	0x3c479948	0.012182541
50	0x3aee4c3a	0.0018180676
51	0xbb8410c1	-0.0040303175
52	0x3be33fc3	0.006935091
53	0xbb7b6dab	-0.0038364928
54	0x3c2aecfb	0.010432477
55	0x3b872ba8	0.0041250773
56	0x3ba1ea32	0.0049412483
57	0xbbf4753a	-0.0074602636
58	0x3b35d674	0.0027746232
59	0xbaf7ee10	-0.0018915553
60	0xbb01b71b	-0.0019792977
61	0x3c32df03	0.010917428
62	0xbb6a43b2	-0.0035745916
63	0xbb052e1b	-0.002032167
64	0xbb222920	-0.002474375
65	0x3a905682	0.001101211
66	0x3c07a940	0.008280098
67	0x3b68828d	0.0035478205
68	0xbb95f4de	-0.0045763096
69	0xbb104767	-0.0022015215
70	0xbc1273b4	-0.008938719
71	0x3bd5ddfd	0.006526707
72	0xbaaeccc4	-0.0013336171
73	0x3bd78d15	0.0065780976
74	0x3b990c13	0.004670629
75	0xb9af1ece	-0.00033401552
76	0xbc0b2697	-0.008493087
77	0xbc6ffff2	-0.014648424
78	0x3a31a2b6	0.000677626
79	0xbc9167af	-0.017749636
80	0xbbe752f3	-0.007059449
81	0x3b9bdf64	0.004756855
82	0x3c551fd0	0.013008073
83	0xbb2078e1	-0.0024486112
84	0x3c288981	0.01028669
85	0x3c57ca72	0.013170825
86	0x3c547b32	0.012968825
87	0xbb5f2805	-0.0034050953
88	0xbc039dff	-0.008033275
89	0x3c2712f7	0.010197393
90	0x3bea067b	0.007141886
91	0xbb23d8a2	-0.002500095
92	0x3b7b9dba	0.0038393573
93	0xbb94d0e8	-0.004541505
94	0xbc8bc6d9	-0.017062591
95	0xbbb3d053	-0.0054874807
96	0x3b364f71	0.0027818347
97	0xbc167391	-0.009182827
98	0xbc8c4fdb	-0.017127922
99	0xbb1643a6	-0.0022928505
100	0x3bb75045	0.0055942857
101	0xbb0174e2	-0.0019753505
102	0x3aa0262b	0.0012218406
103	0x3c445636	0.011983445
104	0x3c025352	0.007954435
105	0x3bcdc310	0.006279357
106	0xba91a4e7	-0.0011111767
107	0xbc60272d	-0.013681215
108	0x3ba3027c	0.0049746614
109	0x3ae5b998	0.0017526625
110	0xbb751bea	-0.0037400671
111	0x3c82b5a4	0.015955754
112	0xbc6f1d75	-0.014594425
113	0xb9a437f7	-0.00031322215
114	0x3b5603c8	0.0032656062
115	0x3bfbf92f	0.007689617
116	0x3bbad61d	0.005701794
117	0x3c502260	0.012703508
118	0xbb7d7650	-0.0038675256
119	0xbbf68530	-0.0075232014
120	0x3bb2de38	0.0054586194
121	0x3b15ce26	0.002285847
122	0xbc50cdf8	-0.012744419
123	0x3c51ac8b	0.012797485
124	0x3c233631	0.009961651
125	0x39c9a54b	0.0003846086
126	0xbc7f3ec8	-0.015578933
127	0xbbc7ff3b	-0.006103424

exp_avg f4 [128, 6]
0	0x38b48072	8.606994e-05
1	0xb7549f54	-1.2673281e-05
2	0x00000000	0.0
3	0xb84983b4	-4.8044792e-05
4	0x33bdeb39	8.843785e-08
5	0x00000000	0.0
6	0xb85ae0d8	-5.2184652e-05
7	0xb8ab79b9	-8.176588e-05
8	0x00000000	0.0
9	0xb89c3eca	-7.450355e-05
10	0xb59b7298	-1.1581751e-06
11	0x00000000	0.0
12	0xb9678996	-0.00022081131
13	0xb93ff0fc	-0.00018304953
14	0x00000000	0.0
15	0xb923519a	-0.0001557529
16	0xb60d46c8	-2.1051837e-06
17	0x00000000	0.0
18	0xb71314ac	-8.766696e-06
19	0xb78b7d63	-1.6628479e-05
20	0x00000000	0.0
21	0xb7ad5b11	-2.0665613e-05
22	0xb44d8e36	-1.9143849e-07
23	0x00000000	0.0
24	0xb7496e0b	-1.2006155e-05
25	0xb5798822	-9.295783e-07
26	0x00000000	0.0
27	0x36a3ba88	4.8794936e-06
28	0xb31e536f	-3.6863124e-08
29	0x00000000	0.0
30	0xb8253737	-3.939049e-05
31	0xb7e6795e	-2.7474653e-05
32	0x00000000	0.0
33	0x38240ae6	3.9110797e-05
34	0xb5311d70	-6.5980475e-07
35	0x00000000	0.0
36	0x389b3f20	7.402734e-05
37	0xb710de68	-8.634852e-06
38	0x00000000	0.0
39	0x38dee5d2	0.00010628592
40	0x34f662cc	4.5892955e-07
41	0x00000000	0.0
42	0xb845980a	-4.7110057e-05
43	0xb71694fc	-8.975385e-06
44	0x00000000	0.0
45	0xb890df2f	-6.908026e-05
46	0xb4f93fb8	-4.6426226e-07
47	0x00000000	0.0
48	0xb80e692b	-3.3953384e-05
49	0x37d92d42	2.588949e-05
50	0x00000000	0.0
51	0xb8717885	-5.757112e-05
52	0xb493b2b4	-2.7510907e-07
53	0x00000000	0.0
54	0x381fbb4a	3.808298e-05
55	0x38086752	3.252115e-05
56	0x00000000	0.0
57	0x34e86680	4.3287946e-07
58	0x349859d7	2.8377573e-07
59	0x00000000	0.0
60	0x38a78f34	7.989854e-05
61	0x377dd092	1.5128537e-05
62	0x00000000	0.0
63	0x370556b7	7.947608e-06
64	0x34623e95	2.1070657e-07
65	0x00000000	0.0
66	0x38fb659c	0.00011987539
67	0xb75353a8	-1.2596058e-05
68	0x00000000	0.0
69	0x3903495f	0.00012520466
70	0x355736b8	8.017337e-07
71	0x00000000	0.0
72	0xb884261f	-6.301351e-05
73	0xb7b978aa	-2.2109907e-05
74	0x00000000	0.0
75	0xb8408160	-4.5896857e-05
76	0xb4eb2235	-4.379705e-07
77	0x00000000	0.0
78	0x384b1918	4.8422342e-05
79	0x383c05ae	4.4827982e-05
80	0x00000000	0.0
81	0xb8ed894a	-0.00011326613
82	0x349e8315	2.9525168e-07
83	0x00000000	0.0
84	0x38029d94	3.114117e-05
85	0x378e1208	1.6936116e-05
86	0x00000000	0.0
87	0x3781f371	1.549136e-05
88	0x344334e8	1.8180037e-07
89	0x00000000	0.0
90	0x392130b1	0.00015372295
91	0x38263aae	3.9632134e-05
92	0x00000000	0.0
93	0x3935b26c	0.00017327972
94	0x357c351c	9.39546e-07
95	0x00000000	0.0
96	0xb8030e93	-3.1246407e-05
97	0xb880e96e	-6.146995e-05
98	0x00000000	0.0
99	0x38ab9234	8.181148e-05
100	0xb4cf3c72	-3.8600734e-07
101	0x00000000	0.0
102	0x368c01e2	4.1725443e-06
103	0x36d4e2b4	6.344484e-06
104	0x00000000	0.0
105	0xb624162c	-2.445081e-06
106	0xb2e81cc6	-2.702144e-08
107	0x00000000	0.0
108	0x38d894bb	0.00010327386
109	0x38073455	3.2235246e-05
110	0x00000000	0.0
111	0xb808d486	-3.2622855e-05
112	0x34bfb1d6	3.5705915e-07
113	0x00000000	0.0
114	0x37675165	1.3787624e-05
115	0x37a68826	1.9852141e-05
116	0x00000000	0.0
117	0xb55d8798	-8.252623e-07
118	0x34225bcf	1.5120825e-07
119	0x00000000	0.0
120	0x374ea6da	1.2317405e-05
121	0x3809c46c	3.2846277e-05
122	0x00000000	0.0
123	0xb88c1925	-6.680404e-05
124	0x3475368a	2.2837244e-07
125	0x00000000	0.0
126	0xb8791b31	-5.939155e-05
127	0x37323300	1.0621501e-05
128	0x00000000	0.0
129	0xb87f9e27	-6.094403e-05
130	0xb4438549	-1.8209279e-07
131	0x00000000	0.0
132	0xb76390be	-1.3563955e-05
133	0x373b386b	1.1159204e-05
134	0x00000000	0.0
135	0x377bbd48	1.5004836e-05
136	0x3354136b	4.9377757e-08
137	0x00000000	0.0
138	0xb9309d5f	-0.00016843293
139	0xb857cc9a	-5.1450545e-05
140	0x00000000	0.0
141	0xb90387d5	-0.00012543735
142	0xb53dd9d6	-7.072498e-07
143	0x00000000	0.0
144	0x38d4aeee	0.00010141531
145	0x37bc6724	2.2459375e-05
146	0x00000000	0.0
147	0x38dd2875	0.00010545637
148	0x3502e9a9	4.8768794e-07
149	0x00000000	0.0
150	0x3760c7ba	1.3397943e-05
151	0xb647c3fa	-2.9767384e-06
152	0x00000000	0.0
153	0x380c0d47	3.3390967e-05
154	0xb3b90de1	-8.6172584e-08
155	0x00000000	0.0
156	0xb6efe6c7	-7.149621e-06
157	0xb7018818	-7.720686e-06
158	0x00000000	0.0
159	0x3835b77a	4.332464e-05
160	0x341bda74	1.4514973e-07
161	0x00000000	0.0
162	0x374ac5b0	1.2086166e-05
163	0x36318678	2.6453326e-06
164	0x00000000	0.0
165	0x378f0d0b	1.7053002e-05
166	0xb3512e76	-4.870386e-08
167	0x00000000	0.0
168	0x37c939cc	2.3987981e-05
169	0x384d6a74	4.897495e-05
170	0x00000000	0.0
171	0x3707b2ee	8.088287e-06
172	0x34d07fce	3.883601e-07
173	0x00000000	0.0
174	0xb7b757d8	-2.1856205e-05
175	0xb600067c	-1.907726e-06
176	0x00000000	0.0
177	0x37e33bf3	2.7088425e-05
178	0xb389a880	-6.4102096e-08
179	0x00000000	0.0
180	0x38a22f2a	7.733547e-05
181	0x384c72de	4.874437e-05
182	0x00000000	0.0
183	0xb8fc1e96	-0.000120219935
184	0x349e3733	2.9469956e-07
185	0x00000000	0.0
186	0xb8698535	-5.5675588e-05
187	0xb72603c3	-9.895247e-06
188	0x00000000	0.0
189	0x384d1d8a	4.890332e-05
190	0x33c5b08b	9.20564e-08
191	0x00000000	0.0
192	0xb8709dcd	-5.7367422e-05
193	0xb7978bda	-1.8065726e-05
194	0x00000000	0.0
195	0xb63ffa70	-2.8606992e-06
196	0xb3681445	-5.4035144e-08
197	0x00000000	0.0
198	0xb686c3c0	-4.0162995e-06
199	0x351f9860	5.945385e-07
200	0x00000000	0.0
201	0xb6119a0a	-2.1696346e-06
202	0xb28e0df4	-1.653732e-08
203	0x00000000	0.0
204	0x37c97d5f	2.4019448e-05
205	0x379445f9	1.7675558e-05
206	0x00000000	0.0
207	0xb76b9047	-1.4040684e-05
208	0x3414ab7c	1.384596e-07
209	0x00000000	0.0
210	0x383fd228	4.5733672e-05
211	0x3806ce02	3.213995e-05
212	0x00000000	0.0
213	0x38065cb1	3.2034415e-05
214	0x34d5c72a	3.9819253e-07
215	0x00000000	0.0
216	0x3770da14	1.435589e-05
217	0x3803402e	3.1292606e-05
218	0x00000000	0.0
219	0xb8e7b50c	-0.00011048661
220	0x34c78162	3.7160777e-07
221	0x00000000	0.0
222	0x36daac52	6.516967e-06
223	0x34c2ed00	3.6307756e-07
224	0x00000000	0.0
225	0x37d466de	2.532027e-05
226	0x3398c11a	7.1131765e-08
227	0x00000000	0.0
228	0x389a1012	7.3462856e-05
229	0x38829ff0	6.228674e-05
230	0x00000000	0.0
231	0xb81effd4	-3.7908394e-05
232	0x354b3679	7.570266e-07
233	0x00000000	0.0
234	0x388a980e	6.608675e-05
235	0x36074d60	2.0161606e-06
236	0x00000000	0.0
237	0x3868b970	5.5485812e-05
238	0x34cb897b	3.7911727e-07
239	0x00000000	0.0
240	0xb82381e1	-3.8983188e-05
241	0x37b79f17	2.1889382e-05
242	0x00000000	0.0
243	0xb81dd2c2	-3.7628e-05
244	0xb44e0f65	-1.9190846e-07
245	0x00000000	0.0
246	0x382e0c6a	4.1496394e-05
247	0x37d3fd46	2.52711e-05
248	0x00000000	0.0
249	0xb890a849	-6.8978006e-05
250	0x34a4b23b	3.067706e-07
251	0x00000000	0.0
252	0xb891666e	-6.933218e-05
253	0xb7469564	-1.1836502e-05
254	0x00000000	0.0
255	0xb8218ebb	-3.851832e-05

exp_avg_sq f4 [128, 6]
0	0x3349a388	4.694769e-08
1	0x339a6c93	7.1909334e-08
2	0x00000000	0.0
3	0x3385b356	6.225916e-08
4	0x2c806ff0	3.6504064e-12
5	0x00000000	0.0
6	0x34db87a1	4.0890612e-07
7	0x34bf0d74	3.558631e-07
8	0x00000000	0.0
9	0x34ca8b69	3.7726866e-07
10	0x2dcd2baa	2.3325192e-11
11	0x00000000	0.0
12	0x352f8177	6.5380976e-07
13	0x35226e8f	6.0510587e-07
14	0x00000000	0.0
15	0x353316ed	6.671606e-07
16	0x2e4e1d29	4.6864877e-11
17	0x00000000	0.0
18	0x3265aaa6	1.3368355e-08
19	0x32194e81	8.923622e-09
20	0x00000000	0.0
21	0x320d470d	8.223435e-09
22	0x2b4a7814	7.193146e-13
23	0x00000000	0.0
24	0x3232b862	1.0402887e-08
25	0x3257cca1	1.2561174e-08
26	0x00000000	0.0
27	0x327ea687	1.482261e-08
28	0x2bdb7310	1.5592822e-12
29	0x00000000	0.0
30	0x3399d62a	7.163574e-08
31	0x33a137a8	7.5072705e-08
32	0x00000000	0.0
33	0x33c67551	9.241433e-08
34	0x2caabcac	4.8526374e-12
35	0x00000000	0.0
36	0x33af50fe	8.163805e-08
37	0x33c9fe0f	9.406005e-08
38	0x00000000	0.0
39	0x33f7126e	1.1505186e-07
40	0x2cd8c497	6.160915e-12
41	0x00000000	0.0
42	0x33b2cb6f	8.325775e-08
43	0x33848d1e	6.172398e-08
44	0x00000000	0.0
45	0x337ff69b	5.95961e-08
46	0x2c9f9f00	4.5367043e-12
47	0x00000000	0.0
48	0x32bf874e	2.2296856e-08
49	0x32f30d8c	2.8295084e-08
50	0x00000000	0.0
51	0x32d8a343	2.5219952e-08
52	0x2b876666	9.620748e-13
53	0x00000000	0.0
54	0x32efc7a9	2.7914057e-08
55	0x330bec2d	3.257826e-08
56	0x00000000	0.0
57	0x3302b232	3.043005e-08
58	0x2c745506	3.4721683e-12
59	0x00000000	0.0
60	0x3268ed08	1.3558072e-08
61	0x329ecf99	1.8488025e-08
62	0x00000000	0.0
63	0x32621849	1.3160453e-08
64	0x2b883f97	9.681031e-13
65	0x00000000	0.0
66	0x33add09a	8.093885e-08
67	0x34082c0a	1.2682008e-07
68	0x00000000	0.0
69	0x342ea937	1.6266573e-07
70	0x2cd26125	5.979344e-12
71	0x00000000	0.0
72	0x334a3f3b	4.7089298e-08
73	0x33540649	4.9365813e-08
74	0x00000000	0.0
75	0x3338aa7d	4.2995897e-08
76	0x2c8a5ec9	3.932719e-12
77	0x00000000	0.0
78	0x33808a3e	5.9856106e-08
79	0x33a20231	7.5441115e-08
80	0x00000000	0.0
81	0x33dc6325	1.02625826e-07
82	0x2cb345c6	5.0952324e-12
83	0x00000000	0.0
84	0x31a786bb	4.8756568e-09
85	0x31e5664a	6.676406e-09
86	0x00000000	0.0
87	0x31fb43cf	7.3127704e-09
88	0x2abc0295	3.33973e-13
89	0x00000000	0.0
90	0x343d389d	1.7622592e-07
91	0x3440578f	1.7913247e-07
92	0x00000000	0.0
93	0x34813f70	2.407428e-07
94	0x2d549d2c	1.2085704e-11
95	0x00000000	0.0
96	0x334054aa	4.4780485e-08
97	0x33700f1a	5.589309e-08
98	0x00000000	0.0
99	0x33b26828	8.307717e-08
100	0x2cb43da5	5.1227516e-12
101	0x00000000	0.0
102	0x318d56a8	4.1134918e-09
103	0x3116326b	2.1856532e-09
104	0x00000000	0.0
105	0x30fcf5c6	1.8405266e-09
106	0x2a935d49	2.6177175e-13
107	0x00000000	0.0
108	0x33d2c2f6	9.81435e-08
109	0x340ab465	1.2917879e-07
110	0x00000000	0.0
111	0x340faa87	1.337995e-07
112	0x2cfdd1eb	7.213998e-12
113	0x00000000	0.0
114	0x31beab85	5.5492273e-09
115	0x3237dac3	1.0701743e-08
116	0x00000000	0.0
117	0x32030382	7.626001e-09
118	0x2b779a7e	8.796643e-13
119	0x00000000	0.0
120	0x32b69a2d	2.12577e-08
121	0x32d2d0e1	2.4542205e-08
122	0x00000000	0.0
123	0x33507089	4.8531124e-08
124	0x2bf30477	1.7267428e-12
125	0x00000000	0.0
126	0x335cb8e2	5.139089e-08
127	0x338a3bb7	6.436988e-08
128	0x00000000	0.0
129	0x33bd165f	8.8050676e-08
130	0x2cb128a0	5.035153e-12
131	0x00000000	0.0
132	0x32aaef43	1.9899408e-08
133	0x32b51c78	2.108412e-08
134	0x00000000	0.0
135	0x327f639c	1.4865602e-08
136	0x2c5867c3	3.0753046e-12
137	0x00000000	0.0
138	0x343feeb8	1.7875107e-07
139	0x346654a5	2.1451213e-07
140	0x00000000	0.0
141	0x348eaa42	2.657344e-07
142	0x2dae9088	1.9845695e-11
143	0x00000000	0.0
144	0x32fa0d35	2.9109836e-08
145	0x3311bbe4	3.393133e-08
146	0x00000000	0.0
147	0x3384ed8b	6.189938e-08
148	0x2c0be48a	1.9879953e-12
149	0x00000000	0.0
150	0x314cc582	2.9798177e-09
151	0x3169c19e	3.4016021e-09
152	0x00000000	0.0
153	0x31d2cc6a	6.1350436e-09
154	0x2a42fb64	1.731788e-13
155	0x00000000	0.0
156	0x31b99f43	5.4023146e-09
157	0x3201bac4	7.551254e-09
158	0x00000000	0.0
159	0x32126adb	8.522615e-09
160	0x2b07f7f5	4.8305744e-13
161	0x00000000	0.0
162	0x31d0e0cf	6.0791545e-09
163	0x31f4b511	7.1219195e-09
164	0x00000000	0.0
165	0x3259ed18	1.2684971e-08
166	0x2b32f0c7	6.357245e-13
167	0x00000000	0.0
168	0x32dafcfd	2.5493586e-08
169	0x331388c2	3.4350485e-08
170	0x00000000	0.0
171	0x32d9c4e5	2.5351662e-08
172	0x2c4966b3	2.8620827e-12
173	0x00000000	0.0
174	0x32850f37	1.5490157e-08
175	0x32bf597c	2.227602e-08
176	0x00000000	0.0
177	0x323356c5	1.04389e-08
178	0x2bd3c91c	1.5048271e-12
179	0x00000000	0.0
180	0x3416f0cd	1.4057441e-07
181	0x342933ab	1.5758148e-07
182	0x00000000	0.0
183	0x3440444c	1.790624e-07
184	0x2d3a25ee	1.0581298e-11
185	0x00000000	0.0
186	0x329bbde2	1.8130724e-08
187	0x3282d303	1.5229949e-08
188	0x00000000	0.0
189	0x328331a7	1.5272986e-08
190	0x2bf73ee9	1.7567867e-12
191	0x00000000	0.0
192	0x32380b3e	1.0712766e-08
193	0x32901887	1.677496e-08
194	0x00000000	0.0
195	0x3268feb3	1.3562089e-08
196	0x2c07bb2f	1.9288562e-12
197	0x00000000	0.0
198	0x319f4b1d	4.6360484e-09
199	0x31acfe11	5.034743e-09
200	0x00000000	0.0
201	0x31713d43	3.510494e-09
202	0x2b24dffb	5.857534e-13
203	0x00000000	0.0
204	0x31ecb072	6.8885635e-09
205	0x321107de	8.4419e-09
206	0x00000000	0.0
207	0x32307a3c	1.0272341e-08
208	0x2b8a7c92	9.840065e-13
209	0x00000000	0.0
210	0x32928eef	1.7061636e-08
211	0x32de7e69	2.5901686e-08
212	0x00000000	0.0
213	0x32ceedef	2.4089756e-08
214	0x2c1943ee	2.1780316e-12
215	0x00000000	0.0
216	0x339272ce	6.819538e-08
217	0x33948ff1	6.91797e-08
218	0x00000000	0.0
219	0x340c2e6e	1.3055407e-07
220	0x2cc20a9e	5.5149904e-12
221	0x00000000	0.0
222	0x3235a396	1.0572782e-08
223	0x324e1456	1.1995402e-08
224	0x00000000	0.0
225	0x3250d14d	1.2154783e-08
226	0x2b935aa0	1.0470132e-12
227	0x00000000	0.0
228	0x34020700	1.210974e-07
229	0x341f474e	1.483397e-07
230	0x00000000	0.0
231	0x341cff14	1.4621429e-07
232	0x2d62b832	1.2887512e-11
233	0x00000000	0.0
234	0x325feb5b	1.3033822e-08
235	0x32985b6a	1.77367e-08
236	0x00000000	0.0
237	0x32d969fe	2.5310325e-08
238	0x2b816bf1	9.195961e-13
239	0x00000000	0.0
240	0x323d156a	1.1006117e-08
241	0x324cf5a3	1.1930214e-08
242	0x00000000	0.0
243	0x32a3facb	1.9089745e-08
244	0x2b05fb8d	4.760019e-13
245	0x00000000	0.0
246	0x330f12c2	3.3311842e-08
247	0x333b4fa3	4.361176e-08
248	0x00000000	0.0
249	0x335c2c6e	5.126315e-08
250	0x2c556b70	3.032876e-12
251	0x00000000	0.0
252	0x3330dd23	4.1179316e-08
253	0x335398bc	4.9266177e-08
254	0x00000000	0.0
255	0x3386091c	6.241518e-08

exp_avg f4 [128]
0	0xb7553dd7	-1.2710188e-05
1	0x392e8983	0.0001664516
2	0x399ea031	0.0003025546
3	0x37e6cc68	2.751332e-05
4	0x36b1c4d7	5.2979262e-06
5	0x38c6dd8b	9.482641e-05
6	0xb88a524e	-6.595683e-05
7	0x388bedc1	6.6723216e-05
8	0x3825d602	3.9538376e-05
9	0xb82b0f67	-4.078392e-05
10	0xb7fe0730	-3.0282506e-05
11	0xb8f1a488	-0.00011522422
12	0x38840123	6.294462e-05
13	0xb831fa66	-4.243329e-05
14	0xb7db2dc3	-2.6128144e-05
15	0xb90d96f8	-0.00013503048
16	0x3868af82	5.5476565e-05
17	0x36824ef3	3.883493e-06
18	0xb8573c41	-5.131611e-05
19	0xb7b64c02	-2.1731485e-05
20	0xb809a9ba	-3.2821416e-05
21	0x37db8800	2.6170164e-05
22	0xb6ee1e99	-7.0965148e-06
23	0x38d52a53	0.00010164515
24	0xb892fd43	-7.008996e-05
25	0x374fc78b	1.2384621e-05
26	0xb7aefe1f	-2.086075e-05
27	0x36eadeb2	6.9996686e-06
28	0xb86a1a92	-5.5814693e-05
29	0x371a902c	9.212683e-06
30	0xb831a529	-4.2353906e-05
31	0xb75df776	-1.3230243e-05
32	0x37024a2a	7.7658715e-06
33	0x361f7fda	2.3767266e-06
34	0xb7a6ed59	-1.9899266e-05
35	0xb87007df	-5.722779e-05
36	0xb860016a	-5.340708e-05
37	0xb72b835e	-1.0222981e-05
38	0xb8e42b01	-0.00010879897
39	0xb8648837	-5.4486296e-05
40	0x37e75d79	2.7580872e-05
41	0xb838ebeb	-4.4088734e-05
42	0x37e77726	2.7592829e-05
43	0x38ad81fb	8.2734936e-05
44	0x36c3b324	5.8323076e-06
45	0xb86aed48	-5.6010933e-05
46	0x3553c480	7.888957e-07
47	0xb43f1740	-1.779672e-07
48	0xb8749364	-5.83114e-05
49	0xb7c8acd2	-2.3922334e-05
50	0xb85b1d63	-5.2241037e-05
51	0xb8b84fbc	-8.7886554e-05
52	0x38d5a83a	0.00010187966
53	0xb70e247a	-8.472352e-06
54	0xb683f7f0	-3.932968e-06
55	0xb805a37c	-3.1861928e-05
56	0xb81810dc	-3.6255326e-05
57	0x37fa504e	2.9839717e-05
58	0xb83020e7	-4.1992313e-05
59	0x379a128c	1.8366867e-05
60	0x3787ec27	1.6203221e-05
61	0xb7b52a50	-2.1596585e-05
62	0xb80f511a	-3.416939e-05
63	0xb6f7cc8e	-7.384987e-06
64	0xb888ccf2	-6.5231594e-05
65	0x383bbb40	4.4758664e-05
66	0xb8b38f35	-8.5620595e-05
67	0xb8858582	-6.366802e-05
68	0x38cfe33e	9.912856e-05
69	0xb8ab8d2c	-8.180211e-05
70	0x38e77a52	0.00011037722
71	0xb60cea48	-2.0997995e-06
72	0x38f1d678	0.000115317234
73	0xb7a34ecc	-1.9467807e-05
74	0x393a47b3	0.00017765052
75	0x37677272	1.3795319e-05
76	0xb7413d06	-1.1517905e-05
77	0xb7fbe86c	-3.0029762e-05
78	0xb8234a70	-3.8931554e-05
79	0x3798f139	1.823214e-05
80	0x36977612	4.513896e-06
81	0xb7fd5998	-3.020167e-05
82	0xb79ab1b7	-1.8440986e-05
83	0x359597f0	1.1145585e-06
84	0xb856edb0	-5.124294e-05
85	0x37b1df3a	2.1203992e-05
86	0x37bdbc42	2.261822e-05
87	0xb661e1e4	-3.3659098e-06
88	0xb73f2302	-1.1392638e-05
89	0xb921ab53	-0.0001541798
90	0xb904c4f7	-0.00012661876
91	0x36729ef0	3.6153324e-06
92	0x38e4e4a4	0.00010914475
93	0x38342627	4.2950876e-05
94	0xb88834a0	-6.4947875e-05
95	0x356d9920	8.8512206e-07
96	0xb8af02b4	-8.345154e-05
97	0xb90b81db	-0.00013304448
98	0xb7f5f54d	-2.9320503e-05
99	0xb7b98dba	-2.2119715e-05
100	0x38f8bd7e	0.00011860857
101	0xb7ad9f53	-2.0697398e-05
102	0x3769efd2	1.394372e-05
103	0x36ac0e50	5.1276656e-06
104	0xb86e739d	-5.6851295e-05
105	0x3887cd52	6.4755455e-05
106	0xb8a796e2	-7.991285e-05
107	0x3925e9ed	0.0001582277
108	0x3103f000	1.9199433e-09
109	0xb80e12d0	-3.387296e-05
110	0x3968da9e	0.00022206685
111	0xb8bb1daa	-8.92238e-05
112	0xb885b33b	-6.3753185e-05
113	0x36fe7ce4	7.584329e-06
114	0xb7d604e8	-2.5513073e-05
115	0x383b119a	4.4600667e-05
116	0x3831be85	4.2377524e-05
117	0xb92feb5d	-0.0001677698
118	0x35e1fbe4	1.6837116e-06
119	0x3886cec2	6.4281296e-05
120	0xb922bb72	-0.00015519353
121	0x3826fe3e	3.9814266e-05
122	0x3896ba45	7.187253e-05
123	0xb92704d1	-0.00015928155
124	0xb7143a60	-8.835079e-06
125	0x38e1648a	0.00010747563
126	0xb7f71c6e	-2.9457933e-05
127	0x382717b0	3.9837963e-05

exp_avg_sq f4 [128]
0	0x335df037	5.1674046e-08
1	0x349a0892	2.869097e-07
2	0x35135e6a	5.489916e-07
3	0x31f961d7	7.257977e-09
4	0x322fa349	1.0223467e-08
5	0x3383a12d	6.1294806e-08
6	0x3393114d	6.848368e-08
7	0x3357f172	5.027818e-08
8	0x3285d783	1.5581241e-08
9	0x32f15cf1	2.8098357e-08
10	0x328c488e	1.6331139e-08
11	0x33c010f1	8.943778e-08
12	0x333ce956	4.398438e-08
13	0x3388147a	6.336718e-08
14	0x31aa5eb7	4.958419e-09
15	0x34225073	1.5116693e-07
16	0x336a203c	5.4511688e-08
17	0x3126a311	2.4248872e-09
18	0x33e214d9	1.0527737e-07
19	0x320b25d2	8.099464e-09
20	0x32ca7df0	2.3573165e-08
21	0x334e4756	4.8027992e-08
22	0x32b5eb4c	2.1178174e-08
23	0x345afcb3	2.0394764e-07
24	0x32fec49c	2.96589e-08
25	0x3128e643	2.4578106e-09
26	0x31c0378a	5.5942495e-09
27	0x31b4725c	5.2516906e-09
28	0x32e6e036	2.6877483e-08
29	0x32a0a9f6	1.870374e-08
30	0x340f674a	1.3355489e-07
31	0x32643fa9	1.3285821e-08
32	0x32ae6007	2.0299934e-08
33	0x31aa639d	4.958976e-09
34	0x3217446a	8.804912e-09
35	0x32c46f89	2.2868123e-08
36	0x33840ae5	6.148711e-08
37	0x3215964a	8.707113e-09
38	0x3414a5ae	1.3843848e-07
39	0x32653c44	1.3343257e-08
40	0x3205114f	7.745554e-09
41	0x33104f71	3.3599864e-08
42	0x3332e568	4.16525e-08
43	0x330cca9e	3.278057e-08
44	0x30dbfcba	1.6006176e-09
45	0x330946c8	3.1962173e-08
46	0x331f34cb	3.7068087e-08
47	0x32ba35b5	2.1677673e-08
48	0x328b9f0f	1.6254061e-08
49	0x334b1231	4.7281166e-08
50	0x32d76325	2.507438e-08
51	0x3340d6ff	4.489902e-08
52	0x33a31e38	7.595776e-08
53	0x31a84019	4.8967306e-09
54	0x33a7d328	7.8149526e-08
55	0x324ba329	1.18532535e-08
56	0x31e0a00e	6.537454e-09
57	0x3346b06d	4.6260926e-08
58	0x325aceee	1.273632e-08
59	0x3200642d	7.473358e-09
60	0x31edfec2	6.9265704e-09
61	0x31d5dc52	6.2241634e-09
62	0x32247414	9.5724495e-09
63	0x32266137	9.684576e-09
64	0x329f9c10	1.8581005e-08
65	0x32688800	1.35351e-08
66	0x3447e745	1.8617455e-07
67	0x335dcbd0	5.164094e-08
68	0x339b943a	7.244712e-08
69	0x331f6aff	3.7117385e-08
70	0x337a6df9	5.830768e-08
71	0x31f5d892	7.1550597e-09
72	0x33b8e1c5	8.609235e-08
73	0x32d47e79	2.4737561e-08
74	0x348fb482	2.6767162e-07
75	0x30956a8d	1.087146e-09
76	0x31d7899c	6.272968e-09
77	0x330d798b	3.2939663e-08
78	0x3228d83a	9.828051e-09
79	0x3221fa88	9.428398e-09
80	0x320c0cf8	8.152021e-09
81	0x32dce5ae	2.5715817e-08
82	0x31b1fa0e	5.179806e-09
83	0x327b44c9	1.4625763e-08
84	0x31c72831	5.7962315e-09
85	0x32c18151	2.2526963e-08
86	0x329ca7ac	1.8237039e-08
87	0x31b2f306	5.2081104e-09
88	0x31ddd307	6.4559376e-09
89	0x34133bdf	1.3712223e-07
90	0x34159d7f	1.3934003e-07
91	0x31a479c5	4.786872e-09
92	0x34244e94	1.5302277e-07
93	0x33219376	3.761985e-08
94	0x32c4d2c7	2.2913254e-08
95	0x328498f8	1.5436385e-08
96	0x33be3781	8.8576606e-08
97	0x345c6408	2.0525488e-07
98	0x328c6082	1.6342032e-08
99	0x32558649	1.2428765e-08
100	0x338190a0	6.033338e-08
101	0x3133291a	2.6071292e-09
102	0x3324ac9b	3.834121e-08
103	0x31f3b249	7.0924995e-09
104	0x329a8697	1.7989164e-08
105	0x33ce8062	9.615975e-08
106	0x32ae35eb	2.0280785e-08
107	0x3402817c	1.21543e-07
108	0x323ff496	1.1173276e-08
109	0x32d152ed	2.4368513e-08
110	0x34795f11	2.3224517e-07
111	0x3403fcb1	1.2292254e-07
112	0x3377aa50	5.7664067e-08
113	0x31847c2d	3.8558228e-09
114	0x328d2abd	1.6433995e-08
115	0x3268d724	1.3553095e-08
116	0x3326b8c4	3.881793e-08
117	0x3493cb61	2.752886e-07
118	0x30f9ab81	1.8165879e-09
119	0x32de9027	2.5909754e-08
120	0x34323751	1.6597666e-07
121	0x32b6c46f	2.1276916e-08
122	0x338a0b00	6.428127e-08
123	0x345aa1b8	2.0361665e-07
124	0x315b0e03	3.187666e-09
125	0x338382f0	6.12398e-08
126	0x328f7253	1.669938e-08
127	0x322bda4f	1.0003148e-08
