Assets/Models/results/SliderBehavior/SliderBehavior/SliderBehavior-1228.pt (torch, 445473 bytes, 33 tensors)

network_body._body_endoder.seq_layers.0.weight f4 [128, 6]
0	0x3ec2ea80	0.38069534
1	0xbe890013	-0.2675787
2	0x3f182f9e	0.5944766
3	0xbfcdd68e	-1.6081102
4	0xbf8133f4	-1.009398
5	0xbe0895e9	-0.13338436
6	0xbf2f71a4	-0.68532777
7	0x3cba9bca	0.022779364
8	0xbec68b7e	-0.387783
9	0x3f0d9ee5	0.5532058
10	0xbe8ce2e0	-0.27516842
11	0x3e269e90	0.16271424
12	0x3f01a8f4	0.50648427
13	0xbdba50ec	-0.09097466
14	0x3f7187c2	0.94347775
15	0x3e15ce59	0.14629497
16	0x3e1d2b8a	0.1534864
17	0x3f34f9ef	0.7069387
18	0xbf45cf20	-0.7726917
19	0xbf34c0bb	-0.70606583
20	0x3ed36ebe	0.41295427
21	0xbea6064c	-0.3242668
22	0x3e9f4ee1	0.31114867
23	0x3eb5e5e1	0.35526946
24	0x3f635e18	0.8881545
25	0xbe244193	-0.1604064
26	0xbdbf0e63	-0.09328916
27	0xbf1a80ad	-0.60352594
28	0xbf9cb8a2	-1.2243845
29	0x3f2e594e	0.6810502
30	0x3f5c5e64	0.8608153
31	0x3e59bedd	0.21264215
32	0x3f588902	0.8458406
33	0xbf25acfa	-0.64717066
34	0xbd712726	-0.058875225
35	0xbe0cfc6f	-0.13768171
36	0xbf8c18a3	-1.0945019
37	0xbe4ce53f	-0.20009325
38	0xbe1a6bb1	-0.15080144
39	0x3ef46fd9	0.47741583
40	0xbecdf1e1	-0.402236
41	0xbeb0a55d	-0.34501162
42	0x3c026a18	0.007959865
43	0x3e636ed7	0.22210251
44	0xbd7ae2ee	-0.061251573
45	0xbf421266	-0.75809324
46	0xbeef051a	-0.4668358
47	0xbe4178df	-0.18893765
48	0xbf037101	-0.51344305
49	0xbd4a4299	-0.04937992
50	0xbe496012	-0.19665554
51	0xbecc42c0	-0.39894676
52	0x3eaf76b0	0.3427024
53	0xbf4df5ea	-0.8045336
54	0x3ecb1d60	0.3967085
55	0xbf1ebe15	-0.6200879
56	0xbeccf92b	-0.4003385
57	0x3e16888a	0.14700523
58	0x3dd2faeb	0.10301765
59	0x3eabb2b8	0.3353479
60	0x3e418df4	0.18901807
61	0x3e212e34	0.15740281
62	0xbe8adf01	-0.27123263
63	0xbe7960e8	-0.24353373
64	0x3ddb33d7	0.10703247
65	0x3ab08f90	0.0013470519
66	0x3e0cb584	0.13741118
67	0xbe479527	-0.19490491
68	0x3e5bdffd	0.21472163
69	0xbef32103	-0.47486123
70	0x3ee16bb1	0.44027475
71	0xbea5b99c	-0.3236817
72	0x3ed880e4	0.42285836
73	0x3d0c147d	0.034199227
74	0x3f0ea2e0	0.5571728
75	0x3ec6a4fa	0.38797742
76	0x3e24acfa	0.1608161
77	0x3ed95e75	0.42454877
78	0x3d6b9439	0.057514403
79	0x3f4bfaec	0.7967975
80	0x3e58025b	0.21094649
81	0x3eaa3c62	0.33249193
82	0xbe7f93e5	-0.24958761
83	0x3e057790	0.1303389
84	0xbd1abea0	-0.03777945
85	0x3d1adf17	0.03781041
86	0x3d9db5a1	0.077006586
87	0x3dbbaf1b	0.09164258
88	0xbd84e496	-0.06488912
89	0x3ef095ec	0.4698938
90	0xbe1fcd06	-0.15605554
91	0xbb1e4df6	-0.0024155355
92	0x3e8097e1	0.25115874
93	0xbf282f3c	-0.65697074
94	0x3f59e29f	0.8511142
95	0xbed42faf	-0.4144263
96	0xbe96dc0a	-0.2946475
97	0x3e4d896d	0.20071955
98	0x3f04b57b	0.5183942
99	0x3dde0bde	0.10842107
100	0x3e9199df	0.28437707
101	0x3de095d5	0.10966078
102	0xbf100d8c	-0.5627067
103	0x3e538885	0.20657547
104	0x3f32fcb7	0.6991686
105	0xbe5a5bfe	-0.21324155
106	0x3f1f41ea	0.6220995
107	0x3ef37cbc	0.47556102
108	0xbebc8796	-0.36822194
109	0xbe8166d0	-0.25273752
110	0x3e516ffd	0.20452876
111	0x3e328c96	0.17436442
112	0xbe8dae9a	-0.27672273
113	0x3ed74ba7	0.42049906
114	0xbf3a3975	-0.7274392
115	0x3e3fcd51	0.18730666
116	0xbe97bd16	-0.2963645
117	0xbcc6ccc1	-0.024267556
118	0xbd0c6c95	-0.03428324
119	0x3dfadb2e	0.122488365
120	0xbd1e8b8a	-0.038707294
121	0x3f11a7db	0.5689675
122	0x3d1e3bbf	0.038631197
123	0xbf2fe5ff	-0.6871032
124	0xbe4fa22f	-0.20276712
125	0x3ef47e45	0.47752586
126	0x3ee1e4d8	0.44119906
127	0xbe15ea05	-0.14640053
128	0xbd92f115	-0.07174889
129	0x3e146ca2	0.14494565
130	0xbf14319f	-0.57888216
131	0x3dccb3de	0.099952444
132	0x3ee6bf6a	0.45067912
133	0x3d93f37f	0.072241776
134	0xbe3ee260	-0.18641043
135	0x3f2d616a	0.6772677
136	0x3eba2086	0.36352938
137	0x3c8aa06a	0.016922195
138	0x3f1bf14d	0.6091507
139	0x3f2f626f	0.6850957
140	0x3e6c22fe	0.23060223
141	0x3e490f04	0.19634634
142	0xbf528e5d	-0.8224848
143	0x3f0fc9f9	0.5616756
144	0xbe5628be	-0.2091398
145	0xbf0ce4ee	-0.5503682
146	0x3d1cec4f	0.0383113
147	0xbef8381e	-0.48480314
148	0xbf244f6e	-0.641837
149	0xbe6e153a	-0.23250285
150	0x3f887355	1.0660197
151	0x3dbc6fb5	0.09200994
152	0xbeb1c4f5	-0.3472058
153	0xbf234cf3	-0.6378929
154	0x3f3e0db5	0.74239665
155	0xbe750856	-0.23928961
156	0x3eedbd5c	0.46433532
157	0xbefa49bb	-0.48884377
158	0x3e6eab66	0.23307571
159	0x3e808f21	0.251092
160	0x3e2292bb	0.15876286
161	0x3f26c6db	0.6514718
162	0x3e6a5513	0.22884016
163	0xbe47ca22	-0.19510701
164	0x3edf987d	0.43671027
165	0xbeaadb58	-0.3337047
166	0x3e40a329	0.1881224
167	0x3cedaa47	0.029011859
168	0x3f242afc	0.6412809
169	0x3ea52353	0.32253513
170	0x3db8017f	0.0898466
171	0x3e3ba2c7	0.18323813
172	0x3cb18781	0.021671059
173	0xbf14f6d0	-0.58189106
174	0xbe211d08	-0.15733731
175	0xbeb1e509	-0.34745052
176	0x3f2f4817	0.68469375
177	0x3e49fb5b	0.19724791
178	0xbe1fed83	-0.15617947
179	0xbebfcabf	-0.3745937
180	0x3ecfa547	0.40555784
181	0xbe85a603	-0.2610322
182	0xbe49d016	-0.19708285
183	0x3e8d6c15	0.27621523
184	0xbe9abd79	-0.3022268
185	0xbec89bec	-0.3918146
186	0x3da3db81	0.080008514
187	0xbda3a6ec	-0.07990822
188	0x3e604691	0.21901919
189	0x3e164000	0.14672852
190	0x3d87d4a9	0.066323586
191	0x3ebddd70	0.37083006
192	0xbef68d53	-0.48154697
193	0xbec1c648	-0.3784659
194	0xbd98cdcd	-0.074611284
195	0x3d9c3011	0.076263554
196	0x3ea95013	0.33068904
197	0xbf467231	-0.7751799
198	0x3e64bc49	0.2233745
199	0xbf27a795	-0.65490085
200	0xbe997994	-0.2997557
201	0xbd9748d5	-0.073869385
202	0xbed56053	-0.41675052
203	0x3ec8387f	0.39105603
204	0x3ef45de4	0.47727883
205	0x3eb3ebc8	0.35140824
206	0xbe6cc14c	-0.23120612
207	0x3ea7441c	0.3266915
208	0x3cbf883d	0.023380393
209	0x3ed788c1	0.42096522
210	0x3e952c9b	0.29135594
211	0x3e07f4b0	0.13276935
212	0xbe566845	-0.20938213
213	0xbe2a9496	-0.16658244
214	0xbdcdad27	-0.10042792
215	0xbeb5647f	-0.35428235
216	0xbf3f6c91	-0.74775034
217	0xbea4b4c3	-0.3216916
218	0xbf0007c3	-0.50011843
219	0xbc997fa7	-0.018737627
220	0x3e318f8f	0.1733992
221	0x3d865a0e	0.06560145
222	0x3eb25233	0.34828338
223	0xbe42beca	-0.19018093
224	0xbdabbecc	-0.08386001
225	0xbd6b98c7	-0.057518747
226	0xbe9c6b43	-0.30550584
227	0x3ea62f85	0.3245813
228	0xbe2094e7	-0.15681802
229	0x3e930f55	0.28722635
230	0x3e98da38	0.29853988
231	0x3ef551ef	0.47914073
232	0x3dd2412f	0.10266339
233	0xbf1f2283	-0.62162036
234	0xbdb3e0a3	-0.087830804
235	0x3a0aed3d	0.00052996335
236	0xbebbf18c	-0.36707723
237	0x3eca3006	0.39489764
238	0xbaa4b724	-0.0012566787
239	0x3eddd686	0.4332773
240	0x3deb55a8	0.11490947
241	0x3ea99819	0.33123854
242	0x3d935011	0.07193006
243	0xbef2bcef	-0.4740977
244	0xbed83b7d	-0.42232886
245	0x3cbd646c	0.023119174
246	0xbe8ff21b	-0.281144
247	0xbe81e360	-0.25368786
248	0xbd37bde3	-0.044858824
249	0xbd95add8	-0.07308549
250	0xbf1f6bf6	-0.6227411
251	0x3e820d0c	0.2540058
252	0x3da56504	0.08075908
253	0x3e9d16ba	0.30681401
254	0x3e95b18c	0.2923702
255	0xbd1ebf09	-0.038756404

network_body._body_endoder.seq_layers.0.bias f4 [128]
0	0x3d0c4441	0.03424478
1	0xbd30459c	-0.043035135
2	0xbc4771a1	-0.012173087
3	0x3c95a5a6	0.018267464
4	0x3d9140bd	0.07092426
5	0x3cc1e87f	0.023670433
6	0xbc9c337c	-0.019067518
7	0x3ca0b56a	0.019617755
8	0x3c78dc82	0.015189292
9	0x3ca15aba	0.019696582
10	0x3bf8c7c3	0.007592173
11	0x3d574422	0.05255521
12	0xbcfa05de	-0.030520376
13	0xbc0b229a	-0.008492136
14	0x3b803160	0.003912136
15	0x3d0cf938	0.03441736
16	0xbc049e0a	-0.00809432
17	0xbc8631f8	-0.016381249
18	0xbca81d5e	-0.020521816
19	0xbcd58491	-0.02606419
20	0x3c7ee994	0.015558619
21	0xbc8835bc	-0.016627185
22	0xbb670fd6	-0.0035257242
23	0xbb87f12f	-0.0041486244
24	0x3cb46245	0.022019515
25	0x3cea7684	0.028620966
26	0x3c0fbaef	0.008772596
27	0x3d21a9c1	0.03946853
28	0xbc36204b	-0.011116098
29	0xbc31e30d	-0.010857356
30	0xbc3e4ad0	-0.011614516
31	0x3b1ad7d0	0.002362717
32	0xbca30cf5	-0.01990364
33	0x3c0f892d	0.008760733
34	0xbd361268	-0.044451147
35	0x3cd9a190	0.026566297
36	0x3bf83aeb	0.007575383
37	0xbcab59ba	-0.020916808
38	0x3ba315de	0.004976972
39	0xbc2b62fb	-0.0104606105
40	0xb99417c3	-0.00028246464
41	0x3cb2916c	0.021797858
42	0x3b96707f	0.0045910473
43	0xbc945945	-0.018108973
44	0xbce7e41f	-0.028307019
45	0xbc9bbed2	-0.019011889
46	0x3c264f94	0.010150809
47	0x3c8fde42	0.017562035
48	0xbc064bce	-0.008196784
49	0xbbdbdb50	-0.0067094937
50	0xbc847f48	-0.016173974
51	0x3b1ea7a1	0.0024208801
52	0xbcf36367	-0.029710485
53	0x3cd71812	0.026256595
54	0x3cdb0d91	0.026739867
55	0x3c6ef291	0.0145841995
56	0xba3be0f0	-0.0007167002
57	0x3d492950	0.049111664
58	0xbbf25701	-0.0073956256
59	0xbcbe506a	-0.023231704
60	0x3bfca4ce	0.007710076
61	0xb9af9653	-0.000334906
62	0xbc18a584	-0.009316806
63	0x3ce47fe4	0.027893014
64	0x3c8c397a	0.01711725
65	0x3d437e1d	0.047727693
66	0x3c93b6e6	0.018031549
67	0x3b932930	0.004490994
68	0xbc80b193	-0.015709674
69	0x3cb156fe	0.021647926
70	0x3bdfc92a	0.0068294005
71	0x3c8be783	0.017078167
72	0xbc513ae3	-0.012770387
73	0x3cddd7f5	0.027080515
74	0x3bbe45ca	0.0058066593
75	0xbd63289c	-0.05545865
76	0x3c6a69f1	0.014307485
77	0x3ca525db	0.020159652
78	0x3b9b7b01	0.004744888
79	0x3d1b098f	0.037850913
80	0xbccf9978	-0.025341734
81	0x3d588556	0.052861534
82	0xbc1bec6c	-0.009516817
83	0x3cfecbd9	0.031103062
84	0x3d7181e9	0.058961783
85	0xbbb52b05	-0.00552881
86	0x3d3a1818	0.045433134
87	0x3a8796af	0.001034459
88	0x3b776ccb	0.0037754055
89	0xbbf75f49	-0.0075492007
90	0xbbdd65b2	-0.006756508
91	0x3c8930cc	0.016746901
92	0xbc8702da	-0.016480852
93	0xbcad1dc6	-0.021132361
94	0x3ce12eec	0.027488194
95	0x3c560545	0.01306278
96	0xbca12fd4	-0.019676127
97	0x3c8471ae	0.016167488
98	0x3d3310e2	0.043717273
99	0xbc9b8201	-0.01898289
100	0xbb530163	-0.0032196871
101	0x3a82c1ed	0.0009976007
102	0xbcd35078	-0.025795206
103	0x3be80b93	0.007081458
104	0xbce4754d	-0.027887965
105	0x3daa2007	0.0830689
106	0xbbaf1f63	-0.0053443178
107	0x3c93ad6a	0.018027026
108	0xbbfd1660	-0.0077236146
109	0xbc9a052d	-0.018801296
110	0x3ca3a0ef	0.0199742
111	0x3a85eaf9	0.0010217122
112	0x3c0330c5	0.008007233
113	0x3d9eb9af	0.0775026
114	0x3cbb40ae	0.02285799
115	0xbc98abc4	-0.018636592
116	0x3cb2aac5	0.021809945
117	0xbbeba957	-0.0071918177
118	0xbbef5485	-0.0073037767
119	0x3d0af32c	0.033923313
120	0xbb2d7ff9	-0.0026473983
121	0x3c83fda6	0.01611216
122	0xbcf4e62b	-0.029894909
123	0x3b042497	0.002016341
124	0xbbd2845f	-0.0064244713
125	0xbc94b585	-0.018152962
126	0xbc74ef72	-0.014949666
127	0x3a44d17c	0.0007508022

network_body._body_endoder.seq_layers.2.weight f4 [128, 128]
0	0x3d920af0	0.071309924
1	0x3c81d9ea	0.01585098
2	0x3d8c8f7d	0.06863306
3	0x3da80d77	0.08205693
4	0xbd81ee15	-0.06344239
5	0xbae8153b	-0.0017706522
6	0x3c9c79ef	0.019101111
7	0x3d7aea89	0.061258826
8	0x3d6f47da	0.058418132
9	0x3e26047b	0.16212647
10	0x3e022d57	0.12712608
11	0x3d8e9fcc	0.069640726
12	0xbd63d60a	-0.055624045
13	0xbca13f64	-0.019683547
14	0xbd3a36ea	-0.045462526
15	0xbce3df31	-0.027816387
16	0xbd93b220	-0.07211709
17	0x3e112850	0.14175534
18	0x3d4a3de1	0.04937542
19	0xbdeabb26	-0.11461477
20	0x3d33798a	0.04381708
21	0x3d9f683d	0.07783554
22	0x3c475087	0.012165195
23	0x3dafe574	0.085886866
24	0x3e7c01b6	0.24610028
25	0x3dd203cc	0.102546304
26	0x3e1897a7	0.14901601
27	0x3d32c77c	0.043647274
28	0x3d882ed1	0.066495545
29	0xbca46fe5	-0.020072887
30	0xbe0654ad	-0.13118239
31	0x3d24f759	0.04027495
32	0xbcfb5f33	-0.030685043
33	0x3b6f9d96	0.0036562434
34	0xbdd2dc14	-0.10295883
35	0x3cc7b9ef	0.024380652
36	0xbca46f04	-0.020072468
37	0x3de07283	0.109593414
38	0x3df9a214	0.12189117
39	0x3e20d594	0.15706474
40	0x3e3fbb90	0.18723893
41	0x3e1a343d	0.1505899
42	0xbd204c83	-0.039135467
43	0xbdccb812	-0.09996046
44	0x3d05f1b7	0.03270122
45	0xbd721158	-0.05909857
46	0x3e1cfc4c	0.15330619
47	0x3ce6e7a5	0.028186629
48	0xbd5c222c	-0.053743526
49	0xbd4936c9	-0.049124513
50	0xbd1ab785	-0.037772674
51	0xbaac887f	-0.0013163238
52	0xbd67abed	-0.056560446
53	0xbdee879e	-0.11646961
54	0x3cc1d8c1	0.023662927
55	0x3dfb7911	0.12278951
56	0xbc8194e4	-0.015818067
57	0x3da9f040	0.08297777
58	0xbca9fd75	-0.02075074
59	0xbda298ff	-0.07939338
60	0xbbff8f29	-0.0077990484
61	0x3de105c0	0.10987425
62	0x3d9cabb9	0.07649941
63	0xbd769c72	-0.06020779
64	0x3e2d6574	0.16933233
65	0xbdeb19d6	-0.11479537
66	0x3d1dc158	0.038514465
67	0x3d6ddf44	0.05807425
68	0x3db5e622	0.08881785
69	0x3e951060	0.29114056
70	0xbc8969a1	-0.016774
71	0xbd6604ed	-0.05615704
72	0x3c8b10c7	0.016975773
73	0x3d471294	0.0486017
74	0xbda8dad0	-0.0824486
75	0xbe06a222	-0.13147786
76	0x3d5db404	0.054126754
77	0xbd9626bc	-0.07331607
78	0x3e2d6015	0.16931184
79	0x3cb3668d	0.021899486
80	0x3bcf0eae	0.0063188886
81	0x3e017738	0.12643135
82	0xbe288502	-0.16456988
83	0x3e0f2806	0.13980111
84	0xbc3eb3ac	-0.011639517
85	0x3df7c263	0.12097623
86	0x3dada22d	0.08478198
87	0x3e01b8d5	0.12668164
88	0x3d629dc3	0.055326235
89	0x3e1ce8e6	0.15323219
90	0x3d7231ec	0.05912964
91	0x3d341f8c	0.043975398
92	0xbb4f5b9a	-0.0031640292
93	0xbd52ab53	-0.05143292
94	0x3de7e4db	0.113229476
95	0xbcfefe04	-0.031126983
96	0xbd964161	-0.07336689
97	0xbd0ea152	-0.034821816
98	0x3dcb7b62	0.09935643
99	0x3e21c025	0.15795954
100	0x3dc609cc	0.09669837
101	0xbc32a5c7	-0.010903782
102	0xbc36a0ab	-0.011146705
103	0xbd43504b	-0.047683995
104	0xbdbe3c2b	-0.0928882
105	0x3d7ef1a9	0.062242184
106	0xbdc16eb9	-0.09444947
107	0x3dcc02c3	0.09961464
108	0xbdaca5e9	-0.08430082
109	0x3dede441	0.116158016
110	0x3ddb93b1	0.10721529
111	0x3cda9272	0.026681159
112	0x3d823b04	0.063589126
113	0xbcdb063b	-0.02673637
114	0xbd278b10	-0.040904105
115	0x3c75fb2e	0.015013499
116	0x3dbc2f0a	0.091886595
117	0xbdcc807d	-0.09985445
118	0x3c2e7cbb	0.010649855
119	0x3d2452b8	0.04011795
120	0xbce77e10	-0.028258353
121	0x3df940e0	0.12170577
122	0x3e46b803	0.19406132
123	0x3debb616	0.115093395
124	0x3d8d3f06	0.068967864
125	0xbe06e950	-0.13174939
126	0xbbc746d3	-0.006081441
127	0xbda1c70a	-0.07899292
128	0xbda9e473	-0.08295526
129	0x3b04b2a5	0.0020248082
130	0x3ccd3590	0.025049955
131	0x3c7a850e	0.015290512
132	0xbe169092	-0.14703587
133	0xbc6687c6	-0.014070457
134	0xbd6d7edb	-0.057982307
135	0x3bba99e1	0.0056946133
136	0xbce1cb06	-0.02756263
137	0xbc1bc0b3	-0.009506392
138	0xbd94812b	-0.07251199
139	0x3d8f2fff	0.069915764
140	0xbd9d448f	-0.07679092
141	0x3c921690	0.017833024
142	0x3e0cd451	0.13752867
143	0x3d9d98e3	0.076951765
144	0x3d200240	0.039064646
145	0x3d8b4ca4	0.068017274
146	0xbb3f8d6a	-0.0029228576
147	0xbd8d8c02	-0.0691147
148	0x3c37cb79	0.011217945
149	0xbc0c7a9d	-0.008574155
150	0x3c70e178	0.014702193
151	0xbde529ef	-0.11189639
152	0xbd91004d	-0.070801355
153	0x3cc0401f	0.023468075
154	0x3d50cd09	0.050976787
155	0xbdaff28a	-0.085911825
156	0xbca1da83	-0.019757515
157	0x3e2b1d39	0.16710366
158	0x3b2a8170	0.0026017092
159	0x3d96359b	0.07334443
160	0x3c0f340a	0.008740434
161	0xbd9b99d7	-0.07597702
162	0xbb987485	-0.004652562
163	0xbcf19f2c	-0.029494844
164	0xbde0c13e	-0.10974358
165	0x3db0850e	0.08619128
166	0x3c9743d5	0.018464962
167	0xbd9cc0a5	-0.076539315
168	0x3dc914f3	0.09818449
169	0x3d030a1c	0.031992063
170	0xbd18bfe8	-0.03729239
171	0xbc873bed	-0.016508067
172	0xbd6c7a5a	-0.05773387
173	0x3d5714f8	0.05251023
174	0xbd85dac1	-0.065358646
175	0x3dc75dc0	0.09734678
176	0x3e4b4fd2	0.19854668
177	0xbda671f1	-0.08127201
178	0xbca81ef3	-0.02052257
179	0x3e325e3a	0.17418757
180	0xbca13035	-0.019676307
181	0x3e3afeac	0.18261212
182	0xbd2aec0a	-0.04172901
183	0xbd936dfa	-0.07198711
184	0xbdbc0408	-0.091804564
185	0xbde50196	-0.11181943
186	0x3c958d91	0.01825598
187	0x3dab23ea	0.083564594
188	0xbe15c85e	-0.14627215
189	0x3d97b974	0.07408419
190	0x3db49c49	0.088188715
191	0x3d40444c	0.046940133
192	0xbdaa4e9a	-0.08315773
193	0xbd9d1e5b	-0.076718055
194	0xbd8087c0	-0.06275892
195	0x3e88f067	0.26745912
196	0xbdd865c3	-0.105662845
197	0x3d1f6509	0.038914714
198	0x3dedb280	0.11606312
199	0xbe193a12	-0.14963558
200	0xbdd2e218	-0.1029703
201	0xbdca8a4b	-0.098896585
202	0x3e5af463	0.21382289
203	0xbb08cdc3	-0.0020874597
204	0x3d8be6f0	0.06831157
205	0xbc9e5b3d	-0.019330615
206	0x3cacadf2	0.021079037
207	0xbcec8b8b	-0.028875133
208	0x3cc37b4c	0.023862503
209	0xbbe9315b	-0.0071164793
210	0x3cb72bb4	0.022359706
211	0x3e0ae479	0.13563718
212	0x3da71621	0.08158518
213	0xbda985f2	-0.08277501
214	0x3de3af29	0.111173935
215	0x3dcd6021	0.10028101
216	0x3d700eae	0.05860775
217	0x3b9793dc	0.0046257805
218	0xbbc7b645	-0.0060947263
219	0xbe238dac	-0.15972012
220	0x3da17104	0.07882884
221	0xbd4e1ecd	-0.050322343
222	0xbc1f55fd	-0.009725091
223	0xbe091f87	-0.13390933
224	0xbcd235c9	-0.025660412
225	0xbe37a65a	-0.17934552
226	0x3b3e0c80	0.002899915
227	0x3d513af5	0.051081616
228	0xbda751dd	-0.08169911
229	0xbc6ac49f	-0.014329105
230	0x3db929a8	0.090411484
231	0x3c06dece	0.008231832
232	0x3d7716d2	0.060324498
233	0x3d384a52	0.044992752
234	0xbda7ee36	-0.08199732
235	0xbd1c8684	-0.03821422
236	0x3e29bdc4	0.16576296
237	0xbd959e11	-0.073055394
238	0xbd3aea25	-0.045633454
239	0x3df481f4	0.11938849
240	0xbd417a6a	-0.047235884
241	0xbc66aaa6	-0.014078772
242	0x3d85149d	0.06498072
243	0x3cdc4d95	0.026892463
244	0xbe07c868	-0.13260043
245	0xbd6f876a	-0.05847875
246	0x3ddab8a4	0.10679749
247	0xbd99f664	-0.075176984
248	0x3d121968	0.03566876
249	0x3c8e1809	0.017345445
250	0xbdbe307e	-0.09286593
251	0xbda7000e	-0.08154307
252	0x3dc9e164	0.09857443
253	0x3ddc5912	0.10759176
254	0xbdaf9653	-0.08573594
255	0xbca582c4	-0.020203955

network_body._body_endoder.seq_layers.2.bias f4 [128]
0	0x3cc81ea3	0.024428671
1	0xbc029113	-0.007969159
2	0x3c8a62ec	0.016892873
3	0xbc7937c9	-0.015211054
4	0xbb83110a	-0.003999834
5	0xbc778466	-0.01510725
6	0x3d01d63e	0.031698458
7	0x3c3bcfa0	0.011463076
8	0x3cbc322a	0.022973139
9	0xbbcdb549	-0.0062777144
10	0xbb351273	-0.0027629405
11	0x3beb61d6	0.007183294
12	0xbc974cec	-0.018469296
13	0x3d200815	0.039070208
14	0x3c1cf57e	0.009580014
15	0x3c6e0f70	0.014530048
16	0xbc8a1c97	-0.016859336
17	0x39bc6b9b	0.00035938327
18	0xbbf8ee4e	-0.0075967675
19	0x3bea27ba	0.007145849
20	0x3c8a1aae	0.016858425
21	0xbc2cdb28	-0.010550298
22	0x3bdc3a05	0.0067207837
23	0xbc249307	-0.01004482
24	0xbc0fa098	-0.008766316
25	0xbc890ffc	-0.016731255
26	0xbb13e899	-0.002256906
27	0xbbed12a0	-0.0072348863
28	0xbc0a4a4e	-0.008440567
29	0xbb94c208	-0.004539732
30	0xbc61eb34	-0.013788987
31	0x3cbdd78a	0.023174066
32	0xbc8b4ea6	-0.017005276
33	0xba15c21e	-0.00057128246
34	0x3d12ad5a	0.035809852
35	0xbc878696	-0.016543668
36	0x3c1c8973	0.009554255
37	0xbc095d27	-0.008384026
38	0xba84f145	-0.0010142705
39	0xbc0c5257	-0.008564553
40	0x3d6481a8	0.055787712
41	0xbc39ad3c	-0.011332806
42	0xbcafc581	-0.021456482
43	0xbc318428	-0.010834731
44	0xbc0a58fe	-0.008444069
45	0xbc2033e4	-0.009777997
46	0xbc3f9859	-0.011694037
47	0xbcd1a0b7	-0.02558933
48	0x3d1a7d5b	0.037717205
49	0xbc49a5fc	-0.01230764
50	0x3cf231d2	0.029564772
51	0xbbef82e4	-0.0073093046
52	0xbbf05f71	-0.0073355963
53	0xb79a7c05	-1.8415982e-05
54	0x3c779eab	0.015113513
55	0xbc21eda4	-0.009883318
56	0xbc2a7c84	-0.010405663
57	0x3c27b0c3	0.010235014
58	0xbc1bdf99	-0.009513759
59	0xbb3e03f8	-0.0028994065
60	0xba9d60f2	-0.0012007041
61	0xbbfcfc7f	-0.0077205296
62	0xbc670ead	-0.01410262
63	0x3cbfd58c	0.023417257
64	0xbc0651bf	-0.008198201
65	0xbbe9ffa9	-0.007141073
66	0xbb0266f4	-0.001989779
67	0x3cd93459	0.02651422
68	0x3bd8ebb4	0.006619895
69	0x35e4c5b2	1.7044861e-06
70	0x3c38508f	0.011249675
71	0xbcbb6cb8	-0.02287899
72	0xbbb54b00	-0.0055326223
73	0xbbf459c4	-0.00745699
74	0x3cb187f4	0.021671273
75	0xbcbef12e	-0.023308363
76	0xbc62ce63	-0.013843152
77	0x3bc67e10	0.0060575083
78	0x3cd23b1c	0.025662951
79	0xbbe1cc24	-0.0068907905
80	0x3cb9aa29	0.022664146
81	0xbb8a4014	-0.0042190645
82	0xbc9adee6	-0.018905114
83	0x3d3510eb	0.044205587
84	0xbbe91348	-0.007112894
85	0xbc17fe13	-0.009276885
86	0xbc18cb0e	-0.009325756
87	0x3ba4b6da	0.0050266804
88	0xbc7263a3	-0.014794263
89	0x3d090b80	0.033458233
90	0xbc333063	-0.010936829
91	0x3cae063c	0.021243207
92	0xba433677	-0.00074467756
93	0xbc0c3321	-0.008557112
94	0xbbc998f8	-0.0061522685
95	0xbc565e9d	-0.013084081
96	0x3b1cab5a	0.0023905844
97	0xbb1a0e10	-0.0023506917
98	0x3bc0355f	0.0058657373
99	0x3d2879b6	0.041131698
100	0xbc98f41f	-0.018671094
101	0xbc0a28f0	-0.008432612
102	0xbbcb5287	-0.0062049064
103	0xba799b3a	-0.0009521727
104	0xbbe5dbe2	-0.0070147375
105	0x3b2126f5	0.002458987
106	0xbc2e29d1	-0.010630087
107	0xbbc0ca83	-0.0058835163
108	0xbca66a80	-0.020314455
109	0xbc19f956	-0.009397825
110	0x3c72d7c9	0.014821955
111	0x3ce089eb	0.027409514
112	0x3b606607	0.00342405
113	0xbb84311d	-0.004034175
114	0x3964337c	0.00021762954
115	0x3b899624	0.0041988064
116	0x3bd0cd21	0.0063721095
117	0x3b7be854	0.003843804
118	0xbc420c1b	-0.0118437065
119	0xbba86733	-0.0051392554
120	0xbbd890d6	-0.0066090627
121	0xbc6ecfd7	-0.01457592
122	0x3d06fdb9	0.032956813
123	0x3ca58569	0.020205216
124	0xbc4f01b4	-0.012634683
125	0xbc4c912a	-0.012485782
126	0xbc596298	-0.0132681355
127	0xbbae746f	-0.0053239386

action_model._continuous_distribution.mu.weight f4 [1, 128]
0	0xbd61f1bf	-0.055162188
1	0xba12edc8	-0.000560489
2	0xbd3288e8	-0.043587595
3	0xba864364	-0.0010243473
4	0xbbfe45c2	-0.0077597806
5	0xbba642b6	-0.0050738705
6	0xbd77a02b	-0.060455482
7	0xbd5c1efe	-0.053740494
8	0xbd68ca4a	-0.056833543
9	0xbbf819bb	-0.0075714267
10	0xbd04426b	-0.032289904
11	0xbd0870e4	-0.033310786
12	0xbc576b53	-0.013148147
13	0x3c867a9f	0.016415892
14	0xbd439973	-0.047753762
15	0xbd398807	-0.04529574
16	0xba5b02d4	-0.00083546084
17	0x3c6a00d4	0.014282424
18	0x3bc46b59	0.005994242
19	0xbd1ccefe	-0.03828334
20	0xbd8bb464	-0.06821516
21	0x3bf9d71a	0.007624519
22	0x3cfc16e3	0.030772632
23	0xbc8cc9fe	-0.017186161
24	0x3c242d23	0.010020527
25	0xb974489d	-0.00023296704
26	0x3c902c9e	0.0175994
27	0x3b2e65a2	0.002661087
28	0x3b036342	0.0020048176
29	0xbb67c0ab	-0.0035362642
30	0xbc0a710d	-0.008449805
31	0xbd7779e9	-0.060418997
32	0x3ac15f6b	0.0014753168
33	0x3ad850ad	0.0016503535
34	0xbdbce309	-0.09222991
35	0xbb1b14c7	-0.0023663507
36	0xbc2df865	-0.010618304
37	0x3ccdb1d4	0.02510921
38	0x3afabd07	0.0019129821
39	0x3cb3d27d	0.021950955
40	0xbda440ad	-0.080201484
41	0xbc8def56	-0.017326038
42	0x3687ca9a	4.0468994e-06
43	0xbc8b2478	-0.016985163
44	0xb95b0059	-0.00020885597
45	0xbc4373fe	-0.01192951
46	0xb9eb3d6e	-0.00044868462
47	0x3a06301b	0.00051188626
48	0xbd88ff70	-0.06689346
49	0x3c992a29	0.018696861
50	0xbd7922ce	-0.060824208
51	0x3b2efd1d	0.002670116
52	0x3a99d018	0.001173499
53	0xbcadc90f	-0.021214036
54	0xbd50e5d7	-0.051000442
55	0xbad08d75	-0.0015911298
56	0xbc138979	-0.009004944
57	0xbd59b273	-0.053148698
58	0x3a965c29	0.0011471558
59	0xbb95efdb	-0.004575712
60	0xbd22b9fd	-0.039728153
61	0x3c55b58a	0.013043771
62	0x3a96763e	0.0011479331
63	0xbd827e72	-0.06371774
64	0x39dec8c1	0.00042492713
65	0xbaf34b05	-0.0018561786
66	0xbcaab13b	-0.020836463
67	0xbd58e193	-0.0529495
68	0xbd115ee2	-0.035490878
69	0xbbf9aac8	-0.0076192357
70	0xbd368b28	-0.044566303
71	0xbbf4f64b	-0.0074756495
72	0x3b5c0729	0.0033573604
73	0xba0b9c52	-0.0005325723
74	0xbda245c3	-0.07923462
75	0xbae1c9d2	-0.0017226285
76	0x3abdbfe9	0.0014476749
77	0xbce3ce30	-0.027808279
78	0xbd959d89	-0.07305438
79	0x3bc3dc47	0.005977187
80	0xbd896cbd	-0.06710193
81	0x3be528d7	0.006993394
82	0xbbfd6730	-0.007733248
83	0xbda826a2	-0.082104936
84	0x3c0b7c02	0.0085134525
85	0x3c1b110d	0.009464514
86	0x3c56dfde	0.0131148975
87	0x3d08a845	0.0333636
88	0xbb2d5b6c	-0.0026452197
89	0xbd312141	-0.043244604
90	0x3bd7604c	0.006572759
91	0xbd663975	-0.05620714
92	0x3c3e5f5e	0.011619417
93	0x3c01b750	0.00791724
94	0x3c3854fc	0.011250731
95	0xbb9f20b3	-0.004856193
96	0xbc9b1157	-0.018929167
97	0x3c587666	0.013211822
98	0xbd1dc182	-0.03851462
99	0xbda1bece	-0.07897721
100	0xbbc3f9d3	-0.005980709
101	0xbbcf65fe	-0.006329297
102	0x3c7cced5	0.015430172
103	0xbb28f42d	-0.0025780306
104	0x39ec2a29	0.0004504484
105	0x3c1b4321	0.009476454
106	0x3abe5569	0.0014521304
107	0xbcfdf19b	-0.030998996
108	0xbc0f004d	-0.008728099
109	0x3c1b0402	0.009461405
110	0xbc96803a	-0.01837169
111	0xbd8b1212	-0.06790556
112	0xbc3e2f4c	-0.011607956
113	0x3c012e1b	0.007884528
114	0x3c0012c4	0.007816974
115	0xbd0114a8	-0.03151384
116	0xbd0998fa	-0.033593155
117	0x3c7d259f	0.015450864
118	0x3c0071fc	0.007839676
119	0x3c8f1823	0.017467564
120	0x3c9b4c70	0.018957347
121	0xbbaa5b90	-0.0051989034
122	0xbdee6fdc	-0.11642429
123	0xbd65a848	-0.05606869
124	0xbbe4f8bb	-0.006987659
125	0xbd1c2216	-0.038118444
126	0x3a9ca5e1	0.0011951291
127	0xb755d860	-1.2746168e-05

action_model._discrete_distribution.branches.0.weight f4 [1, 128]
0	0xba11e24e	-0.0005565033
1	0x3c5ab213	0.01334812
2	0xbc1197b0	-0.008886263
3	0xbbef50a2	-0.0073033134
4	0x3caa2577	0.020769818
5	0xbbcda412	-0.006275662
6	0xbc026df3	-0.007960784
7	0x3cb81889	0.022472637
8	0x3c55cf4f	0.0130499145
9	0xbc6e6f30	-0.014552876
10	0x3b245e61	0.0025080668
11	0xbb75ac08	-0.0037486572
12	0x3c6fb652	0.014630871
13	0xbcc00b74	-0.023442961
14	0xbc005ec8	-0.007835098
15	0x3c4222ee	0.011849148
16	0x3c1922cd	0.009346676
17	0x3c02807b	0.007965202
18	0x3c54785f	0.012968152
19	0xbca3f27b	-0.020013085
20	0xbc385a73	-0.0112520335
21	0x3b803bff	0.003913402
22	0xbc2becdd	-0.010493484
23	0xbabe6bb3	-0.0014527946
24	0x3abce1c2	0.0014410543
25	0xbbfd8792	-0.0077371085
26	0x3c35f69b	0.011106159
27	0xbc755c53	-0.014975625
28	0xbc697f9d	-0.014251617
29	0xbc2e9327	-0.010655201
30	0xbbc1b39c	-0.0059113037
31	0xbb9799eb	-0.0046265027
32	0x3c2ffb06	0.010741001
33	0x3aaa231d	0.0012980435
34	0xbbd0b50f	-0.00636924
35	0xba90ebce	-0.0011056603
36	0xbb5b576b	-0.0033468853
37	0x3aceba27	0.001577203
38	0x3b4d20a2	0.0031299968
39	0x390f295b	0.00013652949
40	0xbb7a0990	-0.0038152672
41	0x3c544b68	0.012957431
42	0xbbb4904b	-0.005510365
43	0x3c8bc02b	0.017059406
44	0x3c2cf7c0	0.010557115
45	0xbc8a27e0	-0.016864717
46	0xbb56499f	-0.003269769
47	0xbbb1d31f	-0.005426779
48	0xbb91b88e	-0.0044470495
49	0x3c67666d	0.014123541
50	0x3c64f5b7	0.013974599
51	0x3bd18817	0.006394397
52	0xbc461b28	-0.0120914355
53	0x3bb8f8fa	0.0056449147
54	0xbbdbfe63	-0.006713675
55	0x3c2f2007	0.010688788
56	0x3acb5d6a	0.001551551
57	0xbc216aa5	-0.009852086
58	0xbc436399	-0.011925601
59	0xbc7c6a33	-0.015406179
60	0xbb6747ab	-0.003529052
61	0x3bb58f59	0.00554077
62	0xbc3fcbd2	-0.011706309
63	0xbc2a6a9f	-0.010401397
64	0x3c1685e4	0.009187195
65	0x38eb166d	0.0001120985
66	0xbc73b3ca	-0.014874408
67	0xbbf3b8cd	-0.0074378015
68	0xbc827693	-0.015925681
69	0x3c55712f	0.013027473
70	0x3b4f3dfb	0.0031622637
71	0xbb60ebe8	-0.0034320299
72	0xbb88c3ce	-0.0041737324
73	0x3b752ba7	0.0037410052
74	0xbb15e382	-0.00228712
75	0x39d7fb1b	0.00041195084
76	0xba8bd153	-0.0010667242
77	0x3c83ed13	0.016104257
78	0x3c4fd128	0.012684144
79	0x3c3408b7	0.010988406
80	0x3b3ca339	0.0028783812
81	0x3b835ac7	0.0040086242
82	0xbbe108ca	-0.006867503
83	0xbc2011b4	-0.009769846
84	0x3c2fe061	0.010734648
85	0xbaea9d75	-0.0017899709
86	0x3cae31bd	0.021263951
87	0x3ab79669	0.0014006618
88	0xb9f36c63	-0.00046429326
89	0xbb7aa56d	-0.0038245574
90	0x3c3d6d4b	0.011561702
91	0x3c86241c	0.01637464
92	0xbc3174ba	-0.010831052
93	0xbbed8fa7	-0.0072497907
94	0xbc0efd2e	-0.008727355
95	0xbc41b785	-0.01182354
96	0x3afc705b	0.0019259559
97	0xbb4313b2	-0.0029766378
98	0x3b9aa20d	0.004719025
99	0x3c7993bf	0.015232979
100	0x3c0159fa	0.007894987
101	0xbc2ebd62	-0.01066527
102	0x3b50c500	0.0031855702
103	0x3b56dc47	0.0032785104
104	0x3c596418	0.013268493
105	0xbc2a45eb	-0.010392646
106	0xbc74351d	-0.014905241
107	0x3b8a3c21	0.0042185937
108	0xbba56f96	-0.0050487025
109	0xbc8d1783	-0.017223125
110	0xba708e3f	-0.000917647
111	0xbbdc6b0f	-0.0067266296
112	0xbbea7bc8	-0.007155869
113	0xbb85b184	-0.0040799994
114	0x3c03b07b	0.008037682
115	0xbabccb3c	-0.001440383
116	0x3bd66b38	0.006543543
117	0x3c8c2995	0.017109672
118	0xbb93a5e9	-0.004505862
119	0xbc0fd889	-0.008779653
120	0xbbb51381	-0.0055260067
121	0x3c28d647	0.010304994
122	0xbc219cbd	-0.0098640295
123	0xbc330a15	-0.010927697
124	0xbaecbb50	-0.0018061195
125	0x3c30711a	0.010769153
126	0x3b98dda3	0.004665093
127	0xb9c0b48e	-0.00036755617

exp_avg f4 [128, 6]
0	0x213b05e3	6.3365855e-19
1	0x22ea6bea	6.3540086e-18
2	0x00000000	0.0
3	0x239475f9	1.6096156e-17
4	0x20959e50	2.5346344e-19
5	0x00000000	0.0
6	0x00000004	6e-45
7	0x00000004	6e-45
8	0x00000000	0.0
9	0x00000004	6e-45
10	0x00000004	6e-45
11	0x00000000	0.0
12	0x80008c47	-5.0322e-41
13	0x80057fba	-5.04997e-40
14	0x00000000	0.0
15	0x800dee0d	-1.279258e-39
16	0x8000381c	-2.0128e-41
17	0x00000000	0.0
18	0x20f439ca	4.137345e-19
19	0x22990f87	4.1487173e-18
20	0x00000000	0.0
21	0x2341de6c	1.0509651e-17
22	0x2043616c	1.6549377e-19
23	0x00000000	0.0
24	0x20c7e696	3.38645e-19
25	0x227a9007	3.3957565e-18
26	0x00000000	0.0
27	0x231eaee8	8.602235e-18
28	0x201feba1	1.3545787e-19
29	0x00000000	0.0
30	0x1f9a64bd	6.5388194e-20
31	0x214185ac	6.5567857e-19
32	0x00000000	0.0
33	0x21f51e52	1.6609871e-18
34	0x1ef707a2	2.6155299e-20
35	0x00000000	0.0
36	0x80000004	-6e-45
37	0x80000004	-6e-45
38	0x00000000	0.0
39	0x80000004	-6e-45
40	0x80000004	-6e-45
41	0x00000000	0.0
42	0x20990a36	2.5925965e-19
43	0x223fd364	2.5997236e-18
44	0x00000000	0.0
45	0x22f2f834	6.5857027e-18
46	0x1ff4dd2b	1.0370391e-19
47	0x00000000	0.0
48	0x20aecfeb	2.9614335e-19
49	0x225b1db4	2.969576e-18
50	0x00000000	0.0
51	0x230ac498	7.522625e-18
52	0x200bd992	1.1845746e-19
53	0x00000000	0.0
54	0x20ad64e6	2.937411e-19
55	0x225956b1	2.9454878e-18
56	0x00000000	0.0
57	0x2309a464	7.461596e-18
58	0x200ab71e	1.1749643e-19
59	0x00000000	0.0
60	0x207ca32e	2.1399222e-19
61	0x221e5523	2.1458064e-18
62	0x00000000	0.0
63	0x22c88bd7	5.435817e-18
64	0x1fca1c30	8.559696e-20
65	0x00000000	0.0
66	0x20ae9014	2.957209e-19
67	0x225acdb9	2.9653418e-18
68	0x00000000	0.0
69	0x230a91e4	7.5118885e-18
70	0x200ba681	1.182885e-19
71	0x00000000	0.0
72	0x00000004	6e-45
73	0x00000004	6e-45
74	0x00000000	0.0
75	0x00000004	6e-45
76	0x00000004	6e-45
77	0x00000000	0.0
78	0x80000004	-6e-45
79	0x80000004	-6e-45
80	0x00000000	0.0
81	0x80000004	-6e-45
82	0x80000004	-6e-45
83	0x00000000	0.0
84	0x06dd6560	8.327992e-35
85	0x088ada5d	8.35691e-34
86	0x00000000	0.0
87	0x092fdf20	2.1169772e-33
88	0x06311dda	3.3311931e-35
89	0x00000000	0.0
90	0x20ab2b6b	2.8997258e-19
91	0x22568cdf	2.9076985e-18
92	0x00000000	0.0
93	0x2307e05b	7.365874e-18
94	0x2008ef8a	1.1598905e-19
95	0x00000000	0.0
96	0x00000004	6e-45
97	0x00000004	6e-45
98	0x00000000	0.0
99	0x00000004	6e-45
100	0x00000004	6e-45
101	0x00000000	0.0
102	0x205f977b	1.8938955e-19
103	0x220c210c	1.8991033e-18
104	0x00000000	0.0
105	0x22b17d4f	4.810862e-18
106	0x1fb2df98	7.575584e-20
107	0x00000000	0.0
108	0x92deeaad	-1.4068022e-27
109	0x948bbeac	-1.411062e-26
110	0x00000000	0.0
111	0x9531008c	-3.5745297e-26
112	0x92325557	-5.6272086e-28
113	0x00000000	0.0
114	0x1be70ed2	3.8225322e-22
115	0x1d90d328	3.8334813e-21
116	0x00000000	0.0
117	0x1e376fe3	9.711077e-21
118	0x1b38d8a8	1.5290129e-22
119	0x00000000	0.0
120	0x2041896a	1.6393202e-19
121	0x21f29615	1.6438284e-18
122	0x00000000	0.0
123	0x2299a1a9	4.1641897e-18
124	0x1f9ad45a	6.557284e-20
125	0x00000000	0.0
126	0x071f3619	1.1977728e-34
127	0x08c7a51e	1.2015696e-33
128	0x00000000	0.0
129	0x097cdf39	3.0438355e-33
130	0x067ebd00	4.7910946e-35
131	0x00000000	0.0
132	0x80000004	-6e-45
133	0x80000004	-6e-45
134	0x00000000	0.0
135	0x80000004	-6e-45
136	0x80000004	-6e-45
137	0x00000000	0.0
138	0x00000004	6e-45
139	0x00000004	6e-45
140	0x00000000	0.0
141	0x00000004	6e-45
142	0x00000004	6e-45
143	0x00000000	0.0
144	0x2103fecb	4.472174e-19
145	0x22a5729f	4.48447e-18
146	0x00000000	0.0
147	0x23518f03	1.1360197e-17
148	0x20533143	1.7888695e-19
149	0x00000000	0.0
150	0x20c2f2c6	3.3025532e-19
151	0x22745ae3	3.3116281e-18
152	0x00000000	0.0
153	0x231ac083	8.389123e-18
154	0x201bf56b	1.3210213e-19
155	0x00000000	0.0
156	0x0ae2f372	2.1854582e-32
157	0x0c8e421a	2.1918348e-31
158	0x00000000	0.0
159	0x0d342fa3	5.5524123e-31
160	0x0a358f92	8.7418356e-33
161	0x00000000	0.0
162	0x20a3fc19	2.7780098e-19
163	0x224d8b64	2.7856473e-18
164	0x00000000	0.0
165	0x23022c34	7.0566745e-18
166	0x20033017	1.1112043e-19
167	0x00000000	0.0
168	0x80000004	-6e-45
169	0x80000004	-6e-45
170	0x00000000	0.0
171	0x80000004	-6e-45
172	0x80000004	-6e-45
173	0x00000000	0.0
174	0x141f7f1a	8.052515e-27
175	0x15c7f442	8.076083e-26
176	0x00000000	0.0
177	0x167d43b8	2.0458546e-25
178	0x137f31d5	3.2210094e-27
179	0x00000000	0.0
180	0x00000004	6e-45
181	0x00000004	6e-45
182	0x00000000	0.0
183	0x00000004	6e-45
184	0x00000004	6e-45
185	0x00000000	0.0
186	0x01eb8659	8.6518146e-38
187	0x0393bd68	8.683369e-37
188	0x00000000	0.0
189	0x043b20a2	2.1996729e-36
190	0x013c6b78	3.4607252e-38
191	0x00000000	0.0
192	0x2003198c	1.1104584e-19
193	0x21a45348	1.1135117e-18
194	0x00000000	0.0
195	0x2250230c	2.820781e-18
196	0x1f51c27d	4.441835e-20
197	0x00000000	0.0
198	0x2064acf4	1.9369577e-19
199	0x220f50ad	1.9422823e-18
200	0x00000000	0.0
201	0x22b58672	4.9202498e-18
202	0x1fb6f0c2	7.74783e-20
203	0x00000000	0.0
204	0x80000004	-6e-45
205	0x80000004	-6e-45
206	0x00000000	0.0
207	0x80000004	-6e-45
208	0x80000004	-6e-45
209	0x00000000	0.0
210	0x202f151b	1.483006e-19
211	0x21db7466	1.4870828e-18
212	0x00000000	0.0
213	0x228afb71	3.76712e-18
214	0x1f8c10e4	5.932025e-20
215	0x00000000	0.0
216	0x2080b7ca	2.1805665e-19
217	0x222156f6	2.1865605e-18
218	0x00000000	0.0
219	0x22cc5afd	5.539065e-18
220	0x1fcdf2d9	8.7222635e-20
221	0x00000000	0.0
222	0x2022dfcb	1.379598e-19
223	0x21cc2709	1.383391e-18
224	0x00000000	0.0
225	0x22814a9d	3.504452e-18
226	0x1f824ca1	5.5183913e-20
227	0x00000000	0.0
228	0x00000004	6e-45
229	0x00000004	6e-45
230	0x00000000	0.0
231	0x00000004	6e-45
232	0x00000004	6e-45
233	0x00000000	0.0
234	0x00000004	6e-45
235	0x00000004	6e-45
236	0x00000000	0.0
237	0x00000004	6e-45
238	0x00000004	6e-45
239	0x00000000	0.0
240	0x200fec58	1.2190771e-19
241	0x21b46603	1.2224277e-18
242	0x00000000	0.0
243	0x22647ecd	3.096689e-18
244	0x1f6646ee	4.8763066e-20
245	0x00000000	0.0
246	0x20367a90	1.5456552e-19
247	0x21e4b9b4	1.5499036e-18
248	0x00000000	0.0
249	0x2290da82	3.9262632e-18
250	0x1f91fb9a	6.182613e-20
251	0x00000000	0.0
252	0x0b4b280a	3.91265e-32
253	0x0cfebe00	3.9249249e-31
254	0x00000000	0.0
255	0x0da15455	9.942693e-31

exp_avg_sq f4 [128, 6]
0	0x3b8b43b3	0.0042500137
1	0x3ea65d32	0.32492977
2	0x00000000	0.0
3	0x4005d4a1	2.0911028
4	0x3a31e9da	0.0006786861
5	0x00000000	0.0
6	0x3716ef5e	8.996429e-06
7	0x35482e94	7.4573586e-07
8	0x00000000	0.0
9	0x36687dd1	3.4643929e-06
10	0x359601a1	1.1176345e-06
11	0x00000000	0.0
12	0x2c1d19e8	2.2325423e-12
13	0x2a67bf85	2.0583368e-13
14	0x00000000	0.0
15	0x2b92532a	1.0397007e-12
16	0x2ae4b963	4.0629574e-13
17	0x00000000	0.0
18	0x3af3d6ba	0.0018603422
19	0x3e0ee31a	0.1395382
20	0x00000000	0.0
21	0x3f65e735	0.8980592
22	0x399a44a5	0.00029424313
23	0x00000000	0.0
24	0x3a96abc9	0.0011495288
25	0x3db73484	0.089455634
26	0x00000000	0.0
27	0x3f135469	0.57550675
28	0x3940dd23	0.00018392927
29	0x00000000	0.0
30	0x37f5ed3b	2.9316745e-05
31	0x3b3511c1	0.002762899
32	0x00000000	0.0
33	0x3c914c16	0.017736476
34	0x369d64af	4.6906857e-06
35	0x00000000	0.0
36	0x385aa80e	5.2131763e-05
37	0x36ae1a88	5.1886927e-06
38	0x00000000	0.0
39	0x37bc5310	2.2450025e-05
40	0x36dcd065	6.5807712e-06
41	0x00000000	0.0
42	0x3a27ff8c	0.0006408624
43	0x3d4debac	0.050273582
44	0x00000000	0.0
45	0x3ea587c3	0.3233014
46	0x38d69f11	0.000102339436
47	0x00000000	0.0
48	0x3a5e43f9	0.00084787566
49	0x3d86f60a	0.06589897
50	0x00000000	0.0
51	0x3ed8fd06	0.42380542
52	0x390d7015	0.00013488562
53	0x00000000	0.0
54	0x3a47ebea	0.00076264015
55	0x3d82d6b1	0.063886054
56	0x00000000	0.0
57	0x3ed253dc	0.41079605
58	0x38ffe5bf	0.00012202141
59	0x00000000	0.0
60	0x39c6f689	0.00037949186
61	0x3d0561b4	0.03256388
62	0x00000000	0.0
63	0x3e5655d9	0.20931186
64	0x387ea959	6.0716036e-05
65	0x00000000	0.0
66	0x3a5afcdf	0.0008353721
67	0x3d89d1be	0.06729458
68	0x00000000	0.0
69	0x3edda36d	0.43288746
70	0x390c26e1	0.00013365924
71	0x00000000	0.0
72	0x3129d730	2.4715057e-09
73	0x2f886350	2.4808822e-10
74	0x00000000	0.0
75	0x2fc08804	3.5021241e-10
76	0x2f6f1018	2.1742641e-10
77	0x00000000	0.0
78	0x352919fd	6.2995224e-07
79	0x31ff883d	7.4369653e-09
80	0x00000000	0.0
81	0x32dd25cf	2.574498e-08
82	0x3381d823	6.046346e-08
83	0x00000000	0.0
84	0x38260efe	3.9591447e-05
85	0x361e766a	2.361276e-06
86	0x00000000	0.0
87	0x37092e04	8.17655e-06
88	0x3687616f	4.0346563e-06
89	0x00000000	0.0
90	0x3a588aff	0.0008260458
91	0x3d82c757	0.06385677
92	0x00000000	0.0
93	0x3ed24862	0.4107085
94	0x390a4451	0.00013186155
95	0x00000000	0.0
96	0x3884ac08	6.326294e-05
97	0x36931648	4.3835353e-06
98	0x00000000	0.0
99	0x376a8eca	1.3980733e-05
100	0x36d6c878	6.4010346e-06
101	0x00000000	0.0
102	0x3991a3d1	0.00027778608
103	0x3cc5f6f5	0.02416561
104	0x00000000	0.0
105	0x3e1ef6c7	0.15523826
106	0x3839b170	4.427269e-05
107	0x00000000	0.0
108	0x378c5e2f	1.6733158e-05
109	0x36053064	1.9846711e-06
110	0x00000000	0.0
111	0x37383e4c	1.0981759e-05
112	0x3601e677	1.9356646e-06
113	0x00000000	0.0
114	0x396fa890	0.0002285561
115	0x3c07f550	0.008298233
116	0x00000000	0.0
117	0x3d5cedad	0.053937603
118	0x3814e33e	3.5497585e-05
119	0x00000000	0.0
120	0x395bdf2c	0.00020968606
121	0x3c94b2e4	0.018151708
122	0x00000000	0.0
123	0x3deed067	0.11660843
124	0x380ba676	3.329521e-05
125	0x00000000	0.0
126	0x340baeb9	1.3008948e-07
127	0x3234eaf0	1.0530798e-08
128	0x00000000	0.0
129	0x333b63f8	4.363025e-08
130	0x328a7b37	1.6121346e-08
131	0x00000000	0.0
132	0x2f0bdd98	1.2720702e-10
133	0x2d1d799b	8.951419e-12
134	0x00000000	0.0
135	0x2d843aaa	1.5032715e-11
136	0x2d3df1a8	1.0797065e-11
137	0x00000000	0.0
138	0x2f00648c	1.1677254e-10
139	0x2c25786a	2.3514754e-12
140	0x00000000	0.0
141	0x2e61c587	5.1334516e-11
142	0x2db904ce	2.1034199e-11
143	0x00000000	0.0
144	0x3b0f87be	0.0021900977
145	0x3e2489fb	0.1606826
146	0x00000000	0.0
147	0x3f845a1e	1.0340002
148	0x39b4cf1d	0.00034486587
149	0x00000000	0.0
150	0x3a8708ae	0.0010302269
151	0x3dab3084	0.08358863
152	0x00000000	0.0
153	0x3f09a571	0.5376807
154	0x392cd7df	0.00016483616
155	0x00000000	0.0
156	0x31208a7a	2.336178e-09
157	0x2f5c796d	2.0052023e-10
158	0x00000000	0.0
159	0x2fc3d15c	3.5619052e-10
160	0x2f6ccf1f	2.1537659e-10
161	0x00000000	0.0
162	0x3a2eb2e2	0.0006664229
163	0x3d66450e	0.0562182
164	0x00000000	0.0
165	0x3eb90df2	0.36143452
166	0x38df9d3d	0.000106627565
167	0x00000000	0.0
168	0x27dadc83	6.0746234e-15
169	0x2619d73b	5.337423e-16
170	0x00000000	0.0
171	0x271aa00a	2.145855e-15
172	0x26828385	9.05621e-16
173	0x00000000	0.0
174	0x398f5d97	0.00027344815
175	0x37c5733b	2.3537888e-05
176	0x00000000	0.0
177	0x39074a9b	0.00012902396
178	0x381e5abc	3.775464e-05
179	0x00000000	0.0
180	0x32d4ec19	2.4787413e-08
181	0x31148bab	2.1616227e-09
182	0x00000000	0.0
183	0x31a77f8a	4.874839e-09
184	0x312dd7e4	2.5297533e-09
185	0x00000000	0.0
186	0x35e2825d	1.6876253e-06
187	0x34033cff	1.2222516e-07
188	0x00000000	0.0
189	0x34a539ee	3.0775794e-07
190	0x3433166b	1.667883e-07
191	0x00000000	0.0
192	0x38ff0179	0.00012159622
193	0x3bfef29e	0.007780387
194	0x00000000	0.0
195	0x3d4c8210	0.049928725
196	0x378a582a	1.6491937e-05
197	0x00000000	0.0
198	0x39af4ab8	0.0003343427
199	0x3cd9bdaf	0.026579706
200	0x00000000	0.0
201	0x3e2eef40	0.17083454
202	0x385be662	5.242823e-05
203	0x00000000	0.0
204	0x2d2a293b	9.672536e-12
205	0x2ae29d11	4.025465e-13
206	0x00000000	0.0
207	0x2b81aa1b	9.213215e-13
208	0x2b75c482	8.7314195e-13
209	0x00000000	0.0
210	0x39335cc9	0.00017105335
211	0x3c76d44c	0.015065264
212	0x00000000	0.0
213	0x3dc63ec2	0.09679939
214	0x37e59596	2.7368584e-05
215	0x00000000	0.0
216	0x3a004f67	0.00048946444
217	0x3d0a28af	0.033730205
218	0x00000000	0.0
219	0x3e5dfad0	0.21677709
220	0x389bddc5	7.432284e-05
221	0x00000000	0.0
222	0x39047726	0.00012632887
223	0x3c468f53	0.012119132
224	0x00000000	0.0
225	0x3d9f5537	0.07779925
226	0x37a9a024	2.0220941e-05
227	0x00000000	0.0
228	0x36e78d20	6.9007656e-06
229	0x34614bf5	2.0982391e-07
230	0x00000000	0.0
231	0x34c4c610	3.6651954e-07
232	0x35208d33	5.9810117e-07
233	0x00000000	0.0
234	0x36a65082	4.956558e-06
235	0x342b19a3	1.5934943e-07
236	0x00000000	0.0
237	0x34c3a03b	3.6438163e-07
238	0x34e87cf4	4.3304283e-07
239	0x00000000	0.0
240	0x3902381e	0.00012418671
241	0x3c1a6cb4	0.009425331
242	0x00000000	0.0
243	0x3d77d258	0.060503334
244	0x37a657b4	1.9829582e-05
245	0x00000000	0.0
246	0x396db3c1	0.00022669045
247	0x3c91b63b	0.01778709
248	0x00000000	0.0
249	0x3dea4067	0.11438065
250	0x38158acd	3.5653637e-05
251	0x00000000	0.0
252	0x365b74fc	3.2701637e-06
253	0x338ee09a	6.653245e-08
254	0x00000000	0.0
255	0x35bc9b38	1.4052266e-06

exp_avg f4 [128]
0	0x9f477dcc	-4.2243946e-20
1	0x80000004	-6e-45
2	0x0000095a	3.355e-42
3	0x9f0240f1	-2.758229e-20
4	0x9ed53a37	-2.257633e-20
5	0x9da4afb9	-4.359213e-21
6	0x00000004	6e-45
7	0x9ea33e20	-1.728399e-20
8	0x9eba776b	-1.9742906e-20
9	0x9eb8f42c	-1.9582745e-20
10	0x9e86bd6d	-1.4266147e-20
11	0x9eba3353	-1.9714743e-20
12	0x80000004	-6e-45
13	0x00000004	6e-45
14	0x84ec27dd	-5.5519942e-36
15	0x9eb694c3	-1.9331526e-20
16	0x80000004	-6e-45
17	0x9e6e7f75	-1.26259726e-20
18	0x10edc716	9.378676e-29
19	0x99f6763c	-2.5483558e-23
20	0x9e4e7070	-1.0928801e-20
21	0x8529d353	-7.985156e-36
22	0x00000004	6e-45
23	0x80000004	-6e-45
24	0x9f0ccb8a	-2.9814517e-20
25	0x9ecff1d7	-2.2017e-20
26	0x88f214c5	-1.4569728e-33
27	0x9eaeeac5	-1.8520065e-20
28	0x00000004	6e-45
29	0x922a2138	-5.3683487e-28
30	0x80000004	-6e-45
31	0x803ece7f	-5.767878e-39
32	0x9e0bd6fc	-7.4030565e-21
33	0x9e73ebac	-1.2913049e-20
34	0x00000004	6e-45
35	0x9e3ac12e	-9.886707e-21
36	0x9e894ca0	-1.453713e-20
37	0x9e2dbb89	-9.197325e-21
38	0x80000004	-6e-45
39	0x80000004	-6e-45
40	0x9e1984a0	-8.127179e-21
41	0x9e42a4d6	-1.0304362e-20
42	0x8958b331	-2.608431e-33
43	0x9d15846e	-1.978845e-21
44	0x9c1a33d7	-5.1021327e-22
45	0x9cbe641c	-1.2599023e-21
46	0x9eb9fabd	-1.969134e-20
47	0x9ebe197b	-2.0127571e-20
48	0x1c950ad1	9.862789e-22
49	0x11969469	2.3757292e-28
50	0x00000004	6e-45
51	0x80000004	-6e-45
52	0x92051198	-4.1989086e-28
53	0x9e6d86e0	-1.2574567e-20
54	0x9ed3e8f4	-2.2436841e-20
55	0x9ea51105	-1.7477094e-20
56	0x9ebc980f	-1.9968164e-20
57	0x9e932609	-1.5579961e-20
58	0x00000004	6e-45
59	0x80006dfc	-3.9455e-41
60	0x800035b8	-1.927e-41
61	0x8b362522	-3.507986e-32
62	0x00000004	6e-45
63	0x9e7e4a9e	-1.34620785e-20
64	0x9e955bda	-1.5813978e-20
65	0x9e358ef9	-9.611626e-21
66	0x9ea20435	-1.7154157e-20
67	0x00000004	6e-45
68	0x9e10583f	-7.641545e-21
69	0x9ee8a509	-2.4632212e-20
70	0x1d6b8209	3.1169218e-21
71	0x9e491bee	-1.0646627e-20
72	0x9e0204a2	-6.883101e-21
73	0x80000004	-6e-45
74	0x9be1f14b	-3.737906e-22
75	0x00000004	6e-45
76	0x9ed78495	-2.2818845e-20
77	0x80000004	-6e-45
78	0x9deca4be	-6.263902e-21
79	0x9e862f90	-1.4207473e-20
80	0x00000004	6e-45
81	0x9f1a1305	-3.26265e-20
82	0x80000004	-6e-45
83	0x9f1208da	-3.0924024e-20
84	0x9f035924	-2.7814064e-20
85	0x9e3f82a0	-1.01384684e-20
86	0x9e43bd33	-1.03623395e-20
87	0x9e57441b	-1.1396089e-20
88	0x00000004	6e-45
89	0x00000004	6e-45
90	0x9a481c3b	-4.1381835e-23
91	0x9ebab018	-1.9766347e-20
92	0x00000004	6e-45
93	0x00000004	6e-45
94	0x9ee719ab	-2.4468692e-20
95	0x9e7a96e2	-1.3266092e-20
96	0x00000004	6e-45
97	0x9e7eed05	-1.34956625e-20
98	0x9ec658d6	-2.1000807e-20
99	0x00000004	6e-45
100	0x9d8e4d50	-3.7667026e-21
101	0x00000004	6e-45
102	0x80000004	-6e-45
103	0x9e3be219	-9.9464535e-21
104	0x0272f7a2	1.7850419e-37
105	0x9f08f144	-2.899869e-20
106	0x80000004	-6e-45
107	0x9e060017	-7.0939195e-21
108	0x8d17b3c1	-4.674684e-31
109	0x981f8cf7	-2.0621437e-24
110	0x9ef8cb06	-2.634199e-20
111	0x9e2ee369	-9.258511e-21
112	0x9e68ac69	-1.2317631e-20
113	0x9f0aa449	-2.935853e-20
114	0x9e83afae	-1.3942824e-20
115	0x00000004	6e-45
116	0x9f0041ff	-2.7159645e-20
117	0x004d402c	7.094354e-39
118	0x9027218a	-3.296078e-29
119	0x9e7f1e3d	-1.3505841e-20
120	0x00000004	6e-45
121	0x9e8b93ce	-1.4778328e-20
122	0x1d1f7048	2.1101523e-21
123	0x80000004	-6e-45
124	0x80000004	-6e-45
125	0x80000004	-6e-45
126	0x80000004	-6e-45
127	0x80000004	-6e-45

exp_avg_sq f4 [128]
0	0x379e2533	1.885239e-05
1	0x330556c5	3.1045392e-08
2	0x284b4f76	1.1285994e-14
3	0x3709208a	8.173412e-06
4	0x36ab6f4a	5.109153e-06
5	0x340be7b8	1.3029683e-07
6	0x3444477d	1.827993e-07
7	0x363ec642	2.8427608e-06
8	0x367b71e8	3.7468217e-06
9	0x366376f7	3.3894883e-06
10	0x35e25daf	1.6865578e-06
11	0x367928aa	3.712756e-06
12	0x2cd4801f	6.0396267e-12
13	0x30e6d5a3	1.6795422e-09
14	0x33f0ad2e	1.1207372e-07
15	0x3675ceb0	3.6628153e-06
16	0x343eeb1a	1.7780658e-07
17	0x35a50f7b	1.2297963e-06
18	0x3366ef1e	5.3768524e-08
19	0x35845848	9.86046e-07
20	0x35784462	9.248671e-07
21	0x2ff63045	4.4781437e-10
22	0x2aa8d6da	2.9991878e-13
23	0x2b247604	5.8428284e-13
24	0x3720b817	9.579605e-06
25	0x3699a372	4.578783e-06
26	0x2cd27f1c	5.982671e-12
27	0x3646c4a8	2.9618768e-06
28	0x23e80626	2.5156094e-17
29	0x358cc27f	1.0487419e-06
30	0x2e9a870c	7.0270983e-11
31	0x319f303d	4.632993e-09
32	0x34f5f214	4.581094e-07
33	0x35c37774	1.4563398e-06
34	0x28da75b5	2.425391e-14
35	0x354c132a	7.602381e-07
36	0x360a8c45	2.064525e-06
37	0x3516c736	5.6169245e-07
38	0x328eb640	1.6613853e-08
39	0x324ea81d	1.2029003e-08
40	0x3513dc1f	5.5082086e-07
41	0x3584ed22	9.903781e-07
42	0x327aa098	1.458843e-08
43	0x3594824c	1.1064781e-06
44	0x343bce97	1.7490889e-07
45	0x341d5531	1.4652757e-07
46	0x367216e7	3.607414e-06
47	0x36818cca	3.8608896e-06
48	0x34054dc0	1.2414876e-07
49	0x2d0e0b50	8.074277e-12
50	0x2f1cabf8	1.4249213e-10
51	0x32624229	1.31699744e-08
52	0x3226385e	9.675288e-09
53	0x35da19fa	1.6249826e-06
54	0x369d5bcb	4.6896507e-06
55	0x3649460c	2.9992107e-06
56	0x367d777b	3.7769485e-06
57	0x3615cc40	2.232162e-06
58	0x338f2af3	6.666769e-08
59	0x33e55dcb	1.0680704e-07
60	0x34127417	1.3639543e-07
61	0x20c2ab45	3.2978215e-19
62	0x30172b12	5.4994687e-10
63	0x36145010	2.210032e-06
64	0x36129152	2.1840283e-06
65	0x355ba52b	8.182421e-07
66	0x364937cf	2.998382e-06
67	0x2fb7c070	3.342424e-10
68	0x34fe6c74	4.7390097e-07
69	0x36c32cf6	5.816687e-06
70	0x35332771	6.674009e-07
71	0x35707a59	8.9585006e-07
72	0x34c282b0	3.6230404e-07
73	0x3309d359	3.2090018e-08
74	0x34a4e362	3.0712823e-07
75	0x31ad7f12	5.049409e-09
76	0x36af84f3	5.2308837e-06
77	0x335143d7	4.8723305e-08
78	0x348a2cde	2.5737148e-07
79	0x35e6c66b	1.7194083e-06
80	0x2fb35f11	3.262746e-10
81	0x3739aae9	1.1066652e-05
82	0x33ca04e0	9.407245e-08
83	0x372197bd	9.631677e-06
84	0x37054db7	7.945512e-06
85	0x3547cc74	7.4430795e-07
86	0x35611915	8.385553e-07
87	0x35810f54	9.61571e-07
88	0x2d717d11	1.3727034e-11
89	0x348db49b	2.6394704e-07
90	0x34c4a443	3.662736e-07
91	0x36830a81	3.905327e-06
92	0x3217eb2b	8.842828e-09
93	0x33cc1984	9.5041315e-08
94	0x36d2359c	6.2647287e-06
95	0x35ca022f	1.5050808e-06
96	0x344e1e01	1.919616e-07
97	0x35d22ac2	1.5658663e-06
98	0x36867e79	4.0082346e-06
99	0x2e1d5f73	3.5782443e-11
100	0x342d974d	1.6166923e-07
101	0x327b329c	1.462163e-08
102	0x3395eb1c	6.981119e-08
103	0x35677024	8.621739e-07
104	0x33f5d52c	1.1447477e-07
105	0x3710cdf6	8.631023e-06
106	0x270970a7	1.9073638e-15
107	0x34b0ecf2	3.2954955e-07
108	0x3370a7f5	5.603211e-08
109	0x2c97ccc1	4.3144104e-12
110	0x36efb5b3	7.1439076e-06
111	0x3564f1a4	8.528825e-07
112	0x35da13e8	1.6248059e-06
113	0x371a9aae	9.2151295e-06
114	0x35f1de30	1.8020564e-06
115	0x30b59281	1.3211122e-09
116	0x36f3719d	7.2551907e-06
117	0x2e070648	3.0701025e-11
118	0x26ab4933	1.1885349e-15
119	0x35d741ff	1.6037956e-06
120	0x2989dc6e	6.1222606e-14
121	0x360e40ca	2.119736e-06
122	0x3502db07	4.87475e-07
123	0x300164ae	4.7073e-10
124	0x27467e7e	2.7546591e-15
125	0x3405e17f	1.2468625e-07
126	0x328049d8	1.4934741e-08
127	0x32d946e7	2.5294367e-08
