results/SliderBehavior-jgf-001/SliderBehavior.onnx (onnx, 78648 bytes, 8 tensors)

network_body.observation_encoder.processors.0.normalizer.running_mean f4 [6]
00000000: 860a 6ac1 eb88 62c0 0000 0000 f169 70c1
00000010: bdfe bfc0 0000 0000
-14.627569 -3.5396068 0.0 -15.025865 -5.999846 0.0

network_body._body_endoder.seq_layers.0.weight f4 [128, 6]
00000000: faa6 c3bd 86e5 753f fc7f 283f 8e88 c1bd
00000010: 30b9 193e 2f22 36be 3694 78be e0c3 613e
00000020: 1370 fa3e 3e3d a73e ef90 fdbe 9e95 493e
00000030: 9105 93bf 774d 19be c3b0 f53c 8132 06bf
00000040: 94f2 03bd 3f25 543e d4f2 e53e dc73 bebe
00000050: 429a 96be a21f a6bd 1a76 3f3f 288c 9ebd
00000060: e60d 81bd 3dac 7b3e 3cd0 a13e 6238 82be
00000070: b919 95be 2fe3 853e 6495 5e3d ae1a c4be
00000080: 0752 7cbf 8ed0 6a3e 3bab af3d 90f1 1bbf
00000090: e647 b23e 215c afbe 0ff0 683f 0b99 35be
000000a0: db41 13bf 75b7 e9bd d45f 6dbd 5e3a 543f
000000b0: 096a d43d 20c1 bf3a 749b 12bf 7360 a0bf
000000c0: b024 6ebd 473f 113e 669a ccbd 4313 fcbe
000000d0: 4443 22be 04ef 54be 7e21 ef3e 0f18 25bf
000000e0: affe 433d 7398 9abc b7de 923e cdcd 04be
000000f0: 4bb1 303e 6b27 833e 999d ff3e 8a1d b23d
00000100: 1180 e9be 29b5 69bf 8534 68bd 5839 a33e
00000110: 6209 f2bd 7b38 01bf 2fbb 90be f52f eabb
00000120: 39fe 63be ad4b 5e3f cde3 823e f216 98be
00000130: a287 9c3e 775f 0ebf 7cb9 053f cd02 cd3e
00000140: 9f6d a63d f2af 2c3f c716 a5be 44e0 973e
00000150: 9b93 0cbf 7598 5d3d 7932 dabc 6296 683e
00000160: 88d3 0abf e2ef 413e 719f ae3e 8530 80bd
00000170: 1c33 343e 237d 9abe 91c1 cebd 587c 71bf
00000180: 4ae4 13bf 3b71 2f3d 8978 9ebe 73b3 093f
00000190: 6aa3 38be 0f14 b9be d45e 043f e755 aebe
000001a0: c4f5 69be 70b5 913e 0f67 5a3f de8f 523d
000001b0: 8ec4 ffbe d391 a3be 546e 06be 98cc 433f
000001c0: a37d 1d3f bb4c 523d 9122 4fbf 8698 f3be
000001d0: c3f5 8ebd c3b8 8b3c 0db5 893e b119 b73e
000001e0: e055 e6bd d46a aabd 111a 823e f698 dc3e
000001f0: 4652 77be 04fb 95be 957a ca3e dd87 2e3e
00000200: 0af4 4c3f a099 95be 7fc7 a63e 9e70 4e3e
00000210: 3d71 fb3e a38a 39bf c336 83be 3173 06bf
00000220: 5d38 d1bc e016 af3e 93a4 fdbe e7c3 b83d
00000230: 0690 42bf 5666 2bbf 33b0 1fbe a740 2dbf
00000240: d80a 813f b431 d23d 1b26 ecbd 0356 a2be
00000250: e9c6 33be 655d cabe 29d6 24be 27e9 cc3e
00000260: 6184 f9be 275d 933e eab4 323e dcfc e2bb
00000270: 8564 683f 82b3 bd3e cbbf b5be 0f35 a53e
00000280: e78f 113d d6fd 0abe 8f09 13bf c61f 03bc
00000290: 3950 023e 7e14 b23d 630b 9abd 8423 703f
000002a0: 9247 c8be f190 3d3d 5c06 2ebf 353d febd
000002b0: cf92 fc3d f6d2 e9bd 7714 4bbf e8b1 f9be
000002c0: 5fd3 d6be c619 a6be e539 ae3e 7535 133e
000002d0: 274f 36bf 2d16 3d3d 0291 173e a233 00be
000002e0: 2f7d ed3b 2c51 6bbe 01c4 5dbe 80cc 33bf
000002f0: 5d03 bf3e bd07 cbbd e4fd 093f 6023 0a3d
00000300: 2991 49bf 189c 8abe 0dcf ca3d 9f90 f2bd
00000310: 9773 b13c 701f 9cbd 0921 c13e c40e 963d
00000320: d7e4 e53e 471b babd c2df 08bd 90ea 1bbe
00000330: 1f12 093e 1475 38be ecc7 d13e d8eb c63e
00000340: 1d35 333f 6028 5abe cbaf 493e 541a c5be
00000350: 87ac f3be b130 583e 98b8 113e 686b 523e
00000360: 6529 8cbe f383 fc3e 50a2 c4be a051 b2be
00000370: 165b b3be d897 7f3e c2aa 8e3e 34c9 933e
00000380: 37f6 ca3e ff83 d8bd f18a 493e 6cc3 a3bd
00000390: bd00 3b3e e4e2 5bbe e3fe 4dbe a64a e43b
000003a0: d556 25bf e830 90be 3f60 493e 8a9f 453f
000003b0: 231b 443c 6ea7 01bf 4a36 d63e 9ff7 4fbd
000003c0: 36a9 af3d 7b49 fbbe 0662 223d 0fda 62bd
000003d0: 10de 333f a0ed 143d 1f0b 35be 3117 863e
000003e0: c52d 3f3f 7cd0 103e 5cae 503e 3a07 c93e
000003f0: dcc1 ad3c 813f b6be 7a4d dcbe 4314 673a
-0.095533326 0.9605335 0.6582029 -0.09449874 0.1501205 -0.17786478 -0.24275288 0.22047377
0.4891363 0.32663912 -0.49524638 0.1968598 -1.1486074 -0.14970957 0.029991513 -0.5242081
-0.032213762 0.20717333 0.44911826 -0.3719777 -0.29414564 -0.08111502 0.74789584 -0.077415764
-0.06301479 0.24577422 0.31604183 -0.25433642 -0.29121187 0.2614989 0.05434169 -0.38301605
-0.98562664 0.2293112 0.085775815 -0.6091547 0.3482048 -0.34249976 0.909913 -0.17734163
-0.5752236 -0.11411945 -0.057952717 0.8290156 0.10371787 0.0014629699 -0.5726845 -1.2529434
-0.058140457 0.14184295 -0.09990387 -0.49233446 -0.15845972 -0.20794302 0.4670524 -0.64489836
0.047850307 -0.018871522 0.28685543 -0.12969132 0.17255132 0.2561601 0.49924925 0.086970404
-0.4560552 -0.91292053 -0.05669071 0.31879687 -0.11818196 -0.5047681 -0.2826781 -0.00714683
-0.22264947 0.8683422 0.25564423 -0.29705006 0.3057223 -0.5561442 0.5223615 0.400412
0.08126377 0.6745597 -0.3224394 0.2966329 -0.5491273 0.054100472 -0.026635395 0.22713616
-0.5422902 0.18939164 0.3410602 -0.06259254 0.17597622 -0.30173597 -0.100955136 -0.9433036
-0.57770216 0.042832594 -0.30951336 0.5378944 -0.18031088 -0.36148116 0.51707196 -0.34049913
-0.22847658 0.28458738 0.85313505 0.051406734 -0.49954647 -0.31947193 -0.13128024 0.7648406
0.6151983 0.051342707 -0.8091212 -0.47577304 -0.06980469 0.017055875 0.26895943 0.35761788
-0.11246848 -0.08321157 0.25410512 0.4308545 -0.24152479 -0.29293072 0.39546648 0.17044015
0.80059874 -0.2921877 0.32574078 0.20160148 0.4910983 -0.7247717 -0.25627717 -0.5251952
-0.025539571 0.3419714 -0.49539623 0.090217404 -0.7600101 -0.6695303 -0.15594558 -0.67676777
1.0081434 0.10263386 -0.115307055 -0.31706247 -0.17556347 -0.3952438 -0.1609732 0.4002163
-0.4873381 0.28782007 0.17451826 -0.006927116 0.9077838 0.37051016 -0.3549789 0.32267043
0.035537627 -0.13573393 -0.5743646 -0.008003181 0.12725915 0.08695315 -0.07521703 0.9380419
-0.39117104 0.046280805 -0.67978454 -0.12414018 0.12332689 -0.11417191 -0.793281 -0.48768544
-0.41958138 -0.3244154 0.34028545 0.14375861 -0.71214527 0.046163727 0.1480141 -0.12519696
0.007247589 -0.22980183 -0.21656801 -0.7023392 0.37307253 -0.09913585 0.5390303 0.033725142
-0.7873712 -0.27072215 0.09902773 -0.118439905 0.021661563 -0.07623184 0.37720516 0.07327035
0.44901153 -0.09087234 -0.033416517 -0.15226197 0.13385819 -0.18013412 0.4097284 0.3885181
0.7000292 -0.21304464 0.19695966 -0.3849665 -0.47592565 0.21112324 0.14230573 0.20548785
-0.27375332 0.4931942 -0.38405085 -0.348279 -0.3503043 0.24960268 0.27864653 0.28864443
0.39640972 -0.10572051 0.19681908 -0.07996258 0.18262 -0.2147327 -0.20116763 0.0069669066
-0.6458562 -0.28162313 0.19665621 0.7719656 0.0119693605 -0.506461 0.41838294 -0.05077326
0.08577196 -0.490795 0.039644264 -0.055383738 0.70260715 0.03635943 -0.17680024 0.2618957
0.74679214 0.1414203 0.20379013 0.39263326 0.021210603 -0.35595325 -0.4302786 0.000881497

network_body._body_endoder.seq_layers.0.bias f4 [128]
00000000: 0d4a 84bc 2206 a7bb f1b4 2cbb f89a 453b
00000010: 3540 5cbc 4506 22bc 9da9 8a3c 08ee 03bc
00000020: f7fb 83bc 113b b8bc b2bd e03c fc12 2dbb
00000030: 29e6 723c bc71 1d3c 7eb3 99bc c0ff 313c
00000040: e689 ffbb 1cae 993c 8b8c 1ebc 48a2 d0bc
00000050: 7712 a0bc 320f 723c bf44 193d 832c 993c
00000060: 68af 2f3d 35e4 aabc 9de9 a63c 0a0b cfbc
00000070: 66c0 cdbc 3b86 8cbc 73d7 e1bb debc ce3c
00000080: e47b 84bc 213a b03c 9d33 953c e346 86bc
00000090: 2282 9c3c dc4b ba3c 6f43 fc3c 0c56 92bb
000000a0: 94b6 fd3c c512 fabc 0269 2e3c 1346 24bd
000000b0: 6d4b 6a3c 820c 043b bc90 f73c 808a c7bc
000000c0: 32a6 84bc 0b5a aebc b494 ba3c 7fc1 ff3c
000000d0: aed7 91bc bdbb d3bc 81c6 353d 0f86 91ba
000000e0: 3465 b6bb 19ac acbb 6fee e03c 0a12 ce3c
000000f0: e67f 6bbc 4e97 353c cfa2 773c e00c 103c
00000100: de65 a3bb 94d6 e83c df63 da3c b8aa fa3c
00000110: 86bd 513a 3c40 75bb f274 35bc b0dc ba3c
00000120: 1981 a03b 3037 863c d69f 8fbc 3749 483c
00000130: 929e f13c e98a 023c ec8d 93bc 00be 4036
00000140: e4dd 053d 3692 9bbc 40c8 a3bb 23c2 3a3d
00000150: cb02 cc3c 06c8 de3c 04f4 d53c 0c7a bebc
00000160: b248 47bc 6c18 7bbc da1d a5bc 72b1 acbc
00000170: 837f 8ebc e3e7 8ebc a1e0 4bbc 355d 99bc
00000180: 92d5 ca3c c23f b2bc b7de a33c c587 1f3b
00000190: 25ab 8abc 72c1 aebc ee16 b43c 46de c33b
000001a0: fa99 b03c 3269 93bc eb98 493d d306 0bbc
000001b0: c6bd 8b3b 7426 99bc ccfb c5bc 16f6 c8bc
000001c0: 0b1a 94bc d4ec 0f3d c010 17bc 69b5 c6bc
000001d0: 7f11 893b 670d 97bc 9598 8cbc cc8c 88bc
000001e0: b1ec bebc 7be4 5b3c 4ec3 07bc f56a e03c
000001f0: 5a36 b23c df04 bebc ecd9 66bc bd22 abbc
-0.016148591 -0.0050971666 -0.0026352967 0.0030152183 -0.0134430425 -0.00988919 0.016926581 -0.008052357
-0.016111357 -0.022489103 0.027434204 -0.002640902 0.014825382 0.009609636 -0.018762346 0.010864198
-0.007798421 0.01875978 -0.009677063 -0.025468007 -0.019540055 0.014774131 0.037419077 0.018697983
0.04289189 -0.02086077 0.020375067 -0.025273819 -0.025116157 -0.01715385 -0.0068921386 0.025236543
-0.016172357 0.021512093 0.018213088 -0.016391223 0.01910502 0.02274125 0.030793874 -0.004465824
0.03097085 -0.030526528 0.010645153 -0.04010589 0.0143002095 0.0020149057 0.030220382 -0.024358034
-0.01619253 -0.02128317 0.022775985 0.031220196 -0.01780304 -0.025846357 0.04437876 -0.0011102575
-0.0055662636 -0.005269539 0.027457444 0.025155086 -0.014373755 0.011083437 0.0151145 0.008792132
-0.0049865087 0.028422631 0.02665895 0.030598983 0.00080009585 -0.003742232 -0.011075245 0.02281031
0.004898202 0.016383737 -0.01753227 0.012224487 0.029494558 0.007967689 -0.01801201 2.8720824e-06
0.032682315 -0.018990617 -0.004998237 0.0455953 0.024903676 0.027194988 0.026117332 -0.023251556
-0.012163328 -0.015325647 -0.020155836 -0.021080706 -0.017394787 -0.017444557 -0.012443692 -0.018721202
0.024760041 -0.021758918 0.02000366 0.00243424 -0.016927311 -0.021332476 0.02198359 0.005977425
0.021557797 -0.017994497 0.0492181 -0.008485514 0.004264566 -0.018695094 -0.024167918 -0.024531405
-0.018078825 0.035137966 -0.009220302 -0.024256425 0.004182994 -0.018439008 -0.0171626 -0.0166687
-0.023306223 0.013421173 -0.00828631 0.027394751 0.021754432 -0.023195682 -0.014090043 -0.020890588

network_body._body_endoder.seq_layers.2.weight f4 [128, 128]
00000000: d95b 25be 10de 7bbd 7e14 2e3d a054 7cbd
00000010: 640e e03b 8179 5dbd b021 c3bc efcd bc3c
00000020: 9074 2b3e d5aa 9cbd e8c5 43be f71a 5abd
00000030: 31dc 79bd d7a3 1cbe c3fc 13be 7f87 7d3a
00000040: a084 993d 10be 6abd 611d 2bbb 69a1 e939
00000050: bcd8 a5bc eabb 1a3e 1747 d03d 8a0c 003d
00000060: 90f2 fdbd 6dee 873e 5f97 71bd 9ed2 48bd
00000070: eb3a 593e 4349 853c 3621 a03d 0d54 e1bd
00000080: df09 0c3e d36f a23d 1e08 39be 7735 733d
00000090: d421 b63b 5ec3 31bb 9af9 f0bc e040 083e
000000a0: f534 5abc 6230 5b3d a6a4 8bbd 33d4 01bd
000000b0: e32b 253d a43b 26be a043 203e aaf5 533d
000000c0: 8136 e93c b7cb 0b3b 400c 0cbd 57c4 743d
000000d0: a46f 11bd f0b7 e23c 25b3 4abe 582b c5bd
000000e0: b4a7 803d 594e 143d ac82 11bd aa7a 61bd
000000f0: e4a0 e23c 3985 043e ac80 e3bc 00bb 2c3d
00000100: e69b 9dbd 292f 8c3d e0cc c13d bbd6 ff3c
00000110: 0528 573d 1ddc 143d 6ea9 fc3d 33f1 e4bc
00000120: 8075 27b8 091a 8d3d 8305 7e3c 76fe 10bd
00000130: 779d 37bd d5ab 21be 1c02 10bd 3ccc 83ba
00000140: 0a36 ae3d b7ea 61bc d83f 2fbd 0326 033e
00000150: e94c c13d 04d6 13be a5b0 c53b cfe3 d53d
00000160: def1 1a3e adca 82bd 1926 8d3d 91d0 823b
00000170: a7b1 cb3d b1ea 9d3e 3a7c 4b3e 4d6a aabd
00000180: 03f6 f5bd e145 6639 340c 72bc e8b6 5ebd
00000190: de82 aa3d 474a d5bc 1cf6 2c38 3001 6fbd
000001a0: ab97 9e3c 95dd 50bc 4af2 9a39 f882 91bd
000001b0: 0223 cf3c 4017 393d 35ad 78bd 943f af3d
000001c0: 5a29 ea3d a47f e3bd dbd2 163a b6c6 223e
000001d0: 0531 efbd 7dc8 cdbd df89 513c 4c03 a3bd
000001e0: 0383 7e3d 5b3b 47bd 3c7f f83d 5bbe eebb
000001f0: 1b1e 36be 4462 b83d 9bbc ae3d d8ba 09b9
00000200: ecb3 4b3d ca97 9bbb dadf 1dbe 919b 3fbd
00000210: 7609 4cbd 6dcb d2bd a5f5 43bd 2ddb 23be
00000220: f73e e6bc bedb 4cbd ed8e 1c3d a886 c83c
00000230: 7e34 d23d 8ce8 0e3c 4195 07bc 87c6 5bbd
00000240: ec36 a63d a0fd a2bc dbaa 4c3d d1f8 183b
00000250: c706 77bc 239d 273d 2677 7d3d d866 593d
00000260: 4620 9d3d 8b33 39bd 5a62 b63d ae90 edba
00000270: d5e1 6d3c 6109 f3bd dc3f 91bc fdc5 12bd
00000280: 5319 25bd 58d5 d5bd 3ff9 0fbe 3e10 e23d
00000290: 9518 633d e8f8 c43d 5808 a63d b8fc 0f3e
000002a0: 8b6a 403c d9a6 f6bc 2598 b33d 74b7 2b3e
000002b0: d671 343b 10ef e23d 1d14 f3bc 1184 4f3e
000002c0: c5a2 df3d be5c c2bd 3732 a5bd 2594 96bb
000002d0: cf15 623d 5eee 043d 92ae c3bc ff87 cabd
000002e0: de23 cebd 33f8 eb3d e26e 5f3c 6143 863b
000002f0: 8d5d f53c ea5b b23d c004 7a3c 1321 f63c
00000300: d4d9 11be 1325 2dbe 1f9f e23d aa20 163e
00000310: e533 ab3d 03b5 09bc 3a6e 8f3d 64a4 f6bc
00000320: 2179 b4bc 8fde e4bd 98f3 c2bd e611 52bd
00000330: 992f 183e 1934 0abe 1577 4c3d 2531 243e
00000340: 1253 073e 4c03 03be ee98 adbd 2a93 7cbd
00000350: f104 cc3c bf08 4fbe 57b4 28bc 57ff 223e
00000360: 445c 9f3c 4901 dd3d 8c81 983d 769c f83d
00000370: b661 10be 131f 05bd 576d edbb a197 2bbe
00000380: 6ec6 613d d039 6bbd 36aa f73c 5b60 ef3d
00000390: cd47 fb3d deaf ef3d a51a 11bd 8db0 96bc
000003a0: 5ceb 153c 8aff 8e3d 17a7 aebd 776b 28be
000003b0: 1360 3bbd 0119 dc3d 776a a6bc cdab a3bb
000003c0: 930a 863b 6eb5 c7bd 567a ad3d 1a70 05bc
000003d0: 0d81 6bbd 9535 65bd 8faa bcbc 0174 193d
000003e0: 3e74 2ebd 3d05 f6bc a99f 093d 619f 933d
000003f0: 945c b2bc 12d2 3abe 9ce8 ebbd 248e a1bc
-0.16148318 -0.061491072 0.04250001 -0.061604142 0.006837653 -0.054070953 -0.023819774 0.023047416
0.16743684 -0.07649771 -0.19118464 -0.053248372 -0.061001007 -0.15296875 -0.1445189 0.00096713746
0.07495999 -0.057310164 -0.002611004 0.00044561483 -0.020244949 0.15110746 0.10169809 0.03126196
-0.12399781 0.26549092 -0.05898225 -0.049028985 0.21213882 0.016270285 0.078188345 -0.110023595
0.1367564 0.07931485 -0.18069503 0.05937716 0.005558232 -0.0027124505 -0.029415894 0.13305998
-0.01331829 0.05351294 -0.068185136 -0.03169651 0.040325057 -0.16233689 0.15650797 0.051747955
0.028468372 0.002133114 -0.03419137 0.059757557 -0.03550686 0.027675599 -0.197949 -0.09627408
0.06281987 0.03620753 -0.03552501 -0.055048622 0.02766461 0.12941445 -0.027771316 0.042170525
-0.07695751 0.068449326 0.09462905 0.031230321 0.0525284 0.03634273 0.12337004 -0.027947044
-3.9925333e-05 0.068897314 0.015504244 -0.035398923 -0.044827905 -0.15788205 -0.03515826 -0.0010055373
0.08506401 -0.013788871 -0.042785496 0.12807469 0.094384976 -0.14437109 0.0060330206 0.10443842
0.15131328 -0.063863136 0.06892032 0.003992148 0.09945994 0.30843118 0.19871607 -0.083210565
-0.12009814 0.00021960541 -0.014773417 -0.05437365 0.08325742 -0.026036395 4.1237203e-05 -0.058350742
0.01935943 -0.012748142 0.00029553688 -0.071050584 0.025285248 0.04518819 -0.060712058 0.085570484
0.114336684 -0.1110833 0.0005753466 0.15896115 -0.116792716 -0.10048006 0.012789219 -0.07959613
0.06213666 -0.04864059 0.12133643 -0.0072858757 -0.17784922 0.09003118 0.085320674 -0.00013134943
0.049732134 -0.0047483193 -0.15417424 -0.04677922 -0.04981371 -0.10292707 -0.047841687 -0.16001578
-0.028106196 -0.05001425 0.038222242 0.024478272 0.10263918 0.008722436 -0.008275331 -0.053656127
0.08115944 -0.019896328 0.049967628 0.0023341666 -0.015077299 0.04092134 0.061881207 0.053076595
0.07672171 -0.04521517 0.08905478 -0.0018124783 0.014519175 -0.11867023 -0.017730646 -0.035833348
-0.040307354 -0.10441083 -0.14059924 0.11038254 0.055443365 0.096177876 0.0810706 0.14061248
0.011744152 -0.030108856 0.08769254 0.167692 0.0027533672 0.11080754 -0.029672677 0.20265223
0.10919718 -0.094903454 -0.08066218 -0.004595297 0.05519658 0.032453887 -0.023886953 -0.098892204
-0.10065435 0.115219496 0.013637276 0.0040973877 0.029951835 0.087089375 0.015259922 0.030045068
-0.14243251 -0.16908674 0.11065506 0.14660898 0.083595075 -0.008404973 0.07003446 -0.030107684
-0.022030415 -0.11175262 -0.09519118 -0.0512866 0.14861907 -0.13496436 0.049918253 0.16034372
0.13215283 -0.12794226 -0.08476435 -0.061663784 0.0249047 -0.2021818 -0.010296903 0.15917717
0.019453175 0.10791261 0.07446584 0.121392176 -0.14099774 -0.032500338 -0.0072457003 -0.1675706
0.055120878 -0.05742818 0.03023253 0.116883 0.12269554 0.11703466 -0.0354258 -0.018394733
0.009150352 0.06982334 -0.085279636 -0.16447245 -0.04574592 0.107469566 -0.020314438 -0.0049948455
0.004090616 -0.09751402 0.08470599 -0.008144403 -0.05749612 -0.055959303 -0.023030547 0.037464146
-0.042591326 -0.030031795 0.03359953 0.072081335 -0.02177266 -0.18244198 -0.11518976 -0.019721098

network_body._body_endoder.seq_layers.2.bias f4 [128]
00000000: 1667 76bc 22d4 60bc 516a 46bc e7e5 7e3c
00000010: 7379 8cbc 99ba b2bc 60a5 ac3c 20d4 9e3c
00000020: de13 11bc 44af b1bc 46ab b43b 71cd 023d
00000030: cbf3 8f3c f3b3 adbc e117 ca3c e593 be3c
00000040: 55f8 a63c 7b48 68bc 91b4 953c 49b5 acbc
00000050: 1cb0 81bc 09ef 88bc 8228 a7bb fbbb b6bb
00000060: 7b81 a03c 805c 8c3c fe4d a0bc 73d7 95bc
00000070: 2701 af3c 4148 913c 9904 2abc 63cd 9dbc
00000080: 626a 853c 3774 373d fde1 28bc 53f2 093d
00000090: 4b4e 8fbc 768f 3bbc b5ca b2bc 7d5b fd3c
000000a0: e6df e23c 4d83 08bb 7a3e aebc 5557 28bc
000000b0: 21f4 b2bc fc4e 0f3d f57b 953c 9b99 fabb
000000c0: e5a8 88bc b218 65bc e9e7 323d 7efa 883c
000000d0: cafa be3c c313 253d bf37 cbbc 5d91 aabc
000000e0: a44c 103d b6dc e0bc c9d9 cdbc 1524 babc
000000f0: 46db 99bc 99a8 9abc ed6f 1cbc e571 143d
00000100: 5cb1 b2bc d91e 84bc 3bc7 98bc f8d7 51bc
00000110: 6ed3 cf3c fc53 44bc f4a3 853c 5a03 b13c
00000120: 8c30 abbc 6020 cf3c cf50 f03c 4ec3 f9bb
00000130: b3db 873c ba51 483d 57b1 a03b 0f1c a7bc
00000140: 95ad 113d cab5 70bc 9d49 acbc 87af abbc
00000150: 5da6 10bc 01a1 743c 0da4 7abc 1391 cbbc
00000160: 20e5 9cbc d40d 86bc 5638 213d 22c9 98bc
00000170: 6f15 fb3c 167f f3bc ffbc 97bc 6cb7 083d
00000180: bd6a 6dbc 3ced 93bc ea8d a3bc 3ba6 fb3c
00000190: e4d6 c1bc 4b0e 123d 0328 b63c a8a8 9ebc
000001a0: 7815 ea3c 35ab 243d 4f53 b63c ca91 c83c
000001b0: 2dec ee3c cdeb fe3c 759f d43c 3c0f 833c
000001c0: 51e1 1fba 3720 283d 4679 eb3c e2ee 33bc
000001d0: c425 bbbc f71d a1bc ebeb 6dbc c4d6 b13c
000001e0: b95e 80bc 4dfd da3c 81b2 8abc 0c8f ab3c
000001f0: 0d81 9e3c ff40 9cbc 3c58 6b3c 0b1f aabc
-0.015039226 -0.013722451 -0.012110309 0.015557743 -0.017147755 -0.021817492 0.02107495 0.019388258
-0.008854834 -0.021690018 0.0055135814 0.031934205 0.017572304 -0.02120397 0.02466959 0.023263881
0.020382086 -0.014177437 0.018274577 -0.021082537 -0.015831046 -0.016715543 -0.0051012645 -0.0055766082
0.019592991 0.017133951 -0.01956844 -0.01829121 0.021362854 0.017734649 -0.010377073 -0.019262975
0.016286079 0.044788565 -0.010307786 0.033678364 -0.017493388 -0.011447778 -0.021825174 0.030927414
0.027694654 -0.0020830214 -0.021270026 -0.010274728 -0.021844925 0.034987435 0.018247584 -0.0076477057
-0.016682098 -0.013982939 0.043678198 0.016721006 0.023312945 0.04030205 -0.024806855 -0.020821268
0.03522934 -0.027448993 -0.025128262 -0.022722283 -0.018781316 -0.018879222 -0.00954817 0.03624143
-0.021813087 -0.01612799 -0.018649688 -0.012807839 0.025369372 -0.011982914 0.01631353 0.021608043
-0.020897172 0.025283992 0.029335408 -0.007622159 0.016584253 0.048906066 0.004903953 -0.020399122
0.03556593 -0.014691779 -0.021031195 -0.020957721 -0.008828727 0.014930964 -0.015297902 -0.02484945
-0.019152224 -0.016364016 0.039360367 -0.018650595 0.030649869 -0.029723685 -0.018522738 0.03337805
-0.01449078 -0.018057458 -0.01996513 0.030718913 -0.023662038 0.035658162 0.022235876 -0.019367531
0.02857469 0.04020234 0.022256522 0.02448358 0.029165352 0.031118298 0.025954941 0.015998475
-0.00060989434 0.041046347 0.028744351 -0.010982247 -0.022845156 -0.019667609 -0.014521579 0.021708854
-0.015670167 0.026732111 -0.01693082 0.020942234 0.019348646 -0.019073961 0.014364298 -0.020766756

action_model._continuous_distribution.mu.weight f4 [1, 128]
00000000: 4e47 02bd a2c4 51ba ddfd 04bb 52c1 ee3b
00000010: 5a7e 05bc 1d23 6abc 0051 b03c e0bb e23c
00000020: b08a 5f3a af91 10bd 8685 9d3a 0e93 fa3c
00000030: dc7a 033d 9b19 a6bc 1220 993c 86f6 b53c
00000040: 983e 903c 6521 babc 7bf9 b13c 96b4 edbc
00000050: 9b1c 01bb cd77 bebc 2363 8dbb c58d a6bb
00000060: 11fa 773c 01e3 923c 1e1d 01bc 1099 13bd
00000070: d21a a23c 16ea 283d 7bce 9ebb 61bc 98bc
00000080: deff a53c cd04 0c3d b73c adbb 2747 ce3c
00000090: bef9 0bbd 1029 98bd 298d d7bc 2908 673d
000000a0: 8c79 0d3d b486 8a3b 6a5f 21bc 8a9e ebbc
000000b0: 9f82 8cbb 81c6 853c 51bf 093c 6308 df3a
000000c0: 9b90 13bd 1106 06bd 92c6 2d3d 6765 1a3c
000000d0: d3cf 683d e71c 943c 1f56 34bc 2a68 1bbc
000000e0: 0fb8 783d 5964 d2bb fdad 05bc 5072 83bc
000000f0: d804 5abc 9855 2dbd f646 d9bc 0982 d73c
00000100: 321e ebbc f7ec 67bc 2bb4 e1bc 6e8e babc
00000110: b324 da3c f8a7 55bd 06fe 3d3c bf74 1d3c
00000120: 34fd 07bd cae2 dc3c f0d7 d33c 8527 0cbd
00000130: 021a 033c da7c 0b3d d025 8d3a 32d7 c7bc
00000140: 5d7a 0d3d 6151 10bb 8083 75bc 04e1 46bc
00000150: b17c 2fbd 1616 043d 931f edbc 4b01 0cbc
00000160: 0abf 99bc 49f2 b1bc de77 3b3d 1dcf 97bc
00000170: 3a9b a33c 0a22 cebb 7d2f 51bc e8e9 3a3d
00000180: 7dbe 31bc ef0c 17bd 3ed4 64bd 7b16 893c
00000190: 1e26 c2bc ee4a b93c a881 163c f1bb 0abd
000001a0: 0913 0f3d 9aef 363d c81d 523c d230 5f3c
000001b0: 409b c53c 1fd0 e13c 14d6 3d3d 3fa5 483c
000001c0: da19 d2ba 2e65 ea3c 2007 243d 5548 3ebd
000001d0: 2ab1 00bd 256c 35bc 04d0 0bbd 0d7a db3b
000001e0: b78c 18bd 3b13 5e3c 3dc2 e0bc d6bb 053d
000001f0: 1be4 5d3c 5d9a 3abc 20be 133c 955a 43bc
-0.031806283 -0.0008002018 -0.0020292916 0.007286229 -0.0081478 -0.014290598 0.021522999 0.027677476
0.0008527441 -0.035295185 0.0012017942 0.0305877 0.03209959 -0.020275882 0.01869205 0.022212278
0.017607972 -0.022721002 0.021725407 -0.029016774 -0.0019700888 -0.023250485 -0.0043147965 -0.005082818
0.015135304 0.01793051 -0.007880477 -0.036034644 0.01978818 0.041238867 -0.0048463917 -0.018644514
0.020263609 0.034184266 -0.005286779 0.025180412 -0.03417372 -0.07429707 -0.026312428 0.056404267
0.034539744 0.0042274836 -0.009849409 -0.02876212 -0.004288032 0.016330006 0.00840743 0.0017016049
-0.03602658 -0.03272063 0.0424257 0.00942359 0.05683882 0.018080188 -0.011006861 -0.009485284
0.060722407 -0.006420654 -0.008159158 -0.01604572 -0.013306819 -0.042317957 -0.026523095 0.026307123
-0.028700922 -0.014155618 -0.027551731 -0.022772994 0.026628828 -0.05216214 0.011596208 0.009610354
-0.033200458 0.02696361 0.025859803 -0.034217376 0.008001806 0.034054615 0.0010768715 -0.024394605
0.034540523 -0.0022021162 -0.014984965 -0.012138609 -0.042843524 0.032247625 -0.02894572 -0.00854523
-0.018767852 -0.021721976 0.04576861 -0.018531376 0.019971479 -0.006290679 -0.01276767 0.045633227
-0.010848639 -0.03687757 -0.055866472 0.016734352 -0.023699816 0.022618737 0.009186186 -0.03387064
0.034930263 0.044662096 0.012824483 0.0136224795 0.02412188 0.02756506 0.04634674 0.012246429
-0.0016029433 0.0286127 0.040045857 -0.0464557 -0.031418957 -0.011073147 -0.034133926 0.006697899
-0.03724357 0.01355439 -0.02743637 0.032649837 0.013543154 -0.011389342 0.009017497 -0.011923452

action_model._discrete_distribution.branches.0.weight f4 [1, 128]
00000000: 704b cdbb 7b20 c338 d51f b6bb 17fa fab8
00000010: d369 60bb d09e 74bc 181f 6abc 3d2c e33b
00000020: b066 82bc 4b5f 663c 3b35 f23a b1ba 853c
00000030: 7b90 4f3c b666 cc3b 3205 903b c564 d23b
00000040: 5b24 9c3c 63db 393a 334c 0ebc 14f3 1f3c
00000050: cf35 063c 9fa7 9d3b f94e 043d 9163 15bb
00000060: bfec 3d3b a970 b03b 679b 493b 4a82 ed3b
00000070: 4be1 783c 934b f93a ff70 2bbc 7a03 b73b
00000080: cb0a a8bb 6c00 833b 206a dbbb 4b6b c53b
00000090: c820 83bc 7978 45bc a00a ec3b d00a 893c
000000a0: db1d f8ba 26c3 90bb 4eec b4bb a128 183c
000000b0: 9919 9abc 4c62 b3ba 9570 c83a 7fdb fb3b
000000c0: 8da4 81bc 58d4 dfbb bc42 3a3c 7a0b 19bb
000000d0: b7f0 d9bb 5b09 663c 1314 743b 322a dd3b
000000e0: 2268 883c 94b5 1e3b 4701 efba c799 08bc
000000f0: f7ee b4bb 0f6c efba 07ff 7dbc 94d2 063b
00000100: a443 3dbc 2591 1f3c 4f1c ca3b db4f ab3c
00000110: 0d0e d13b ed4b de3b bb08 efbb 6d92 583c
00000120: 0d18 50bb db08 cd38 c81b 51bc 401b 863c
00000130: c938 0cba a06e 693c f986 3f3b 3760 94bb
00000140: 2f80 263c c3a3 e6bb e27f 4cbc d79b 4e3a
00000150: 7208 fd3a b2db 6f3b 3e56 c33b 13e0 efbb
00000160: 45d2 d5bb 253a 0fbc 2b1d a23b 96de 49bb
00000170: 01d6 8e3b bd00 25bc 516e 9cbb d1ef 90bb
00000180: a3ad 85bb 1cf7 a93a abad e33b 9650 2abb
00000190: dd90 a73b 9802 dcba 3438 a4bb e415 023a
000001a0: 0278 993b 23a1 bfbb cfc5 11bb 8627 c4bb
000001b0: 9320 c4bb 4aa0 553b c0da 1e3c 6b11 2e3b
000001c0: 4206 f9ba ea6d 9ebb 33aa 3c3b be5f 2cbc
000001d0: 20b4 22bb aa4b 70bb 6fa9 ebbb 2b98 943a
000001e0: 63ed 0a3a 1a65 6fbb c30b 11ba e49e c43b
000001f0: 6dec 743b 6514 46ba eaa3 52bc ada3 ddbb
-0.0062650964 9.3043745e-05 -0.005557994 -0.00011967512 -0.0034242764 -0.014930442 -0.01428964 0.006932764
-0.015918106 0.014060806 0.0018478999 0.016324373 0.012668724 0.00623783 0.0043951506 0.006420704
0.019060304 0.0007089881 -0.0086851595 0.009762544 0.00819154 0.0048112418 0.032301877 -0.0022794942
0.0028980223 0.005384524 0.0030762793 0.0072481977 0.015190433 0.0019019715 -0.010463952 0.0055851312
-0.0051282397 0.003997853 -0.0066960007 0.006024753 -0.016006842 -0.012052649 0.007203415 0.016728789
-0.0018929796 -0.0044177948 -0.005521334 0.00928703 -0.018811034 -0.0013685911 0.0015292341 0.007686078
-0.015825534 -0.0068307333 0.01136845 -0.0023352788 -0.00665101 0.014040316 0.003724341 0.006749415
0.016651217 0.0024217116 -0.0018234634 -0.008337445 -0.005521651 -0.0018266457 -0.015502698 0.0020572292
-0.011551771 0.009739195 0.0061679254 0.020912101 0.006379849 0.0067839534 -0.007294742 0.013218504
-0.0031752617 9.776811e-05 -0.012762971 0.016370416 -0.0005349038 0.014247566 0.0029224737 -0.0045280713
0.010162397 -0.007038565 -0.0124816615 0.00078814983 0.0019304885 0.0036599454 0.0059612086 -0.007320413
-0.00652531 -0.00874189 0.0049473247 -0.0030802838 0.0043590073 -0.010070977 -0.004773893 -0.0044231196
-0.004079537 0.0012967321 0.006948193 -0.0025987974 0.0051137046 -0.0016785441 -0.0050115827 0.00049623684
0.0046834955 -0.0058480664 -0.0022243147 -0.005986157 -0.0059853285 0.003259676 0.009695709 0.0026560675
-0.0018999057 -0.00483488 0.002878797 -0.010520874 -0.00248266 -0.0036666193 -0.007191829 0.0011336853
0.00052996556 -0.0036528767 -0.00055330637 0.0060003866 0.0037372366 -0.00075561396 -0.012856463 -0.0067638964

onnx::Div_70 f4 [6]
00000000: 1635 4c40 40ad d73f bc38 923b a6ff f13f
00000010: e15a de3c bc38 923b
3.19074 1.6849747 0.0044623297 1.8906143 0.027142944 0.0044623297
