Assets/Models/results/slider_agent/SliderBehavior/checkpoint.pt (torch, 154786 bytes, 19 tensors)

network_body.observation_encoder.processors.0.normalizer.running_mean f4 [7]
0.0 0.0 0.0 0.0 0.0 0.0 0.0
00000000: 0000 0000 0000 0000 0000 0000 0000 0000
00000010: 0000 0000 0000 0000 0000 0000

network_body.observation_encoder.processors.0.normalizer.running_variance f4 [7]
1.0 1.0 1.0 1.0 1.0 1.0 1.0
00000000: 0000 803f 0000 803f 0000 803f 0000 803f
00000010: 0000 803f 0000 803f 0000 803f

network_body.processors.0.normalizer.running_mean f4 [7]
0.0 0.0 0.0 0.0 0.0 0.0 0.0
00000000: 0000 0000 0000 0000 0000 0000 0000 0000
00000010: 0000 0000 0000 0000 0000 0000

network_body.processors.0.normalizer.running_variance f4 [7]
1.0 1.0 1.0 1.0 1.0 1.0 1.0
00000000: 0000 803f 0000 803f 0000 803f 0000 803f
00000010: 0000 803f 0000 803f 0000 803f

network_body._body_endoder.seq_layers.0.weight f4 [128, 7]
0.71103334 -0.782848 -0.34015414 0.30797586 -0.5378902 -0.21830481 -0.30752927 0.026627768
-0.2676924 -0.10209314 -0.23928997 0.058646504 0.16206926 -0.32219398 0.020666853 -0.2653031
0.030043956 -0.059302423 -0.27702084 0.039339412 0.22308919 -0.31733397 0.13589837 -0.2970108
-0.025808012 -8.4680265e-05 -0.48611912 0.34223574 -0.33765614 1.2011107 -0.35666746 -0.72812414
0.64262635 0.37542677 -0.04625869 -0.17100064 -0.03584507 -0.26450095 0.40498972 -0.13981658
-0.03804875 -0.1612593 -0.17470759 0.0726012 -0.42811897 -0.34790778 0.06374646 0.064984895
0.0062213927 0.657878 -0.20199153 -0.08106975 0.3744829 0.44068545 0.12823549 -0.24883807
0.5238833 0.040472746 0.13132268 -0.27066463 -0.015386687 -0.1702276 0.55642927 0.5368906
-0.22585009 0.26142853 0.14847936 0.33997202 0.09518311 0.46328592 0.17171405 0.44189084
0.20561086 0.2546543 0.108028196 -0.099751234 0.2365602 0.26272434 -0.34265363 0.13256462
0.57853085 -0.031635843 0.26497307 -0.085292436 -0.40539342 -0.24095371 0.15232272 -0.037335385
0.026410831 -0.19528362 0.36968246 0.24599202 0.2514967 -0.5727025 -0.44985119 -0.50058514
-0.020140557 0.6859216 -0.4207133 0.42360187 -0.0038228813 -0.08483932 -0.1912733 -0.29387078
-0.18988934 -0.22924076 0.28874305 -0.24994563 0.71454954 -0.019391714 -0.22438885 0.44863933
-0.79679334 -0.18187664 0.23188032 0.18387242 0.04301579 0.6532644 0.051578876 0.46524152
-0.4785154 -0.0051503815 0.6039262 0.2778376 -0.26171577 0.33433518 0.28923813 0.16674323
-0.45464572 -0.40802345 0.485026 0.22766866 -0.258278 -0.24477698 0.036663063 0.2324114
-0.14990927 -0.50187784 -0.3549008 0.038870778 0.10646098 -0.20870186 0.04403562 -0.53747416
-0.88682085 -0.7930694 0.15460853 0.054477464 -0.35191756 0.20507781 -0.37456787 -0.35097277
-0.17398913 0.47964785 0.19841334 -0.35797045 -0.4371204 -0.11788444 0.04764563 -0.1580436
-0.04868898 0.15778013 -0.11077714 0.018206714 -0.1624608 -0.082325734 0.2649578 0.29973996
-0.09691452 -0.07442247 0.5997 0.13391611 0.10267684 -0.0676477 -0.33075583 0.15287879
-0.3305184 0.0005823297 0.4919548 0.48011804 -0.6021511 0.5230067 0.82583296 0.7165635
-0.6563223 0.17780615 0.012856119 0.31832206 -0.14290522 -0.10346542 -0.29123065 0.651043
1.0838379 -0.49903324 -0.26854238 0.8726303 -0.03400517 -0.21385464 0.29333684 -0.17560479
0.011001423 -0.09518776 0.5044357 0.8451919 0.89101857 -0.0050048516 0.37379444 -0.18988784
-0.37397757 0.20434688 -0.31380025 0.017225234 0.21165156 0.059603978 0.26126316 0.528762
-0.56446517 0.43689904 0.09283926 0.43416512 -0.1716283 0.4111858 -0.1236688 0.48218995
-0.094474934 0.57759565 -0.29790846 0.49776357 -0.7082359 0.43573987 0.17667128 0.054788202
0.83578855 -0.24185109 0.14538491 0.3421934 0.18682149 0.11126503 0.1371395 0.86046195
0.3312482 0.018132119 0.6465533 -0.22100605 0.71026623 0.37474 -0.39931607 -0.07114472
-0.16227387 0.82190925 0.6718984 -0.09149384 -0.3289642 0.06026717 0.18482107 -0.46148247
00000000: 4806 363f ba68 48bf af28 aebe 03af 9d3e
00000010: 2cb3 09bf 4c8b 5fbe 7a74 9dbe 7a22 da3c
00000020: fa0e 89be 3516 d1bd 6e08 75be 5137 703d
00000030: 7cf5 253e 9cf6 a4be 884d a93c cfd5 87be
00000040: be1e f63c 19e7 72bd add5 8dbe 5d22 213d
00000050: 7e71 643e 9979 a2be f128 0b3e cd11 98be
00000060: 536b d3bc 5f96 b1b8 9be4 f8be 8639 af3e
00000070: 44e1 acbe ffbd 993f 1e9d b6be 5866 3abf
00000080: 2983 243f f037 c03e c179 3dbd cb1a 2fbe
00000090: 48d2 12bd ab6c 87be d05a cf3e 142c 0fbe
000000a0: 02d9 1bbd 2821 25be 8ce6 32be f0af 943d
000000b0: 6932 dbbe f820 b2be 818d 823d cd16 853d
000000c0: d3dc cb3b b16a 283f ded6 4ebe e607 a6bd
000000d0: 39bc bf3e 86a1 e13e 2a50 033e 68cf 7ebe
000000e0: 371d 063f c0c6 253d 7479 063e 8e94 8abe
000000f0: 7118 7cbc 2550 2ebe 2672 0e3f aa71 093f
00000100: 3f45 67be f6d9 853e f90a 183e d010 ae3e
00000110: 5def c23d d033 ed3e cfd5 2f3e 843f e23e
00000120: a78b 523e 0c62 823e e33d dd3d 604a ccbd
00000130: d63c 723e ce83 863e 4c70 afbe 05bf 073e
00000140: 991a 143f 9694 01bd 8daa 873e cdad aebd
00000150: ba8f cfbe 92bc 76be 7dfa 1b3e fdec 18bd
00000160: 875b d83c 6ef8 47be 0547 bd3e 55e5 7b3e
00000170: 2dc4 803e a29c 12bf e552 e6be 5926 00bf
00000180: cffd a4bc 8f98 2f3f bc67 d7be 58e2 d83e
00000190: 4e89 7abb 3dc0 adbd 26dd 43be 3b76 96be
000001a0: 5a72 42be 17be 6abe 21d6 933e bff1 7fbe
000001b0: b8ec 363f 5fdb 9ebc 31c6 65be 0eb4 e53e
000001c0: a6fa 4bbf df3d 3abe 0972 6d3e 0d49 3c3e
000001d0: 5331 303d 563c 273f 5f44 533d 2334 ee3e
000001e0: f8ff f4be 88c4 a8bb e89a 1a3f bb40 8e3e
000001f0: 9cff 85be fb2d ab3e 0517 943e bdbe 2a3e
00000200: 53c7 e8be 73e8 d0be 5455 f83e f921 693e
00000210: 043d 84be d1a6 7abe 022c 163d 41fd 6d3e
00000220: d181 19be 117b 00bf 8fb5 b5be f736 1f3d
00000230: 3708 da3d f1b5 55be b25e 343d e897 09bf
00000240: b106 63bf 9906 4bbf b351 1e3e c323 5f3d
00000250: 8a2e b4be ebff 513e 5cc7 bfbe b4b2 b3be
00000260: 352a 32be 6794 f53e de2c 4b3e e747 b7be
00000270: 3fce dfbe 666d f1bd 1028 433d 2ed6 21be
00000280: 196e 47bd 1d91 213e 20df e2bd 3f26 953c
00000290: 205c 26be 659a a8bd 8ca8 873e 8477 993e
000002a0: 1f7b c6bd cf6a 98bd f085 193f 4e21 093e
000002b0: 3c48 d23d e18a 8abd d458 a9be 428c 1c3e
000002c0: b539 a9be 7ca7 183a 80e1 fb3e 08d2 f53e
000002d0: 9326 1abf c4e3 053f ca69 533f b570 373f
000002e0: bd04 28bf d112 363e 79a2 523c 1cfb a23e
000002f0: bf55 12be aee5 d3bd 2f1c 95be c1aa 263f
00000300: 33bb 8a3f 4981 ffbe 637e 89be b364 5f3f
00000310: 0149 0bbd b6fc 5abe 3f30 963e bed1 33be
00000320: 503f 343c cdf1 c2bd b322 013f 7f5e 583f
00000330: cb19 643f bdff a3bb fc61 bf3e f571 42be
00000340: fd79 bfbe 4f40 513e 6daa a0be ef1b 8d3c
00000350: 30bb 583e 4d23 743d 49c4 853e f25c 073f
00000360: ca80 10bf 3bb1 df3e 8322 be3d e44a de3e
00000370: 54bf 2fbe f286 d23e 1146 fdbd 9ae1 f63e
00000380: 137c c1bd 4fdd 133f 7587 98be deda fe3e
00000390: f34e 35bf 4c19 df3e 51e9 343e 9869 603d
000003a0: 3df6 553f d0a7 77be c8df 143e f933 af3e
000003b0: 224e 3f3e ecde e33d 4c6e 0c3e 3c47 5c3f
000003c0: 5d99 a93e cf89 943c 8484 253f 694f 62be
000003d0: 02d4 353f ecdd bf3e 2873 ccbe 53b4 91bd
000003e0: 1f2b 26be a568 523f 8901 2c3f 1f61 bbbd
000003f0: ff6d a8be b5da 763d bc41 3d3e 6e47 ecbe

network_body._body_endoder.seq_layers.0.bias f4 [128]
0.0 0.0 0.0 0.0 0.0 0.0 0.0 0.0
0.0 0.0 0.0 0.0 0.0 0.0 0.0 0.0
0.0 0.0 0.0 0.0 0.0 0.0 0.0 0.0
0.0 0.0 0.0 0.0 0.0 0.0 0.0 0.0
0.0 0.0 0.0 0.0 0.0 0.0 0.0 0.0
0.0 0.0 0.0 0.0 0.0 0.0 0.0 0.0
0.0 0.0 0.0 0.0 0.0 0.0 0.0 0.0
0.0 0.0 0.0 0.0 0.0 0.0 0.0 0.0
0.0 0.0 0.0 0.0 0.0 0.0 0.0 0.0
0.0 0.0 0.0 0.0 0.0 0.0 0.0 0.0
0.0 0.0 0.0 0.0 0.0 0.0 0.0 0.0
0.0 0.0 0.0 0.0 0.0 0.0 0.0 0.0
0.0 0.0 0.0 0.0 0.0 0.0 0.0 0.0
0.0 0.0 0.0 0.0 0.0 0.0 0.0 0.0
0.0 0.0 0.0 0.0 0.0 0.0 0.0 0.0
0.0 0.0 0.0 0.0 0.0 0.0 0.0 0.0
00000000: 0000 0000 0000 0000 0000 0000 0000 0000
00000010: 0000 0000 0000 0000 0000 0000 0000 0000
00000020: 0000 0000 0000 0000 0000 0000 0000 0000
00000030: 0000 0000 0000 0000 0000 0000 0000 0000
00000040: 0000 0000 0000 0000 0000 0000 0000 0000
00000050: 0000 0000 0000 0000 0000 0000 0000 0000
00000060: 0000 0000 0000 0000 0000 0000 0000 0000
00000070: 0000 0000 0000 0000 0000 0000 0000 0000
00000080: 0000 0000 0000 0000 0000 0000 0000 0000
00000090: 0000 0000 0000 0000 0000 0000 0000 0000
000000a0: 0000 0000 0000 0000 0000 0000 0000 0000
000000b0: 0000 0000 0000 0000 0000 0000 0000 0000
000000c0: 0000 0000 0000 0000 0000 0000 0000 0000
000000d0: 0000 0000 0000 0000 0000 0000 0000 0000
000000e0: 0000 0000 0000 0000 0000 0000 0000 0000
000000f0: 0000 0000 0000 0000 0000 0000 0000 0000
00000100: 0000 0000 0000 0000 0000 0000 0000 0000
00000110: 0000 0000 0000 0000 0000 0000 0000 0000
00000120: 0000 0000 0000 0000 0000 0000 0000 0000
00000130: 0000 0000 0000 0000 0000 0000 0000 0000
00000140: 0000 0000 0000 0000 0000 0000 0000 0000
00000150: 0000 0000 0000 0000 0000 0000 0000 0000
00000160: 0000 0000 0000 0000 0000 0000 0000 0000
00000170: 0000 0000 0000 0000 0000 0000 0000 0000
00000180: 0000 0000 0000 0000 0000 0000 0000 0000
00000190: 0000 0000 0000 0000 0000 0000 0000 0000
000001a0: 0000 0000 0000 0000 0000 0000 0000 0000
000001b0: 0000 0000 0000 0000 0000 0000 0000 0000
000001c0: 0000 0000 0000 0000 0000 0000 0000 0000
000001d0: 0000 0000 0000 0000 0000 0000 0000 0000
000001e0: 0000 0000 0000 0000 0000 0000 0000 0000
000001f0: 0000 0000 0000 0000 0000 0000 0000 0000

network_body._body_endoder.seq_layers.2.weight f4 [128, 128]
0.062904716 -0.027653601 0.039417524 0.04499975 0.101016134 -0.07947403 0.101126455 0.023830097
0.11867059 0.027365098 -0.05052205 -0.0019050662 0.024671799 -0.0037425805 0.10819931 -0.024094155
0.03919567 -0.0576938 0.021089032 0.14555113 0.018407159 -0.1209773 0.044789746 -0.016647192
-0.21432798 0.07320451 0.0628056 -0.09426469 0.08806111 0.11471082 0.03594246 0.03084779
0.112913206 -0.055950474 -0.07819128 0.016537048 0.10606444 0.10472945 0.09647848 -0.01664586
-0.0027240575 -0.06936538 0.0181846 -0.054679602 -0.067829214 -0.0677663 0.026376722 -0.05489362
0.10400994 0.13127184 0.009503563 -0.13848086 0.16902648 0.06292853 0.14044169 0.010309815
-0.11894007 -0.07515216 0.08872123 0.060565814 0.010428937 0.10849938 0.08714138 0.12296678
-0.09487847 -0.03188888 0.059022333 0.15388787 0.015258845 0.08944639 -0.22874382 -0.078054726
0.05399186 -0.2199711 -0.14306302 0.012473111 0.14587456 0.040921062 0.1886451 0.04805142
0.038676262 -0.009394392 0.06364899 0.017319947 0.036426947 -0.0929913 -0.0225668 0.08524035
-0.011114099 -0.052835926 -0.14876437 0.12951891 0.09257413 0.16037223 0.04242072 -0.0910919
-0.11768032 0.11898101 -0.022879587 -0.17536162 0.016376287 -0.1578465 0.022443946 0.09740141
0.063400805 0.09380924 0.12662457 -0.035507157 0.047966905 0.008620074 -0.06801896 0.11539019
0.03141785 -0.1346645 0.124180816 -0.13770097 -0.15532574 -0.034888748 -0.083195895 -0.21179436
0.071440555 -0.14475904 0.027305506 0.013568652 -0.033172738 -0.024032746 0.06343193 0.1108293
-0.004835105 -0.028478296 -0.14107981 -0.095467776 0.0021772091 0.012329114 -0.057414368 0.036760658
-0.10634851 -0.031417064 0.03988047 0.18517451 -0.054380845 0.0115304645 0.048992217 -0.0039053694
-0.06444547 0.1272417 -0.018518997 0.061221357 -0.027716696 0.1754541 -0.026779978 0.070666485
0.101592645 -0.12364992 0.21473141 -0.09292702 -0.077540785 0.07550591 -0.08730268 -0.13696226
-0.080741666 0.048569802 -0.014153394 0.029554376 -0.18648358 0.15764025 0.14082335 -0.022867812
-0.18282023 -0.043530572 -0.024951527 0.023355236 0.06831433 0.069069535 0.01562615 -0.080784895
-0.23527534 -0.032985713 -0.09694939 0.04539363 0.08864354 0.021821981 -0.018094536 0.12294745
-0.09808946 0.13133335 -0.034705844 -0.04009312 0.140911 0.06295833 0.0030288692 0.15605375
0.07074124 -0.073869854 -0.101994194 0.035446018 -0.005715706 0.1102025 0.09063334 0.04516421
0.15252289 0.09588649 0.028328285 -0.01592971 -0.027699491 0.048711963 0.037141316 0.1719738
0.1446113 0.22672471 -0.033368707 0.05736136 -0.038441226 -0.016074346 0.0015388118 -0.050330807
-0.048470937 0.019788297 -0.14410245 -0.08478798 0.016035907 0.044500537 -0.118979655 0.04510277
-0.028074147 -0.06888209 -0.07227739 0.08584213 0.054872647 0.0063638277 0.1211158 0.04720243
0.0241852 -0.06164792 0.17814536 -0.10195477 -0.039774843 -0.0152204605 -0.08172318 0.011913155
0.13441241 0.05966217 -0.005775809 0.04344252 0.05639058 0.09117059 -0.11349326 -0.057886563
0.08288389 -0.034688886 0.020093076 -0.07006446 -0.115334846 0.020671584 -0.010174258 -0.0077326545
00000000: 30d4 803d ce89 e2bc 4574 213d a851 383d
00000010: 8ce1 ce3d 48c3 a2bd 631b cf3d 5637 c33c
00000020: 9109 f33d c52c e03c 36f0 4ebd 6ab3 f9ba
00000030: 831c ca3c 1546 75bb 9a97 dd3d 1b61 c5bc
00000040: a48b 203d 5650 6cbd e8c2 ac3c 5b0b 153e
00000050: 9cca 963c f2c2 f7bd 7475 373d b15f 88bc
00000060: cb78 5bbe 3fec 953d 39a0 803d d90d c1bd
00000070: 6259 b43d 82ed ea3d 6738 133d 81b4 fc3c
00000080: 0a3f e73d 532c 65bd c022 a0bd b478 873c
00000090: 5038 d93d 657c d63d 8296 c53d e65c 88bc
000000a0: 1a86 32bb 700f 8ebd dff7 943c b8f7 5fbd
000000b0: 0bea 8abd 0fc9 8abd ff13 d83c 22d8 60bd
000000c0: 2a03 d53d 206c 063e d5b4 1b3c edcd 0dbe
000000d0: 4715 2d3e ace0 803d f2cf 0f3e 80ea 283c
000000e0: da96 f3bd 60e9 99bd 7ab3 b53d dc13 783d
000000f0: 22de 2a3c ec34 de3d 2e77 b23d 02d6 fb3d
00000100: a54f c2bd ea9d 02bd 67c1 713d c894 1d3e
00000110: 3c00 7a3c ab2f b73d d23b 6abe 28db 9fbd
00000120: 9226 5d3d 1b40 61be 1d7f 12be 055c 4c3c
00000130: 2460 153e d89c 273d 2e2c 413e 91d1 443d
00000140: 006b 1e3d f0ea 19bc 675a 823d 90e2 8d3c
00000150: 6c34 153d 3972 bebd 02de b8bc 7e92 ae3d
00000160: e917 36bc 7c6a 58bd b055 18be 9ba0 043e
00000170: 8197 bd3d 9e38 243e 59c1 2d3d 648e babd
00000180: 6102 f1bd 51ac f33d f96d bbbc ff91 33be
00000190: 9027 863c 83a2 21be 5edc b73c 647a c73d
000001a0: 48d8 813d 0f1f c03d dfa9 013e f46f 11bd
000001b0: f278 443d 363b 0d3c 864d 8bbd b151 ec3d
000001c0: 01b0 003d 7ee5 09be 8352 fe3d 7c01 0dbe
000001d0: b60d 1fbe 81e7 0ebd 9c62 aabd 9fe0 58be
000001e0: 6d4f 923d b73b 14be ccaf df3c 0d4f 5e3c
000001f0: 23e0 07bd 52e0 c4bc 9ae8 813d 79fa e23d
00000200: cd6f 9ebb 514b e9bc 3a77 10be 9c84 c3bd
00000210: 82af 0e3b 0d00 4a3c 542b 6bbd 5892 163d
00000220: 3fcd d9bd 2eaf 00bd b459 233d 639e 3d3e
00000230: 73be 5ebd 46ea 3c3c 10ac 483d 3af1 7fbb
00000240: fdfb 83bd a64b 023e 27b5 97bc 3fc3 7a3d
00000250: 200e e3bc 3daa 333e af61 dbbc 97b9 903d
00000260: ce0f d03d 2b3c fdbd 8de2 5b3e 8550 bebd
00000270: b4cd 9ebd d8a2 9a3d bfcb b2bd d63f 0cbe
00000280: e35b a5bd 21f1 463d a3e3 67bc 051c f23c
00000290: 8df5 3ebe 726c 213e ff33 103e 4755 bbbc
000002a0: 3a35 3bbe 1d4d 32bd 2567 ccbc 7b53 bf3c
000002b0: 62e8 8b3d 5474 8d3d 6902 803c 8d72 a5bd
000002c0: 05ec 70be 071c 07bd 678d c6bd acee 393d
000002d0: bf8a b53d 03c4 b23c fe3a 94bc dfcb fb3d
000002e0: 20e3 c8bd 407c 063e b727 0ebd af38 24bd
000002f0: f94a 103e 4cf0 803d fe7f 463b 8ecc 1f3e
00000300: c9e0 903d 1449 97bd 55e2 d0bd d82f 113d
00000310: d14a bbbb d9b1 e13d f99d b93d 1bfe 383d
00000320: f62e 1c3e 2360 c43d b810 e83c 067f 82bc
00000330: 0bea e2bc 3286 473d 7e21 183d e619 303e
00000340: fc14 143e 862a 683e a0ad 08bd bff3 6a3d
00000350: 8c74 1dbd 59ae 83bc f5b1 c93a ad27 4ebd
00000360: 7689 46bd 111b a23c 988f 13be 52a5 adbd
00000370: bc5d 833c 3246 363d 9bab f3bd afbd 383d
00000380: c1fb e5bc 0e12 8dbd 2b06 94bd 00ce af3d
00000390: 24c2 603d a887 d03b 900b f83d 5657 413d
000003a0: 0a20 c63c 8882 7cbd bd6b 363e aacd d0bd
000003b0: f2ea 22bd 3d5f 79bc 7c5e a7bd 652f 433c
000003c0: 68a3 093e 5260 743d ff42 bdbb c9f0 313d
000003d0: cff9 663d a5b7 ba3d 286f e8bd 761a 6dbd
000003e0: 07bf a93d ef15 0ebd 3c9a a43c f57d 8fbd
000003f0: ad34 ecbd 7457 a93c eeb1 26bc 3562 fdbb

network_body._body_endoder.seq_layers.2.bias f4 [128]
0.0 0.0 0.0 0.0 0.0 0.0 0.0 0.0
0.0 0.0 0.0 0.0 0.0 0.0 0.0 0.0
0.0 0.0 0.0 0.0 0.0 0.0 0.0 0.0
0.0 0.0 0.0 0.0 0.0 0.0 0.0 0.0
0.0 0.0 0.0 0.0 0.0 0.0 0.0 0.0
0.0 0.0 0.0 0.0 0.0 0.0 0.0 0.0
0.0 0.0 0.0 0.0 0.0 0.0 0.0 0.0
0.0 0.0 0.0 0.0 0.0 0.0 0.0 0.0
0.0 0.0 0.0 0.0 0.0 0.0 0.0 0.0
0.0 0.0 0.0 0.0 0.0 0.0 0.0 0.0
0.0 0.0 0.0 0.0 0.0 0.0 0.0 0.0
0.0 0.0 0.0 0.0 0.0 0.0 0.0 0.0
0.0 0.0 0.0 0.0 0.0 0.0 0.0 0.0
0.0 0.0 0.0 0.0 0.0 0.0 0.0 0.0
0.0 0.0 0.0 0.0 0.0 0.0 0.0 0.0
0.0 0.0 0.0 0.0 0.0 0.0 0.0 0.0
00000000: 0000 0000 0000 0000 0000 0000 0000 0000
00000010: 0000 0000 0000 0000 0000 0000 0000 0000
00000020: 0000 0000 0000 0000 0000 0000 0000 0000
00000030: 0000 0000 0000 0000 0000 0000 0000 0000
00000040: 0000 0000 0000 0000 0000 0000 0000 0000
00000050: 0000 0000 0000 0000 0000 0000 0000 0000
00000060: 0000 0000 0000 0000 0000 0000 0000 0000
00000070: 0000 0000 0000 0000 0000 0000 0000 0000
00000080: 0000 0000 0000 0000 0000 0000 0000 0000
00000090: 0000 0000 0000 0000 0000 0000 0000 0000
000000a0: 0000 0000 0000 0000 0000 0000 0000 0000
000000b0: 0000 0000 0000 0000 0000 0000 0000 0000
000000c0: 0000 0000 0000 0000 0000 0000 0000 0000
000000d0: 0000 0000 0000 0000 0000 0000 0000 0000
000000e0: 0000 0000 0000 0000 0000 0000 0000 0000
000000f0: 0000 0000 0000 0000 0000 0000 0000 0000
00000100: 0000 0000 0000 0000 0000 0000 0000 0000
00000110: 0000 0000 0000 0000 0000 0000 0000 0000
00000120: 0000 0000 0000 0000 0000 0000 0000 0000
00000130: 0000 0000 0000 0000 0000 0000 0000 0000
00000140: 0000 0000 0000 0000 0000 0000 0000 0000
00000150: 0000 0000 0000 0000 0000 0000 0000 0000
00000160: 0000 0000 0000 0000 0000 0000 0000 0000
00000170: 0000 0000 0000 0000 0000 0000 0000 0000
00000180: 0000 0000 0000 0000 0000 0000 0000 0000
00000190: 0000 0000 0000 0000 0000 0000 0000 0000
000001a0: 0000 0000 0000 0000 0000 0000 0000 0000
000001b0: 0000 0000 0000 0000 0000 0000 0000 0000
000001c0: 0000 0000 0000 0000 0000 0000 0000 0000
000001d0: 0000 0000 0000 0000 0000 0000 0000 0000
000001e0: 0000 0000 0000 0000 0000 0000 0000 0000
000001f0: 0000 0000 0000 0000 0000 0000 0000 0000

action_model._continuous_distribution.mu.weight f4 [1, 128]
0.011268002 0.024214216 0.021512419 -0.012241355 -0.016181659 -0.006967886 0.04207847 0.0034837336
-0.011430894 0.007939027 0.0016860804 -0.009988907 0.014802751 0.004584755 -0.02664387 -0.004989173
0.0031785022 0.0063856863 0.002950286 -0.0067975284 -0.03009433 0.02589476 -0.026121229 0.011007256
0.0024346884 0.0075819986 -0.004416254 0.0064779194 0.0075023025 0.0074420124 -0.0006836033 0.03502933
-0.00998903 -0.014471145 -0.009775269 0.017705936 0.013888811 0.00012856646 0.022063287 -0.011985182
-0.02318169 0.006281953 0.02162576 0.001187818 0.010504346 0.03176033 0.012082062 0.0016570276
0.03338734 -0.0012895479 0.013444168 -0.022131609 0.02758441 -0.03584347 -0.029205063 0.0038933603
-0.029415417 0.0065779323 0.0063147224 0.01155461 -0.011013283 0.018169582 0.03656986 0.018189216
0.011219439 0.024760632 0.008304773 -0.013833741 0.016230633 -0.0098145865 0.01027787 -0.034718003
7.969495e-05 -0.010614938 -0.0064047906 -0.001326129 0.014755107 0.031627998 0.05112418 -0.013157928
0.016844844 -0.010971793 0.033374153 0.02146469 -0.020056996 -0.009286001 0.0059055854 0.0023859944
-0.021708896 0.0054451157 0.00564393 -0.013687481 -0.015958617 0.005103896 0.001323134 -0.008775402
0.006520173 -0.0015615945 -0.007442104 0.012585883 -0.009853592 -0.0202085 0.0073135123 0.0048493464
0.01236534 0.014668591 0.0019613155 8.0033555e-05 -0.03505388 -0.003536968 0.023676494 0.022094037
0.022983419 0.0027324944 0.013979413 -0.0005794164 -0.010008435 -0.0026711936 -0.014537834 -0.00847548
-0.015322924 -0.007664937 0.003340544 -0.0051692217 -0.043088187 -0.01652318 -0.014529625 0.01683713
00000000: 6d9d 383c e45c c63c d03a b03c f78f 48bc
00000010: 668f 84bc dd52 e4bb 795a 2c3d 5a4f 643b
00000020: a548 3bbc b112 023c 78ff dc3a 83a8 23bc
00000030: 3d87 723c b63b 963b 3f44 dabc 377c a3bb
00000040: 6b4e 503b 053f d13b 9659 413b cdbd debb
00000050: 6288 f6bc 3f21 d43c 30fc d5bc c757 343c
00000060: 4b8f 1f3b 6a72 f83b 39b6 90bb ba44 d43b
00000070: e0d5 f53b 20dc f33b d733 33ba ea7a 0f3d
00000080: 07a9 23bc 6218 6dbc 7328 20bc 0a0c 913c
00000090: e58d 633c cccf 0639 11be b43c 7f5d 44bc
000000a0: 87e7 bdbc d7d8 cd3b 8128 b13c 8fb0 9b3a
000000b0: 6c1a 2c3c 1f17 023d d7f3 453c 9f30 d93a
000000c0: 2ac1 083d 0c06 a9ba ed44 5c3c 594d b5bc
000000d0: b3f8 e13c 9ad0 12bd 753f efbc bf27 7f3b
000000e0: 9af8 f0bc b28b d73b bbeb ce3b 8c4f 3d3c
000000f0: 0f71 34bc 60d8 943c 47ca 153d 8d01 953c
00000100: bdd1 373c cfd6 ca3c be10 083c eaa6 62bc
00000110: 1bf6 843c 5ccd 20bc 8364 283c 7734 0ebd
00000120: e721 a738 47ea 2dbc 47df d1bb 81d1 adba
00000130: 68bf 713c 5c8c 013d 9767 513d 5a94 57bc
00000140: 33fe 893c 09c3 33bc 56b3 083d b8d6 af3c
00000150: 924e a4bc 5024 18bc a483 c13b 585e 1c3b
00000160: dbd6 b1bc f16c b23b b7f0 b83b 7541 60bc
00000170: a5bb 82bc 953e a73b 036d ad3a b4c6 0fbc
00000180: 2da7 d53b 6bae ccba e5dc f3bb 0535 4e3c
00000190: f670 21bc 4c8c a5bc 30a6 ef3b 44e7 9e3b
000001a0: ff97 4a3c 8854 703c 6a89 003b b0d7 a738
000001b0: a894 0fbd 7acc 67bb 35f5 c13c 8efe b43c
000001c0: b947 bc3c a613 333b e809 653c fae3 17ba
000001d0: 6bfa 23bc 310f 2fbb 1830 6ebc bddc 0abc
000001e0: 000d 7bbc 272a fbbb 07ed 5a3b 9362 a9bb
000001f0: 3d7d 30bd 9f5b 87bc aa0d 6ebc 05ee 893c

action_model._discrete_distribution.branches.0.weight f4 [1, 128]
0.0025145065 0.005279699 -0.004831966 0.004681487 0.0027039463 0.015352726 -0.00096559303 -0.0068397047
-0.00573305 0.009602014 -0.0170739 0.0028935277 -0.0029849287 -0.0034339116 0.014266728 -0.005389389
0.0012097544 0.0014365123 0.017628552 0.0061988756 0.0136172315 -0.011410299 -0.0070662373 -0.015166706
-0.005072836 0.009054 0.0015758049 -0.007060911 0.015031241 -0.003749241 0.014279226 -0.0051481253
-0.0055413563 -0.0023758751 -0.0045944615 0.004666564 -0.0045876433 -0.0079134535 0.0062528425 0.019539766
0.012562677 -0.006067462 0.0012230879 -0.0019856845 -0.0036107865 0.004685744 0.003810696 -0.01075098
-0.013931761 -0.017160622 0.0029044573 -0.013320322 0.020514702 -0.0058044456 0.0118728345 0.0039033226
-0.008524134 0.003655709 -0.0069640963 0.019857801 0.0049257646 -0.004597248 -0.0008936816 0.0042045796
-0.00897188 -0.019004134 0.005023124 0.02022741 0.009853656 0.01998387 0.0036291075 -0.004923601
0.023651637 -0.004996694 0.0035754067 0.004037208 0.009046589 -0.0011044523 0.004508765 -0.00068105257
0.005497617 0.0033218034 -0.00686585 0.007941726 -0.007796833 -0.0020500699 0.012627484 -0.0023045845
-0.0075955256 0.011980647 0.00641678 -0.004081152 -0.00014653984 -0.00028737658 0.013313885 -0.00938994
0.00038943693 -0.0018790951 0.008774496 -0.00748158 -0.00097191194 -0.0068491623 -0.01062665 0.012197853
0.0018036282 0.0029044577 7.7242374e-05 -0.0009851545 -0.011090911 -0.01161831 -0.011008869 -0.008438322
0.031044839 4.03184e-05 0.026976293 0.0004111265 -0.006041527 -0.0003456621 -0.018938722 0.006522726
-0.017547926 0.011839607 -0.003362319 0.00041650748 -0.024555063 0.00045992184 0.0041602966 0.007682117
00000000: 6bca 243b 5301 ad3b 7855 9ebb 2967 993b
00000010: b134 313b 008a 7b3c da1f 7dba 9a1f e0bb
00000020: 4fdc bbbb c451 1d3c 90de 8bbc 57a1 3d3b
00000030: cb9e 43bb 7a0b 61bb ffbe 693c 7999 b0bb
00000040: 9f90 9e3a 5b49 bc3a c169 903c f01f cb3b
00000050: cf1a 5f3c 43f2 3abc e58b e7bb c77d 78bc
00000060: 083a a6bb 3a57 143c 3d8b ce3a 375f e7bb
00000070: 9845 763c d3b5 75bb 6af3 693c 9bb1 a8bb
00000080: 4494 b5bb 92b4 1bbb 238d 96bb fae9 983b
00000090: f153 96bb 6ea7 01bc a5e4 cc3b dc11 a03c
000000a0: b0d3 4d3c 8fd1 c6bb 0550 a03a 4222 02bb
000000b0: f2a2 6cbb df8a 993b dfbc 793b e124 30bc
000000c0: 0a42 64bc 6f94 8cbc b558 3e3b 7b3d 5abc
000000d0: 730e a83c 3833 bebb 4786 423c e3ce 7f3b
000000e0: cfa8 0bbc 9f94 6f3b 1333 e4bb d4ac a23c
000000f0: 4f68 a13b 83a4 96bb f545 6aba 92c6 893b
00000100: cbfe 12bc 8fae 9bbc 0599 a43b f4b3 a53c
00000110: 3b71 213c 37b5 a33c 52d6 6d3b 2956 a1bb
00000120: 14c1 c13c 4fbb a3bb 5f51 6a3b 8e4a 843b
00000130: 2538 143c 45c3 90ba 43be 933b aa88 32ba
00000140: 5b25 b43b 9db2 593b edfa e0bb 031e 023c
00000150: 937c ffbb 775a 06bb 82e3 4e3c 8308 17bb
00000160: e3e3 f8bb 7a4a 443c da43 d23b 2fbb 85bb
00000170: 7da8 19b9 08ab 96b9 7b22 5a3c 43d8 19bc
00000180: 572d cc39 f84b f6ba e7c2 0f3c 0b28 f5bb
00000190: e8c7 7eba f06e e0bb 671b 2ebc 81d9 473c
000001a0: b867 ec3a b758 3e3b 2ffd a138 4d20 81ba
000001b0: a7b6 35bc b95a 3ebc 8b5e 34bc e340 0abc
000001c0: bf51 fe3c 8d1b 2938 63fd dc3c 778c d739
000001d0: 00f8 c5bb fb39 b5b9 6125 9bbc 97bc d53b
000001e0: abc0 8fbc e9fa 413c 5a5a 5cbb b05e da39
000001f0: b327 c9bc aa21 f139 1953 883b 45ba fb3b

network_body.observation_encoder.processors.0.normalizer.running_mean f4 [7]
0.0 0.0 0.0 0.0 0.0 0.0 0.0
00000000: 0000 0000 0000 0000 0000 0000 0000 0000
00000010: 0000 0000 0000 0000 0000 0000

network_body.observation_encoder.processors.0.normalizer.running_variance f4 [7]
1.0 1.0 1.0 1.0 1.0 1.0 1.0
00000000: 0000 803f 0000 803f 0000 803f 0000 803f
00000010: 0000 803f 0000 803f 0000 803f

network_body.processors.0.normalizer.running_mean f4 [7]
0.0 0.0 0.0 0.0 0.0 0.0 0.0
00000000: 0000 0000 0000 0000 0000 0000 0000 0000
00000010: 0000 0000 0000 0000 0000 0000

network_body.processors.0.normalizer.running_variance f4 [7]
1.0 1.0 1.0 1.0 1.0 1.0 1.0
00000000: 0000 803f 0000 803f 0000 803f 0000 803f
00000010: 0000 803f 0000 803f 0000 803f

network_body._body_endoder.seq_layers.0.weight f4 [128, 7]
0.0672635 0.114470065 0.0962521 0.1681695 0.38020042 0.46986347 -0.31362653 -0.43444276
0.7063964 -0.50123733 -0.1921391 -0.6238709 -1.1147512 -0.36711064 0.22901067 0.050758447
-0.21739583 -0.3990246 -0.15141259 -0.08707579 -0.60308135 -0.1617609 0.18959974 -0.31829086
0.095913954 -0.41949025 0.21143505 0.34852797 0.5974987 -0.8047644 0.6129548 -0.15959658
0.5876953 -0.388705 -0.14836445 -0.4363573 0.5711841 0.0997562 -0.16153882 0.21775253
-0.07824067 -0.17448542 -0.034542486 0.2266334 -0.39303032 -0.2944138 -0.07090948 0.5201801
-0.07007072 -0.029999003 -0.8305318 -0.22462673 -0.028276386 0.13572864 0.47486144 0.1760264
0.14894736 0.8042981 -0.33788982 -0.42213643 0.2914219 -0.34705776 0.052814476 -0.20887971
0.3704921 0.42374134 0.020384166 -0.04287311 0.11025162 0.007059144 -0.0076545076 0.31798056
-0.5969072 -0.20404543 -0.3148839 -0.72839993 0.0009651056 0.08063601 -0.40199804 -0.85177475
0.37127864 0.26738995 0.33882597 -0.30843872 -0.22699632 -0.12739849 -0.5102538 -0.25695154
0.37202805 0.41026127 0.015227228 0.3420063 -0.07223548 0.021694692 -0.10245262 0.13648975
0.3078452 0.18895093 -0.039700884 -0.47182515 -0.3337148 0.2909373 -0.3632063 -0.28192407
-0.0854 -0.48822495 -0.39692608 0.26262382 -0.28375858 0.28897867 -0.4863625 0.059484877
-0.650509 -0.27286083 -0.49827912 -0.40997377 -0.76801175 0.6500232 -0.28220236 -0.01971129
-0.14143254 -0.18807025 0.16612974 -0.35866597 0.22692147 0.23243414 0.089520656 -0.3842278
0.46796012 -0.01172739 0.35871533 -0.4019574 -0.30625632 0.3361381 0.3396798 0.024429329
-0.08928394 -0.3181666 -0.2329031 0.3823191 -0.31825233 -0.32490727 0.31904194 -0.7550476
-0.11262891 -0.20021485 0.5248388 0.022823785 0.7362983 -0.15410277 0.036699146 -0.72365206
-0.32369828 0.00411892 0.39972776 -0.29419667 -0.44199565 0.080758475 -0.14046888 0.40615052
0.1860425 -0.018606063 -0.8398064 -0.21578453 -0.23943582 0.74909085 0.43373635 0.6225003
-0.23586589 0.10595047 0.5356415 -0.02823859 0.33812922 -0.3797143 -0.50942254 -0.0866077
-0.24054496 0.4441008 -0.0044122506 0.35799295 -0.17380938 -0.09820738 -0.55646795 -1.1105573
0.039798062 -0.028427776 0.095190376 -0.05632035 -0.6669006 0.11037602 0.13445677 -0.19135326
-0.30093154 0.041904986 0.03041788 -0.3707449 0.31631798 -0.26341856 -0.24357864 0.19769959
-0.15434933 -0.69436485 0.105392165 0.016923742 0.047244653 -0.13255179 -0.088658616 -0.43666443
0.048087 0.655969 0.5008034 0.0024332262 -0.19573705 -0.52787286 -0.4397783 0.85151726
0.29597056 0.4098279 0.17489591 -0.078549296 -0.66451865 0.107743084 -0.48115355 0.45900205
0.4789823 -1.1920193 -0.06455499 -0.22946414 -0.19780381 0.000276423 0.43653533 -0.08665722
-0.3509529 0.29689258 0.27010742 0.3578875 0.19286683 -0.5534383 -0.43747076 0.06751078
0.13896196 0.106887415 -0.39571333 0.38800207 0.37696588 -0.2292816 -0.8138381 0.2755438
0.8077419 0.10249806 -0.45492575 0.07692375 0.33080477 0.32809165 -0.13629952 0.46852666
00000000: 72c1 893d 486f ea3d d21f c53d a034 2c3e
00000010: a1a9 c23e f291 f03e a893 a0be 486f debe
00000020: 65d6 343f 1751 00bf 1dc0 44be 01b6 1fbf
00000030: 2bb0 8ebf edf5 bbbe c681 6a3e 17e8 4f3d
00000040: 039d 5ebe f44c ccbe e70b 1bbe cb54 b2bd
00000050: 8a63 1abf a6a4 25be 6f26 423e 05f7 a2be
00000060: 896e c43d 6dc7 d6be 6e82 583e 4272 b23e
00000070: adf5 183f 0a05 4ebf 9bea 1c3f 496d 23be
00000080: 3373 163f 5704 c7be daec 17be 396a dfbe
00000090: 1f39 123f fb4c cc3d 6f6a 25be 85fa 5e3e
000000a0: a53c a0bd 4eac 32be 6c7c 0dbd 9612 683e
000000b0: 453b c9be 68bd 96be fd38 91bd 862a 053f
000000c0: 3d81 8fbd 78c0 f5bc bb9d 54bf 8d04 66be
000000d0: e1a3 e7bc 73fc 0a3e 0a21 f33e 4440 343e
000000e0: a885 183e 7be6 4d3f e5ff acbe 4422 d8be
000000f0: 4035 953e 8eb1 b1be fe53 583d 90e4 55be
00000100: 24b1 bd3e a0f4 d83e b2fc a63c b79b 2fbd
00000110: 9acb e13d 6450 e73b aad2 fabb 59ce a23e
00000120: e9ce 18bf 49f1 50be 7638 a1be 6b78 3abf
00000130: 24ff 7c3a 7e24 a53d b0d2 cdbe e90d 5abf
00000140: 3c18 be3e 56e7 883e 997a ad3e aeeb 9dbe
00000150: b971 68be c074 02be fe9f 02bf 278f 83be
00000160: 767a be3e c40d d23e a07b 793c 731b af3e
00000170: 32f0 93bd 11b9 b13c aed2 d1bd f8c3 0b3e
00000180: e39d 9d3e 5a7c 413e 659d 22bd 1193 f1be
00000190: abdc aabe bcf5 943e 2df6 b9be 5a58 90be
000001a0: 32e6 aebd 9ff8 f9be e539 cbbe a176 863e
000001b0: ce48 91be 03f5 933e 8104 f9be 6aa6 733d
000001c0: c287 26bf 6ab4 8bbe 711e ffbe 15e8 d1be
000001d0: 6b9c 44bf ec67 263f d47c 90be 9279 a1bc
000001e0: b1d3 10be 7d95 40be ea1d 2a3e 11a3 b7be
000001f0: 1a5e 683e 3703 6e3e 9b56 b73d 82b9 c4be
00000200: 7898 ef3e 3d24 40bc 89a9 b73e 5ccd cdbe
00000210: a1cd 9cbe 4b1a ac3e 83ea ad3e 0420 c83c
00000220: 80da b6bd bce6 a2be 267e 6ebe 54bf c33e
00000230: f8f1 a2be 3f5a a6be 7759 a33e cd4a 41bf
00000240: fca9 e6bd 1f05 4dbe d65b 063f f2f8 ba3c
00000250: 0c7e 3c3f 1ecd 1dbe d851 163d 4341 39bf
00000260: c8bb a5be 01f8 863b 1ea9 cc3e f2a0 96be
00000270: 414d e2be b364 a53d 13d7 0fbe f6f2 cf3e
00000280: ed81 3e3e be6b 98bc 8dfd 56bf 9ff6 5cbe
00000290: aa2e 75be 6bc4 3f3f b112 de3e 2e5c 1f3f
000002a0: d486 71be 8ffc d83d cd1f 093f 9e54 e7bc
000002b0: 461f ad3e ea69 c2be 8469 02bf 615f b1bd
000002c0: 6b51 76be 2e61 e33e a494 90bb da4a b73e
000002d0: 16fb 31be f320 c9bd af74 0ebf be26 8ebf
000002e0: 4b03 233d 5ee1 e8bc 2cf3 c23d 2bb0 66bd
000002f0: ffb9 2abf d30c e23d 09af 093e 1cf2 43be
00000300: b313 9abe 90a4 2b3d eb2e f93c 47d2 bdbe
00000310: 6ef4 a13e ccde 86be ae6c 79be c371 4a3e
00000320: c00d 1ebe e5c1 31bf d9d7 d73d a9a3 8a3c
00000330: 9c83 413d a8bb 07be a692 b5bd 7b92 dfbe
00000340: e0f6 443d 96ed 273f a734 003f c376 1f3b
00000350: 4b6f 48be ad22 07bf 9f2a e1be 09fd 593f
00000360: 7489 973e f6d4 d13e ea17 333e 74de a0bd
00000370: e51d 2abf 68a8 dc3d c259 f6be 5102 eb3e
00000380: 2b3d f53e 1794 98bf 6835 84bd a6f8 6abe
00000390: 158d 4abe deec 9039 8f81 df3e 5779 b1bd
000003a0: 19b0 b3be 4e02 983e 854b 8a3e 083d b73e
000003b0: e27e 453e 22ae 0dbf 2bfc dfbe 1843 8a3d
000003c0: 0b4c 0e3e cae7 da3d f09a cabe 35a8 c63e
000003d0: ac01 c13e ccc8 6abe b257 50bf 1414 8d3e
000003e0: 2cc8 4e3f 81ea d13d 07ec e8be 338a 9d3d
000003f0: 3e5f a93e a1fb a73e 1a92 0bbe bae2 ef3e

network_body._body_endoder.seq_layers.0.bias f4 [128]
0.0 0.0 0.0 0.0 0.0 0.0 0.0 0.0
0.0 0.0 0.0 0.0 0.0 0.0 0.0 0.0
0.0 0.0 0.0 0.0 0.0 0.0 0.0 0.0
0.0 0.0 0.0 0.0 0.0 0.0 0.0 0.0
0.0 0.0 0.0 0.0 0.0 0.0 0.0 0.0
0.0 0.0 0.0 0.0 0.0 0.0 0.0 0.0
0.0 0.0 0.0 0.0 0.0 0.0 0.0 0.0
0.0 0.0 0.0 0.0 0.0 0.0 0.0 0.0
0.0 0.0 0.0 0.0 0.0 0.0 0.0 0.0
0.0 0.0 0.0 0.0 0.0 0.0 0.0 0.0
0.0 0.0 0.0 0.0 0.0 0.0 0.0 0.0
0.0 0.0 0.0 0.0 0.0 0.0 0.0 0.0
0.0 0.0 0.0 0.0 0.0 0.0 0.0 0.0
0.0 0.0 0.0 0.0 0.0 0.0 0.0 0.0
0.0 0.0 0.0 0.0 0.0 0.0 0.0 0.0
0.0 0.0 0.0 0.0 0.0 0.0 0.0 0.0
00000000: 0000 0000 0000 0000 0000 0000 0000 0000
00000010: 0000 0000 0000 0000 0000 0000 0000 0000
00000020: 0000 0000 0000 0000 0000 0000 0000 0000
00000030: 0000 0000 0000 0000 0000 0000 0000 0000
00000040: 0000 0000 0000 0000 0000 0000 0000 0000
00000050: 0000 0000 0000 0000 0000 0000 0000 0000
00000060: 0000 0000 0000 0000 0000 0000 0000 0000
00000070: 0000 0000 0000 0000 0000 0000 0000 0000
00000080: 0000 0000 0000 0000 0000 0000 0000 0000
00000090: 0000 0000 0000 0000 0000 0000 0000 0000
000000a0: 0000 0000 0000 0000 0000 0000 0000 0000
000000b0: 0000 0000 0000 0000 0000 0000 0000 0000
000000c0: 0000 0000 0000 0000 0000 0000 0000 0000
000000d0: 0000 0000 0000 0000 0000 0000 0000 0000
000000e0: 0000 0000 0000 0000 0000 0000 0000 0000
000000f0: 0000 0000 0000 0000 0000 0000 0000 0000
00000100: 0000 0000 0000 0000 0000 0000 0000 0000
00000110: 0000 0000 0000 0000 0000 0000 0000 0000
00000120: 0000 0000 0000 0000 0000 0000 0000 0000
00000130: 0000 0000 0000 0000 0000 0000 0000 0000
00000140: 0000 0000 0000 0000 0000 0000 0000 0000
00000150: 0000 0000 0000 0000 0000 0000 0000 0000
00000160: 0000 0000 0000 0000 0000 0000 0000 0000
00000170: 0000 0000 0000 0000 0000 0000 0000 0000
00000180: 0000 0000 0000 0000 0000 0000 0000 0000
00000190: 0000 0000 0000 0000 0000 0000 0000 0000
000001a0: 0000 0000 0000 0000 0000 0000 0000 0000
000001b0: 0000 0000 0000 0000 0000 0000 0000 0000
000001c0: 0000 0000 0000 0000 0000 0000 0000 0000
000001d0: 0000 0000 0000 0000 0000 0000 0000 0000
000001e0: 0000 0000 0000 0000 0000 0000 0000 0000
000001f0: 0000 0000 0000 0000 0000 0000 0000 0000

network_body._body_endoder.seq_layers.2.weight f4 [128, 128]
0.06717564 0.0005828534 0.10310589 0.108105235 0.11721206 -0.09947986 0.015920356 -0.13832621
0.06856073 -0.083377704 0.019165367 -0.032665897 0.03236445 -0.0454282 0.16572182 0.09969385
0.022360878 0.07006727 -0.02635514 -0.18777001 -0.014772948 -0.05077466 -0.02279561 0.100929596
0.0006238554 0.018662887 0.107870065 0.10921073 -0.10088442 -0.005698787 -0.12662734 0.07269854
0.042537674 0.013805523 -0.016327934 -0.06439557 -0.03600112 -0.051535085 0.10658902 0.19031355
-0.051962964 -0.04097372 -0.09808419 -0.12426372 0.14705832 0.046328522 -0.07524011 -0.15136245
-0.19722041 0.15766777 -0.12173175 -0.08530637 -0.08732324 -0.07028292 0.033370998 -0.048503652
-0.07768061 0.0009870371 0.09197168 -0.06421296 0.0069086165 0.110889316 -0.044574734 -0.042898424
0.030241556 0.09849161 0.14305608 -0.12408284 0.02776466 0.07639299 0.07603596 -0.090357475
-0.034184907 -0.051249683 -0.038388222 -0.05204855 -0.015186971 -0.12210594 -0.1811845 0.0119456155
-0.018312855 0.14825724 0.06876059 0.049372304 -0.11475195 -0.0937517 0.07260746 -0.009791025
-0.04221198 -0.0108225 -0.13853379 0.09435378 0.0073990705 -0.014623229 0.06810717 -0.025366414
0.13070342 0.00048000884 -0.019728921 0.07766343 -0.08146046 0.054586753 0.094870806 0.23188473
-0.06065231 -0.03318886 0.04518802 -0.06553685 -0.02388302 0.07566615 -0.06619445 0.06636367
-0.09063529 -0.019575434 -0.19488892 0.051438257 -0.07567042 0.043660734 0.09675591 -0.09042939
0.06591886 0.111027084 -0.077744044 0.070260696 0.052119784 -0.09650598 -0.009122736 -0.022159098
0.053126153 -0.05168017 -0.047856428 0.12976652 -0.24850011 -0.13040262 -0.0010200868 -0.075672075
0.05374192 0.13776644 0.08868169 -0.0039322823 -0.101253875 0.008377063 0.008950773 7.440628e-05
0.00712963 -0.051410977 0.14681193 -0.12578982 0.028404031 -0.005949389 0.046735797 0.16391419
0.10106762 -0.043617576 0.18000853 0.20074467 -0.048654765 -0.015349712 0.118099205 -0.04812916
-0.02098805 -0.005372662 0.045915756 -0.027202856 0.014708402 0.051607646 -0.07378823 -0.14876078
0.04651579 -0.034511313 -0.07961312 0.16196337 -0.067246474 -0.14063692 -0.0073571354 -0.09203797
-0.055742882 -0.024265002 0.06749246 0.08614762 -0.06199093 -0.009041122 -0.0350864 0.08774765
0.15032 0.04763 -0.009134536 0.0195502 0.05427738 0.15960777 -0.028764155 0.077479154
0.051654566 0.031285983 -0.16230354 -0.07200307 0.18252066 -0.119060114 0.040207654 -0.06800892
0.0142344395 -0.08258305 0.10493556 0.04179738 -0.04861547 0.12621707 0.02122709 0.05035306
-0.14029728 0.10167417 -0.008305403 -0.048752982 0.10847468 0.046076804 0.04833426 0.019340487
-0.016455498 0.017209664 -0.095559694 0.06607296 -0.095216274 0.03474289 -0.08791457 0.00046655198
-0.020589111 0.06441671 0.026102101 -0.03616397 -0.047637925 0.012158163 -0.021239964 0.06599198
0.083068885 0.020238621 -0.1045477 0.024534129 -0.048001017 -0.06970178 -0.043136396 0.05437574
-0.07809145 -0.04382486 -0.027997121 0.009551953 0.108744174 0.06283689 -0.030735116 0.02050703
-0.07747309 -0.09142864 -0.1350882 -0.04134473 0.083979495 -0.12346814 -0.0676626 -0.076468036
00000000: 6293 893d a1ca 183a 2e29 d33d 4766 dd3d
00000010: e00c f03d 19bc cbbd 686b 823c 63a5 0dbe
00000020: 9169 8c3d eec1 aabd b000 9d3c adcc 05bd
00000030: 9690 043d ec12 3abd fbb2 293e 4a2c cc3d
00000040: 292e b73c 6e7f 8f3d bce6 d7bc c846 40be
00000050: 3c0a 72bc 17f9 4fbd dcbd babc 2db4 ce3d
00000060: 3a8a 233a e9e2 983c fbea dc3d e0a9 df3d
00000070: 7e9c cebd e4bc babb 99aa 01be f9e2 943d
00000080: fc3b 2e3d 8f30 623c 29c2 85bc d3e1 83bd
00000090: e975 13bd 7416 53bd 584b da3d 8ee1 423e
000000a0: 1ed7 54bd 0fd4 27bd 5de0 c8bd fa7d febd
000000b0: 7596 163e fac2 3d3d 7d17 9abd c2fe 1abe
000000c0: 26f4 49be a973 213e 7f4e f9bd 1bb5 aebd
000000d0: 87d6 b2bd 7ef0 8fbd 07b0 083d c4ab 46bd
000000e0: 0317 9fbd 785f 813a a65b bc3d 1682 83bd
000000f0: ad61 e23b f019 e33d ff93 36bd 42b6 2fbd
00000100: 24bd f73c f8b5 c93d 4b7d 123e 251f febd
00000110: b672 e33c ee73 9c3d beb8 9b3d 570d b9bd
00000120: 7905 0cbd 30eb 51bd f83c 1dbd dc30 55bd
00000130: c6d2 78bc ae12 fabd 6e88 39be 8bb7 433c
00000140: d704 96bc bfd0 173e 5ad2 8c3d 9d3a 4a3d
00000150: 1203 ebbd e400 c0bd 38b3 943d 896a 20bc
00000160: 78e6 2cbd db50 31bc cddb 0dbe 8e3c c13d
00000170: e773 f23b 4596 6fbc c67b 8b3d 3acd cfbc
00000180: 1ed7 053e b2a9 fb39 8c9e a1bc 010e 9f3d
00000190: bed4 a6bd 5c96 5f3d a04b c23d 3173 6d3e
000001a0: 8e6e 78bd 0bf1 07bd 1317 393d 2f38 86bd
000001b0: 53a6 c3bc dbf6 9a3d f590 87bd ade9 873d
000001c0: ff9e b9bd a95c a0bc f690 47be ecb0 523d
000001d0: 18f9 9abd 99d5 323d f627 c63d 0b33 b9bd
000001e0: 7800 873d 2b62 e33d 4538 9fbd d7e4 8f3d
000001f0: 8e7b 553d eda4 c5bd 8777 15bc ff86 b5bc
00000200: cf9a 593d 96ae 53bd 1a05 44bd 84e1 043e
00000210: d076 7ebe 4488 05be 6fb4 85ba f6f9 9abd
00000220: 7d20 5c3d a512 0d3e bf9e b53d 60da 80bb
00000230: 315e cfbd f33f 093c 43a6 123c 910a 9c38
00000240: ac9f e93b 5194 52bd de55 163e 0ccf 00be
00000250: 92af e83c 18f3 c2bb 096e 3f3d 1fd9 273e
00000260: 8afc ce3d 58a8 32bd 2854 383e 0390 4d3e
00000270: 384a 47bd 5c7d 7bbc ffdd f13d 1523 45bd
00000280: 22ef abbc 280d b0bb 2912 3c3d 86d8 debc
00000290: 82fb 703c 8a62 533d 491e 97bd bf54 18be
000002a0: 5787 3e3d bc5b 0dbd 340c a3bd bad9 253e
000002b0: 85b8 89bd 2003 10be 2014 f1bb 677e bcbd
000002c0: a652 64bd 66c7 c6bc 7d39 8a3d 2a6e b03d
000002d0: 34ea 7dbd 3721 14bc c2b6 0fbd 0ab5 b33d
000002e0: 7ced 193e ad17 433d 05a9 15bc be27 a03c
000002f0: f551 5e3d 3870 233e cea2 ebbc 64ad 9e3d
00000300: bd93 533d bb25 003d e632 26be 5876 93bd
00000310: b2e6 3a3e cad5 f3bd c8b0 243d 4348 8bbd
00000320: 9137 693c 4d21 a9bd 74e8 d63d bb33 2b3d
00000330: 0421 47bd 0c3f 013e 6fe4 ad3c 033f 4e3d
00000340: 17aa 0fbe 8c3a d03d 6313 08bc 35b1 47bd
00000350: f927 de3d 08bb 3c3d 25fa 453d f16f 9e3c
00000360: aecd 86bc 48fb 8c3c cdb4 c3bd 4351 873d
00000370: c000 c3bd 904e 0e3d 8e0c b4bd 8c9b f439
00000380: 7faa a8bc e8ec 833d 13d4 d53c ac20 14bd
00000390: fc1f 43bd 0833 473c 6fff adbc ce26 873d
000003a0: 0520 aa3d 77cb a53c 1b1d d6bd ccfb c83c
000003b0: b79c 44bd cfbf 8ebd caaf 30bd 19b9 5e3d
000003c0: 69ee 9fbd b281 33bd 385a e5bc cb7f 1c3c
000003d0: 44b5 de3d a1b0 803d 36c8 fbbc 5cfe a73c
000003e0: 36aa 9ebd f03e bbbd 9054 0abe 1759 29bd
000003f0: 71fd ab3d dddc fcbd b092 8abd 469b 9cbd

network_body._body_endoder.seq_layers.2.bias f4 [128]
0.0 0.0 0.0 0.0 0.0 0.0 0.0 0.0
0.0 0.0 0.0 0.0 0.0 0.0 0.0 0.0
0.0 0.0 0.0 0.0 0.0 0.0 0.0 0.0
0.0 0.0 0.0 0.0 0.0 0.0 0.0 0.0
0.0 0.0 0.0 0.0 0.0 0.0 0.0 0.0
0.0 0.0 0.0 0.0 0.0 0.0 0.0 0.0
0.0 0.0 0.0 0.0 0.0 0.0 0.0 0.0
0.0 0.0 0.0 0.0 0.0 0.0 0.0 0.0
0.0 0.0 0.0 0.0 0.0 0.0 0.0 0.0
0.0 0.0 0.0 0.0 0.0 0.0 0.0 0.0
0.0 0.0 0.0 0.0 0.0 0.0 0.0 0.0
0.0 0.0 0.0 0.0 0.0 0.0 0.0 0.0
0.0 0.0 0.0 0.0 0.0 0.0 0.0 0.0
0.0 0.0 0.0 0.0 0.0 0.0 0.0 0.0
0.0 0.0 0.0 0.0 0.0 0.0 0.0 0.0
0.0 0.0 0.0 0.0 0.0 0.0 0.0 0.0
00000000: 0000 0000 0000 0000 0000 0000 0000 0000
00000010: 0000 0000 0000 0000 0000 0000 0000 0000
00000020: 0000 0000 0000 0000 0000 0000 0000 0000
00000030: 0000 0000 0000 0000 0000 0000 0000 0000
00000040: 0000 0000 0000 0000 0000 0000 0000 0000
00000050: 0000 0000 0000 0000 0000 0000 0000 0000
00000060: 0000 0000 0000 0000 0000 0000 0000 0000
00000070: 0000 0000 0000 0000 0000 0000 0000 0000
00000080: 0000 0000 0000 0000 0000 0000 0000 0000
00000090: 0000 0000 0000 0000 0000 0000 0000 0000
000000a0: 0000 0000 0000 0000 0000 0000 0000 0000
000000b0: 0000 0000 0000 0000 0000 0000 0000 0000
000000c0: 0000 0000 0000 0000 0000 0000 0000 0000
000000d0: 0000 0000 0000 0000 0000 0000 0000 0000
000000e0: 0000 0000 0000 0000 0000 0000 0000 0000
000000f0: 0000 0000 0000 0000 0000 0000 0000 0000
00000100: 0000 0000 0000 0000 0000 0000 0000 0000
00000110: 0000 0000 0000 0000 0000 0000 0000 0000
00000120: 0000 0000 0000 0000 0000 0000 0000 0000
00000130: 0000 0000 0000 0000 0000 0000 0000 0000
00000140: 0000 0000 0000 0000 0000 0000 0000 0000
00000150: 0000 0000 0000 0000 0000 0000 0000 0000
00000160: 0000 0000 0000 0000 0000 0000 0000 0000
00000170: 0000 0000 0000 0000 0000 0000 0000 0000
00000180: 0000 0000 0000 0000 0000 0000 0000 0000
00000190: 0000 0000 0000 0000 0000 0000 0000 0000
000001a0: 0000 0000 0000 0000 0000 0000 0000 0000
000001b0: 0000 0000 0000 0000 0000 0000 0000 0000
000001c0: 0000 0000 0000 0000 0000 0000 0000 0000
000001d0: 0000 0000 0000 0000 0000 0000 0000 0000
000001e0: 0000 0000 0000 0000 0000 0000 0000 0000
000001f0: 0000 0000 0000 0000 0000 0000 0000 0000

value_heads.value_heads.extrinsic.weight f4 [1, 128]
-0.20044592 0.026273785 0.13504109 0.042339653 -0.058843326 -0.09239091 -0.12565386 -0.17922278
-0.13624617 -0.20861258 -0.037932802 -0.11665212 -0.08415296 0.16669494 0.12958848 -0.032754455
-0.08672457 -0.05422165 -0.12089309 -0.16610442 0.013267741 0.10234051 -0.16929986 -0.017100591
0.19584177 -0.13291559 -0.030590152 0.0009018321 -0.11496568 0.037259206 0.18936415 -0.0730317
-0.1806197 0.023599885 0.08778335 -0.18854967 0.1125065 -0.0032147083 -0.02956102 -0.20147093
0.20915726 0.11998604 0.03564844 -0.18099347 0.17396004 0.1560885 -0.18427463 -0.029080344
0.17831343 0.124130644 -0.15129966 0.010407011 -0.1934548 0.20752493 -0.13873412 -0.003007041
-0.15550338 0.0030781531 0.08320613 0.18578885 0.19370063 -0.0838283 -0.14853978 0.160926
0.19561422 -0.04084503 0.11026508 0.15789011 0.17790926 0.105545595 0.008279872 -0.21247728
-0.025643252 0.027387489 0.17777595 -0.17222899 0.15344466 0.103613205 0.06264013 0.026645567
-0.052701555 0.07279969 -0.025545042 -0.13825156 -0.1752156 -0.10895308 -0.04145538 -0.0082770055
0.12204873 0.07553002 -0.07217823 -0.04623242 -0.19308329 -0.20004544 0.11929865 0.0926918
0.13897984 0.016992817 0.16416633 0.06325284 -0.07222528 0.06650537 0.10957057 0.1488612
0.17758894 0.026084822 -0.21351114 -0.21326208 0.08466537 -0.070077054 0.17761 0.058030985
0.049737155 0.19073541 0.104922764 -0.10423222 0.040619902 -0.049125478 0.19448607 -0.006200938
-0.14725773 -0.17563686 0.2032029 0.11517906 0.1963999 -0.06485128 0.053424954 -0.18952033
00000000: b241 4dbe 1f3c d73c 3648 0a3e 586c 2d3d
00000010: b305 71bd 7237 bdbd 68ab 00be 2d86 37be
00000020: 1e84 0bbe 899e 55be 6d5f 1bbd 4fe7 eebd
00000030: 6358 acbd 14b2 2a3e d8b2 043e 8929 06bd
00000040: a79c b1bd 8517 5ebd cc96 f7bd 4717 2abe
00000050: f060 593c e797 d13d f15c 2dbe 8a16 8cbc
00000060: bf8a 483e 061b 08be 3398 fabc ee68 6c3a
00000070: 2073 ebbd 1c9d 183d ade8 413e a591 95bd
00000080: 5ff4 38be 8c54 c13c c2c7 b33d 2a13 41be
00000090: cf69 e63d dbad 52bb f429 f2bc 654e 4ebe
000000a0: 522d 563e 3ebb f53d 1904 123d 5a56 39be
000000b0: 9522 323e aad5 1f3e 7db2 3cbe e739 eebc
000000c0: cc97 363e 3538 fe3d 4cee 1abe 2b82 2a3c
000000d0: 0419 46be 6a81 543e 5110 0ebe c711 45bb
000000e0: 473c 1fbe d7ba 493b fa67 aa3d 6f3f 3e3e
000000f0: 7559 463e 2cae abbd d01a 18be c9c9 243e
00000100: 184f 483e 1e4d 27bd a9d2 e13d f2ad 213e
00000110: d82d 363e 4a28 d83d 4da8 073c a593 59be
00000120: cc11 d2bc ba5b e03c e60a 363e cc5c 30be
00000130: 9920 1d3e 2933 d43d 7849 803d ce47 da3c
00000140: 96dd 57bd 0118 953d d643 d1bc d191 0dbe
00000150: b86b 33be cb22 dfbd 1ecd 29bd 479c 07bc
00000160: aff4 f93d 7caf 9a3d 2ed2 93bd 355e 3dbd
00000170: a0b7 45be b6d8 4cbe da52 f43d 33d5 bd3d
00000180: bb50 0e3e 8534 8b3c 381b 283e b48a 813d
00000190: d9ea 93bd f833 883d 8966 e03d 126f 183e
000001a0: e0d9 353e d6af d53c aaa2 5abe 6061 5abe
000001b0: 0a65 ad3d 8f84 8fbd 65df 353e e6b1 6d3d
000001c0: 30b9 4b3d 2550 433e bfe1 d63d b477 d5bd
000001d0: 0e61 263d cc37 49bd 5b27 473e 3d31 cbbb
000001e0: bbca 16be 26da 33be 6c14 503e 00e3 eb3d
000001f0: 0e1d 493e bfd0 84bd 20d4 5a3d 9e11 42be
