Assets/Models/SliderBehavior3/SliderBehavior.onnx (onnx, 78684 bytes, 8 tensors)

network_body.observation_encoder.processors.0.normalizer.running_mean f4 [6]
0	0xc167d9be	-14.49066
1	0xc063dd6f	-3.5603902
2	0x00000000	0.0
3	0xc170f56f	-15.05992
4	0xc0bffd8c	-5.9997005
5	0x00000000	0.0

network_body._body_endoder.seq_layers.0.weight f4 [128, 6]
0	0x3f13323b	0.5749852
1	0xbefa8d7c	-0.4893607
2	0x3f8e6f2b	1.1127676
3	0x3dc61468	0.09671861
4	0x3f6b902d	0.9201687
5	0xbdba44a6	-0.09095125
6	0x3e07f464	0.13276821
7	0xbd449e47	-0.048002508
8	0xbf31dcf0	-0.6947775
9	0x3f2d4092	0.6767665
10	0x3d431e74	0.047636464
11	0x3ec8a3ab	0.3918737
12	0x3f048260	0.51761436
13	0xbeee2fe4	-0.46520913
14	0x3e836089	0.25659588
15	0x3f295749	0.6614881
16	0xbdbba1bd	-0.091617085
17	0x3e6391e8	0.22223628
18	0x3ed1fc19	0.41012648
19	0xbf422773	-0.75841445
20	0xbdc7faff	-0.097646706
21	0xbece1888	-0.4025309
22	0x3ec10808	0.3770144
23	0x3e319564	0.17342144
24	0x3e449501	0.19197465
25	0xbf499c2b	-0.7875392
26	0xbca2ff14	-0.019897021
27	0x3a2ce65d	0.0006595606
28	0x3ea554a3	0.32291135
29	0x3ea59731	0.32341912
30	0xbef7a9d9	-0.4837177
31	0xbf647a91	-0.8924952
32	0xbe9ee2bb	-0.31032357
33	0x3ef30b6b	0.4746965
34	0x3f3fad1e	0.7487353
35	0x3e78b31f	0.2428708
36	0x3f46f9d5	0.77724963
37	0xbea785b0	-0.32719183
38	0xbf2fd334	-0.68681645
39	0xbf1c3fbd	-0.61034757
40	0x3f56dcc4	0.8393061
41	0x3e2cf781	0.1689129
42	0xbf37c7ac	-0.7178905
43	0xbf2f5e30	-0.68503094
44	0x3eff5a5a	0.4987362
45	0xbe08e16f	-0.13367246
46	0x3e94cdf1	0.2906337
47	0xbd00b4f5	-0.031422574
48	0x3ece92dd	0.40346423
49	0x3f24142e	0.6409329
50	0x3f48e0ac	0.7846782
51	0xbf2583a9	-0.6465402
52	0xbd144baa	-0.03620497
53	0x3ee18f08	0.44054437
54	0x3c883993	0.016629016
55	0xbf25e68b	-0.64804906
56	0x3cbf97bd	0.023387784
57	0xbea94d2c	-0.3306669
58	0x3f6642e2	0.89945805
59	0xbf0de52e	-0.55427825
60	0x3e0eb6fd	0.13936992
61	0x3e9e4b16	0.3091666
62	0xbf2e1a86	-0.6800922
63	0x3d4703aa	0.04858748
64	0x3cb52f71	0.022117348
65	0xbefe51d3	-0.49671802
66	0xbe4de06c	-0.20105141
67	0xbe55e2ef	-0.2088735
68	0xbe76c12e	-0.2409713
69	0xbe576c89	-0.21037497
70	0xbe98a028	-0.2980969
71	0xbf3fd085	-0.7492755
72	0x3f43eae8	0.76530313
73	0xbe60c7f9	-0.21951284
74	0xbc422084	-0.011848573
75	0x3e448f6e	0.19195339
76	0xbe018a29	-0.1265036
77	0x3ed87624	0.42277634
78	0xbe5348e2	-0.20633271
79	0xbeb460e7	-0.3523018
80	0x3e5a639c	0.2132706
81	0xbd021bd7	-0.03176483
82	0xbf132c62	-0.574896
83	0xbecb4d4d	-0.39707413
84	0x3eb2bc7d	0.3490943
85	0xbe330783	-0.17483334
86	0x3e02e579	0.1278285
87	0xbc59b2fd	-0.013287303
88	0xbf23285c	-0.6373346
89	0xbe6b0f63	-0.22955088
90	0xbf258f43	-0.64671725
91	0x3d136d12	0.03599269
92	0x3d2fe0e5	0.042939086
93	0xbe99b6c2	-0.30022246
94	0xbe1fdea3	-0.15612273
95	0x3cb831f9	0.022484766
96	0x3e709c2a	0.23497072
97	0x3e20d8c3	0.15707688
98	0x3e51adb1	0.20476414
99	0xbee984bf	-0.4560909
100	0x3f3cc1d4	0.7373326
101	0x3d6ec7b2	0.058295913
102	0x3e01dc72	0.1268175
103	0xbda7875f	-0.08180117
104	0xbd700cf7	-0.058606114
105	0xbe12ceb3	-0.14336662
106	0x3ebe3117	0.37146828
107	0x3ef975c6	0.48722667
108	0x3d0eb8b5	0.03484412
109	0xbf2797e9	-0.6546617
110	0xbf1abdc6	-0.6044582
111	0xbdbd8ed6	-0.092557594
112	0x3d13b53e	0.036061518
113	0x3ccfca5c	0.025365047
114	0xbf3d9d15	-0.74067813
115	0xbeb3fe38	-0.3515489
116	0xbe26feec	-0.16308182
117	0xbd84533d	-0.06461189
118	0xbcb36754	-0.021899857
119	0x3eb2a703	0.34893045
120	0xbcc8a04c	-0.024490498
121	0x3e8702f2	0.26369435
122	0x3e8b66f1	0.27226976
123	0xbee68581	-0.4502373
124	0xbdd269ce	-0.10274087
125	0xbf050a21	-0.5196858
126	0xbe8074b7	-0.25089046
127	0x3e100bb1	0.1406696
128	0xbedae21c	-0.42750633
129	0xbf0aeddf	-0.5426921
130	0xbf4ab431	-0.791812
131	0xbf08da02	-0.53457654
132	0x3dfe553a	0.124185994
133	0xbe2fbddb	-0.17162268
134	0x3c838a32	0.016057108
135	0xbbd73b24	-0.0065683294
136	0xbe675c8a	-0.22593895
137	0x3dddc35f	0.1082828
138	0xbeb26e09	-0.34849575
139	0x3ef0cd3e	0.47031587
140	0xbf2fed60	-0.6872158
141	0xbf3852de	-0.72001445
142	0xbdc1d834	-0.094650656
143	0x3ef35dde	0.47532552
144	0x3eaaff57	0.33397934
145	0x3e721fb5	0.23644908
146	0xbe5adeba	-0.21374026
147	0x3f1eff54	0.6210835
148	0xbe3b53ad	-0.18293639
149	0x3ee8529f	0.45375535
150	0xbee91191	-0.45521215
151	0x3e5616ab	0.20907085
152	0x3c55286f	0.013010128
153	0x3bc10de2	0.0058915475
154	0x3e32206c	0.1739518
155	0x3e477c83	0.19481091
156	0x3d5f2ea3	0.054487836
157	0xbf3c3932	-0.73524773
158	0x3d10b9fe	0.035333626
159	0xbf51c714	-0.81944394
160	0xbd33b0aa	-0.04386965
161	0xbdad45d2	-0.08460583
162	0xbf25820d	-0.64651567
163	0xbf14d13d	-0.5813177
164	0x3e52ec2a	0.20597902
165	0x3e663276	0.22480187
166	0x3f546ce4	0.82978654
167	0x3d27843c	0.040897593
168	0x3f02956b	0.51009244
169	0xbeac9c6c	-0.3371309
170	0xbe9c6929	-0.3054898
171	0x3efa0a15	0.48835817
172	0x3f1fca61	0.6241818
173	0xbf27a706	-0.6548923
174	0xbd7b8536	-0.061406337
175	0x3eaf6feb	0.34265074
176	0xbf144ded	-0.57931405
177	0xbec972d1	-0.3934541
178	0x3e9ee697	0.310353
179	0x3d2486bd	0.04016756
180	0x3e2189b4	0.15775186
181	0x3e358e42	0.17730048
182	0x3e003bcc	0.1252281
183	0xbccbed49	-0.02489342
184	0x3f376b9d	0.7164858
185	0xbe8f9d08	-0.28049493
186	0xbf07dd04	-0.5307162
187	0x3f046e33	0.5173065
188	0x3ebf36d2	0.37346512
189	0xbe9653f2	-0.2936092
190	0xbf0c5dfd	-0.54830915
191	0xbbaa4a83	-0.005196871
192	0x3c1b7cf0	0.009490237
193	0xbf9f544f	-1.2447604
194	0xbdbf8833	-0.0935215
195	0x3ed2c279	0.41163996
196	0x3ccccf2a	0.025001127
197	0xbea41967	-0.3205063
198	0x3f31d46b	0.6946475
199	0xbdc2b6a8	-0.09507495
200	0x3eae997e	0.3410148
201	0xbf178610	-0.5918894
202	0xbde2d0f7	-0.11075013
203	0x3daa4459	0.083138175
204	0xbf194fd5	-0.5988744
205	0x3d3a142a	0.045429386
206	0x3e6f818d	0.23389263
207	0xbf5ba411	-0.8579722
208	0xbebc1887	-0.36737463
209	0xbe921c4a	-0.28537208
210	0x3f81924a	1.0122769
211	0x3f090f80	0.53539276
212	0xbf941374	-1.1568437
213	0xbf3ec272	-0.7451545
214	0x3e0ba56c	0.13637322
215	0x3efa5b8f	0.4889798
216	0xbe64fbf5	-0.22361739
217	0x3e4a6d1d	0.19768186
218	0xbec3d9e9	-0.3825219
219	0xbec371c9	-0.3817275
220	0x3e9a9ada	0.30196267
221	0x3e307c7c	0.17234987
222	0x3af5cf28	0.0018753754
223	0xbeb12ec7	-0.34606
224	0xbf2aaa5d	-0.66666204
225	0xbeaf766c	-0.34270036
226	0xbeb68e8b	-0.35655627
227	0xbf0933e3	-0.535948
228	0x3e46f4ac	0.19429272
229	0x3e382ff8	0.17987049
230	0xbce3624a	-0.027756829
231	0xbe3f46fe	-0.18679425
232	0x3e224f24	0.15850502
233	0x3e5a5b51	0.21323897
234	0xbe980f04	-0.29698956
235	0x3e64323b	0.22284786
236	0xbed6884c	-0.4190086
237	0xbcee8759	-0.029117273
238	0xbe9ae1c2	-0.30250365
239	0x3ea8ae90	0.3294568
240	0xbf45b881	-0.77234656
241	0xbe09f07e	-0.13470647
242	0xbe60b248	-0.21943009
243	0xbf16e416	-0.5894178
244	0x3eadc077	0.33935902
245	0x3e3c1b98	0.18369901
246	0xbf4505e6	-0.76962125
247	0x3f2cb328	0.6746087
248	0xbf3ea9cc	-0.7447784
249	0xbf663b1b	-0.8993394
250	0xbe8f2952	-0.27961212
251	0xbf0eb2ba	-0.55741465
252	0xbe30bb11	-0.1725886
253	0x3d99f21a	0.0751688
254	0xbecf7e4d	-0.40526047
255	0x3eb411a5	0.35169712

network_body._body_endoder.seq_layers.0.bias f4 [128]
0	0xbb6843bd	-0.0035440766
1	0xbb3d39ff	-0.002887368
2	0x3b0438c7	0.0020175443
3	0xbba5cda7	-0.005059916
4	0x392b17d2	0.00016316705
5	0xbb6b8295	-0.0035935987
6	0x3ba767d2	0.005108812
7	0x3b4c435c	0.003116808
8	0x3bca35e1	0.0061709736
9	0x3b613855	0.0034365852
10	0xbacc335c	-0.0015579271
11	0xbba8a761	-0.0051469062
12	0xbb79e290	-0.0038129427
13	0xbb99d7d5	-0.0046949186
14	0xbbb7c263	-0.0056078895
15	0xbaa98af9	-0.0012935094
16	0xbbb4e201	-0.005520106
17	0x3baa2087	0.005191866
18	0x3a87b4a4	0.0010353518
19	0xbbb2db33	-0.0054582595
20	0x3b177362	0.0023109545
21	0xbbc040cb	-0.005867099
22	0xbb6c5513	-0.003606145
23	0xb929a595	-0.0001617878
24	0xb8fbe204	-0.00012010711
25	0xbb8caccf	-0.0042930613
26	0x3ba53684	0.005041899
27	0x3b3d06ab	0.0028843086
28	0xbb9ae23a	-0.0047266753
29	0x3bb0adb6	0.0053918017
30	0x3ba96197	0.0051691043
31	0x3b2bbd05	0.0026205194
32	0xbb6554bb	-0.003499313
33	0x3bc2b6f3	0.0059422194
34	0x3b927313	0.0044692843
35	0x3bd8a493	0.0066114157
36	0xbb6bf9c7	-0.0036007033
37	0x3b1913b4	0.0023357691
38	0xbb185131	-0.0023241753
39	0xbbc9a627	-0.00615384
40	0x3b2decfb	0.0026538956
41	0xbb0fd193	-0.0021944984
42	0xbb5825a6	-0.0032981425
43	0x3bb287c2	0.0054483125
44	0xbb991936	-0.004672195
45	0xbbaa022a	-0.0051882463
46	0xbb15da1e	-0.0022865604
47	0xbb06929e	-0.0020534168
48	0x3b64fce0	0.0034940764
49	0x3b8f4058	0.004371684
50	0xbb8c1b5e	-0.0042757234
51	0x3967ba27	0.00022099224
52	0xbba51c0a	-0.005038743
53	0x3b2709a4	0.0025487924
54	0x3b9dc0c3	0.0048142388
55	0xbacf1c95	-0.0015801365
56	0x3aeb90c4	0.0017972221
57	0xbb899ade	-0.00419937
58	0x3bba5ba2	0.005687193
59	0x3b9a37be	0.004706352
60	0xbb9a7946	-0.004714164
61	0xbbb21f59	-0.005435866
62	0xbb14cac1	-0.0022703859
63	0x3a18b2cc	0.00058249827
64	0xbb458167	-0.0030136944
65	0xbb98e77f	-0.0046662684
66	0xbb93c7d4	-0.0045099054
67	0xbb617b9c	-0.0034405952
68	0x3b14ae87	0.0022687034
69	0x3bc15419	0.005899918
70	0x3a63fe9f	0.00086973043
71	0xbb38bbf6	-0.0028188205
72	0xbae8ccef	-0.001776127
73	0xbb969433	-0.0045953034
74	0x3b0d5f72	0.0021571782
75	0x3b700923	0.003662654
76	0xbb3c2ebf	-0.0028714386
77	0x3bcb9795	0.0062131383
78	0x3bb49ee2	0.0055121044
79	0xbb570101	-0.0032806995
80	0x3bb10c40	0.0054030716
81	0xb8d042c8	-9.930652e-05
82	0x3b99441b	0.0046773083
83	0x3ace16ad	0.0015723311
84	0xba1c1e23	-0.00059554185
85	0xbb998cc2	-0.004685969
86	0x3b8eb66b	0.004355242
87	0x3baca666	0.0052688597
88	0x3bcab253	0.0061858087
89	0xbb764637	-0.0037578472
90	0x3ab1192b	0.0013511529
91	0x3bafe0f0	0.005367391
92	0x3ad2307b	0.0016036177
93	0xbb4ffabd	-0.0031735145
94	0x3b7f480e	0.003895286
95	0xbb716869	-0.0036835915
96	0xbb8967c2	-0.004193277
97	0x3bc3cd22	0.0059753815
98	0x3abb0833	0.0014269411
99	0xbaf64dd6	-0.0018791507
100	0xbb856d82	-0.0040718922
101	0xbb1a25b8	-0.0023521017
102	0x3b4bff18	0.003112739
103	0xbbb72c29	-0.005589981
104	0xbbc21a97	-0.00592358
105	0x3b991884	0.004672112
106	0xba0fee6d	-0.00054905453
107	0xbac0b67d	-0.0014702823
108	0x3b7801fa	0.0037842975
109	0xbb92680a	-0.004467969
110	0x3bb5dbad	0.005549869
111	0xbb8b9657	-0.0042598653
112	0x3bd06bf8	0.006360527
113	0x3b251612	0.0025190157
114	0x3ba8bbf4	0.005149359
115	0xbb99f188	-0.004697982
116	0x3b46c602	0.0030330424
117	0xb955bf05	-0.00020384423
118	0x39f45e28	0.00046609459
119	0x3b2681fc	0.0025407067
120	0xbb905920	-0.004405156
121	0x3b55376e	0.003253426
122	0x3b1d9edd	0.0024050989
123	0x3b27ac00	0.0025584698
124	0x3bc1f56f	0.0059191505
125	0x3bbdcbd2	0.0057921195
126	0x3b814d12	0.003945955
127	0xbb633b63	-0.0034672848

network_body._body_endoder.seq_layers.2.weight f4 [128, 128]
0	0x3d6a563e	0.057211153
1	0xbe161bb5	-0.14659007
2	0xbdb6b7c7	-0.089217715
3	0x3e1a8484	0.15089613
4	0xbd86ae00	-0.065761566
5	0xbd41f0f6	-0.04734894
6	0x3de12c9e	0.10994838
7	0x3caa4130	0.020783037
8	0xbcc83c4e	-0.024442818
9	0xbdfa7e59	-0.1223113
10	0xbe2d6ec2	-0.16936782
11	0xbca39d7a	-0.019972552
12	0x3dc1ec1e	0.09468864
13	0x3d1fd57f	0.039021965
14	0xbe01aec1	-0.1266432
15	0x3d868d74	0.06569949
16	0xbd0e06e0	-0.034674525
17	0xbddb37ce	-0.10704003
18	0xbb9dbb80	-0.0048136115
19	0xbdd82b27	-0.10555106
20	0x3ca21be1	0.019788684
21	0xbe47bde1	-0.19506027
22	0xbd61b3d9	-0.055103157
23	0xbdfb8c88	-0.122826636
24	0x3d09d229	0.03364769
25	0xbd9cda06	-0.07658772
26	0xbe70f1c2	-0.23529723
27	0xbe18ab49	-0.1490909
28	0x3ca8e8b7	0.02061878
29	0xbdfe1776	-0.124068186
30	0xbdd36459	-0.10321874
31	0x3da608a9	0.081071205
32	0xbd31a56a	-0.04337064
33	0xbd8cf7e6	-0.068832204
34	0x3d910f03	0.070829414
35	0xbd5b5dd0	-0.053556263
36	0xbca0309f	-0.019554434
37	0xbbca3e3b	-0.006171969
38	0x3d83ae2c	0.06429705
39	0xbd7af781	-0.061271194
40	0x3d48a317	0.04898366
41	0xbe828b68	-0.25496984
42	0xbc9a4f88	-0.018836752
43	0x3c1a5034	0.009418536
44	0x3d401620	0.0468961
45	0x3db26316	0.087103054
46	0x3d0e180d	0.034690905
47	0x3e1ba105	0.15198143
48	0xb9f7e135	-0.00047279304
49	0x3cf4f19c	0.029900365
50	0x3cea4961	0.028599443
51	0xbdd0446b	-0.101693
52	0x3da0e318	0.07855815
53	0xbe202e28	-0.15642607
54	0xbe24f9a0	-0.1611085
55	0xbe00847d	-0.1255054
56	0xbe3957b2	-0.1809986
57	0xbdccb2f0	-0.09995067
58	0xbe14f147	-0.14545165
59	0x3df9d784	0.121993095
60	0xbe02bb9f	-0.12766884
61	0xbdb3b148	-0.08774048
62	0x3e294d43	0.1653338
63	0x3d0dfa1c	0.03466235
64	0xbd951563	-0.0727947
65	0x3d774b3d	0.060374487
66	0x3ce3b8d7	0.0277981
67	0x3d0e37eb	0.034721296
68	0xbdd2025e	-0.10254358
69	0x3d103eb6	0.035216056
70	0xbd27c983	-0.04096366
71	0x3dd130fe	0.10214423
72	0x3cdfa494	0.027300157
73	0xbe18856b	-0.14894645
74	0x3bfd9947	0.0077392193
75	0x3ddfe1af	0.109317176
76	0xbce77911	-0.028255971
77	0xbe0140a1	-0.1262231
78	0x3d8f51ff	0.069980614
79	0xbd9314f6	-0.07181732
80	0xbd09f4ec	-0.03368084
81	0x3dc3239c	0.09528276
82	0xbd5e257e	-0.054234974
83	0xbd251bb1	-0.04030961
84	0xbe0fcc7b	-0.14042847
85	0xbde17216	-0.11008088
86	0x3e8b1cb4	0.27170336
87	0x3c124c7c	0.008929368
88	0x3c8731c5	0.016503224
89	0xbd55bfe3	-0.05218495
90	0xbd3a6cab	-0.04551379
91	0x3e489b81	0.1959057
92	0x3de161f7	0.110050134
93	0x3b85c0cc	0.004081821
94	0xbdc24fc1	-0.09487868
95	0x3cd28ff2	0.025703404
96	0xbe0e9790	-0.13925004
97	0xbd8ced9b	-0.06881257
98	0x3c73e367	0.01488576
99	0xbd4440da	-0.04791341
100	0x3e227986	0.1586667
101	0xbe398ef1	-0.18120934
102	0xbd398cb3	-0.045300197
103	0x3bc40a14	0.0059826467
104	0xbd9af0b3	-0.07565441
105	0x3dcc347d	0.09970949
106	0xbd46a31a	-0.04849539
107	0x3d9d7960	0.07689166
108	0x3c0bf135	0.008541395
109	0x3d309860	0.043114066
110	0xbb9a99cc	-0.004718041
111	0x3d05b0ac	0.03263919
112	0x3b93e442	0.0045132944
113	0xbd76eb79	-0.060283158
114	0xbdc308f3	-0.09523191
115	0xbd7cdae3	-0.061732184
116	0x3c39f161	0.011349053
117	0x3c889107	0.016670717
118	0xbcdc5a67	-0.026898576
119	0x3da1a38b	0.078925215
120	0xbcadc7b6	-0.021213394
121	0xbc422261	-0.011849017
122	0xbd776ac2	-0.060404547
123	0x3d816a49	0.063191004
124	0xbcb0ad85	-0.021567116
125	0x3cda11f6	0.026619893
126	0x3dd355fc	0.103191346
127	0xbbe50709	-0.006989364
128	0xbdd796bd	-0.10526798
129	0x3dfbe9f3	0.12300482
130	0xbd60d39e	-0.054889314
131	0xbd1ebcd9	-0.038754318
132	0x3d22d879	0.039757226
133	0x3d76fe48	0.060301095
134	0xbda37029	-0.07980377
135	0xbdeabdc9	-0.1146198
136	0xbd204786	-0.03913071
137	0xbde0af64	-0.10970953
138	0xbd854a16	-0.065082714
139	0x3c4dbf9c	0.01255789
140	0x3d71e7ff	0.05905914
141	0x3e56d12c	0.2097823
142	0x3d82a65f	0.06379389
143	0xbd67c3c3	-0.056583177
144	0xbcab3710	-0.02090028
145	0x3dd5e939	0.10444874
146	0x3da85cb1	0.082208045
147	0x3db85467	0.090004735
148	0xbda4a582	-0.080393806
149	0x3d075d69	0.033048067
150	0x3d33b86d	0.043877054
151	0x3dfa447b	0.12220093
152	0xbcbf8295	-0.023377696
153	0xbd991a59	-0.074757285
154	0x3db86401	0.09003449
155	0x3c5f2eea	0.013622025
156	0xbd967924	-0.073473245
157	0x3da9a2e2	0.082830206
158	0x3da3d1f7	0.07999032
159	0x3dd1ad4f	0.10238134
160	0xbaf764d5	-0.0018874655
161	0xbdcf44d6	-0.10120551
162	0xbd04878e	-0.032355838
163	0x3e110a14	0.14164001
164	0x3e28e699	0.16494216
165	0x3d324d4d	0.04353075
166	0x3e0a14cc	0.13484496
167	0x3e0e8683	0.139185
168	0x3d4b175d	0.049582828
169	0xbe1dbcf2	-0.15404108
170	0xbe117ebb	-0.142085
171	0x3e0d86a2	0.1382089
172	0x3c91a8c7	0.017780675
173	0xbd57e85e	-0.052711837
174	0xbd12e1fa	-0.03586004
175	0x3c907385	0.017633209
176	0xbd97871d	-0.07398818
177	0xbcb03a87	-0.021512283
178	0x3c7e188a	0.01550878
179	0xbda71fed	-0.08160386
180	0xbc8d9628	-0.017283514
181	0x3d2cc679	0.042181466
182	0x3de03367	0.10947304
183	0xbd721743	-0.059104215
184	0xbce00435	-0.027345756
185	0x3d500eae	0.05079525
186	0xbd627851	-0.055290524
187	0xbd03ecf4	-0.032208398
188	0xbc181e28	-0.009284534
189	0xbd1a5b3f	-0.037684675
190	0xbdac43c2	-0.08411361
191	0xbd442809	-0.047889743
192	0xbd355c08	-0.04427722
193	0x3e1fc52f	0.15602563
194	0x3dd8e882	0.10591222
195	0x3e021159	0.1270193
196	0xbdfcd34b	-0.123449884
197	0xbd9f210c	-0.07769975
198	0xbd9a3971	-0.07530487
199	0x3e052d3e	0.1300554
200	0x3abe5a1c	0.0014522704
201	0x3dbaf4fc	0.09128758
202	0xbd9b2c4d	-0.07576809
203	0xbd79cda8	-0.060987145
204	0xb8e02374	-0.00010687756
205	0x3d844058	0.06457585
206	0x3d820942	0.06349422
207	0xbdbebc7f	-0.093132965
208	0x3df8903c	0.121368855
209	0xbd790f70	-0.060805738
210	0x3e4991f8	0.19684589
211	0xbd05a65c	-0.032629356
212	0x3d27c731	0.040961448
213	0x3d65aa92	0.05607087
214	0x3d313482	0.043262966
215	0xbdabaa78	-0.08382124
216	0xbdcf2683	-0.101147674
217	0xbc268b91	-0.010165111
218	0x3e10f450	0.14155698
219	0xbba501df	-0.0050356234
220	0xbd59a077	-0.053131547
221	0x3c9d1f8b	0.01918008
222	0xbc681254	-0.014164526
223	0xbcc450ff	-0.023964403
224	0xbda61a14	-0.08110443
225	0x3e92e5b7	0.28690884
226	0xbd0fd607	-0.03511622
227	0xbd46aede	-0.04850661
228	0x3db1d994	0.08684078
229	0x3da2c4fd	0.07947729
230	0xbd30024d	-0.042970944
231	0x3d056209	0.032564197
232	0xbd3595d2	-0.044332333
233	0xbceca6f1	-0.028888198
234	0xbc09b4fb	-0.0084049655
235	0x3dd64f69	0.10464365
236	0xbde764ff	-0.1129856
237	0x3d96aabc	0.07356784
238	0x3e14e151	0.14539076
239	0x3d067c7a	0.032833554
240	0xbd2c32df	-0.042040702
241	0xbcb45da5	-0.02201731
242	0xbd9fd44a	-0.07804163
243	0x3d0ae884	0.03391315
244	0x3d17c851	0.03705627
245	0xbd9d2847	-0.07673698
246	0xbdb36ed9	-0.08761377
247	0xbd3623ad	-0.044467617
248	0xbcc26d25	-0.023733685
249	0x3e2fbf82	0.17162898
250	0x3d29f800	0.041496277
251	0xbc936132	-0.017990682
252	0xbd9cc109	-0.07654006
253	0x3dbb2826	0.09138517
254	0x3cedef6b	0.029044827
255	0xbdfbb935	-0.12291185

network_body._body_endoder.seq_layers.2.bias f4 [128]
0	0xbb839fa9	-0.0040168357
1	0x3ba60d51	0.0050675054
2	0x3a5dbaa1	0.0008458291
3	0xbb34a46e	-0.0027563828
4	0x3b80b382	0.003927649
5	0x3ba6eefc	0.005094407
6	0x3b8567cc	0.0040712114
7	0xbb588ef1	-0.0033044184
8	0xbb89fb08	-0.0042108335
9	0x3b874bcd	0.004128909
10	0xbb21e3da	-0.002470246
11	0xbb476497	-0.0030424946
12	0xbb459bbd	-0.0030152642
13	0xbb8ec322	-0.0043567577
14	0xbbabc05c	-0.005241437
15	0xbb5d8e39	-0.0033806695
16	0x3b8cadea	0.004293193
17	0xbb44cf0c	-0.0030030636
18	0xbba171f5	-0.004926915
19	0x3baa946c	0.0052056815
20	0x3b73fa8b	0.0037228193
21	0x3b9b246d	0.004734567
22	0x3bb50f55	0.0055255094
23	0x3bb0c90f	0.005395062
24	0x3b943ff4	0.0045242254
25	0x3b58e722	0.003309675
26	0xbb865f21	-0.0041006957
27	0x3b514115	0.003192966
28	0xbba90108	-0.0051575936
29	0xbb9d5eee	-0.0048025763
30	0x3bbcd7a1	0.0057630097
31	0xbba45f98	-0.0050162785
32	0xbb64ef48	-0.0034932662
33	0xbb9b2644	-0.004734786
34	0x3afef559	0.0019451781
35	0xbb6dc2e2	-0.003627949
36	0xbb789eb2	-0.0037936387
37	0x3b932cee	0.00449144
38	0xbb9406ed	-0.004517427
39	0xbb99f920	-0.0046988875
40	0x3b8ee2fa	0.004360554
41	0x3b9ddf61	0.0048178886
42	0x3b8d0e9c	0.00430472
43	0x3bbf7912	0.00584329
44	0xbb479b5c	-0.0030457592
45	0x3ba027a2	0.004887537
46	0x3b902527	0.00439896
47	0xbb974e15	-0.0046174624
48	0x3b95a309	0.0045665544
49	0xbb6ecc74	-0.0036437782
50	0x3bb410a3	0.0054951473
51	0x3b824692	0.003975698
52	0x3b89f709	0.004210357
53	0xbb7b70ce	-0.0038366797
54	0xbb787404	-0.0037910948
55	0x3b9a4c03	0.0047087683
56	0xbb400e5b	-0.0029305432
57	0x3b944190	0.004524417
58	0xbb46a581	-0.003031105
59	0x3b9f188c	0.004855221
60	0xbb860949	-0.0040904623
61	0xbba257b1	-0.0049543013
62	0xbbaab22e	-0.005209229
63	0x3bc20351	0.0059208055
64	0x3b8294b9	0.0039850143
65	0xbb9bd53c	-0.004755644
66	0x3bc23f58	0.0059279613
67	0x3b4753b8	0.003041489
68	0xbb9efbb8	-0.0048517846
69	0xbb1bc039	-0.0023765697
70	0x3b9b8efe	0.0047472706
71	0x3bafe487	0.0053678188
72	0x3b60b97c	0.0034290245
73	0x3b70530a	0.003667059
74	0xbbace2aa	-0.005276044
75	0x3b89ce31	0.004205488
76	0x3ba866de	0.005139216
77	0xbba23759	-0.0049504456
78	0x3b6f2778	0.003649203
79	0x3b62dbd2	0.0034615886
80	0x3b045e75	0.0020197902
81	0xbb8e71d8	-0.0043470673
82	0xbb4c185f	-0.0031142456
83	0xbb80630a	-0.0039180564
84	0x3bb6716d	0.0055677206
85	0xbb90254a	-0.0043989765
86	0xba964d98	-0.0011467217
87	0xbb916d87	-0.0044381055
88	0xbb723ebe	-0.0036963667
89	0xbb2ac0ae	-0.0026054787
90	0xbb84d8d0	-0.0040541664
91	0x3b9fccc5	0.0048767054
92	0x3bbb83b2	0.0057224864
93	0xbb27ef40	-0.0025624782
94	0xbba5e8a8	-0.005063135
95	0x3ba7aa63	0.005116747
96	0x3b900052	0.0043945694
97	0xbb2969cc	-0.0025850413
98	0x3b83ae0a	0.00401855
99	0xbb63fb3c	-0.0034787199
100	0xbafbb4ad	-0.0019203626
101	0xbba230c3	-0.0049496605
102	0xbb61ad94	-0.0034435736
103	0x3bb062be	0.0053828647
104	0x3ba1eaa8	0.0049413033
105	0x3b45fa78	0.0030209105
106	0xbb92f424	-0.0044846702
107	0x3bb9abee	0.0056662476
108	0x3b7e73ef	0.0038826426
109	0xbb721af8	-0.0036942344
110	0xbb30013c	-0.0026856204
111	0x3ba0dc0b	0.0049090437
112	0x3ba0d107	0.0049077305
113	0xbb9dfd71	-0.0048214723
114	0xbb4e10c0	-0.003144309
115	0xbb7940e2	-0.0038033058
116	0xbb6b263c	-0.0035880944
117	0xbb86a02f	-0.004108451
118	0xbb8514d2	-0.00406132
119	0x3b91cdc2	0.004449577
120	0xbba4df55	-0.005031506
121	0x3b9586ee	0.004563204
122	0x3bb83989	0.005622093
123	0xbb93545a	-0.0044961395
124	0x3b83d0e0	0.0040227026
125	0xbb9f5714	-0.0048626754
126	0x3b5e51fe	0.0033923383
127	0xbb7a4214	-0.0038186358

action_model._continuous_distribution.mu.weight f4 [1, 128]
0	0xbcbd6dd1	-0.023123654
1	0x3c2d15ec	0.010564309
2	0x3b2b9001	0.0026178362
3	0xbc93919f	-0.018013773
4	0x3c65db3e	0.014029322
5	0x3d0ab2a0	0.033861756
6	0x3bebe971	0.0071994592
7	0xbb5880cb	-0.003303575
8	0xbb049ddb	-0.002023569
9	0x3be717f1	0.0070524146
10	0xbd287be5	-0.04113378
11	0xbbd9689d	-0.0066347853
12	0xbc63df74	-0.013908256
13	0xbc8f3f5f	-0.017486272
14	0xbc86b283	-0.016442543
15	0xbc1af4c0	-0.009457767
16	0x3d2e8380	0.042605877
17	0xbd01150c	-0.031514212
18	0xbb922b8a	-0.0044607567
19	0x3d32efa2	0.043685563
20	0x3bd1aaf5	0.0063985535
21	0x3d1dd6e2	0.038535006
22	0x3c0e8b58	0.008700214
23	0x3bca7cd5	0.006179432
24	0x3cd90a6d	0.02649423
25	0x3a2c9be3	0.0006584508
26	0xbb820807	-0.003968242
27	0x3c99b114	0.018761195
28	0xbc68abe1	-0.014201135
29	0xbc30bf0d	-0.010787738
30	0x3d53ad50	0.051678956
31	0xbc2594e7	-0.010106302
32	0x3adf72de	0.0017047783
33	0xbcb72a5b	-0.022359064
34	0x3c571732	0.013128089
35	0xbb81ff5d	-0.0039672093
36	0xbcec3c2e	-0.02883729
37	0x3c2e510b	0.010639439
38	0xbc4dcb94	-0.012560744
39	0xba87f0cb	-0.0010371445
40	0x3ca50c75	0.020147542
41	0x3b270196	0.0025483123
42	0x3c84627f	0.016160248
43	0x3c345f21	0.011009009
44	0xbc589464	-0.013218973
45	0x3c2e945c	0.010655489
46	0x3be2b416	0.0069184406
47	0xbc1afcce	-0.009459687
48	0x3c344565	0.011002873
49	0xbc1492ff	-0.00906825
50	0x3c33cae7	0.010973669
51	0x3b1abdd7	0.0023611689
52	0x3bc67bcf	0.0060572396
53	0xbd1ba01d	-0.037994493
54	0xbbf3d4b6	-0.0074411286
55	0x3ce5a540	0.028032899
56	0xbbd0545f	-0.006357714
57	0x3c836a28	0.01604183
58	0xbcabcb7a	-0.020971049
59	0x3ca1218a	0.019669313
60	0xbcaa802a	-0.020813067
61	0xbc346111	-0.011009471
62	0xbc335a96	-0.01094689
63	0x3ce41086	0.02783991
64	0x3c8f1103	0.017464167
65	0xbc273418	-0.010205291
66	0x3c12fa5a	0.008970821
67	0x3c52ee38	0.012874179
68	0xbc9d8484	-0.019228227
69	0xbcdb5e75	-0.026778439
70	0x3cd9600e	0.02653506
71	0x3bbd893f	0.0057841833
72	0x3bb097e6	0.0053892015
73	0x3c2ea1cb	0.010658692
74	0xbc2456c5	-0.010030453
75	0x3c87f8a6	0.016598057
76	0x3c14c864	0.00908098
77	0xbad30d79	-0.0016102038
78	0x3d247edb	0.04016004
79	0x3c0fbde5	0.008773302
80	0xbadc99eb	-0.0016830539
81	0xbc9af25f	-0.0189144
82	0xbcd42c53	-0.025900042
83	0xbd034369	-0.03204671
84	0x3ca29771	0.019847604
85	0xbc66daf1	-0.014090286
86	0xbbd0b7d6	-0.006369571
87	0xbc26f381	-0.010189892
88	0xbaf39953	-0.0018585123
89	0xbd053330	-0.03251952
90	0xbd35830a	-0.04431442
91	0x3b6830cc	0.0035429476
92	0x3c90f92e	0.017696943
93	0xbd2295c0	-0.039693594
94	0xbc55b8f2	-0.013044583
95	0x3c1b9848	0.009496756
96	0x3c7417d4	0.014898259
97	0x3a425835	0.00074136566
98	0x3c262595	0.010140796
99	0xb9f4a428	-0.00046661613
100	0xbc0507a1	-0.008119495
101	0xbb9b656a	-0.004742314
102	0xbc9235ce	-0.017847922
103	0x3cb751eb	0.022377929
104	0x3d337e20	0.043821454
105	0x3bef4c61	0.0073028062
106	0xbc919845	-0.017772803
107	0x3ca99089	0.020698803
108	0x3cfca559	0.030840563
109	0xbccbb354	-0.024865784
110	0xbcabc95e	-0.020970043
111	0x3b722c2f	0.0036952605
112	0x3cd68161	0.02618474
113	0xbce80551	-0.028322848
114	0xb7cf93e2	-2.4745186e-05
115	0xbc51094d	-0.012758565
116	0xbbe4ca2c	-0.0069821086
117	0xbca941fb	-0.020661345
118	0xbbefec0d	-0.0073218406
119	0x3b857187	0.0040723714
120	0xbc6c7c57	-0.014433942
121	0x3c156ca7	0.009120143
122	0x3cbc49ca	0.022984404
123	0xbbe4aade	-0.006978377
124	0x3bd3f1ec	0.0064680483
125	0xbbf5c1d3	-0.0074999123
126	0xbb1cd8ee	-0.002393301
127	0xbce8e5f6	-0.028429966

action_model._discrete_distribution.branches.0.weight f4 [1, 128]
0	0xbaa865b9	-0.0012847699
1	0xbb9c67a6	-0.004773098
2	0x3c626ecb	0.01382036
3	0x3b04967d	0.00202313
4	0xbbda9605	-0.0066707158
5	0x3b01ead4	0.0019823806
6	0x398a7ba4	0.0002641353
7	0xbaaa8858	-0.0013010604
8	0xbc4c6bcb	-0.012476872
9	0x3baa2219	0.005192053
10	0xba690477	-0.000888891
11	0xbc182e77	-0.009288422
12	0x3a3c62a2	0.00071863283
13	0xba627f57	-0.0008640191
14	0x3c9c0b07	0.019048227
15	0x3c179ce0	0.0092537105
16	0x3a9e6ede	0.0012087484
17	0xbbd8956b	-0.006609609
18	0x3ba4b61d	0.0050265924
19	0x3c80390d	0.015652204
20	0xbc9670a9	-0.018364267
21	0x3b2edff3	0.0026683777
22	0xbb94d569	-0.004542042
23	0xbc9bd887	-0.019024147
24	0x3c1780c2	0.009247007
25	0xbaf493e3	-0.0018659796
26	0x3b2f76d1	0.00267737
27	0xbbe48e58	-0.0069749765
28	0x3b84d483	0.0040536537
29	0xbb722925	-0.0036950794
30	0xbbed1d68	-0.0072361715
31	0xbc2e2777	-0.010629526
32	0x3b3e36d7	0.0029024386
33	0xbb5671db	-0.0032721672
34	0x3ab9c93f	0.0014174356
35	0x3b59959a	0.0033200742
36	0xbc66d167	-0.014088011
37	0x3a9fbeb7	0.0012187575
38	0xbb051aa9	-0.002031008
39	0x3aab4adc	0.0013068574
40	0x3bc7a32c	0.0060924497
41	0x3c25ba34	0.010115195
42	0x3b27b257	0.0025588477
43	0xbb07f2a6	-0.0020743995
44	0xbc56e17a	-0.013115281
45	0xbac51996	-0.0015037532
46	0x3c94162f	0.018076984
47	0x3a90158f	0.0010992753
48	0xbacd0e70	-0.0015644561
49	0xba28dd0e	-0.0006441631
50	0xb9ecf8e5	-0.0004519887
51	0x3ba4e94f	0.0050326954
52	0x3b9a6392	0.0047115767
53	0xbb5f7e17	-0.0034102255
54	0x3a22f5f3	0.0006216459
55	0xbc70b4d5	-0.014691551
56	0x3b8449cc	0.0040371176
57	0xbb7c5e50	-0.0038508363
58	0xbc0d46e3	-0.008622858
59	0x3b96a996	0.004597853
60	0x3b294b1f	0.002583213
61	0x3bbe550c	0.005808478
62	0x3c27f1cf	0.010250523
63	0xb9100788	-0.00013735716
64	0xbbd4b178	-0.0064908825
65	0xbc2b8e21	-0.010470898
66	0xbbffd078	-0.007806834
67	0xbb2716cc	-0.0025495766
68	0xbc48504c	-0.0122261755
69	0x3b4f2d35	0.003161264
70	0x3c2d2adb	0.0105693
71	0xbba25a60	-0.004954621
72	0xbc73af95	-0.014873405
73	0x3b644780	0.0034832656
74	0x3c6a3bb2	0.014296459
75	0xbc865769	-0.016399102
76	0xbc168512	-0.009187
77	0xbbca89ba	-0.006180969
78	0x3ae0000d	0.0017089859
79	0xba7b9303	-0.00095967966
80	0xbc058f70	-0.008151874
81	0x3bf2cdf0	0.0074098036
82	0x3c0c3404	0.008557323
83	0xbc1fd0cf	-0.009754374
84	0x3a95d88a	0.0011432332
85	0x3b0d0f73	0.00215241
86	0x3ba0b20b	0.004904037
87	0x3b12204e	0.0022297087
88	0xbc3b7b19	-0.011442923
89	0x3a810e86	0.0009846247
90	0xbca6c827	-0.020359112
91	0x39aad182	0.00032581022
92	0x3bb537ab	0.005530318
93	0xbbbc7748	-0.005751524
94	0x3939a09b	0.00017702805
95	0x3bb25d31	0.005443238
96	0xbc1fcc18	-0.00975325
97	0xbb9fafce	-0.0048732525
98	0x3c26bd4a	0.010176966
99	0xbc556e10	-0.013026729
100	0x3cb16ed6	0.021659296
101	0xbbb8abcf	-0.0056357156
102	0xbb59ffef	-0.003326412
103	0x3cc517ed	0.02405926
104	0xbbf13a10	-0.007361658
105	0xbc2f1180	-0.010685325
106	0xba2d25ec	-0.0006605077
107	0xbb8a75cf	-0.0042254697
108	0xbbd543c3	-0.006508322
109	0xbc301d27	-0.010749138
110	0xbbad66f7	-0.0052918154
111	0x3bbab3f1	0.00569772
112	0x3ca82fa1	0.020530524
113	0xbaf0e3bd	-0.0018378418
114	0x3b981eef	0.0046423594
115	0xbbb10aaf	-0.005402885
116	0xbb91f5ec	-0.004454365
117	0xbc1aa232	-0.009438084
118	0x3b82e218	0.0039942376
119	0x3aedeb5f	0.0018151811
120	0x3bb64055	0.005561868
121	0xbc4e074f	-0.012574985
122	0xbbbaf731	-0.005705737
123	0x3c701afb	0.01465487
124	0xbbde32b0	-0.0067809448
125	0xbaf41cf5	-0.0018624353
126	0x3c256f04	0.010097269
127	0xbbf7bd83	-0.0075604334

onnx::Div_70 f4 [6]
0	0x404f2caa	3.237101
1	0x3fd807ff	1.687744
2	0x3be79843	0.0070677116
3	0x3faea81d	1.3645054
4	0x3d301694	0.042990282
5	0x3be79843	0.0070677116
