results/SliderBehavior/SliderBehavior/checkpoint.pt (torch, 150562 bytes, 11 tensors)

network_body._body_endoder.seq_layers.0.weight f4 [128, 6]
00000000: 073c 4dbf 30e8 32bf e9ac e33e bcdd 2dbe
00000010: d8e6 3abf 1f55 df3d f850 8cbb ea5e 6fbe
00000020: c4a5 50bd 78bd 603d 5631 ecbe c3ec a03e
00000030: def7 2b3f 92c2 12be 329b f0be 4b4b 833f
00000040: e9b9 d1be 6aae a3be d844 a4be 884e b63e
00000050: 039c 303f f989 c03d 0515 90be a7e9 1fbe
00000060: 4e40 02bf cdf2 41bf a1b3 1b3d f87a 0ebf
00000070: 4682 b83e 8dc4 47bf d37a 3c3f b6b7 9a3e
00000080: a14f ed3d 05cc 983e f433 b0be 055a b13e
00000090: 02e3 78bc 787b 8dbd 596f 113e 16e9 c5be
000000a0: c971 dcbd 28d5 d6bc 7a19 0f3f 8762 5dbe
000000b0: ee74 f73e 62ee f73e acb7 cabe 8da4 babd
000000c0: fefd 1b3e b30c 97bc 79a2 0ebe b8af 0ebe
000000d0: a550 d83e 81c1 3dbe 4c0d f13e 46e5 fe3d
000000e0: fbcf d9be 471a 583f 51a4 1e3e 0ea2 00be
000000f0: f27c f53e 3779 16bf 8a33 273e 10d6 4bbf
00000100: 303d 663e b6a8 0fbf c0a9 043f 24c3 ccbe
00000110: 9698 09be 538d 95be 96a0 e5be 1986 ca3e
00000120: e721 8dbd 8022 d1bc b898 533f 3cdd 803e
00000130: ac56 1fbf 8eaf ae3e 730a 473f d83c 893d
00000140: e990 033f 76ae ecbe 5bb6 803e bf5b 793d
00000150: 657c 0bbf 0571 8bbe a3d4 0a3f 5dfa 143e
00000160: 5f15 c93e 4751 893e 1d0c 233f 5d75 3a3f
00000170: f8c5 f13e fc14 503e 1e2b 3c3f 9035 db3d
00000180: 27ca 47be cf86 f1bd c0bb b43e 3e37 853e
00000190: 236c bf3e 7d16 d83d 054a d5bd 27ea e1bd
000001a0: bcdc 4e3e 706c 8bbe 0ce4 913e 24a1 b0be
000001b0: 1287 da3e b069 20bd f4f9 f1be 1ab0 aebe
000001c0: 28f9 c8bd 2382 51be 79be aebd 96e6 f33c
000001d0: 53d1 8c3d 8ede d43e dded aa3e d0ae 1c3e
000001e0: d17b 253f 419a 21be 8f85 7e3d 8374 163d
000001f0: f83e ae3e 5c51 1e3f fdf5 ddbe 8fa1 99be
00000200: ff8c 343f fcd7 f43e 2942 8abe d1a1 ab3c
00000210: af67 f6be 26ce c63e 2619 773e 8d08 683e
00000220: 308f 8fbe cd7d bcbd 4c48 993e ad9d 8abe
00000230: a5f6 c93e fe34 20be 8a70 583e b96e 95be
00000240: 0f30 363e 23fb d63e 2b9c 203f 7cd9 e8be
00000250: cc62 cbbe dadf 3ebf e53a 53bf cf7e c73d
00000260: 7820 25be fd45 14bd b551 19bf eacb 81bf
00000270: 1747 19be 71b4 87be bc86 303e 48a9 693e
00000280: a545 4fbd 10e2 b0be e436 62be a719 22be
00000290: f78a 51be e69e 97be 9e80 063b cf78 913f
000002a0: 5056 8ebe c48e 803b 1667 75be 9df3 73be
000002b0: 89cb eebe 56d2 17bf 32b6 8abe faeb e73c
000002c0: 7011 203d 4ffe 2a3f e5b4 2a3f 123b bb3d
000002d0: e300 40be 98c1 0ebf bbe6 f9be 6d8d a4be
000002e0: b7a0 d93d 2646 2cbf 8771 2d3e ae68 6c3d
000002f0: 6d4c 2e3e 1f25 dabe cf1c da3e 9e3f ea3d
00000300: 8fa2 49be 9ca8 6f3e 1c2a e1bd 1482 2a3f
00000310: d004 d8be cfd3 b5bb 6c2a f5be 0900 0b3f
00000320: 4167 24bf 0de7 aa3e f8bc a7be 03ce babe
00000330: 3fda 033d 8928 193d 4aea 89bf b103 a1be
00000340: cf11 bd3e b488 bfbe f157 b53d cf76 acbc
00000350: 35ef b3be de35 d5be d6cb 35bf 083e 073f
00000360: 67ee a13d adc2 a53e 20a5 1c3f d8a4 9f3d
00000370: c7fc 2c3e e7ff 953e 5667 2ebf a2cc e43e
00000380: 6a4a c43e 5e4c d4be 7337 8abe 5a29 ad3e
00000390: 4e34 7b3e b4b3 843e 99f0 8fbf 2ec8 c23e
000003a0: 937a 14bd 249a 143f 38ec 843e 318c 9f3e
000003b0: 0301 39bf 812c fcbe 5449 85be 2e4d 0fbf
000003c0: 993b 3f3e 76b4 683d b2ff e0be 7fd1 fabd
000003d0: 630b 2d3e c433 6fbe 3ba4 543f d03d d1bc
000003e0: ad63 363f 0c83 5bbf ae70 e53e 900e b43e
000003f0: 16d7 053e c557 b73e 21a1 89be a6e4 77be
-0.8016972 -0.6988554 0.44467857 -0.16979116 -0.7300849 0.109049074 -0.004282113 -0.2337605
-0.050939336 0.05486819 -0.4613139 0.31430635 0.6717509 -0.14332035 -0.46993405 1.0257353
-0.4096215 -0.31969005 -0.32083774 0.3560679 0.68988055 0.09401316 -0.28141037 -0.15616475
-0.5087937 -0.7576111 0.038013104 -0.55656385 0.3603689 -0.7803429 0.73624915 0.30218285
0.11587454 0.29843155 -0.34414637 0.34638992 -0.015190842 -0.069083154 0.14202632 -0.38654393
-0.1076389 -0.026224688 0.5589825 -0.21619616 0.48331398 0.4842406 -0.39593256 -0.09113417
0.15233609 -0.018438673 -0.13929166 -0.13934219 0.42249027 -0.18530847 0.47080457 0.12446074
-0.4254149 0.84415096 0.15492369 -0.12561819 0.47946888 -0.5877871 0.16328254 -0.7962351
0.22484279 -0.5611681 0.5182152 -0.3999263 -0.13437113 -0.29209384 -0.4484908 0.39555433
-0.06891232 -0.025529146 0.82654905 0.25168788 -0.62241626 0.34118313 0.7775032 0.06701058
0.5139299 -0.46226853 0.25139126 0.06087851 -0.54486686 -0.27234665 0.5423071 0.14548631
0.39274117 0.26819822 0.6369036 0.7283533 0.4722135 0.20320505 0.7350329 0.107035756
-0.19510709 -0.11793291 0.35299492 0.2601871 0.3738719 0.10551164 -0.10414509 -0.11030989
0.20201391 -0.2723117 0.28494298 -0.3449794 0.42681175 -0.03916329 -0.47261012 -0.3411873
-0.09813148 -0.204598 -0.085324235 0.029773038 0.06875863 0.41576046 0.333846 0.1530106
0.64642054 -0.157815 0.06213909 0.036732208 0.34032416 0.61842895 -0.43351737 -0.30006072
0.7052764 0.47821033 -0.270036 0.020951184 -0.4812598 0.38829154 0.24130687 0.22659512
-0.2803893 -0.09203682 0.2993797 -0.27073422 0.39445987 -0.15645215 0.2113668 -0.29186037
0.1779177 0.41988477 0.62738293 -0.45478427 -0.39723814 -0.7456032 -0.8251174 0.09740984
-0.16125667 -0.03619956 -0.598903 -1.0140355 -0.14968525 -0.26504853 0.17238897 0.22818482
-0.050603528 -0.34547472 -0.22091252 -0.15830098 -0.20463167 -0.29613417 0.002052344 1.1364993
-0.27800226 0.003923269 -0.23965105 -0.238234 -0.4663966 -0.5930532 -0.2709213 0.028310765
0.03907913 0.66794294 0.66682273 0.09142126 -0.18750338 -0.5576415 -0.48808846 -0.3213915
0.10626357 -0.6729454 0.16937838 0.057717018 0.17021342 -0.42606446 0.42600104 0.11437915
-0.19690917 0.23404163 -0.1099436 0.66604733 -0.42191172 -0.005548931 -0.47883928 0.5429693
-0.6422005 0.33379403 -0.3276136 -0.364853 0.032190558 0.037392173 -1.0774624 -0.3144813
0.3692765 -0.37408984 0.08854664 -0.021052746 -0.35143438 -0.4164266 -0.71014154 0.5282903
0.079068 0.32375088 0.6118946 0.07795113 0.16893302 0.292968 -0.6812643 0.44687372
0.38338023 -0.41464514 -0.2699543 0.3382061 0.24531671 0.25918353 -1.12453 0.3804335
-0.03624971 0.580477 0.2596147 0.31161645 -0.7226717 -0.49252704 -0.26032507 -0.5597714
0.18675078 0.056812726 -0.4394508 -0.122469895 0.16898875 -0.23359591 0.83063096 -0.02554217
0.71245843 -0.85746837 0.4481253 0.3516736 0.1307033 0.3580915 -0.26880744 -0.24208316

network_body._body_endoder.seq_layers.0.bias f4 [128]
00000000: 0000 0000 0000 0000 0000 0000 0000 0000
00000010: 0000 0000 0000 0000 0000 0000 0000 0000
00000020: 0000 0000 0000 0000 0000 0000 0000 0000
00000030: 0000 0000 0000 0000 0000 0000 0000 0000
00000040: 0000 0000 0000 0000 0000 0000 0000 0000
00000050: 0000 0000 0000 0000 0000 0000 0000 0000
00000060: 0000 0000 0000 0000 0000 0000 0000 0000
00000070: 0000 0000 0000 0000 0000 0000 0000 0000
00000080: 0000 0000 0000 0000 0000 0000 0000 0000
00000090: 0000 0000 0000 0000 0000 0000 0000 0000
000000a0: 0000 0000 0000 0000 0000 0000 0000 0000
000000b0: 0000 0000 0000 0000 0000 0000 0000 0000
000000c0: 0000 0000 0000 0000 0000 0000 0000 0000
000000d0: 0000 0000 0000 0000 0000 0000 0000 0000
000000e0: 0000 0000 0000 0000 0000 0000 0000 0000
000000f0: 0000 0000 0000 0000 0000 0000 0000 0000
00000100: 0000 0000 0000 0000 0000 0000 0000 0000
00000110: 0000 0000 0000 0000 0000 0000 0000 0000
00000120: 0000 0000 0000 0000 0000 0000 0000 0000
00000130: 0000 0000 0000 0000 0000 0000 0000 0000
00000140: 0000 0000 0000 0000 0000 0000 0000 0000
00000150: 0000 0000 0000 0000 0000 0000 0000 0000
00000160: 0000 0000 0000 0000 0000 0000 0000 0000
00000170: 0000 0000 0000 0000 0000 0000 0000 0000
00000180: 0000 0000 0000 0000 0000 0000 0000 0000
00000190: 0000 0000 0000 0000 0000 0000 0000 0000
000001a0: 0000 0000 0000 0000 0000 0000 0000 0000
000001b0: 0000 0000 0000 0000 0000 0000 0000 0000
000001c0: 0000 0000 0000 0000 0000 0000 0000 0000
000001d0: 0000 0000 0000 0000 0000 0000 0000 0000
000001e0: 0000 0000 0000 0000 0000 0000 0000 0000
000001f0: 0000 0000 0000 0000 0000 0000 0000 0000
0.0 0.0 0.0 0.0 0.0 0.0 0.0 0.0
0.0 0.0 0.0 0.0 0.0 0.0 0.0 0.0
0.0 0.0 0.0 0.0 0.0 0.0 0.0 0.0
0.0 0.0 0.0 0.0 0.0 0.0 0.0 0.0
0.0 0.0 0.0 0.0 0.0 0.0 0.0 0.0
0.0 0.0 0.0 0.0 0.0 0.0 0.0 0.0
0.0 0.0 0.0 0.0 0.0 0.0 0.0 0.0
0.0 0.0 0.0 0.0 0.0 0.0 0.0 0.0
0.0 0.0 0.0 0.0 0.0 0.0 0.0 0.0
0.0 0.0 0.0 0.0 0.0 0.0 0.0 0.0
0.0 0.0 0.0 0.0 0.0 0.0 0.0 0.0
0.0 0.0 0.0 0.0 0.0 0.0 0.0 0.0
0.0 0.0 0.0 0.0 0.0 0.0 0.0 0.0
0.0 0.0 0.0 0.0 0.0 0.0 0.0 0.0
0.0 0.0 0.0 0.0 0.0 0.0 0.0 0.0
0.0 0.0 0.0 0.0 0.0 0.0 0.0 0.0

network_body._body_endoder.seq_layers.2.weight f4 [128, 128]
00000000: ea26 ad3c f8fd 423d 657f 1cbd 97b0 51be
00000010: b83f be3b ba4f b03d 738d 0f3e e8be 9c3d
00000020: 04f3 1c3e 4bd8 163e cae5 0dbe 0ced 8c3d
00000030: 58fc 903d a5a3 4bbc 0203 643d 2e70 473c
00000040: b289 673c 035c bbbd 4023 f3bd 614b 15bd
00000050: edcd 7cbd ae55 b7bd d9a1 d2bd ff79 043d
00000060: 566f 9ebd 124c 08be 2a12 33bc 40d6 3dbd
00000070: 9f2d d43d c767 14be 3025 f33d c409 193d
00000080: 1394 86bc 8774 37bd 5438 583c 0975 0d3e
00000090: 68ec 323d 6265 27bd c69f 10bc 8d82 8e3d
000000a0: 8674 1f3c fa1e 40bd 4921 d6bd 352b 14bc
000000b0: a193 b5bc 8d77 09bc cb98 093d a7f6 f63d
000000c0: 8a46 a5bd 0136 1abe 74d7 40bc 87cd c63d
000000d0: feb6 f5bc 05a6 02be ed6e 84ba 64e6 8abd
000000e0: ea34 103e 178a 18be 84ae b63b 7393 153e
000000f0: d831 7e3d b653 bc3c ee74 eabd 3679 da3d
00000100: a0b2 a33d bdc8 0abc c98b 4c3d 8e44 bf3c
00000110: dc69 713d f881 b33d 77f0 473d fcbe 34bd
00000120: 04bb d73d da96 143d b0a3 a8bd d8c2 bf3d
00000130: d82f 52bd cfc4 1a3d 1d0a 27be 5dda b13d
00000140: c6cb 32bc 241d bc3d e8db 52bb 1a7b d6bd
00000150: 55cc 813d 13e5 b73c b0c7 a1bd 27f7 ebbd
00000160: eff5 86bd a3a6 673c 2b09 46bd a8e5 acbc
00000170: dab8 c73d c681 0abd 78b9 1f3d 3143 143e
00000180: e780 853b 5ce1 813d e0da d93d cfa0 543c
00000190: d793 283d dd9f 3c3d dbe1 653c ffca 0cbd
000001a0: 4685 fbb8 a337 623c 9275 d5bc a73c 1a3c
000001b0: f89d 10be 664e 153e 18ff 213d 0cd2 e43c
000001c0: 1ca5 8f3c 0ef5 8a3c c069 1bbe d675 493d
000001d0: e843 10bd d2bf 74bc c5e7 c9bb d2c1 50bd
000001e0: 1b7e 97be 91e0 c8bd 6497 6d3d 1b79 b0bd
000001f0: f508 d6bd 16c3 d83b c7c7 ab3d 8ccf adbd
00000200: 84c4 b43c 09f9 aa3c 8ac6 d53d c7db 163d
00000210: 8acb 2fbe 44fd dfbc 2a75 eebd a672 cabd
00000220: 1ceb bd3d 4edf 31be e963 81bc b72f a6bc
00000230: 10b7 733d 02ca bfbd 570b 89bd bed8 e43c
00000240: 2a00 60bd 4185 10be 9910 9dbc 3506 693e
00000250: 31b3 b23d b3d8 573e a87b 033e 367a 42bd
00000260: 82fa 07be c090 b03d 2c0c 543d 1a96 263d
00000270: 10c4 ab3d 23d1 df3a 3622 2abe b4b8 85bd
00000280: a9b4 873e c38e a2bc eae9 1d3e ea1b a6bc
00000290: 15f3 ebbd 3f4e f2bc bfde 6b3d 1c97 efbc
000002a0: f65d afbb f2c3 08be 81e1 183d 3727 2cbd
000002b0: c1f4 bb3c 593a 98bd 2cb2 80bd ac02 0d3d
000002c0: 5cf0 8e3c cc23 db3c 82fd db3c 5918 7bbd
000002d0: 0c37 313e 4fea b0bd 96ad 883d 3cb8 44bd
000002e0: 8e79 40be eb27 353d 14ba b53b 8486 373d
000002f0: 08fb 8fbc d174 3cbe c850 ee3c 553c 013e
00000300: 46bf aa3c 6fca 77bd a67c 01be c9da 08bc
00000310: eaa1 a0bc d0e5 c0bc c9c7 f8bd 8c33 52bd
00000320: 2a94 48bd 0c08 fd3c 627f 5f3e b3c0 fa3c
00000330: 5835 8f3d cb91 f4bc 7350 113c f6e4 c5bd
00000340: b9b1 3b3d 7cfd af3b 2df6 293e e8f6 c3bd
00000350: 3b37 42bd dcfb 873d 1ad9 b2bd cb6d a53a
00000360: 0d27 753c fefb 68bd 16a8 a23d 18d3 f4bd
00000370: 53e5 68be 4e92 88bc 1cb0 13bd e0be 2c3e
00000380: 9297 193d 0a3a b3bd dc70 70be ceac 80bd
00000390: c689 0c3d eb1c 863d 81f2 933d 9b52 743c
000003a0: 7813 49bd b200 20be 7158 e83d 7113 63bd
000003b0: 3b81 1fbd ee11 fcbc aad5 9d3d d714 2a3d
000003c0: 211e f8bd f74b d03c 12a0 0ebe c211 e73d
000003d0: 11c1 90bd 1f6c b7bd 4fb6 3ebd 3d0d e63c
000003e0: 979c 903d ca6c 36bd 6b79 31be 00c2 c03d
000003f0: c34d 51be 827a 523d 38d6 223e 4538 563b
0.02113672 0.047605485 -0.03820743 -0.2047752 0.0058059357 0.08608957 0.14018802 0.076536
0.15327078 0.14730947 -0.13857189 0.068811506 0.07079381 -0.012429153 0.05566693 0.012172742
0.01413195 -0.09148409 -0.11871958 -0.03644884 -0.061719824 -0.08951889 -0.10284776 0.032342907
-0.077360794 -0.13310269 -0.010929624 -0.046346903 0.10360264 -0.14492713 0.11872327 0.03736283
-0.01642803 -0.044788864 0.013197023 0.13814177 0.043682486 -0.04086817 -0.008827155 0.06958494
0.009732371 -0.04690454 -0.104555674 -0.0090435045 -0.022165122 -0.0083903195 0.03359298 0.12058764
-0.08070095 -0.15059663 -0.011770118 0.0970717 -0.029994484 -0.12758644 -0.0010103859 -0.06782225
0.14082685 -0.14896427 0.005575003 0.14607029 0.062059253 0.022989135 -0.11448084 0.106676504
0.079930544 -0.008470711 0.049937997 0.02334812 0.058938846 0.08765024 0.04881331 -0.04412745
0.10533717 0.036276676 -0.08234346 0.09363335 -0.05131516 0.037785348 -0.16312452 0.086842276
-0.010912841 0.09185246 -0.0032174531 -0.104726985 0.06337801 0.022448098 -0.078994155 -0.1152175
-0.06589877 0.01413885 -0.048348587 -0.021105602 0.097520545 -0.033815168 0.038995236 0.14478756
0.0040742042 0.06341812 0.1063745 0.012977793 0.041156616 0.046050895 0.014030899 -0.03437328
-0.00011993437 0.01380721 -0.026057038 0.009413875 -0.1412276 0.14580688 0.039549917 0.02793219
0.017534785 0.016962554 -0.15177059 0.049184643 -0.03522101 -0.014938312 -0.0061616623 -0.05096609
-0.29588398 -0.09808458 0.058005705 -0.08616849 -0.10450927 0.006615053 0.08387714 -0.08486852
0.022066362 0.020870702 0.10438259 0.03683069 -0.17167488 -0.027342446 -0.11643441 -0.09885149
0.09273359 -0.1737034 -0.015794711 -0.020286424 0.059500754 -0.09364702 -0.06691616 0.027935382
-0.054687656 -0.14113332 -0.019172953 0.22756274 0.08725584 0.21078758 0.1284014 -0.04747983
-0.13279155 0.08621359 0.05176942 0.04067049 0.08387005 0.0017075877 -0.16614613 -0.0652937
0.2650502 -0.019843465 0.15421262 -0.020276982 -0.115209736 -0.029578326 0.057585474 -0.02924686
-0.005351777 -0.13355997 0.037324432 -0.042029586 0.022943856 -0.07433004 -0.062839836 0.034426376
0.017448597 0.026750468 0.02685428 -0.061302517 0.17306155 -0.08638441 0.06673734 -0.048027262
-0.1879637 0.044227522 0.005545864 0.04480602 -0.017575756 -0.18403937 0.029091254 0.12620671
0.02084316 -0.06049579 -0.12645206 -0.008352944 -0.019608457 -0.023547083 -0.12147481 -0.05131869
-0.048969425 0.030887626 0.21825936 0.030609464 0.069925964 -0.029854676 0.008869278 -0.096628115
0.045823786 0.005370794 0.16597815 -0.09568578 -0.047415953 0.06639835 -0.08732815 0.0012621222
0.014962924 -0.056880943 0.07942216 -0.119543254 -0.2274373 -0.016671326 -0.036056623 0.16869688
0.037498064 -0.087513044 -0.23480552 -0.0628296 0.03431108 0.065484844 0.07223988 0.014912273
-0.049090832 -0.15625265 0.11344994 -0.055438463 -0.038941603 -0.030770268 0.07706769 0.04152378
-0.12115122 0.025426848 -0.1392825 0.11282684 -0.070680745 -0.08956169 -0.04656058 0.028082484
0.07061117 -0.044537343 -0.17331474 0.094120026 -0.2043982 0.051386364 0.1590203 0.0032687348

network_body._body_endoder.seq_layers.2.bias f4 [128]
00000000: 0000 0000 0000 0000 0000 0000 0000 0000
00000010: 0000 0000 0000 0000 0000 0000 0000 0000
00000020: 0000 0000 0000 0000 0000 0000 0000 0000
00000030: 0000 0000 0000 0000 0000 0000 0000 0000
00000040: 0000 0000 0000 0000 0000 0000 0000 0000
00000050: 0000 0000 0000 0000 0000 0000 0000 0000
00000060: 0000 0000 0000 0000 0000 0000 0000 0000
00000070: 0000 0000 0000 0000 0000 0000 0000 0000
00000080: 0000 0000 0000 0000 0000 0000 0000 0000
00000090: 0000 0000 0000 0000 0000 0000 0000 0000
000000a0: 0000 0000 0000 0000 0000 0000 0000 0000
000000b0: 0000 0000 0000 0000 0000 0000 0000 0000
000000c0: 0000 0000 0000 0000 0000 0000 0000 0000
000000d0: 0000 0000 0000 0000 0000 0000 0000 0000
000000e0: 0000 0000 0000 0000 0000 0000 0000 0000
000000f0: 0000 0000 0000 0000 0000 0000 0000 0000
00000100: 0000 0000 0000 0000 0000 0000 0000 0000
00000110: 0000 0000 0000 0000 0000 0000 0000 0000
00000120: 0000 0000 0000 0000 0000 0000 0000 0000
00000130: 0000 0000 0000 0000 0000 0000 0000 0000
00000140: 0000 0000 0000 0000 0000 0000 0000 0000
00000150: 0000 0000 0000 0000 0000 0000 0000 0000
00000160: 0000 0000 0000 0000 0000 0000 0000 0000
00000170: 0000 0000 0000 0000 0000 0000 0000 0000
00000180: 0000 0000 0000 0000 0000 0000 0000 0000
00000190: 0000 0000 0000 0000 0000 0000 0000 0000
000001a0: 0000 0000 0000 0000 0000 0000 0000 0000
000001b0: 0000 0000 0000 0000 0000 0000 0000 0000
000001c0: 0000 0000 0000 0000 0000 0000 0000 0000
000001d0: 0000 0000 0000 0000 0000 0000 0000 0000
000001e0: 0000 0000 0000 0000 0000 0000 0000 0000
000001f0: 0000 0000 0000 0000 0000 0000 0000 0000
0.0 0.0 0.0 0.0 0.0 0.0 0.0 0.0
0.0 0.0 0.0 0.0 0.0 0.0 0.0 0.0
0.0 0.0 0.0 0.0 0.0 0.0 0.0 0.0
0.0 0.0 0.0 0.0 0.0 0.0 0.0 0.0
0.0 0.0 0.0 0.0 0.0 0.0 0.0 0.0
0.0 0.0 0.0 0.0 0.0 0.0 0.0 0.0
0.0 0.0 0.0 0.0 0.0 0.0 0.0 0.0
0.0 0.0 0.0 0.0 0.0 0.0 0.0 0.0
0.0 0.0 0.0 0.0 0.0 0.0 0.0 0.0
0.0 0.0 0.0 0.0 0.0 0.0 0.0 0.0
0.0 0.0 0.0 0.0 0.0 0.0 0.0 0.0
0.0 0.0 0.0 0.0 0.0 0.0 0.0 0.0
0.0 0.0 0.0 0.0 0.0 0.0 0.0 0.0
0.0 0.0 0.0 0.0 0.0 0.0 0.0 0.0
0.0 0.0 0.0 0.0 0.0 0.0 0.0 0.0
0.0 0.0 0.0 0.0 0.0 0.0 0.0 0.0

action_model._continuous_distribution.mu.weight f4 [1, 128]
00000000: ad02 7fbc cc9a 8b3c 5671 c6bc 3ba3 95bc
00000010: 85da d53c 578d 873c f580 22bc c7de 843c
00000020: 49ee 98bb 6077 303c e66c 9e3b aa2a eb37
00000030: 96e2 9ebc e6f9 bdbc 517b 2f3b 478a d23c
00000040: 1784 443c efd0 9d3c 8011 febc d8de 8b3c
00000050: d57f e2bb 34a2 a23c 7fb7 a03c cad7 c9ba
00000060: 78fb 9a3c 3b70 f5bc f35a 113b b7eb fe3c
00000070: 98eb f03b 4f8f da3b 959e a43c ca03 d8bb
00000080: 3f8f 553c 031b 0f3d 41e1 06bc e059 293c
00000090: 9bb7 a8bc 7713 4b3b 5b64 dbb9 76fd 27bc
000000a0: 17dd 29bc bbcc bdbc 67c7 823b b39d 83bc
000000b0: e07d 2abc c0ab 12bd 7c9d bdba 1b5f e6bb
000000c0: eb8e 0e3c 8fbc 883c 5f33 913c 8b38 5ebb
000000d0: 3883 7ebc b2f6 043b b54d 2fbc d712 c93a
000000e0: 19c7 36bc f76f d2bc a761 93bb ffce c53b
000000f0: fc9e b33c df6c 513c b8a5 4ebc 3fa5 ff3b
00000100: 337e b73c cfe7 223c f254 bdbc a691 aa3b
00000110: 62be 81bc 30f9 bf3c 731c a1bb f3e0 21bc
00000120: d77c 0d3d b1a7 453b 5f2e 2cbb 2b5b b23c
00000130: c307 f43c fa65 d33b 1f55 fa3b 4bc0 a4bb
00000140: caf9 7f3c 129d b339 c023 24bc 6cfb 433c
00000150: 80bf d1ba 65c2 1c3c 7b84 b63c e7d0 753c
00000160: 5ffe 6e3c e2dd 74bb c85c 95bc b7e8 e7bc
00000170: 3997 42bc 151f 5d3c 7a55 74bb b510 e73b
00000180: 1723 07bd 0f81 5b3c 2440 423c 087a 00bd
00000190: 9896 663c 257b f8bb 5e18 ccbc 16b5 95ba
000001a0: c5a7 abbb e612 9a3c 2821 f33b 5751 973c
000001b0: 9c25 873c ca87 03bd 024c 623c c5cf 6d3c
000001c0: 3595 b63b 77e6 333c 5f19 4839 2a90 93bc
000001d0: fdc8 2fbc ba00 9e3c 6f57 78bc 9bbb c5bc
000001e0: d264 2a3b 87c4 10bb 2329 833c 7b83 fe3a
000001f0: ad7d b6bb df40 55bc e22b 84bc 9b0b 5cbc
-0.015564603 0.017041586 -0.024223965 -0.01826631 0.026105175 0.016546888 -0.009918441 0.01621951
-0.0046670777 0.010770649 0.004834759 2.803405e-05 -0.019395154 -0.02319045 0.0026776383 0.025700701
0.011994383 0.019264666 -0.031014204 0.017074034 -0.0069122114 0.019852735 0.019618748 -0.0015399393
0.018918738 -0.029960742 0.0022179454 0.031118257 0.0073523037 0.0066699157 0.020095149 -0.0065922486
0.013034641 0.03493787 -0.008232416 0.010336369 -0.020595362 0.0030986944 -0.00041845706 -0.010253301
-0.010367653 -0.023168912 0.003991056 -0.016066408 -0.0104059875 -0.035808325 -0.001446649 -0.0070303804
0.0087010665 0.016691474 0.017724691 -0.0033908214 -0.015534215 0.0020288643 -0.010699679 0.0015340698
-0.011155867 -0.025688155 -0.004497725 0.0060366387 0.021926396 0.012782305 -0.012612753 0.0078016813
0.022399044 0.009942963 -0.023111794 0.005205351 -0.015837852 0.023434252 -0.0049167215 -0.009880292
0.034542885 0.0030159766 -0.0026272757 0.021771988 0.029788857 0.0064513655 0.0076395418 -0.005027806
0.015623519 0.00034258567 -0.010018289 0.011961799 -0.0016002506 0.009567832 0.022279968 0.0150034195
0.014587014 -0.0037363698 -0.018232718 -0.02830921 -0.011876875 0.01349618 -0.0037282393 0.007051552
-0.03299245 0.013397469 0.011856113 -0.031366378 0.01407399 -0.0075830393 -0.024913963 -0.0011421766
-0.0052385055 0.01880784 0.007419724 0.018471403 0.016497426 -0.03211192 0.013812067 0.014514868
0.005571986 0.01098024 0.00019082938 -0.018013079 -0.010729072 0.019287456 -0.015157565 -0.024137309
0.0026000035 -0.0022089796 0.016010826 0.0019417846 -0.005569181 -0.013015955 -0.016134206 -0.013430501

action_model._discrete_distribution.branches.0.weight f4 [1, 128]
00000000: 741b 01bc 5209 7bba 1a7e 56bb af9e be3c
00000010: c0fe 233b 0062 c9bb 4d59 b2bb b507 96bb
00000020: cf17 afba 3228 1abc 49cc 423c bb1e f3bb
00000030: 4eea 08bc bda8 7ebb d74b db3b 95c6 c4b9
00000040: 1a6c 5f3c 622e 963b f3ef 033c 0786 a93b
00000050: 7768 203c b521 6fbc 338e 8e3c 490b c6b9
00000060: caf1 cd3b ecc0 853c 1de7 d2b9 89ae 123c
00000070: ffc8 5b3c 22bd d8bb 2f19 5e3c e795 a4bb
00000080: 2075 f3ba 637b 32bc 1890 4cbb 7f3d 0abb
00000090: 8736 243b d3e2 6b3b bf11 41ba c6cd 013c
000000a0: 3939 9fba c870 d03a 6a75 a83b 6f1a b4bb
000000b0: 85cc 7b3b c6c7 b4bb 52be f7ba d0f9 22bc
000000c0: 2718 1f3c d7d5 e2bb fd18 093b 754e 63ba
000000d0: b76e 02bb 91b3 4abc 4df4 c93a 8321 94bc
000000e0: ba73 25bc 37c9 b63c 3d5a 14ba 966e cbbb
000000f0: 2be4 d43b e809 0ebb 6bde a6bb aee7 b73b
00000100: c3b5 bd3b 356f e33b d700 653b 0ba0 d23b
00000110: e083 1e3b 9231 f1ba dad0 283c 0f2d 83bc
00000120: 4537 aebb 18db 02b9 8ae8 2dbc d8cd 7938
00000130: b275 7f3a a4c2 b0bb 735f 473c c691 063c
00000140: 4437 1dbc 26bf 2a3c 8b78 bebb 1d75 a7ba
00000150: 877c f3bb 5f95 a6ba 1eb3 3d3c fa7e 51bc
00000160: 5bb8 c8bb 4268 593b 78d5 713a fd22 f1ba
00000170: 1b9f 183b 6a70 393b 2592 eebb 1dd4 fcb7
00000180: f2f4 eaba fa18 fa3a e254 64bb 8d3a 65bc
00000190: 3bba 083c 3581 07bc b30c b7ba 71d9 aa3b
000001a0: f6a7 9bbc 0046 51bc cf8c 97bb c732 4cba
000001b0: df67 abbc 2753 71bc 2b99 893b 1818 fdbb
000001c0: 17d9 1d39 c209 78bb 2117 3d3c 2a4e cd3b
000001d0: 5ca6 9f39 88f3 41bb 6b1a 3fbc 3385 6937
000001e0: 889b 4abc 54ce c0b9 bb1a d3ba 2d6a 81bc
000001f0: 7d45 053c af9c 7c38 3d67 3f3b 7bdf 86ba
-0.0078800805 -0.0009576279 -0.003272897 0.023269026 0.002502367 -0.0061457157 -0.0054427744 -0.0045785555
-0.0013358536 -0.009408997 0.011889526 -0.007419435 -0.008356644 -0.00388579 0.0066923904 -0.00037531988
0.013636613 0.004583166 0.008052814 0.005173448 0.009790531 -0.014595439 0.01740179 -0.0003777391
0.006284927 0.016327344 -0.00040226514 0.008952745 0.01341462 -0.0066143433 0.013555809 -0.0050227526
-0.0018574335 -0.0108936755 -0.0031213816 -0.0021093783 0.0025056915 0.0035993352 -0.000736501 0.007922595
-0.0012147791 0.0015902752 0.00514095 -0.005496315 0.0038421464 -0.005516979 -0.0018901324 -0.009947255
0.009710348 -0.0069224644 0.0020919435 -0.0008671054 -0.0019902417 -0.0123719135 0.001540789 -0.018082386
-0.010098392 0.022312744 -0.00056591985 -0.006208251 0.0064969263 -0.0021673385 -0.0050924323 0.005612335
0.00578949 0.006940747 0.0034943128 0.00642777 0.002418749 -0.0018401614 0.0103037 -0.016012697
-0.0053166472 -0.00012479385 -0.010614524 5.9557933e-05 0.0009745016 -0.0053942967 0.012168753 0.008213466
-0.009595696 0.01042155 -0.0058127097 -0.0012775991 -0.0074306163 -0.0012709311 0.011578349 -0.012786621
-0.0061254925 0.0033173715 0.000922523 -0.0018397268 0.0023288194 0.0028295764 -0.0072806054 -3.0139514e-05
-0.0017925783 0.001908093 -0.0034840633 -0.01399101 0.008345182 -0.008270551 -0.0013965577 0.0052139093
-0.019000988 -0.012773037 -0.00462494 -0.0007789549 -0.020923553 -0.014729298 0.0041991672 -0.0077238195
0.00015053559 -0.0037847613 0.011541159 0.0062654214 0.0003045079 -0.0029594619 -0.011664013 1.3918895e-05
-0.012366183 -0.0003677482 -0.0016105989 -0.015797699 0.008134243 6.0227405e-05 0.0029205822 -0.0010289991

network_body._body_endoder.seq_layers.0.weight f4 [128, 6]
00000000: 4b9d a33a 1db2 b53c b5fd 01bf 5bd7 09be
00000010: f0a3 62be 7d02 7fbd 4ac4 133f faba ab3e
00000020: 284f 51be 4490 bf3d 3236 df3c f0b9 07bb
00000030: fd76 14be fea7 0f3e 5482 e13e 8a31 acbe
00000040: 0380 453f 9f4a 0fbf 6fec b73e 94f8 84be
00000050: da5b 073e 26fe 54be 123f b23e d1e4 14bf
00000060: c175 7fbe 7a38 99be 69ae 80bf a9c1 493f
00000070: 1a25 963d e9c6 95bd a770 4abe 089a d43e
00000080: 551b 8bbe bc8b c3be 8d3b 41bd aa63 08bf
00000090: a025 633f 1f20 553f 035c dfbd f952 11bd
000000a0: 6964 4bbe 48b9 afbc 38f1 c8be 4bb2 473e
000000b0: fde3 00bf e96c 163d 56f1 9ebe 7954 92bd
000000c0: 9452 96be 93ae 913e 2728 243f 43a7 113f
000000d0: 72d0 223f 223a 55bf 4f98 163f a83c be3e
000000e0: 7dc8 063c 1577 48be ea7e 9bbd d217 7dbe
000000f0: fdb2 b7be 94ed 0ebf 4763 583e e3f0 493f
00000100: 0c22 c83e 7349 893e 911f b93e 2f1c 1bbf
00000110: 5dbd cd3e 6ffc ccbe bdf0 9d3e dd27 833d
00000120: 44ba 6abc 3957 89be 9e86 ce3e 9e6a 0c3e
00000130: ad84 e33e 66fd 933e 5897 2c3e 7545 a03d
00000140: e4bc ad3e 87f6 d5bd 680c a7be 818b 84be
00000150: 4e9c 28bf 7dfe 9ebf 778a debe 12dc 5bbc
00000160: 6fc9 5d3f 661d f5be ac9d 453e ddbe 883c
00000170: 84a8 033b 8cac 2cbf d207 853e 8df8 62be
00000180: f912 53be fedf 933e 7544 c43d 60ee 913e
00000190: 1180 403e eee7 c6be cf60 193e 45df 273e
000001a0: 32ce bfbe dd33 0f3e 16e9 e63d db4c 553f
000001b0: 8332 4f3e 9bb3 f8bd e48f 8cbe d704 3dbd
000001c0: 770d 18bf 3a43 163f 63d7 803e 110c 98be
000001d0: 8722 f4bd 5dae c23e 2b82 323f 84be 3ebf
000001e0: 1235 223e 984c 42be 8d08 603e 29e5 e93e
000001f0: 1730 c53d 3894 20bf 3a0a babc b860 ddbe
00000200: 6340 e5be 5b25 47bf 451a d83e e00f 0b3e
00000210: cc40 1fbf 2125 90bd 9ce7 8a3f 4515 dcbe
00000220: 406d b23e 9c9c 123e 8712 85be dafe 3a3e
00000230: 1f87 83be 6938 233f 6173 263d a1b0 21bf
00000240: 7f71 20be eaf7 f63d 14fc 753e 8d75 a1be
00000250: 430d 313d 7305 d83d 0401 b73e 78df c8bd
00000260: 3c56 bebe dd6a 88bd 189d 3cbe 60c5 1f3f
00000270: c53e e8be 2c2f 36bf aeda 913e 9fbc 913e
00000280: 4164 96be 987f 873e febb d4bd 9782 c33e
00000290: 0aa9 1b3d d4e2 9bbe 1ff8 283f a6c1 a23e
000002a0: 7ca5 aabe 80c1 f83e b4e3 51be 1437 6fbd
000002b0: ac74 943e 08e2 713e 863d 883e acdb a1be
000002c0: 8976 7fbd e8c9 68bf 2e71 843e 6c8c a93d
000002d0: 206a 05bf 223d 523d ed17 8bbe d739 71bd
000002e0: bbfa cdbe f08f 0e3f 056f c43d f12b 113e
000002f0: 98a2 73be 5380 c33e a7b5 20be 93e7 dabe
00000300: 4c3b a2be a4d0 a0be 1671 c53c 0770 73be
00000310: f4f9 eabe bd07 20be ab42 82be 3a32 3b3f
00000320: 27d6 c53c 931c 823e 340e bbbf 3624 40bd
00000330: b77d e03e 1b59 8e3e 67fb 1a3f 2f68 4c3e
00000340: 3029 babd 9131 95be f5b1 45be 66f1 3abf
00000350: 778a 85bd bf29 82be 85c9 793e 3468 a83e
00000360: eab2 31bf e6c9 b8be 4792 99be 124a f53d
00000370: 1b9e fd3e d8d7 1f3e d718 62bd 7d62 933d
00000380: 14d4 b63c 9093 28be 5d7b d43e 6054 09bf
00000390: ad38 473d 1fa6 a0bd abe5 65bf 58e4 1c3e
000003a0: 65df e0be 5790 723e e2fb 72bf 6e79 c83e
000003b0: cfdc bc3d 6577 78be de2a 283c 9032 dc3e
000003c0: 9cac 91be 6d37 ba3e dd07 383e 8b36 02bd
000003d0: cb6d 09be cd9e 85be b925 b73d e4cc 4f3f
000003e0: 68aa 213f f9cb e33d dbb2 46bf 70ae aebe
000003f0: 501f 67bf 2df3 833e 6bc1 f5bc fdbf 993d
0.001248279 0.022179658 -0.5077775 -0.13461058 -0.2213285 -0.062258232 0.5772139 0.3354109
-0.20440352 0.09353688 0.027247522 -0.0020710193 -0.14498515 0.14028928 0.44044745 -0.33631545
0.77148455 -0.5597324 0.35922572 -0.259709 0.13218632 -0.20800075 0.34813744 -0.58161646
-0.24947263 -0.299259 -1.0053226 0.78811127 0.07331295 -0.0731333 -0.19769536 0.41523767
-0.2716929 -0.38192546 -0.047175933 -0.53277075 0.88729286 0.8325214 -0.10906222 -0.03547952
-0.19862522 -0.021450654 -0.39246535 0.19501607 -0.5034788 0.03672496 -0.310435 -0.07145018
-0.29359877 0.28453502 0.6412377 0.56895846 0.6359931 -0.8329183 0.58826154 0.37155652
0.008226511 -0.19576676 -0.07592566 -0.24716118 -0.35878745 -0.55831265 0.21131621 0.7888319
0.39088476 0.2681385 0.36156896 -0.6058988 0.40183535 -0.40036342 0.3084773 0.06404088
-0.014326636 -0.26824358 0.4033708 0.13712546 0.4443716 0.28904265 0.16854608 0.07825748
0.33933175 -0.10447412 -0.32626653 -0.25887683 -0.658635 -1.2421414 -0.43465015 -0.013419168
0.8663549 -0.47873992 0.19298428 0.016692573 0.0020089457 -0.67450786 0.2598253 -0.22165127
-0.20612706 0.2888183 0.0958337 0.28502178 0.18798853 -0.38848823 0.14978336 0.16393764
-0.37462002 0.13984628 0.11274926 0.833204 0.20234112 -0.12143632 -0.2745353 -0.046147194
-0.59395546 0.5869633 0.25164327 -0.29696706 -0.11920648 0.38023654 0.6972987 -0.74509454
0.15840557 -0.1897453 0.21878262 0.45682648 0.09628313 -0.62726164 -0.022709955 -0.43237853
-0.44775686 -0.77791375 0.42207542 0.13580275 -0.6220825 -0.07038332 1.0851932 -0.42984977
0.34848976 0.14317554 -0.25990698 0.1826128 -0.25689027 0.6375795 0.040637378 -0.6316014
-0.15668295 0.120590046 0.24021941 -0.31534997 0.043225538 0.10547914 0.35742962 -0.09808248
-0.37175167 -0.066610076 -0.18419302 0.62410545 -0.4536039 -0.7116573 0.28487152 0.2846422
-0.29373363 0.26464534 -0.10387419 0.3818557 0.038003005 -0.30446494 0.660036 0.31788367
-0.3332938 0.4858513 -0.20497018 -0.058402136 0.28995264 0.2362138 0.2660944 -0.3161291
-0.062368903 -0.90933084 0.258676 0.082787365 -0.5211506 0.051327832 -0.2716669 -0.05889305
-0.40230355 0.5568838 0.09591488 0.14176919 -0.23792493 0.3818384 -0.15694295 -0.42754802
-0.31685865 -0.3140918 0.024101775 -0.23773204 -0.45893824 -0.15627952 -0.2544149 0.73123515
0.024149967 0.25412425 -1.461371 -0.046909533 0.43845913 0.27802357 0.6053986 0.19961618
-0.09089887 -0.2913938 -0.19306166 -0.73024595 -0.06520551 -0.25422475 0.2439328 0.32892
-0.69413626 -0.36091536 -0.29994413 0.119770184 0.49534687 0.15609682 -0.05519947 0.071965195
0.022317924 -0.1646254 0.4150037 -0.5364437 0.048638035 -0.07844185 -0.8980357 0.15321481
-0.43920437 0.23687874 -0.9491559 0.39155143 0.092218034 -0.24264295 0.010264127 0.43007326
-0.28452003 0.36370412 0.1797175 -0.031790297 -0.13420789 -0.26097718 0.08942742 0.81172013
0.63150644 0.11122889 -0.7761666 -0.3411746 -0.90282154 0.25771466 -0.029999455 0.07507322

network_body._body_endoder.seq_layers.0.bias f4 [128]
00000000: 0000 0000 0000 0000 0000 0000 0000 0000
00000010: 0000 0000 0000 0000 0000 0000 0000 0000
00000020: 0000 0000 0000 0000 0000 0000 0000 0000
00000030: 0000 0000 0000 0000 0000 0000 0000 0000
00000040: 0000 0000 0000 0000 0000 0000 0000 0000
00000050: 0000 0000 0000 0000 0000 0000 0000 0000
00000060: 0000 0000 0000 0000 0000 0000 0000 0000
00000070: 0000 0000 0000 0000 0000 0000 0000 0000
00000080: 0000 0000 0000 0000 0000 0000 0000 0000
00000090: 0000 0000 0000 0000 0000 0000 0000 0000
000000a0: 0000 0000 0000 0000 0000 0000 0000 0000
000000b0: 0000 0000 0000 0000 0000 0000 0000 0000
000000c0: 0000 0000 0000 0000 0000 0000 0000 0000
000000d0: 0000 0000 0000 0000 0000 0000 0000 0000
000000e0: 0000 0000 0000 0000 0000 0000 0000 0000
000000f0: 0000 0000 0000 0000 0000 0000 0000 0000
00000100: 0000 0000 0000 0000 0000 0000 0000 0000
00000110: 0000 0000 0000 0000 0000 0000 0000 0000
00000120: 0000 0000 0000 0000 0000 0000 0000 0000
00000130: 0000 0000 0000 0000 0000 0000 0000 0000
00000140: 0000 0000 0000 0000 0000 0000 0000 0000
00000150: 0000 0000 0000 0000 0000 0000 0000 0000
00000160: 0000 0000 0000 0000 0000 0000 0000 0000
00000170: 0000 0000 0000 0000 0000 0000 0000 0000
00000180: 0000 0000 0000 0000 0000 0000 0000 0000
00000190: 0000 0000 0000 0000 0000 0000 0000 0000
000001a0: 0000 0000 0000 0000 0000 0000 0000 0000
000001b0: 0000 0000 0000 0000 0000 0000 0000 0000
000001c0: 0000 0000 0000 0000 0000 0000 0000 0000
000001d0: 0000 0000 0000 0000 0000 0000 0000 0000
000001e0: 0000 0000 0000 0000 0000 0000 0000 0000
000001f0: 0000 0000 0000 0000 0000 0000 0000 0000
0.0 0.0 0.0 0.0 0.0 0.0 0.0 0.0
0.0 0.0 0.0 0.0 0.0 0.0 0.0 0.0
0.0 0.0 0.0 0.0 0.0 0.0 0.0 0.0
0.0 0.0 0.0 0.0 0.0 0.0 0.0 0.0
0.0 0.0 0.0 0.0 0.0 0.0 0.0 0.0
0.0 0.0 0.0 0.0 0.0 0.0 0.0 0.0
0.0 0.0 0.0 0.0 0.0 0.0 0.0 0.0
0.0 0.0 0.0 0.0 0.0 0.0 0.0 0.0
0.0 0.0 0.0 0.0 0.0 0.0 0.0 0.0
0.0 0.0 0.0 0.0 0.0 0.0 0.0 0.0
0.0 0.0 0.0 0.0 0.0 0.0 0.0 0.0
0.0 0.0 0.0 0.0 0.0 0.0 0.0 0.0
0.0 0.0 0.0 0.0 0.0 0.0 0.0 0.0
0.0 0.0 0.0 0.0 0.0 0.0 0.0 0.0
0.0 0.0 0.0 0.0 0.0 0.0 0.0 0.0
0.0 0.0 0.0 0.0 0.0 0.0 0.0 0.0

network_body._body_endoder.seq_layers.2.weight f4 [128, 128]
00000000: a8a2 e4bc 6123 84bd 95a7 a13d 5e0e a43d
00000010: 954e 423d fb7b 91bd a07b 7abd 89c0 e83d
00000020: 93f2 f13c 1dc9 903d be0f 1fbc 7a54 583d
00000030: 698d efbd 3bb8 74bd 3bed 2c3e 3c6b 68bc
00000040: 4065 63bd d3ab 443c ccdc 87bc f5b6 0cba
00000050: f8ad dc3d 9f16 76bc e698 103c 40d8 ec3d
00000060: facc 75bd 7cc3 e2bc eff1 99bd 03f1 463d
00000070: 0514 363d 1b03 f6bd 6cfa 8e3d 38a3 ee3d
00000080: 7232 533d 867d 92bd 35bf 273d 07b3 d73d
00000090: 6bf0 0e3e cf99 79bd 1572 f33c 43af 263e
000000a0: f4de d6bd a1e6 02be 7bec d1bd 4b43 8f3d
000000b0: 1eee cc3d 4b10 c3bd 05cb bb3b 1428 ba3d
000000c0: 03f6 7f3c f177 0ebe aa3e 083d 946d 0abe
000000d0: d822 0b3d d98e 7c3d 2f89 1bbd dd16 7dbe
000000e0: 1a93 87bd b9de 0b3e 2698 9cbd 63c2 a4bd
000000f0: 66fe 35be 6a0d bc3d 3fc3 06bd 40c0 06bd
00000100: d264 c3bd 66a7 b8bc 6807 a13d 6abc c73c
00000110: c710 1bbd 4601 b33d 9533 d9bd 53b8 8e3c
00000120: c438 c7bd 2452 133d c612 583d 2731 c43d
00000130: 1dc9 9a3d 37c2 24be a185 7c3c 9cf7 ef3d
00000140: d18e 2abd 9cf2 633d 6ac8 d93d c704 833c
00000150: 188e 8f3d 4f7a c13c e4a2 643e 229e 813d
00000160: e463 c73d c204 89bd a39f a7bc 4387 babd
00000170: 90b2 983d 624a 313e 46c1 8ebc aaa9 51bc
00000180: a380 333b a7ec 7cbd c9f2 4abc 45cb 803d
00000190: de2e 863d da52 cbbb 2e0c 883d f2cf 033d
000001a0: c36f 8a3d d845 92bd 7243 24bd 83c4 ba3d
000001b0: a7ea 233d ec4b 03bd 421a 0bbe 1827 f2bd
000001c0: 0155 603e a32c 67bd 4348 94bd 496f 403c
000001d0: 0217 883e 188f 9ebd be73 6c3d a34b 90bd
000001e0: 9a61 113c e940 473b bd38 0dbe ebac 94bd
000001f0: ce7a da3d ad2f 0f3e 6284 a03d afcb 583c
00000200: fd50 91bd 5336 0ebd 2f6e c53d 431e 9ebc
00000210: 2d7c 7f3b 07d5 99bd 1d98 b33c 8d2f 28be
00000220: b4af 6f3d 32b6 13be fb41 3339 e12b cabc
00000230: 7c09 6c3c b429 cbbd 7b12 e23c 504c 953d
00000240: 88f6 acbd de85 8ebb ceac 48bd 7de6 253d
00000250: edd6 443d 9608 de3c 2192 763d 3b5d 093d
00000260: 83ed 4d3e 35fb 183d c7dd e33b 88d7 b83d
00000270: 02ce a63d 3cf1 60bc a047 bc3d e2bb 6bbc
00000280: d14c 79bc bf6a 023d f796 c53d fb42 a33d
00000290: feb2 9ebc e194 c63d 68be fe3d 96bd 583e
000002a0: d79b 84bd a98a 753d 86b6 6b3b f54e 2c3e
000002b0: 0258 3abe 75d1 c63d f396 fdbd d8ce 2dbd
000002c0: 7467 66bd a516 603a 4113 2f3d 94f4 bbbd
000002d0: e569 df3c 7d42 023e 575c 033e 27f2 0dbe
000002e0: b73a 7a3d fa8c 0d3e 2cf6 8f3c ce2f 6abd
000002f0: 782e c0bd 1af4 3b3c 2473 0d3d fe4e e5bd
00000300: 1e94 f43d d635 1bbe 69e8 913d d870 05bd
00000310: 496a 863d c070 e1bd 2a95 b0bd 4fd3 2d3b
00000320: dfcb dbbd 8c0e 9a3c ac30 013d 800f 4b3d
00000330: 2636 a7bd 9918 48bd 2223 b83d 5853 273d
00000340: 223f 36bc a5c9 683e 02ef 8a3d 1fa9 0e3d
00000350: 28e5 8e3c e8ac 91bd 67ea 993b eedf 95bb
00000360: e8c6 b8bd 746f 0bbc 22b3 083a a4c0 e7bc
00000370: 2123 9c3d 2123 ab3d 935c 183d 747b 89bc
00000380: a4bd 723c c5b3 a23d 9790 3ebd f565 b03b
00000390: f998 49be ddef 3b3d fcd3 863c 5503 7dbc
000003a0: e3d7 68bd 5f57 06be 085b 883c 1e85 843d
000003b0: 3e84 4d3d 5608 ca3b 79eb 9abd 5d67 5abc
000003c0: ef99 b9bd 93ca 26be 52e0 b73c e85a 21bb
000003d0: 6a9e 1f3e 8fc4 8d3d 89a9 293d c461 26be
000003e0: ee6d f7bd c09f 0fbd 6348 3e3e 9144 b3bc
000003f0: 3afd f73c 50f5 1fbe c4fb fbbc a4ee 8e3d
-0.027909592 -0.064520605 0.07893292 0.08010553 0.047438223 -0.071037255 -0.061153054 0.11364848
0.029534614 0.07069609 -0.009708343 0.052814938 -0.11696894 -0.05974601 0.16887371 -0.014185723
-0.05551648 0.012003857 -0.016584776 -0.0005367839 0.107753694 -0.015020042 0.008825516 0.11564684
-0.060009934 -0.027681105 -0.07516848 0.04856969 0.044452686 -0.12012311 0.06981358 0.11652225
0.05156178 -0.07152848 0.040953834 0.10532194 0.139589 -0.0609377 0.029717484 0.16277795
-0.10491744 -0.1278329 -0.10250183 0.06995257 0.10006355 -0.09524592 0.005730989 0.090896755
0.015622619 -0.13912942 0.033262886 -0.13518363 0.033968776 0.061659668 -0.037972625 -0.24715753
-0.06619854 0.1365918 -0.076462075 -0.08044889 -0.17772827 0.09182246 -0.032901045 -0.032898188
-0.09540714 -0.02254076 0.07862741 0.024381835 -0.037857797 0.08740477 -0.106055416 0.017421877
-0.09727624 0.035967007 0.05275228 0.095796876 0.075578906 -0.16089712 0.015412719 0.117171496
-0.041640107 0.055651292 0.10633929 0.015993489 0.07009524 0.023617892 0.22327763 0.063289896
0.097358495 -0.066903606 -0.020461863 -0.091078304 0.07455933 0.17313531 -0.017426144 -0.012796799
0.0027389906 -0.061749127 -0.012386986 0.062887706 0.06551908 -0.006204945 0.06642948 0.032180734
0.06759598 -0.07142228 -0.040103383 0.09119513 0.040018704 -0.032054827 -0.13584235 -0.11823863
0.21907426 -0.056439053 -0.07240345 0.011745282 0.26580054 -0.07742137 0.057727568 -0.070456766
0.008873368 0.003040368 -0.13791175 -0.07259544 0.106679544 0.1398303 0.0783775 0.013232156
-0.070955254 -0.034719776 0.096401565 -0.01930154 0.0038983927 -0.07511335 0.02192312 -0.16424389
0.058517173 -0.14424971 0.0001709535 -0.024679126 0.014406558 -0.099200636 0.027596703 0.07289946
-0.084454596 -0.0043494543 -0.048992924 0.040503014 0.04805653 0.027103703 0.060197953 0.033536177
0.20110135 0.037348945 0.006953928 0.09025484 0.081447616 -0.01372939 0.09193349 -0.0143880565
-0.015216068 0.031840082 0.09647935 0.0797176 -0.01937246 0.09696365 0.12438661 0.21166071
-0.064750366 0.05994669 0.0035966947 0.16826995 -0.18197635 0.097079195 -0.12382307 -0.04243359
-0.056251004 0.0008548296 0.04274297 -0.09177509 0.027272174 0.12720676 0.12828194 -0.13861905
0.06109115 0.1382331 0.017573439 -0.057174496 -0.09383863 0.011471773 0.034533635 -0.11196707
0.119423136 -0.15157256 0.07124407 -0.03257832 0.06563241 -0.110078335 -0.08622201 0.0026523655
-0.10732245 0.018805765 0.031540558 0.04957533 -0.08164625 -0.048851583 0.08991076 0.040850967
-0.0111234505 0.22733171 0.06783868 0.034829255 0.017443255 -0.071130574 0.0046971324 -0.0045738136
-0.09022313 -0.008510459 0.0005214681 -0.0282901 0.07623888 0.0835631 0.03719766 -0.0167825
0.014815722 0.079444446 -0.04652461 0.005383248 -0.1968726 0.04588305 0.016458504 -0.015442689
-0.05684651 -0.13119267 0.01664497 0.064707026 0.050174944 0.0061655445 -0.07564444 -0.013330308
-0.09062564 -0.16288213 0.022445831 -0.0024620835 0.15587774 0.06922256 0.041421447 -0.16248232
-0.12081514 -0.03506446 0.18582301 -0.021883281 0.030272115 -0.15620923 -0.0307597 0.06979111

network_body._body_endoder.seq_layers.2.bias f4 [128]
00000000: 0000 0000 0000 0000 0000 0000 0000 0000
00000010: 0000 0000 0000 0000 0000 0000 0000 0000
00000020: 0000 0000 0000 0000 0000 0000 0000 0000
00000030: 0000 0000 0000 0000 0000 0000 0000 0000
00000040: 0000 0000 0000 0000 0000 0000 0000 0000
00000050: 0000 0000 0000 0000 0000 0000 0000 0000
00000060: 0000 0000 0000 0000 0000 0000 0000 0000
00000070: 0000 0000 0000 0000 0000 0000 0000 0000
00000080: 0000 0000 0000 0000 0000 0000 0000 0000
00000090: 0000 0000 0000 0000 0000 0000 0000 0000
000000a0: 0000 0000 0000 0000 0000 0000 0000 0000
000000b0: 0000 0000 0000 0000 0000 0000 0000 0000
000000c0: 0000 0000 0000 0000 0000 0000 0000 0000
000000d0: 0000 0000 0000 0000 0000 0000 0000 0000
000000e0: 0000 0000 0000 0000 0000 0000 0000 0000
000000f0: 0000 0000 0000 0000 0000 0000 0000 0000
00000100: 0000 0000 0000 0000 0000 0000 0000 0000
00000110: 0000 0000 0000 0000 0000 0000 0000 0000
00000120: 0000 0000 0000 0000 0000 0000 0000 0000
00000130: 0000 0000 0000 0000 0000 0000 0000 0000
00000140: 0000 0000 0000 0000 0000 0000 0000 0000
00000150: 0000 0000 0000 0000 0000 0000 0000 0000
00000160: 0000 0000 0000 0000 0000 0000 0000 0000
00000170: 0000 0000 0000 0000 0000 0000 0000 0000
00000180: 0000 0000 0000 0000 0000 0000 0000 0000
00000190: 0000 0000 0000 0000 0000 0000 0000 0000
000001a0: 0000 0000 0000 0000 0000 0000 0000 0000
000001b0: 0000 0000 0000 0000 0000 0000 0000 0000
000001c0: 0000 0000 0000 0000 0000 0000 0000 0000
000001d0: 0000 0000 0000 0000 0000 0000 0000 0000
000001e0: 0000 0000 0000 0000 0000 0000 0000 0000
000001f0: 0000 0000 0000 0000 0000 0000 0000 0000
0.0 0.0 0.0 0.0 0.0 0.0 0.0 0.0
0.0 0.0 0.0 0.0 0.0 0.0 0.0 0.0
0.0 0.0 0.0 0.0 0.0 0.0 0.0 0.0
0.0 0.0 0.0 0.0 0.0 0.0 0.0 0.0
0.0 0.0 0.0 0.0 0.0 0.0 0.0 0.0
0.0 0.0 0.0 0.0 0.0 0.0 0.0 0.0
0.0 0.0 0.0 0.0 0.0 0.0 0.0 0.0
0.0 0.0 0.0 0.0 0.0 0.0 0.0 0.0
0.0 0.0 0.0 0.0 0.0 0.0 0.0 0.0
0.0 0.0 0.0 0.0 0.0 0.0 0.0 0.0
0.0 0.0 0.0 0.0 0.0 0.0 0.0 0.0
0.0 0.0 0.0 0.0 0.0 0.0 0.0 0.0
0.0 0.0 0.0 0.0 0.0 0.0 0.0 0.0
0.0 0.0 0.0 0.0 0.0 0.0 0.0 0.0
0.0 0.0 0.0 0.0 0.0 0.0 0.0 0.0
0.0 0.0 0.0 0.0 0.0 0.0 0.0 0.0

value_heads.value_heads.extrinsic.weight f4 [1, 128]
00000000: 4a69 a8bd 508f e4bd 6dca b3bd 1955 f1bd
00000010: 13b9 80bc 44ef 43bd 2762 4c3e 5768 203d
00000020: 9a54 f7bd 807e b0bd e37b 873d cb74 1dbe
00000030: be88 473e d829 c0bd 24eb 2cbe 86e4 11be
00000040: f25b 4fbd 366e 293e e526 18be b3d1 4fbe
00000050: da32 b6bd 2231 68bd 78a8 2bbe ef2a f53d
00000060: 20a7 38bd 3264 f53c ed39 80bd 848f 0bbe
00000070: 2d33 e13c d1c3 eabd 07e8 a23d 90fd 39bc
00000080: 7603 333e 4895 2cbe 5cf2 e6bd 203e 8abd
00000090: 00a2 d6bd c709 4cbd 0560 e93d 6d49 863d
000000a0: 712b febd f25e 35be 14ee 613d e858 ecbd
000000b0: 652b 253e 9156 ea3d 8065 4a3e 4367 4dbe
000000c0: 2487 173e a6bb 963d f674 e4bd 8d60 213e
000000d0: 35e9 9abd a9fc f73c 46cc 53bd 18be 6b3d
000000e0: 5453 57be da26 243e 7027 b03d 730a cbbd
000000f0: bae2 1ebe 4913 bbbd 9feb c43d c23c 513e
00000100: fcd0 96bb 2f88 f23d 07e9 25be ec60 003d
00000110: e1bb 30be ec86 a8bd 3e2a 6e3d 16cd 27bd
00000120: ec41 f8bd 771d b53d 3a40 433e beea b73d
00000130: 23e3 703d b6fa 5b3e b61f 013e 915e 383d
00000140: 4bfa 453d 27a1 21be 7e85 ce3d e478 05be
00000150: ce18 d73d 9b16 e7bd 6f47 2bbe 2399 0b3e
00000160: 74eb 2dbd dd7b 28be 5dcf 4cbe 0466 ec3c
00000170: fd81 3ebd 40e9 dfbd 9dff 983d 8a91 4cbe
00000180: d572 273e d264 2c3e 7ceb 023e 5c07 22be
00000190: 3c6f 063e 8b35 81bd b213 753d 6c79 e53d
000001a0: 3aa8 4cbd bc6e 82bd 46fc a6bd 34d7 c63d
000001b0: 7bd2 54bd 8aeb 38be 2997 06bd f02c 1a3e
000001c0: 5e80 223e a99d 433e 8587 2dbd 4483 14be
000001d0: 75ee 4abe 735e fbbc 6f6a a73d 09a7 e4bd
000001e0: c8e7 b33d 2d43 b83d 271d bb3d e538 52be
000001f0: a42a 83bc 2e2f 1f3e db78 973d 09da 823d
-0.08223207 -0.11160147 -0.08778844 -0.11783809 -0.01571325 -0.047835603 0.19959317 0.039162006
-0.12076683 -0.08617878 0.066154264 -0.15376584 0.19485757 -0.09382981 -0.16886574 -0.14247331
-0.050624795 0.16545948 -0.14858587 -0.20294838 -0.08896418 -0.05668748 -0.16763484 0.119710796
-0.045081258 0.029955003 -0.062610485 -0.13628966 0.027490223 -0.1146313 0.07954412 -0.011351958
0.17481789 -0.16853821 -0.11276695 -0.06750131 -0.10480118 -0.049814012 0.113952674 0.065569736
-0.124106295 -0.17712 0.05515869 -0.11540395 0.16129835 0.114422925 0.19765282 -0.20058922
0.14797646 0.0736001 -0.11155121 0.15759487 -0.07564012 0.030271845 -0.051708482 0.057554334
-0.21027881 0.16030446 0.08601272 -0.099141024 -0.15516177 -0.09134538 0.09615254 0.20433334
-0.0046025496 0.11842381 -0.16202174 0.031342432 -0.1725917 -0.08228859 0.058145754 -0.04096707
-0.121219486 0.088435106 0.19067469 0.089803204 0.058810364 0.21482357 0.12609753 0.04501206
0.0483344 -0.15784131 0.10084055 -0.13034397 0.10502778 -0.112836085 -0.16726469 0.13632636
-0.042460874 -0.164535 -0.20000978 0.028857239 -0.046510685 -0.10933161 0.07470629 -0.19977394
0.16352399 0.16835335 0.12785143 -0.1582312 0.1312837 -0.06309041 0.059833236 0.112048
-0.04996512 -0.06368777 -0.08153586 0.097090155 -0.051958542 -0.18058601 -0.032859 0.15056205
0.1586928 0.19103111 -0.04236557 -0.14503199 -0.19817527 -0.030684685 0.081745975 -0.11164672
0.08784443 0.08997188 0.0913642 -0.20529516 -0.016011544 0.15545341 0.07396098 0.06389243
