results/SliderBehavior/SliderBehavior/checkpoint.pt (torch, 444770 bytes, 33 tensors)

network_body._body_endoder.seq_layers.0.weight f4 [128, 6]
00000000: 676e c53d ca9c 58bf 1c02 e73e 6a95 1abf
00000010: bba1 873e 73e0 b43e 685b efbe f1d2 9fbd
00000020: d8cf afbe 94a8 38bf 2f98 ac3d 62ee 093e
00000030: c314 6bbe 049b 943e c811 a5be 1f37 193d
00000040: b785 f9bc de51 b53d ab43 77be a5e3 253e
00000050: 61ef 8f3e 086c ecbe edbe 0c3f 8734 ee3e
00000060: ad15 41bf 9bbe f5be bc7d 10be d058 58bf
00000070: ef1a d8bd 69ae acbc 162f 28bd e610 403e
00000080: 4f39 30bc 8dbf a8bf b5da edbe d2c2 ff3e
00000090: 9f67 ddbe ff4a cd3d 49d9 c23d 623f 243f
000000a0: 1d71 ce3e 66e9 103d 5d8c bd3d 8ad6 923e
000000b0: 6acc 35bf 2d7a 5b3f 9747 57be 7702 29be
000000c0: a5c5 5cbf 7398 48bf 886f 973d 2e59 673c
000000d0: c2a4 f43e 6eaa 073e ba81 0b3e 4a00 0d3f
000000e0: d1ec 623e 9749 06bf 3cc7 31bf a44c 4e3d
000000f0: 4329 013f c073 9fbe 6c56 69be 6267 8f3d
00000100: e46e afbe 7156 21be 3e8b 68be 24b1 fb3e
00000110: b400 8b3e 6537 073f 4d9d 8cbe ea64 3cbf
00000120: 2f77 21be a590 96be a24f bdbe a76b 65bf
00000130: 6365 72bb 2d5e dabe 813d c3bc 364d 39be
00000140: db89 15bf cdec cdbe f7f8 513e 5611 753f
00000150: 0a83 79be 4b6a a9be 86e1 843e 935d eabe
00000160: b049 22be c276 9cbe 9ce9 5ebd 256a d8bd
00000170: 86ab aebe da94 8cbe 6422 57be a650 1cbe
00000180: f9cc a7be 1906 f83d 4ac8 05be 345d 33bf
00000190: dbb8 98be 7a1f 633e 33b4 7d3d 12e1 9fbd
000001a0: 7de9 d6be 6832 12bf 2992 893e 0573 ec3d
000001b0: f99e 0b3f 89e0 e23e 42a8 333c dd86 e03e
000001c0: 93e2 923e ef53 a03b 40e2 d3be 568d 5b3e
000001d0: ce3d ef3e b855 0dbe a10f 153e 7280 583d
000001e0: b7c8 04bf 7bc3 b2bc f90a 063f 8843 15bf
000001f0: fc97 e13e c93a c83e ccd1 e4bc 6886 cabe
00000200: 4999 a1be e293 093f fcfb 563d 9323 11bf
00000210: d9f0 c6be 39dd b0bd d37b a5be 244a b7bd
00000220: 8b84 cebe 3aed 053f 57bd 953d c415 983d
00000230: 61b2 70be cb0f c43d 9fb4 163e 535d 623f
00000240: d130 313f 5ef5 693e fce9 913e f1e3 0d3e
00000250: 025b 35be 54b7 333f 197e 803e a7b7 cbbe
00000260: 1254 be3e fa61 96be 4d82 64be 0781 a33e
00000270: c3da e83e 77bb 99be 3ae8 a73e 148e 24be
00000280: 5411 e93e b9bc f0bd ef3b 8cbe b068 72be
00000290: a6c0 77bc 5e8e 86be e5a7 ffbe 496f 843e
000002a0: b932 1f3d 99fe 8cbd af4d c9be f0ed 233f
000002b0: 30e7 14bf 1d2e 193e 72bd 8dbf 2f12 3e3e
000002c0: f4ba d93e fe57 ecbe 1da7 00bf c2be 86bd
000002d0: 6b5b b8be 091c 5a3e 8ef3 bb3e b650 5b3f
000002e0: c7fb 2d3f 282b 1e3d 3760 33bf ca86 853e
000002f0: 969a 4d3f 7581 39bf ead7 2fbf 57e1 0dbf
00000300: f88f 183e 616e 8f3e dae9 84bf 027c ce3e
00000310: 1264 673e 41f8 5bbe 488d 29be bb51 3f3e
00000320: 9b79 2fbe 3d36 153e 8bb8 e23e cfc2 bfbc
00000330: fc6a bdbe 6ec9 83bc 89b0 19be 7665 163f
00000340: 5e1f ef3e 12ab c33d e246 f13e 5c18 d3be
00000350: 28df cbbe 3449 ad3e 9411 42bf e020 a23e
00000360: b12a 01be b6fa 203e 41dc 39be a6b0 86bf
00000370: 9688 26bf 81d4 cabc 72ec d33e 7797 ee3e
00000380: 7765 493f 4c5b 5d3e b976 1abf 57ef d93e
00000390: 98f4 82be 85cd 7abe 2db4 57be 549e b63c
000003a0: 44a6 5bbf 4070 d93e 6d1c 1cbf 5e77 753e
000003b0: 626e a53d 28da 513e c36a 00bf a8d3 b83e
000003c0: 04e1 5ebf 1925 63bf 7ff0 f23e a8e7 a9be
000003d0: 4d86 c8be a04f 883e 43e8 c5bd cb3b 433e
000003e0: 83c8 113d a89a 67bf 4ad0 06bf d021 a03e
000003f0: 5037 8f3e c983 6c3e c5bf db3e ba80 a83e
0.09640198 -0.8461424 0.45118797 -0.6038424 0.26490578 0.3532749 -0.46749425 -0.07803906
-0.3433826 -0.7213223 0.08427464 0.13469842 -0.22957139 0.29024518 -0.3224013 0.037406083
-0.030459268 0.088535056 -0.24146907 0.16200121 0.2811232 -0.4617617 0.5497883 0.4652445
-0.754237 -0.47996983 -0.14110464 -0.8451052 -0.10552012 -0.021079259 -0.04106053 0.18756446
-0.010755851 -1.3183457 -0.46455923 0.49953324 -0.4324312 0.1002407 0.095141 0.64159214
0.40320674 0.035378836 0.09255288 0.28679305 -0.71015036 0.857333 -0.21023403 -0.16504847
-0.8623908 -0.7835762 0.0739432 0.014120383 0.4778195 0.13248608 0.13623706 0.55078566
0.22160651 -0.5245604 -0.6944463 0.05036606 0.50453585 -0.31142998 -0.22786874 0.070021406
-0.3426429 -0.15755631 -0.22709367 0.49158585 0.27148974 0.528189 -0.2746376 -0.7359148
-0.15768121 -0.2940723 -0.36974818 -0.8961739 -0.00369867 -0.42649975 -0.023833038 -0.1809586
-0.58413476 -0.40219727 0.20505129 0.9572958 -0.24366394 -0.33088908 0.2595331 -0.45774516
-0.15848422 -0.30559355 -0.054422006 -0.105671205 -0.34115237 -0.27457315 -0.21009213 -0.1526514
-0.3277357 0.12110538 -0.13064685 -0.7006409 -0.29828534 0.22179976 0.06193943 -0.07806601
-0.41975012 -0.57108164 0.26869324 0.11545376 0.5453945 0.44311932 0.010965409 0.43852893
0.28688487 0.004892818 -0.41383553 0.21440634 0.4672684 -0.1380223 0.14556743 0.05285687
-0.51868767 -0.021821728 0.5236049 -0.5830617 0.44061267 0.3910735 -0.02793207 -0.3955567
-0.3156226 0.53741276 0.052486405 -0.56694907 -0.38855627 -0.08635945 -0.32321033 -0.08949688
-0.40335497 0.52315104 0.07311504 0.074260265 -0.23505546 0.09573325 0.14717339 0.8842365
0.6921511 0.22847506 0.28498828 0.13856484 -0.17710498 0.7020161 0.25096205 -0.39788553
0.37173516 -0.29371625 -0.22315331 0.31934378 0.45479402 -0.30025837 0.32794362 -0.16069824
0.45521033 -0.11754746 -0.27389476 -0.23672748 -0.015121615 -0.26280493 -0.4993278 0.25866154
0.038866732 -0.06884498 -0.3931708 0.6403494 -0.58165264 0.14958997 -1.1073439 0.18561624
0.42525446 -0.46160883 -0.50254995 -0.06579353 -0.36007246 0.21299757 0.36709255 0.8567003
0.67962307 0.038615376 -0.7006869 0.26079398 0.80314004 -0.7246316 -0.68688834 -0.55421966
0.1489867 0.280139 -1.0383866 0.40328985 0.22596768 -0.2148142 -0.16557801 0.18683521
-0.17136233 0.14571472 0.4428142 -0.023408322 -0.36995685 -0.01608726 -0.15008749 0.5874857
0.4670362 0.095541134 0.47124392 -0.41229522 -0.39818692 0.33844912 -0.7580807 0.31665707
-0.12613942 0.15720639 -0.18150426 -1.0522659 -0.65052164 -0.024759533 0.4139133 0.46599934
0.7867045 0.21616858 -0.60337406 0.42565414 -0.25577235 -0.24492462 -0.21064825 0.022292294
-0.85800576 0.42468452 -0.60980874 0.23971316 0.080776945 0.20493376 -0.50162905 0.3609898
-0.87062097 -0.8872848 0.4744911 -0.33184552 -0.39164963 0.2662325 -0.09663441 0.19065778
0.035591614 -0.9047036 -0.52661574 0.31275797 0.27971888 0.23097147 0.42919746 0.3291071

network_body._body_endoder.seq_layers.0.bias f4 [128]
00000000: a3dd c53d 8692 253e 915b 143e 32a9 303e
00000010: a465 153e 85f7 043e 38bb 17be 048b 2bbd
00000020: 8c87 ca3d d7ef a13e 2f1a 6d3d c7aa d4bc
00000030: 8cd4 203e f373 e53d e569 8c3d a681 073e
00000040: 22c2 1f3e 7472 473d 2037 eebb 256a 8e3d
00000050: 7b07 223e 48f4 ce3d f7c2 fa3d ab9b 653c
00000060: d956 8b3c fd15 7e3e 4bcb 8a3d 775f 1f3e
00000070: 9d9b 01be 64d1 243e f82c 73bd 1e06 013e
00000080: 1b7b 95b9 1b7e cdbc 92ff 60bd 0a23 403d
00000090: 9720 1c3e 90a3 833c a55a 0e3e 7945 123e
000000a0: 9622 ff3d ab8b cc3d 72f5 81bd a475 0ebd
000000b0: 3f33 9bbd a754 fd3d af9b 253e c339 0c3d
000000c0: 5543 033d 911a 993c 179d 063e ca56 d5bb
000000d0: 4201 6cbd ff7b 9d3e cb0d 83bd 39b1 a03d
000000e0: 1bc3 993d 5495 673d f9d6 033e 658f ae3d
000000f0: 9d4e 263e cba9 113e 9ba3 b83d 3e92 043e
00000100: d331 d33c 7abc 1b3e 0580 953d 7616 a33d
00000110: c660 d6bd a865 203e b300 9fbc 1654 cc3d
00000120: 00f1 8dbd 7bde d83d 7369 e63d ca8c 243e
00000130: 9205 f13d 35aa 05be 1c2f 9e3d 3aaf 293c
00000140: c619 8dbd 714f f1bc 1297 cb3d a028 fb3d
00000150: 4ee3 243e a2c1 e43d b91e 83bd 1b6f c33d
00000160: 9981 0bba e353 853d 9c43 5fbd 48d2 cd3d
00000170: 667a 013e f5c6 efbd 6a2e ebb7 1dac 293e
00000180: 318b b4bc 84e3 94bd be3c aabd 8a7d d93d
00000190: 246d f93d 3379 2abc 996d 243e 72aa 0b3e
000001a0: a082 6e3d 0f97 113e 4bb6 0d3d 5d26 9b3d
000001b0: 2737 63bd f1ef 043e 5869 203e 07c6 803d
000001c0: 1fde 9fbd ffff ccbc e0c2 1c3e d397 1d3e
000001d0: d7bb 0bbd cc79 863d 9afe 083e ae1c 293a
000001e0: e29f 8bbb 1afe 4db7 5fa8 513d 49ad da3d
000001f0: 3ee3 363e b201 debd 1a70 ffbd 5b00 e63d
0.096614145 0.16169176 0.14488055 0.17252043 0.14589554 0.12985046 -0.14817512 -0.041880623
0.09889135 0.31628296 0.0578863 -0.02596034 0.1570608 0.11203756 0.06856135 0.1323305
0.156014 0.048693135 -0.007269755 0.06953839 0.15823166 0.10105187 0.12244218 0.014014165
0.017009186 0.24813075 0.06777056 0.1556376 -0.12657018 0.16095501 -0.059369057 0.1259999
-0.00028511215 -0.025084546 -0.05493123 0.046908416 0.15246807 0.016069204 0.13901766 0.14284314
0.124577686 0.09987577 -0.06345643 -0.03478016 -0.07578134 0.12369662 0.1617267 0.034234773
0.032046635 0.018689426 0.13145863 -0.00651059 -0.057618387 0.30758664 -0.06399115 0.078463025
0.075079165 0.056538895 0.12874974 0.08523444 0.16240926 0.14224927 0.0901558 0.12946412
0.025780594 0.15208617 0.072998084 0.079632685 -0.10467677 0.15663779 -0.019409513 0.099769756
-0.06930733 0.1058931 0.112505816 0.16069332 0.117686406 -0.1305321 0.07723829 0.010356719
-0.068896815 -0.029456826 0.09940924 0.12263608 0.16102335 0.11169745 -0.06402344 0.09542676
-0.0005321741 0.06510141 -0.054507837 0.100498736 0.12644348 -0.1170787 -2.8035796e-05 0.16569562
-0.022039028 -0.07269958 -0.08312367 0.10619648 0.1217902 -0.010404873 0.16057433 0.13639238
0.058230042 0.1421778 0.034597676 0.075756766 -0.05547252 0.12982155 0.15665185 0.06287771
-0.07806038 -0.025024412 0.15308714 0.15389948 -0.034114685 0.065662 0.13378373 0.0006451112
-0.004261003 -1.2278115e-05 0.05118596 0.10677583 0.17860124 -0.10840167 -0.124725536 0.112305366

network_body._body_endoder.seq_layers.2.weight f4 [128, 128]
00000000: 9fb7 503e 7765 863e e167 c43c 0bb9 95be
00000010: 2f47 7d3e 9801 8c3e ca5e ad3c ae45 a5bd
00000020: d759 afbc 8bc3 e0be 894c 4cbd 596d 2f3d
00000030: 9dc4 053e 2e94 943e 8141 1d3e f906 a33b
00000040: 7b23 383e bf57 453e cb6a 183c 2056 653e
00000050: dc0e 9a3e 564d 693d 53f4 943d a662 20bc
00000060: e8fe 30bd 2276 11be 42f5 8dbd 96d6 d53d
00000070: 1aa9 953c 19e6 a53e 0844 083d da2d 4e3d
00000080: 7ce9 1abd 3b91 1dbe b1a6 0c3e e8ee a1bc
00000090: f1a9 473e 5905 c9bd dcb6 1c3e 8c1c 333e
000000a0: a2b3 a93e 8ce0 6b3e 5bfd 55be 7e07 2abd
000000b0: 249a 113e 5525 4e3b 3e5c 303e 8338 d4bd
000000c0: 17db 183e 5230 0a3d dc68 b13d 89c5 8cbc
000000d0: d470 28bd 2731 18be 361a 08be 37ec e03c
000000e0: 545c bb3d 1094 913e d77c 103e cbf9 353e
000000f0: 4c03 223e c0a1 68be 9207 fd3d 3db2 8c3d
00000100: eb10 ebbd 355e bfbd f593 b5bd 6546 473e
00000110: 4081 abbc 3318 4c3e 2a38 04be bc0a 513d
00000120: 363e fc3d 446e 1bbd de0b 413e 4f4e 92be
00000130: 3f11 2b3e 5627 b4bc 1bd3 da3d 23f7 853d
00000140: b281 24be 2e0c b6bd a2a2 5ebe 96ef 6bbe
00000150: 2c4e 893d cd8b 013d 9378 3dbe 6fc0 a43d
00000160: 0d95 24bc 4b2b bc3d bb52 213d f76b 36bb
00000170: 2d25 ac3d 7ee7 6f3c 01c8 ec3c 7df2 14be
00000180: 322f e23d d73f c1bc faa7 d43c 1105 55bd
00000190: 5bb8 6c3e 53d5 88be 20f9 683e a701 fd3d
000001a0: 9339 09bd eac8 8e3e d1df e93c d0d9 64be
000001b0: 410a 893e c413 0b3e 4546 d93d 314d 253e
000001c0: 035e 923d 37e9 19be 3477 573d 7701 0e3e
000001d0: df86 8dbb 0f9f 2db9 c78c 1c3e ba5c 1b3d
000001e0: b2f4 9bbd f007 99bb 9b93 113e cef0 cdbb
000001f0: 0d0f 9cbe 52f8 f63c d819 c7bd 5da7 34bd
00000200: d998 0f3e eb01 9b3e 746c 88be 97fd 8abe
00000210: 37da 283e 7759 243e d282 823d b565 80bd
00000220: fe10 243e 0bc8 38be 416c e73c b364 f7bd
00000230: 3d2e 683e e054 dc3d b25d 8d3d a3ea 083e
00000240: d48f 293e 3aff 003d efc5 54bd bc51 ab3d
00000250: f38b ac3d 4201 a03d 4b7f f73d 27ef dbbd
00000260: ed7b f23b 3866 bdbe c635 d0bd 14e5 823e
00000270: ad66 04bd 9828 da3d 2892 bcbd ee82 6b3e
00000280: a066 c4bd b58b 81be 9b52 e63c 8542 bd3d
00000290: e9dd a53d d59e 19be 5b06 033e 312e b43d
000002a0: 7273 6a3e e88d b33e 7ca7 23be 7f5a 923c
000002b0: 41db 10be 9bc3 3e3e 6f1b 683e 9e0b a6ba
000002c0: ef6e f13d c589 393d 4cd1 163e e395 d53d
000002d0: 4b03 7abc f10e fcbd 2b47 aebd 528f e93d
000002e0: 64d1 8b3e bb75 8c3d 1d88 453e 7424 bd3e
000002f0: a2a0 5f3e fbf3 7fbe 6fa0 333e 8d1d 663e
00000300: 9567 20be 01e3 d5bd 8436 c6bd 4840 ee3a
00000310: 69d8 fa3d bcb7 2d3e b966 c0bd 7969 0c3e
00000320: 6a43 7b3d 1a4e 823e 8f31 353e 283d 93be
00000330: a067 2f3c 83cd 69bd 5cc2 4d3e 69aa e0bd
00000340: 6657 69bd e370 e2bd 39b3 a1bd eb64 b6be
00000350: 42b7 963e 5436 9f3e f6d4 7ebd 5d2b d0bb
00000360: be90 113e 3d34 433d 75d6 34be 9bef 2e3e
00000370: a4f2 3e3d c1ed 9dbd a25b bd3d cfa0 89be
00000380: d9da ac3d 4deb 06be a99e 753d 1782 743e
00000390: 7837 0c3e c2f2 a1be 5528 353e ba56 cc3e
000003a0: 009e 7c3d bd7d ff3d ea4c f1bd 403a a9bd
000003b0: 1d6a 3f3d 0337 863e a6ad 283e 6abf 2abd
000003c0: b69d b23c ad7b eebd f9d0 763e a3df 523e
000003d0: e5d5 99bc e0d4 ea3d fb3b c53d 7855 8bbd
000003e0: 11ee 9e3d 26e8 1c3d f2ae 09be 991b 13bd
000003f0: 1c69 b3be eb69 c4bd df23 52be 0d78 43bd
0.20382546 0.26249287 0.023975315 -0.2924274 0.24734186 0.27344966 0.021163363 -0.08069931
-0.021405144 -0.43899187 -0.049877677 0.04282889 0.13063283 0.29019302 0.15357019 0.0049751964
0.17982285 0.19271754 0.009302805 0.22396135 0.30089462 0.05695852 0.07273164 -0.009789145
-0.043211848 -0.1420522 -0.06931545 0.1044132 0.01826911 0.32402113 0.033268005 0.050336696
-0.037820324 -0.15387432 0.13735463 -0.01976724 0.19498421 -0.09815473 0.1530413 0.17491359
0.3314486 0.23034877 -0.20897429 -0.04151105 0.14218956 0.0031455357 0.17222688 -0.10362341
0.14927326 0.033737488 0.086625785 -0.017184036 -0.041123226 -0.148625 -0.13291249 0.027456386
0.091484696 0.28433275 0.14110123 0.1777107 0.1582157 -0.22717953 0.123549595 0.06869934
-0.11477836 -0.093441404 -0.08866111 0.19460447 -0.020935655 0.19931106 -0.1291205 0.051035628
0.12316553 -0.037946954 0.18852183 -0.2857537 0.16705798 -0.021991413 0.106847964 0.06541278
-0.160651 -0.08889042 -0.21741727 -0.23040614 0.06704363 0.031627465 -0.18503027 0.08044516
-0.010045302 0.09187945 0.03938554 -0.0027835348 0.08405528 0.014642594 0.028903963 -0.14545627
0.11044158 -0.023590012 0.025959004 -0.052006785 0.23117201 -0.26725253 0.22751284 0.12353831
-0.033502173 0.2788766 0.028549107 -0.22348714 0.26765636 0.13581759 0.10609106 0.16142727
0.071468376 -0.1503037 0.052603915 0.13867746 -0.0043190564 -0.0001655782 0.15288077 0.037930228
-0.07615031 -0.0046701357 0.14216463 -0.0062848097 -0.30480233 0.030147705 -0.09721726 -0.044104923
0.1402315 0.302749 -0.26645243 -0.271466 0.16489492 0.16049753 0.06372608 -0.06269399
0.16022107 -0.1804506 0.028249862 -0.12079754 0.22673889 0.10758376 0.069026366 0.13370757
0.16558772 0.031493403 -0.051946577 0.08365199 0.08425131 0.0781274 0.12084826 -0.10738974
0.007400027 -0.3699205 -0.101665065 0.25565398 -0.03232448 0.10652274 -0.092075646 0.22999164
-0.09589887 -0.253019 0.028115561 0.09241203 0.08098967 -0.15001996 0.12795393 0.08797873
0.22895601 0.35069203 -0.15981859 0.017865418 -0.14146139 0.18629305 0.22666715 -0.0012668257
0.11788737 0.045297403 0.14728278 0.10428979 -0.015259574 -0.12307537 -0.08509668 0.11404289
0.2730819 0.06858393 0.19290204 0.36941874 0.2183862 -0.24995415 0.1754167 0.2247221
-0.15664513 -0.10443688 -0.09678367 0.0018177116 0.12248308 0.1696462 -0.09394593 0.1371211
0.061343588 0.25450212 0.17694686 -0.28757596 0.0107058585 -0.057080757 0.20093673 -0.10970003
-0.056968115 -0.11056688 -0.07895512 -0.3562387 0.2943669 0.31096137 -0.062214814 -0.0063528256
0.14215371 0.04765724 -0.17659934 0.1708359 0.04661812 -0.077113636 0.09245993 -0.268805
0.084401794 -0.13175698 0.059965763 0.2387775 0.13693035 -0.31630522 0.17691167 0.39909917
0.061674118 0.124751545 -0.11782248 -0.082630634 0.046732057 0.26213846 0.16472492 -0.041686453
0.021803718 -0.11644683 0.24103154 0.20593123 -0.01877875 0.11466384 0.09630581 -0.06803411
0.07760251 0.03830733 -0.13445643 -0.03591499 -0.3504113 -0.09590515 -0.20521496 -0.04772191

network_body._body_endoder.seq_layers.2.bias f4 [128]
00000000: 11da 0c3e 6e7f 103e d438 0bbb 66b6 81bc
00000010: 2e46 0a3e 8d37 f1bc 8b48 98bc 1ae3 21bd
00000020: 58d6 19bd d055 36bb 6ee9 063e b09f 183e
00000030: 3fa3 bfbc 9761 023e ec44 bebc 6643 083e
00000040: c92d 8abc 093e df3d 4c46 8ebc c1cd 773d
00000050: d8d5 85bc 3d50 90bc 7218 87bc 688f 183e
00000060: 77cc 1a3e b237 5dba 1c1a 87bc d449 8ebc
00000070: ef81 0b3e 4da7 003e bbcb 04bd 3801 d7bb
00000080: 9abf f2bc f1e8 023e 21ad f3bb f2da 30bd
00000090: fd25 093e 6bfc 74bd eb40 83bc c071 153e
000000a0: 2557 4fbc b909 c53d 022b 88bc d5f9 11bd
000000b0: 0e13 c9bc 9543 8fbc 7600 08bd 0b1e 113e
000000c0: d43e aabc 5953 45bd 8a3a 143e 261e 0a3e
000000d0: 42ce 6dbc ea40 173e 7680 cebc 9682 9dbc
000000e0: 46da 8d3d 51b2 46bd 5210 8cbc b8ef 1abd
000000f0: f208 91bc bbad e0bc bd60 063e 933a 523b
00000100: 32e0 88bc a42d 8cbc 6c5a 34bd ef06 ef3d
00000110: 3a38 b8b9 0c21 d8bc bce4 87bc e1ba dabc
00000120: d5c8 90bc 6ab1 fdbc 64e8 c1bb 6ebb 8cbc
00000130: 84e9 8fbc 3f18 c2bc 758e 82bc b05e 8dbc
00000140: fc88 7bbc 66ae bebb cc93 bdbc 99f3 0f3e
00000150: 7159 8bbc 2f37 edbc 2aa1 de3c f2ba 113e
00000160: aa27 033e 1c66 81bc 2b10 87bc c2fd 8dbc
00000170: ce99 8ebc 5777 2bbd 566c 0abc a8e9 d0bc
00000180: 3231 8dbc 132b 9ebc eedb 0f3e 7fc7 b7ba
00000190: ccbf 93bc bb84 ebbc e5da 1b3e 8c25 80bc
000001a0: 9a6a 8ebc 269b 073e 57ec 8bbc 084e 15bd
000001b0: c955 8abc 462e 5cbc ecfc 053e 7d80 0d3e
000001c0: 90ab 94bc 58fb 29bd 8e78 173e 0ffe f63d
000001d0: 02d3 f9bc ba9b 90bc d32f 12bd 03c0 d93d
000001e0: b9ad 28bd e396 21bd c2e2 113e 9f08 1cba
000001f0: 96b8 c3bc b08b 8abc 5555 83bc 27f3 19bd
0.1375506 0.1411111 -0.002124359 -0.015834045 0.13503334 -0.029445434 -0.018589279 -0.03952322
-0.03755793 -0.0027822144 0.13174984 0.14904666 -0.023393271 0.1273254 -0.023226224 0.1330696
-0.016867535 0.10900504 -0.017367505 0.060498957 -0.01633732 -0.017616386 -0.016491149 0.14898455
0.1511706 -0.000843878 -0.016491942 -0.017369188 0.13623784 0.1256382 -0.032420855 -0.0065614246
-0.029632378 0.12784173 -0.00743641 -0.043177553 0.13393398 -0.059811037 -0.016022166 0.14594173
-0.012655054 0.09620995 -0.01662207 -0.03563865 -0.024545219 -0.01748828 -0.033203565 0.14171617
-0.020781912 -0.04817519 0.14475456 0.13488063 -0.014514508 0.14770856 -0.02520774 -0.019227307
0.06926398 -0.0485099 -0.017097626 -0.03782627 -0.01770446 -0.027426591 0.1312284 0.003207837
-0.016708467 -0.017111607 -0.044031546 0.11671244 -0.00035137107 -0.026382945 -0.016588561 -0.026700439
-0.01767389 -0.030968387 -0.0059175957 -0.017179217 -0.017567404 -0.023693202 -0.01593707 -0.017257065
-0.015352484 -0.0058191298 -0.023141764 0.14057769 -0.017010422 -0.028956978 0.027176458 0.1423147
0.128081 -0.01579576 -0.016487202 -0.017332915 -0.017407324 -0.04186186 -0.008448681 -0.025502041
-0.017235372 -0.019307649 0.1404874 -0.0014021246 -0.018035792 -0.028749814 0.1522022 -0.015642904
-0.017384816 0.13242778 -0.017080469 -0.03645137 -0.016886609 -0.013438767 0.13084763 0.13818546
-0.018148214 -0.041499466 0.14792082 0.120601766 -0.030496124 -0.017652381 -0.03569014 0.106323265
-0.0411813 -0.039450537 0.14246657 -0.00059522124 -0.023891728 -0.016912311 -0.0160319 -0.037585404

action_model._continuous_distribution.mu.weight f4 [1, 128]
00000000: 8ec5 e63d 403f 0c3e d58d 36bc 0a01 b5bb
00000010: f566 143e d302 00bd 7e08 83bc d8c4 a6bb
00000020: 0c64 0c3d a82e a1bb e41b 173e 2a79 0d3e
00000030: a435 a6bb fe64 283e 11ca 343d a9fe 183e
00000040: 1e52 993c 2d20 af3d 6a9d 52bc ee72 6c3d
00000050: 7885 b03a f306 50bc c5dc 0e3b 3da2 1d3e
00000060: 31f9 0b3e 9f18 45bc 839e 8abb 7fd3 fc3b
00000070: ca90 273e 07c8 1e3e 644a 3e3d 4c66 26bd
00000080: ea5f f23c 54f7 263e 5e16 b1bb facb 9b3c
00000090: ac6a 2b3e 1a1c 3f3d 8ce2 583c 4b47 1c3e
000000a0: ecc8 48bc 6308 b93d 6722 62bc 209f 2d3d
000000b0: 32ed 673c 0c08 58bc d8a1 093d 60a6 203e
000000c0: 9b01 34bd a071 843c 0996 1a3e 0b27 163e
000000d0: fc6a 353c a4fe 063e e98c 8c3c d22b 223c
000000e0: 4d13 8b3d aaab 6d3c 2d63 1fbc 5ff5 063d
000000f0: e2dd 333c 7d71 1a3c 283c 173e fcfb 2c3b
00000100: 4828 943c 3a88 e4bb 675c f7ba f39b 363e
00000110: 5b44 e9bc 87ca a93c 95cd f63c 72bb f53c
00000120: 0f22 0b3c 53d4 c8bb 598c 13bc d623 013c
00000130: 67c4 7dbc 201e 71bc c5ec c13b f779 25bc
00000140: e87c 62bb 6523 3bbc 3fca cfbb 6ab4 1a3e
00000150: f21d f83c 6df3 05bc 981b 223d 8ec2 173e
00000160: 6475 133e 5f73 f839 0a36 843b ad69 f93a
00000170: 704f 54bc 9178 213d fb38 30bc 5b10 88bb
00000180: 63f1 803b f94d 4b3c dbcc 1a3e cff1 15bc
00000190: a3d9 d5ba ac00 dd3c 45c2 de3d 9237 d1bb
000001a0: 793d 32bc 8bd5 273e f1b3 8bba 88a9 893c
000001b0: 2379 0d3c 6cc8 d8bb adb7 283e 4906 0e3e
000001c0: 1c17 e5bc 987c 92bd 44f9 123e 3729 343e
000001d0: 1a80 2ebc 2d42 c03a 990f 5d3c 0346 af3d
000001e0: f98e ca3c 342e 1b3d e014 283e 5e82 64bc
000001f0: 4b4b 8abc 8ac4 093c cfb5 173c 567a d03c
0.11268149 0.13696003 -0.011142214 -0.0055238055 0.144924 -0.031252693 -0.01599526 -0.0050893836
0.0342751 -0.004918892 0.14756733 0.13815752 -0.0050723124 0.16444775 0.044138018 0.14940895
0.018715914 0.08551059 -0.012854913 0.057726793 0.0013467511 -0.012696969 0.002179907 0.1539392
0.13669278 -0.012029796 -0.004230322 0.007715642 0.16363826 0.15505992 0.046457663 -0.0406249
0.029586751 0.16305286 -0.0054042777 0.019018162 0.16739911 0.04665766 0.013237607 0.15261571
-0.012254935 0.09034803 -0.0138021475 0.04238808 0.014155673 -0.013185512 0.03360161 0.15688467
-0.043946844 0.016167462 0.15096296 0.14663331 0.01107287 0.13183075 0.017157035 0.009898143
0.06790791 0.01450626 -0.009728235 0.032948848 0.010978194 0.009426472 0.14769042 0.0026395312
0.018085614 -0.0069742473 -0.0018872143 0.17832927 -0.028474977 0.020726455 0.030127326 0.029996607
0.008492007 -0.0061288266 -0.009005629 0.007882079 -0.0154887205 -0.014716655 0.0059181177 -0.0100998795
-0.0034559313 -0.011422013 -0.0063412483 0.15107885 0.030287717 -0.008175713 0.039577097 0.1482031
0.1440025 0.00047388204 0.0040347623 0.0019028686 -0.0129583925 0.03942162 -0.010755773 -0.0041523403
0.0039350255 0.012408727 0.15117209 -0.00915189 -0.0016315471 0.02697786 0.10876898 -0.0063847983
-0.010878914 0.16390054 -0.0010658485 0.016804472 0.008634838 -0.006615689 0.16476317 0.13869585
-0.027965121 -0.071526706 0.143529 0.17593847 -0.010650659 0.001466816 0.013492488 0.085582756
0.024726378 0.03788586 0.16414213 -0.013947098 -0.016881606 0.008408675 0.009259655 0.02544896

action_model._discrete_distribution.branches.0.weight f4 [1, 128]
00000000: 5cb6 393c 3361 00bc 9de1 323c 8352 463c
00000010: a6a1 273c 0b94 ebbb df87 24bb 8be6 9d3b
00000020: 53c9 bbbb 0bca a23a 8a2f f4bb b6cf 8cbb
00000030: 5b3b 883b 439e 6ebc aac5 b0ba ff34 ea3a
00000040: 3a9e e8bb ab01 ef3b 033c cfba 9f6a a9bb
00000050: af11 a13b aed9 0e3c 8a5d 83bb f7b4 76bb
00000060: edf1 573c 0f7c 63bb 17c5 573b e53b cb3b
00000070: 372e 2d3b 768d 11bc 2d00 973c 3a28 61bc
00000080: 87eb 813b 7006 22bb ca28 5c3a 13d6 003a
00000090: 12da 8a3c 494c 023c d7c7 26ba fbbb 8dbc
000000a0: 6e82 183c 5a11 d93b e6fa 403b aaa8 26bc
000000b0: 6019 953b 3e0d 3a3b 23d4 623b 3822 2b3b
000000c0: 64af 493c c80a febb 2a34 82bb fb80 e63a
000000d0: 2f68 133c ef6c 8fba 7db6 8f3b afeb 12bc
000000e0: cbeb bc3b 45a4 5dbb 443a 873c 7922 a5bb
000000f0: 6249 09bc a91b 80bb 0340 553b adb9 2c3c
00000100: 8672 88bb b7e3 3e3b 1f70 0dbc fb8a 55bc
00000110: 4889 aab6 429f f7bb 2826 77bb 434f 88ba
00000120: 7996 b63b ab92 21bc 8983 9cbc aa2a 643b
00000130: eb37 213c 2307 9f3b 55d4 8c3a 6d4e b53b
00000140: 8d20 003c a459 84bc 7a34 053a 7fc0 81bc
00000150: c9ea 2bbb 4b8e 5ebc d86e b4ba 3a7b fd3b
00000160: eb3d a93b 9281 9ebb e16a 1cbc 4bed 8b3b
00000170: 4db9 683b c09e 74bc cf76 bfbb 8a16 033b
00000180: 677b 493c 1cbf c8bb 4245 bebb a75b 443b
00000190: 30e5 70bb bf7e 2bbb 134d 3dbc 6641 273c
000001a0: 5f5c b13b 4f97 cfbb 1a2a 613b c88c 6f3b
000001b0: 6a9c d5bb f8b1 3a3c afd6 53ba 6aab b5b9
000001c0: c2ae 24bb 4742 07bc 549a 41bb 77b1 a9bb
000001d0: 9067 833b fa9a fcba 87fc e2bb af1b 083c
000001e0: f6d6 44bc ed96 dcbb 4f64 623c 5397 ad3b
000001f0: 17a1 7cbb 58ce 6b3c fbf9 633c 73ec 043b
0.011334982 -0.007835674 0.010918048 0.012104633 0.010231411 -0.007189279 -0.00251054 0.0048187426
-0.005730787 0.0012419833 -0.007451956 -0.004297222 0.0041574663 -0.0145641 -0.0013486643 0.0017868577
-0.00709894 0.0072939 -0.0015810732 -0.005170181 0.004915438 0.008718891 -0.0040089535 -0.0037644485
0.013180238 -0.0034711396 0.0032923871 0.0062022083 0.0026425251 -0.008883825 0.018432701 -0.013742501
0.0039648446 -0.0024723075 0.0008398412 0.0004914712 0.016949687 0.007952758 -0.0006362176 -0.01730155
0.009308441 0.006624383 0.0029446422 -0.010172049 0.004550144 0.002838924 0.0034611307 0.0026112925
0.012309883 -0.00775275 -0.0039735036 0.0017586047 0.008997007 -0.0010942499 0.004385768 -0.008967324
0.0057654134 -0.0033819836 0.016507275 -0.00503951 -0.008379312 -0.0039095473 0.0032539375 0.010542315
-0.004164043 0.0029127428 -0.008632689 -0.013033624 -5.0823764e-06 -0.007556827 -0.0037711952 -0.0010399598
0.005572137 -0.0098616285 -0.01910569 0.0034815469 0.009839992 0.0048531457 0.0010744432 0.0055330307
0.007820261 -0.016156025 0.0005081367 -0.01583886 -0.0026232472 -0.01358373 -0.0013765944 0.007735637
0.005164852 -0.0048372233 -0.009546966 0.004270231 0.0035510838 -0.014930427 -0.0058430205 0.0020002448
0.012297488 -0.0061262976 -0.005806596 0.0029961856 -0.00367577 -0.0026168076 -0.01155402 0.010208463
0.005412623 -0.006335176 0.003435737 0.0036552418 -0.00651889 0.01139497 -0.00080810016 -0.00034650724
-0.0025128578 -0.008255548 -0.002954145 -0.005178626 0.0040101483 -0.0019272261 -0.0069270763 0.0083073815
-0.012014141 -0.006731859 0.013817861 0.0052975803 -0.0038548165 0.014392458 0.01391458 0.0020282536

exp_avg f4 [128, 6]
00000000: 2fe8 55a6 856f 9da5 0000 0000 3220 2ba6
00000010: 2620 aba5 0000 0000 a167 2fa6 0b19 81a5
00000020: 0000 0000 ea52 0ca6 ea52 8ca5 0000 0000
00000030: 8a63 cb23 b9b1 1523 0000 0000 15b6 a223
00000040: 15b6 2223 0000 0000 a89e 2d26 6991 7f25
00000050: 0000 0000 47e5 0a26 47e5 8a25 0000 0000
00000060: 03b5 68a6 ab45 aba5 0000 0000 5b2a 3aa6
00000070: 552a baa5 0000 0000 000e 45a6 4208 91a5
00000080: 0000 0000 d7a4 1da6 d7a4 9da5 0000 0000
00000090: 5051 92a2 2e61 d7a1 0000 0000 b91b 6aa2
000000a0: b91b eaa1 0000 0000 9e7c 4f9f d6b5 989e
000000b0: 0000 0000 47fd 259f 47fd a59e 0000 0000
000000c0: 25f4 2aa6 dba4 7ba5 0000 0000 57c3 08a6
000000d0: 57c3 88a5 0000 0000 c343 5826 b32b 9f25
000000e0: 0000 0000 0403 2d26 f902 ad25 0000 0000
000000f0: ffc5 29a4 0be8 79a3 0000 0000 a4d1 07a4
00000100: a4d1 87a3 0000 0000 a375 aaa3 8cea faa2
00000110: 0000 0000 215e 88a3 1a5e 08a3 0000 0000
00000120: 090f 53a6 d656 9ba5 0000 0000 dbd8 28a6
00000130: dbd8 a8a5 0000 0000 4b8d 39a6 ea90 88a5
00000140: 0000 0000 0071 14a6 0071 94a5 0000 0000
00000150: cdf8 32a6 23b9 83a5 0000 0000 652d 0fa6
00000160: 652d 8fa5 0000 0000 625f 52a6 99d5 9aa5
00000170: 0000 0000 584c 28a6 584c a8a5 0000 0000
00000180: 353f 60a6 ac0b a5a5 0000 0000 c965 33a6
00000190: c165 b3a5 0000 0000 2205 1da6 2822 67a5
000001a0: 0000 0000 663b fba5 663b 7ba5 0000 0000
000001b0: 49cb 0b9b dbc6 4d9a 0000 0000 a9ab df9a
000001c0: a9ab 5f9a 0000 0000 0dc9 26a6 0282 75a5
000001d0: 0000 0000 a16d 05a6 a16d 85a5 0000 0000
000001e0: 057d 53a6 cba7 9ba5 0000 0000 d630 29a6
000001f0: d630 a9a5 0000 0000 933c c8a2 bc5f 13a2
00000200: 0000 0000 7230 a0a2 7230 20a2 0000 0000
00000210: acf5 3ba6 9d56 8aa5 0000 0000 205e 16a6
00000220: 205e 96a5 0000 0000 4fc6 05a4 8eea 44a3
00000230: 0000 0000 140a d6a3 140a 56a3 0000 0000
00000240: e739 bda0 3b45 0ba0 0000 0000 9461 97a0
00000250: 8c61 17a0 0000 0000 6339 2626 9cae 7425
00000260: 0000 0000 b9fa 0426 b9fa 8425 0000 0000
00000270: 98ec 4fa4 3e08 99a3 0000 0000 e056 26a4
00000280: d956 a6a3 0000 0000 3457 65a6 6bcb a8a5
00000290: 0000 0000 0379 37a6 f778 b7a5 0000 0000
000002a0: 4c57 99a2 c6b7 e1a1 0000 0000 6d58 75a2
000002b0: 6d58 f5a1 0000 0000 a772 4fa6 75ae 98a5
000002c0: 0000 0000 53f5 25a6 53f5 a5a5 0000 0000
000002d0: f3d9 4ba1 db08 96a0 0000 0000 c714 23a1
000002e0: bc14 a3a0 0000 0000 14b3 34a6 aefe 84a5
000002f0: 0000 0000 458f 10a6 458f 90a5 0000 0000
00000300: b192 19a2 320f 62a1 0000 0000 7fb7 f5a1
00000310: 7fb7 75a1 0000 0000 4ae3 a2a2 68c5 efa1
00000320: 0000 0000 764f 82a2 764f 02a2 0000 0000
00000330: 6194 5f22 f18d a421 0000 0000 1edd 3222
00000340: 1edd b221 0000 0000 ed24 07a3 adee 46a2
00000350: 0000 0000 143b d8a2 143b 58a2 0000 0000
00000360: c6c8 4da6 0275 97a5 0000 0000 a4a0 24a6
00000370: 96a0 a4a5 0000 0000 fe71 73a3 f02c b3a2
00000380: 0000 0000 9dc1 42a3 8cc1 c2a2 0000 0000
00000390: c646 49a6 a623 94a5 0000 0000 6305 21a6
000003a0: 6005 a1a5 0000 0000 0503 42a6 e1ca 8ea5
000003b0: 0000 0000 9335 1ba6 9335 9ba5 0000 0000
000003c0: 2a1c 53a6 7760 9ba5 0000 0000 54e3 28a6
000003d0: 49e3 a8a5 0000 0000 a82b 3ea6 32f7 8ba5
000003e0: 0000 0000 fb22 18a6 fb22 98a5 0000 0000
000003f0: 7078 f2a1 4775 32a1 0000 0000 f3f9 c1a1
-7.421389e-16 -2.7310727e-16 0.0 -5.9371176e-16 -2.9685556e-16 0.0 -6.0855765e-16 -2.2394903e-16
0.0 -4.8684627e-16 -2.4342313e-16 0.0 2.205146e-17 8.1149404e-18 0.0 1.764119e-17
8.820595e-18 0.0 6.023645e-16 2.2166991e-16 0.0 4.8189097e-16 2.4094548e-16 0.0
-8.0736486e-16 -2.971098e-16 0.0 -6.4589116e-16 -3.2294542e-16 0.0 -6.836708e-16 -2.5159086e-16
0.0 -5.4693717e-16 -2.7346858e-16 0.0 -3.9659472e-18 -1.459469e-18 0.0 -3.172759e-18
-1.5863795e-18 0.0 -4.3937036e-20 -1.6168832e-20 0.0 -3.5149615e-20 -1.7574808e-20 0.0
-5.9311476e-16 -2.1826635e-16 0.0 -4.7449213e-16 -2.3724607e-16 0.0 7.503189e-16 2.7611715e-16
0.0 6.002552e-16 3.001273e-16 0.0 -3.6813743e-17 -1.3547454e-17 0.0 -2.945103e-17
-1.4725516e-17 0.0 -1.8481258e-17 -6.801097e-18 0.0 -1.4785015e-17 -7.3925016e-18 0.0
-7.3225707e-16 -2.6947056e-16 0.0 -5.8580603e-16 -2.9290301e-16 0.0 -6.4376256e-16 -2.3690437e-16
0.0 -5.150096e-16 -2.575048e-16 0.0 -6.2093344e-16 -2.285033e-16 0.0 -4.967461e-16
-2.4837306e-16 0.0 -7.2987654e-16 -2.685948e-16 0.0 -5.8390174e-16 -2.9195087e-16 0.0
-7.7801273e-16 -2.8630847e-16 0.0 -6.2241045e-16 -3.1120501e-16 0.0 -5.4477273e-16 -2.0047629e-16
0.0 -4.358181e-16 -2.1790905e-16 0.0 -1.1563495e-22 -4.255364e-23 0.0 -9.250797e-23
-4.6253985e-23 0.0 -5.7865294e-16 -2.1294411e-16 0.0 -4.629222e-16 -2.314611e-16 0.0
-7.3374764e-16 -2.7001915e-16 0.0 -5.869984e-16 -2.934992e-16 0.0 -5.4274244e-18 -1.9972896e-18
0.0 -4.341938e-18 -2.170969e-18 0.0 -6.5211605e-16 -2.3997875e-16 0.0 -5.216927e-16
-2.6084634e-16 0.0 -2.9007752e-17 -1.067485e-17 0.0 -2.3206195e-17 -1.1603097e-17 0.0
-3.2056162e-19 -1.1796664e-19 0.0 -2.5644967e-19 -1.2822473e-19 0.0 5.7670593e-16 2.1222786e-16
0.0 4.613649e-16 2.3068246e-16 0.0 -4.5086373e-17 -1.6591784e-17 0.0 -3.6069098e-17
-1.8034537e-17 0.0 -7.956852e-16 -2.9281196e-16 0.0 -6.365488e-16 -3.1827409e-16 0.0
-4.1563162e-18 -1.5295237e-18 0.0 -3.3250504e-18 -1.6625252e-18 0.0 -7.1972935e-16 -2.6486014e-16
0.0 -5.757835e-16 -2.8789176e-16 0.0 -6.906753e-19 -2.5416848e-19 0.0 -5.5254047e-19
-2.7626995e-19 0.0 -6.269274e-16 -2.3070928e-16 0.0 -5.01542e-16 -2.50771e-16 0.0
-2.0813024e-18 -7.659189e-19 0.0 -1.6650417e-18 -8.3252084e-19 0.0 -4.415084e-18 -1.6247523e-18
0.0 -3.5320703e-18 -1.7660352e-18 0.0 3.0300687e-18 1.1150644e-18 0.0 2.4240557e-18
1.2120278e-18 0.0 -7.326184e-18 -2.6960358e-18 0.0 -5.860947e-18 -2.9304734e-18 0.0
-7.139576e-16 -2.6273612e-16 0.0 -5.711664e-16 -2.8558282e-16 0.0 -1.3197195e-17 -4.8565627e-18
0.0 -1.055776e-17 -5.278873e-18 0.0 -6.98318e-16 -2.5698064e-16 0.0 -5.5865396e-16
-2.793269e-16 0.0 -6.7311363e-16 -2.477055e-16 0.0 -5.3849034e-16 -2.6924517e-16 0.0
-7.32435e-16 -2.695358e-16 0.0 -5.8594796e-16 -2.929737e-16 0.0 -6.5978657e-16 -2.4280162e-16
0.0 -5.2783e-16 -2.63915e-16 0.0 -1.6430437e-18 -6.046396e-19 0.0 -1.314435e-18

exp_avg_sq f4 [128, 6]
00000000: 1873 913c b0f3 2b3b 0000 0000 0fdf 2b3c
00000010: e72c 3a3b 0000 0000 29cc 3e3c 26fa df3a
00000020: 0000 0000 8dfc e23b 9438 f43a 0000 0000
00000030: 5340 7037 c83d 0936 0000 0000 72b0 1237
00000040: c9c2 1936 0000 0000 b230 1c3c 8850 a93a
00000050: 0000 0000 0dd3 c73b 6fec c73a 0000 0000
00000060: ecb8 b23c dd44 553b 0000 0000 624c 513c
00000070: c5c3 643b 0000 0000 b5c6 773c 58cc 123b
00000080: 0000 0000 300b 123c ae93 1e3b 0000 0000
00000090: f8f7 093a 3985 e238 0000 0000 7f4c 4739
000000a0: 8999 b038 0000 0000 ba97 ba2f 8e8e 912e
000000b0: 0000 0000 39fe 152f aed6 6e2e 0000 0000
000000c0: a046 333c 2c8b d13a 0000 0000 3d30 d63b
000000d0: 1579 e53a 0000 0000 0770 723c 6f6f 033b
000000e0: 0000 0000 7a0d 1b3c fe28 1b3b 0000 0000
000000f0: 8461 2138 1893 b536 0000 0000 68d9 c737
00000100: 4491 ce36 0000 0000 de6f 7639 984f 3c38
00000110: 0000 0000 549c ce38 4ab8 1d38 0000 0000
00000120: 4696 8f3c 6f24 2a3b 0000 0000 2854 293c
00000130: 99ca 373b 0000 0000 9617 573c 4a64 fd3a
00000140: 0000 0000 4efc fe3b b7a8 093b 0000 0000
00000150: acf3 463c 716c e93a 0000 0000 a3d6 ec3b
00000160: 8fa8 fe3a 0000 0000 43d0 8c3c e2ea 263b
00000170: 0000 0000 05e9 253c c03d 343b 0000 0000
00000180: 30c2 a33c 43f1 423b 0000 0000 3334 403c
00000190: 619c 513b 0000 0000 54a1 173c bb89 b13a
000001a0: 0000 0000 5fd7 b43b 2616 c23a 0000 0000
000001b0: 0076 cd25 6216 5f24 0000 0000 de50 8325
000001c0: bd7e 8324 0000 0000 f2fd 293c 637c c63a
000001d0: 0000 0000 944b cb3b ef96 d93a 0000 0000
000001e0: 3bb9 8f3c ceb4 2a3b 0000 0000 9006 293c
000001f0: 51f7 373b 0000 0000 3f11 a53a c2a8 8739
00000200: 0000 0000 1fd3 ed39 4149 5339 0000 0000
00000210: 49c6 5d3c ad8f 023b 0000 0000 728b 033c
00000220: 8fef 0d3b 0000 0000 7a8d 263a 0948 0739
00000230: 0000 0000 115c 7639 0830 d538 0000 0000
00000240: d894 3a31 5dd3 ca2f 0000 0000 7024 ee30
00000250: ffd2 ee2f 0000 0000 8785 0f3c 30c8 9b3a
00000260: 0000 0000 9c6a b73b 27b5 b73a 0000 0000
00000270: debe 6038 d108 f436 0000 0000 8a90 0f38
00000280: 44d6 0f37 0000 0000 08bb ab3c ff7b 4c3b
00000290: 0000 0000 4e86 493c b9d0 5b3b 0000 0000
000002a0: 9e86 203a 8ddf 0339 0000 0000 e273 6739
000002b0: 1479 cd38 0000 0000 4dc7 893c 5d59 233b
000002c0: 0000 0000 eb56 223c 4c5b 303b 0000 0000
000002d0: 6dc2 d532 b688 9131 0000 0000 b735 5632
000002e0: 42ce 8831 0000 0000 e632 4d3c 0f8b f13a
000002f0: 0000 0000 f583 f33b cf53 033b 0000 0000
00000300: 938e fd33 64ef 8b32 0000 0000 79b3 9f33
00000310: c546 a232 0000 0000 41b3 ea35 3554 a634
00000320: 0000 0000 db49 5f35 4735 9634 0000 0000
00000330: 2e19 b038 8467 9037 0000 0000 8ef4 fe37
00000340: db67 6137 0000 0000 b192 193a 35f2 f938
00000350: 0000 0000 e783 6239 d492 c438 0000 0000
00000360: 3e22 8a3c d44e 243b 0000 0000 bd47 223c
00000370: a8cf 303b 0000 0000 83f8 9936 8124 2735
00000380: 0000 0000 79c0 4436 1b15 4535 0000 0000
00000390: e6b1 7e3c f831 163b 0000 0000 6fce 163c
000003a0: 3a01 233b 0000 0000 fab4 693c 7e3a 093b
000003b0: 0000 0000 9ef6 0a3c 8292 153b 0000 0000
000003c0: 71c8 8e3c b126 293b 0000 0000 4062 283c
000003d0: 24c3 363b 0000 0000 51ff 633c 0c79 063b
000003e0: 0000 0000 c2fc 063c 18eb 113b 0000 0000
000003f0: b3f7 9b33 9604 2b32 0000 0000 859b 4533
0.017755076 0.0026237778 0.0 0.010490193 0.0028408112 0.0 0.011645355 0.00170881
0.0 0.006927079 0.0018632584 0.0 1.4320091e-05 2.0450552e-06 0.0 8.74336e-06
2.2912157e-06 0.0 0.009533094 0.0012917677 0.0 0.0060981573 0.0015252958 0.0
0.021816693 0.0032542266 0.0 0.012774559 0.0034906727 0.0 0.015123059 0.002239963
0.0 0.0089138 0.002419691 0.0 0.00052630855 0.000108013344 0.0 0.00019006616
8.420932e-05 0.0 3.394101e-10 6.6191594e-11 0.0 1.3641789e-10 5.430561e-11 0.0
0.010942131 0.0015986911 0.0 0.006536512 0.0017507399 0.0 0.014797217 0.0020055433
0.0 0.009463662 0.0023675556 0.0 3.847621e-05 5.4113443e-06 0.0 2.3823886e-05
6.1561896e-06 0.0 0.00023502062 4.489682e-05 0.0 9.851964e-05 3.760335e-05 0.0
0.01752771 0.0025961658 0.0 0.010335006 0.0028044342 0.0 0.013128182 0.0019332257
0.0 0.007781542 0.0021005103 0.0 0.012143057 0.0017808807 0.0 0.007227735
0.0019428896 0.0 0.01718915 0.002546959 0.0 0.010126357 0.0027502626 0.0
0.019990057 0.0029745854 0.0 0.011731195 0.0031984078 0.0 0.009254772 0.0013545075
0.0 0.0055188383 0.0014807626 0.0 3.564179e-16 4.8374376e-17 0.0 2.2779675e-16
5.70269e-17 0.0 0.010375487 0.0015143271 0.0 0.006204078 0.0016600768 0.0
0.01754438 0.002604771 0.0 0.010316506 0.0028070996 0.0 0.0012593641 0.0002587494
0.0 0.0004536146 0.00020149817 0.0 0.013536044 0.0019922063 0.0 0.008028852
0.002165768 0.0 0.0006353479 0.00012901438 0.0 0.00023494686 0.00010165578 0.0
2.715117e-09 3.6893769e-10 0.0 1.7327135e-09 4.344187e-10 0.0 0.008759863 0.0011885222
0.0 0.0055974256 0.001401578 0.0 5.358352e-05 7.272793e-06 0.0 3.422847e-05
8.573352e-06 0.0 0.020963207 0.0031201837 0.0 0.012300087 0.0033541156 0.0
0.0006123575 0.00012576413 0.0 0.00022073046 9.797714e-05 0.0 0.016818667 0.002492509
0.0 0.009908418 0.0026909886 0.0 2.4884878e-08 4.2355977e-09 0.0 1.2468653e-08
3.9815697e-09 0.0 0.012524342 0.0018428284 0.0 0.007431502 0.0020038967 0.0
1.1807165e-07 1.6290592e-08 0.0 7.43666e-08 1.8891464e-08 0.0 1.7486528e-06 3.0981178e-07
0.0 8.318145e-07 2.7978442e-07 0.0 8.397024e-05 1.7214341e-05 0.0 3.039304e-05
1.3435226e-05 0.0 0.00058583455 0.0001191836 0.0 0.00021602177 9.373357e-05 0.0
0.016862031 0.00250714 0.0 0.009904799 0.0026979242 0.0 4.588686e-06 6.226547e-07
0.0 2.931831e-06 7.341893e-07 0.0 0.015545344 0.0022917967 0.0 0.009204491
0.0024872557 0.0 0.01426434 0.0020939405 0.0 0.00848165 0.0022822921 0.0
0.017429562 0.0025810415 0.0 0.010277331 0.002788731 0.0 0.013915853 0.0020518927
0.0 0.008238973 0.002226537 0.0 7.262806e-08 9.954553e-09 0.0 4.600908e-08

exp_avg f4 [128]
00000000: dd2a 6424 3919 3b24 c8f2 d8a1 c631 39a4
00000010: 7e38 7824 1c31 5224 7912 9c20 bc51 5d1d
00000020: c959 3624 a9ae 66a4 7b17 3522 d2d2 b521
00000030: 2521 6124 07ec 4524 35e7 3e24 c765 6024
00000040: 5432 6f24 f07c 2724 191d 1519 8ce7 3124
00000050: 7c96 6124 ee95 d520 8b7d 4824 64b1 0e22
00000060: 6ed7 c91e 524e 31a4 26c9 5d22 49a1 7424
00000070: 5090 a320 1547 5d24 fc70 591f febe 4024
00000080: adcf 2320 48bf ad20 1e7c 6ea0 6027 1021
00000090: c880 5b24 5ed6 8121 d2b1 5624 23f2 4e24
000000a0: 0b2f 6124 46d9 4a24 4e51 0120 5c0e d121
000000b0: fb26 5719 2a73 4824 3b6e 5124 0643 a2a2
000000c0: fb7b 3924 27dc 0b24 574b 6124 bcbf f223
000000d0: cc45 fb20 6520 7da3 574e 961c 3dbe 4724
000000e0: 4d79 3e24 11a5 4e24 c651 4624 9a90 2e24
000000f0: bfcd 5424 2266 14a3 f1d4 3a24 ddd5 5824
00000100: d210 601f 032d 22a3 e8fc 7a21 66ed 5424
00000110: 1852 aa21 aa36 6d24 0bf9 7720 baf3 4124
00000120: f0d4 9ca0 8e0f 4e24 1d4c 5424 2460 1ba4
00000130: 216a 4124 d159 3a22 075b 3a24 6ba9 3122
00000140: d9d2 d81d 53e2 8721 0686 81a3 5fef 1ba4
00000150: 30a6 5a24 86f4 4f24 5f59 7f1e a588 4a24
00000160: 0bf5 3918 93ba 3724 16f0 1420 d135 3524
00000170: 9546 4924 ef0f 941c a656 c014 5133 cca3
00000180: 1164 6fa0 7fca 3d1f cc4b 9321 8919 4824
00000190: 4d76 4624 8023 1122 2a5f 6224 3c06 6124
000001a0: a0f3 1322 e636 5a24 6cae e5a2 14a2 bea2
000001b0: bd6e d321 cac5 5824 fea1 5e24 1ed8 1624
000001c0: f94e d21f 0a5a be20 1398 5824 ab73 6f24
000001d0: 3004 9219 5ec9 3e24 1976 4024 4e4f 0814
000001e0: 94ec 5a96 a85d 0895 9bfe 2e24 c713 c521
000001f0: eeee 02a4 23c5 0aa0 648d f11f 2bcd bca2
4.9475926e-17 4.0570526e-17 -1.4700993e-18 -4.015764e-17 5.382428e-17 4.557809e-17 2.6439652e-19 2.9291362e-21
3.954101e-17 -5.0021243e-17 2.4542505e-18 1.2320841e-18 4.8817172e-17 4.291749e-17 4.1395523e-17 4.8658466e-17
5.1867493e-17 3.631818e-17 7.708996e-24 3.8576885e-17 4.8916563e-17 3.6182819e-19 4.3474426e-17 1.9338498e-18
2.1370802e-20 -3.8447097e-17 3.0057572e-18 5.304568e-17 2.7708772e-19 4.7981945e-17 4.6044996e-20 4.179514e-17
1.3875351e-19 2.943392e-19 -2.0200451e-19 4.884121e-19 4.7597137e-17 8.798123e-19 4.6554473e-17 4.4874227e-17
4.8828945e-17 4.3985806e-17 1.0953626e-19 1.4166192e-18 1.11231115e-23 4.3465635e-17 4.541302e-17 -4.398115e-18
4.0220496e-17 3.0327297e-17 4.8852913e-17 2.6318895e-17 4.2567242e-19 -1.3722017e-17 9.946418e-22 4.3312385e-17
4.1302428e-17 4.4808946e-17 4.300367e-17 3.7852718e-17 4.6144446e-17 -8.0447235e-18 4.051269e-17 4.7018683e-17
4.744776e-20 -8.791569e-18 8.5038013e-19 4.6171256e-17 1.1541378e-18 5.1437485e-17 2.1004115e-19 4.2056648e-17
-2.6568338e-19 4.4682305e-17 4.6034643e-17 -3.36917e-17 4.19401e-17 2.5255249e-18 4.0409424e-17 2.4077662e-18
5.7392735e-21 9.207863e-19 -1.4042969e-17 -3.3813023e-17 4.741198e-17 4.509309e-17 1.3518069e-20 4.391751e-17
2.4034405e-24 3.9839834e-17 1.2615525e-19 3.9293703e-17 4.3644713e-17 9.797937e-22 1.9421222e-26 -2.2139458e-17
-2.0277197e-19 4.0189808e-20 9.981171e-19 4.3389716e-17 4.303461e-17 1.9669958e-18 4.9086545e-17 4.879438e-17
2.0051189e-18 4.7317716e-17 -6.225525e-18 -5.167121e-18 1.4327228e-18 4.7005068e-17 4.827579e-17 3.2709124e-17
8.906911e-20 3.2246835e-19 4.6966346e-17 5.192284e-17 1.5097737e-23 4.1370247e-17 4.1733396e-17 6.8818854e-27
-1.7684551e-25 -2.7538863e-26 3.7945895e-17 1.3354474e-18 -2.8391638e-17 -1.1754282e-19 1.0230138e-19 -5.1174732e-18

exp_avg_sq f4 [128]
00000000: 3a7d a538 cf15 5938 22ad 8833 bdb5 3138
00000010: a458 cb38 09f5 8c38 44fa 1c36 2d4d d42b
00000020: d3f9 4b38 8ceb 8938 949d 3734 1232 8c35
00000030: bd5e a338 25ba 7438 f05c 6238 e436 a038
00000040: 2a52 ba38 8085 2c38 cfc4 e921 c169 4138
00000050: 8686 a338 4ccf bb36 9454 7c38 0980 3d36
00000060: bc49 542d ae4b 2338 e9b5 7f34 2e64 c338
00000070: 85a4 3636 e6c2 9c38 ed35 f32e 8378 6938
00000080: ec3e 1030 b184 0532 505c c834 58bb 2e36
00000090: 582a 9d38 422f af32 a2e4 9038 fbf3 8438
000000a0: 8d74 a238 87b4 8138 d974 b12f 4913 8d34
000000b0: 9a5a 6d26 192d 7c38 b3a0 8b38 7308 0a35
000000c0: a979 5238 b05c df37 dcc1 a338 0a81 a237
000000d0: b0ee 7336 d213 a636 82ae 5729 26f7 7a38
000000e0: 449a 5f38 2b56 8638 2781 7438 756a 3d38
000000f0: aeb8 8e38 4c9e ed35 c826 5838 e49c 9538
00000100: c8a4 842e 7659 0836 0fb6 8237 d925 9138
00000110: 8158 a233 adfe b738 e87c a730 bba1 6b38
00000120: 0db4 9435 a978 8538 d1b7 8d38 1180 fa37
00000130: b108 6c38 883f 5034 8372 5638 73d3 7834
00000140: 1903 032c fce2 0633 8421 ae36 26c2 fb37
00000150: 1bf0 9738 6899 8838 1f55 0a2e 4102 8038
00000160: 1643 8820 d0cb 4e38 2e88 fa2f fc8d 5638
00000170: f227 7f38 8725 4629 a872 e319 160a 5837
00000180: 9150 0136 5ee3 532e c8ea 1636 a712 7b38
00000190: 1a58 7938 27ed dd33 94e9 a538 c4f3 a338
000001a0: 3766 e933 f485 9738 0985 8935 6ed6 4435
000001b0: 5bbb 6c33 192a 9638 92d6 9e38 716a 0538
000001c0: bcd1 d232 571f c536 921e 9638 c3c0 b938
000001d0: 56af 2f24 77ef 6038 4dea 6838 6079 461a
000001e0: 4bbb 9b1f 188b 491a 5ae5 3e38 9a52 5a37
000001f0: 5b96 b137 0014 0136 0c8a f02f 9fe4 3a35
7.8911384e-05 5.1757143e-05 6.364486e-08 4.2369345e-05 9.696305e-05 6.7213616e-05 2.3391485e-06 1.5084927e-12
4.863164e-05 6.576543e-05 1.710053e-07 1.0445385e-06 7.790092e-05 5.8347494e-05 5.3969154e-05 7.639619e-05
8.8844754e-05 4.1132327e-05 1.5840789e-18 4.6113277e-05 7.7975026e-05 5.597167e-06 6.016025e-05 2.823772e-06
1.2067177e-11 3.893271e-05 2.3814904e-07 9.3169845e-05 2.7215876e-06 7.474962e-05 1.105994e-10 5.5663764e-05
5.247631e-10 7.771789e-09 3.732007e-07 2.603707e-06 7.4942305e-05 2.0394172e-08 6.909041e-05 6.3396954e-05
7.746471e-05 6.184825e-05 3.2279138e-10 2.6277328e-07 8.234868e-16 6.0123482e-05 6.657969e-05 5.14213e-07
5.0181206e-05 2.6626833e-05 7.808555e-05 1.9371993e-05 3.6348756e-06 4.949493e-06 4.789095e-14 5.983482e-05
5.3311014e-05 6.405668e-05 5.8294416e-05 4.5160257e-05 6.805487e-05 1.7703946e-06 5.153453e-05 7.134097e-05
6.031936e-11 2.0317652e-06 1.5581985e-05 6.9211885e-05 7.5598116e-08 8.773557e-05 1.218635e-09 5.617899e-05
1.1079261e-06 6.364409e-05 6.7576424e-05 2.9861958e-05 5.627488e-05 1.9394622e-07 5.1128223e-05 2.3173725e-07
1.861794e-12 3.1405747e-08 5.189506e-06 3.0011939e-05 7.244964e-05 6.5135595e-05 3.145317e-11 6.1039354e-05
2.308369e-19 4.9304042e-05 4.5571497e-10 5.115381e-05 6.083394e-05 4.399738e-14 2.3517559e-23 1.2876952e-05
1.9269394e-06 4.8177788e-11 2.2488402e-06 5.9860435e-05 5.9448277e-05 1.0334252e-07 7.9113204e-05 7.8178506e-05
1.0868501e-07 7.225192e-05 1.0246014e-06 7.3327726e-07 5.511843e-08 7.160399e-05 7.573994e-05 3.1808802e-05
2.4542594e-08 5.874706e-06 7.1582515e-05 8.857392e-05 3.809559e-17 5.362878e-05 5.553132e-05 4.1043486e-23
6.5954904e-20 4.1678185e-23 4.551313e-05 1.3013045e-05 2.1170059e-05 1.923414e-06 4.3753834e-10 6.9623087e-07
