results/SliderBehavior/SliderBehavior/SliderBehavior-613.pt (torch, 445402 bytes, 33 tensors)

network_body._body_endoder.seq_layers.0.weight f4 [128, 6]
000000 07 e3 45 3f be 3e de be 99 03 60 3e 2c bd 1a bf
       0.7729954 -0.43407243 0.21876372 -0.60444903
000010 fc c8 b0 bd c6 58 33 3d e9 ed 45 3d a3 f9 ee 3e
       -0.08632085 0.043785833 0.048322592 0.46674833
000020 3c 55 2b 3f 95 68 98 be e8 4a 9c bd 21 98 8a be
       0.6692693 -0.2976729 -0.07631475 -0.2706919
000030 a9 1d 8b be a5 b6 f6 be 85 20 ff be 4e 9c e7 3e
       -0.27171066 -0.48186222 -0.49829498 0.4523644
000040 8f ad 60 3e e7 69 cc bd 2f b4 fd 3e 45 cc 13 3f
       0.21941207 -0.09981137 0.49551532 0.57733566
000050 37 cd 9c 3e 33 8e 03 3d 94 26 5b 3e 53 74 39 bd
       0.30625317 0.032118034 0.21401435 -0.04527695
000060 6a ab f0 3e 4a 7f 57 3e ac b7 b0 be 57 9d c3 3e
       0.4700578 0.2104465 -0.3451513 0.38205978
000070 e7 26 20 bd ba 65 c8 3e 22 8c 7d 3f fc 53 02 3f
       -0.0390996 0.3914011 0.9904195 0.509094
000080 91 ac dc 3e 6e 05 02 bf 8b bd 9d be d5 5c ab 3d
       0.43100408 -0.50789535 -0.30808672 0.08367316
000090 cc b9 a3 be 93 86 7c bd cc 88 e8 be 74 58 4f 3e
       -0.3197769 -0.061651777 -0.45416868 0.20248586
0000a0 b9 3c a6 be a3 4c a0 3e e9 98 8d 3c 0c 10 9c 3e
       -0.32468203 0.3130847 0.017284827 0.30480993
0000b0 1d d7 75 bd de a5 dd be f6 6a 5f bd 52 a8 d8 3c
       -0.0600196 -0.4329061 -0.054545365 0.026447449
0000c0 9f 7f 68 be e6 48 32 be 56 14 fb be 43 2e 0b bf
       -0.22704934 -0.17410621 -0.49038953 -0.54367465
0000d0 db 95 9b 3d 23 93 1d bf bd 5a 6d be d9 73 6b 3f
       0.07596942 -0.6155264 -0.23179145 0.91973644
0000e0 57 54 46 3f 69 1a 49 bd 8b 93 90 bd 9b 0f 8e 3e
       0.7747244 -0.049097452 -0.070593916 0.2774628
0000f0 84 4b 14 3f bb 42 5d bf bd 4a bf be 4b 3f af 3e
       0.5792773 -0.8642995 -0.37361708 0.34227976
000100 6f 7b 46 3d 25 5c 8a be 98 f4 80 be 68 57 92 3d
       0.04845756 -0.27023426 -0.2518661 0.07145578
000110 e4 4c 52 3e b6 1a 26 bf 97 00 17 3e 29 25 53 bd
       0.20537144 -0.6488451 0.14746319 -0.05154911
000120 6c dc 31 3e 34 8e 91 be a1 04 47 be 39 0b 6f 3c
       0.1736924 -0.28428805 -0.1943536 0.014590078
000130 61 7a 82 be 58 c7 f7 be 06 57 c9 be 03 13 cf 3e
       -0.25483993 -0.48394275 -0.39324206 0.40444192
000140 c1 7f b4 bd b2 5b 0b 3f 35 ad e3 3e 2d f4 84 3e
       -0.088134296 0.5443679 0.44468084 0.2596754
000150 f2 5e e9 3e 25 28 a4 3d 87 da 24 3f 5a d3 37 3d
       0.4558025 0.080154695 0.64395946 0.044879295
000160 d9 97 b7 3e 6e 7f 72 3e 31 d7 05 3f c6 5c 60 be
       0.35858038 0.23681423 0.5228148 -0.2191039
000170 2e e1 e4 3e 93 4f ef be 34 88 44 3e 6d bb 02 3f
       0.44703048 -0.46740398 0.19192582 0.5106724
000180 c8 38 39 be 8a 8f aa 3e b3 78 b4 3e af c2 37 3e
       -0.18088067 0.33312637 0.35248336 0.1794536
000190 e2 3b 1b bf 4e e6 cc be 99 36 16 be 81 dc fc 3e
       -0.6063825 -0.4001946 -0.14669265 0.4938698
0001a0 41 5d 30 be f3 c7 df be d7 ef 49 3f ba 22 44 3e
       -0.17223074 -0.43707237 0.7888159 0.19153872
0001b0 8a be c1 be 69 68 a0 3e cd 46 90 be 71 f3 05 be
       -0.37840682 0.3132966 -0.28179017 -0.13081147
0001c0 84 84 95 3e 72 63 14 3f ce 48 cf 3e 20 11 4a 3e
       0.29202664 0.5796424 0.40485233 0.19733095
0001d0 08 ef 2b be 76 23 1b bf 00 fe 38 3e 90 ea 5e be
       -0.16790402 -0.60600984 0.18065643 -0.21769166
0001e0 72 b6 21 3e 9a 6b f8 bd 0d d6 12 bf 75 18 14 3e
       0.15792254 -0.12129898 -0.57357866 0.14462455
0001f0 41 9d dc 3e 95 96 71 bd ee ec 03 be d8 ab e8 3d
       0.43088725 -0.058981497 -0.1288335 0.113609016
000200 84 21 41 bf d4 de 53 3d 2b 62 03 3f c3 03 1a 3f
       -0.75441766 0.051726177 0.5132167 0.6016199
000210 7b d6 23 3e f2 36 39 3e ad 01 86 3f f9 5d 7a be
       0.15999787 0.18087366 1.0469261 -0.2444991
000220 55 39 b5 be 61 c9 65 be a7 29 ff bd 81 6d 49 bd
       -0.35395303 -0.22440101 -0.124591164 -0.049176697
000230 12 94 38 3f 4d ac 00 3f 97 32 cf 3e d5 d9 99 be
       0.7210094 0.5026291 0.40468284 -0.30049005
000240 5e ab 39 be 39 41 0e bf 68 27 b0 bd db 45 89 3e
       -0.18131778 -0.5556827 -0.08601266 0.26811108
000250 76 6c 14 be 7b 17 60 3e b8 79 41 be ec e9 9d 3e
       -0.144945 0.21883957 -0.18894088 0.3084253
000260 9c 03 b5 be 13 47 3d 3e 0b 0c a9 3f a9 78 43 3f
       -0.35354316 0.18484144 1.32068 0.7635599
000270 3c ec 78 3e d0 7e b1 be 0c 4d 8d 3c a6 d8 6c be
       0.24308866 -0.34667063 0.017248653 -0.2312952
000280 37 16 aa bc 7b 86 56 3e ef 4e bf be b8 a1 93 3c
       -0.020762546 0.20949738 -0.3736491 0.01802145
000290 b8 c8 c7 3d 52 ed 05 3e e1 ab 48 3f 7a 73 eb 3e
       0.09755081 0.13078812 0.78387266 0.4598654
0002a0 de fd a8 be 9c 50 aa 3d b7 fb b1 3b ac 1a 51 bf
       -0.33006185 0.08316156 0.005431618 -0.81681323
0002b0 83 21 90 bd 7f 2c fa 3e af 74 7c 3e 6f 16 c6 be
       -0.07037642 0.48862073 0.24653886 -0.3868899
0002c0 18 f0 0b bf 66 d9 cf be 59 6a c7 38 e4 9a ed be
       -0.5466323 -0.4059555 9.508868e-05 -0.46407235
0002d0 69 cd f9 3e f1 58 29 3e dd 84 ab bc 9d 48 04 bf
       0.48789528 0.16537835 -0.020937378 -0.516733
0002e0 37 a6 23 bf f4 08 18 bc 4f 43 3b 3d 6e 6b e9 3a
       -0.639255 -0.009279478 0.045718487 0.0017808506
0002f0 ac 15 e3 be 3e e2 f5 bd 76 ff d1 3c 12 cf bf be
       -0.44352472 -0.12006043 0.025634509 -0.3746267
000300 88 b2 32 3f 9b a8 bd be 9b df 54 be 32 b5 26 be
       0.6980367 -0.37042698 -0.20788424 -0.16280058
000310 70 03 c7 3e 0d 94 83 3e 2f a9 ad be 21 10 99 3e
       0.3886981 0.2569889 -0.3391814 0.29895118
000320 d4 17 de 3e d2 bb 8d 3d 81 7d 53 be 90 3b 34 bd
       0.43377554 0.069205895 -0.20653345 -0.044002116
000330 8e dc 8a be 62 8b cd 3d 88 11 02 3f 94 0b 8b 3c
       -0.27121395 0.10036351 0.50808 0.016973294
000340 ac 34 f8 3d 3f 2a e4 be 43 a0 d3 3c 47 a5 9f 3d
       0.12119421 -0.4456348 0.025833255 0.07795196
000350 ae e7 03 bf a3 a9 96 3d 1e 26 60 bf c3 d6 52 3e
       -0.5152539 0.073565744 -0.8755816 0.20589738
000360 2e 90 b9 3c 97 03 1e bc 5f ca 81 be 54 4a ee 3e
       0.022651758 -0.009644411 -0.2534971 0.46541083
000370 7b 98 3a be 5f 19 8b 3c 9c 3f 31 bf 90 c1 74 3e
       -0.18222229 0.016979871 -0.69237685 0.23901963
000380 8d fc b9 3e 66 35 76 bf bc ff e3 3e 1d 69 b5 3e
       0.36325493 -0.9617523 0.44531047 0.35431758
000390 2d f2 19 be ce 9d 05 bf dd 3d 5b be b9 16 7e bd
       -0.15033789 -0.52193916 -0.21410318 -0.06203339
0003a0 cc 23 6d 3f c5 48 8c 3e e2 9e c1 3e d9 cc 87 3e
       0.92632747 0.2739927 0.3781653 0.26523474
0003b0 7b c1 c1 be e7 aa ce 3e df 41 26 bf ca e3 46 be
       -0.37842926 0.40364763 -0.6494426 -0.19422832
0003c0 df 00 f3 be 41 c6 09 3f 90 f6 81 be 0c 89 4b 3d
       -0.47461602 0.53818136 -0.25383425 0.049691245
0003d0 8d 1b 12 bf e9 a5 58 3d 08 2d c4 be 51 d3 e5 bd
       -0.5707329 0.0528926 -0.38315606 -0.11221946
0003e0 14 30 9b be e9 70 0a 3f 4e d9 27 bf 1d 82 61 3f
       -0.30310118 0.5407854 -0.65565956 0.8808916
0003f0 42 11 21 3e ce 69 2f bd 5b f4 4a bf ee 23 b9 3e
       0.1572924 -0.042825513 -0.79279107 0.36160225

network_body._body_endoder.seq_layers.0.bias f4 [128]
000000 71 9d ec ba 65 59 d4 bd 74 3f 3f 3d 88 c2 10 bd
       -0.0018052292 -0.10368613 0.046691373 -0.03534177
000010 0c 51 ee bc 2b 68 b7 bd 2c 99 89 bd 1f 76 3f be
       -0.02909138 -0.08955415 -0.06718668 -0.18697403
000020 ae 01 26 be 9d 66 4c bd 45 3b 92 bd 50 92 04 be
       -0.16211578 -0.049902547 -0.07140211 -0.12946439
000030 2b fa f0 bc fb 52 b3 3c 1d e1 b0 bd 0e 62 76 bd
       -0.029416164 0.021890154 -0.08636687 -0.060152106
000040 92 a6 5e bc 40 d0 f8 3d 09 ab a2 bd df 33 2a be
       -0.013589518 0.121490955 -0.079427786 -0.1662135
000050 26 60 ac bd fb 40 26 3d 0a c3 8a bd 41 74 60 bd
       -0.08416776 0.040589314 -0.06775482 -0.05479837
000060 95 25 7c 3e 1c 0b ad bd 5d 14 98 b8 93 d4 01 be
       0.24623711 -0.084493846 -7.251718e-05 -0.12678747
000070 8b 4a f1 bd f0 dc a1 bd 3c 6d cb bd 80 31 1c be
       -0.11781796 -0.079034686 -0.09932944 -0.15253258
000080 35 1b ae bd 0e 0e 24 3e 95 c5 11 3d d0 65 09 3e
       -0.08501283 0.16020986 0.03558882 0.13417745
000090 eb a6 16 bd 6b 5b b8 bd f3 01 ae bc 45 44 d5 bc
       -0.03678028 -0.090018116 -0.021241164 -0.02603353
0000a0 f9 42 d6 bd ac ff 6c 3e a0 c6 42 bd dc ee 49 bd
       -0.10461993 0.23144406 -0.047552705 -0.04930006
0000b0 05 06 ae bc 54 59 c3 bc 4a f7 82 3d de 94 0f be
       -0.021243105 -0.023846306 0.06394823 -0.14021632
0000c0 d6 6c 8d bd 04 74 a5 bd f2 8a 70 bd 0d 23 98 bd
       -0.069055244 -0.08078769 -0.05872626 -0.074285604
0000d0 d6 30 8a 3d e3 1d 00 be f4 18 c2 bd 14 4f 3d bd
       0.06747596 -0.12511401 -0.09477416 -0.046217993
0000e0 9c 99 0b 3d 98 22 bc bc 36 b5 b9 bd d8 2d a9 bc
       0.03408204 -0.022965714 -0.09067766 -0.020651743
0000f0 9f 56 b7 bd 30 c7 cc 3b e4 1a bd 3d 57 6b 88 bd
       -0.089520685 0.006249331 0.092336446 -0.066610985
000100 56 56 dc bd d9 0c 95 bd 39 0c 1c bd 39 56 75 3d
       -0.10758655 -0.07277841 -0.038097594 0.05989668
000110 39 13 99 39 5f 69 19 be f0 62 a3 3d f6 0a fa ba
       0.00029196756 -0.14981602 0.07977855 -0.0019076753
000120 68 4e 11 be 90 9e cd bd ea 6d 0d be 5c 31 ae bd
       -0.14190066 -0.10040009 -0.1381146 -0.08505508
000130 cf b9 af bd ba 18 17 be ce dd 91 bd ab 15 65 bd
       -0.08580362 -0.14755526 -0.07122384 -0.055928867
000140 bb b7 75 bd b0 10 8a bd 7f bc d2 3d a8 40 e7 bd
       -0.059989672 -0.06741464 0.10289859 -0.11291629
000150 59 48 00 be 8c 3f c6 bd a7 4d af bd 43 68 f0 bd
       -0.12527598 -0.09680089 -0.08559733 -0.11738636
000160 a9 0c 2a be 58 f1 76 bd d3 a5 14 3e b9 c8 85 3c
       -0.16606392 -0.060288757 0.14516382 0.016331064
000170 42 d9 b2 bc 37 44 e1 bb 8d 10 7f bd 5f bd 22 be
       -0.021832112 -0.006874587 -0.062271643 -0.15892552
000180 b5 2f 7c bd 66 1f f7 bd 10 16 a7 bd 10 58 eb bc
       -0.061568934 -0.12066536 -0.08158505 -0.028728515
000190 06 6e a3 3d c7 93 ab bd 03 fd b8 bb 2a d4 30 be
       0.0797997 -0.08377796 -0.0056453957 -0.17268434
0001a0 06 90 20 be c0 13 c2 bc 55 77 64 bd 5f f6 e0 bd
       -0.1567994 -0.023691058 -0.055777866 -0.109844916
0001b0 b2 23 c5 bd 61 9c 0c 3e bf 8d 23 bd 8d fe d2 3d
       -0.09625949 0.13731529 -0.0399301 0.10302458
0001c0 d3 68 af bc 5e 05 aa bd 4b ca 0a bd 94 ac cb bd
       -0.021412289 -0.08301805 -0.033884328 -0.09945026
0001d0 94 56 9f bd ee e7 ef bd 44 e1 cb bd 53 6f e1 bd
       -0.07780185 -0.11714159 -0.099550754 -0.110075615
0001e0 b8 0a 03 3d 9d 6a c9 bd c5 54 3d b8 46 67 ba 3c
       0.031992644 -0.09834788 -4.514006e-05 0.022754323
0001f0 40 7f d5 bc 13 19 20 be ad b5 a7 bd 22 3a 5d bc
       -0.026061654 -0.15634565 -0.08188949 -0.0135026295

network_body._body_endoder.seq_layers.2.weight f4 [128, 128]
000000 0b aa 8f be 04 aa c0 bc 30 eb b3 3b 7a f9 4c be
       -0.2805942 -0.02351857 0.005490683 -0.20017043
000010 e0 18 82 be 9a e4 3d be 3b 23 07 3e 12 16 84 3d
       -0.25409603 -0.18544236 0.13197033 0.06449522
000020 ce f1 43 bd 5c 71 46 3e 2e ac d1 bd b2 88 b8 bd
       -0.047838025 0.1937918 -0.10237919 -0.090104476
000030 ee 80 b8 3d 1d b8 1b be db 4d 98 3d b6 9f 4c be
       0.090089664 -0.15206952 0.07436725 -0.199828
000040 ea 16 ea 3d a8 22 ae bd 04 53 18 3e 14 f4 84 3d
       0.11430152 -0.08502704 0.14875418 0.06491867
000050 12 78 35 be fb ad 10 3d 0a a8 c2 3d 27 4f 13 be
       -0.17721584 0.03532217 0.09504707 -0.14385663
000060 a5 5d cc bd 7c bf 41 3d e8 b7 dd bd 20 a6 01 3e
       -0.09978799 0.047301754 -0.10826093 0.12661028
000070 85 90 70 3d 60 07 51 3e 6c c7 ab 3d 23 39 3a 3e
       0.058731575 0.2041297 0.08387646 0.18185858
000080 81 01 0e be 7c ac f2 3d 32 7e 4b 3e e5 ca a8 3d
       -0.13867761 0.11849305 0.19872358 0.08241824
000090 3a fc 36 be e0 7c 70 3e df c6 de bc 54 cd 23 3e
       -0.17869654 0.23485136 -0.027194439 0.15996295
0000a0 6b be f7 3c 7d b8 a6 3d e7 63 ad bd 1d cc d0 bc
       0.030242166 0.08140657 -0.084663205 -0.025487954
0000b0 18 69 ca 3d 01 e5 07 be b9 58 06 bd d4 27 a2 bd
       0.09883326 -0.13270952 -0.032799456 -0.07917753
0000c0 a5 59 34 3e a1 72 cc 3d 0b 71 05 bd e6 11 27 be
       0.17612322 0.09982801 -0.03257851 -0.16315421
0000d0 7f e6 62 be 03 be 3d 3e af 4b d9 bc 16 c7 b1 3c
       -0.2215824 0.18529515 -0.026525347 0.021701377
0000e0 68 e4 68 be a2 c0 a7 bd 30 d8 1f 3e 5c 65 b5 3d
       -0.2274338 -0.08191039 0.15609813 0.088572234
0000f0 f1 a6 4f be 0a f7 e1 bc 81 f9 77 3d ab 17 5e be
       -0.20278527 -0.027583618 0.06054068 -0.21688716
000100 e4 02 11 bd 31 29 2a 3e 58 77 0d bd 94 de 59 3d
       -0.035403147 0.16617276 -0.034537643 0.053190783
000110 d6 1a 1c bd 4a b1 a3 be c8 f5 e1 bd 62 0e 43 bd
       -0.03811153 -0.31971198 -0.11033207 -0.04762114
000120 e6 ca 5a 3d b3 c3 f0 bd ee da 1f 3e 59 8b 46 3e
       0.053416155 -0.11756077 0.15610859 0.19389094
000130 f8 4f 58 bd 4e 4b 97 bb d7 82 c4 bc c2 a2 52 3e
       -0.05281064 -0.0046171313 -0.02398817 0.205699
000140 35 88 c4 bd dc 49 6b be 40 4d 84 be bd d1 77 3d
       -0.09596292 -0.22977394 -0.25840187 0.060502756
000150 9b 80 07 bc cd 1a ea 3d db 0e 7b 3e a5 84 60 3c
       -0.008270408 0.11430893 0.24517386 0.0137035
000160 4a 8d a6 3d db d3 68 3e c6 57 54 be f6 86 c2 3d
       0.081324175 0.22737066 -0.20736608 0.09498398
000170 4c d5 b2 3d df b2 3b be 12 e4 06 bc 24 7c ff 3d
       0.087320894 -0.18329953 -0.008233087 0.1247485
000180 11 03 18 3e 57 e0 2e bc fc 9a 62 be 3c 60 0a bc
       0.1484492 -0.010673604 -0.22129434 -0.008445796
000190 6e e0 c1 bd bd cf 0b 3e c8 7f 7c bd 54 6c 41 3e
       -0.09466635 0.13653465 -0.0616453 0.1888898
0001a0 71 b5 bd 3d 06 cb 34 3e 36 26 0b be ba 53 1e 3e
       0.09263123 0.17655572 -0.13588795 0.15461627
0001b0 04 39 3c be a8 93 f8 bd 81 fb 09 be c5 41 51 3d
       -0.18381125 -0.12137538 -0.13474847 0.051088113
0001c0 35 aa 94 3d 20 bc 43 be 16 43 0c bd 7f 5b 1d be
       0.07259027 -0.19114733 -0.034243666 -0.15366934
0001d0 40 1a c3 3d 90 3c 44 3d 74 8f 81 3c 2a ce 69 3e
       0.09526491 0.04790932 0.015815474 0.22832552
0001e0 86 17 27 3e 73 ff 03 3e 06 ed 76 3e 96 fd 35 3e
       0.16317567 0.12890415 0.24113855 0.17772517
0001f0 31 8e fa 3d b0 ab 5e 3e a9 92 1b be 1a f2 9c 3b
       0.12234152 0.21745181 -0.15192665 0.004789603
000200 a6 e7 8c be f1 53 4e 3e 18 82 bd 3d 71 0e a0 bd
       -0.27520484 0.20149209 0.09253329 -0.078152545
000210 1a 31 ac 3d c8 38 fa bd 92 9c 12 3e d2 ba 3c 3e
       0.08407803 -0.122178614 0.1431754 0.18430641
000220 52 99 fd 3d 9d fc 06 3e 9e f4 23 bd f4 ea 8f 3d
       0.12382759 0.13182302 -0.040028207 0.070272356
000230 15 ef 7d 3d 8a ea 24 be 5c c2 68 be 18 b0 12 3d
       0.061995585 -0.16105095 -0.22730392 0.035812467
000240 16 64 c9 3d f3 a3 b1 bd df 25 07 3e 47 dd 48 3d
       0.09833543 -0.08673849 0.1319804 0.04903915
000250 27 97 0e be 79 53 be bd af 80 8e bd 73 6d 1a be
       -0.13924848 -0.09293265 -0.06958138 -0.15080814
000260 41 06 22 be 74 9b 36 be ad ed 38 be f1 43 8a 3d
       -0.15822698 -0.17832738 -0.18059416 0.0675124
000270 92 b3 ba 3b 3b 16 dd bc 89 07 44 3d 67 a6 fd 3c
       0.005697676 -0.02698814 0.04785875 0.030963136
000280 2a 8b a1 bd 00 95 62 bd a1 d8 77 3e 3d 62 f5 3d
       -0.078878716 -0.05531788 0.24203731 0.11981628
000290 78 bf 5a be ae 80 ed 3d d1 9a c8 3d 75 28 ff bd
       -0.21362102 0.11596809 0.09795154 -0.124588884
0002a0 b5 59 7b 3e 01 93 f6 3d f9 1a 03 be ff 30 80 bd
       0.2454594 0.120397575 -0.12803258 -0.06259345
0002b0 59 f2 e5 bd 25 6d 86 be 1d e4 8f bd 2c ef 22 3e
       -0.11227865 -0.26255146 -0.07025931 0.1591155
0002c0 03 55 f7 3d ee 24 b3 3e 86 a1 34 3d 52 d0 f2 bc
       0.120767616 0.34989113 0.044099353 -0.02964035
0002d0 be 7a d4 3c d0 bd 39 3d ab 46 0f be e6 26 bc bd
       0.025937434 0.045347035 -0.13991801 -0.09187107
0002e0 36 28 98 be 3c e0 04 be f5 94 5a 3e 5d c0 41 3e
       -0.2971818 -0.12976164 0.21345885 0.18921037
0002f0 c1 df ac bc 49 88 c4 bd 6a 47 57 3d b6 1f 5d be
       -0.021102788 -0.09596307 0.05255834 -0.21594128
000300 89 36 37 be 04 f7 8e 3e a9 4b 13 be 44 88 09 3e
       -0.17891897 0.27922833 -0.14384331 0.13430887
000310 6e eb f6 bd 43 aa 2e be a8 e0 3b be 29 68 c4 bd
       -0.120566234 -0.17057137 -0.18347418 -0.095901795
000320 fd fd 67 3e a2 37 06 be 90 0a ac 3d 95 75 1f 3e
       0.22655483 -0.1310716 0.08400452 0.15572198
000330 fc 86 06 be 13 82 00 3d 85 bb d1 bd 1d 59 98 3d
       -0.1313743 0.03137405 -0.10240845 0.07438872
000340 52 ee 1e be d9 99 51 be 4c 5a 9b be 8d 75 05 bd
       -0.155206 -0.20468844 -0.3034233 -0.03258281
000350 14 75 5c 3c 1c 66 85 3e 1d f0 9d 3c 04 3a a1 3d
       0.013455648 0.26054466 0.019279534 0.07872394
000360 06 30 8a 3c 50 88 52 3e 42 31 67 be b9 81 fe 3d
       0.016868602 0.20559812 -0.22577384 0.124270864
000370 55 3c 11 3e 24 6e 14 be 98 16 a6 bd 5f 69 ca 3d
       0.14183171 -0.1449514 -0.08109778 0.09883379
000380 03 76 9d 3d 10 f8 f4 3d 45 01 f7 bd 33 de 81 be
       0.076885246 0.11961377 -0.12060789 -0.25364837
000390 fd 3b 86 be 64 be fc 3d 2e fb b9 bc 32 ad f9 3c
       -0.26217642 0.12341002 -0.02270278 0.030478094
0003a0 3d 69 33 3e 86 45 2d 3e be 7a e3 bd f6 e9 7e 3d
       0.17520614 0.16921052 -0.111073956 0.06223484
0003b0 b9 10 56 bd 62 1d 92 be f5 c8 83 bd a5 e4 74 3c
       -0.05226204 -0.28538042 -0.06434814 0.014947091
0003c0 a9 2c 93 bd 4c e4 c2 bb fb e1 39 be 6a 9a cf bd
       -0.071862526 -0.0059476253 -0.18152611 -0.10136874
0003d0 17 ed ab 3c 9d 16 7b 3d dd b3 0a 3e f3 de 02 3d
       0.020987077 0.061300863 0.13545175 0.031950902
0003e0 28 a7 2e 3d 36 77 b2 3d 39 ab ba bc 64 e6 0e 3e
       0.04263988 0.08714144 -0.022786723 0.13955075
0003f0 10 8b 12 be 79 d5 08 3e b1 d4 56 3d 52 0a d7 3c
       -0.1431086 0.13362683 0.052448932 0.026250038

network_body._body_endoder.seq_layers.2.bias f4 [128]
000000 91 30 00 3e bb 71 f8 3d cb 8a e0 bc 85 4c 8c bc
       0.12518527 0.12131067 -0.027409932 -0.017126331
000010 a5 af d2 bc aa 0a f9 bc d4 2a 3a bd e3 00 e3 bc
       -0.02571852 -0.030400593 -0.045451 -0.027710384
000020 1f ed ec bc 51 63 fe bc c3 20 2f 3d e3 6a aa bc
       -0.028921662 -0.031053217 0.042755853 -0.02080292
000030 5e 6d 43 3d 6e 4e a5 bc 2a d5 7b bd 7e e6 0d bd
       0.047711723 -0.020179 -0.061482586 -0.034643643
000040 e7 c4 b9 bc c1 51 80 bc e3 3b 82 bc e4 6b b9 bc
       -0.022676898 -0.015663983 -0.015897697 -0.022634454
000050 69 e7 2e 3d f0 02 95 bd a8 8e 29 3d 73 e5 d7 bc
       0.04270116 -0.07275951 0.041395813 -0.026354527
000060 1f 8e 8a bc f9 b7 b7 bb 2b fe a6 bc 2b fe 66 bc
       -0.016913472 -0.005606648 -0.020384869 -0.014098684
000070 80 2f eb bc 39 e7 ab bc 09 03 4a bd 1f 62 13 3d
       -0.028709173 -0.020984279 -0.0493193 0.035982247
000080 73 49 71 bc 87 87 00 bd 99 01 01 bd 0a 49 84 bc
       -0.014726984 -0.03137925 -0.031495664 -0.016148109
000090 55 cf a7 bc b5 72 e2 bc e3 18 c0 bc 24 5b 0a bd
       -0.020484606 -0.027642587 -0.023449367 -0.033778325
0000a0 c8 08 dd bc b4 6c cf bb 74 b8 8a bc 04 b1 2f bd
       -0.026981726 -0.006330097 -0.016933657 -0.042893425
0000b0 43 25 a2 bc a4 f5 f0 bc 4e 9f 53 bc b8 f0 2a bd
       -0.019793158 -0.029414006 -0.012916399 -0.041733474
0000c0 c8 68 fa bc 27 a2 e1 bc f2 2a 81 bd 5d 33 36 3d
       -0.030567542 -0.02754314 -0.06307019 0.044482578
0000d0 29 cf 70 bc 38 9c b6 bc a9 22 32 3d 20 6a 0f bd
       -0.014697828 -0.022291288 0.043490086 -0.035013318
0000e0 05 89 c3 bc fb 7b 23 bd af 3a f8 bc 54 4f 85 3d
       -0.023869047 -0.03991316 -0.03030142 0.06509271
0000f0 a5 51 fd bc 8f 71 e9 bc 95 5e e3 bc 1c 70 e8 bc
       -0.03092272 -0.028496532 -0.027755061 -0.02837377
000100 52 8e 3d bd 46 f8 4a bd 1f d5 10 3e 33 ba 98 bd
       -0.046278305 -0.04955318 0.14143799 -0.0745739
000110 a8 12 d0 bc 4c 09 f7 bc 65 62 6b bd d8 21 81 bd
       -0.025399521 -0.0301558 -0.057466883 -0.06305283
000120 06 0f 00 bd a5 e7 76 bc 84 af 1d 3e ef ed f2 bc
       -0.031264327 -0.015069877 0.15398985 -0.029654471
000130 fe f5 85 bc f1 d8 a5 bc 35 db 20 bd f8 35 51 bd
       -0.01635265 -0.020245047 -0.039271552 -0.05107686
000140 71 76 cd bc 24 c8 5a bd ba e9 1a bd 4c a6 ea bc
       -0.025080891 -0.053413525 -0.037820555 -0.02864375
000150 ef c0 6c bd ed 39 e7 bc ea 46 ba bc 09 7b 20 bd
       -0.057801183 -0.028225863 -0.022738893 -0.039179835
000160 fc f1 8f bc 91 fb e8 bc d9 8b 9d bc 4e 89 24 bd
       -0.017571442 -0.028440269 -0.019231724 -0.040170006
000170 6a 89 20 3d b3 fe a7 bc ec 3b 93 bd 8f a5 dc bc
       0.03919355 -0.020507192 -0.071891636 -0.026934413
000180 48 a3 3f bd 08 28 e1 bc 6f 48 b5 bc 6f 6e 36 3d
       -0.046786577 -0.027484909 -0.022129266 0.04453891
000190 b4 a1 3e bd e6 b8 cb bc 2e 86 e7 bc 8a 60 fd bc
       -0.04654093 -0.02486844 -0.028262224 -0.030929822
0001a0 d0 0c b6 bc 4e 87 1d bd d4 88 05 bd 25 1e 27 bd
       -0.022222906 -0.038459115 -0.032601193 -0.040800232
0001b0 9a 3b bc bc 9d d8 e6 3d 0f 0c 8b bc e7 16 87 bc
       -0.022977639 0.112717845 -0.016973523 -0.016490413
0001c0 b4 c7 4b 3d 8c 60 29 bd 4a c2 84 bd 79 1f f7 bc
       0.049751 -0.04135184 -0.0648237 -0.030166375
0001d0 4d 93 2c 3d d7 43 1a bc e4 b8 47 bd 27 48 d4 bc
       0.042132664 -0.009415588 -0.04876031 -0.025913311
0001e0 7b 0f 51 bb d1 2d 78 bc b7 c2 cc 3d 1b 62 86 bc
       -0.0031900096 -0.015147642 0.099980764 -0.016404202
0001f0 d7 98 bd bc 54 60 95 3d 56 1a 05 bd c5 af a8 bc
       -0.023144169 0.07293764 -0.03249582 -0.020591626

action_model._continuous_distribution.mu.weight f4 [1, 128]
000000 4e 60 0e be 53 2e 07 be 49 3b 8b 3b b2 93 12 bb
       -0.13903925 -0.13201265 0.0042490107 -0.0022365865
000010 93 f0 30 ba 33 ae d8 38 cb 4b 2f bb f1 06 3e ba
       -0.00067497155 0.0001033213 -0.0026748057 -0.0007248959
000020 35 15 bb bc e4 c4 c5 3c 30 b0 ea 3c c2 2a 5c bc
       -0.02283726 0.024141736 0.028648466 -0.013437929
000030 fd 0b 42 3d dc 46 98 3c 7e 4b 17 39 36 2f d3 bc
       0.047374714 0.018588476 0.00014428605 -0.025779348
000040 2b ae ca 3c 97 13 34 bc e5 be f0 ba a2 a7 a7 3a
       0.024741253 -0.010990999 -0.0018367438 0.0012791047
000050 d8 cb 8a 3d 21 f4 b4 3c 9f 86 f3 3c 28 be 86 3b
       0.06777161 0.022089066 0.029727278 0.004112024
000060 bb 70 66 3b f0 86 21 bd 2f 6c 1b 3c 44 6f cc 3a
       0.0035162407 -0.039435327 0.009486242 0.0015597125
000070 d1 d6 be 3b e6 92 c2 3b be 05 01 bd 36 9e fb 3c
       0.005823948 0.005937922 -0.031499617 0.03071509
000080 c9 14 47 3b ae a5 d9 3c 3d a1 c5 3c 7a 08 1f bc
       0.003037738 0.02656826 0.024124736 -0.009706611
000090 f8 70 0c 3c 2a e4 7c bb d5 78 cb 3c 45 9d 9b 3c
       0.008571856 -0.0038588145 0.02483789 0.01899589
0000a0 46 31 5d 3c c2 b2 04 3d 6f 66 b8 bb c9 af e0 bc
       0.013500517 0.03239704 -0.0056274454 -0.02742757
0000b0 bc da 28 bd 02 d4 31 3c c9 5f d5 bc c5 d0 d8 ba
       -0.041224226 0.010853769 -0.02604665 -0.001654171
0000c0 e4 bf be 3c 0c b0 93 3b ca 13 90 3c 94 4c 3f 3d
       0.02328486 0.0045070704 0.017587561 0.04670389
0000d0 b6 d3 7f bb 8d b6 80 3c 3e 2b 1a 3d ef a6 1a bb
       -0.0039036102 0.015712047 0.037638895 -0.0023598035
0000e0 0d d1 c3 bb f5 7f db bb 69 e5 09 3d b6 2d 63 bd
       -0.0059758485 -0.0066986033 0.03366605 -0.055463515
0000f0 41 b7 c1 3c 1e d6 9a 3b 0a 46 44 3c 99 9e d9 bc
       0.023646953 0.004725232 0.011979589 -0.026564883
000100 d0 88 83 bc fa bd 3d bc b1 87 1d be 85 17 0c 3d
       -0.016056448 -0.0115809385 -0.15383793 0.034202117
000110 3e ec fd 3b d3 b5 ce 3c 02 14 93 3c 64 06 fb bb
       0.0077491095 0.025233185 0.017953876 -0.007660674
000120 9a 9a c9 3c c2 11 67 3b 3f cc 26 be 63 d7 80 3c
       0.024609853 0.0035258387 -0.16288851 0.015727704
000130 41 da de 3b ca 42 14 3d f6 0d c2 3a 81 26 2d bd
       0.0068009202 0.036196508 0.0014805186 -0.04227305
000140 63 3d 4b bc bb 2c 8d bc 06 c7 b3 bc 05 15 2c 3c
       -0.012404772 -0.017233243 -0.021945488 0.010503058
000150 9f 58 98 3c d6 30 07 3c 96 07 0f bd 11 26 e6 bc
       0.018596945 0.0082513895 -0.034919344 -0.028094323
000160 42 c6 90 3a b1 98 48 bc f0 55 ae 3c 7a d7 be bc
       0.0011045414 -0.012243436 0.021281213 -0.023296107
000170 64 57 0b bd 66 ac 1f 3d c1 8e 52 3d 1c 47 7a bb
       -0.03401889 0.03898277 0.051405672 -0.0038189357
000180 1e 9a 22 3d fe 3e 4c b6 47 3c 54 3c d9 c8 4c 3d
       0.03969776 -3.0435035e-06 0.012953824 0.04999623
000190 da 59 51 bc 4e 61 e4 bc 9b 41 11 3c 24 cc cf 3c
       -0.01277777 -0.02787843 0.008865739 0.025365897
0001a0 dc 1a 87 3c bf e4 cc bc 2c 49 94 38 9f 29 80 3b
       0.0164923 -0.025011418 7.070819e-05 0.0039112116
0001b0 6d ef dc bb 74 54 e0 bd b7 12 62 3a a7 1b 27 bb
       -0.006742409 -0.10953608 0.00086240045 -0.002549866
0001c0 c1 da 59 3d d9 0a a1 bb 19 79 5e bb 5f 18 a5 3c
       0.053187136 -0.004914623 -0.0033946692 0.020153223
0001d0 18 73 19 3d eb 0f 9f bc 9c c7 51 bd 97 ca b3 bb
       0.037463278 -0.01941677 -0.051215753 -0.005486797
0001e0 13 fc 17 bb 9d 56 86 ba d2 94 05 be 1f a2 c1 3b
       -0.002319102 -0.0010249201 -0.13045052 0.005909219
0001f0 a3 44 d2 3c f4 ec bb bd 4a 2f 3f bd 9c 68 be 3a
       0.025667494 -0.091760546 -0.046675958 0.0014527026

action_model._discrete_distribution.branches.0.weight f4 [1, 128]
000000 a1 d4 17 ba 5e b2 0e bb c0 ff 20 bc e7 9c 4f 3c
       -0.0005791877 -0.0021773796 -0.009826601 0.012671686
000010 d3 c1 11 3c ba 01 e3 ba 1d 8d 5d bb 4f 01 95 3b
       0.008896309 -0.001731924 -0.0033806034 0.004547275
000020 7a 7b 97 3c d5 ed 56 3c 9f 31 90 3c 63 97 8e bc
       0.018491495 0.013118227 0.017601786 -0.017406171
000030 a5 aa a2 3a e7 f5 3f bc b2 0e 3f 3c 37 af 8e 3b
       0.0012410475 -0.0117163425 0.0116612185 0.0043543833
000040 fd d2 19 bb c5 79 9b 3b ba 48 af bb 85 9e 08 3b
       -0.0023471706 0.0047447407 -0.005349246 0.0020846438
000050 2e 3e 8f ba e0 9b 93 3b 4f 8d 1b ba fd d2 26 b9
       -0.0010928565 0.0045046657 -0.00059338374 -0.00015909593
000060 78 36 ee 3b 59 93 15 bb 02 f9 3d 3c 26 60 bb 3c
       0.007269677 -0.0022823422 0.011595013 0.022872996
000070 be 69 b1 3b 6c 40 44 3b 90 27 40 3b 70 af e2 ba
       0.005414217 0.0029945625 0.0029320456 -0.0017294716
000080 91 33 4a 3a 0f 20 44 3c be 43 81 bb d9 66 88 bb
       0.00077133725 0.011970534 -0.003944843 -0.004162651
000090 52 fb 6e bb 4b 72 11 3b f1 d5 22 bc 7a 17 a5 3c
       -0.0036465717 0.0022193368 -0.009938703 0.020152796
0000a0 e0 2e e9 3b f7 d9 7f 3b bb d6 13 3b e3 8e d2 bb
       0.0071161836 0.003903983 0.002255841 -0.006425725
0000b0 b5 64 69 bc 17 5a 5a bb a6 9d c3 ba 5a da 35 3c
       -0.014245202 -0.0033317858 -0.0014924302 0.011099422
0000c0 9d cf 3c bb 80 31 21 bb f3 a0 1c bc 5a 56 40 bc
       -0.002881027 -0.0024596155 -0.009559858 -0.011739338
0000d0 6a 3c 5a bc 17 ac 0b 3c 57 7f a9 b7 ba d8 7e 3c
       -0.013320068 0.008524916 -2.0205667e-05 0.015554601
0000e0 8a 39 d9 3a db 4b f0 3b e6 13 3e bc e8 83 d6 bc
       0.0016572934 0.0073332614 -0.011601424 -0.026185945
0000f0 a1 8f a3 bb 53 3a 54 bc 10 00 20 b8 8b dd a6 38
       -0.004991487 -0.012953359 -3.814703e-05 7.9567624e-05
000100 53 6c e6 3b 68 9e 27 3c 73 ea bb 3b 4d 15 95 bb
       0.007031956 0.010230638 0.0057347356 -0.0045496584
000110 b3 6e e9 3b 30 f1 0f 3c 35 57 ac 3b f5 38 ba 3a
       0.007123792 0.008785531 0.0052594193 0.0014207648
000120 3b 60 bb bb 80 a6 02 3b 1c a1 07 3b 52 c1 29 3c
       -0.0057182587 0.0019935668 0.0020695394 0.010361033
000130 eb 67 b2 3b 51 41 8e ba 08 03 52 3b 8b 10 2b bb
       0.005444517 -0.0010853206 0.0032045264 -0.002610239
000140 26 a5 06 3c 58 85 6e bb 57 5f 19 bb 2f 79 31 bc
       0.008218085 -0.0036395397 -0.0023402774 -0.010832115
000150 4d 63 60 bc 3b 52 c3 bb 83 9a b2 bb ce a7 8d bc
       -0.01369555 -0.0059607304 -0.005450548 -0.01729193
000160 98 2f cd 38 8c 9c 9e 3c d4 6d c2 ba d2 11 2b bc
       9.784027e-05 0.019361757 -0.0014833757 -0.01044126
000170 4c 30 b7 ba 2b 5b 28 3c 99 0b ca bb 6a bd 7a bb
       -0.0013976186 0.010275642 -0.0061659333 -0.0038259872
000180 a8 a9 36 bc b7 a6 33 3c f5 74 55 bb 33 96 af b9
       -0.011148848 0.010965041 -0.0032570933 -0.00033490508
000190 1b d2 a0 3c 9d 47 d1 bb 23 97 9d 3b 23 0e ab bb
       0.019631436 -0.006386711 0.0048092767 -0.005220191
0001a0 72 91 a0 3c e0 78 15 3c 37 de f0 bb 43 2f 37 bc
       0.019600604 0.009123057 -0.007350709 -0.011180702
0001b0 67 1b 45 bb b6 4d 20 bc 35 27 63 3c 7d 17 26 bb
       -0.0030076148 -0.009784153 0.013864328 -0.002534359
0001c0 e7 04 81 3c f3 e0 05 bc e5 cf 2f bb 6f 88 8e 3c
       0.015749408 -0.008171308 -0.0026826796 0.017399041
0001d0 b0 ea 0b bc 0d d8 69 ba eb 80 00 3b 56 02 bf bb
       -0.008539841 -0.00089204387 0.001960809 -0.005829136
0001e0 15 38 8a 3b fd 31 2e bb a9 92 84 bb 71 c7 ae 3b
       0.0042181113 -0.0026580088 -0.0040458036 0.005333834
0001f0 4a b8 50 bc 37 4a bc 3a be 42 a6 3a 93 11 2b bb
       -0.01273925 0.001436538 0.0012684686 -0.0026103004

exp_avg f4 [128, 6]
000000 34 4e 82 25 b9 a0 e6 24 00 00 00 00 93 5d b6 25
       2.2604398e-16 1.00018875e-16 0.0 3.1635376e-16
000010 1f 7d d0 24 00 00 00 00 5d 77 6b a5 7d b5 ce a4
       9.0417584e-17 0.0 -2.0423443e-16 -8.964571e-17
000020 00 00 00 00 75 ba a3 a5 6c 5f bc a4 00 00 00 00
       0.0 -2.840234e-16 -8.1693654e-17 0.0
000030 53 ff 05 a3 77 7e 6b a2 00 00 00 00 5a 7d 3a a3
       -7.2640115e-18 -3.1915389e-18 0.0 -1.01096244e-17
000040 55 65 56 a2 00 00 00 00 cc 2f b9 9d 68 55 21 9d
       -2.9056053e-18 0.0 -4.9018513e-21 -2.1352327e-21
000050 00 00 00 00 10 fd ff 9d 44 26 14 9d 00 00 00 00
       0.0 -6.77596e-21 -1.960742e-21 0.0
000060 9c 32 dd 9a 80 a4 3e 9a 00 00 00 00 15 98 17 9b
       -9.148522e-23 -3.942396e-23 0.0 -1.2539568e-22
000070 49 f5 30 9a 00 00 00 00 7b 98 89 a3 35 45 f2 a2
       -3.6594087e-23 0.0 -1.4918148e-17 -6.5667507e-18
000080 00 00 00 00 d1 c7 bf a3 2d 27 dc a2 00 00 00 00
       0.0 -2.0792887e-17 -5.96726e-18 0.0
000090 45 34 7a a5 8f ae db a4 00 00 00 00 7a ff ad a5
       -2.1701753e-16 -9.5271824e-17 0.0 -3.0183834e-16
0000a0 d2 29 c8 a4 00 00 00 00 fd 5a 3a a5 c9 9e a3 a4
       -8.680702e-17 0.0 -1.6163756e-16 -7.0958974e-17
0000b0 00 00 00 00 4d 98 81 a5 98 15 95 a4 00 00 00 00
       0.0 -2.2481136e-16 -6.465503e-17 0.0
0000c0 c7 a1 55 a5 35 8f bb a4 00 00 00 00 ae 8e 94 a5
       -1.8529617e-16 -8.1340925e-17 0.0 -2.577059e-16
0000d0 d6 e7 aa a4 00 00 00 00 42 cb 95 a5 b4 87 03 a5
       -7.411849e-17 0.0 -2.5985113e-16 -1.1408417e-16
0000e0 00 00 00 00 2f 5a d0 a5 9c ab ef a4 00 00 00 00
       0.0 -3.614336e-16 -1.03940445e-16 0.0
0000f0 6c bb c3 9e 40 d4 2b 9e 00 00 00 00 c5 19 08 9f
       -2.0723944e-20 -9.096557e-21 0.0 -2.8820436e-20
000100 ee 95 1c 9e 00 00 00 00 fc bf 00 a5 94 0b 62 a4
       -8.289576e-21 0.0 -1.1167277e-16 -4.9015745e-17
000110 00 00 00 00 8c 0b 33 a5 f2 ff 4d a4 00 00 00 00
       0.0 -1.5529687e-16 -4.4669083e-17 0.0
000120 07 a2 7c a5 d8 c1 dd a4 00 00 00 00 be a6 af a5
       -2.1912413e-16 -9.6171856e-17 0.0 -3.047065e-16
000130 3b 1b ca a4 00 00 00 00 00 47 20 9f 7e b2 87 9e
       -8.7649666e-17 0.0 -3.3940048e-20 -1.4367504e-20
000140 00 00 00 00 ea a2 58 9f d2 38 80 9e 00 00 00 00
       0.0 -4.587454e-20 -1.3576027e-20 0.0
000150 2b 56 b3 a1 d0 75 1d a1 00 00 00 00 59 6e f9 a1
       -1.215232e-18 -5.3349593e-19 0.0 -1.6902105e-18
000160 24 78 0f a1 00 00 00 00 24 3a 54 24 90 33 bb 23
       -4.860929e-19 0.0 4.601942e-17 2.0296418e-17
000170 00 00 00 00 b4 20 94 24 22 c8 a9 23 00 00 00 00
       0.0 6.424017e-17 1.8407776e-17 0.0
000180 e2 c3 73 a5 14 0d d6 a4 00 00 00 00 d4 88 a9 a5
       -2.1143258e-16 -9.282986e-17 0.0 -2.9409545e-16
000190 25 03 c3 a4 00 00 00 00 ff 8a e2 24 18 ca 47 24
       -8.4573096e-17 0.0 9.8247345e-17 4.3322427e-17
0001a0 00 00 00 00 51 18 1e 25 f8 3b 35 24 00 00 00 00
       0.0 1.3712554e-16 3.9298914e-17 0.0
0001b0 42 da 7d a5 5e dc de a4 00 00 00 00 0f 85 b0 a5
       -2.20182e-16 -9.665047e-17 0.0 -3.0621297e-16
0001c0 f1 14 cb a4 00 00 00 00 06 8d 25 a5 d1 53 91 a4
       -8.807269e-17 0.0 -1.4359249e-16 -6.3025717e-17
0001d0 00 00 00 00 99 38 66 a5 d1 70 84 a4 00 00 00 00
       0.0 -1.9968496e-16 -5.743699e-17 0.0
0001e0 16 6b 88 a3 24 84 ef a2 00 00 00 00 c5 b6 bd a3
       -1.4790502e-17 -6.492099e-18 0.0 -2.0568827e-17
0001f0 fa 44 da a2 00 00 00 00 fa a2 ca a2 ac ea 31 a2
       -5.916205e-18 0.0 -5.4924768e-18 -2.4112207e-18
000200 00 00 00 00 09 eb 0c a3 01 1c 22 a2 00 00 00 00
       0.0 -7.639186e-18 -2.196992e-18 0.0
000210 55 ac 8b a5 8b 40 f5 a4 00 00 00 00 e8 40 c2 a5
       -2.4229433e-16 -1.0636115e-16 0.0 -3.3697618e-16
000220 30 7a df a4 00 00 00 00 d1 54 7c 9f 7f 69 d9 9e
       -9.691783e-17 0.0 -5.3433234e-20 -2.3019401e-20
000230 00 00 00 00 37 e4 ac 9f 72 dd c9 9e 00 00 00 00
       0.0 -7.3222383e-20 -2.137329e-20 0.0
000240 2a e4 1f 23 ba 85 88 22 00 00 00 00 f1 8d 59 23
       8.667723e-18 3.7004462e-18 0.0 1.1793651e-17
000250 7d d3 7f 22 00 00 00 00 bc 6c 13 a0 37 72 80 9f
       3.4670905e-18 0.0 -1.2487362e-19 -5.439906e-20
000260 00 00 00 00 68 cd 4b a0 34 e1 6b 9f 00 00 00 00
       0.0 -1.7262732e-19 -4.994947e-20 0.0
000270 73 2d e8 24 83 fc 4c 24 00 00 00 00 53 2b 22 25
       1.00690956e-16 4.4449334e-17 0.0 1.4065939e-16
000280 f5 bd 39 24 00 00 00 00 9b c1 60 a5 66 47 c5 a4
       4.027638e-17 0.0 -1.9494499e-16 -8.5556085e-17
000290 00 00 00 00 81 43 9c a5 12 ce b3 a4 00 00 00 00
       0.0 -2.7107429e-16 -7.797797e-17 0.0
0002a0 29 b5 47 a5 34 52 af a4 00 00 00 00 b7 dd 8a a5
       -1.7321878e-16 -7.603341e-17 0.0 -2.4089424e-16
0002b0 25 c4 9f a4 00 00 00 00 b7 56 56 a5 8f 29 bc a4
       -6.928754e-17 0.0 -1.8590921e-16 -8.1602406e-17
0002c0 00 00 00 00 ba 09 95 a5 9a 78 ab a4 00 00 00 00
       0.0 -2.585397e-16 -7.4363736e-17 0.0
0002d0 b5 a3 c9 a4 8e 09 31 a4 00 00 00 00 e7 38 0c a5
       -8.7447185e-17 -3.838885e-17 0.0 -1.2162344e-16
0002e0 c4 4f 21 a4 00 00 00 00 56 8e 33 a5 1a 9c 9d a4
       -3.4978874e-17 0.0 -1.5574e-16 -6.835234e-17
0002f0 00 00 00 00 9d ae 79 a5 0d a5 8f a4 00 00 00 00
       0.0 -2.1656469e-16 -6.229597e-17 0.0
000300 cc 9f 46 a3 64 1f af a2 00 00 00 00 57 95 8a a3
       -1.076744e-17 -4.746708e-18 0.0 -1.5025238e-17
000310 43 e6 9e a2 00 00 00 00 5f a4 88 a5 27 f8 ef a4
       -4.3069785e-18 0.0 -2.3703621e-16 -1.04070114e-16
000320 00 00 00 00 15 10 be a5 97 a0 da a4 00 00 00 00
       0.0 -3.2970644e-16 -9.481448e-17 0.0
000330 51 4d c6 a5 48 19 2e a5 00 00 00 00 67 e5 09 a6
       -3.4399916e-16 -1.510066e-16 0.0 -4.784232e-16
000340 46 a4 1e a5 00 00 00 00 aa 70 87 a5 7b d4 ed a4
       -1.3759973e-16 0.0 -2.349511e-16 -1.0314232e-16
000350 00 00 00 00 78 5f bc a5 44 b4 d8 a4 00 00 00 00
       0.0 -3.2677493e-16 -9.398045e-17 0.0
000360 d2 01 27 a1 dd 80 90 a0 00 00 00 00 49 9e 65 a1
       -5.658421e-19 -2.4479823e-19 0.0 -7.7797707e-19
000370 12 9b 85 a0 00 00 00 00 6d 7c 81 a5 d8 5c e3 a4
       -2.2633693e-19 0.0 -2.2462247e-16 -9.860284e-17
000380 00 00 00 00 a3 15 b4 a5 80 2d cf a4 00 00 00 00
       0.0 -3.1239684e-16 -8.984902e-17 0.0
000390 8f 17 29 a5 1d 5d 94 a4 00 00 00 00 2b 0e 6b a5
       -1.4666395e-16 -6.434251e-17 0.0 -2.0387801e-16
0003a0 04 46 87 a4 00 00 00 00 a3 50 29 9e c8 82 91 9d
       -5.866553e-17 0.0 -8.963461e-21 -3.8516405e-21
0003b0 00 00 00 00 ec 8d 67 9e b1 73 87 9d 00 00 00 00
       0.0 -1.2258387e-20 -3.5853825e-21 0.0
0003c0 9b c7 77 a5 64 8d d9 a4 00 00 00 00 be 4f ac a5
       -2.1491464e-16 -9.4348274e-17 0.0 -2.989128e-16
0003d0 45 39 c6 a4 00 00 00 00 7b 59 47 a5 1f e9 ae a4
       -8.596583e-17 0.0 -1.7290816e-16 -7.5855394e-17
0003e0 00 00 00 00 ad 8e 8a a5 ce 7a 9f a4 00 00 00 00
       0.0 -2.4035865e-16 -6.91633e-17 0.0
0003f0 50 be 41 9b cf 27 a8 9a 00 00 00 00 51 83 85 9b
       -1.6026079e-22 -6.9547486e-23 0.0 -2.2087866e-22

exp_avg_sq f4 [128, 6]
000000 df 6b 9b 3a 3a 4c 69 39 00 00 00 00 ec eb 11 3b
       0.001185771 0.00022249008 0.0 0.0022265865
000010 c1 93 47 39 00 00 00 00 3d b6 93 3a a3 52 53 39
       0.00019033162 0.0 0.0011269521 0.00020153313
000020 00 00 00 00 2c 79 ec 3a fc 28 3d 39 00 00 00 00
       0.0 0.0018041483 0.00018039712 0.0
000030 2c 2e 21 38 39 b8 cb 36 00 00 00 00 a4 25 b6 37
       3.8428392e-05 6.071318e-06 0.0 2.1713618e-05
000040 8b 4f ce 36 00 00 00 00 c1 36 f1 2d 76 4f 67 2c
       6.1485384e-06 0.0 2.7422844e-11 3.2871184e-12
000050 00 00 00 00 c1 2c af 2e 63 0a f4 2c 00 00 00 00
       0.0 7.9660285e-11 6.9360503e-12 0.0
000060 fd d0 df 2d da fd a6 2c 00 00 00 00 54 6c 21 2d
       2.5444974e-11 4.746187e-12 0.0 9.175844e-12
000070 a1 3e 8f 2c 00 00 00 00 35 aa ae 36 ee 9d 80 35
       4.0712577e-12 0.0 5.205419e-06 9.582707e-07
000080 00 00 00 00 21 e1 4f 37 1b ae 82 35 00 00 00 00
       0.0 1.2390578e-05 9.736426e-07 0.0
000090 0b 8f 85 3a 77 51 4b 39 00 00 00 00 02 e8 f3 3a
       0.0010189725 0.00019389937 0.0 0.0018608572
0000a0 05 f5 2a 39 00 00 00 00 f8 10 31 3a ee 09 00 39
       0.0001630374 0.0 0.00067545427 0.0001221073
0000b0 00 00 00 00 ee c4 95 3a 24 a9 e2 38 00 00 00 00
       0.0 0.0011426487 0.00010808025 0.0
0000c0 5a f3 4f 3a 90 8e 1b 39 00 00 00 00 83 d5 bd 3a
       0.00079326855 0.0001483506 0.0 0.0014483187
0000d0 1c 26 05 39 00 00 00 00 78 a4 bc 3a cc ac 8e 39
       0.00012698065 0.0 0.0014392277 0.00027213094
0000e0 00 00 00 00 b9 a5 30 3b af 7d 71 39 00 00 00 00
       0.0 0.0026954247 0.00023030372 0.0
0000f0 2d 5e 34 34 64 8f 05 33 00 00 00 00 50 04 8a 33
       1.6798067e-07 3.109689e-08 0.0 6.42691e-08
000100 b4 e2 e6 32 00 00 00 00 a7 bc 86 3a 33 a7 0f 39
       2.6878617e-08 0.0 0.0010279611 0.0001369983
000110 00 00 00 00 d0 45 90 3a 58 db 2c 39 00 00 00 00
       0.0 0.0011007134 0.0001648491 0.0
000120 51 34 9d 3a a2 d0 66 39 00 00 00 00 8a 05 03 3b
       0.0011993741 0.00022012231 0.0 0.0019992315
000130 57 9a 49 39 00 00 00 00 58 26 15 35 c8 bd da 33
       0.0001922635 0.0 5.5562623e-07 1.0185937e-07
000140 00 00 00 00 2f c9 61 34 7b e9 be 33 00 00 00 00
       0.0 2.1027948e-07 8.890034e-08 0.0
000150 88 76 05 33 09 9c ca 31 00 00 00 00 00 98 88 33
       3.107428e-08 5.896713e-09 0.0 6.360642e-08
000160 d2 75 b3 31 00 00 00 00 c7 24 ff 3a 9e 3b 4f 39
       5.2229803e-09 0.0 0.0019465917 0.00019763267
000170 00 00 00 00 7c ac e7 3a 22 66 a3 39 00 00 00 00
       0.0 0.0017675306 0.00031165878 0.0
000180 3b 2c b2 3a 22 f8 74 39 00 00 00 00 5e 7f 06 3b
       0.0013593504 0.0002336209 0.0 0.0020522694
000190 69 15 64 39 00 00 00 00 08 a5 50 39 8c f2 22 38
       0.0002175175 0.0 0.00019897905 3.88497e-05
0001a0 00 00 00 00 c5 14 cc 39 37 e7 05 38 00 00 00 00
       0.0 0.00038925387 3.1925007e-05 0.0
0001b0 be 62 8d 3a d0 b7 55 39 00 00 00 00 d4 19 ff 3a
       0.0010786874 0.00020381738 0.0 0.0019462653
0001c0 b7 09 35 39 00 00 00 00 53 c8 f7 39 d1 16 ba 38
       0.00017265124 0.0 0.00047260764 8.873421e-05
0001d0 00 00 00 00 b7 bc 5b 3a 05 99 9e 38 00 00 00 00
       0.0 0.0008382308 7.562529e-05 0.0
0001e0 4b 1c b6 36 65 87 85 35 00 00 00 00 8c 98 1e 37
       5.4273164e-06 9.948677e-07 0.0 9.4530515e-06
0001f0 e7 c5 69 35 00 00 00 00 26 f3 57 38 84 ec b0 36
       8.708725e-07 0.0 5.1486444e-05 5.272743e-06
000200 00 00 00 00 49 25 3d 38 d1 35 0a 37 00 00 00 00
       0.0 4.5095836e-05 8.237971e-06 0.0
000210 63 19 b8 3a 7d d5 83 39 00 00 00 00 6e ed 20 3b
       0.0014045652 0.00025145328 0.0 0.0024555582
000220 66 b4 6b 39 00 00 00 00 d5 56 c1 34 6e 14 8f 33
       0.0002247855 0.0 3.601223e-07 6.6626725e-08
000230 00 00 00 00 1f fc 0e 34 75 79 77 33 00 00 00 00
       0.0 1.3316502e-07 5.7619634e-08 0.0
000240 57 c3 3b 36 79 01 cc 34 00 00 00 00 5a 5e 72 36
       2.7978874e-06 3.7999033e-07 0.0 3.611573e-06
000250 32 56 f0 34 00 00 00 00 34 48 1f 31 07 0b a4 2f
       4.47662e-07 0.0 2.3178588e-09 2.9839262e-10
000260 00 00 00 00 eb bf 0c 31 07 fd cb 2f 00 00 00 00
       0.0 2.0481774e-09 3.7105272e-10 0.0
000270 29 0a 80 39 d1 fa 3d 38 00 00 00 00 e2 d1 f3 39
       0.00024421632 4.5294702e-05 0.0 0.00046504947
000280 b4 07 25 38 00 00 00 00 35 33 72 3a 69 6e 34 39
       3.934624e-05 0.0 0.0009239198 0.00017207269
000290 00 00 00 00 d1 9f cb 3a ab 0c 1b 39 00 00 00 00
       0.0 0.00155353 0.00014786671 0.0
0002a0 7e 37 35 3a 36 7d 08 39 00 00 00 00 69 e2 a0 3a
       0.0006912871 0.00013016615 0.0 0.0012274507
0002b0 e3 56 e8 38 00 00 00 00 99 14 9e 3a 19 aa 50 39
       0.00011078806 0.0 0.0012060582 0.00019899792
0002c0 00 00 00 00 87 22 de 3a 0c 86 4a 39 00 00 00 00
       0.0 0.0016947546 0.00019314158 0.0
0002d0 69 9e 91 3a 5e eb 0f 39 00 00 00 00 da 29 8d 3a
       0.0011109832 0.00013725224 0.0 0.0010769919
0002e0 76 f7 3a 39 00 00 00 00 ef 74 2d 3a 14 69 f8 38
       0.00017830529 0.0 0.0006616851 0.00011845134
0002f0 00 00 00 00 09 e0 89 3a 64 0a de 38 00 00 00 00
       0.0 0.0010519038 0.0001058772 0.0
000300 df f5 29 36 dc 6b 04 35 00 00 00 00 da 69 9d 36
       2.5326078e-06 4.933079e-07 0.0 4.6912874e-06
000310 67 9a d9 34 00 00 00 00 88 32 93 3b a4 5c 11 3a
       4.0531742e-07 0.0 0.004492108 0.00055451156
000320 00 00 00 00 d1 20 a7 3b ab 69 3c 3a 00 00 00 00
       0.0 0.0051003476 0.00071873766 0.0
000330 b5 11 54 3b 5e 03 0f 3a 00 00 00 00 83 ed ad 3b
       0.0032359187 0.0005455519 0.0 0.0053078546
000340 ee b9 07 3a 00 00 00 00 ae 14 80 3b a5 70 01 3a
       0.0005177547 0.0 0.003908715 0.0004937745
000350 00 00 00 00 88 cf 95 3b 83 f1 23 3a 00 00 00 00
       0.0 0.004571859 0.00062539446 0.0
000360 78 4b 1c 34 a7 3e cc 32 00 00 00 00 7b 10 ae 33
       1.4556088e-07 2.3777217e-08 0.0 8.105504e-08
000370 36 0f c8 32 00 00 00 00 29 9b c4 3a 2f cd 87 39
       2.3289981e-08 0.0 0.0014999855 0.0002590208
000380 00 00 00 00 09 9b 15 3b fd f8 7b 39 00 00 00 00
       0.0 0.0022828004 0.0002402998 0.0
000390 ed 37 17 3a c9 9c ce 38 00 00 00 00 76 ce 78 3a
       0.00057685265 9.852049e-05 0.0 0.00094912143
0003a0 a3 9b c1 38 00 00 00 00 67 d8 84 33 04 15 46 32
       9.231947e-05 0.0 6.186092e-08 1.1529895e-08
0003b0 00 00 00 00 7c 10 c0 32 ec 0a 2a 32 00 00 00 00
       0.0 2.2359238e-08 9.897786e-09 0.0
0003c0 ba 6d 86 3a 1b e7 47 39 00 00 00 00 f1 6f f4 3a
       0.001025609 0.00019064212 0.0 0.0018649084
0003d0 e4 2e 2c 39 00 00 00 00 20 89 35 3b 3e 3e af 39
       0.00016420666 0.0 0.002770014 0.00033424975
0003e0 00 00 00 00 ba 89 46 3b 94 5d e8 39 00 00 00 00
       0.0 0.0030294494 0.0004432021 0.0
0003f0 ab 5a af 2e 17 d4 82 2d 00 00 00 00 d8 09 fd 2d
       7.9741845e-11 1.4873476e-11 0.0 2.8767141e-11

exp_avg f4 [128]
000000 1d fe 8a a3 eb 29 7b 23 3f ee 0e 21 60 88 c5 1b
       -1.5069611e-17 1.3615614e-17 4.842679e-19 3.2679046e-22
000010 ba f1 eb 18 c6 c4 92 21 3d 71 85 23 78 c7 46 23
       6.0990158e-24 9.94543e-19 1.4467847e-17 1.0775841e-17
000020 be df 63 23 b7 c7 9f 23 ea c7 d0 1c 49 55 09 23
       1.2353074e-17 1.7323397e-17 1.3815962e-21 7.444845e-18
000030 ca bc 86 23 68 f6 2a 1d e0 4a bf 1f 39 60 62 a2
       1.4608264e-17 2.2626702e-21 8.1015517e-20 -3.0679651e-18
000040 17 02 82 23 4a a5 f1 a2 4e 63 87 23 6e 96 30 23
       1.4095513e-17 -6.5498187e-18 1.4678786e-17 9.572834e-18
000050 48 83 91 21 4f 25 d8 20 21 fc 94 23 aa 93 86 1d
       9.860332e-19 3.6616512e-19 1.6152973e-17 3.5622186e-21
000060 fd 8c 2a a1 c3 40 1d 1e f4 a7 f7 a2 84 bd 6f 23
       -5.7784837e-19 8.324903e-21 -6.712731e-18 1.29963475e-17
000070 71 05 55 23 c4 a0 64 23 02 15 d7 22 c2 86 3f 23
       1.1547905e-17 1.2393948e-17 5.829811e-18 1.0382667e-17
000080 a8 dd 53 21 64 c0 91 23 ad 85 d3 23 24 78 90 23
       7.178294e-19 1.5802412e-17 2.293328e-17 1.5663393e-17
000090 22 24 32 1f 4c 1e 8a 23 4e 5d 34 23 4f 9a 34 1c
       3.7722855e-20 1.4974821e-17 9.777578e-18 5.9756443e-22
0000a0 2c 26 84 23 af a3 54 23 e4 a8 4e 19 30 71 61 1d
       1.4327635e-17 1.1527204e-17 1.06840576e-23 2.9837019e-21
0000b0 4a b7 14 21 4c 2b bb 1e 31 b7 3a a2 e4 9d 6d 23
       5.038693e-19 1.9817302e-20 -2.5304681e-18 1.288123e-17
0000c0 f5 04 ac 23 ed c4 9e 23 c8 b3 99 23 92 3c 35 20
       1.8650377e-17 1.7213796e-17 1.6664434e-17 1.5351337e-19
0000d0 4e 2f 15 a3 ea cd 79 23 36 af b1 1e bc 02 e8 1a
       -8.087323e-18 1.3541921e-17 1.881307e-20 9.595737e-23
0000e0 b4 ba 1a 20 3a 80 17 1c 50 9e 97 23 4d d1 ca 23
       1.3106082e-19 5.012744e-22 1.64385e-17 2.1989526e-17
0000f0 47 0d 32 1e df 75 9a 1c de 36 b3 23 e9 ae 23 1a
       9.425987e-21 1.0221334e-21 1.9430456e-17 3.38489e-23
000100 8d 1c 0e 1d 85 a6 a1 23 eb 65 21 1a 02 cc b6 23
       1.8808304e-21 1.7526179e-17 3.3376348e-23 1.981888e-17
000110 28 85 51 12 3a c0 3a 21 63 db 5c a3 42 a3 8d 10
       6.61129e-28 6.327366e-19 -1.1972681e-17 5.586623e-29
000120 39 a6 59 23 fb 87 1c 21 ad c8 70 23 72 b0 5e 23
       1.1798793e-17 5.3034825e-19 1.3052921e-17 1.2072008e-17
000130 d6 a2 e8 1f 86 05 a3 19 90 56 c2 1a 95 ec 99 23
       9.852521e-20 1.6856036e-23 8.037637e-23 1.668849e-17
000140 7a 87 59 1e 5b 9c 76 20 1d 23 be a3 de 65 55 23
       1.15159e-20 2.0888744e-19 -2.0614712e-17 1.1568324e-17
000150 20 be 49 23 4a 35 71 23 91 fd 51 23 3b 30 63 23
       1.0936492e-17 1.30759206e-17 1.13836075e-17 1.2315908e-17
000160 30 b4 53 23 02 ba b8 23 3e 38 8d a3 71 7b bf 23
       1.1476489e-17 2.0028097e-17 -1.531107e-17 2.0760541e-17
000170 b5 b1 9b 23 fc 1d c7 1b 31 d1 e4 1c 5c 7d 54 23
       1.6880396e-17 3.2941165e-22 1.5141849e-21 1.1519089e-17
000180 73 26 a0 23 67 2d 10 23 74 c9 f3 1c dc ea 3e 1e
       1.7363519e-17 7.81587e-18 1.6132466e-21 1.0107084e-20
000190 bd a3 73 a3 8e e5 97 23 e2 29 ae 17 5c 34 58 23
       -1.3207729e-17 1.6468673e-17 1.1255059e-24 1.1720471e-17
0001a0 d7 7c 5b 23 74 aa ae 23 f2 05 32 21 53 84 66 23
       1.189845e-17 1.8937308e-17 6.0316614e-19 1.2496346e-17
0001b0 dc b0 11 1f 75 61 28 a3 ec 03 3e 1c e9 f6 a7 23
       3.085124e-20 -9.1279356e-18 6.2870795e-22 1.8210747e-17
0001c0 26 95 b4 19 c0 d3 c0 1c 60 49 09 20 41 db 1e 21
       1.8671804e-23 1.276023e-21 1.1628629e-19 5.382266e-19
0001d0 b4 43 5e 23 1a bb 4e 23 ba ea 7e 23 d1 a7 21 23
       1.2048981e-17 1.1206903e-17 1.3819073e-17 8.763364e-18
0001e0 7c 56 a9 23 d7 c9 8c 23 76 d7 8a 8d ae 07 d7 23
       1.8359644e-17 1.5264313e-17 -8.556777e-31 2.33136e-17
0001f0 ce 82 75 23 d5 57 58 23 24 bc 85 21 24 5d cc 19
       1.33091756e-17 1.1727983e-17 9.062231e-19 2.1130725e-23

exp_avg_sq f4 [128]
000000 e4 66 b1 36 77 24 a8 36 2a 63 37 34 c2 ec 58 2a
       5.286989e-06 5.0110352e-06 1.7079279e-07 1.9266796e-13
000010 1d a8 fe 29 f9 51 e8 32 37 f6 97 36 d7 79 49 36
       1.1309029e-13 2.7045632e-08 4.528814e-06 3.0022254e-06
000020 88 b5 6c 36 8d a8 d6 36 45 3b 4d 30 85 a6 99 36
       3.5272406e-06 6.397319e-06 7.466279e-10 4.5791408e-06
000030 da 33 b3 36 06 b3 29 31 37 85 1f 2f 52 3e 11 37
       5.340652e-06 2.46945e-09 1.4508293e-10 8.657184e-06
000040 c0 bd ca 36 de 0c 6e 35 2c ec a0 36 c7 f9 0c 36
       6.042159e-06 8.8680633e-07 4.7958656e-06 2.1007015e-06
000050 58 cc cf 32 09 b5 75 34 e0 83 d1 36 31 fa db 30
       2.4190896e-08 2.2883263e-07 6.2440376e-06 1.6005456e-09
000060 ec a1 55 32 a3 52 35 2d 7d b1 92 35 59 d2 89 36
       1.24350485e-08 1.0307008e-11 1.0929504e-06 4.107406e-06
000070 20 86 4e 36 5e 05 b4 36 41 31 a6 36 83 5e 45 36
       3.0774463e-06 5.365043e-06 4.9529194e-06 2.94103e-06
000080 d2 6c 41 32 56 7a a7 37 89 4a 71 37 41 ba 91 37
       1.1258821e-08 1.9964918e-05 1.43820735e-05 1.7372078e-05
000090 ac d4 31 30 c1 f9 df 36 97 18 2c 36 19 26 97 2f
       6.469445e-10 6.674993e-06 2.564431e-06 2.749381e-10
0000a0 43 0d 99 36 14 8c 4e 37 9d 83 c7 2a ee bf 20 30
       4.561299e-06 1.2311171e-05 3.5440826e-13 5.848041e-10
0000b0 5e 53 b8 33 de dd 00 31 c3 21 1a 34 0d 55 89 36
       8.583332e-08 1.8752568e-09 1.435465e-07 4.0928194e-06
0000c0 2d a5 0b 37 01 df e3 36 18 2d e8 36 57 c9 1a 32
       8.323504e-06 6.7910883e-06 6.9193884e-06 9.009759e-09
0000d0 20 2f c8 35 9f 83 8d 36 31 b4 2f 30 26 ec f3 29
       1.4914876e-06 4.21745e-06 6.3920697e-10 1.0832333e-13
0000e0 e7 92 68 31 d0 79 5c 28 01 8a c6 36 36 e6 50 37
       3.3843948e-09 1.2238867e-14 5.9169256e-06 1.2451366e-05
0000f0 51 3d 59 2e ea 6b 21 31 7d 86 b3 37 6d 6a 98 26
       4.9394547e-11 2.3489926e-09 2.1401089e-05 1.0575965e-15
000100 12 22 5d 2e 02 a3 e6 36 3a 03 18 29 d1 70 1e 37
       5.0279843e-11 6.8735108e-06 3.375358e-14 9.443801e-06
000110 77 56 18 1c 90 36 f2 34 92 95 42 36 cf 71 2c 1f
       5.0404334e-22 4.5115712e-07 2.8995314e-06 3.6516557e-20
000120 3c b1 4c 36 28 22 32 33 af 73 97 36 23 31 5e 36
       3.0501533e-06 4.147492e-08 4.513618e-06 3.310918e-06
000130 5c 0c 02 37 7d 9f d8 2f 1c 06 bd 2b 60 fd d5 36
       7.7514815e-06 3.9403494e-10 1.3430953e-12 6.3773914e-06
000140 28 ce d9 30 02 2f eb 30 19 f2 0d 37 cc dd 66 36
       1.5847421e-09 1.7111861e-09 8.460623e-06 3.4401774e-06
000150 df a7 8e 36 36 a6 c9 36 1b 27 ad 36 1e 1e 87 36
       4.2514725e-06 6.0096163e-06 5.1603542e-06 4.0268196e-06
000160 af 8c 46 36 53 13 27 37 5e 91 9c 36 65 e3 38 37
       2.9586188e-06 9.958475e-06 4.6660853e-06 1.1020199e-05
000170 90 8c e4 36 7a c7 79 2d f6 5f 8f 31 46 51 50 36
       6.811293e-06 1.4198304e-11 4.1727573e-09 3.1041723e-06
000180 fd cd e3 36 b0 1e 1c 36 6e 84 99 2f a9 49 98 2f
       6.7891074e-06 2.3263674e-06 2.7924635e-10 2.7700978e-10
000190 e5 4d 72 36 09 d7 cb 36 a9 5d f1 20 2c cb 5c 36
       3.610615e-06 6.074905e-06 4.0888967e-19 3.2900816e-06
0001a0 05 60 63 36 23 1b 12 37 27 09 5b 34 6d d9 71 36
       3.3881527e-06 8.708596e-06 2.0399294e-07 3.6038357e-06
0001b0 2e 3f ab 32 59 79 eb 35 b3 9b 00 2d 65 c6 92 37
       1.993575e-08 1.7544181e-06 7.31053e-12 1.7496941e-05
0001c0 01 7c 84 28 76 91 65 2e 79 cf b2 31 e8 cb 12 32
       1.4708722e-14 5.2197767e-11 5.2040687e-09 8.544681e-09
0001d0 a1 cf 4e 36 7b 30 3c 36 7f fc 91 36 2d 04 10 36
       3.0817248e-06 2.8042402e-06 4.350731e-06 2.1460103e-06
0001e0 bc bb 73 37 2b 14 bc 36 d6 5f 67 19 d1 02 92 37
       1.4527639e-05 5.6051845e-06 1.1961774e-23 1.7405868e-05
0001f0 eb 24 87 36 da b4 9f 36 9e 4f e0 32 5e 22 88 2f
       4.0276113e-06 4.759623e-06 2.6113238e-08 2.4762675e-10
