results/SliderBehavior/SliderBehavior/SliderBehavior-141.pt (torch, 445402 bytes, 33 tensors)

network_body._body_endoder.seq_layers.0.weight f4 [128, 6]
000000 c5 bb f8 3e 19 69 07 bf 61 b7 43 3f 4f b7 d9 3d
       0.48580757 -0.5289474 0.7645169 0.106306665
000010 35 1f a9 bd 4e af 06 bf 0c e0 fc be d5 83 cf 3e
       -0.082579054 -0.52611244 -0.49389684 0.40530267
000020 c4 e9 4e 3f 80 7a 39 be 01 9c d1 3d 7b f4 82 be
       0.8082545 -0.18113136 0.102348335 -0.2557715
000030 20 db d6 be 59 16 c4 be ee 4b 5f be 3e d4 7b 3d
       -0.41964054 -0.382983 -0.21806309 0.061481707
000040 07 3d 17 3f be 8f d1 be ba ff 8e be 22 b6 fd 3e
       0.59077495 -0.4092998 -0.2792948 0.4955302
000050 ef 8f 2a bf 37 2d e5 3d b4 4b 8e be 61 5f 4b 3f
       -0.66625875 0.11190265 -0.27792132 0.7944241
000060 69 92 ac be b0 8a b9 3b 50 4a c1 be cc 24 6d 3d
       -0.33705452 0.005662285 -0.37752008 0.05789642
000070 b9 3a 48 3e 95 e8 66 3e 89 20 d4 be f7 1b 7d 3d
       0.19553651 0.2254966 -0.41431072 0.061794247
000080 b3 4f 2b 3e 61 37 89 3e 4f 92 0a 3b 78 6e 95 be
       0.16729622 0.26800063 0.0021144336 -0.29185843
000090 24 0d cf be 2a 67 1d 3e 49 b2 5f 3e c5 fc d4 be
       -0.40439713 0.15371385 0.21845354 -0.41599098
0000a0 bb 3f 03 be cd a1 8c bf fa 52 d2 3e b4 2b 0d bd
       -0.1281728 -1.0986878 0.4107893 -0.034465507
0000b0 63 14 86 3e c1 21 5f 3e d6 4b a5 3e b3 25 60 bf
       0.2618743 0.2179022 0.3228442 -0.87557524
0000c0 2f f8 6b be f9 6b 51 be b1 ad 11 3f dd 75 fa be
       -0.23043893 -0.20451345 0.5690566 -0.48918048
0000d0 6b 73 1c bf f9 31 59 3e be b9 28 3e 96 a7 28 3f
       -0.61113614 0.2121047 0.16477105 0.65880716
0000e0 5f 97 27 be 9d 50 38 bf 53 c5 07 3e 2e 94 9a 3e
       -0.16366337 -0.71998006 0.13258867 0.30191177
0000f0 1f b9 08 bf f4 e1 96 3d b8 f0 bd be ae 82 b9 3e
       -0.5340747 0.07367316 -0.37097716 0.36232513
000100 19 d5 17 be e8 c1 8f be 09 8f 24 bf 06 5f 4e bf
       -0.14827384 -0.28077626 -0.64280754 -0.80613744
000110 99 a3 c0 3e 61 e9 1f 3f 06 93 b0 be 51 b1 2a bf
       0.37624815 0.6246548 -0.3448717 -0.66676813
000120 fb ba cf 3c dd 94 84 3e c7 d8 65 bd aa 83 cb 3d
       0.025357714 0.25894824 -0.056114938 0.09937222
000130 e7 ac 3c bf f2 79 4a bc 1e ab 66 be 42 57 3a bf
       -0.7370133 -0.012358176 -0.22526214 -0.72789395
000140 84 b7 82 bf c6 bc 67 3f ca 6d ca be 10 4b 10 bc
       -1.0212255 0.9052242 -0.39536887 -0.008806959
000150 c1 ab be 3e f4 66 48 3f 1b 5b 25 3f f5 3c 18 bf
       0.37240413 0.78282094 0.6459214 -0.59468013
000160 d2 40 3c bf b9 8b 74 be ac 6c cc bd 9e 76 73 be
       -0.7353641 -0.23881425 -0.09981665 -0.23775718
000170 83 3d 9a 3d dc 51 66 bc 0f 80 cf 3e 99 ad 33 3f
       0.07531264 -0.014057603 0.40527388 0.70186764
000180 a5 59 a7 be f4 2c 48 be 89 d0 cf bd 41 ed db bc
       -0.3268558 -0.19548398 -0.10147197 -0.02684653
000190 2e e5 fb 3d 87 8c 62 3f 7c 11 92 3e 05 01 d8 be
       0.12299572 0.8849568 0.28528965 -0.42188278
0001a0 21 36 fb 3e 29 60 44 bf b4 c9 2c be fd 88 4c 3e
       0.49064735 -0.7670923 -0.16873819 0.19974132
0001b0 e7 01 f2 3e 52 bf 69 be 03 50 c3 3e 1c c9 1c 3e
       0.47267076 -0.22826889 0.38146982 0.15311092
0001c0 a7 40 a1 3a cf 53 37 be 16 c8 da 3d 0a 5d 15 3f
       0.0012302593 -0.17903064 0.106826946 0.5834509
0001d0 3e 1c 26 bf d7 70 c6 3d 0f d9 86 be d9 65 3b 3d
       -0.64886844 0.09689491 -0.26337478 0.045751426
0001e0 7c 10 17 bf a3 3a 21 3f 1f 10 44 3e 72 dd d6 3e
       -0.5900953 0.629801 0.19146775 0.41965824
0001f0 c1 09 d0 be 68 5e 13 bf ea e1 25 be c4 b4 c5 3e
       -0.40632442 -0.5756593 -0.1619946 0.38614476
000200 83 32 87 3e aa ca b2 be ab 82 ae be 93 7c ca be
       0.26405725 -0.34920245 -0.34084067 -0.39548168
000210 f7 86 ca 3e 0d c4 21 3e f2 ec 82 be 96 ce 85 3d
       0.39556095 0.15797444 -0.255714 0.06533544
000220 98 da 36 3f ba 77 a6 bf 31 c5 ca bd bd 25 0b 3e
       0.714273 -1.3005288 -0.099008925 0.13588615
000230 a5 8f c0 be d1 cb a3 bb 93 24 9c 3d 96 38 4c 3e
       -0.37609592 -0.004998662 0.076241635 0.19943461
000240 71 22 1f bf 55 12 10 be 09 07 89 be 23 49 1a 3e
       -0.6216193 -0.14069493 -0.2676318 0.15066962
000250 6b 26 3c 3e 6b f1 4b 3f 68 be 9c 3e d6 79 19 be
       0.1837403 0.7966525 0.30614018 -0.14987883
000260 e8 ad a1 bd a8 1c 99 3e ab 53 40 3c 7e 05 23 be
       -0.07894498 0.29904675 0.011738698 -0.15920064
000270 5a f7 26 bf d5 6e de be 26 5a 7e be b6 05 f2 be
       -0.6522118 -0.43443933 -0.24839076 -0.47269982
000280 ed 7e de 3e c3 43 69 3f 83 83 0c 3f 59 01 1a bf
       0.43456212 0.9111902 0.5488817 -0.60158306
000290 0d d1 da 3e 65 c7 88 3c fa e8 ed be a4 01 7f bd
       0.42737618 0.016696641 -0.4646681 -0.062257424
0002a0 5b a7 9e 3c 83 c3 ac bd 90 2d 44 3e 38 50 a1 be
       0.01936691 -0.084357284 0.19158006 -0.31506515
0002b0 ad b0 a1 be 76 f2 dd be 15 a8 ef be 93 50 f7 3d
       -0.31580105 -0.43349046 -0.46807924 0.12075915
0002c0 af 7c 81 bf 30 bf 27 be 70 e7 aa be 39 e7 26 be
       -1.0116175 -0.16381526 -0.33379698 -0.16299142
0002d0 1c e2 28 3a d3 78 1f 3f d3 ee cc 3e fa 2b f2 3d
       0.00064423843 0.6229374 0.40025958 0.11824794
0002e0 32 50 ad 3c ea 10 24 3f 85 e8 05 3f 4d 25 b2 3d
       0.021156404 0.6408831 0.5230792 0.08698521
0002f0 87 67 33 bf 80 d9 44 be 38 c5 d8 bd d7 fb 92 3a
       -0.70079845 -0.19223595 -0.105844915 0.001121397
000300 a2 d8 f0 3e f1 bf 32 3e 7a cf c6 bd 1a 30 1b 3f
       0.47040278 0.17456032 -0.09707542 0.6062027
000310 af 86 3a be a4 c4 00 bf 5a 83 b0 be 5c 11 17 3e
       -0.1821544 -0.5030005 -0.34475213 0.14752716
000320 4c fa 0e 3e 3b 9c 2f 3d 12 87 40 3f 09 cd ce be
       0.13962668 0.042873602 0.752061 -0.40390804
000330 bc 60 13 be 6e d8 66 be 70 79 14 3f d2 e9 d7 3e
       -0.1439237 -0.22543499 0.579978 0.42170578
000340 9c 80 cd bd 96 20 c2 3d a8 09 21 bf 7a 8e 8a be
       -0.10034296 0.094788715 -0.6290536 -0.27061826
000350 4d 5e bc be 5c 01 05 3f dd 5a dc 3d fc 02 7d 3d
       -0.36790696 0.519552 0.10759518 0.061770424
000360 71 41 ed 3e 5f 68 ba be 6f 9b 2d 3e 67 16 f7 be
       0.4633899 -0.36407754 0.16953824 -0.4825928
000370 c9 7b a4 3e e4 2d 9b be 40 02 ee be 6b ef 95 3c
       0.3212569 -0.3030845 -0.46486092 0.01830264
000380 50 c1 28 3f 03 04 59 3f 94 3f 1d be a5 15 09 3e
       0.6591997 0.84771746 -0.15356284 0.13387163
000390 11 ff f9 3e 1f 83 4d 3d 27 86 db be 36 69 78 3d
       0.48827413 0.050173875 -0.42875788 0.060647212
0003a0 59 35 ab 3e ff fc 5e bd 3c 8e 24 bf 67 60 f0 3d
       0.3343914 -0.054440495 -0.6427953 0.11737137
0003b0 3d d4 a0 3d bd f4 d2 3e 9e 48 51 3f d9 28 f5 be
       0.07852981 0.41202345 0.8175143 -0.47882727
0003c0 a2 f1 29 bf ab d3 34 be 5d 4a 17 be 8d 6b e8 be
       -0.6638433 -0.1765887 -0.14774461 -0.45394555
0003d0 28 9b a4 be 62 46 46 3e ef da 15 3d 07 a3 5b 3e
       -0.32149625 0.19362786 0.036585744 0.21448909
0003e0 e0 0a 48 be 78 e5 fd 3e a8 ce 2e bc a4 50 5e 3d
       -0.19535398 0.49589133 -0.010669388 0.054276124
0003f0 5d 58 1c 3e db 08 00 3f 51 81 ae 3e 81 83 dd bc
       0.15268083 0.5001351 0.34083036 -0.027040245

network_body._body_endoder.seq_layers.0.bias f4 [128]
000000 c1 24 8f bc 4e 6b 8f bc 13 06 92 bc 49 6a 8f 3c
       -0.01747358 -0.017507222 -0.017825162 0.017506735
000010 50 6a 8f bc 35 64 8f 3c 4b 6b 8f bc 12 0c 4c bc
       -0.017506748 0.017503837 -0.017507216 -0.01245405
000020 6b 63 8f 3c 47 67 8f 3c e2 70 8f 3c 9e 6d 8f 3c
       0.01750346 0.017505301 0.017509881 0.017508324
000030 24 51 8f 3c 90 60 8f bc 1d 6c 8f bc a6 64 8f 3c
       0.017494746 -0.0175021 -0.017507607 0.017504048
000040 d2 6a 8f bc af 63 8f 3c 7f 7e 85 3c 42 55 8f bc
       -0.01750699 0.017503588 0.01629567 -0.017496709
000050 31 68 8f 3c d0 6a 8f bc ea ad c1 3b c6 59 8f bc
       0.017505737 -0.017506987 0.0059106247 -0.017498862
000060 61 65 8f 3c ea eb 7f bc ab 6a 8f bc a2 5b 8f bc
       0.017504396 -0.015620211 -0.017506918 -0.017499749
000070 5b 63 8f 3c 41 2e 8f 3c 0b 0c 8e bc 8b f4 8e 3c
       0.017503431 0.01747811 -0.017339727 0.017450592
000080 91 b9 da ba ca 67 8f bc aa 01 8f 3c 35 6d 8f bc
       -0.0016687383 -0.017505545 0.017456848 -0.017508129
000090 07 60 8f bc bd f4 8e bc b3 fb 8b bc 0a 56 8f 3c
       -0.017501844 -0.017450685 -0.017087793 0.017497081
0000a0 27 dc 8f bc a0 2a 8c bc 06 e8 8d bc 8a 56 8f 3c
       -0.017561032 -0.017110169 -0.017322551 0.01749732
0000b0 16 70 8f bc 57 67 8f 3c 59 ed 89 3c dd 61 8f 3c
       -0.017509501 0.017505331 0.016836809 0.01750272
0000c0 cc 02 8f bc 3d 53 8f bc a1 89 85 bc dc d7 50 39
       -0.017457388 -0.017495746 -0.016300978 0.0001991684
0000d0 0c 69 8f bc 73 60 8f 3c e2 27 8f bc bf 66 8f 3c
       -0.017506145 0.017502045 -0.017475072 0.017505048
0000e0 57 67 8f 3c 44 bb 8e bc 04 5f 8f 3c 06 68 8f 3c
       0.017505331 -0.01742328 0.017501362 0.017505657
0000f0 06 6e 8f bc e5 27 8f bc 49 18 87 bc a1 f4 8d 3c
       -0.017508518 -0.017475078 -0.016491072 0.017328562
000100 bb 66 8f 3c ac 60 8f 3c f0 67 8f 3c ff 6b 8f 3c
       0.01750504 0.017502151 0.017505616 0.017507551
000110 3a d6 8e 3c 14 65 8f 3c df 6a 8f bc 94 f4 8f b4
       0.017436136 0.017504252 -0.017507015 -2.681378e-07
000120 b8 3e 8f 3c 9b 39 83 bc dd 67 8f bc 39 cd 8c bc
       0.017485961 -0.01601868 -0.01750558 -0.017187702
000130 26 6e 8f bc 3c 02 8f bc 37 ae 87 3c 7e 69 8f 3c
       -0.017508578 -0.01745712 0.016562564 0.017506357
000140 bc 65 8f 3c fd 66 8f 3c 30 57 8f bc bd 62 8f 3c
       0.017504565 0.017505163 -0.017497629 0.017503137
000150 97 2c 8f bc 9f 66 8f bc 68 a2 37 3a db 65 8f 3c
       -0.017477317 -0.017504988 0.00070050964 0.017504623
000160 86 69 8f 3c e3 42 8a 3c 02 5d 8f 3c 0d a1 8d 3c
       0.017506372 0.016877597 0.017500404 0.017288709
000170 b8 eb 05 3a 19 6e 8f bc 61 6a 8f bc b5 61 8f 3c
       0.0005108672 -0.017508553 -0.01750678 0.017502645
000180 a3 83 32 bc 17 0d 28 3c 85 57 8f bc 9f 6f 8f bc
       -0.010895642 0.010257027 -0.017497787 -0.01750928
000190 08 5f 8f 3c 8e 6d 8f bc 18 69 8f bc 69 6d 8e bc
       0.01750137 -0.017508294 -0.017506167 -0.017386155
0001a0 38 6c 8f 3c e3 18 8f 3c c6 68 8f 3c 63 bf 9c ba
       0.017507657 0.017467922 0.017506015 -0.0011958893
0001b0 01 66 8f bc 7a 18 8e bc 0f 24 8f 3c ad 71 8f bc
       -0.017504694 -0.017345656 0.017473249 -0.01751026
0001c0 86 69 8f bc 1b f3 fd b7 3b 9b 7e 3a c6 68 8f 3c
       -0.017506372 -3.0273155e-05 0.0009712462 0.017506015
0001d0 b9 6c 8f bc 81 67 8f bc 2f 66 8f bc c5 65 8f 3c
       -0.017507898 -0.01750541 -0.01750478 0.017504582
0001e0 c3 3d 8f bc 44 65 8f 3c 15 44 8f 3c ab 6c 8f bc
       -0.017485505 0.017504342 0.017488519 -0.017507872
0001f0 52 5e 8f bc 4b 65 8f 3c a4 4a ad 3a df 52 8f bc
       -0.01750103 0.017504355 0.0013221097 -0.01749557

network_body._body_endoder.seq_layers.2.weight f4 [128, 128]
000000 38 3f 0d bd 02 96 f1 bd 19 73 18 bc b9 50 7f 3d
       -0.03448412 -0.1179619 -0.009304785 0.062332842
000010 cf f8 23 be 47 e0 2a be 06 9b 37 be 7a 7e 26 bb
       -0.16012882 -0.16687118 -0.1793023 -0.0025404976
000020 47 0d 0d 3e 10 a0 c7 39 c7 aa 89 bd 9c 86 65 bd
       0.13774596 0.00038075494 -0.06722026 -0.056036577
000030 63 60 5e bb 55 27 42 3d af b2 b0 bd bc 0d 39 3b
       -0.0033931963 0.04740079 -0.08627831 0.0028236946
000040 4f 73 51 bd a8 80 3e 3d 8a a1 33 3e a4 cf 4e bd
       -0.051135357 0.046509415 0.17542091 -0.05049099
000050 26 c0 ed 3a e1 d2 f7 bd 72 f9 54 3e ad d7 2b be
       0.001813893 -0.12100769 0.20798281 -0.16781493
000060 0e a7 1f be 84 fa da 3d 3e 03 3d be 4d d2 88 bd
       -0.1559107 0.10692313 -0.18458268 -0.06680737
000070 f9 40 bd bd b5 5d 14 bd f3 07 08 be b7 10 31 3d
       -0.09240908 -0.03622218 -0.13284282 0.04322883
000080 71 29 a3 bc a1 9f 04 3e 8d ed 10 3d 76 00 64 3c
       -0.019917222 0.12951519 0.035382796 0.0139161255
000090 75 d7 87 bd 1e 09 9e bb 6b c5 6b bc 4d 73 f2 3d
       -0.06632892 -0.004822864 -0.01439033 0.11838398
0000a0 cd 3e 52 bb 87 6d 23 3d d0 9f 0d bd 1a 1a 10 3e
       -0.003208089 0.039899375 -0.034576237 0.14072457
0000b0 89 69 a6 bd 89 5d 9e bd 30 f7 b2 3d 07 1c 26 be
       -0.08125598 -0.07732684 0.087385535 -0.16221629
0000c0 e1 ae b9 3d 11 30 13 3e ae 72 90 3b 0a d0 17 3e
       0.09066559 0.14373805 0.004408202 0.14825454
0000d0 15 85 bc 3d fd 7b db 3d 10 bb 07 3e 39 95 22 bd
       0.09205071 0.10717008 0.13254952 -0.03969309
0000e0 ce 56 c9 bd 06 3e a2 bd 38 c5 23 be b5 16 8e bd
       -0.0983101 -0.07921986 -0.15993202 -0.06937925
0000f0 a6 7c 2e 3d 32 7e 82 3c 0a 9d e2 3b b4 d2 e6 3d
       0.042599343 0.015929315 0.006915693 0.11270657
000100 76 29 6b 3d 03 fe 1f bd 4c 09 39 bd 71 25 27 bd
       0.057412587 -0.039060604 -0.04517488 -0.04080719
000110 ad 95 f4 bc 68 17 af bd 34 ec 06 3e 00 6f 0f bd
       -0.029856527 -0.08549386 0.13176042 -0.035017967
000120 34 7f c1 3d f2 7b 19 3d 21 3e ad 3d 49 7c 82 3d
       0.0944809 0.03747172 0.08459116 0.06371362
000130 ba 8c a5 3d 55 1d 5a 3d 00 f1 0a 3d f4 c1 9b bc
       0.08083482 0.05325063 0.03392124 -0.019013382
000140 2e d1 18 3d 2b 3c ea bd fe 4b 7a bd 45 2d ea bd
       0.037308864 -0.114372574 -0.061107628 -0.11434416
000150 b1 02 51 bd 82 02 7c 3d c3 ac 31 3e 6f bf 62 3d
       -0.051027957 0.06152583 0.1735106 0.055358347
000160 e6 e6 11 3e 42 14 92 bc b4 55 a5 3d 1b 62 9a bc
       0.14248237 -0.017831925 0.08072987 -0.018845608
000170 47 6e 34 bd e9 e5 b7 3d 22 3f d4 bb cb 4d f9 3c
       -0.04405048 0.08979399 -0.0064772526 0.030432602
000180 cf 8a 3a 3d 11 f6 c6 bd b4 00 ba bc 2e de 98 3d
       0.045542534 -0.09714902 -0.022705413 0.074642524
000190 e9 d3 d5 3d 8d 76 7d 3d 3c b7 04 3c 1c cb 1e be
       0.10440809 0.061880637 0.008100327 -0.15507168
0001a0 ce c9 dc bd ff 1f 7e 3d 9d a7 0a bd 30 5c 42 3d
       -0.10780679 0.062042233 -0.033851255 0.047451198
0001b0 7c d9 e4 3d 2d 53 72 3d 5b e9 05 bc 7a da 42 3d
       0.11174294 0.059161354 -0.008173312 0.047571637
0001c0 d7 09 a2 3c bf f4 cc bd cd 55 d8 bc 49 4e 83 3d
       0.019780083 -0.10007619 -0.0264081 0.06411416
0001d0 df 08 2c bc d8 ec 89 ba fa e0 67 3b e5 9e d0 bb
       -0.010500162 -0.0010522855 0.00353819 -0.006366598
0001e0 6d 01 21 bd d7 d5 33 bd 2f 1d 89 3d d1 4d e9 bc
       -0.039308 -0.043905105 0.066950195 -0.028479489
0001f0 95 17 29 be 2a 81 53 3c 1d 5f c3 3c 5a 4c d4 3c
       -0.16512902 0.012909213 0.023849064 0.025915314
000200 7c ce 92 3d bc 46 02 3e 75 a1 11 3d ed c6 7d 3d
       0.0716829 0.12722296 0.035554368 0.06195729
000210 02 e1 98 3d 0b 5f bd 3d 2e a8 b0 bb a0 85 07 3d
       0.07464792 0.09246644 -0.0053911423 0.03308642
000220 d9 40 34 be 84 77 ba bc a7 79 22 3d d7 39 60 be
       -0.17602862 -0.022762068 0.039666798 -0.21897064
000230 c7 92 05 be 7d bb 28 be 8f 35 80 3d 94 ed 8f bd
       -0.13044272 -0.16477771 0.062602155 -0.07027736
000240 d8 e5 91 bd 56 30 47 3e 30 2f c7 bc de 73 03 3d
       -0.07123917 0.19452032 -0.024314493 0.03209292
000250 f1 dd c5 3d 8f 1b f9 3d 24 b7 a0 ba 9e d8 89 bc
       0.096614726 0.121634595 -0.0012261611 -0.016826924
000260 1c f5 0b bd bb ec 58 3d 95 9a 8b 3d 0d 9b 75 bd
       -0.0341693 0.05296014 0.068165936 -0.05996232
000270 8c 1a 1c 3c 33 94 bd 3c 4e 83 39 3c 20 0c 85 bd
       0.009527814 0.023141956 0.011322809 -0.06496453
000280 58 a7 7a bd a5 fe 28 bd 2d 25 30 3d 31 81 f3 3d
       -0.061194748 -0.041258473 0.043004204 0.11889876
000290 ea b8 19 be 2a 38 79 3d d5 cf 0b bc af d6 46 bc
       -0.15011945 0.060844578 -0.008533438 -0.0121361455
0002a0 0f 84 2a bd 0d 12 0c 3e 72 c5 33 be 64 02 88 bd
       -0.041629847 0.13678761 -0.17555788 -0.06641081
0002b0 1e bf 6e 3b 84 bd d7 bd f4 26 0d bd 8b de ec bb
       0.0036429833 -0.10534194 -0.034460977 -0.0072286776
0002c0 29 f5 73 bc 53 83 de 3d 3e 5f c9 3d 4f ca 4a 3d
       -0.014889994 0.10864892 0.09832619 0.049509343
0002d0 d1 5c b8 bd bc d3 39 bc 55 d8 5a 3d b9 75 84 3d
       -0.09002078 -0.011341985 0.053428967 0.06467766
0002e0 1a 9c 19 3d 25 d4 1d bd 50 94 d5 3a 35 1c 40 3c
       0.037502386 -0.038532395 0.0016294811 0.011725475
0002f0 bf e3 7e 3d 91 71 0d be 40 d6 90 bd 68 18 37 3e
       0.062228914 -0.13812853 -0.07072115 0.17880404
000300 c3 06 24 be 13 b6 bd 3c 9b ce 88 3d c5 a6 13 bc
       -0.16018204 0.023158109 0.06680032 -0.009011929
000310 4b 52 b7 3a cf d7 a0 3c 99 98 82 3d 35 d1 22 3d
       0.0013986317 0.019634156 0.06376762 0.039750297
000320 b1 94 3f bd 36 ae 63 3d 21 2d 15 bd a9 ff d4 3d
       -0.046772663 0.055586062 -0.03641999 0.10400326
000330 71 f4 c0 3c 86 8c e9 bd 52 a6 cb bc 33 d9 4b 3d
       0.023554059 -0.11403756 -0.024859581 0.049767684
000340 2f 21 27 3d 21 36 20 3e ab aa 43 bd ff 4d 18 bd
       0.04080313 0.15645649 -0.047770184 -0.037183758
000350 12 b4 06 be c2 09 18 39 a3 44 b3 3d 5e 38 a9 3c
       -0.13154629 0.00014499485 0.08753326 0.02065676
000360 f7 2a 26 3e 6f 34 bd bd 47 a8 5c 3d 7c be 97 bd
       0.16227327 -0.092385165 0.05387142 -0.07409379
000370 91 2e 15 bc dc 3c 1b 3d 4f cb 1d 3d cf 22 ab bc
       -0.009105341 0.037899837 0.03852397 -0.020890621
000380 bb 7f 31 bd fa 49 2a bc 68 6c 13 3d eb 83 17 3a
       -0.043334704 -0.010393614 0.035992056 0.000577985
000390 5f 58 da bd 64 8f 30 3e e8 5c 72 bd 7b 56 1b bd
       -0.10661387 0.17242199 -0.059170634 -0.03792427
0003a0 4b 46 6e 3d 7f 03 6e 3c 37 b3 bb bd 4e c4 51 3e
       0.058172505 0.014527201 -0.09165042 0.2048504
0003b0 00 fe 61 3c dc b9 86 3c 60 5e b5 3c 10 04 49 3d
       0.0137934685 0.016446047 0.022139728 0.04907614
0003c0 c6 3d 4e 3e b2 83 bc 3d 98 b6 72 bb 1f 00 f8 3c
       0.20140752 0.092048064 -0.0037035104 0.030273495
0003d0 83 2a b6 3d c4 df fe bc 79 6a 04 3e 18 09 bc 3d
       0.08894827 -0.03111256 0.12931241 0.09181422
0003e0 63 69 35 be 62 db a7 bd 07 b4 07 3d 9b 4a b1 3d
       -0.17715983 -0.08196141 0.03313067 0.08656808
0003f0 25 28 02 bd a0 c6 05 3c 20 c9 cf bc 40 f9 77 3d
       -0.031776566 0.008165032 -0.025364459 0.060540438

network_body._body_endoder.seq_layers.2.bias f4 [128]
000000 15 6c 8f bc 5c 65 8f 3c 3e 50 8f bc c7 6c 8f bc
       -0.017507592 0.017504387 -0.017494317 -0.017507924
000010 48 3c 8e 3c d0 f8 86 3c 53 66 8f bc 06 6b 8f bc
       0.017362729 0.016476065 -0.017504847 -0.017507087
000020 e0 6c 8f bc 04 68 8f 3c 9d 0b 8f bc ea 79 8f 3c
       -0.01750797 0.017505653 -0.017461592 0.017514188
000030 ba 57 8f bc ae 6a 8f bc e3 10 8f 3c bd 67 8f 3c
       -0.017497886 -0.017506924 0.017464107 0.017505521
000040 bd 6b 8f bc 41 67 8f 3c 82 c0 8f 3c 03 3d 8f 3c
       -0.017507428 0.01750529 0.01754785 0.017485147
000050 39 9a a8 3c 07 59 8f bc b6 68 8f 3c 7e c6 8e 3c
       0.020581352 -0.017498506 0.017505985 0.017428633
000060 d0 f2 8e bc b8 76 82 3c 40 67 8f 3c 00 68 8f 3c
       -0.017449766 0.01592575 0.017505288 0.017505646
000070 13 45 8f 3c 39 5f 8f 3c 30 1a 6b 3b 92 65 8f bc
       0.017488992 0.01750146 0.0035873763 -0.017504487
000080 f7 58 8f 3c 57 6c 8f bc a4 6a 8f bc 91 6b 8f bc
       0.017498476 -0.017507715 -0.017506905 -0.017507346
000090 0f 54 8f bc 37 6c 8f bc 42 ef 8a 3c f0 76 8d 3c
       -0.017496137 -0.017507656 0.01695979 0.017268628
0000a0 dc 68 8f 3c e7 73 8f 3c 01 9b 8f 3c 97 c7 d8 37
       0.017506056 0.017511321 0.017529966 2.5842148e-05
0000b0 3c 6a 8f bc dc 99 89 3c 91 64 8f 3c 74 9d 8f 3c
       -0.017506711 0.016796999 0.017504008 0.017531134
0000c0 b3 68 8f 3c 7d c3 8a 3c d1 67 8f 3c f1 c7 5c bc
       0.01750598 0.01693892 0.017505558 -0.013475404
0000d0 16 63 8f 3c 11 6d 8f bc 2d 6b 8f bc 88 ad 8e bc
       0.017503303 -0.017508062 -0.01750716 -0.01741673
0000e0 39 a8 8f 3c ec 70 8f 3c c0 ee 8e 3c 9b 7e 8f 3c
       0.01753627 0.0175099 0.01744783 0.017516425
0000f0 81 63 8f 3c 22 71 8f bc 8a 36 8f 3c fe 5b 8f 3c
       0.017503502 -0.01751 0.017482061 0.01749992
000100 1c 85 8f 3c 11 a4 8e 3c 31 6a 8f bc e4 7a 77 3c
       0.017519526 0.017412217 -0.01750669 0.015104983
000110 2a 6a 8f bc ce 1e 8f bc 96 68 8f 3c 52 5f 8f 3c
       -0.017506678 -0.017470744 0.017505925 0.017501507
000120 83 68 8f 3c 47 6a 29 3c 42 6c 8f bc 64 d5 d9 3b
       0.01750589 0.01034028 -0.017507676 0.0066477526
000130 ae 6b 8f bc ac 6b 8f bc 30 6f 8d bc 23 5e 8f 3c
       -0.0175074 -0.017507397 -0.017264932 0.017500943
000140 95 58 8f 3c 6a 5f 8f bc ee 69 8f bc 5f e4 8d bc
       0.017498294 -0.017501552 -0.017506566 -0.01732081
000150 4d 67 8f 3c 0c a2 cf 3b 49 65 8f bc 49 0c 8f bc
       0.017505312 0.006336456 -0.017504351 -0.017461913
000160 17 6a 8f bc a7 62 8f bc 98 6a 8f bc 39 67 8f 3c
       -0.017506642 -0.017503096 -0.017506883 0.017505275
000170 d7 84 8f 3c 5a ba 8e 3c dc 67 8f 3c a4 93 8f 3c
       0.017519398 0.017422844 0.017505579 0.017526455
000180 04 54 8f bc 69 47 8f bc 35 6f 37 bb 91 9e 8f 3c
       -0.017496116 -0.017490106 -0.0027989869 0.017531665
000190 61 aa 8e 3c 97 f0 8d 3c 0e 62 8f 3c 1c 67 8f 3c
       0.017415227 0.017326636 0.01750281 0.017505221
0001a0 4f 6c 8f bc f4 df 8f 3c 35 62 8f 3c 9e 65 8f 3c
       -0.0175077 0.017562844 0.017502883 0.01750451
0001b0 59 b1 8f 3c 15 6a 8f bc 99 6a 8f bc 0c be 8d 3c
       0.01754062 -0.017506639 -0.017506884 0.017302535
0001c0 66 8a 8e bc 38 63 8f bc 11 5b 92 3c 95 3d 8f 3c
       -0.017399978 -0.017503366 0.01786569 0.01748542
0001d0 2c 6c 8f bc 8e 07 8f 3c f0 68 8f 3c a9 51 8e 3c
       -0.017507635 0.017459657 0.017506093 0.017372923
0001e0 b0 6b 8f bc bf 66 8f 3c 69 e1 2b 3c 09 c1 8d 3c
       -0.017507404 0.017505048 0.010490754 0.01730396
0001f0 ca 68 8f 3c 0f 6a d1 bb 85 89 8f 3c 10 6a 8f bc
       0.017506022 -0.006390817 0.01752163 -0.01750663

action_model._continuous_distribution.mu.weight f4 [1, 128]
000000 63 1d 1f bb 36 dd d6 3c bc 21 55 bb 78 02 5a 3b
       -0.002427899 0.026228528 -0.0032521328 0.0033265632
000010 5e d4 a2 3c 93 81 07 bd b2 d2 cd 3b 37 16 0f 3c
       0.019876655 -0.033082556 0.0062812204 0.008733324
000020 e6 a1 6f 3b 22 48 2a 3d 2e 68 e8 bb 8e bb 4d bd
       0.0036565005 0.041572697 -0.0070924973 -0.050227694
000030 c2 97 3a 3c e7 ec dd 3b 38 52 b8 bc b6 20 0d 3d
       0.011388721 0.0067726257 -0.022500142 0.034455024
000040 e7 22 31 3c a5 36 0c 3d 27 18 27 bd cf 64 96 3c
       0.010811544 0.0342318 -0.040794518 0.018358616
000050 b6 04 07 bd 26 de 26 bc 8d 36 7d 3d 8c af e8 bc
       -0.032963477 -0.0101848 0.0618196 -0.02840402
000060 2b 51 80 bc 1b 1c bc bc 18 3e 08 3d f3 63 1d 3d
       -0.015663704 -0.02296262 0.033262342 0.038425397
000070 c9 ac a1 bc 01 c4 d7 3c 48 c9 a5 bc e3 d6 06 3b
       -0.01973571 0.02633858 -0.02023758 0.002057486
000080 74 54 a3 3c 9f b5 da 3b 3c 3a 27 bd 41 08 71 bc
       0.019937731 0.006674483 -0.04082702 -0.014711441
000090 bb a0 ca ba c6 cc 47 3a 59 dd 05 bd f0 0e d3 bc
       -0.0015459278 0.0007621761 -0.032681797 -0.025763959
0000a0 f1 d2 54 3d 8c 54 7c bc aa 07 07 bd e3 8b 36 bc
       0.051958982 -0.015401017 -0.032966293 -0.01114175
0000b0 1c 68 0d bd 8d 39 c3 bc ba ec cb 3c a1 e6 f3 bc
       -0.034523115 -0.023831153 0.024893153 -0.029773058
0000c0 67 8d 60 3d 85 13 ba bc 7b 0e 25 3d 8d 05 82 bc
       0.05482235 -0.022714386 0.040297013 -0.015871787
0000d0 c1 5e c2 3c 13 5f ca bb b2 68 1e 3c 5f 55 81 bc
       0.023726823 -0.0061758845 0.009668516 -0.015787778
0000e0 66 de 52 bd 93 03 77 bc 39 76 ee bc c4 a1 1b bd
       -0.051481627 -0.015076536 -0.029109107 -0.03799607
0000f0 99 e9 c5 3c c9 6e 81 3c 73 35 be bc ef 55 a7 3c
       0.02415924 0.015799897 -0.023218846 0.020426719
000100 cf 0c d9 bc bc 43 1c bd 47 28 c6 bb d9 49 8f 3c
       -0.026495365 -0.038150534 -0.006047282 0.017491268
000110 6a 45 01 bc bc a0 42 bc e7 09 53 3d 79 7d cd 3c
       -0.007890085 -0.011879142 0.051523115 0.025084244
000120 60 a9 38 3d c8 2a da bc 3e 8c 00 3c 79 5e fb bc
       0.045083404 -0.026631728 0.007845936 -0.030684697
000130 c8 be 99 b9 e1 ed 04 3c 35 68 a3 bc 90 c6 a9 3c
       -0.00029324577 0.008113355 -0.01994715 0.020724565
000140 7c 7a 08 bd 5c b8 7a 3c 83 fb 20 bc 0a 69 82 bc
       -0.033319935 0.015302744 -0.00982559 -0.015919227
000150 2d 0c 0d 3d 03 9e cd bc c1 77 af bc 43 aa 80 bc
       0.03443544 -0.02509976 -0.021419408 -0.015706187
000160 45 c2 94 bb 2e c2 87 3c b7 63 93 3b a8 38 0b 3d
       -0.0045397603 0.016572084 0.004497971 0.03398958
000170 25 df 80 bc ea 0c d5 bc b2 6e 21 3d b0 fb 24 bd
       -0.015731404 -0.026007134 0.039412208 -0.04027909
000180 22 1d 9d bc 62 9a ea bc 92 66 f2 bb c1 50 ba bc
       -0.01917893 -0.028638069 -0.0073974812 -0.022743585
000190 9d 03 c9 bc 21 41 98 bc b1 7a bb 3c bf 32 ff 3c
       -0.024537856 -0.018585743 0.022885652 0.031152127
0001a0 e0 71 56 3b 96 cc e3 bc 06 f5 b7 3c 5d 2d e1 3c
       0.0032721683 -0.027807515 0.022455703 0.027487451
0001b0 2a 9f 06 bd af f9 b6 bb 9b 92 9d 3b 4f e1 07 bd
       -0.032866634 -0.005583964 0.0048087365 -0.033173855
0001c0 c6 e0 c8 3b 6e ad 08 bb 2c b4 b9 bc 77 03 11 bd
       0.0061303107 -0.0020855325 -0.02266892 -0.035403695
0001d0 4b c0 1a bd b6 02 93 3c c6 01 51 3d d7 64 df bc
       -0.03778104 0.017945629 0.051027082 -0.027269764
0001e0 eb 2a 3e 3c 04 79 00 3d cf 25 cd bc 94 64 1c bd
       0.011606912 0.03136541 -0.025042443 -0.038181856
0001f0 2e 25 42 3d b3 74 62 bb 18 69 09 bd ee 19 10 bc
       0.04739874 -0.0034554421 -0.03354749 -0.008795245

action_model._discrete_distribution.branches.0.weight f4 [1, 128]
000000 eb be 89 3b 42 92 e0 bb a3 ed 28 3c 2f b4 59 bc
       0.0042036674 -0.006853373 0.010310563 -0.013287588
000010 05 f8 db 39 7b 01 02 3c 03 81 98 bb ab a1 82 ba
       0.00041955724 0.007934923 -0.0046540513 -0.0009966394
000020 33 14 5d bc 22 b1 25 3c f0 ca 7c 3b 07 4e 61 bb
       -0.013493585 0.010113033 0.0038573109 -0.0034378783
000030 27 1f 31 bc 52 71 9e bb 26 ac 9c 3b ef 0f 84 3c
       -0.01081065 -0.004835286 0.004781264 0.016120879
000040 69 35 19 3b 53 b5 0a 3b f5 ec 7b bc bd e1 10 bc
       0.0023377782 0.0021165207 -0.015376319 -0.008842883
000050 1c 80 39 3c cf bb cd 3b be 5e 32 bc cf 85 04 3b
       0.011322048 0.006278492 -0.010886846 0.0020221358
000060 8f 45 2b 3c 83 b2 da ba 1d 76 cf 3b d9 e3 02 3b
       0.010453596 -0.0016685281 0.006331219 0.0019972234
000070 cd 72 75 bb 5f eb 77 bc c5 2a 71 39 aa 81 cd bb
       -0.003745246 -0.0151318 0.00022999484 -0.0062715607
000080 f2 88 f3 bb 5f 0c 27 bc de f7 86 b9 b9 53 23 3c
       -0.0074320966 -0.010195821 -0.00025743147 0.0099686915
000090 75 55 59 3c 55 36 3b 3c b2 dd 93 bb b0 4a 26 3c
       0.013265003 0.011426528 -0.004512512 0.010149643
0000a0 97 2f fe bb a2 94 6a ba 9f 70 4a 3b 5d 76 39 3c
       -0.007757138 -0.00089485396 0.0030889881 0.011319724
0000b0 5c e8 10 3c 78 59 d9 3a bd 72 33 bc e8 8b e4 3b
       0.008844461 0.001658245 -0.010952649 0.006974686
0000c0 5e 5f 91 bb cd ef 17 3b f4 71 3c 3b e8 ea fa bb
       -0.0044364175 0.0023183704 0.0028754445 -0.0076573975
0000d0 37 c6 e5 bb 47 37 56 bc 50 b5 ac bb 84 d2 89 3c
       -0.0070121544 -0.013074703 -0.0052706376 0.016824014
0000e0 19 89 2e bb 24 4e 27 3c 93 2a 8c 3b d9 f9 b9 bb
       -0.002663201 0.010211501 0.004277536 -0.005675536
0000f0 0f a1 d3 3a da 1a 81 bb 9d 5e ed bb df cf a0 3b
       0.0016146022 -0.0039399685 -0.007243945 0.0049075927
000100 8f 01 e7 3b c4 32 a9 bb 7b ae c4 3a 23 16 47 3c
       0.0070497463 -0.0051635224 0.0015005613 0.012151274
000110 8d ea 06 3c f5 2a 1e bb 20 0c 12 3b 9b 19 0c 3c
       0.008234632 -0.002413449 0.002228506 0.008551027
000120 68 d4 3d 3c 1d 3b 88 bb 6b 68 65 3b 50 6f eb bc
       0.011586286 -0.0041574375 0.0035004865 -0.028739601
000130 b7 7e 1f bc 8b 91 15 3c 95 f3 a5 bb fe 18 9d 3b
       -0.009734801 0.009128938 -0.0050644376 0.004794239
000140 40 3f f3 ba 1f 83 8a 3b 00 13 82 3b 2a 1f d3 3b
       -0.0018558279 0.0042270566 0.00396955 0.006442924
000150 20 0b 7a b8 02 a3 78 3a 72 73 8c 3c 25 3c f0 bb
       -5.9615006e-05 0.0009484739 0.017144892 -0.0073313885
000160 5e aa 1e bc 30 ce 8f 3b 61 00 0b 3c 13 66 c3 ba
       -0.009684173 0.004388593 0.008483977 -0.001490774
000170 ad 9f 11 3b 82 16 41 bc ce 31 08 3c 94 b5 36 3c
       0.0022220418 -0.011785151 0.008312656 0.01115169
000180 37 a7 81 ba 33 b1 7d 3c 8d fd 07 3c 6a 02 a4 bb
       -0.0009891753 0.015484142 0.008300197 -0.0050051706
000190 09 ee 89 3a d7 1e c9 ba 4f 0a 91 3c f9 82 22 3c
       0.001052321 -0.0015344274 0.01770511 0.009918922
0001a0 af fe 22 3c 5f e6 48 3b 1a 6f f0 ba ae b8 45 3a
       0.009948417 0.003065489 -0.0018343658 0.0007542473
0001b0 71 85 89 3a 79 30 29 3c 73 81 55 3c 6b 10 06 3c
       0.0010492039 0.010326498 0.013031351 0.008182625
0001c0 65 cd 02 39 b1 20 ad bb 73 74 fd bb 88 52 d3 ba
       0.00012474282 -0.005283438 -0.007734829 -0.0016122619
0001d0 77 24 9a ba cf de 41 3c 14 a7 1c 3c 4b 7a cc bb
       -0.0011760135 0.011832907 0.009561319 -0.0062401644
0001e0 00 1e a4 bb 8a 9e 4f 3b 2f bf dd ba 0b 10 67 3c
       -0.005008459 0.003168019 -0.0016917939 0.014102946
0001f0 de 89 91 bc 78 2d bc 3b 0d dd e8 bb ef de 4e bc
       -0.017765936 0.005742725 -0.0071064294 -0.012626394

exp_avg f4 [128, 6]
000000 c3 4e c3 21 8f a7 9d 20 00 00 00 00 59 53 fb 21
       1.3234562e-18 2.6707716e-19 0.0 1.7030484e-18
000010 b5 f6 45 21 00 00 00 00 ee 7d e2 a3 ca d7 b6 a2
       6.707271e-19 0.0 -2.4556302e-17 -4.9559674e-18
000020 00 00 00 00 f9 b9 11 a4 40 91 65 a3 00 00 00 00
       0.0 -3.1599388e-17 -1.2444873e-17 0.0
000030 3c 3b 0d a5 a9 0a e4 a3 00 00 00 00 e5 bc 35 a5
       -1.224987e-16 -2.4724324e-17 0.0 -1.5763247e-16
000040 9a 25 8f a4 00 00 00 00 9c 70 f9 22 9d 52 c9 21
       -6.2080064e-17 0.0 6.7610815e-18 1.3642157e-18
000050 00 00 00 00 3e 7e 20 23 26 d7 7c 22 00 00 00 00
       0.0 8.70035e-18 3.4266267e-18 0.0
000060 fb 12 c9 a3 a7 54 a2 a2 00 00 00 00 41 5f 01 a4
       -2.1800502e-17 -4.3999817e-18 0.0 -2.80531e-17
000070 60 cd 4b a3 00 00 00 00 ec 32 19 a5 96 56 f7 a3
       -1.1048142e-17 0.0 -1.3287888e-16 -2.6816464e-17
000080 00 00 00 00 8d 23 45 a5 e2 47 9b a4 00 00 00 00
       0.0 -1.7099071e-16 -6.734231e-17 0.0
000090 dd b0 4d a4 99 09 26 a3 00 00 00 00 ea 57 84 a4
       -4.4602098e-17 -9.0009104e-18 0.0 -5.739481e-17
0000a0 d6 7c d0 a3 00 00 00 00 e8 ed f6 1e 9c 3d c7 1d
       -2.2604275e-17 0.0 2.6144659e-20 5.2738564e-21
0000b0 00 00 00 00 60 e1 1e 1f 0e 50 7a 1e 00 00 00 00
       0.0 3.3644227e-20 1.3251445e-20 0.0
0000c0 6e 28 00 a5 fb e7 ce a3 00 00 00 00 76 ea 24 a5
       -1.1115928e-16 -2.2432812e-17 0.0 -1.4304171e-16
0000d0 67 e6 81 a4 00 00 00 00 d1 3e f9 a3 91 33 c9 a2
       -5.633515e-17 0.0 -2.7023238e-17 -5.4535757e-18
0000e0 00 00 00 00 dc 5d 20 a4 f7 a1 7c a3 00 00 00 00
       0.0 -3.477397e-17 -1.3695245e-17 0.0
0000f0 d4 13 3f 23 1e 3a 1a 22 00 00 00 00 0e e2 75 23
       1.03583295e-17 2.0901659e-18 0.0 1.33293456e-17
000100 09 ae c1 22 00 00 00 00 62 07 a1 24 eb fe 81 23
       5.249702e-18 0.0 6.983513e-17 1.409417e-17
000110 00 00 00 00 d3 36 cf 24 21 37 23 24 00 00 00 00
       0.0 8.9864816e-17 3.5391687e-17 0.0
000120 b0 a8 5d a4 87 ed 32 a3 00 00 00 00 0a 9e 8e a4
       -4.806462e-17 -9.699698e-18 0.0 -6.185041e-17
000130 2c ac e0 a3 00 00 00 00 6a 60 8b a0 2c 09 61 9f
       -2.4359046e-17 0.0 -2.3611317e-19 -4.765319e-20
000140 00 00 00 00 d9 59 b3 a0 c2 44 0d a0 00 00 00 00
       0.0 -3.0383236e-19 -1.1965915e-19 0.0
000150 db f5 03 24 b8 0d d5 22 00 00 00 00 05 cf 29 24
       2.8614345e-17 5.774829e-18 0.0 3.6821386e-17
000160 c3 c0 85 23 00 00 00 00 6a 7b 80 a3 c1 7f 4f a2
       1.4501527e-17 0.0 -1.3930056e-17 -2.8121364e-18
000170 00 00 00 00 7f 54 a5 a3 d5 37 02 a3 00 00 00 00
       0.0 -1.7925121e-17 -7.059137e-18 0.0
000180 90 d3 1b 24 7c 94 fb 22 00 00 00 00 24 85 48 24
       3.3789468e-17 6.81909e-18 0.0 4.348086e-17
000190 ab f1 9d 23 00 00 00 00 f1 69 1a a5 45 4a f9 a3
       1.7124324e-17 0.0 -1.3393265e-16 -2.7028088e-17
0001a0 00 00 00 00 e7 b3 46 a5 7d 83 9c a4 00 00 00 00
       0.0 -1.7234716e-16 -6.7876965e-17 0.0
0001b0 4e 03 b9 9c 67 1f 96 9b 00 00 00 00 cb 02 ee 9c
       -1.2243127e-21 -2.4835712e-22 0.0 -1.5750241e-21
0001c0 41 4b 3b 9c 00 00 00 00 02 9c b5 22 39 9e 92 21
       -6.1970373e-22 0.0 4.922533e-18 9.935226e-19
0001d0 00 00 00 00 5c b2 e9 22 ac 12 38 22 00 00 00 00
       0.0 6.334362e-18 2.4946535e-18 0.0
0001e0 af 6f a4 a4 9a bb 84 a3 00 00 00 00 93 99 d3 a4
       -7.131286e-17 -1.4390921e-17 0.0 -9.176683e-17
0001f0 4f ac 26 a4 00 00 00 00 2d f6 9b 22 11 be 7b 21
       -3.6141463e-17 0.0 4.2273483e-18 8.529366e-19
000200 00 00 00 00 54 b2 c8 22 e8 16 1e 22 00 00 00 00
       0.0 5.439892e-18 2.142512e-18 0.0
000210 1a c8 b1 9e de 71 8f 9d 00 00 00 00 3b c7 e4 9e
       -1.8823364e-20 -3.796952e-21 0.0 -2.4222839e-20
000220 e4 37 34 9e 00 00 00 00 01 b9 df 23 c2 98 b4 22
       -9.5406786e-21 0.0 2.425606e-17 4.8950836e-18
000230 00 00 00 00 f3 f1 0f 24 7d c3 62 23 00 00 00 00
       0.0 3.121312e-17 1.2292881e-17 0.0
000240 61 7b 0f a5 89 a4 e7 a3 00 00 00 00 9e a2 38 a5
       -1.2445075e-16 -2.5114754e-17 0.0 -1.6014553e-16
000250 cf 6e 91 a4 00 00 00 00 ba a3 6e 20 22 93 40 1f
       -6.307144e-17 0.0 2.0213557e-19 4.0779287e-20
000260 00 00 00 00 ac 8b 99 20 0a e7 f1 1f 00 00 00 00
       0.0 2.6011635e-19 1.0244969e-19 0.0
000270 9b 41 f7 a4 e6 97 c7 a3 00 00 00 00 3c 16 1f a5
       -1.07230315e-16 -2.1639955e-17 0.0 -1.3798585e-16
000280 fe 9d 7a a4 00 00 00 00 cd 31 49 23 02 6a 22 22
       -5.4343933e-17 0.0 1.09067776e-17 2.2011214e-18
000290 00 00 00 00 3f 73 81 23 a5 ed cb 22 00 00 00 00
       0.0 1.4035017e-17 5.5274876e-18 0.0
0002a0 e5 b7 14 a5 70 19 f0 a3 00 00 00 00 99 5f 3f a5
       -1.289926e-16 -2.6031625e-17 0.0 -1.6598999e-16
0002b0 76 bd 96 a4 00 00 00 00 83 1e 18 a4 60 95 f5 a2
       -6.537309e-17 0.0 -3.298559e-17 -6.656554e-18
0002c0 00 00 00 00 fc bf 43 a4 26 30 9a a3 00 00 00 00
       0.0 -4.2446502e-17 -1.6717105e-17 0.0
0002d0 2f a9 14 a3 f0 f4 ef a1 00 00 00 00 30 4d 3f a3
       -8.058922e-18 -1.6260104e-18 0.0 -1.0370476e-17
0002e0 77 b0 96 a2 00 00 00 00 5c f9 a4 a2 38 2a 85 a1
       -4.084442e-18 0.0 -4.471631e-18 -9.023606e-19
0002f0 00 00 00 00 ce 4a d4 a2 06 38 27 a2 00 00 00 00
       0.0 -5.7541918e-18 -2.2662379e-18 0.0
000300 05 8a 0b 1c 0a f9 e0 1a 00 00 00 00 25 93 33 1c
       4.616963e-22 9.304657e-23 0.0 5.941631e-22
000310 84 7b 8d 1b 00 00 00 00 4f d5 90 a2 ea b9 69 a1
       2.3406313e-22 0.0 -3.9257127e-18 -7.9189526e-19
000320 00 00 00 00 c7 60 ba a2 39 d1 12 a2 00 00 00 00
       0.0 -5.051787e-18 -1.9897451e-18 0.0
000330 e2 63 98 21 7e 07 76 20 00 00 00 00 2d 19 c4 21
       1.0326359e-18 2.083949e-19 0.0 1.3288141e-18
000340 27 76 1a 21 00 00 00 00 32 00 1d a3 e7 90 fd a1
       5.2333603e-19 0.0 -8.511028e-18 -1.7182302e-18
000350 00 00 00 00 ed 06 4a a3 e5 1e 9f a2 00 00 00 00
       0.0 -1.09519085e-17 -4.3129747e-18 0.0
000360 3b 90 2b 24 d1 81 0a 23 00 00 00 00 f8 c4 5c 24
       3.7201882e-17 7.508485e-18 0.0 4.7871735e-17
000370 0e e4 ad 23 00 00 00 00 3e ba 59 9e be 80 2f 9d
       1.8853283e-17 0.0 -1.1526398e-20 -2.3227615e-21
000380 00 00 00 00 0f 19 8c 9e 7f c3 dc 9d 00 00 00 00
       0.0 -1.483344e-20 -5.8435653e-21 0.0
000390 26 74 5d 1f b1 b1 32 1e 00 00 00 00 04 7d 8e 1f
       4.6894646e-20 9.459987e-21 0.0 6.034616e-20
0003a0 32 7c e0 1e 00 00 00 00 3e da 18 21 70 c2 f6 1f
       2.3768289e-20 0.0 5.1788444e-19 1.0450672e-19
0003b0 00 00 00 00 9d b1 44 21 bc ee 9a 20 00 00 00 00
       0.0 6.664245e-19 2.6246596e-19 0.0
0003c0 1d 96 ec a4 5f fb be a3 00 00 00 00 bf 38 18 a5
       -1.0260299e-16 -2.0706301e-17 0.0 -1.3203125e-16
0003d0 3f cd 6f a4 00 00 00 00 1f d2 9e 1e c6 1e 80 1d
       -5.1998714e-17 0.0 1.6815805e-20 3.3913137e-21
0003e0 00 00 00 00 7f 61 cc 1e 61 01 21 1e 00 00 00 00
       0.0 2.1639664e-20 8.523554e-21 0.0
0003f0 d4 bd 8e a0 aa 5a 66 9f 00 00 00 00 ba af b7 a0
       -2.4181353e-19 -4.877939e-20 0.0 -3.1117692e-19

exp_avg_sq f4 [128, 6]
000000 ae 00 ff 2d ed fc 84 2c 00 00 00 00 47 c9 14 2e
       2.8990445e-11 3.779746e-12 0.0 3.3830074e-11
000010 75 fb ab 2c 00 00 00 00 3b c0 00 33 99 4a 86 31
       4.8880297e-12 0.0 2.9977155e-08 3.908394e-09
000020 00 00 00 00 a2 3e 16 33 05 ab ad 31 00 00 00 00
       0.0 3.498156e-08 5.0544053e-09 0.0
000030 5d 97 56 2d 47 c6 df 2b 00 00 00 00 8a 64 7a 2d
       1.2198101e-11 1.5900136e-12 0.0 1.4233179e-11
000040 17 b9 10 2c 00 00 00 00 24 97 6e 33 85 db f8 31
       2.0566376e-12 0.0 5.5551155e-08 7.2427064e-09
000050 00 00 00 00 d5 35 8b 33 d6 e9 20 32 00 00 00 00
       0.0 6.482484e-08 9.366394e-09 0.0
000060 7a a9 aa 33 84 01 32 32 00 00 00 00 fa 26 c7 33
       7.9470695e-08 1.0361308e-08 0.0 9.2737494e-08
000070 4b 33 66 32 00 00 00 00 9c 4c ff 33 86 24 85 32
       1.3399425e-08 0.0 1.1888298e-07 1.5499847e-08
000080 00 00 00 00 a0 f5 14 34 a9 2e ac 32 00 00 00 00
       0.0 1.3872932e-07 2.0044654e-08 0.0
000090 de 81 56 34 ea bc df 32 00 00 00 00 2e 51 7a 34
       1.9977549e-07 2.6046525e-08 0.0 2.3312597e-07
0000a0 b9 ab 10 33 00 00 00 00 b9 59 14 26 ee bb 9a 24
       3.3683794e-08 0.0 5.146941e-16 6.710522e-17
0000b0 00 00 00 00 ac 1d 2d 26 dc 1a c8 24 00 00 00 00
       0.0 6.0061645e-16 8.6781675e-17 0.0
0000c0 e7 0d 00 34 95 90 85 32 00 00 00 00 8c 6e 15 34
       1.1925987e-07 1.5548986e-08 0.0 1.3916923e-07
0000d0 6d ba ac 32 00 00 00 00 c7 bd 01 33 11 53 87 31
       2.0108212e-08 0.0 3.0207755e-08 3.9384607e-09
0000e0 00 00 00 00 8a 66 17 33 00 01 af 31 00 00 00 00
       0.0 3.5250686e-08 5.093284e-09 0.0
0000f0 b5 61 6b 33 ba 82 f5 31 00 00 00 00 94 56 89 33
       5.4804065e-08 7.1453004e-09 0.0 6.395308e-08
000100 d5 bf 1e 32 00 00 00 00 7d 00 f8 31 40 56 81 30
       9.240428e-09 0.0 7.2178055e-09 9.410499e-10
000110 00 00 00 00 9e b3 10 32 cc 42 a7 30 00 00 00 00
       0.0 8.422743e-09 1.2169834e-09 0.0
000120 eb 07 e4 30 ef d7 6d 2f 00 00 00 00 94 0c 05 31
       1.6591434e-09 2.163174e-10 0.0 1.9361197e-09
000130 a5 ca 99 2f 00 00 00 00 ac 83 89 30 88 6e 0f 2f
       2.7974525e-10 0.0 1.0005485e-09 1.3045043e-10
000140 00 00 00 00 90 78 a0 30 02 7d 39 2f 00 00 00 00
       0.0 1.1675798e-09 1.6870064e-10 0.0
000150 10 02 8e 31 68 1e 14 30 00 00 00 00 04 b7 a5 31
       4.1329784e-09 5.3885296e-10 0.0 4.8229385e-09
000160 c4 8c 3f 30 00 00 00 00 2e 61 8e 32 b3 81 14 31
       6.9685435e-10 0.0 1.6575168e-08 2.161056e-09
000170 00 00 00 00 10 26 a6 32 19 0d 40 31 00 00 00 00
       0.0 1.9342252e-08 2.7947122e-09 0.0
000180 88 7c 2f 34 b8 09 b7 32 00 00 00 00 38 c8 4c 34
       1.6343449e-07 2.1308423e-08 0.0 1.907182e-07
000190 2e b5 ec 32 00 00 00 00 4d b2 08 34 32 94 8e 32
       2.7556407e-08 0.0 1.2730852e-07 1.6598367e-08
0001a0 00 00 00 00 40 84 1f 34 ad 62 b8 32 00 00 00 00
       0.0 1.4856141e-07 2.1465292e-08 0.0
0001b0 da 95 9b 28 dd 47 22 27 00 00 00 00 15 8f b5 28
       1.7273445e-14 2.2520973e-15 0.0 2.0157089e-14
0001c0 2e dd 51 27 00 00 00 00 53 5e a2 2f f6 5a 29 2e
       2.9124478e-15 0.0 2.953465e-10 3.850694e-11
0001d0 00 00 00 00 68 79 bd 2f 65 03 5b 2e 00 00 00 00
       0.0 3.4465164e-10 4.979785e-11 0.0
0001e0 6e 4f 37 34 c7 32 bf 32 00 00 00 00 85 e9 55 34
       1.70721e-07 2.2258417e-08 0.0 1.9922125e-07
0001f0 db 42 f7 32 00 00 00 00 7f 91 8e 33 03 b4 14 32
       2.8784987e-08 0.0 6.638856e-08 8.655664e-09
000200 00 00 00 00 62 5e a6 33 3e 4e 40 32 00 00 00 00
       0.0 7.7471455e-08 1.1193661e-08 0.0
000210 7f f4 a2 23 a6 f7 29 22 00 00 00 00 9d 28 be 23
       1.7667623e-17 2.3034875e-18 0.0 2.0617042e-17
000220 f4 cd 5b 22 00 00 00 00 fd 6e cc 31 09 3b 55 30
       2.9789065e-18 0.0 5.9497993e-09 7.757284e-10
000230 00 00 00 00 c7 8f ee 31 76 e0 89 30 00 00 00 00
       0.0 6.9430572e-09 1.0031858e-09 0.0
000240 07 2e 4d 34 52 02 d6 32 00 00 00 00 b4 6e 6f 34
       1.9108857e-07 2.4913934e-08 0.0 2.2298883e-07
000250 51 61 0a 33 00 00 00 00 95 5a ec 27 41 86 76 26
       3.2219138e-08 0.0 6.5601368e-15 8.5530343e-16
000260 00 00 00 00 b5 e7 09 28 a5 67 9f 26 00 00 00 00
       0.0 7.655271e-15 1.1060934e-15 0.0
000270 a6 91 ec 32 b4 bf 76 31 00 00 00 00 df 07 0a 33
       2.754025e-08 3.5906682e-09 0.0 3.2137788e-08
000280 c5 8c 9f 31 00 00 00 00 c8 0d 8a 30 89 fe 0f 2f
       4.6435127e-09 0.0 1.0044738e-09 1.3096203e-10
000290 00 00 00 00 b4 19 a1 30 55 37 3a 2f 00 00 00 00
       0.0 1.1721597e-09 1.693626e-10 0.0
0002a0 06 05 b3 33 1d b9 3a 32 00 00 00 00 ba e7 d0 33
       8.336251e-08 1.0868715e-08 0.0 9.7279056e-08
0002b0 32 79 71 32 00 00 00 00 e9 61 1b 30 9d 11 a2 2e
       1.4055603e-08 0.0 5.652781e-10 7.370036e-11
0002c0 00 00 00 00 63 52 35 30 1c 97 d1 2e 00 00 00 00
       0.0 6.5964495e-10 9.531062e-11 0.0
0002d0 5e 85 80 2b 23 0d 06 2a 00 00 00 00 f0 f9 95 2b
       9.131964e-13 1.1906149e-13 0.0 1.0656458e-12
0002e0 9b 5b 2d 2a 00 00 00 00 c5 ac 40 2d 51 f7 c8 2b
       1.5397269e-13 0.0 1.0952299e-11 1.4279499e-12
0002f0 00 00 00 00 01 d7 60 2d 41 f2 01 2c 00 00 00 00
       0.0 1.2780666e-11 1.846648e-12 0.0
000300 33 1d 41 21 97 6c c9 1f 00 00 00 00 35 5a 61 21
       6.542959e-19 8.530646e-20 0.0 7.6352353e-19
000310 18 3e 02 20 00 00 00 00 f2 5f a0 33 a3 46 27 32
       1.1031973e-19 0.0 7.468033e-08 9.73674e-09
000320 00 00 00 00 c5 25 bb 33 fb 52 58 32 00 00 00 00
       0.0 8.714736e-08 1.2591722e-08 0.0
000330 df b6 7c 2d 6f cb 03 2c 00 00 00 00 89 73 93 2d
       1.4365147e-11 1.8729148e-12 0.0 1.6763273e-11
000340 68 70 2a 2c 00 00 00 00 c9 ca ba 34 8c d4 42 33
       2.422085e-12 0.0 3.4792745e-07 4.5362455e-08
000350 00 00 00 00 a4 f9 d9 34 2c f5 7b 33 00 00 00 00
       0.0 4.0601037e-07 5.8663474e-08 0.0
000360 4d 76 03 32 7a 1e 89 30 00 00 00 00 88 68 19 32
       7.652102e-09 9.976724e-10 0.0 8.92954e-09
000370 2e 53 b1 30 00 00 00 00 4c bf 27 2d 39 f7 ae 2b
       1.2902086e-09 0.0 9.535327e-12 1.2432062e-12
000380 00 00 00 00 3e c0 43 2d c3 44 e2 2b 00 00 00 00
       0.0 1.1127153e-11 1.6077351e-12 0.0
000390 4f 49 38 2a 6e 37 c0 28 00 00 00 00 0e 0d 57 2a
       1.6367917e-13 2.1340321e-14 0.0 1.9100365e-13
0003a0 cc 93 f8 28 00 00 00 00 10 40 79 2f e3 fc 01 2e
       2.7597628e-14 0.0 2.2669178e-10 2.9555813e-11
0003b0 00 00 00 00 0a 6e 91 2f 3c 1a 28 2e 00 00 00 00
       0.0 2.6453534e-10 3.822208e-11 0.0
0003c0 64 10 1a 2f 47 b1 a0 2d 00 00 00 00 67 c8 33 2f
       1.4012042e-10 1.8268621e-11 0.0 1.6351152e-10
0003d0 c5 cf cf 2d 00 00 00 00 8d 14 4f 2a c6 fd d7 28
       2.3625444e-11 0.0 1.8392423e-13 2.3979852e-14
0003e0 00 00 00 00 71 a6 71 2a 6e a9 0b 29 00 00 00 00
       0.0 2.1462846e-13 3.1011157e-14 0.0
0003f0 3c 61 75 2b 4a f0 ff 29 00 00 00 00 f3 2b 8f 2b
       8.7176425e-13 1.13659584e-13 0.0 1.017296e-12

exp_avg f4 [128]
000000 ce f9 03 a0 7e 0b 19 22 ce dc 3e 23 75 8f 28 a1
       -1.1178785e-19 2.074145e-18 1.0346678e-17 -5.711048e-19
000010 3d de 07 22 7e 0a 4f 23 e6 fd 8a 22 0e e0 26 9d
       1.8413564e-18 1.1223714e-17 3.76738e-18 -2.208575e-21
000020 37 33 2d 23 fc 6b 28 22 af 1e 81 a1 d8 9e d9 a2
       9.389194e-18 2.2825412e-18 -8.749502e-19 -5.898615e-18
000030 1f c8 95 22 a9 5b bc 1e 57 56 32 a2 c9 9f ad 21
       4.0598417e-18 1.9943184e-20 -2.4169206e-18 1.1765231e-18
000040 89 97 52 a2 55 af 50 23 b0 b9 f9 1a 39 6e f5 a0
       -2.854053e-18 1.1312831e-17 1.0328398e-22 -4.1577554e-19
000050 18 3b de 22 2d c9 d2 a0 82 4a f0 1c fe 2c 17 a2
       6.023579e-18 -3.570851e-19 1.5901128e-21 -2.0488135e-18
000060 18 e9 41 23 b0 44 a1 9e 01 14 27 23 c9 f3 87 a1
       1.05119105e-17 -1.7074947e-20 9.057324e-18 -9.212485e-19
000070 9e fc 48 23 89 95 4d 22 4a eb 48 21 59 f5 de 20
       1.08955155e-17 2.7861844e-18 6.807404e-19 3.777062e-19
000080 a8 a4 3c 9a a5 c1 c3 20 df f2 cd 9f 39 29 54 21
       -3.9010497e-23 3.3162428e-19 -8.7222674e-20 7.188295e-19
000090 b8 da 67 a2 04 2d 93 1c 26 a8 95 9d a4 93 4e 9f
       -3.1422126e-18 9.73928e-22 -3.9613833e-21 -4.3744322e-20
0000a0 2a de 1f 23 7f ac d6 9c bc ed c0 1e 7c 94 a1 a2
       8.666452e-18 -1.4205921e-21 2.0427115e-20 -4.379635e-18
0000b0 d9 82 3b 23 ce b1 4a 20 b9 4f 0c 1d 80 01 98 23
       1.0164998e-17 1.7168896e-19 1.8570061e-21 1.6480508e-17
0000c0 67 99 c6 a0 a4 50 f4 9e 4f b7 37 9f 70 63 20 1b
       -3.3644018e-19 -2.5867857e-20 -3.8903387e-20 1.326702e-22
0000d0 65 04 ec a2 c3 d7 e4 22 c6 59 d8 a2 b6 52 de 21
       -6.397258e-18 6.202797e-18 -5.864197e-18 1.5065199e-18
0000e0 92 c5 a8 22 8f 96 03 9f 58 55 0d 22 c7 bb e5 22
       4.5745677e-18 -2.7864868e-20 1.9154244e-18 6.226939e-18
0000f0 a2 84 a4 22 41 52 92 1f 9a c8 61 9e 73 ea 19 1e
       4.459272e-18 6.196948e-20 -1.1952884e-20 8.1482355e-21
000100 63 e2 a0 a0 da 46 af 22 37 af 46 23 42 32 b0 a1
       -2.7254864e-19 4.750886e-18 1.0770705e-17 -1.1939527e-18
000110 4c b3 74 a2 de c7 8a 22 04 91 89 a2 ce c6 10 11
       -3.3163085e-18 3.7616593e-18 -3.7287466e-18 1.1420858e-28
000120 da 03 4a 23 9b 5b bf 1d b6 0a 78 a3 dd 68 e8 9d
       1.09512575e-17 5.0651997e-21 -1.3446375e-17 -6.1518315e-21
000130 03 66 d9 20 f3 16 42 9f 77 92 5b 1e 5c 23 e1 22
       3.6828736e-19 -4.110008e-20 1.1624052e-20 6.102381e-18
000140 ee 01 2f 22 dc 29 47 23 a1 55 07 20 27 28 99 23
       2.3717944e-18 1.0796676e-17 1.1463277e-19 1.6605298e-17
000150 4e 35 25 20 38 56 9d a3 34 f2 4d 98 bf 85 e5 22
       1.3993681e-19 -1.7058489e-17 -2.661791e-24 6.2212184e-18
000160 3b 34 8f a2 89 28 df 20 5c 44 5f 23 a5 59 f7 1e
       -3.881553e-18 3.7804493e-19 1.210333e-17 2.6189218e-20
000170 b6 71 77 19 a8 83 19 a0 8c 43 3a a3 ca f0 64 23
       1.27925644e-23 -1.3003165e-19 -1.0097384e-17 1.2410894e-17
000180 d5 0a 8b 1c 86 df dd 1d b6 89 88 9f ed 7c 06 23
       9.201048e-22 5.872933e-21 -5.7826064e-20 7.290609e-18
000190 04 3b a8 20 ad 56 51 a2 93 58 61 a2 33 8c be 1e
       2.849936e-19 -2.8370668e-18 -3.0540077e-18 2.0175018e-20
0001a0 3b 97 50 a2 ef 85 ca 1f 82 4c 03 23 73 3b 49 9b
       -2.8269317e-18 8.57719e-20 7.117725e-18 -1.664554e-22
0001b0 c0 ce 17 a1 a3 7f 08 1e d0 d1 22 21 20 d3 70 23
       -5.143442e-19 7.226175e-21 5.516542e-19 1.30551335e-17
0001c0 8b 81 88 a0 45 44 f0 94 0f 0d 66 1b c3 b9 ad 22
       -2.312502e-19 -2.4260735e-26 1.9029374e-22 4.7088427e-18
0001d0 07 b2 07 a0 43 4c 8f 22 02 0e 66 a2 b1 2d 2f 23
       -1.1493849e-19 3.8840973e-18 -3.1178228e-18 9.4964445e-18
0001e0 22 b9 a1 20 09 84 43 23 95 14 ad 21 22 f4 97 a1
       2.7396972e-19 1.0598931e-17 1.1728384e-18 -1.0296779e-18
0001f0 db 5c c1 20 c7 c4 d6 23 9f 3e 6c 9b bf 2c b3 1e
       3.2756918e-19 2.3285265e-17 -1.9541696e-22 1.8970869e-20

exp_avg_sq f4 [128]
000000 80 df 18 2a 1f 5f 1a 2f 7f a4 80 29 b5 08 8f 2f
       1.3577854e-13 1.4040012e-10 5.7128774e-14 2.6017735e-10
000010 5a 9f cc 2f 10 0d 19 30 a6 98 80 30 fc de 31 22
       3.722061e-10 5.567964e-10 9.356611e-10 2.410602e-18
000020 4b 89 19 30 26 8f 1b 2f 4d 1c 8d 2f 22 ad 14 2e
       5.585618e-10 1.4148024e-10 2.566786e-10 3.3805077e-11
000030 20 b4 08 2d ef e0 a4 2c 34 44 aa 2d 59 b6 aa 2e
       7.770701e-12 4.686133e-12 1.935705e-11 7.7630964e-11
000040 2b 68 52 30 f1 e5 23 30 bf 8b ba 24 b1 ad c2 2b
       7.6545587e-10 5.962582e-10 8.090138e-17 1.3832738e-12
000050 b0 c9 5b 30 36 f0 aa 2f c7 61 c3 1f 4d 1d f5 2d
       7.995835e-10 3.10935e-10 8.274747e-20 2.7866287e-11
000060 4b 02 76 30 72 b1 0d 24 6e d2 0d 2f 89 86 a5 2c
       8.9497537e-10 3.0724803e-17 1.2898635e-10 4.7045185e-12
000070 ae a4 d6 2f 75 4d 3a 2c 84 18 9a 27 19 04 67 29
       3.9043385e-10 2.6475187e-12 4.2770166e-15 5.1295858e-14
000080 bd 8a 67 1d b4 49 c0 2f 5d 80 97 29 72 f6 df 30
       3.0644321e-21 3.4976966e-10 6.7280145e-14 1.629543e-09
000090 3e 9f 1d 2e b7 20 49 29 39 f5 5c 26 a5 6c 95 2b
       3.5839103e-11 4.465934e-14 7.666017e-16 1.0617242e-12
0000a0 a6 b8 38 2b 97 49 78 26 a7 1a 93 27 31 b2 93 2b
       6.5626183e-13 8.6142017e-16 4.0829593e-15 1.0494436e-12
0000b0 63 96 77 2f 85 5b 6a 2f 37 cc a7 25 8e 3c f9 2f
       2.2517947e-10 2.131469e-10 2.9108263e-16 4.5335863e-10
0000c0 49 91 c2 29 90 f9 09 2b 7e c4 bd 24 7b 4b 28 1a
       8.6405336e-14 4.9018515e-13 8.2298555e-17 3.4802558e-23
0000d0 c2 0a dc 30 a9 13 4c 2f 54 fa 24 2c 5d 59 45 30
       1.6010164e-09 1.8560677e-10 2.3444762e-12 7.1795175e-10
0000e0 6f 77 68 30 b0 ee c0 28 b5 e7 c6 2e 3a 02 94 30
       8.4570834e-10 2.1419796e-14 9.045157e-11 1.076905e-09
0000f0 a2 0d 25 30 37 10 0e 2a d7 bc 0a 25 0f e9 a1 27
       6.0046024e-10 1.2617759e-13 1.2033573e-16 4.493916e-15
000100 69 a1 3a 30 be f5 15 2f 23 a0 f9 30 04 b4 93 2f
       6.7895783e-10 1.3638776e-10 1.8162648e-09 2.6867053e-10
000110 7e 23 2b 2a da 8b 18 2e 35 1d 17 2f de 3e 9b 10
       1.5200165e-13 3.4685012e-11 1.3743746e-10 6.123358e-29
000120 eb 35 a2 2d f4 08 6d 24 8d 61 1d 31 8d 74 c0 26
       1.8441212e-11 5.1398767e-17 2.2901958e-09 1.3354267e-15
000130 d2 17 2c 30 77 ad 78 29 d1 68 23 25 60 4c 3a 30
       6.2607086e-10 5.521752e-14 1.417351e-16 6.777494e-10
000140 f8 af e0 2e b1 16 67 30 e8 79 3f 2b d9 41 e7 2f
       1.0217599e-10 8.4069557e-10 6.802601e-13 4.2065443e-10
000150 10 2a 30 2a 98 f6 a4 30 08 48 0c 1c 15 1f ed 2e
       1.5646534e-13 1.2002657e-09 4.641521e-22 1.07830335e-10
000160 e7 ed 96 2f 1f 5a da 25 d6 f2 15 2f 6c 28 63 27
       2.745388e-10 3.787804e-16 1.3637744e-10 3.1524491e-15
000170 11 02 91 1b 60 a6 7e 2e 3a c0 18 31 3b d3 9e 2f
       2.3989573e-22 5.7900684e-11 2.222818e-09 2.889012e-10
000180 0b 9e 96 21 9d 4c 5a 21 b7 dc 7b 2b 79 07 44 30
       1.0206229e-18 7.396267e-19 8.9479417e-13 7.1315004e-10
000190 d3 3b c7 2c db 0c 88 2f c4 da 03 31 e9 50 23 28
       5.662562e-12 2.474739e-10 1.9187363e-09 9.065862e-15
0001a0 71 94 1f 30 19 09 de 29 e0 05 34 2d 8f be dc 1c
       5.805481e-10 9.8603587e-14 1.023312e-11 1.4607637e-21
0001b0 c3 9a 99 2d 6c 7b be 27 aa 01 37 2a 71 ae 27 30
       1.7462814e-11 5.286941e-15 1.6254242e-13 6.100214e-10
0001c0 f0 f5 16 2f 25 b7 72 17 f7 cd 8c 1c eb 52 1f 30
       1.3729795e-10 7.842558e-25 9.317664e-22 5.7961697e-10
0001d0 9c eb 2f 2f 6c 81 07 2f 77 24 01 30 f5 bf 80 30
       1.5999863e-10 1.2324158e-10 4.6981746e-10 9.367783e-10
0001e0 b4 c2 8c 2a 36 b5 1f 30 c5 34 32 2b 56 49 24 30
       2.5004098e-13 5.810138e-10 6.3311536e-13 5.976707e-10
0001f0 90 24 37 2c d5 c7 48 31 c0 70 08 1d a2 d2 7c 2b
       2.602616e-12 2.9217422e-09 1.805774e-21 8.9820696e-13
