results/SliderBehavior/SliderBehavior/SliderBehavior-444.onnx (onnx, 77770 bytes, 6 tensors)

network_body._body_endoder.seq_layers.0.weight f4 [128, 6]
00000000: 8ed1 903e 1df7 5a3e 7796 333e 7162 8dbe
00000010: fcdd e73c 63ac b7be 764b 5fbe 77dd 10bf
00000020: 0f5c 553e 8e6f 293d 9122 d33e 9646 aebd
00000030: bb21 c93e 898e d63e c998 12bc c476 aa3e
00000040: 6a22 46bd 529d 15bf e037 e8be a4e1 ec3d
00000050: 0ea3 c0be cfeb 89be 97d1 26bf 735f 833e
00000060: d485 f03d 3f15 b83e b8b4 9cbc 4c43 173e
00000070: a722 f63e 3044 083f 5de6 2bbf 587f 233f
00000080: 2e97 923e 217c c6be c1eb cdbe 3e0c 5f3e
00000090: caf6 14bf afa5 283f fbc1 babc 3bd2 f23e
000000a0: 494d 443f c13f 87ba 7b4a 63be 245e 8c3e
000000b0: 03fe c63e 0d67 acbe dbfb 9d3e 920f 603e
000000c0: ba4c 33bf 179f 6d3f 156c 2b3e 95ef 35bd
000000d0: 858b ac3d 667b c03d 83e4 083f ff5c 2fbf
000000e0: bdf6 47bf ed45 07bf b096 0e3f 6977 6ebf
000000f0: 2c62 cf3d 8bc5 833e 56e8 9cbe 65b3 443f
00000100: 9d43 c6be 0869 653f c142 df3d 392f 953e
00000110: d835 efbe 2abb a4bd 5e71 63bf 3330 703e
00000120: cff0 673d 8050 c83d 5674 053e 4a1e 4abe
00000130: 06ac 13bf bd3b 673d 0fdd 823e 7d70 0b3f
00000140: 0e6c d53d 43ca 043f 070d 26be 07f7 933f
00000150: dd9a 783f 2545 c0be 99fd ad3d eb61 39bf
00000160: ca1e 21be 2b83 f9bd 85f8 dbbe d714 973f
00000170: b6f3 67be 24a1 8ebe e576 2d3e 0f9d 7a3f
00000180: 40a8 343f 9346 d3be a90b b6be 32af cd3e
00000190: e494 0abf df67 dc3e b193 503d 2ff3 823e
000001a0: 6ce5 8cbd d550 a53e cdfe 593e 43b2 c7be
000001b0: 7e68 3a3e 5a04 c13e e51d 863d be27 aa3e
000001c0: 03db 35be 36be b0bd f612 d03e 8126 2d3f
000001d0: c479 7ebe 923d 163f 75ef 053f e46d 99be
000001e0: 8a95 913f 01b1 763f 3ba6 d13e cd44 21be
000001f0: 6300 b43e 0328 41bf 09ae 523d 9b5f 073e
00000200: 5e68 5a3f 5b40 56be 3968 8cbe 0328 8b3e
00000210: ba34 0d3f a8ef a0be 6de9 143c 162f 563e
00000220: d505 133f 05aa 053f d657 8a3e fcd8 d23e
00000230: 45a5 03be d766 003f 1357 61be 401f 05be
00000240: 0c0c 03bf f1fc f33e 7a64 c43e 5e64 023f
00000250: c4b9 ecbe b80b 29bf f3cc 333f 5e97 a83c
00000260: 2e58 123f 3f6b 853d e941 e53e 5792 c43c
00000270: 0921 bc3e 5bc1 7f3e e9bf cb3e f357 3a3e
00000280: 5f76 4c3e 2203 8c3e 3f4e 2fbf 7326 2bbf
00000290: 66b0 eabd e9af f13e a57f d5be 3c81 a03c
000002a0: bec4 3ebe 4e77 0abf 6958 673d 2d41 ab3e
000002b0: 2b0c 563c 04f8 303d 2ab7 d43e 19ee ec3d
000002c0: 38cb a93e e858 a73e e9a9 91bd 16de 03bc
000002d0: f54c 6a3e 5d7c a63e 1084 c43e 2edd e4be
000002e0: 2757 bdbe 1602 87bf 8016 243e c167 81bf
000002f0: 57c1 393f 4e0e 16be 15a1 f13e f5cb 0d3f
00000300: 12fc bebe f77c 873e bee1 b73e cb2f e83e
00000310: 63c7 20bf f0c1 0b3f 6a2f 333e 05fd 923c
00000320: 34fc 633e 6376 e53e 06fd ea3e 4477 9d3e
00000330: a064 1cbd d25d 30bf 6d46 6e3f 4361 113f
00000340: 0a30 103f 2b8a 513f 2293 11bf 38e2 223e
00000350: 1c9f c03d 6e3e e0bd d070 51bd 6734 323f
00000360: ae96 3a3f 068e 67bd ac1b 52be 24f0 3e3e
00000370: dcab 1ebd d634 623f 3f06 763e 612d 66be
00000380: 377b efbe cc4f dd3d 3150 d8be 76b9 2bbe
00000390: 75ab 283e cbba 28bf 40e3 20be def4 3c3f
000003a0: fc23 28be 9673 dfbc 9137 9a3d 7347 203f
000003b0: 0190 293e b858 e9bd e2b5 6bbe f850 d43e
000003c0: 35a7 10bc df95 df3e 8bb3 0c3f 2f78 c73e
000003d0: 2add ea3e 89b9 28bf c134 e8be e38e 833f
000003e0: bc6d 8c3c 0a31 0a3f 2b51 963d 9f66 e93e
000003f0: c6dd 01bc c5c4 9f3e 87fd bebe de12 a6be
0.28284878 0.21383329 0.17537867 -0.27614167 0.028304093 -0.35873708 -0.2180613 -0.5658793
0.20835899 0.041366152 0.4123731 -0.08509557 0.39283547 0.4190562 -0.00894756 0.33293736
-0.048372664 -0.58443177 -0.4535513 0.11566475 -0.376244 -0.2693772 -0.6516356 0.2565876
0.11744276 0.3595371 -0.019129142 0.14771765 0.48073313 0.53229046 -0.6714838 0.63866186
0.28630966 -0.38766578 -0.40218928 0.21782014 -0.5818907 0.65877813 -0.022797575 0.47426018
0.7668043 -0.0010318683 -0.22196381 0.27415574 0.3886567 -0.33672372 0.30856213 0.2188094
-0.7003895 0.92820877 0.16740449 -0.044417936 0.08425049 0.093985364 0.5347368 -0.68501276
-0.7811087 -0.52841073 0.5569868 -0.93150955 0.10126147 0.2573665 -0.30646008 0.76836234
-0.3872346 0.8961339 0.10901404 0.2913759 -0.46720767 -0.08043511 -0.8884486 0.23455887
0.056626137 0.09780979 0.1303266 -0.19738117 -0.5768436 0.056453455 0.2555928 0.5446852
0.104210004 0.51871127 -0.16215907 1.1559762 0.971113 -0.37552753 0.084956355 -0.72415036
-0.15734401 -0.121832214 -0.42963043 1.1803235 -0.22651562 -0.27857316 0.16939886 0.978959
0.7056923 -0.4126478 -0.3555577 0.40172726 -0.5413344 0.43047997 0.0509221 0.2557616
-0.06879696 0.32288232 0.21288605 -0.3900319 0.18203923 0.37698632 0.06548671 0.33233446
-0.17759328 -0.0863003 0.40639466 0.6763688 -0.24851137 0.586877 0.5231851 -0.29966652
1.1373761 0.96363837 0.40947136 -0.15748902 0.35156545 -0.7545168 0.051435504 0.13220064
0.853155 -0.20922987 -0.27423266 0.27178964 0.5515858 -0.31432843 0.009088856 0.209164
0.57430774 0.52212554 0.27020139 0.4118117 -0.12856014 0.5015692 -0.22005872 -0.13000202
-0.5119026 0.47653916 0.38357908 0.509344 -0.46235478 -0.66033506 0.702346 0.02057999
0.571658 0.06514596 0.44776848 0.023995562 0.36743954 0.24976103 0.39794853 0.18197612
0.1996703 0.2734614 -0.6847877 -0.66855544 -0.114594266 0.4720452 -0.41698948 0.019592874
-0.18629739 -0.54088295 0.0564808 0.33448163 0.0130644245 0.043205276 0.41545993 0.11568851
0.33162856 0.32685018 -0.07112486 -0.008048555 0.2288092 0.32516757 0.38382006 -0.44699997
-0.36980554 -1.0547512 0.16024208 -1.0109788 0.7256064 -0.14653894 0.47193208 0.5538934
-0.3730169 0.26462528 0.35914415 0.45348963 -0.6280424 0.545928 0.17498556 0.017942915
0.22264177 0.44816884 0.45896167 0.30755055 -0.0381819 -0.6889316 0.9307621 0.56789035
0.563233 0.8185145 -0.5686513 0.15906608 0.09405348 -0.109494075 -0.051132977 0.6961121
0.7288617 -0.05653193 -0.20518368 0.18646294 -0.038738117 0.8836187 0.2402582 -0.22478248
-0.46773693 0.10806236 -0.4224868 -0.16769966 0.16471656 -0.65910023 -0.15711689 0.7381114
-0.16419977 -0.027276795 0.0753013 0.6260902 0.1655884 -0.11393875 -0.23018602 0.41468024
-0.008828928 0.4366903 0.5496146 0.3895888 0.4587186 -0.65908104 -0.45352748 1.027798
0.01714217 0.5398108 0.073397 0.45586106 -0.00792641 0.3120481 -0.373028 -0.3243627

network_body._body_endoder.seq_layers.0.bias f4 [128]
00000000: bc58 36bd ada2 16be 60bb 9ebd 7fe2 aabd
00000010: 13e7 8bbd ca87 d1bd 0ba6 b7bd ba53 f53d
00000020: 2237 02be fbf9 ca3d b0b8 afbd d1f9 fbbd
00000030: 2d13 203e 5bb2 ecbc ee59 953c c269 05be
00000040: 74b4 773c 972e fcbd 6f4b b6bd 5526 083b
00000050: 6a4c 75bb 2121 4a3d 8b97 dabd 72d0 f538
00000060: 2f15 be3d 0d26 ffbc 18aa 09bd ae63 adbd
00000070: 03fa 213d d7f1 3cbd 07eb 203d 59b8 023e
00000080: f8ca bdbd b5f5 36bd 3294 20bd 0fc7 12be
00000090: 751c 1bbd fc8b 0ebd dcaa 72bd ac71 9ebc
000000a0: a759 59bd e488 75bd a9b6 36be 8907 d53d
000000b0: 3c7c 31bd 7585 023d 099c c9bb ef8e b6bd
000000c0: d82e 03be 5650 a9bd 357e 9cbd 7178 08bd
000000d0: 978b 9bbd 1c53 8a3c 484b 53bd cd97 d1bc
000000e0: ca1d 8b3d 7b59 58bc b5b8 b4bd eb35 e3bd
000000f0: 64ec 253d 52d7 74bd ba05 bfbd 82ab 8b3d
00000100: 57d4 cebd 2609 05be 14e1 0ebe 315c 16bd
00000110: 3c86 183e 40c1 89bd 48ca 06be 1f40 7abd
00000120: c8f6 a7bd 4d89 c6bd b2ee 6ebd 3c48 2dbd
00000130: 02ba 56bd 38f6 00be 0b26 d7bd 81a5 d0bd
00000140: 7214 afbd d63c 01be e5df 6cbd 0b3d d93d
00000150: 9187 cbbd f10e 12bd cd3a 2cbe 9fa2 893d
00000160: 0249 5abd 1ca8 f0bd 8fbc 93bd 7ab8 d7bd
00000170: 0946 b2bd 7f36 6dbd 7ad4 a8bd 83e3 77bb
00000180: 2b30 133e f3cf b6bd 21d6 0cbe 9556 e83c
00000190: 845d 72bd 16fd 03bd f81b a2bd 84be b0bd
000001a0: 14c4 59bd 73b0 223d 8183 e93b 59a1 c9bd
000001b0: 7081 38bd e90a abbc 07ce 7ebd 6502 a03d
000001c0: 0f4e 1cbd 7049 8dbd 777d 8bbd 2f7e f3bd
000001d0: 8364 b8bd 71fa bbbd bb6b 10be 062e 6dbd
000001e0: 87cb 7b3d 0433 9fbd 4809 c6bd 1345 bfbd
000001f0: 49c4 bbbd bd37 89bd c46d bfbd 04bc 52bd
-0.044518217 -0.14710493 -0.07750583 -0.08343982 -0.06831183 -0.10230978 -0.08967217 0.1197886
-0.12716344 0.09910961 -0.08580148 -0.12303508 0.15632315 -0.02889364 0.018231358 -0.13028625
0.015118707 -0.12313574 -0.089011066 0.00207748 -0.003742958 0.049348 -0.10673436 0.00011721336
0.09281384 -0.031146074 -0.03360948 -0.08466278 0.03954507 -0.046129074 0.03928664 0.12765636
-0.09267229 -0.04466792 -0.03920383 -0.14333747 -0.037868936 -0.03480147 -0.059244975 -0.019341312
-0.053064015 -0.059945002 -0.17843117 0.10401828 -0.04333137 0.031865556 -0.006152634 -0.08913981
-0.12810838 -0.08267276 -0.076412596 -0.033317987 -0.07594984 0.016885333 -0.051585466 -0.02558508
0.06792791 -0.013204928 -0.088242926 -0.110942684 0.040508643 -0.059775658 -0.09327264 0.06819822
-0.10099094 -0.12991771 -0.13953048 -0.036709014 0.14894956 -0.06726313 -0.13163102 -0.061096307
-0.08201367 -0.09694157 -0.058333106 -0.042305216 -0.052423485 -0.12593925 -0.10505303 -0.10187817
-0.085488215 -0.12620863 -0.05783071 0.10607346 -0.099379666 -0.03565878 -0.16819306 0.06720471
-0.053292282 -0.11750814 -0.07213699 -0.10533233 -0.087047644 -0.0579133 -0.08243652 -0.0037824817
0.14373843 -0.08926382 -0.13753559 0.028361598 -0.059171215 -0.032223783 -0.07915491 -0.08630088
-0.05316551 0.039719056 0.007126272 -0.09845228 -0.045045316 -0.020879226 -0.0622082 0.07812957
-0.03816038 -0.06898773 -0.0681104 -0.11889302 -0.09003546 -0.09178627 -0.14103596 -0.05790522
0.061473396 -0.07773402 -0.09669739 -0.09339347 -0.09168298 -0.06700084 -0.09347108 -0.051448837

network_body._body_endoder.seq_layers.2.weight f4 [128, 128]
00000000: c005 a43d 4427 11bd 9c2d ebbd 225e 0c3e
00000010: 288f b7bd 3b03 babd fb54 d93d 3bef df3d
00000020: 6d50 45be 0e63 87bd 2f6b 5d3e 7c06 0cbe
00000030: e44f 573d 894b 193d c3cf 7d3c 1ebf 12be
00000040: 9c05 b43b 6c70 a0bc 7d28 a0bd b939 f83c
00000050: 438b 223e af2d 28bd ea7b 2fbd dbca 583d
00000060: ef6c 163e 4630 d3bd 0858 4d3d de28 51bd
00000070: e2fd 92bd fafa 5b3d cd7c 0fbd 217c 16be
00000080: 1b95 1abd 183c cb3d 7ca1 8c3c b4a1 c33c
00000090: e573 eb3d f56f 2b3e 28ba 903d 4c80 51be
000000a0: 826b 623e 69a5 573d f116 1abd 1ba3 5cbe
000000b0: 52c3 3c3e 8c0f e4bd c29c 55bd 4156 2b3d
000000c0: a1d2 adbd d539 f93d 0ad8 5dbd 0dbb 1c3e
000000d0: 991e 863d c640 d73d a693 8cbd 19ed 46be
000000e0: eed9 a33d 6d04 9ebc 7054 1a3d e386 0e3d
000000f0: 7ebe 34bd 5211 2c3d 3bea fd3d 22ce 143e
00000100: 70ef b83d 1788 5abc 6779 e1bc cd0b 9e3d
00000110: b2c3 83bd add5 053e b9df 173d 35d4 dabd
00000120: b368 463c 927c c53d f48c dabd f5b8 f83d
00000130: 9e8e d8bd a65b 713e 2bbc 853c 8f5d 9cbd
00000140: 221e 7dbc 0af4 11be 3932 043d 9f20 783e
00000150: 366d ae3d 6125 44bd 2d54 a4bd 7ede 9ebd
00000160: 544f af3c d098 903c 65b5 a53d 1532 b3bd
00000170: 04fa 353d 0c83 753c b381 703c 41b4 0b3e
00000180: 7e05 07bd 235b 1fbc dd2f 0e3b 2ace 57bd
00000190: 7472 b73d 162c 053d a4ad 813c 013d 1e3d
000001a0: 86c3 dcbc 79f4 07be 201b 113d 80bb 00be
000001b0: 98c1 13bd 9020 dcbd 78fb 4dbe 8d53 7a3d
000001c0: 6458 54bd b635 80bd 91d2 233d ae4c 11be
000001d0: 5a95 3cbd fd6d 833c 4e04 833d 244a 4a3e
000001e0: 9695 963c 55bd f6bd bae5 2cbe 2538 fe3d
000001f0: 47d9 76bd 649e c53c a2fb ddbd b5f2 6a3d
00000200: a81f febd 1580 a6bd 7703 673d 621a 593c
00000210: 2768 513d 10cb a93d aa5f 2dbd ccd9 c73c
00000220: a999 0a3d b3c0 8abc ee50 5bbc d469 9dbd
00000230: 377f cc3c f863 e83c a023 41be 7420 053e
00000240: 75eb 20bd 4bf7 24bd 0b2d ed3d 7f3d d73d
00000250: 44ef 84bd e76f 42be 08f8 f8bd efe2 06bc
00000260: ea04 dcbd 1fb9 ef3c 15e6 3fbd 678b c0bc
00000270: ba55 673c 23e9 61bd 482f 3b3b f353 5bbd
00000280: 869d 54bd 9c06 84bc 82ee 893c 58af fe3d
00000290: e69d 88bd 45e7 78bb 9d8f df3d 606a 1fbe
000002a0: 4996 a3bd 9da2 ba3d 0bd1 b1bc 4c6d ea3d
000002b0: 6e90 6d3d 138e b63d 0cea 04be a20e 233d
000002c0: 0e1d 9abd 67b4 d9bd b29a 85bd 037b 90bd
000002d0: a60e b83c 451d c6bc fb2d 153d 6b00 e5bd
000002e0: b54a 85bd 3bbd 843c 6484 a5bd 63b1 4cbd
000002f0: 6183 753d e83e a43d a9a9 3fbd fded babd
00000300: 81c9 d4bd ee35 8a3c 7d0c a6bd 07cf e93b
00000310: b305 0b3d ee53 f2bd c9e7 2d3e d69e ba3c
00000320: 39ef b93d 8401 06bb f9a8 8d3c d239 0cbe
00000330: 3a1f 23bd 8ad8 02be de0b 87bd a89b 47be
00000340: e43c 40bd 762c 573d 66ef 9dbe 31a2 55be
00000350: 32c7 bd3c 324f a23d c646 34bb aeb1 b2bd
00000360: 68cb 2ebd 2b88 f839 042d 253e 0827 bcbc
00000370: 3903 dcbd cf04 02bd 0c2e d03c 26c4 48bd
00000380: ffe2 46be 5d03 8f3d 9ab0 82bd 71f3 a03c
00000390: bf08 77bb 9a14 d53d 9904 1abe 571b b23d
000003a0: f700 f6bd 69a4 b53c 2f57 e6bd 3c63 20be
000003b0: de83 0cbe eaae 1bbe 408c a3bd f177 2abd
000003c0: 138f d93d fd6a 253d 091e dabc 81df ee3d
000003d0: 5b02 4ebd 2992 023e d3b6 933d cf3d 873d
000003e0: e648 95bd 0d3a 73bc 8525 0d3c 3bd9 14be
000003f0: 50f0 eebd f831 a8bd 36bf 78bd e940 d4bd
0.08008909 -0.035437837 -0.11483309 0.13707784 -0.08962852 -0.090826474 0.10611912 0.109343015
-0.19268961 -0.0661069 0.21622919 -0.13674349 0.052566424 0.03742555 0.015491429 -0.14330718
0.0054938328 -0.019584857 -0.078202225 0.030300962 0.15873437 -0.041059192 -0.042842783 0.052927833
0.14689992 -0.10311942 0.05013278 -0.051064365 -0.071773306 0.053706147 -0.03503113 -0.14695789
-0.037739854 0.09923571 0.017166846 0.023880817 0.114967145 0.16741927 0.070667565 -0.20459098
0.22111323 0.05264798 -0.037619535 -0.21546595 0.18433884 -0.11135778 -0.05215145 0.041830305
-0.0848744 0.12169234 -0.05416111 0.15305729 0.06548805 0.105104014 -0.06864099 -0.19426383
0.08000551 -0.01928922 0.037678182 0.034796607 -0.04412698 0.042008705 0.123981915 0.14531758
0.09030044 -0.01333811 -0.02752371 0.077170946 -0.0643381 0.13069792 0.037078593 -0.106850065
0.012109923 0.096429005 -0.10671416 0.12144653 -0.10574077 0.23570117 0.016325077 -0.076350324
-0.015449079 -0.1425325 0.03227446 0.24231194 0.08516924 -0.04788721 -0.08023868 -0.07757281
0.021400131 0.017650992 0.08091239 -0.08749787 0.044427887 0.014984857 0.01467936 0.1364298
-0.032964222 -0.0097263185 0.002169601 -0.052686848 0.08957377 0.032512747 0.015829869 0.038632397
-0.026948702 -0.13276853 0.03542626 -0.12571526 -0.036073297 -0.10748398 -0.20115459 0.061114836
-0.05184211 -0.062602445 0.039995734 -0.14189407 -0.04604087 0.016043657 0.063973054 0.19754845
0.018381875 -0.12047831 -0.16884509 0.124130525 -0.060265806 0.024123378 -0.10839011 0.05736037
-0.12408382 -0.081298985 0.05639979 0.013250919 0.051124718 0.08290684 -0.04232756 0.024395846
0.033837948 -0.01693759 -0.013385994 -0.07686201 0.024963005 0.028367981 -0.18861246 0.13000661
-0.03928705 -0.0402749 0.11580857 0.10509776 -0.06490949 -0.18988 -0.12156683 -0.008232816
-0.10743125 0.029263077 -0.046850283 -0.023503972 0.01411956 -0.055153977 0.0028562117 -0.053546857
-0.05190804 -0.016116433 0.016837362 0.12435788 -0.06670742 -0.0037979644 0.10916064 -0.15567923
-0.07987649 0.09113047 -0.021706125 0.11446628 0.057999067 0.08913817 -0.12979907 0.039808877
-0.07525073 -0.10630112 -0.065236464 -0.070547126 0.022467922 -0.024183879 0.036420804 -0.1118172
-0.0650839 0.016203513 -0.08081892 -0.049973857 0.059939746 0.08019811 -0.04679266 -0.09127424
-0.10389996 0.016871419 -0.08107851 0.0071352753 0.033940982 -0.118324146 0.1698295 0.022780817
0.09078831 -0.002044768 0.017292487 -0.13693932 -0.0398247 -0.12777916 -0.0659406 -0.19492972
-0.04693307 0.052532636 -0.3084671 -0.20862652 0.023166273 0.079252616 -0.0027508005 -0.08725296
-0.042674452 0.000474037 0.16130453 -0.02296783 -0.10742802 -0.031742867 0.025412582 -0.049015187
-0.1942253 0.06983063 -0.0638134 0.019647332 -0.0037694422 0.1040432 -0.15040816 0.08696621
-0.12011903 0.022173123 -0.11247098 -0.15662855 -0.13722178 -0.15203443 -0.07985735 -0.04161829
0.10622992 0.040385235 -0.02662565 0.11663724 -0.050295215 0.12751068 0.07212605 0.06603586
-0.07289295 -0.014845383 0.008614902 -0.14535992 -0.1166693 -0.08212656 -0.060729228 -0.10363943

network_body._body_endoder.seq_layers.2.bias f4 [128]
00000000: d298 86bd 3f56 c9bc 4ee3 97bd 4fc7 37bd
00000010: 0b90 bbbc e202 f4bc b629 53bc ce16 793d
00000020: 9e58 c43b e527 fc3c 279d e9bc 13a9 84bd
00000030: 985b f6bc 2619 66bd 18dd 9f3c b595 cebc
00000040: 3f46 8cbc c4a9 47bd 40c0 c7bc 4d73 47bd
00000050: d14a d3bc 3a49 30bd 2a93 ddbc 8de9 d1bc
00000060: b047 78bd d8c9 83bc 491e 03bd aeac a8bc
00000070: c7bb 99bc 1bf5 3abd 9429 e6bc e626 e0bc
00000080: 3adb 193d 5066 12bd b036 6bbd 5f14 d23d
00000090: 4ac8 c7bc 5ed7 d4bb 4d6f aebc 2b55 043d
000000a0: 5816 b53b ec4d bcbc 2e34 cfbc 7348 e4bc
000000b0: 460b 08bd f715 03bd 7844 c0bc 3ddc 993d
000000c0: 1233 3bbd df91 b5bc a96e 51bd 0117 f4bc
000000d0: 05fe 3fbc e860 74bd 2153 a8bc d54f aabc
000000e0: 367d 52bd 3d47 b5bb 6cfc dbbc b68b 06bd
000000f0: 1de2 8fbc 7174 e4bc 8fe3 a1bc c010 86bd
00000100: 14d7 cbbc 68c5 adbc 291b c9bc abbe 3f3d
00000110: 1b75 01bc 48c3 edbc d5ea 563c 6fbb d5bc
00000120: f7ca 27bc 91b3 11bd 3e11 d23d 0233 97bc
00000130: 9bd8 023d 3f68 023d 1274 753c 3602 f8bc
00000140: b8ea e8bc 211d 9e3c 35a6 cbbc 7fc4 2fbd
00000150: 866c d2bc 559a 413d d922 01bd de79 e8bc
00000160: 30aa b93c 6b15 9dbc 6c9b d1bc c7e0 91bc
00000170: 7c2b cbbc d35f c9bc 06a9 d63c 40b0 b7bc
00000180: 10a3 efbc dcbd 08bd d2d8 de3a b932 bebc
00000190: ac86 fabc 8bd4 aabc c988 143d c0e4 dcbc
000001a0: 4ac3 02bd 5279 3bbd b78f 33bd 5925 1fbd
000001b0: bf35 7b3d 2cf4 d7bc 0ddc eebc 8c52 06bd
000001c0: 5377 c4bc 8a96 20bb 3df5 cebc 6b26 5c3b
000001d0: c933 47bd e23e eabc 6db1 19bd 1ba3 f3bc
000001e0: cdee d2bc 09c6 ccbc 44c6 02bd 56ad 3d3c
000001f0: c1c8 bb3d 3957 57bc 689b 0dbc 3222 bdbc
-0.06572117 -0.024577258 -0.07416402 -0.04486781 -0.022895833 -0.02978653 -0.012888363 0.060812764
0.0059920093 0.030780742 -0.028517319 -0.06477561 -0.030072972 -0.056176327 0.019514605 -0.02521787
-0.01712334 -0.048745885 -0.024383664 -0.048693944 -0.025792511 -0.043038584 -0.027047712 -0.025624061
-0.06061524 -0.016087458 -0.032011304 -0.020590153 -0.018766297 -0.045643907 -0.028095998 -0.027362298
0.037562586 -0.035742104 -0.0574252 0.10257792 -0.024387497 -0.0064954003 -0.021293307 0.032307785
0.005526345 -0.022986375 -0.025293436 -0.027866578 -0.033213876 -0.03200337 -0.023470148 0.0751271
-0.045703 -0.022164283 -0.051130924 -0.029796125 -0.011718278 -0.05966273 -0.020547451 -0.02079002
-0.05138894 -0.005532174 -0.026853763 -0.032848082 -0.017563874 -0.027887555 -0.019761829 -0.065461636
-0.02488283 -0.021212295 -0.024549084 0.046812695 -0.007901455 -0.029023781 0.013117512 -0.026090352
-0.010241262 -0.03557164 0.10257195 -0.01845694 0.031944852 0.031837698 0.014981287 -0.030274492
-0.028432235 0.019301 -0.024859527 -0.042912003 -0.025686514 0.047266323 -0.031527374 -0.028378423
0.02266416 -0.019175252 -0.025586806 -0.017807378 -0.024801008 -0.024581825 0.026203644 -0.02242291
-0.029252559 -0.03338419 0.0017001873 -0.023217546 -0.030581795 -0.020853302 0.03626326 -0.026964545
-0.031924523 -0.045769997 -0.04383823 -0.038853977 0.061330553 -0.026361547 -0.029157663 -0.032793567
-0.02398268 -0.002450379 -0.025263423 0.0033592235 -0.04863337 -0.028594438 -0.037522722 -0.02974086
-0.025748635 -0.024996774 -0.031927362 0.011576971 0.0916915 -0.013143354 -0.008643009 -0.023087595

action_model._continuous_distribution.mu.weight f4 [1, 128]
00000000: 4456 f7bc d0bc 983c 3103 a83c 42e8 c3bc
00000010: bc49 ac3c bb98 fc3c 8721 4c3c 0c52 dfbc
00000020: bd55 9f3c 4a9b 1f3d 5f9f 023b 0cb3 f3bc
00000030: 7d5a 7e3c 9a8f 173b 5d21 5e3c e8da a53c
00000040: 9835 e6bb def9 14bd 2289 7d3b 1168 2d3c
00000050: 7764 cebb 1319 c43b 3f8f b73c 4780 f83b
00000060: f064 b0bc e837 a2bc cedd eebb 9dd1 693c
00000070: b5a8 c3bb 28e3 dcbc bfca 483b 3a8d db3c
00000080: 6a92 313d 4aa0 893c b2cd a13c 7351 143e
00000090: 46c2 29bc f14a b93c e70e 6ebc cce6 213d
000000a0: 7280 8b3c b2a7 3eba 9446 1a3c 876c 9c3c
000000b0: c962 c5bc 0a91 62bc 6dfb c0bb e51c 0c3e
000000c0: e92e 00bd 468d 12bc 35b9 96bc f9de 8ebc
000000d0: 5876 76bc 54ab db3b ca64 c63b d049 173c
000000e0: 3da3 a8bc 5e82 b53c e816 7cbc d92a 8ebc
000000f0: 6724 86bb e6b1 093c 99a3 96bc 8ef2 5d3c
00000100: 497d 7ebb a37e 09bd 822e d13b 3c83 6dbc
00000110: 6a18 503c a0dd 90bc 028b b53c 510c bc3c
00000120: 59fa 8a3c 8e82 d33c e233 0d3e 643a 43bb
00000130: dbc3 043d 20bd da3c 630f e43c cb3c e43b
00000140: 64b2 403d 68d9 473c 2b89 8bbb 93bc 923c
00000150: 2b07 ed3c ac49 183c 10bb 6b38 0063 aa3c
00000160: f8a9 ab3c c93d 4fbc cbb3 713b 9de4 efbb
00000170: c330 4a3c 9a62 d9bc 1b95 313d 0e6c efba
00000180: 168a ce3c 5a1f c6ba ddac 463c 9744 45bc
00000190: d10a bc3c e7e5 6c3c 384c 093d f56d f2bb
000001a0: 13a7 ca3c d955 4ebc 115e fb3b 56b5 d43c
000001b0: aca2 bf3d 1eb8 c63c c3ea 6f3b 0096 bbbc
000001c0: 7b1f 723b df7c 7d3c 4699 9c3c 8caf 913c
000001d0: af2b ee3c 2391 a73c 2ee1 3d3c 3033 803c
000001e0: fcc9 19bc 9f60 833a 5f77 633c bc1a c83c
000001f0: 2e0c 983d 4f13 7c3c 3524 dc3c c647 263c
-0.030192502 0.01864472 0.020509334 -0.02391446 0.021031253 0.030834546 0.012459165 -0.027260803
0.019450063 0.038966455 0.0019931418 -0.029748462 0.015524504 0.0023126365 0.013557759 0.020245984
-0.007025432 -0.036371104 0.0038686474 0.010583893 -0.0062985974 0.0059844344 0.022407172 0.007583651
-0.021532506 -0.019802049 -0.007289625 0.014271167 -0.005971039 -0.026963785 0.0030638424 0.02680074
0.043352522 0.016800065 0.019751403 0.14484195 -0.01036126 0.022618743 -0.01452992 0.039526746
0.017029021 -0.00072729134 0.009416241 0.019094719 -0.024094956 -0.013828525 -0.0058893473 0.13682897
-0.031294737 -0.008944815 -0.01839886 -0.017440306 -0.015042864 0.0067037735 0.0060544955 0.009233907
-0.02058565 0.02215689 -0.015386321 -0.017354416 -0.004093695 0.008404231 -0.018388556 0.013546599
-0.0038832 -0.033568036 0.006383718 -0.014496621 0.012701133 -0.017683804 0.02216101 0.022955092
0.016965078 0.02581909 0.13789323 -0.0029789442 0.032413345 0.02670151 0.027839368 0.006965255
0.047045127 0.01219783 -0.004258295 0.017912185 0.028934082 0.0092949085 5.620258e-05 0.02079916
0.02095507 -0.012649008 0.0036880847 -0.007320954 0.012340727 -0.026536275 0.04335509 -0.0018266456
0.025212329 -0.0015115545 0.012126175 -0.012040279 0.022954376 0.01445911 0.033519953 -0.007398362
0.02473787 -0.01259371 0.0076711257 0.025965374 0.09357199 0.024257716 0.0036608435 -0.022898674
0.0036945033 0.015471666 0.019116055 0.017783903 0.029073564 0.020454949 0.011589332 0.015649408
-0.009386536 0.0010023302 0.013883441 0.02442681 0.07424198 0.015385463 0.026872734 0.010148948

action_model._discrete_distribution.branches.0.weight f4 [1, 128]
00000000: 9ceb 44bb d869 5939 7eb3 203c 6a8e faba
00000010: 211e 8a3c ba73 4bbc f962 833c 60e0 543b
00000020: 969e 25bc a300 9e3c 0d86 783c 2905 18bc
00000030: a360 e43b 7baa 43bc e714 9dbc 2d90 3dbc
00000040: 7111 b83b 3d0a a93b 86b6 013c c38d 67bc
00000050: b4a3 0cbc af21 ea3b 0067 2dba 8690 92bb
00000060: 9574 04b9 3cc1 02bc 5a27 f3bb 6d23 ddba
00000070: 48b1 38ba d54e 3ebb 5904 0bbc e324 dc39
00000080: eb0f 94bb aa7a d5ba 7958 2abc 00bf b43b
00000090: 7b37 8c3c 28bc 2c3c e01f f43b ddee 86bb
000000a0: 392f 2dbb 0ace 95b9 922f 0e3c 482b 7c3c
000000b0: 9561 993c bcf6 103c 5db8 0d3b 37fb 523b
000000c0: 39dc 323a bda1 763b f2a3 dabb 1d0e eaba
000000d0: db03 c5ba 0ff9 193c 5bc2 523c 1799 92ba
000000e0: 048d 2dbc d072 6c3c acf1 32bc a775 87bb
000000f0: dd17 f4bb b8d3 c2bb 9eb4 313c ee77 08bb
00000100: d727 dfbb 8529 bbbb 063a 31bc bfc3 72bb
00000110: 24b7 29ba c925 153a bf15 67bc 927c d1ba
00000120: eaec 453c 0559 c8ba ffc7 a0ba 0abf c6bb
00000130: 137c 2e3c 8add f6bb a1e1 943b 5ffb 39ba
00000140: 0f0d a3bb 66b3 1cbc 7f24 9c3b cc13 233b
00000150: bf6c ca3b 4724 6b3c 231f fe3b 638d c2bb
00000160: 3cb3 253c 1c47 9f3b ed3a 503b 739d 813c
00000170: 305a 6039 1a18 62bc 8fd3 263b 7734 4abc
00000180: db0d 37ba 9fe2 8cbb 322d 713a 97df 5a3c
00000190: 4583 eb3b 2d74 33bc a4c2 0d3c 9a31 a4bb
000001a0: 2aa8 77bc 3b0c e43a 2c1c bd3b 501d 743b
000001b0: 06a1 8f3b 6826 cfbb c533 f63b 61e7 203b
000001c0: 7f49 91bc c9ab c13a 7d0f 6c3b 0569 3d3c
000001d0: bf60 ceba 9752 ccbb 3f00 443b 2ed9 15bb
000001e0: fc12 4a3b 2f8c 6e3b df89 37bb 5964 a53b
000001f0: bbae 373c ad96 d2ba b38e f13b 3e35 86bc
-0.003004766 0.00020734163 0.009808419 -0.0019115929 0.01686007 -0.012417728 0.016038405 0.003248237
-0.010108611 0.019287413 0.015168679 -0.009278574 0.006969528 -0.011942501 -0.019175006 -0.011570019
0.0056173136 0.005158691 0.007917052 -0.01413292 -0.008583952 0.0071451287 -0.00066147745 -0.004472795
-0.00012631931 -0.007980641 -0.0074204626 -0.001687152 -0.000704546 -0.0029038687 -0.008484923 0.00041989153
-0.004518499 -0.0016287167 -0.01039707 0.005515933 0.017116299 0.010542907 0.007450089 -0.00411783
-0.0026425852 -0.00028573006 0.008678334 0.015391178 0.018723289 0.008847889 0.0021624782 0.0032193193
0.0006822977 0.0037633025 -0.006672376 -0.0017856989 -0.0015031056 0.009397759 0.012863721 -0.001118454
-0.010592703 0.01443167 -0.010921877 -0.0041338983 -0.007449134 -0.005945649 0.010846285 -0.0020823437
-0.006810169 -0.0057117366 -0.0108170565 -0.0037042943 -0.00064741285 0.00056895294 -0.014104306 -0.0015982559
0.0120804105 -0.0015285319 -0.0012266635 -0.006065254 0.010649699 -0.0075337337 0.0045434986 -0.0007094647
-0.004975922 -0.009564256 0.004765093 0.0024883626 0.0061775143 0.014351911 0.0077551766 -0.0059372648
0.010113534 0.004860772 0.0031773404 0.015822148 0.00021395902 -0.013799692 0.0025455689 -0.01234161
-0.00069829606 -0.0042994763 0.0009200155 0.013358972 0.0071872794 -0.010952991 0.008652363 -0.005010796
-0.015115777 0.0017398664 0.0057711806 0.0037248917 0.004383209 -0.006321717 0.0075134956 0.0024551975
-0.017735241 0.0014775927 0.0036019974 0.011560683 -0.0015745385 -0.0062354314 0.0029907373 -0.0022865045
0.003083407 0.0036399474 -0.0028005762 0.0050473628 0.011211093 -0.0016066633 0.0073717474 -0.01638281
