results/SliderBehavior/SliderBehavior/SliderBehavior-0.onnx (onnx, 279479 bytes, 7 tensors)

network_body.observation_encoder.processors.0.normalizer.running_mean f4 [6]
00000000: 0000 0000 0000 0000 0000 0000 0000 0000
00000010: 0000 0000 0000 0000
0.0 0.0 0.0 0.0 0.0 0.0

network_body._body_endoder.seq_layers.0.weight f4 [256, 6]
00000000: c1db c83e 6e77 3a3e bdbb b83e 8502 62be
00000010: cdc2 013e 2d2d 9ebd af6f d0bc 964a dc3e
00000020: 3626 92bc b275 14bf 907e abbe 61c9 633e
00000030: 6f20 2abe 4b2b c5be 2ae7 5f3e c29b 133e
00000040: 0c94 8d3e ad5b 603e 0e66 2ebf be33 27be
00000050: 3ac6 85be 64db 86bd ec60 b63e 63e1 1c3f
00000060: 9831 31be e217 b73e 4f8e 9d3e 93e5 3cbe
00000070: 0f02 ee3e 74f3 f03e f95d d9bd 9342 723e
00000080: 8574 833e 9b19 b9be f10e 093f 2953 313d
00000090: d6ee a03e 248e 05bf eaa2 11be e244 da3e
000000a0: a3dd 32bb cad9 813e 6194 3ebd 03fa 03bd
000000b0: 89aa b33c 0944 093d b2ba 64be 097f e63d
000000c0: 4151 7dbd 3ee3 2abe 25db cabd 99bb 8abd
000000d0: 91be c33d be99 75be 634c 8ebf 91e3 e9be
000000e0: 6296 373d a604 363f 3261 c8be c49b 06be
000000f0: cc08 edbd e72a 4f3e 8284 69bd a974 26bf
00000100: 509d aabe b619 903e 39df be3e f5fb f93e
00000110: 5051 5b3c 71f9 f5bd 3933 b73c 6e74 683e
00000120: 8d61 ad3e 2f40 04bf d8a3 03bf 8e48 b13e
00000130: 2341 23bf 1c4e 8f3e f31e 6bbf 4222 0fbf
00000140: 9029 67bd 79c6 0a3e 0688 44bd 07ad 473f
00000150: 06c6 29bf 4802 03bf bd55 03bf f31c be3d
00000160: ad24 063f 948d f93d 2299 afbe 5753 8c3e
00000170: ae71 f83c cf7f 9abe a187 b83d 1114 c339
00000180: 9e19 8abe 1259 613d fd87 963e 8c6c 053d
00000190: 486d fcbd 3eb1 d43e 1f27 bbbc 996b 333e
000001a0: 12b3 65be a6b1 433d 6fb8 7abe 335e 09be
000001b0: 6e20 9bbe 53a3 333e a57a 703d f848 473e
000001c0: b914 203f 8c64 2cbf cd0f 2f3c af83 fcbd
000001d0: d927 1b3e db02 7c3f b5c1 b2be 62c6 bb3d
000001e0: a7d5 143f 4408 9d3e 5583 d53e 943b 7ebe
000001f0: 24e8 063c 73a1 11be eaa0 303e 46c1 f6be
00000200: e0c7 6dbd 78d3 353f 54bc b9be e741 75be
00000210: e1b9 1cbe 5006 3a3e 7e42 c4be 02bb 443e
00000220: 6ac5 23bf e977 953f e4a8 a23d 5e20 2e3d
00000230: c84d e8be 6c35 c73d 17b2 c3bd 8f5d 04be
00000240: 35d2 b43e 1683 a73e 8fa3 f5bd a3c3 c23e
00000250: 9062 d63e c73b 26bf e207 573d 6245 bcbc
00000260: fde5 153f ea6f 55bf 3275 f73e bfbc 03bf
00000270: aead a3be d25d 373e d89d 0abf 98a3 083e
00000280: fcf4 b43d d3ff e43c fbbc ffbe e494 22bd
00000290: 74d0 e9be 2b37 91bc e5be 103f 23e1 fb3e
000002a0: 885b 99bd bc95 0fbf 16d0 8fbe 18fe 32be
000002b0: 869c e7be 87cc bf3e 7c24 9dbe cb54 a33e
000002c0: 53fa a23e 7d53 d63e c53d d0bd 689f 92be
000002d0: dc6d 6f3d 90ca b5be 155c 40bf 4fed 173e
000002e0: dc60 aabe 5be0 bcbe 86ba 113f b941 4cbe
000002f0: 5ec2 d8be 611e 2bbe a05d 4cbf 5bac b43d
00000300: 6c70 253c 0d2e 07be fc30 d6be d901 ba3e
00000310: 5958 cebe 4f7a c0be 9f10 963e 319d 0d3f
00000320: 4c72 073f 3804 cfbe d501 88be ac3a 52bf
00000330: b36a 0ebf ba5e 88be 2124 d5be da73 1a3e
00000340: c417 c9bb 4e65 b3bd 0b26 81be 1aff 283e
00000350: 0e4f 5a3e 3c41 f03d 163c 5e3d 4ac5 f33e
00000360: 7456 a3be ee13 c03e 41f4 17be 0136 473f
00000370: caef 87be 1953 90be 0ed2 893e 563b 3bbe
00000380: 781c 37be c756 c93e ee50 853e 46be 223e
00000390: 4dd3 f1ba 27b2 cdbb 53b5 0fbf c21b 903d
000003a0: 63f0 5e3e defe c4be d62b 3d3f 964e c7be
000003b0: 4da8 fd3e 845c 2cbf 8705 173e e3e2 aa3e
000003c0: 8157 2bbf 9f77 843f fd23 a23e 80a4 5f3e
000003d0: 6f6a 9b3d 8e54 adbe b8a6 e9be 87f3 023d
000003e0: 7afe afbe 17a8 0b3f 4b4f 183e 7691 07be
000003f0: 49c7 9b3d 3835 78be f2f2 853e 743e f33e
0.3923016 0.18209621 0.36080733 -0.22071274 0.12671967 -0.0772346 -0.02544388 0.43025655
-0.017840486 -0.5799209 -0.33494997 0.22244789 -0.16613935 -0.38509592 0.21865526 0.14414886
0.27652013 0.21909972 -0.68124473 -0.16328332 -0.26127797 -0.06584814 0.3562082 0.6128141
-0.17304075 0.3576041 0.30772635 -0.1844695 0.46485946 0.4706074 -0.10613627 0.23658209
0.25674835 -0.36152348 0.53538424 0.0432922 0.31432217 -0.52170014 -0.14222303 0.42630678
-0.002729275 0.25361472 -0.046528224 -0.03222085 0.021931903 0.03351215 -0.22336844 0.11254699
-0.061845068 -0.16688249 -0.0990508 -0.06774063 0.09557832 -0.23984429 -1.1117061 -0.45681432
0.04482115 0.7110084 -0.39136654 -0.13145357 -0.115739435 0.2023121 -0.057011135 -0.6502176
-0.33323145 0.28144616 0.3727968 0.4882504 0.013386086 -0.12010468 0.022363292 0.22700664
0.33863488 -0.51660436 -0.5142188 0.34625667 -0.63771266 0.2798928 -0.918441 -0.5591165
-0.05643612 0.13552274 -0.047981285 0.77998394 -0.66317785 -0.51175356 -0.513027 0.092828654
0.5239971 0.12185207 -0.3429652 0.27407333 0.030327644 -0.30175635 0.09010244 0.0003720825
-0.2697267 0.055016585 0.29400626 0.03257422 -0.12325531 0.41541475 -0.022845803 0.17521514
-0.22431591 0.04777684 -0.24484418 -0.1341484 -0.3029818 0.17542772 0.058710713 0.19461429
0.6253162 -0.6734092 0.01068492 -0.12329804 0.1515192 0.9844186 -0.34913412 0.09168698
0.5813851 0.3067037 0.4170176 -0.24827415 0.008234058 -0.14221744 0.17248884 -0.4819433
-0.058051944 0.710258 -0.36276495 -0.23950921 -0.15305282 0.1816647 -0.3833198 0.19211963
-0.63973105 1.1677219 0.079423696 0.042511337 -0.45371842 0.09726986 -0.09555452 -0.12926315
0.35316625 0.32717198 -0.11994087 0.38039884 0.41872072 -0.64934963 0.052497752 -0.022982303
0.5855406 -0.8337389 0.483316 -0.5145988 -0.31968445 0.17906883 -0.541471 0.13343656
0.088357896 0.027954018 -0.49948868 -0.039692774 -0.4566685 -0.017726501 0.5654128 0.49195203
-0.07488161 -0.5608785 -0.28088444 -0.17479742 -0.45236605 0.3746073 -0.30691898 0.3190063
0.31831607 0.41860572 -0.101680316 -0.28637242 0.05845438 -0.35506105 -0.75140506 0.1483662
-0.33277023 -0.3688992 0.5692524 -0.19946946 -0.4233579 -0.16710807 -0.7983036 0.08821937
0.010097604 -0.1320116 -0.41834247 0.36329535 -0.4030178 -0.37593314 0.29309556 0.5531798
0.5290878 -0.40432906 -0.26563898 -0.82120776 -0.5563156 -0.2663477 -0.41629127 0.15083256
-0.0061368663 -0.08759557 -0.25224337 0.16503564 0.2131922 0.117311925 0.05425652 0.47611457
-0.31901896 0.37515205 -0.14839269 0.7781678 -0.26550132 -0.28188398 0.26918072 -0.18284354
-0.17881954 0.39324018 0.26038307 0.15892896 -0.0018449813 -0.006277341 -0.56136054 0.070365444
0.21771388 -0.38475698 0.73895013 -0.38927144 0.49542466 -0.6732867 0.14748202 0.33376226
-0.66930395 1.0349005 0.31668082 0.21840096 0.0758866 -0.33853573 -0.4563501 0.031970527
-0.34373838 0.5455336 0.14873998 -0.13239083 0.0760637 -0.24239051 0.26161915 0.47508585

network_body._body_endoder.seq_layers.0.bias f4 [256]
00000000: 0000 0000 0000 0000 0000 0000 0000 0000
00000010: 0000 0000 0000 0000 0000 0000 0000 0000
00000020: 0000 0000 0000 0000 0000 0000 0000 0000
00000030: 0000 0000 0000 0000 0000 0000 0000 0000
00000040: 0000 0000 0000 0000 0000 0000 0000 0000
00000050: 0000 0000 0000 0000 0000 0000 0000 0000
00000060: 0000 0000 0000 0000 0000 0000 0000 0000
00000070: 0000 0000 0000 0000 0000 0000 0000 0000
00000080: 0000 0000 0000 0000 0000 0000 0000 0000
00000090: 0000 0000 0000 0000 0000 0000 0000 0000
000000a0: 0000 0000 0000 0000 0000 0000 0000 0000
000000b0: 0000 0000 0000 0000 0000 0000 0000 0000
000000c0: 0000 0000 0000 0000 0000 0000 0000 0000
000000d0: 0000 0000 0000 0000 0000 0000 0000 0000
000000e0: 0000 0000 0000 0000 0000 0000 0000 0000
000000f0: 0000 0000 0000 0000 0000 0000 0000 0000
00000100: 0000 0000 0000 0000 0000 0000 0000 0000
00000110: 0000 0000 0000 0000 0000 0000 0000 0000
00000120: 0000 0000 0000 0000 0000 0000 0000 0000
00000130: 0000 0000 0000 0000 0000 0000 0000 0000
00000140: 0000 0000 0000 0000 0000 0000 0000 0000
00000150: 0000 0000 0000 0000 0000 0000 0000 0000
00000160: 0000 0000 0000 0000 0000 0000 0000 0000
00000170: 0000 0000 0000 0000 0000 0000 0000 0000
00000180: 0000 0000 0000 0000 0000 0000 0000 0000
00000190: 0000 0000 0000 0000 0000 0000 0000 0000
000001a0: 0000 0000 0000 0000 0000 0000 0000 0000
000001b0: 0000 0000 0000 0000 0000 0000 0000 0000
000001c0: 0000 0000 0000 0000 0000 0000 0000 0000
000001d0: 0000 0000 0000 0000 0000 0000 0000 0000
000001e0: 0000 0000 0000 0000 0000 0000 0000 0000
000001f0: 0000 0000 0000 0000 0000 0000 0000 0000
00000200: 0000 0000 0000 0000 0000 0000 0000 0000
00000210: 0000 0000 0000 0000 0000 0000 0000 0000
00000220: 0000 0000 0000 0000 0000 0000 0000 0000
00000230: 0000 0000 0000 0000 0000 0000 0000 0000
00000240: 0000 0000 0000 0000 0000 0000 0000 0000
00000250: 0000 0000 0000 0000 0000 0000 0000 0000
00000260: 0000 0000 0000 0000 0000 0000 0000 0000
00000270: 0000 0000 0000 0000 0000 0000 0000 0000
00000280: 0000 0000 0000 0000 0000 0000 0000 0000
00000290: 0000 0000 0000 0000 0000 0000 0000 0000
000002a0: 0000 0000 0000 0000 0000 0000 0000 0000
000002b0: 0000 0000 0000 0000 0000 0000 0000 0000
000002c0: 0000 0000 0000 0000 0000 0000 0000 0000
000002d0: 0000 0000 0000 0000 0000 0000 0000 0000
000002e0: 0000 0000 0000 0000 0000 0000 0000 0000
000002f0: 0000 0000 0000 0000 0000 0000 0000 0000
00000300: 0000 0000 0000 0000 0000 0000 0000 0000
00000310: 0000 0000 0000 0000 0000 0000 0000 0000
00000320: 0000 0000 0000 0000 0000 0000 0000 0000
00000330: 0000 0000 0000 0000 0000 0000 0000 0000
00000340: 0000 0000 0000 0000 0000 0000 0000 0000
00000350: 0000 0000 0000 0000 0000 0000 0000 0000
00000360: 0000 0000 0000 0000 0000 0000 0000 0000
00000370: 0000 0000 0000 0000 0000 0000 0000 0000
00000380: 0000 0000 0000 0000 0000 0000 0000 0000
00000390: 0000 0000 0000 0000 0000 0000 0000 0000
000003a0: 0000 0000 0000 0000 0000 0000 0000 0000
000003b0: 0000 0000 0000 0000 0000 0000 0000 0000
000003c0: 0000 0000 0000 0000 0000 0000 0000 0000
000003d0: 0000 0000 0000 0000 0000 0000 0000 0000
000003e0: 0000 0000 0000 0000 0000 0000 0000 0000
000003f0: 0000 0000 0000 0000 0000 0000 0000 0000
0.0 0.0 0.0 0.0 0.0 0.0 0.0 0.0
0.0 0.0 0.0 0.0 0.0 0.0 0.0 0.0
0.0 0.0 0.0 0.0 0.0 0.0 0.0 0.0
0.0 0.0 0.0 0.0 0.0 0.0 0.0 0.0
0.0 0.0 0.0 0.0 0.0 0.0 0.0 0.0
0.0 0.0 0.0 0.0 0.0 0.0 0.0 0.0
0.0 0.0 0.0 0.0 0.0 0.0 0.0 0.0
0.0 0.0 0.0 0.0 0.0 0.0 0.0 0.0
0.0 0.0 0.0 0.0 0.0 0.0 0.0 0.0
0.0 0.0 0.0 0.0 0.0 0.0 0.0 0.0
0.0 0.0 0.0 0.0 0.0 0.0 0.0 0.0
0.0 0.0 0.0 0.0 0.0 0.0 0.0 0.0
0.0 0.0 0.0 0.0 0.0 0.0 0.0 0.0
0.0 0.0 0.0 0.0 0.0 0.0 0.0 0.0
0.0 0.0 0.0 0.0 0.0 0.0 0.0 0.0
0.0 0.0 0.0 0.0 0.0 0.0 0.0 0.0
0.0 0.0 0.0 0.0 0.0 0.0 0.0 0.0
0.0 0.0 0.0 0.0 0.0 0.0 0.0 0.0
0.0 0.0 0.0 0.0 0.0 0.0 0.0 0.0
0.0 0.0 0.0 0.0 0.0 0.0 0.0 0.0
0.0 0.0 0.0 0.0 0.0 0.0 0.0 0.0
0.0 0.0 0.0 0.0 0.0 0.0 0.0 0.0
0.0 0.0 0.0 0.0 0.0 0.0 0.0 0.0
0.0 0.0 0.0 0.0 0.0 0.0 0.0 0.0
0.0 0.0 0.0 0.0 0.0 0.0 0.0 0.0
0.0 0.0 0.0 0.0 0.0 0.0 0.0 0.0
0.0 0.0 0.0 0.0 0.0 0.0 0.0 0.0
0.0 0.0 0.0 0.0 0.0 0.0 0.0 0.0
0.0 0.0 0.0 0.0 0.0 0.0 0.0 0.0
0.0 0.0 0.0 0.0 0.0 0.0 0.0 0.0
0.0 0.0 0.0 0.0 0.0 0.0 0.0 0.0
0.0 0.0 0.0 0.0 0.0 0.0 0.0 0.0

network_body._body_endoder.seq_layers.2.weight f4 [256, 256]
00000000: b3a1 133e df45 72bd 42fb 113d 46c4 d83c
00000010: 354b b43d a26a d93d f301 21bd 010c 993d
00000020: ce86 f63c 9f72 7e3c ad29 9d3d 03f7 babc
00000030: 8698 c43c ac30 233d b727 b03d b40c 03be
00000040: d9d4 ac3d c575 833d 6258 103d 1826 1fbd
00000050: edf2 97bc b9f1 273c c349 6abd 4450 dabd
00000060: 4093 013d 3066 e7bd f450 53bd ddce bc3d
00000070: abbe c2bc 9876 ed3b 2849 a03d 1e8c 253d
00000080: 68ed e8bc 6a27 30bd 2684 863c df54 c7bd
00000090: b3d9 933c 8495 613c 4fa8 ac3d 67d1 bebd
000000a0: f97a 2d3c d04d b33d f121 d23d d06e 49bd
000000b0: c93d e83a 86f5 13bd 8b74 debc 629e 733c
000000c0: 3fea 7abd ee61 093e 5875 903d 2f4e 7a3c
000000d0: 8f44 65bd 7ce6 c33d bbb3 853d 1ba0 0ebd
000000e0: a56f deb8 95d3 a6bd 4d1e 033d 5519 53bc
000000f0: e776 13bc 648d 433d ad62 01be 0088 333d
00000100: e303 7fbd e609 fc3d 22fd afbd 41b5 f63c
00000110: 657b 31bd c30f 90bd b467 93bc fc7b 6abb
00000120: fbef 053c 0270 803d 2622 72bd 2f05 b5bc
00000130: 12c6 3a3d a53c 93bd f005 343d 414d df3d
00000140: 841a 233c 453a 823d 0b03 da3c db55 2b3c
00000150: 402d 403a a0f5 2dbd f891 063d d27f a83d
00000160: a239 cb3c 1761 b13a 2529 02be 0a26 273c
00000170: c86d f2bd fa9e cebc 3a59 f8bc 7a69 593d
00000180: 1f28 6e3c 193e b6bb 8673 d4bc 2075 0d3c
00000190: 2958 a93d 60e5 37bd bbea 66bd 1011 883d
000001a0: 8c0e bbbb 84eb 63bd a222 a1bc 8c16 c8bc
000001b0: e086 043d 2833 a8bc acdf fbbc 3301 463d
000001c0: 753e cc3c c1d1 4f3d 81bb 3a3d 6bd8 283d
000001d0: 8cfa 973d a7e2 77bd 5a81 5e3d ca92 bd3d
000001e0: 2e20 8b3c 422e 93bd 4988 85bd ac04 94bc
000001f0: e0a7 03bd d288 433d 8b24 0fbd e49a 93bc
00000200: 1410 013d 240e edbd 82bf d63b 4df6 6dbb
00000210: 3920 61bc 93c8 e63d f3be 823d 55b7 84bd
00000220: 4b7f 4e3b f40b 9abc 59b9 80bd 9986 753d
00000230: 1f48 ef3d 8887 f33c a443 8cbd 3b32 483d
00000240: dd88 95bd b8af 5abd 2edc a8bb 29f0 58bd
00000250: 54c7 a53d 4d7a d03d 64c2 023e 1c76 eabd
00000260: 3d16 89bd 718e 25bd 5c7d 1a3c dc94 bf3c
00000270: 7375 d1bd dd64 2ebd 50a2 f6ba 416f b3bc
00000280: 341c b7bd 1b1b be3d 155a 83bd 1177 cdbc
00000290: f581 2ebd 84da b2bc ab52 423c ee68 aebd
000002a0: f1a5 ac3c 3998 653d 7001 353b e6b4 89bd
000002b0: 8849 6c3c d642 e73d 734a 643d 874f 0cbd
000002c0: 1b5a 7f3d 58e1 b4bd 3b8f 8e3d d9e0 7abc
000002d0: 4911 c73c 0fa3 53bd c130 1abc 906d 7cbc
000002e0: 914a cbbd 2122 b33c f002 153d c7c5 0f3c
000002f0: 305e 0fb9 302b 47bd 4957 41bd 04b9 3bbd
00000300: 7b07 9a3c 522b 043c a4f4 653c 91c0 11be
00000310: 05c5 4abe d0bc 14bd e7ed ef3c c01c 60bb
00000320: 3f2d beba dd34 243d 4835 2fbd 2c00 df3d
00000330: 6595 873c fe28 f13b a0b0 863d 03c8 81bd
00000340: c59b 15bd 9899 dabc fa49 263d 40fa 8dbd
00000350: 6fcf 2dbb 7af8 8dbc 0976 563c fa51 0d3d
00000360: 794d 01bd d6cb ec3c e424 2e3c 15ba e73c
00000370: 5281 8a3c 7fe6 c63d eda8 603d ca0b 3bbd
00000380: 157c a5bc 7beb a23d 75d0 a7bd fd46 903d
00000390: 430f 4b3d 6124 79bb 2296 9f3b e030 d3bc
000003a0: 2c4a f63c 2bef 4a3c 0f6e 223d b941 83bd
000003b0: c4a5 c13d 35f0 aabc 1f32 12bd 76e7 293d
000003c0: 2339 2e3d eede 67bc f840 133d e6b1 95bd
000003d0: e2eb 4e3d ced7 c7bc 146c 583d 8db0 98bb
000003e0: a445 b9bc 08eb 96bc 88b5 4bbd 3ca1 8fbd
000003f0: 5c82 b93d e19f c03c 94ae d7bd 1d39 5ebd
0.14417152 -0.059148666 0.03564001 0.026460778 0.08803407 0.10616042 -0.0393085 0.07472993
0.030093577 0.0155302575 0.07673965 -0.022822862 0.02399851 0.03984134 0.08601325 -0.12797815
0.08439035 0.06418947 0.03524054 -0.03885469 -0.018548453 0.010250502 -0.05719925 -0.10659841
0.03163457 -0.112987876 -0.051590875 0.092191435 -0.023772558 0.0072468035 0.078264534 0.04041683
-0.028433517 -0.04300634 0.016420435 -0.09732985 0.018048143 0.013768557 0.0843054 -0.09317284
0.010588401 0.08755076 0.1026038 -0.049177945 0.0017718609 -0.03612282 -0.027155181 0.014869304
-0.06125855 0.13416263 0.070536315 0.0152774295 -0.055973586 0.09565446 0.065284215 -0.034820657
-0.0001060658 -0.08145825 0.03201132 -0.012884458 -0.0090005165 0.047742262 -0.12635298 0.04383087
-0.062259566 0.123065755 -0.08593203 0.030115725 -0.04333057 -0.07034256 -0.017993785 -0.0035779467
0.008174892 0.06271364 -0.059114598 -0.022097198 0.04559905 -0.071893014 0.043950975 0.10903407
0.009955052 0.0635877 0.02661278 0.010457481 0.00073309615 -0.042470574 0.03285405 0.08227505
0.024807755 0.0013532963 -0.12711008 0.01020194 -0.11837345 -0.02522229 -0.030315984 0.053079106
0.014535933 -0.005561602 -0.025933992 0.008633882 0.08268768 -0.044896483 -0.0563762 0.066438794
-0.005708521 -0.055644527 -0.019669835 -0.024424814 0.03235519 -0.020532206 -0.030746303 0.048340987
0.024932126 0.050737146 0.045588974 0.041222017 0.07420835 -0.060518887 0.054322578 0.092565134
0.016983118 -0.07186557 -0.06520135 -0.018068634 -0.03214252 0.047737904 -0.03494696 -0.018018194
0.031509474 -0.11574963 0.006553591 -0.0036310137 -0.013740593 0.11268725 0.06384077 -0.0648028
0.0031508978 -0.018804528 -0.06285352 0.059942815 0.11683678 0.029727712 -0.06848839 0.04887603
-0.07301495 -0.053390235 -0.0051532006 -0.05296341 0.080946594 0.10179577 0.12769467 -0.11448309
-0.06693695 -0.040419046 0.009429302 0.023386411 -0.1022748 -0.04257666 -0.0018816683 -0.021903636
-0.08940926 0.09282514 -0.06413666 -0.02508119 -0.042604405 -0.021832712 0.01186053 -0.085161075
0.02107522 0.056053374 0.0027619265 -0.06723957 0.014421828 0.11292045 0.055735063 -0.03425553
0.06234179 -0.088320434 0.06960913 -0.015312397 0.024300234 -0.051669177 -0.009411038 -0.015406981
-0.09926332 0.02186686 0.036379755 0.008775181 -0.0001367263 -0.04862517 -0.047202382 -0.04583074
0.018802395 0.008066969 0.014035378 -0.14233615 -0.1980172 -0.036312878 0.029288245 -0.0034196824
-0.0014509334 0.040089477 -0.042775422 0.10888705 0.016550729 0.007359623 0.06576657 -0.06336977
-0.036525507 -0.026684567 0.040597893 -0.06932497 -0.0026521345 -0.017330397 0.013089665 0.034502007
-0.031568024 0.02890579 0.010628913 0.028286973 0.016907368 0.097119324 0.0548486 -0.04566554
-0.020200768 0.079550706 -0.08194057 0.0704479 0.0495751 -0.0038016068 0.004870192 -0.025780141
0.030064665 0.012386124 0.03965574 -0.0640902 0.094554454 -0.020866493 -0.03569233 0.041480504
0.04253496 -0.014152272 0.03595063 -0.07309322 0.050517924 -0.024394896 0.052837446 -0.0046597184
-0.022616215 -0.018422619 -0.04973367 -0.07013175 0.09058067 0.023513736 -0.10531345 -0.054253686

action_model._continuous_distribution.mu.weight f4 [1, 256]
00000000: de33 ccba 9441 cabc 9b10 333c 8598 b3b9
00000010: a726 ed3b e465 0bbd d2c4 a2bb 3b8d 1fbb
00000020: 1b37 8e3b 3bc0 833c ab2c 42ba 5def 0d3c
00000030: cfc4 273c 7df7 9b3c b2a9 cb3c eaa5 31bc
00000040: a4aa 97bb 0880 e03b 577d 97b9 171b 2a3c
00000050: 6b6d 813c 8507 17bb 7329 c0bc 6b94 88b9
00000060: 9848 5abb f7d5 763c 41c0 48bb 0242 f3bb
00000070: d044 b6bb 63b6 893b 5d58 5bbc e0a6 19bc
00000080: 44c0 973c 552d 32bb 3214 a2bb de1f 093c
00000090: 96d1 26bd 6737 743b 9153 933b 40b4 093c
000000a0: 89ba 843c 953d f4bc 4829 f3bb bd59 dd3a
000000b0: 4a80 5b37 806f 35b9 f049 55bc dfc6 0c3c
000000c0: 4f0d 6f3b b860 79bb ff8a 803c 3d11 873c
000000d0: d768 c83c 1f97 c0bb 32eb e4bb 0914 013b
000000e0: f150 883c 46f5 a6bb 2aff 743a 4aa2 2bbc
000000f0: c8e2 f7bc 3a2e fc3c dd2b 7039 8d52 933b
00000100: 9ad0 c23b bbd1 0b3b 8017 553a 243b bf3c
00000110: 5b7c 313c 0b1e e03b 180a 483c bd0c 113c
00000120: 830d debb e9d7 8cbc 9d02 f0bb 957c ddbb
00000130: e52a 12bc 99f2 9cbc 070e d1bb b287 b33b
00000140: fbda 6d3c f210 4f3c 9273 00bc 1f07 863c
00000150: 2847 52bc 21c0 b43c 3fbf 10bc 381d 55bc
00000160: a47a 8b3b 9c14 12bc 6e6e cb3c ddb3 94bb
00000170: 6339 3a3c df96 143b dcc1 2ebb e65c 18bb
00000180: b890 ebbb 1f5d ad3b b39e c53b 276c d2bc
00000190: 93aa d23c 6302 ea3c 847b 4abc da27 ea3b
000001a0: c02f 80bc 0a72 3d3c bd60 a53b cf96 a0bc
000001b0: 1a49 433c 0a63 48bc 0852 d5bb 597c 01bb
000001c0: 2be3 223c a304 543c a76f 3bbc 7e3a 9a3c
000001d0: 50c0 99bb 1794 7bbb 9e37 413c 9395 8ab8
000001e0: 973f d23b c2ec 7c3b cb60 4bba f766 063d
000001f0: 67c3 a0bb fa24 1a3c 23b4 21bc a3e5 33bc
00000200: 4f75 033b f37a 693c 272d 403c b835 173b
00000210: 77b8 a5bb 5799 933a 8271 feba 1b47 1c3a
00000220: ef80 093b 8aa6 c33c 6025 66bb 9d4b f4bb
00000230: a8ce 3fba 2e8f 1b3b 8fd2 a2bb 1742 863b
00000240: 3b48 373c feac 25bd 2aa9 6cbb a795 abbb
00000250: 93e6 f4bb 92e1 afbc aafe b23c 0313 d6bc
00000260: e304 8d3a 56d1 9b3b 2fa6 6d3c a0fe 4b3b
00000270: f282 ad3b 62a8 f63b 77d5 4c3c e025 853c
00000280: c7e7 2c3c d6a1 a8bb 437b b4bc 584d 3f3a
00000290: b8f5 76bb a32c 59bb 7fb4 42bb d396 593c
000002a0: 180e 8cbb 336e 433b 0719 df3a dacc 653b
000002b0: 70c9 cebc 90d2 9abc 3957 383c 0710 f4bb
000002c0: 969a 16bd 97a8 093c bfaf 09bc a559 8bba
000002d0: 342b c43c d51c 44bc dfaa 3ebd 8b83 3cb9
000002e0: 8fca ee3b df48 d8bb dfff 033c 6a30 6fbc
000002f0: 8f03 1abc 884a d6bb eb32 d63b f321 8fbc
00000300: 8007 51bc 7dc5 10bc e7b3 6c3c 3c7c 97bb
00000310: 6a53 433c df79 803c bbee 073c c8b5 873c
00000320: 90bb 4cbc 9b19 7fbc 0b6f 10bc a99f ad3c
00000330: 4b27 83bc 3d30 7e3c 9d93 7bbc 1f8b b2ba
00000340: 98b0 423c 4c72 80bb c32a a73b 00bb ec3b
00000350: 17e4 063c cb00 aebc 1a03 1cbc 4788 be3a
00000360: abe0 39bc 128e 51bb fd94 4d3c fb81 033c
00000370: 4409 323c 3f17 01bb 7bc7 85bc 9035 123c
00000380: 322a 86bb ef75 393b 05dd a03b a2de 843c
00000390: 9ad4 633c 93e0 073b b408 0b3b 14d5 bc3c
000003a0: dc66 813b 5f9a 67bc e3fd 3e3b 2365 6bbc
000003b0: 24d7 a5bb a3ee 5039 441a 2cbc b3c4 933c
000003c0: 5c5e 90bb 2aab 07bc 79dd 02bb a3c2 b4ba
000003d0: eb89 a63b 003d 85bc 8197 2b3c 9706 9c3a
000003e0: a1b2 12bc b634 9d3c 2d4d da3c 7b2f c83b
000003f0: 289d 503c 92dc cdba 0aea 533c 8d50 edbb
-0.0015579422 -0.024689473 0.010929252 -0.00034255176 0.0072372737 -0.034032717 -0.0049673105 -0.0024345655
0.004340065 0.016082874 -0.0007407169 0.008663026 0.010239794 0.01903891 0.02486119 -0.01084278
-0.0046284962 0.0068512 -0.0002889435 0.010382435 0.015799245 -0.0023045253 -0.023457265 -0.0002605052
-0.003330743 0.015065662 -0.003063217 -0.00742364 -0.0055624023 0.0042026504 -0.013387767 -0.009378165
0.018524297 -0.0027187665 -0.004946255 0.008369414 -0.04072722 0.0037264468 0.004496046 0.008404791
0.016202228 -0.02981452 -0.0074206926 0.0016887706 1.3083287e-05 -0.00017303042 -0.013018116 0.008592336
0.0036476438 -0.0038052034 0.015691279 0.016487712 0.024464054 -0.00587739 -0.0069860453 0.001969578
0.016640158 -0.005095157 0.0009345884 -0.010475704 -0.030259505 0.030783761 0.00022904524 0.004495925
0.0059452774 0.0021334726 0.0008128807 0.02334363 0.010832871 0.006839519 0.012209438 0.008853135
-0.006776513 -0.017192798 -0.0073245303 -0.006759236 -0.00892136 -0.019158648 -0.006379846 0.0054788226
0.014517541 0.012638317 -0.007840054 0.016360817 -0.012834348 0.02206427 -0.008834659 -0.013007455
0.0042565633 -0.0089160465 0.02483293 -0.004538043 0.011366221 0.0022672934 -0.0026665842 -0.002324873
-0.0071888827 0.005290642 0.0060308813 -0.025686337 0.025716102 0.028565591 -0.01235855 0.007145864
-0.015647769 0.011562834 0.0050469325 -0.019603161 0.011919284 -0.012230644 -0.006510023 -0.0019757955
0.009941856 0.012940559 -0.011440194 0.01882672 -0.004692115 -0.003838783 0.011793045 -6.608213e-05
0.006416272 0.0038593267 -0.0007758259 0.03281304 -0.0049061063 0.00940823 -0.009869608 -0.010980043
0.0020058935 0.014250505 0.011729515 0.002307279 -0.0050573903 0.0011260909 -0.001941249 0.0005961523
0.0020981391 0.023883123 -0.0035117492 -0.007455303 -0.0007316866 0.0023736465 -0.004968948 0.004097234
0.011186655 -0.04044818 -0.0036111572 -0.005236346 -0.0074737757 -0.021469865 0.021849949 -0.026132112
0.0010758903 0.0047551794 0.014504953 0.003112711 0.005295151 0.007527397 0.012502066 0.016253412
0.010553307 -0.0051462455 -0.022031432 0.0007297597 -0.003768308 -0.0033138178 -0.0029709635 0.013280588
-0.004274141 0.0029820323 0.0017021009 0.0035064728 -0.025242537 -0.018899232 0.011251264 -0.0074481997
-0.03676852 0.008402011 -0.008403718 -0.0010631575 0.023946382 -0.011969765 -0.046549674 -0.0001797808
0.0072873305 -0.006600484 0.00805661 -0.014598945 -0.0094002625 -0.0065396465 0.0065368316 -0.017472243
-0.012758136 -0.008836147 0.014447189 -0.004622964 0.011921743 0.015683113 0.008296664 0.016566172
-0.01249589 -0.01557007 -0.008815537 0.021194296 -0.016009947 0.015514431 -0.015355018 -0.0013621784
0.011882924 -0.0039198752 0.005101533 0.0072244406 0.008233092 -0.021240612 -0.009522224 0.0014536463
-0.011345069 -0.003197555 0.012547729 0.008026595 0.010866467 -0.0019697694 -0.016330471 0.008923903
-0.0040943855 0.0028299054 0.00490916 0.01621944 0.013905669 0.0020733222 0.0021214904 0.023050822
0.0039490294 -0.014135926 0.0029143027 -0.014367375 -0.005061047 0.00019925325 -0.010504309 0.01803813
-0.0044057798 -0.008280555 -0.0019968434 -0.0013790916 0.005082359 -0.016264439 0.010473133 0.0011903819
-0.008953721 0.019190174 0.026648128 0.0061091757 0.0127327815 -0.0015705994 0.012934217 -0.0072422684

action_model._discrete_distribution.branches.0.weight f4 [1, 256]
00000000: dd5e 07bc 7319 dcb7 7fea d63b 3140 41b9
00000010: a853 0fbb 403c f83b 97ee 103b 487e cf3b
00000020: 29fb a0ba a250 143b fd2b 66b9 f2df 0dbb
00000030: a38d 2bba 120c 1dba 029b 223b 58c8 653b
00000040: d02f fabb 3f92 67bb 32ad f7ba c7bd 82bb
00000050: ce4b 11bb 4303 01bc 28e0 123b 2106 b33b
00000060: 4098 2bbc 4367 8cba b0b2 323b cc39 853a
00000070: e963 16bc ec1e a83b b5d6 2b3c cff3 68bb
00000080: d8a5 bb3a 2c8c 91bb d667 0e3c f4e5 45bb
00000090: 0d81 4abb 979c 20bc 6d8c a1bb 9843 ee39
000000a0: 6792 093a e398 cf3b 43f3 433c 29ed 35bc
000000b0: dfce 4c3c a375 5e3b dbd6 4f3b 8d05 76bb
000000c0: 1e61 cb3b 72c9 563a 9fd2 2dbc 31e9 3dba
000000d0: 4236 b9bb 621d ba3b 87e2 22bb 7cf2 1ebb
000000e0: 6896 1c3c b35d 483b 7314 ecbb 9b75 da3a
000000f0: 2cbd 3abb ca38 2abb d7c7 103c 23d3 8eba
00000100: 7722 813b 36a9 9138 8be0 ddbb 0a3d 9a3b
00000110: 769e a33b d066 d2ba 4a41 07bb 6311 f5bb
00000120: 558c 703b d736 e2bb 67a8 703b b2df 553b
00000130: f8ac 4b3b ffa7 4e3c 9294 c8bb 5dba 51bc
00000140: 0904 493b 6adf 8dbb 2b78 43bb 0a91 29bc
00000150: 4ba2 b3ba 4ac4 29bc ba31 66bb 47f2 e9bb
00000160: 4746 87ba a9aa 4cbc 04b0 81bb 4f47 dc3b
00000170: 89b6 11b9 5590 bcbb 21ea 04bc 823d 5f3c
00000180: 5ed4 46bc 5a24 c53b 5ad4 7dba ebbc b73b
00000190: 79e2 9dbb b091 373b 5515 593b c0e1 ee39
000001a0: 9ed0 a0b8 7b7b 05bc ab5b 283c a7f5 6f3c
000001b0: 679c 703b 8f81 38bc 1b33 00bc 209c c63a
000001c0: c3f5 a7bb 95d5 38bb 3f27 eeb8 39f5 c83b
000001d0: 83c0 cdbb f4fc 013c 2818 253c 86ce bdbb
000001e0: ba5b 513a c16c 05bc f798 72bb c788 2fbb
000001f0: 33f6 253b 9f71 f8bb ba23 9c3b b2c4 d0b9
00000200: 95bd 9d3b b7d6 f7bb 7234 5aba 409c 50bc
00000210: 38ab 3abc b278 493c 9f17 17ba dbd7 dabb
00000220: fb3d c5bb 1745 97bb 14cb aabc 78ea 583c
00000230: 0e5d 98ba 0bd8 3cba fa08 8138 5d2a e0bb
00000240: a3f4 8e3a 1452 853a d945 1e3b 30d0 32b9
00000250: 29b7 133c 3066 ecba 5336 acba ffc9 a3bb
00000260: 8fa3 613c dba4 c23a 3d79 713b cfda adbb
00000270: 4097 d73b cf92 86bc b154 a03a 046b 4bbc
00000280: a5da 5c3b 5ac3 2dbb d7d2 3b3b 77e9 52bb
00000290: ef76 22bc d7ba 703b 3f7c 6f3b c7ea 90bb
000002a0: a59b 64bb e6d8 053c 936e 8dba d78c 23bb
000002b0: e337 92bb b5ba 62bb 3785 c6bb 3a38 45bc
000002c0: eb07 913b c803 d03a 565f 35bb 1747 593c
000002d0: dd52 b23c 54d5 123c 63bb de3b e879 8f3b
000002e0: a7cc 8bbc 73a1 853a af45 e3b8 911f 3039
000002f0: 66b3 4a3b 7719 503b 8f40 5c3a d8d4 633b
00000300: f317 203b 6aa3 8c3b ed37 3c3c 4010 9f3a
00000310: 05cc 6939 eabe f13b cf7c 673a 6064 183a
00000320: e3f6 d83a 886f 25bb 7f81 8b3b 7fe3 88bb
00000330: bd7d b9bb 8bfb 193c bed8 363c a3ea 283b
00000340: 16b1 87bb bd34 343b 37dc 06bc 3175 03bc
00000350: d58c 94ba f4f7 333b b6e6 a5bb aae8 a2ba
00000360: f835 d2bb 2d57 e93b 0b8f eb3b c3ac 8fbb
00000370: ee92 013c fa31 6f3b f049 2c3b 83a3 e9bb
00000380: 132b 873a 9ccc c637 1ea8 88ba 0fc9 02bb
00000390: 9a01 b139 3f0c 1f3b c170 233b f337 02bc
000003a0: fbec c4bb 2f44 703c 9a87 cf3b 7fba ad3b
000003b0: cda9 583c 30dc d939 c310 18bc 7d94 59bc
000003c0: eea4 a53a 4354 893a b178 87ba fd92 293b
000003d0: 5762 50bb aba9 b83b 8eca 923a 23bb a6bb
000003e0: e7ae 89bb eff3 943a 23b3 79bb 4e0a 40bb
000003f0: 62d8 8f39 5a9e 413b e6ec 46ba 9a22 dabb
-0.008262363 -2.6237894e-05 0.006558716 -0.00018429827 -0.0021869931 0.0075755417 0.0022114867 0.0063321926
-0.0012281883 0.0022631069 -0.00021950896 -0.0021648374 -0.0006544238 -0.00059908733 0.002481163 0.003506204
-0.007635094 -0.0035334972 -0.0018896221 -0.0039899084 -0.0022170427 -0.007874313 0.002241144 0.005463377
-0.010473311 -0.0010711927 0.002726715 0.001016432 -0.009179094 0.0051306393 0.010488202 -0.0035545712
0.0014316393 -0.0044417586 0.008691749 -0.0030196877 -0.0030899674 -0.009802959 -0.00493007 0.0004544526
0.0005247951 0.006335364 0.011959854 -0.011103907 0.012500494 0.0033944629 0.0031713757 -0.003753993
0.0062066456 0.000819347 -0.010609298 -0.0007244526 -0.00565222 0.0056797722 -0.002485426 -0.0024253419
0.009557344 0.0030573427 -0.007204586 0.0016667129 -0.0028494103 -0.002597379 0.008836708 -0.0010896664
0.003940876 6.945657e-05 -0.0067711524 0.0047069835 0.0049932553 -0.0016052369 -0.002063828 -0.0074788793
0.0036704738 -0.00690351 0.003672147 0.0032634553 0.003107844 0.012613296 -0.0061212266 -0.01280078
0.003067257 -0.0043296115 -0.0029826264 -0.010349521 -0.0013704983 -0.01036174 -0.0035124854 -0.0071394774
-0.0010320627 -0.01249186 -0.0039577503 0.006722368 -0.00013896277 -0.0057545104 -0.008112461 0.013625504
-0.012135593 0.0060162963 -0.0009682827 0.0056072376 -0.0048182574 0.002801042 0.0033124287 0.00045563094
-7.6682525e-05 -0.008147116 0.010275762 0.01464597 0.0036714317 -0.011261358 -0.0078246845 0.001515273
-0.0051257326 -0.0028203477 -0.000113560345 0.0061327484 -0.0062790527 0.007933844 0.01007656 -0.005792442
0.00079863856 -0.008143605 -0.0037017444 -0.0026784407 0.0025323748 -0.007581904 0.004765001 -0.000398194
0.0048138597 -0.007563438 -0.0008323855 -0.012732565 -0.011393361 0.012296842 -0.00057637127 -0.006678564
-0.0060193515 -0.0046163904 -0.020848788 0.013239495 -0.0011624412 -0.0007203824 6.152871e-05 -0.0068409876
0.0010906648 0.0010171556 0.002415052 -0.00017052959 0.009015837 -0.0018035825 -0.0013138748 -0.004998445
0.013771906 0.0014850156 0.0036845945 -0.005305625 0.0065793097 -0.016427426 0.0012232271 -0.012415651
0.0033699658 -0.0026514144 0.0028659606 -0.0032182613 -0.009916051 0.003673246 0.0036542562 -0.004422519
-0.003488281 0.008169388 -0.00107904 -0.0024955773 -0.0044622286 -0.003459615 -0.006058361 -0.012037331
0.0044259927 0.0015870268 -0.0027675233 0.013261578 0.021768028 0.008961994 0.0067972406 0.004378546
-0.01706536 0.001019521 -0.00010837183 0.00016796427 0.0030929684 0.003175346 0.0008401954 0.0034764316
0.0024428337 0.0042919414 0.011487943 0.001213558 0.00022296615 0.007377495 0.00088305486 0.0005813297
0.001655307 -0.002524348 0.0042573805 -0.0041775103 -0.005660741 0.009398351 0.011160074 0.002577462
-0.0041409833 0.0027497255 -0.008231214 -0.008023546 -0.0011333475 0.0027461024 -0.0050629033 -0.0012428958
-0.006415125 0.007120988 0.007188683 -0.0043846085 0.007908566 0.0036498294 0.0026289187 -0.007130088
0.001031252 2.3698718e-05 -0.0010426079 -0.0019956266 0.00033761264 0.0024268774 0.0024939033 -0.00794791
-0.0060096956 0.014664694 0.0063333036 0.005301773 0.013224077 0.00041553518 -0.00928134 -0.013280031
0.0012637654 0.0010477382 -0.0010335651 0.0025874965 -0.0031796896 0.0056354604 0.0011199282 -0.0050882264
-0.004201758 0.0011364202 -0.0038101159 -0.0029303017 0.00027436303 0.0029543848 -0.0007588401 -0.006656957

onnx::Div_70 f4 [6]
00000000: 0000 803f 0000 803f 0000 803f 0000 803f
00000010: 0000 803f 0000 803f
1.0 1.0 1.0 1.0 1.0 1.0
