results/SliderBehavior-jgf-004/SliderBehavior/SliderBehavior-1823.onnx (onnx, 544687 bytes, 8 tensors)

network_body.observation_encoder.processors.0.normalizer.running_mean f4 [8]
000000 80 dd 5d be 90 97 59 c0 00 00 00 00 9f 61 05 bf
       -0.21666527 -3.3998756 0.0 -0.5210208
000010 0c e5 bf c0 00 00 00 00 76 d0 00 bd 6e 73 30 bf
       -5.99671 0.0 -0.031448804 -0.6892613

network_body._body_endoder.seq_layers.0.weight f4 [256, 8]
000000 46 07 f2 bc b0 79 56 3e 78 73 29 be eb 67 68 3e
       -0.029544484 0.20944858 -0.16547954 0.22695892
000010 74 9c 95 3e ef 9a ac be 7b 4b 01 3f 6a ac 95 bc
       0.29220927 -0.33711955 0.505058 -0.01827069
000020 9e dd ef be 84 a5 30 bf 32 22 f0 3d 86 f9 eb be
       -0.46848768 -0.69002557 0.11725272 -0.4608881
000030 82 81 e7 3e 91 be a2 be e5 73 89 bd 77 b2 93 bf
       0.45215994 -0.31786016 -0.06711558 -1.1538838
000040 4c 95 b2 3e 62 e0 89 be 91 90 85 be 62 e3 4c bf
       0.3487953 -0.26929003 -0.26086858 -0.8003446
000050 af 47 09 3e 91 d5 d4 3d ae 19 d8 bd 6a 84 bf bd
       0.13406251 0.10392297 -0.10551773 -0.09351428
000060 84 dc 82 be e0 03 1c 3e d1 89 bb bd 70 d9 11 be
       -0.25558865 0.15235853 -0.09157146 -0.14243102
000070 46 95 3d be 16 87 04 3f 8b 10 66 bd 48 52 20 be
       -0.18513975 0.51768625 -0.05616812 -0.15656388
000080 a4 aa a9 be a4 ff 76 bd b9 f5 ea be ad e6 b0 bd
       -0.33138 -0.06030239 -0.45890597 -0.08637748
000090 23 31 b6 be 01 7e 36 be f1 aa 49 bf be a1 a0 bd
       -0.35584363 -0.17821504 -0.7877646 -0.0784335
0000a0 d8 09 a4 bc e4 4b b6 be 5c 2a 4e be df ac e2 be
       -0.020024225 -0.35604775 -0.20133346 -0.44272515
0000b0 78 64 40 3d 4c 28 be bd cb cc 43 3d 74 c9 12 3e
       0.046970814 -0.0928503 0.047802728 0.14334661
0000c0 01 f3 d5 be 71 80 2e 3c 0a dc 0c bf cf 26 35 bf
       -0.4178696 0.01065074 -0.5502325 -0.7076234
0000d0 db 41 96 be ca 6f 12 bf 8e 06 fd be 72 7d ac 3e
       -0.2934712 -0.57201827 -0.49419063 0.33689457
0000e0 9f 8d 8c be 55 02 cd 3e f9 24 36 3d 6f 4c c4 3e
       -0.27451798 0.40040842 0.044468854 0.38339564
0000f0 15 73 be 3e 01 32 98 be 0a 3d cf be 8b 96 35 3e
       0.37197176 -0.2972565 -0.40476257 0.17733209
000100 fa 2c 80 bd f0 96 85 be d4 3c 20 3e 51 82 7f bf
       -0.062585786 -0.2609172 0.15648204 -0.9980822
000110 61 d5 ac be 7d 18 2d be 6c 26 28 3f 7c 1a 97 be
       -0.33756545 -0.16903873 0.6568363 -0.29512393
000120 44 3c 4a be 3c d6 c0 be 38 2c 17 bf 27 7f 93 bd
       -0.19749552 -0.37663448 -0.5905185 -0.07201987
000130 ec 76 8e bd 27 3f 48 be f5 f0 42 bf f1 2f ba bd
       -0.06956276 -0.1955534 -0.7614892 -0.09091175
000140 96 c6 24 3f ef fe f5 3d 34 c0 70 3e 28 3b 7b 3e
       0.6436552 0.12011515 0.2351082 0.24534285
000150 20 35 11 3f d9 b1 07 3e f2 ac c2 3e 72 f8 94 3c
       0.5672169 0.13251437 0.38022572 0.018184874
000160 b7 03 24 bd 54 1c f5 3e ae 7f 8a 3e 7a 61 8c bd
       -0.040042605 0.47873175 0.27050537 -0.0685453
000170 bb c7 5e 3e 84 72 26 3d 26 b9 01 bd ea d3 27 be
       0.21755879 0.040636554 -0.031670712 -0.16389433
000180 d0 55 08 3d 6b 91 58 bd 04 41 e3 be 35 54 50 bd
       0.033284962 -0.052873056 -0.4438554 -0.050861556
000190 70 ae c4 be e9 b4 ca be c4 78 89 bc 59 bc 0c bf
       -0.38414335 -0.39591148 -0.016781218 -0.54974896
0001a0 8a 92 90 3e 84 46 f2 be 3a cd 89 3e 71 7f c4 3e
       0.282368 -0.47319424 0.26914388 0.3837848
0001b0 9d 02 3f 3c ab 75 e1 bb 01 2b 91 bd 5b a5 7c 3e
       0.011658338 -0.006880482 -0.070882805 0.24672453
0001c0 f2 a2 36 3e 79 b5 f8 be ba 25 07 3f 43 2e 69 be
       0.17835596 -0.48575953 0.5279194 -0.22771554
0001d0 ca e1 3f be a3 b2 1f 3e aa 89 88 be 46 95 24 3f
       -0.18738475 0.15595488 -0.2666753 0.64290273
0001e0 82 db 69 3e 82 1f 3b 3e 8e ec 0d 3e 1e 13 d8 3b
       0.22837642 0.18273738 0.1385977 0.006594076
0001f0 0b 15 32 bf 3f b8 95 be 14 66 cb be 1d df 06 3e
       -0.6956336 -0.2924213 -0.39726317 0.13171048
000200 78 9f 8b be b3 63 86 bd d8 43 1e 3f ac 47 29 be
       -0.27270103 -0.06561985 0.6182227 -0.16531247
000210 17 41 42 3e 0e ee 01 3f 2b 00 d8 bd c5 b3 90 be
       0.18970142 0.5075387 -0.10546907 -0.28262153
000220 8d 38 97 be 4d d0 64 be 6f a5 98 3d d1 89 26 3f
       -0.29535332 -0.22345085 0.07453429 0.6505404
000230 fb d2 6d 3e 45 0a d1 3e 69 12 a1 3e 59 05 95 be
       0.23225014 0.40828148 0.31459358 -0.29105642
000240 51 10 16 3e cb 0f 6b be b5 4d 56 be 35 3e 1a 3f
       0.14654662 -0.22955243 -0.2092808 0.6025117
000250 79 fd 1a 3d a2 6d 0d 3f 58 e0 64 3e e1 54 b6 3e
       0.037839387 0.5524541 0.22351205 0.35611632
000260 3e 41 79 3e 88 64 54 3d 62 e7 38 3e 82 c9 05 3e
       0.24341294 0.051853687 0.18057016 0.1306515
000270 8f 7c ac 3d 41 77 90 3d 3a b8 59 3e b5 f5 72 3e
       0.08422195 0.07053996 0.21261683 0.23726542
000280 e9 22 8c 3e 57 1b a8 bc bb cf 04 3f 65 ab 05 3f
       0.27370384 -0.02052085 0.5187947 0.5221465
000290 75 cf a3 be b8 f5 f7 3e b4 f7 18 bf 7e d3 60 3d
       -0.31994215 0.48429656 -0.59752965 0.054889195
0002a0 94 ec 9a 3d fb 5a f5 be 7a f0 19 be cc 4a a2 bd
       0.07564655 -0.47920975 -0.15033141 -0.079244226
0002b0 f3 c1 90 be ec 3a f8 3d 38 c0 fc bc 8d b0 e1 3e
       -0.28272972 0.121206135 -0.030853376 0.4408001
0002c0 1e da 3a 3e 43 ac 84 3f 18 5e 02 3e 14 8f 99 be
       0.18247268 1.036507 0.12731206 -0.29991972
0002d0 f9 81 0e be 01 f4 07 bc 86 7f c1 3e f4 c8 26 3f
       -0.13916768 -0.008297921 0.37792605 0.6515038
0002e0 6d 57 43 be 15 87 64 3e a2 59 06 3d bc 38 1c be
       -0.19076319 0.22317155 0.032800324 -0.15256017
0002f0 5a 1f 65 3e 1f af ae 3c 39 e9 44 3e 3f b2 8d 3e
       0.22375241 0.021323739 0.19229592 0.27675053
000300 ad c5 23 3e 01 89 c1 bd fc b4 de bd a9 af 59 3e
       0.15993376 -0.094499595 -0.10874364 0.21258415
000310 18 60 56 3f 2e eb df be 30 d1 f8 3e 4e 67 61 3e
       0.8374038 -0.43734115 0.48597097 0.22012064
000320 dc df 1c be cc 7f 08 3e 96 57 1a 3e 2d 2b d9 be
       -0.1531977 0.1333 0.15072474 -0.42415753
000330 32 ff 00 3f e4 48 7e be 13 02 26 bd bf 4e d8 bd
       0.503894 -0.24832493 -0.040529322 -0.105618946
000340 b6 7d 97 bd 06 28 4a 3e bd f4 8e 3e 7d 96 10 be
       -0.07397024 0.1974183 0.27921095 -0.14119907
000350 f8 d9 89 be 29 5c 4a 3f 97 5f f0 3e d7 6d 52 3e
       -0.2692411 0.79046875 0.4694793 0.20549713
000360 7c 6a 86 3e 5f 7b 47 bd b8 c0 5d bf 67 da bd be
       0.26253116 -0.04870164 -0.8662219 -0.3708069
000370 02 81 cf 3e b7 00 ae 3e a7 c8 a5 3e 31 42 86 be
       0.40528113 0.3398492 0.32379648 -0.26222375
000380 ea f3 e0 3e d7 6e 09 be 42 35 85 3d ed 0e 05 be
       0.43936092 -0.13421188 0.06504299 -0.12993975
000390 56 eb b8 3e f7 df 27 bf a9 e8 82 bd bf b6 47 bf
       0.36117047 -0.6557612 -0.06392033 -0.78013223
0003a0 24 00 13 be 25 97 63 be 08 d6 46 3e ee fe 3e bd
       -0.14355522 -0.22225626 0.19417584 -0.04662984
0003b0 f1 80 b0 3e d4 c8 74 3e bf 6d 0c bd 0c a7 15 3d
       0.34473374 0.23904735 -0.03428435 0.03653626
0003c0 1e fc 4f 3e 48 6e 74 3d a4 38 b5 bd 85 8c f6 3e
       0.20311019 0.059675485 -0.08848694 0.48154083
0003d0 4a 97 e4 be 4f 5e 71 be f4 7f 85 3d a7 64 2f 3e
       -0.44646674 -0.23571132 0.06518546 0.1712824
0003e0 d5 c6 97 3d 21 42 d2 3e af 4b 21 be 41 42 c1 be
       0.07410971 0.41066077 -0.15751527 -0.3774586
0003f0 c3 2b bf be 58 a3 e6 bd 8e 8b 90 be 65 05 8a bc
       -0.37338075 -0.11261624 -0.28231472 -0.016848275

network_body._body_endoder.seq_layers.0.bias f4 [256]
000000 00 00 00 00 00 00 00 00 00 00 00 00 00 00 00 00
       0.0 0.0 0.0 0.0
000010 00 00 00 00 00 00 00 00 00 00 00 00 00 00 00 00
       0.0 0.0 0.0 0.0
000020 00 00 00 00 00 00 00 00 00 00 00 00 00 00 00 00
       0.0 0.0 0.0 0.0
000030 00 00 00 00 00 00 00 00 00 00 00 00 00 00 00 00
       0.0 0.0 0.0 0.0
000040 00 00 00 00 00 00 00 00 00 00 00 00 00 00 00 00
       0.0 0.0 0.0 0.0
000050 00 00 00 00 00 00 00 00 00 00 00 00 00 00 00 00
       0.0 0.0 0.0 0.0
000060 00 00 00 00 00 00 00 00 00 00 00 00 00 00 00 00
       0.0 0.0 0.0 0.0
000070 00 00 00 00 00 00 00 00 00 00 00 00 00 00 00 00
       0.0 0.0 0.0 0.0
000080 00 00 00 00 00 00 00 00 00 00 00 00 00 00 00 00
       0.0 0.0 0.0 0.0
000090 00 00 00 00 00 00 00 00 00 00 00 00 00 00 00 00
       0.0 0.0 0.0 0.0
0000a0 00 00 00 00 00 00 00 00 00 00 00 00 00 00 00 00
       0.0 0.0 0.0 0.0
0000b0 00 00 00 00 00 00 00 00 00 00 00 00 00 00 00 00
       0.0 0.0 0.0 0.0
0000c0 00 00 00 00 00 00 00 00 00 00 00 00 00 00 00 00
       0.0 0.0 0.0 0.0
0000d0 00 00 00 00 00 00 00 00 00 00 00 00 00 00 00 00
       0.0 0.0 0.0 0.0
0000e0 00 00 00 00 00 00 00 00 00 00 00 00 00 00 00 00
       0.0 0.0 0.0 0.0
0000f0 00 00 00 00 00 00 00 00 00 00 00 00 00 00 00 00
       0.0 0.0 0.0 0.0
000100 00 00 00 00 00 00 00 00 00 00 00 00 00 00 00 00
       0.0 0.0 0.0 0.0
000110 00 00 00 00 00 00 00 00 00 00 00 00 00 00 00 00
       0.0 0.0 0.0 0.0
000120 00 00 00 00 00 00 00 00 00 00 00 00 00 00 00 00
       0.0 0.0 0.0 0.0
000130 00 00 00 00 00 00 00 00 00 00 00 00 00 00 00 00
       0.0 0.0 0.0 0.0
000140 00 00 00 00 00 00 00 00 00 00 00 00 00 00 00 00
       0.0 0.0 0.0 0.0
000150 00 00 00 00 00 00 00 00 00 00 00 00 00 00 00 00
       0.0 0.0 0.0 0.0
000160 00 00 00 00 00 00 00 00 00 00 00 00 00 00 00 00
       0.0 0.0 0.0 0.0
000170 00 00 00 00 00 00 00 00 00 00 00 00 00 00 00 00
       0.0 0.0 0.0 0.0
000180 00 00 00 00 00 00 00 00 00 00 00 00 00 00 00 00
       0.0 0.0 0.0 0.0
000190 00 00 00 00 00 00 00 00 00 00 00 00 00 00 00 00
       0.0 0.0 0.0 0.0
0001a0 00 00 00 00 00 00 00 00 00 00 00 00 00 00 00 00
       0.0 0.0 0.0 0.0
0001b0 00 00 00 00 00 00 00 00 00 00 00 00 00 00 00 00
       0.0 0.0 0.0 0.0
0001c0 00 00 00 00 00 00 00 00 00 00 00 00 00 00 00 00
       0.0 0.0 0.0 0.0
0001d0 00 00 00 00 00 00 00 00 00 00 00 00 00 00 00 00
       0.0 0.0 0.0 0.0
0001e0 00 00 00 00 00 00 00 00 00 00 00 00 00 00 00 00
       0.0 0.0 0.0 0.0
0001f0 00 00 00 00 00 00 00 00 00 00 00 00 00 00 00 00
       0.0 0.0 0.0 0.0
000200 00 00 00 00 00 00 00 00 00 00 00 00 00 00 00 00
       0.0 0.0 0.0 0.0
000210 00 00 00 00 00 00 00 00 00 00 00 00 00 00 00 00
       0.0 0.0 0.0 0.0
000220 00 00 00 00 00 00 00 00 00 00 00 00 00 00 00 00
       0.0 0.0 0.0 0.0
000230 00 00 00 00 00 00 00 00 00 00 00 00 00 00 00 00
       0.0 0.0 0.0 0.0
000240 00 00 00 00 00 00 00 00 00 00 00 00 00 00 00 00
       0.0 0.0 0.0 0.0
000250 00 00 00 00 00 00 00 00 00 00 00 00 00 00 00 00
       0.0 0.0 0.0 0.0
000260 00 00 00 00 00 00 00 00 00 00 00 00 00 00 00 00
       0.0 0.0 0.0 0.0
000270 00 00 00 00 00 00 00 00 00 00 00 00 00 00 00 00
       0.0 0.0 0.0 0.0
000280 00 00 00 00 00 00 00 00 00 00 00 00 00 00 00 00
       0.0 0.0 0.0 0.0
000290 00 00 00 00 00 00 00 00 00 00 00 00 00 00 00 00
       0.0 0.0 0.0 0.0
0002a0 00 00 00 00 00 00 00 00 00 00 00 00 00 00 00 00
       0.0 0.0 0.0 0.0
0002b0 00 00 00 00 00 00 00 00 00 00 00 00 00 00 00 00
       0.0 0.0 0.0 0.0
0002c0 00 00 00 00 00 00 00 00 00 00 00 00 00 00 00 00
       0.0 0.0 0.0 0.0
0002d0 00 00 00 00 00 00 00 00 00 00 00 00 00 00 00 00
       0.0 0.0 0.0 0.0
0002e0 00 00 00 00 00 00 00 00 00 00 00 00 00 00 00 00
       0.0 0.0 0.0 0.0
0002f0 00 00 00 00 00 00 00 00 00 00 00 00 00 00 00 00
       0.0 0.0 0.0 0.0
000300 00 00 00 00 00 00 00 00 00 00 00 00 00 00 00 00
       0.0 0.0 0.0 0.0
000310 00 00 00 00 00 00 00 00 00 00 00 00 00 00 00 00
       0.0 0.0 0.0 0.0
000320 00 00 00 00 00 00 00 00 00 00 00 00 00 00 00 00
       0.0 0.0 0.0 0.0
000330 00 00 00 00 00 00 00 00 00 00 00 00 00 00 00 00
       0.0 0.0 0.0 0.0
000340 00 00 00 00 00 00 00 00 00 00 00 00 00 00 00 00
       0.0 0.0 0.0 0.0
000350 00 00 00 00 00 00 00 00 00 00 00 00 00 00 00 00
       0.0 0.0 0.0 0.0
000360 00 00 00 00 00 00 00 00 00 00 00 00 00 00 00 00
       0.0 0.0 0.0 0.0
000370 00 00 00 00 00 00 00 00 00 00 00 00 00 00 00 00
       0.0 0.0 0.0 0.0
000380 00 00 00 00 00 00 00 00 00 00 00 00 00 00 00 00
       0.0 0.0 0.0 0.0
000390 00 00 00 00 00 00 00 00 00 00 00 00 00 00 00 00
       0.0 0.0 0.0 0.0
0003a0 00 00 00 00 00 00 00 00 00 00 00 00 00 00 00 00
       0.0 0.0 0.0 0.0
0003b0 00 00 00 00 00 00 00 00 00 00 00 00 00 00 00 00
       0.0 0.0 0.0 0.0
0003c0 00 00 00 00 00 00 00 00 00 00 00 00 00 00 00 00
       0.0 0.0 0.0 0.0
0003d0 00 00 00 00 00 00 00 00 00 00 00 00 00 00 00 00
       0.0 0.0 0.0 0.0
0003e0 00 00 00 00 00 00 00 00 00 00 00 00 00 00 00 00
       0.0 0.0 0.0 0.0
0003f0 00 00 00 00 00 00 00 00 00 00 00 00 00 00 00 00
       0.0 0.0 0.0 0.0

network_body._body_endoder.seq_layers.2.weight f4 [256, 256]
000000 56 1f b4 3d f0 3c 1f bd 4c 72 57 bc 7d c0 12 bc
       0.08795039 -0.038876474 -0.013149809 -0.008957026
000010 17 a2 15 3e ae e1 ad 3d 68 82 01 bc 72 c4 b0 3d
       0.14612614 0.084903106 -0.007904626 0.08631219
000020 72 f4 f8 3b 61 8f 00 3d 7e 78 70 3b 4c 8e 43 bc
       0.0075974995 0.031386737 0.0036692913 -0.011935782
000030 14 bf c3 3d 98 be 15 3e 43 8c 00 3e 57 c1 20 3d
       0.0955793 0.14623487 0.12553506 0.039246883
000040 da 0d 85 3d 2f 6d 09 3d c9 2d b4 bc 47 55 d7 bc
       0.064967826 0.03355139 -0.021994488 -0.02628578
000050 93 18 92 bd 4c 3a 53 bc 02 d1 b3 3d 94 8c 24 be
       -0.071335934 -0.012892317 0.087800995 -0.16069251
000060 f9 cd c2 3d 6c e3 9b 3d d0 6c 17 bc 73 1f 57 bd
       0.095119424 0.07611737 -0.0092422515 -0.052520227
000070 fc 31 e9 bd 4e e8 d7 3b 46 64 8b 3d 23 3d 78 bb
       -0.11386487 0.006588972 0.06806235 -0.0037878237
000080 8c e6 36 bc 52 46 98 3c 0e 17 20 3d ad 84 ef bc
       -0.011163365 0.018588219 0.039084487 -0.02923807
000090 70 b9 43 bd 78 c9 80 3d 6f c9 6f bd d4 d4 81 bc
       -0.04778427 0.06288427 -0.05854171 -0.015848555
0000a0 8d ec ad bc 77 8a 34 bd b8 6b 11 bd a4 58 6f 3c
       -0.02123096 -0.044077363 -0.03550312 0.014608536
0000b0 01 4e 56 bd e7 d0 8c 3d cb a3 80 bd 71 2f 75 bd
       -0.052320484 0.068757825 -0.06281241 -0.059859697
0000c0 24 b7 93 bc fb df 8a 3c 06 fd d2 3c c8 8c e5 bd
       -0.018031664 0.016952505 0.025755417 -0.112084925
0000d0 9d ac 80 bd 87 39 01 bd 14 d1 0c 3d 19 00 f4 3b
       -0.06282923 -0.031549003 0.03437908 0.0074463007
0000e0 4a d3 c6 3c b0 81 0e 3c 4e 53 a9 3d d2 84 21 bd
       0.024270672 0.008697912 0.08267842 -0.039433308
0000f0 99 80 c7 3d 68 a4 c7 bc f2 71 37 bd 16 e3 cd bc
       0.09741325 -0.024370387 -0.0447864 -0.025132697
000100 db 42 6e 3d 1b 60 61 3d bf 2d fe bc ee a4 34 3d
       0.058169227 0.055023294 -0.031027673 0.0441026
000110 39 8c 00 3c 84 73 00 bd a9 7e 92 bd 7e 5c 8e bd
       0.007845932 -0.031360164 -0.07153065 -0.06951235
000120 aa 7d 0a 3d 20 89 86 3c d2 c1 fb 3d aa f1 4e 3d
       0.03381125 0.016422808 0.12292828 0.050523438
000130 3e 50 0d be 46 a5 17 bd fb 42 a9 3c 16 d4 fd 3c
       -0.13800141 -0.03702285 0.020661822 0.03098492
000140 05 08 77 bd a5 d3 c3 bd 95 f9 f2 3c a5 9a fa bd
       -0.060310382 -0.09561852 0.029660026 -0.12236527
000150 8a 84 f6 3b cf f0 15 3e 30 8f a1 ba ea 22 82 bc
       0.007523124 0.14642642 -0.0012325998 -0.015885789
000160 a7 aa a8 3c f3 0e 96 bd 36 8d 90 bd 76 11 92 3c
       0.020589186 -0.0732707 -0.07058184 0.017830592
000170 13 d3 b3 bb 9b 7e 38 bd 81 b5 0e 3d e6 90 49 3d
       -0.0054878085 -0.045042615 0.034841064 0.04921045
000180 9c 4b 6f bd fe 6d d3 3b 19 76 a6 3b 72 b1 f9 bc
       -0.058421716 0.006452321 0.0050799963 -0.03048012
000190 57 61 02 3e 2f fe 25 bb 1b e7 23 3d 86 c2 3d 3d
       0.12732445 -0.0025328507 0.04001532 0.04632809
0001a0 79 34 67 bd 70 14 01 3d 49 97 81 3c b1 00 e5 3d
       -0.056446526 0.03151363 0.015819209 0.111817725
0001b0 b3 ee 0a 3c c3 c9 81 bd f0 8f 64 3d 81 8a 32 3d
       0.008479762 -0.06337311 0.055801332 0.04358912
0001c0 1b 97 1c 3c d7 4f 16 3e 28 39 82 bd 49 c1 ab 3c
       0.009557511 0.14678894 -0.06358558 0.020966189
0001d0 8d c7 3f 3d f3 8f 99 bd ef e8 c4 3c 1d c7 84 bb
       0.046821166 -0.07498159 0.024036853 -0.0040520565
0001e0 a5 13 0f 3d 1b 6f b8 3d 85 70 89 bc 9e 19 75 bd
       0.034930844 0.09005567 -0.016777286 -0.059838884
0001f0 a0 f9 f3 bc 4d 0a 0f be 72 62 27 bb 2e 2c a4 bd
       -0.029782116 -0.13968773 -0.0025540856 -0.08016239
000200 50 bd 1e bd 5d 62 dc 3d b3 da a1 bd 92 24 ac 3c
       -0.03875476 0.10760949 -0.07903042 0.021013532
000210 f2 7a ef 3d 3c 3e 7e 3c 98 b0 5f bd 85 1e bf 3c
       0.11693372 0.0155177675 -0.054611772 0.023329983
000220 ea f0 07 3d 53 fa e5 3b 3c 40 34 ba 8f a7 bc 3d
       0.033188738 0.0070183664 -0.0006876027 0.09211647
000230 47 a9 e4 3c b4 42 cb 3d 26 cf c9 bc 06 b3 c7 bc
       0.027912749 0.09924832 -0.024634909 -0.024377357
000240 19 2c b0 bd 12 80 8a 39 e5 6e 30 bd d8 f7 58 bd
       -0.08602161 0.0002641683 -0.043074507 -0.052970737
000250 da 0e 81 bd b7 ce e5 bd dc 6e 75 3c 7c 8b 83 bd
       -0.06301661 -0.11221068 0.014980044 -0.06423089
000260 e7 3d cd bd 29 6f 74 3d 01 6d b8 3d ca 8a 87 3c
       -0.100215726 0.059676323 0.09005166 0.016545672
000270 e2 a1 57 3c 69 66 db 3d 29 b6 a9 bd 72 d2 82 bb
       0.013161154 0.107128926 -0.082866974 -0.003992372
000280 da 4f 73 3c ec 56 dc 3c ec 38 84 bd 28 ba 56 3d
       0.014850581 0.026896916 -0.064561695 0.052423626
000290 aa 81 01 3d f6 6c ef 3b f1 9f ad bd 33 00 23 3c
       0.031617798 0.0073066903 -0.08477772 0.009948778
0002a0 37 a9 0a bd 70 a1 18 bd 4c a8 24 3c f0 0f 14 3d
       -0.033852782 -0.037263334 0.010049891 0.03614801
0002b0 75 64 71 bd 04 cb 52 3d 65 e6 08 bd de 73 18 3e
       -0.058933694 0.051463142 -0.033422846 0.1488795
0002c0 c4 43 0e bb d9 55 37 3d 84 0e a4 bc 71 75 8e 3d
       -0.0021707872 0.044759605 -0.020026453 0.06955994
0002d0 44 a7 da 3d ca f3 ed ba bc f1 9c 3c c5 8a a9 bd
       0.10676435 -0.001815432 0.019158237 -0.08278421
0002e0 5a 61 e9 3c 32 1d 9c bd 89 36 01 3d ec 7d ee bc
       0.028488804 -0.07622756 0.03154615 -0.029112779
0002f0 ab 2c e2 b8 90 ee 11 3d 43 a1 5e bd 92 a3 b1 bd
       -0.0001078484 0.0356279 -0.05435301 -0.08673777
000300 4c 67 11 be a7 5f 49 3d 89 28 83 3d 7e 64 b4 bc
       -0.14199561 0.049163487 0.06404216 -0.022020575
000310 dd 20 8f bc e6 a4 75 3b d3 7b 32 bd 1a f2 90 bd
       -0.017471725 0.003748232 -0.04357512 -0.07077427
000320 e7 5e 74 bd 72 e5 e6 3d 48 f5 82 3d 28 60 12 ba
       -0.05966082 0.11274232 0.0639444 -0.00055837864
000330 d6 7e 00 bd 52 6c 9c ba a3 c4 48 3c 6d 6d 87 bc
       -0.03137096 -0.0011934137 0.012253913 -0.01653167
000340 7f 12 68 bd 7b dc 53 bd e6 7c a2 3d 75 56 82 3c
       -0.056658264 -0.05172394 0.07933979 0.015910367
000350 ef 78 2f bd fe b4 9d bd 00 49 85 3d 39 3c 99 3d
       -0.04283994 -0.07700537 0.06508064 0.0748219
000360 90 46 05 bd be d6 bc 3d 08 a9 ec bd 22 77 58 bd
       -0.032537997 0.09220646 -0.11555678 -0.05284799
000370 02 4b f1 3c d3 27 cf 3c 59 11 50 bd 3d d2 d4 bb
       0.029454712 0.025287544 -0.050797794 -0.006494789
000380 73 a5 86 3d 1a d8 2e bd b2 60 66 bd 7b fd 75 bc
       0.06574526 -0.04268656 -0.05624456 -0.015014048
000390 85 f1 ad 3d 74 0b 89 3c 20 5d 79 3d f3 a7 ae bd
       0.08493332 0.016729094 0.060879827 -0.085281275
0003a0 32 30 d9 bc 49 04 55 3c 8a 04 36 3c 78 27 d4 3b
       -0.02651224 0.01300151 0.011109481 0.0064744316
0003b0 4d 7f 0f bd 20 4e 6b 3c dd 2e f5 bc 31 df a2 bc
       -0.035033513 0.014361888 -0.029929573 -0.019881817
0003c0 b5 62 cd 3b 0c 30 d9 3d e6 c1 f4 3b 4a f6 c4 bb
       0.0062678703 0.10604867 0.0074694036 -0.0060108053
0003d0 ce d4 c7 bd 02 01 91 3d 37 cd d0 bd 53 b9 85 bc
       -0.09757386 0.0708027 -0.101953916 -0.016323721
0003e0 0b c8 83 bd b7 55 40 3d 91 91 e1 bb b5 6d f9 3c
       -0.064346395 0.046956744 -0.006883808 0.03044782
0003f0 8c 49 c0 3d 85 f8 e7 3a fc 4c 19 bd f2 f8 7f bd
       0.09389028 0.0017697966 -0.037426934 -0.062493272

network_body._body_endoder.seq_layers.4.weight f4 [256, 256]
000000 ec d4 a8 bd cc 9e 35 bd 70 a1 30 3b 90 87 cb 3c
       -0.082437366 -0.044340894 0.0026951693 0.024844915
000010 be a7 fb 3c 02 ae f1 3d 0d f9 20 3e 60 ff 55 bd
       0.030719634 0.118007675 0.15720005 -0.052245498
000020 f1 7e 03 bd 62 0f 1d bd e2 4d e5 3d 3f 7b 08 3d
       -0.032103483 -0.03834475 0.111964956 0.03332066
000030 99 ac f4 bc f7 b0 ef 3c b5 25 c2 bd 8b 2c a9 bc
       -0.029867457 0.029259188 -0.09479848 -0.020651123
000040 28 d0 4f 3d 26 45 37 3d 52 70 1d 3e c2 e7 9c 3c
       0.050735623 0.04474368 0.15374878 0.01915348
000050 9a 92 37 3d ae dd 2b bd 34 0a a9 3d ee 79 3e 3d
       0.044817545 -0.041959457 0.08253899 0.046503
000060 cc 23 88 3c b7 ec 80 3b 2c 71 18 3d 08 73 0e bd
       0.016618632 0.0039344686 0.037217304 -0.03477767
000070 89 71 14 be 4b 92 f3 bd 3c e5 f0 3c 33 b1 f4 3b
       -0.14496435 -0.118931375 0.029406182 0.007467413
000080 a8 0e 01 bc 7b 0a e4 3d 70 73 de 3d 00 fa e3 bd
       -0.0078770295 0.111348115 0.10861862 -0.11131668
000090 ac 33 70 bc 15 58 ab 3c 36 d5 44 bc ae 27 94 bd
       -0.014660757 0.020916024 -0.012013724 -0.07234131
0000a0 3c 9e 9b bd d3 75 4c 3c d7 0c ac bc 34 4b 6b 3c
       -0.0759854 0.012479263 -0.021002216 0.014361192
0000b0 28 3f 3e bd 79 d1 21 3d 00 db 4f bd e3 f1 78 3c
       -0.04644695 0.03950641 -0.050745964 0.015194389
0000c0 59 9e e8 3c 00 66 c9 3d 37 f5 13 bd cf 94 1d 3d
       0.028395819 0.09833908 -0.036122527 0.038471993
0000d0 bd 99 17 3d e8 b0 41 bd 8f 9b 83 3d 61 c2 0d 3d
       0.03701185 -0.04728785 0.06426155 0.034609202
0000e0 50 3f cf 3d ae 3c cb bc bb b6 f3 bd 02 1e 66 3d
       0.10119498 -0.024809208 -0.119000874 0.05618096
0000f0 ed bc 65 3c 88 69 f6 3d 70 4d cb 3c e7 4f 47 bc
       0.014022094 0.12031847 0.024817199 -0.012165046
000100 f7 2b d1 3d d7 94 0f bc c5 c1 a3 bc 0a f2 c7 3c
       0.10213464 -0.0087635135 -0.019989857 0.024407405
000110 96 b9 18 bc 41 88 bf bd 06 a7 51 bd dc 77 b7 bb
       -0.009321591 -0.0935216 -0.051184677 -0.005599005
000120 bc 39 0c bd 12 38 ba 3a 37 45 01 bd 37 a5 75 3d
       -0.034234747 0.0014207384 -0.03156015 0.059972014
000130 83 a4 c5 bc e1 51 0c 3d a5 8e 40 bd 5c 50 54 3d
       -0.024126297 0.034257773 -0.047011036 0.05183445
000140 55 70 ad bd 55 da 75 bd 34 91 5f 3d ca 55 91 3c
       -0.08468691 -0.06002267 0.054581836 0.017741103
000150 ea de 0a be b5 c4 7f bb 09 c5 8a 3d e7 4d b0 3b
       -0.13561597 -0.0039027159 0.06775863 0.0053803804
000160 81 cc 51 bd 70 fa e5 bc e5 a7 62 bd 11 6a 00 3d
       -0.05122042 -0.02807352 -0.055335898 0.031351153
000170 58 d8 af bd 67 87 d0 bd 5f 45 0d 3d b0 f7 22 3d
       -0.08586186 -0.10182076 0.034489986 0.039786994
000180 d3 bb 48 bd c4 8b fa ba 55 6b 8c 3d b2 c6 85 bd
       -0.049007248 -0.001911514 0.068564095 -0.06532039
000190 21 0b 73 3a 00 66 17 bc 34 52 eb bc 2a 2c 6d bd
       0.00092713727 -0.009240627 -0.028725721 -0.057903446
0001a0 59 9c bd 3d dc bf 4c 3d 1a e3 b1 bc 91 b1 b1 bd
       0.092583366 0.04998766 -0.021714736 -0.08676446
0001b0 1c fd 4c bd 83 9c 3e 3c e9 aa 28 bb 8d 5c 46 bc
       -0.05004607 0.011633995 -0.0025736636 -0.012107027
0001c0 f6 da ca 3d dc 20 0f 3d c7 65 7c bd 1a 52 99 3d
       0.09905045 0.034943447 -0.0616205 0.07486363
0001d0 98 49 05 bd 36 82 88 bb bc 56 b9 bd b6 9b 37 bd
       -0.032540888 -0.004165913 -0.090497464 -0.044826232
0001e0 68 f8 99 bd cd 25 0a 3d a9 4f 76 bd df 64 f6 3c
       -0.07518083 0.033727456 -0.060134564 0.030077396
0001f0 ef 0a 26 bc 16 ed cd 3b 17 b7 93 bd 17 ba ff 3c
       -0.010134443 0.0062843664 -0.07212656 0.031216664
000200 c3 8a 60 bd 31 fa 06 bd ab b3 8c 3c ca fc 93 3d
       -0.054819833 -0.032953445 0.017175516 0.0722595
000210 3a 19 c1 3c 08 5a 69 bd f1 d4 74 3d 0d a1 6b bd
       0.0235716 -0.056970626 0.05977339 -0.057526637
000220 9c 44 57 bc fc 07 b5 3d b3 45 ae bc 13 f7 a6 3c
       -0.013138916 0.088394135 -0.02127347 0.020381486
000230 cc 34 8c 3d 9e a8 da 3b 44 f4 5b 3d f6 40 b4 3c
       0.06846008 0.0066729328 0.053699747 0.022003632
000240 a9 e0 c9 bb 7c 38 c2 3d 50 c2 a3 3d f6 8a 12 3c
       -0.006160815 0.0948343 0.079960465 0.008944264
000250 6f ac ea 3d 4b 02 1b bd 2e 9f 0b 3c 36 91 ce bb
       0.1145867 -0.037843984 0.008521838 -0.0063039316
000260 b7 20 bc bc 52 5f 05 3e 02 05 8e bb 52 9a bb 3c
       -0.022964818 0.13024643 -0.004334093 0.022900734
000270 40 ed 5b bb 3d 6d 85 bc 97 a3 c6 3c 4a 01 c2 bd
       -0.003355816 -0.01628744 0.024247928 -0.09472902
000280 90 83 fc bd 9e 44 94 bc 00 a9 d3 3d 25 20 fd bc
       -0.12329781 -0.018099125 0.103349686 -0.030899117
000290 99 50 7d 3c 2b 48 03 be 41 34 9d bd 0a 12 c6 3d
       0.0154611105 -0.12820499 -0.07675982 0.096714094
0002a0 04 4b 4c bb 6e cd 3d bd e1 9e 1c 3d f6 c1 de 3d
       -0.0031172642 -0.04633849 0.038237456 0.10876839
0002b0 f2 60 1d 3d e5 0b 89 bd e3 fa 38 3d 67 e0 27 be
       0.038422532 -0.06691722 0.04516114 -0.16394196
0002c0 d8 e6 5b bd e4 8c 82 3d 0a fc cb bb 71 44 7d 3d
       -0.053686947 0.06374529 -0.0062251138 0.06183285
0002d0 d0 50 c2 3d 88 db f1 3a 25 57 95 bc 23 03 8a 3d
       0.0948807 0.0018452266 -0.01823003 0.067388795
0002e0 bf fe bb bc eb a5 4c bd ee a6 0b bd 17 81 9b 3d
       -0.02294862 -0.04996292 -0.034094743 0.07592981
0002f0 df 83 2d bd c0 aa 20 3d 40 cd 2b bd 4c 6d 88 bc
       -0.04236209 0.03922534 -0.04194379 -0.01665368
000300 ff 63 63 3c bd 83 6d 3d 66 5c ce 3d 50 21 b1 bc
       0.013878821 0.057986964 0.10076217 -0.02162233
000310 ed 0d 9b 3c 39 ad 9e 3d c4 41 86 3d ba 8e 2e 3d
       0.018927539 0.07747883 0.065555125 0.042616583
000320 a0 e9 e9 bc cf 42 03 bd a5 88 62 bc 3f ab 86 bd
       -0.028553784 -0.032046136 -0.013826524 -0.06575631
000330 dc f4 d3 bb 6a 79 f9 bc 5b 5a fc 3d ab 12 21 3d
       -0.0064683985 -0.030453403 0.123219214 0.039324444
000340 e3 8b e7 bc 3e f2 84 bd 57 53 92 bd 21 b8 bc 3c
       -0.028264945 -0.064915165 -0.07144802 0.023037018
000350 0a 0a 37 3c a8 fd 50 3c a3 b8 31 3c 2c 8d d6 3c
       0.011171827 0.012755789 0.0108472435 0.026190363
000360 71 d8 ed bc 9b dc 5c 3c 39 68 07 bc 37 59 62 3b
       -0.029033871 0.013480331 -0.008264595 0.003453804
000370 60 49 fa bb 76 57 04 bd 02 3a 9f 3c 11 ef 39 3a
       -0.0076381415 -0.03230997 0.01943684 0.00070928136
000380 03 93 d0 bc d3 c5 f4 3d 7b 2c 18 3b 51 e8 8e 3c
       -0.025460726 0.119517945 0.0023219872 0.017444761
000390 7e ce 63 bd cd 89 46 bd 2c 3a 0f bd 2b cd e9 bc
       -0.05561685 -0.04847126 -0.034967586 -0.028540215
0003a0 90 53 78 3b 56 2c a9 bc e4 dd 49 bd f3 17 29 39
       0.0037891604 -0.020651024 -0.049283877 0.00016126018
0003b0 b6 55 1c 3d 58 1d 07 bd dc 61 24 3d 13 4e be bd
       0.038167678 -0.03298697 0.04013239 -0.09292235
0003c0 4f cb d6 bd 99 8f a0 3d b5 4d 55 3d 07 ce 84 3c
       -0.10487997 0.07839889 0.05207606 0.016211523
0003d0 ed 57 63 3b ac 72 99 bd 24 65 3d bd b0 4d db 3c
       0.003468986 -0.07492575 -0.046239033 0.026770443
0003e0 ca a9 05 be 27 ab 1a 3c 7c fe 01 bd 39 2f bf bd
       -0.1305305 0.00944022 -0.031736836 -0.09335179
0003f0 ed c2 5b bc 6d 27 f2 3c 30 bd a4 3d 7e 90 f7 3c
       -0.013413173 0.029559815 0.08043897 0.030220266

action_model._continuous_distribution.mu.weight f4 [1, 256]
000000 58 b8 15 3c 95 b0 ed bb b7 50 f6 3a 03 cf ec bc
       0.009138189 -0.0072537162 0.0018792365 -0.028907305
000010 c5 93 e4 bb 45 d8 78 3b 83 90 6e bc 3f cd 5f bd
       -0.0069756233 0.0037970704 -0.0145608215 -0.054639097
000020 87 f5 a4 ba c2 08 75 3b c9 9e 22 bc d7 71 83 3b
       -0.001258538 0.0037389253 -0.009925553 0.0040113735
000030 63 6c 02 3c 97 0d 93 ba 5b 87 29 3c 95 11 23 3c
       0.007960412 -0.001121926 0.010347213 0.009952922
000040 f5 a8 a0 bb 67 ee b5 b8 33 ed 41 3c 2f 85 64 bc
       -0.0049029537 -8.6751585e-05 0.011836338 -0.013947769
000050 cb 83 36 bb dd fc 76 3c 66 68 b3 3b db 98 8d bc
       -0.002784955 0.015074936 0.0054750917 -0.017284801
000060 6a e2 d1 3a ee f7 98 3b 95 74 0d 3c 59 0f 27 3c
       0.0016012911 0.0046682274 0.008633752 0.01019653
000070 a9 52 a4 bc 7a 96 ad bb 45 2e f7 3a f0 94 ed 3c
       -0.020058947 -0.005297479 0.0018858394 0.029001683
000080 94 cf 9d 3b 1f 4b 6e bc a7 2c 3a 39 55 a9 db bc
       0.004816005 -0.014544277 0.00017754977 -0.026814142
000090 e7 72 8a bc a8 52 aa 3c 10 bb 56 bc 77 5f 61 bc
       -0.016900493 0.020791367 -0.013106123 -0.013755671
0000a0 48 34 69 bb d5 ce 4c 3c 73 75 19 3d d5 e1 e9 bb
       -0.003558414 0.0125004845 0.037465524 -0.007137517
0000b0 22 01 ac bc 62 b9 00 3b 6f 36 7e bb fc f1 c2 bc
       -0.020996634 0.0019641747 -0.003878977 -0.023797028
0000c0 c2 7d 03 bc 1a 81 82 3c 39 25 8f 3b 0d 77 8d 3c
       -0.0080255885 0.015930701 0.004368451 0.017268682
0000d0 60 e5 74 3c 9f 20 f6 3b 3f 2d f6 3b 9f e8 38 3b
       0.014947265 0.007511213 0.007512718 0.0028214825
0000e0 3b 67 77 3c d4 ac ac bb 2f 40 11 3a 80 7f d5 ba
       0.015100296 -0.005269626 0.0005540875 -0.0016288608
0000f0 b3 6c 56 bb ac 74 0d bd bf 3b 95 3b 9b e1 30 3c
       -0.0032718598 -0.034535095 0.0045542414 0.010795976
000100 d8 58 86 bc 13 7b 94 bc a0 41 13 3a 3a 60 7a bb
       -0.016399786 -0.018125093 0.0005617384 -0.0038204328
000110 d7 55 71 3b 40 f4 e5 3b 89 97 87 3b 52 7b 80 39
       0.0036824846 0.0070176423 0.0041379374 0.00024505943
000120 d7 b2 c3 ba c6 fe 8f bb b7 91 62 3c 6c 55 b6 3b
       -0.0014930618 -0.004394385 0.013828686 0.0055643823
000130 4e 8a 92 3c 77 8d af bb 68 86 bd 3b e3 7a 0e 3c
       0.017888214 -0.00535744 0.0057838447 0.008696291
000140 0f b4 61 3c 38 4b dd bb c8 91 e0 3b 7a a1 0f 3b
       0.0137758395 -0.0067533515 0.006853316 0.0021916316
000150 43 25 5d 3c 47 62 bb 3b f7 08 e3 3b 85 10 0e 3c
       0.013497653 0.0057185027 0.006928559 0.008670931
000160 23 3d d3 3c 40 ac c9 3b 5f c8 21 bc 13 0d 8b 3b
       0.025785988 0.006154567 -0.009874432 0.004243502
000170 ad 39 a3 3a 77 d7 95 bc c5 71 4d bc 9f b8 56 bc
       0.0012453102 -0.018291218 -0.012539332 -0.013105541
000180 8e eb 49 bb e2 14 3b 3b ef e1 39 3c 31 90 35 3c
       -0.0030810568 0.0028546383 0.011345371 0.011081741
000190 28 12 0a bb 90 58 60 3c f4 6c a2 bb 57 a1 d6 3b
       -0.002106795 0.01369299 -0.004956836 0.006549995
0001a0 32 e8 08 3c 41 6d 92 3c 67 27 b4 ba b1 12 47 3c
       0.008356141 0.017874362 -0.0013744653 0.0121504525
0001b0 7b c9 55 bc 70 73 2e bc 6e 3d 23 3c 08 77 7e 3c
       -0.013048525 -0.01064764 0.009963376 0.015531309
0001c0 cf a1 44 3c 36 17 af 3a 3d 2b 1d bc 4b c2 32 3c
       0.012001469 0.0013358358 -0.009592828 0.010910581
0001d0 5d 9f 7e 3b 08 36 c8 3b 58 d5 e4 3c 2d 62 e8 3c
       0.0038852312 0.0061099567 0.027933761 0.028367126
0001e0 d1 23 1e ba 19 4f 88 3a 4d 94 58 3c 1a 02 d9 bc
       -0.0006032559 0.001039955 0.013218951 -0.02649026
0001f0 9b 09 c0 bc ab 4a 3e bc f5 5c 54 bb 62 9e 04 3d
       -0.02344208 -0.011614482 -0.003240404 0.032377608
000200 8b 67 99 bc b1 55 a6 3b db 81 16 3c b7 9f 96 bb
       -0.018726131 0.005076133 0.009186233 -0.004596676
000210 db 3d c1 bb a3 21 69 bb 07 8a 14 bc 43 47 4f bb
       -0.0058972663 -0.0035573028 -0.009066111 -0.0031628169
000220 94 33 c8 38 96 ca 91 3c e9 5e 40 bc e7 eb fa bc
       9.54635e-05 0.017796796 -0.011741378 -0.030630065
000230 cf 28 76 bb 87 53 02 3b cf 13 9f bc 6b 19 22 bb
       -0.0037560945 0.0019886212 -0.019418625 -0.0024734389
000240 1e f9 1e bc 83 f7 c0 3b 22 9c 48 3c cd b6 19 bb
       -0.009702949 0.0058888807 0.012244256 -0.0023454905
000250 87 79 39 bb 9d 90 d4 38 3e 22 82 bb 46 6e 07 3c
       -0.0028301196 0.00010135884 -0.003971367 0.008266037
000260 e0 ff e6 bc de 91 07 3c 90 0f e0 bb 13 ce e4 3c
       -0.028198183 0.008274524 -0.0068377927 0.027930295
000270 48 a3 7a bb 43 ac 26 bc 1c bb b4 bb 4a dc 6b bc
       -0.0038244296 -0.010172906 -0.0055154692 -0.014395783
000280 85 56 f1 bc ea 15 65 bc f5 ca f0 3b 78 0a 9d bc
       -0.029460201 -0.0139822755 0.007348413 -0.019170031
000290 bb d5 f7 3b d8 1c 9e bc 93 01 19 3d cc 06 9b bc
       0.0075633205 -0.019300863 0.037355017 -0.01892414
0002a0 06 ae a7 38 7f d6 26 bb 7b d1 15 3c 83 67 01 bb
       7.995595e-05 -0.002545744 0.009144182 -0.0019745536
0002b0 1d 95 37 3c 90 ee 4a 3c fa 32 6a bb 51 e4 c4 bc
       0.011204985 0.012385979 -0.003573595 -0.024034651
0002c0 9a b8 a9 ba e2 5d c0 39 59 a4 37 bc 40 dc 52 bc
       -0.0012948692 0.00036691042 -0.011208617 -0.0128698945
0002d0 d8 36 13 3c 7f 21 68 3b 28 48 20 3b 62 74 e5 bb
       0.008985244 0.0035420356 0.002445707 -0.0070023993
0002e0 0d df f0 ba ba 50 92 bc e3 1c b1 bc a7 d9 0b 3c
       -0.0018377021 -0.017860759 -0.02162022 0.008535779
0002f0 bb 66 6f bb ed 0f 9d 37 93 21 e8 bc 51 06 99 3b
       -0.0036529738 1.8723274e-05 -0.028336322 0.0046699424
000300 9f f5 4f bc 63 21 88 bb 67 a7 80 bc e7 94 05 bb
       -0.012692838 -0.0041543706 -0.015704824 -0.0020382942
000310 a7 44 ca 3c b4 9d 00 3c 7c 86 1d bb bb e4 7f 3a
       0.02469094 0.007850099 -0.0024036458 0.00097615615
000320 b8 d2 d3 3c f2 80 35 3c 7f 45 1c bc 30 a5 6c bc
       0.025857314 0.011078106 -0.009538054 -0.014443681
000330 73 98 81 bc 55 a9 f7 bb 34 ea 45 3c fd 2b bb bc
       -0.015819764 -0.0075580277 0.012079764 -0.022848124
000340 6e eb 90 3c 6b 97 31 3c 02 83 a3 3c d7 2f 36 bc
       0.017690387 0.0108393235 0.01995993 -0.011119804
000350 8f 31 c7 3b e2 c0 44 3c 0e 50 85 bb 5b 1e 09 bc
       0.006078906 0.0120088775 -0.004068381 -0.008369054
000360 a3 91 f9 bb 3f 01 a0 bc 26 51 13 3c f5 50 bd bb
       -0.007616238 -0.019531844 0.008991515 -0.005777473
000370 92 18 e1 39 df b1 14 bc 9f 67 07 bb c7 bc b1 3c
       0.0004293365 -0.009075611 -0.0020661128 0.021696461
000380 4b 9a 97 3b 7e 93 c9 bb ed 57 6b 3c 74 6c 4a 3b
       0.0046265475 -0.0061516156 0.014364225 0.0030887397
000390 63 71 4f b9 1b e1 0a bc 81 a7 09 3c 62 62 d3 bb
       -0.00019783298 -0.008476521 0.008401752 -0.006450937
0003a0 87 01 44 3c 9f 0a ad 3c 78 18 f9 ba ff 7c da bb
       0.011963255 0.021123229 -0.0019004485 -0.0066677327
0003b0 62 5c 4b bc 75 41 e2 3c da fb cd 3b 44 7b 27 bc
       -0.0124121625 0.027619103 0.0062861266 -0.01022226
0003c0 43 5f 13 3c bb e2 0d 3c dd 9b b4 3c 68 b2 f2 bb
       0.00899488 0.008660014 0.022046978 -0.0074065216
0003d0 53 ff 4d bc 64 22 45 bc df 60 a5 3b 3a ca 1d 3a
       -0.012573081 -0.012032125 0.0050469483 0.0006019209
0003e0 28 dd 87 3c 66 f2 8c bb e0 9d 3e bc 82 9c bf bb
       0.016584948 -0.004301357 -0.01163432 -0.0058475146
0003f0 af 44 44 3b 14 41 a2 bc 30 24 8a bc d0 f3 18 3a
       0.0029948165 -0.019806422 -0.016862959 0.0005834671

action_model._discrete_distribution.branches.0.weight f4 [1, 256]
000000 6b c2 6b 3b 16 16 80 bb 3a b0 6b ba 16 59 c8 39
       0.0035974036 -0.003908883 -0.00089907984 0.00038213347
000010 3f 63 13 3c 72 14 db bb 0a 6a 53 3c 37 c6 f1 ba
       0.00899583 -0.006685787 0.0129037 -0.0018445913
000020 70 0a 5e 3b b7 1b be ba c2 57 07 bc 6f 16 39 bb
       0.0033880733 -0.0014504109 -0.008260669 -0.0028242131
000030 8c 16 8d 3b 4f 61 c2 b6 d0 88 e1 3b eb 0d 32 bb
       0.0043056663 -5.7929788e-06 0.0068827644 -0.002716894
000040 4f 59 03 3b 49 ea a2 bb f7 35 f6 3b b4 40 ae 3a
       0.0020042246 -0.0049717766 0.0075137573 0.001329443
000050 db 01 2b 3c b1 db 9e 3b c2 ea 90 3b 21 44 21 3b
       0.010437454 0.0048479666 0.0044225166 0.0024607258
000060 78 e0 c2 ba d2 ac f6 3a f8 ea e5 ba 1a d1 0e bc
       -0.0014867922 0.0018819815 -0.001754134 -0.008716846
000070 3a c2 ea 38 67 81 00 3a da 61 25 bc 79 47 c4 ba
       0.00011194167 0.0004902095 -0.01009413 -0.0014974914
000080 09 fe 2b b9 98 27 5e 39 3e 3c 15 3b 98 01 55 ba
       -0.00016402466 0.0002118632 0.0022771503 -0.00081255427
000090 bf 64 a7 bb a4 00 c4 bb 44 a7 1b bb ab a8 e1 39
       -0.0051084454 -0.0059815217 -0.002375082 0.00043041012
0000a0 07 3c 51 3b ff 3b 1d bb fb c1 f6 bb 0e 15 07 bc
       0.0031926648 -0.002399206 -0.0075304485 -0.008244766
0000b0 c6 a7 28 3c d8 11 90 bb 6a 7f a7 3b dd c7 80 3c
       0.010293907 -0.0043966584 0.0051116245 0.015720302
0000c0 76 f8 09 3b 3f 33 fa bb ea 57 57 3b 76 90 28 bc
       0.0021052635 -0.0076355035 0.0032858797 -0.010288348
0000d0 48 9f 22 3c 82 78 ef bb ff 49 77 3c a5 27 2a bb
       0.009925671 -0.007308067 0.015093326 -0.0025963571
0000e0 ef 0f 03 ba 2b a4 00 3c d8 5a 27 3b 8b 73 b1 3b
       -0.00049996277 0.007851641 0.0025536325 0.005415385
0000f0 3b c6 8d bb 3d 21 de 3b 3d df 06 bc 63 4b c0 b9
       -0.0043266094 0.0067788647 -0.008231935 -0.0003667726
000100 d3 66 8c 3b 9b 2f fa bb db 93 cb ba df 68 0c bc
       0.0042847185 -0.0076350695 -0.0015531735 -0.008569925
000110 0c 77 1f bc 07 ff 30 3c 3b 44 e8 ba 1c 26 c6 3b
       -0.009732973 0.010802991 -0.001772053 0.0060470235
000120 67 bd f5 bb 18 01 10 bb 0f 0a 45 bb fd e5 5d 3b
       -0.007499385 -0.0021973308 -0.003006581 0.0033859008
000130 14 a6 2d 3c fb c3 c0 bb 9b 93 3f 3c 53 19 16 3b
       0.010598678 -0.0058827377 0.011692907 0.0022903278
000140 a0 0f 6d 3a 1f 83 b8 bb 2b ad e4 3b 52 7a f7 39
       0.0009043161 -0.005630865 0.006978651 0.00047202647
000150 bc 8d 87 3b 5d c3 42 bb 42 13 09 bb 5b 0c d5 ba
       0.004136769 -0.0029718496 -0.002091602 -0.0016254293
000160 bf 7a 12 3c df 27 aa bb 20 dc bb ba b2 11 0e bb
       0.008940398 -0.0051927413 -0.001433257 -0.0021678028
000170 e2 34 65 3b b0 90 cb bb ff ad 3a 3b 30 3e 56 3a
       0.0034974148 -0.0062123165 0.0028485057 0.0008172719
000180 3b 00 0b bc 87 dd 82 bc f0 b4 27 bc 91 7c b6 3b
       -0.008483942 -0.015974773 -0.01023601 0.0055690487
000190 ac f8 9f ba 2e 2d ca 3b 7d b9 93 3b d9 d4 3e 3c
       -0.0012204847 0.0061699366 0.004508196 0.0116474265
0001a0 5a 7d 54 3c b3 53 85 3a 13 37 6c 3c fb 53 e8 3b
       0.012969339 0.0010172039 0.014417428 0.0070900894
0001b0 9b 18 ec bb 42 99 46 bc 45 3d 81 bb 93 68 61 ba
       -0.0072050816 -0.0121215 -0.0039440715 -0.00085986516
0001c0 58 aa 38 ba 7b 7c 95 ba 9a 81 04 3c 64 c4 8e bb
       -0.0007044426 -0.0011404896 0.00808754 -0.0043569077
0001d0 95 f3 54 3a a5 a9 35 3c 33 7f 8b ba 17 89 15 3b
       0.0008123455 0.01108781 -0.0010642767 0.0022817308
0001e0 23 2f 53 bb 2d 65 df 3b 7f 54 4e bc af 13 9e ba
       -0.003222414 0.006817481 -0.012593388 -0.001206031
0001f0 03 80 18 ba c8 33 5c bb e0 50 93 bb 75 fb 32 bb
       -0.0005817415 -0.00336002 -0.004495725 -0.0027310525
000200 10 0b 41 3b 0d 88 10 bb 3b 95 a7 ba 76 48 8e 3a
       0.0029456057 -0.0022053749 -0.0012785563 0.0010855335
000210 d3 b1 8c bb 7b 92 5f bb 1a 06 9a bb b3 6e 7a 3b
       -0.0042936592 -0.0034114409 -0.0047004344 0.0038212955
000220 36 ae 45 bc 25 ff fc bb 4b 71 a3 b8 a5 d8 cc 3b
       -0.012065461 -0.0077208453 -7.793548e-05 0.006251412
000230 f0 0d 0b bb 27 0e c3 3a db f5 26 bc 10 99 5e 3b
       -0.0021218024 0.0014881537 -0.010190452 0.0033965744
000240 fd 6c 48 3b c5 cd 97 bb 43 83 a1 ba fc 2e a3 3b
       0.003058254 -0.004632684 -0.0012322444 0.004979966
000250 60 ae 8c bb 32 9f de bb cc 50 c2 b9 f0 47 e1 3b
       -0.004293248 -0.00679388 -0.00037062762 0.0068750307
000260 87 29 2a bc 99 0a 0b 3c ae 7d 39 bb 64 25 45 3b
       -0.010385877 0.008486413 -0.002830367 0.00300821
000270 a4 60 83 bb 72 51 83 bc 30 6d 31 3b 03 6a 6c 3c
       -0.004009323 -0.016030047 0.0027073137 0.014429572
000280 5a b3 e5 39 2f 36 96 3b 02 cf 54 bc bf e6 2c 3b
       0.0004381191 0.004584096 -0.012988808 0.0026382653
000290 71 b1 16 bc 0b 0d 3d bb 70 d1 32 bb 74 6a b8 3a
       -0.009197579 -0.0028846886 -0.002728548 0.0014069811
0002a0 0b e7 a9 37 a3 0e 65 3b 1c d2 46 bc 1f b8 25 3c
       2.0253958e-05 0.003495135 -0.012135055 0.010114699
0002b0 62 91 3d b9 2f 34 99 3b b5 36 7e 3c 3d d7 a9 3b
       -0.00018078604 0.00467541 0.015515973 0.005183129
0002c0 7b 64 c5 3a a2 b2 30 bb e2 b6 09 bc b3 37 09 3b
       0.0015059853 -0.0026961942 -0.008405419 0.002093774
0002d0 1f 64 cc 3b b2 ce 26 3a c4 b7 41 3c f4 a2 11 bb
       0.0062375213 0.00063631975 0.011823598 -0.0022222372
0002e0 f7 1e 77 ba 12 bf c5 bb bb 44 cb 3b 69 f0 29 3c
       -0.00094269164 -0.0060347402 0.0062032617 0.01037226
0002f0 af d4 b4 bb 47 9f 6a bb 65 9a 6e 3c 40 88 7b 3b
       -0.005518518 -0.0035800503 0.014563178 0.0038380772
000300 7c 61 0f 3a 7b cf 3f 3b 95 55 de 3a e7 76 42 bb
       0.00054695434 0.0029267955 0.0016962761 -0.0029672922
000310 ce 24 ba ba 0d da 64 3a 93 69 51 3b 4d 5c 23 bb
       -0.0014201642 0.0008730002 0.0031953796 -0.0024926842
000320 df ed 73 3a be 09 a8 bb a2 30 f0 bb 92 75 81 bb
       0.000930516 -0.0051281145 -0.0073300162 -0.003950783
000330 0f 32 29 bc 42 1d 47 3a dc fe 40 38 b7 47 ea 3b
       -0.010326876 0.00075956073 4.6013723e-05 0.0071496624
000340 49 80 a3 38 27 41 44 bc 9a c2 e1 ba 7d 02 a1 3b
       7.796341e-05 -0.011978424 -0.0017224133 0.0049136267
000350 c5 7e 27 bb 7f f0 00 3a 08 c2 fe 3b c8 61 44 3b
       -0.0025557738 0.0004918649 0.007774595 0.0029965509
000360 6b 93 91 bb d0 bb f5 3a 5f c3 51 3b 08 a0 d4 bb
       -0.0044426224 0.0018747989 0.003200732 -0.006488804
000370 9f d9 2e 3b c8 ad 75 bc 96 08 89 bb 6c 76 ac ba
       0.0026680005 -0.014995046 -0.0041819317 -0.0013157851
000380 63 fe bb 3b cb af a5 ba 51 23 1c bb 69 44 0e bc
       0.0057371124 -0.0012640891 -0.002382476 -0.008683302
000390 5b 11 c8 bb 87 1f 1b 3b d9 68 9d b9 4d f7 f6 3b
       -0.0061055846 0.0023669915 -0.0003002349 0.007536805
0003a0 68 7e b6 3b 45 73 43 3a cd 74 a8 3b 2f 3a da 3a
       0.005569268 0.0007455836 0.005140877 0.001664942
0003b0 cf 8e ad 3b 18 7f 68 bc ad 4b 5a bb 03 9f e5 3a
       0.005296565 -0.014190458 -0.0033309266 0.0017518703
0003c0 75 19 ec 3b 31 10 14 bc 7a 77 f5 3a 2e 1f a8 3b
       0.007205183 -0.009037063 0.0018727623 0.00513067
0003d0 92 7f 0e 3c 85 da 59 3b b5 06 77 3b bf 7e cf bb
       0.008697407 0.003324182 0.0037693207 -0.006332248
0003e0 8f e0 ef 3b 1f b1 a0 39 fa 6f f6 3b 97 0c 67 bb
       0.0073204706 0.00030649544 0.007520673 -0.0035255307
0003f0 35 d0 16 bc 28 6f fc 3b 7e 4a 06 3b 95 33 1c bc
       -0.009204914 0.0077036805 0.0020491178 -0.0095337825

onnx::Div_75 f4 [8]
000000 bf ec 34 40 c5 4e e8 3f 12 d0 bf 3c c1 82 fd 3f
       2.8269498 1.8149039 0.023414645 1.9805528
000010 14 ce 11 3e 12 d0 bf 3c 4d c0 24 40 78 a4 70 40
       0.14238769 0.023414645 2.574237 3.7600384
