results/SliderBehavior-jgf-004/SliderBehavior/SliderBehavior-13625.onnx (onnx, 78648 bytes, 8 tensors)

network_body.observation_encoder.processors.0.normalizer.running_mean f4 [6]
000000 f7 d9 70 c1 7f 48 64 c0 00 00 00 00 bd 5b 73 c1
       -15.053214 -3.5669248 0.0 -15.209897
000010 69 fc bf c0 00 00 00 00
       -5.999562 0.0

network_body._body_endoder.seq_layers.0.weight f4 [128, 6]
000000 6e 65 29 3d 49 9c 5b bf 22 5a bd 3d ea 93 73 be
       0.041356497 -0.8578535 0.09245707 -0.23786893
000010 03 63 aa 3d 93 92 c6 3d ce 17 fa 3e 2d ca 98 3e
       0.08319666 0.096959256 0.48846287 0.29841748
000020 57 53 21 3f fd 15 b9 3e 6b 41 14 be 88 5e b5 3e
       0.6301779 0.36149588 -0.1447808 0.35423684
000030 f2 59 7c be 97 d8 da be 64 8d 1c 3f 60 22 1e bf
       -0.24643686 -0.4274337 0.61153245 -0.617712
000040 6b 87 3c 3f 0d 06 de bd 9c bc 70 3f 37 bb 17 3f
       0.7364413 -0.10840998 0.94037795 0.5927004
000050 c4 92 c4 bc 20 45 57 3e 7a ea 45 be d4 23 1f 3f
       -0.023995765 0.21022463 -0.19327727 0.62164044
000060 a8 88 3a be 25 5a 2f 3e c4 36 32 3d 41 af 96 be
       -0.18216193 0.17124231 0.04350926 -0.29430583
000070 79 8c a6 3e 5b 60 63 bf 0f 12 b4 3e b2 6b 94 3e
       0.32529047 -0.888189 0.35170028 0.28988415
000080 cc e1 98 bf 41 d2 64 be 37 cc 83 3e 5d 3c d6 be
       -1.1943908 -0.2234583 0.2574174 -0.4184293
000090 56 d3 e5 bd 2b e9 a6 be 15 f7 de 3e 4f 33 0c 3d
       -0.1122195 -0.32599768 0.43547884 0.03422862
0000a0 83 c4 a3 3d 3b c9 2d bf 59 9b d5 be c8 fe 48 bf
       0.07996466 -0.6788518 -0.41720083 -0.78513765
0000b0 9d 8a 42 3d 28 ee 6a be 5e 2d 6b 3f 26 f8 55 bd
       0.047495473 -0.22942412 0.918661 -0.052238606
0000c0 c6 b6 78 be a8 9a ec be 4c fa 8d be 15 ef 37 3f
       -0.24288473 -0.46211743 -0.27730024 0.71849185
0000d0 23 f1 0e bf 11 a3 3c 3f ca 93 88 be 07 e4 1c bf
       -0.55836695 0.7368632 -0.26675254 -0.6128544
0000e0 7f 21 01 3f 92 e5 25 3f 7f b6 8b be bd b5 23 3f
       0.50441736 0.6480342 -0.2728767 0.63949186
0000f0 b7 11 d4 bd 9f 8c da be c5 52 a3 be cc 1e 84 3d
       -0.10354941 -0.4268541 -0.31899086 0.064511865
000100 d7 e5 cd be 33 d9 83 3f ae 75 19 be 57 88 b0 3c
       -0.40214416 1.0300659 -0.14986297 0.021549387
000110 f8 3e 35 3f da 12 22 bd 10 e3 1a bf 45 d3 c2 be
       0.7079921 -0.03956876 -0.6050272 -0.3805181
000120 c4 67 c9 be 0e 5d 01 3d b2 f0 e6 3e 6e 0c 87 be
       -0.3933698 0.031582884 0.4510551 -0.2637667
000130 f4 9d ad be 20 80 0b bd d1 4e b6 3e a6 de 00 3f
       -0.3390957 -0.034057736 0.35607007 0.50339735
000140 78 20 1c 3e be 01 97 be 54 c1 18 3f d5 df 8d be
       0.15246761 -0.29493517 0.59669995 -0.27709833
000150 1b 31 10 3f 69 0c a9 3e 10 87 5a 3e 68 d0 5f be
       0.5632493 0.3301728 0.21340585 -0.21856844
000160 19 a8 01 bf ab 6a f4 3e dc 0d 70 be b7 c4 83 3d
       -0.5064712 0.4773763 -0.23442787 0.06434005
000170 81 66 68 3e 54 2a 9f 3e 21 7d e1 3e e8 ef 3d 3a
       0.22695352 0.3108698 0.44040778 0.00072455266
000180 ee dc 20 be 4b 18 60 be 74 02 40 3f 8c 0e a3 be
       -0.15709278 -0.21884267 0.75003743 -0.31847036
000190 ef b9 63 3d 59 1b 58 bf 35 74 6f 3e df 4f 03 3f
       0.055597242 -0.8441673 0.23384173 0.5129375
0001a0 d3 2c 67 be af cf b2 be e8 f4 fc bd 48 70 58 3f
       -0.22575693 -0.34924075 -0.123514 0.8454633
0001b0 a0 82 42 3d 1f ed a3 3d 0d 1c f1 be 1d e8 10 bf
       0.047487855 0.08004212 -0.47091714 -0.56604177
0001c0 ed 82 30 3e b3 e5 94 3c 4f bf 3b 3e 5b e1 35 be
       0.17237444 0.018175935 0.18334697 -0.17761748
0001d0 99 6a 89 be 0f 54 85 bf 75 fa 50 be b2 ee 49 bf
       -0.2683914 -1.0416278 -0.20408042 -0.78879845
0001e0 18 4c 07 be 35 e0 24 be e2 ac 95 be a3 47 08 3e
       -0.13212621 -0.16101153 -0.29233462 0.13308577
0001f0 16 a7 fa 3e 29 7c c8 3c 01 e8 3b 3e 7c 36 88 3f
       0.489556 0.024473267 0.18350221 1.0641627
000200 27 c7 93 3e 17 c9 e0 3d da 10 34 be fe 48 92 3e
       0.2886288 0.10975855 -0.17584553 0.28571314
000210 fa 02 e5 b9 4a 36 79 bf b1 1a 9f be f1 98 e4 bd
       -0.000436805 -0.97348464 -0.3107505 -0.11161984
000220 29 a1 1e 3c ee 25 2b bf 87 2d 07 bd ae 8e 64 3f
       0.009681978 -0.6685475 -0.033002403 0.8928021
000230 d6 f9 3f 3f fc 91 4b be 0c 58 52 bd 9b d7 38 3f
       0.74990594 -0.19879907 -0.0513535 0.7220399
000240 1c cb 9f 3b 7d 6f d6 be e2 47 1c bf 89 92 e4 3e
       0.0048765074 -0.41881934 -0.61047184 0.44643047
000250 d8 35 6c 3e 32 55 93 3e ee b6 f9 3d 44 7e a4 bd
       0.23067415 0.28775936 0.12193094 -0.08031896
000260 2a 44 74 be 01 28 fd bb b0 76 0c bd c8 56 47 bc
       -0.23854128 -0.007725716 -0.034292877 -0.012166686
000270 62 07 20 bf 1e 1a 81 3e a7 fd 07 3f d3 63 31 3f
       -0.62511265 0.25215238 0.5312142 0.69292945
000280 6a e8 4a bf 78 46 5f be e5 1c 0f bf bc fa 8e 3e
       -0.79260886 -0.21804225 -0.55903465 0.2792567
000290 70 ba ff be ec d9 bb 3e 32 49 a9 be c8 b4 94 3d
       -0.49946928 0.366897 -0.33063656 0.07261044
0002a0 4f fd 81 3e bc 93 a7 3e 8b db 34 3e 4f 80 ab be
       0.25388572 0.327299 0.17661874 -0.3349633
0002b0 25 7f 46 3f 75 60 b9 be ea a8 69 3e c6 fb 10 3f
       0.7753776 -0.36206403 0.22818342 0.56634176
0002c0 00 cb bd 3e 02 e8 f6 bd 62 df f0 bd 08 ea ef 3d
       0.3706894 -0.12055971 -0.11761357 0.1171456
0002d0 16 8e 23 be a0 63 60 bd f6 f8 ce bd 3f 11 1c 3f
       -0.1597217 -0.05478251 -0.10106079 0.60963815
0002e0 5a 6c 0e bf 37 6e e2 be b6 e6 de 3e 2a 30 c7 3c
       -0.5563408 -0.44224712 0.43535393 0.024314959
0002f0 4e 26 d6 be 10 92 46 bf 58 11 19 bf dd 49 00 be
       -0.418261 -0.77566624 -0.5979209 -0.12528177
000300 89 e9 30 be 7d 6f bc 3e 5a 32 7e bf 87 e4 80 3e
       -0.17276587 0.3680381 -0.9929558 0.25174353
000310 00 9b 53 3c e5 e2 45 be 96 32 bb be e2 fc 09 3f
       0.012915373 -0.19324835 -0.36562032 0.53901494
000320 cf 6c 26 3f 6e a5 00 3f 8e 51 cd 3e 83 04 d6 be
       0.6500978 0.50252426 0.40101284 -0.41800317
000330 b4 31 71 be 75 08 65 3e d6 dc 45 bf 24 25 51 3f
       -0.23554116 0.22366507 -0.77290094 0.816973
000340 66 5d 01 3f 17 e9 01 be d3 b0 88 3e 5c e2 44 3e
       0.5053314 -0.12686573 0.26697406 0.19226974
000350 e8 8c 5e 3f f9 6d a1 3e fe 1d 27 3e d8 40 25 3e
       0.86933756 0.31529215 0.16320035 0.16138017
000360 01 ee 68 bf 31 12 1c be 24 43 85 bf 91 3d fa be
       -0.90988165 -0.15241314 -1.0411115 -0.48875096
000370 65 d6 f8 3e b6 2e 1f 3f 65 b1 a9 3d 80 1e 2e be
       0.4860107 0.6218065 0.082857884 -0.17003822
000380 79 1a 16 3f d9 c9 0d be 8e f1 b4 3d ec 54 d7 be
       0.58634144 -0.1384653 0.088351354 -0.42056978
000390 52 23 e3 bd 23 96 25 be 6e 26 c1 be 4c b0 7e 3e
       -0.11090721 -0.16170554 -0.37724632 0.2487194
0003a0 fd 99 43 be 1a b3 a1 be d3 2d fc bd 4c 90 0c 3e
       -0.1910171 -0.31581956 -0.12313428 0.1372692
0003b0 68 bc df 3c 46 ff d3 3e b4 f0 1a 3e be da ec be
       0.027311519 0.41405696 0.15130883 -0.46260637
0003c0 bd d9 3b 3d 02 df 1d bf f8 a1 e5 3e 5a ec af 3e
       0.04586195 -0.6166841 0.44850135 0.3436001
0003d0 37 fb 1a 3e b1 fd 45 bf 5f 98 9b 3e 0d 80 11 bc
       0.15134893 -0.7734023 0.30389687 -0.008880627
0003e0 5f 8b ee bd ff 46 43 3d ba cf 90 bd 82 80 0f be
       -0.11647677 0.04767513 -0.07070871 -0.14013866
0003f0 24 c1 02 3f c3 36 9a be 45 ca 78 be ee 2c b0 3e
       0.5107596 -0.30119905 -0.2429591 0.3440928

network_body._body_endoder.seq_layers.0.bias f4 [128]
000000 52 aa d6 39 94 9b 05 3b 44 94 02 ba 99 5e b9 b9
       0.0004094416 0.0020386921 -0.00049812 -0.0003535643
000010 c2 f5 67 b9 9a 84 14 3a 4c 5e fb b9 4d 03 75 39
       -0.00022121429 0.0005665511 -0.00047944707 0.0002336625
000020 fb 30 84 ba ed 71 a6 ba 88 68 85 38 5d e0 e5 b9
       -0.0010085398 -0.0012698747 6.361405e-05 -0.00043845447
000030 1b 54 a1 ba 84 b2 63 ba fa a7 ea 3a dd 0f 93 ba
       -0.001230839 -0.00086859637 0.0017902844 -0.0011219938
000040 02 1c 84 b9 a0 71 72 ba b2 ba 2a 3b 36 be 0b bb
       -0.0002519787 -0.0009248499 0.002605122 -0.0021323091
000050 5e ad a1 b9 ec b9 bd 3a 94 92 f7 39 f4 b4 11 3a
       -0.00030837482 0.0014474965 0.0004722072 0.0005558275
000060 2f ef ff ba 30 b6 2a ba fe e3 97 3a 2b 8f 3e 3a
       -0.0019526238 -0.00065121334 0.0011588333 0.00072692585
000070 13 b1 bf 3a ac 8c 00 bb f7 76 e6 3a 79 02 44 bb
       0.0014624916 -0.0019615097 0.0017583062 -0.00299087
000080 95 64 ca b8 3e 88 88 39 bd 9c e5 3a 4d f9 af b9
       -9.6508455e-05 0.0002604145 0.0017518025 -0.00033564345
000090 66 95 45 3a a3 a0 03 ba c5 c6 b4 ba 8c ce a2 ba
       0.0007537216 -0.000502119 -0.0013792148 -0.0012421175
0000a0 e6 18 1a ba 12 17 f8 ba 0c a5 22 ba 9f ad 2a 3a
       -0.0005878344 -0.0018927774 -0.00062044035 0.0006510857
0000b0 37 a5 ba 39 53 f9 80 ba e1 5c 21 3a 92 64 19 39
       0.0003559978 -0.0009839929 0.00061555026 0.00014628682
0000c0 a7 74 fe 39 97 ed 31 ba 42 cf de 3a 9d 52 21 39
       0.00048533568 -0.0006787418 0.0016999024 0.00015384932
0000d0 f6 c2 3b ba 36 13 81 ba 8c d4 d7 3a 45 23 89 b9
       -0.00071625353 -0.0009847644 0.0016466542 -0.00026156954
0000e0 b1 19 84 b9 58 3b ce 35 b4 cb 86 3a ef 12 62 b9
       -0.00025196144 1.5365467e-06 0.0010284097 -0.00021560093
0000f0 e2 e4 cf ba cb ba e8 b9 ab 38 d4 b7 3b 7c 01 ba
       -0.0015861059 -0.0004438966 -2.5298757e-05 -0.0004939471
000100 90 48 9f 39 da d7 68 bb b0 6f 08 3b 9c 19 8e ba
       0.00030380907 -0.0035529048 0.0020818524 -0.0010841372
000110 8c de ec 3a 1e 52 a5 ba ca 1a f6 ba 5c 48 09 3b
       0.0018071695 -0.0012612974 -0.0018776294 0.002094767
000120 f3 e3 e2 39 10 26 11 3a 85 e7 8f 3a 74 30 0c bb
       0.00043275915 0.0005536983 0.0010979032 -0.0021391185
000130 8e 24 d2 3a 98 ab 13 38 92 eb 29 3b 10 4c 07 3b
       0.0016032623 3.520734e-05 0.0025927764 0.0020644702
000140 43 44 70 b8 2d ca 30 3a 36 33 86 3a 17 8c 82 3a
       -5.7284033e-05 0.0006743994 0.0010238651 0.0009959963
000150 06 53 c8 ba 97 8c d4 3a 44 c8 e1 3a 49 e9 0e 3a
       -0.0015283532 0.0016216215 0.0017225822 0.00054516323
000160 cd f1 ff b9 b9 27 bd 39 0f ba 3c b9 e7 89 13 ba
       -0.00048817546 0.00036078485 -0.0001799839 -0.0005628154
000170 07 21 b3 39 8b fc 7a 39 26 31 f7 ba 4d 01 75 ba
       0.00034166148 0.00023935937 -0.0018859252 -0.0009346202
000180 d0 be cb b8 ff 74 b4 39 fa 45 18 3b e2 8c 67 39
       -9.715336e-05 0.00034419444 0.0023235069 0.0002208236
000190 3c 00 3c 39 5e 4e af ba 37 51 a2 ba e1 f6 96 ba
       0.00017929164 -0.0013374796 -0.0012383823 -0.0011517667
0001a0 05 34 e2 ba cd 6d 4f 3a d0 13 8e 3a 47 59 97 3a
       -0.0017257935 0.0007912785 0.0010839645 0.0011546992
0001b0 ce a6 5e bb bc 2e f3 b9 88 84 69 ba 48 94 d6 b9
       -0.0033973935 -0.00046383392 -0.00089079933 -0.0004092774
0001c0 8d c3 4c 3a 23 ed 19 39 51 f5 ac b9 2c 87 1b 36
       0.0007811122 0.00014679557 -0.0003298917 2.317548e-06
0001d0 c4 5b 81 3a c6 52 92 3a ca 2e 52 3b 3a c9 71 b9
       0.0009869267 0.0011163584 0.0032071345 -0.00023058514
0001e0 9c 6f cc 37 3d 2d 10 bb d2 29 c5 ba d7 60 d0 ba
       2.4370667e-05 -0.002199962 -0.0015042371 -0.0015898001
0001f0 5b 52 09 bb 64 1b 29 ba 5d 35 72 ba 8f 86 fb ba
       -0.0020953629 -0.000645092 -0.0009239519 -0.0019189882

network_body._body_endoder.seq_layers.2.weight f4 [128, 128]
000000 9e ea 5b 3d 2a 71 86 bd 05 1b 2c be fb e9 20 3e
       0.053690545 -0.06564553 -0.16807182 0.15714256
000010 43 25 23 3d 54 b5 04 3e 55 71 5f bd 7c 15 8e 3d
       0.039830457 0.12959796 -0.05455144 0.069376916
000020 80 d8 63 bd ed d9 f8 3c 9f 56 26 bc 3e 25 df 3b
       -0.055626392 0.030377353 -0.010152488 0.0068098595
000030 6b a5 d5 bd 8e 1b 86 3e b2 47 27 3e 81 00 49 3d
       -0.104319416 0.26192898 0.16335943 0.049072746
000040 2f a9 23 be 97 6d f1 bc 1b 93 16 bd 5c da e1 3d
       -0.15982507 -0.029471202 -0.036761384 0.11027977
000050 b3 34 61 bd bc b2 48 bd 17 17 49 3d 9b ff 06 3e
       -0.0549819 -0.04899858 0.049094286 0.13183443
000060 2f 44 cf bc fd 12 d4 bd 9c e0 c4 3d 4c 40 e8 bd
       -0.025301067 -0.10355184 0.09613153 -0.11340389
000070 fb 6e 4d bd 08 97 7d 3d 9f ae 73 bd 3a 90 b8 3d
       -0.050154667 0.061911613 -0.059492704 0.09011884
000080 81 29 a9 bc f5 d7 7b 3d 9c bf 0e 3e ca 73 2a 3e
       -0.020649673 0.06148525 0.1394028 0.16645733
000090 6f c8 c5 3d 5a 33 1a 3d 50 1a 7b bd 83 ba f2 bd
       0.0965737 0.03764663 -0.06130439 -0.118519805
0000a0 dc 09 e9 3d 70 54 63 bd 3e 06 2f 3d 95 54 d1 bc
       0.11378834 -0.055500448 0.042730562 -0.025553027
0000b0 2e 04 0e 3d 7c 80 45 bc 12 91 4f bd e4 a6 b5 bd
       0.034671955 -0.012054559 -0.05067546 -0.088697225
0000c0 9c be 48 bd a4 dd 0e be 06 d9 02 3b f1 67 e9 3c
       -0.049009904 -0.13951737 0.0019965782 0.028491946
0000d0 90 30 d9 3c ed a1 bf 3b fb e8 34 bd ef a7 e4 3d
       0.026512414 0.0058481605 -0.0441675 0.11164843
0000e0 f2 1e 95 3c e7 fc 2c bd b0 f0 06 be dd 85 13 be
       0.018203232 -0.042233374 -0.13177752 -0.14406534
0000f0 e1 d8 a8 bd 8a 55 34 3d 8f 00 95 3d 2b 7e 7d bd
       -0.08244491 0.04402689 0.07275497 -0.0618879
000100 22 3c 3d bd d7 ae d8 bd 30 9b 4a 3e ae 8b 9f bd
       -0.046199925 -0.10580223 0.19785762 -0.07790314
000110 8c 52 4e be 17 59 19 3b a8 80 62 be 2c bf a8 bc
       -0.20148677 0.002339905 -0.22119391 -0.02059897
000120 b9 bc 89 bd 42 70 8a 3c ce 6d b2 bd af 12 ac bd
       -0.06725449 0.016899232 -0.0871235 -0.08402001
000130 8f e0 44 3d e3 e8 cb bd dd be c8 bc e3 60 0e 3e
       0.04806572 -0.09956529 -0.024505073 0.13904147
000140 df a0 ce 3d f8 14 cf 3b 4c 93 54 3d e6 d5 d7 bd
       0.100892775 0.0063196383 0.051898286 -0.10538845
000150 9e 0a ae 3d ad 9b 07 bc 89 f4 94 bb 10 78 b6 bc
       0.08498119 -0.008276862 -0.0045457524 -0.022274047
000160 ee 43 16 3d b7 18 d5 bc b6 36 f9 3d ed 36 d4 bd
       0.036685877 -0.026012762 0.121686384 -0.10362039
000170 89 48 99 3c ef 32 f9 3d 86 d4 cd 3d 87 26 09 3d
       0.018711345 0.12167918 0.10050301 0.03348401
000180 4a e4 fc 3d 4c 08 be 3d a6 70 dc 3d f7 df b9 bc
       0.1234823 0.09278926 0.107636735 -0.022689803
000190 f9 0e 37 3e 70 4d 59 3e ae f1 0b 3e 55 03 76 3d
       0.17876805 0.21220946 0.13666412 0.06006177
0001a0 1d 7e 74 bd 7e b0 52 3e 7c 29 9e 3d 2d 5d e7 bc
       -0.059690583 0.20575139 0.07722756 -0.028242672
0001b0 56 30 e8 3c 2a d1 90 bd e9 61 dc 3d 0f ce 4e 3d
       0.02834336 -0.07071145 0.107608624 0.05048948
0001c0 01 67 89 3d db b5 74 bc 21 92 05 3e 00 68 a4 bb
       0.067090996 -0.014935936 0.13044025 -0.0050172806
0001d0 22 a4 bf 3b 19 3a a3 3c 66 d6 9c 3d da e3 a5 bd
       0.0058484236 0.019925164 0.07658081 -0.081001
0001e0 14 72 9c bd ef f0 9a 3d 0e 99 d6 3c f3 b8 df 3d
       -0.07638946 0.07565486 0.026196029 0.10923948
0001f0 f2 6e 74 bc 7d 16 f3 3d 60 f2 e8 bd 10 b4 f0 3d
       -0.01491903 0.11869524 -0.11374354 0.11753094
000200 d7 39 8b bd ed 61 a3 3d cf 8b a8 3d 59 7f de 3d
       -0.067981414 0.07977662 0.082297914 0.108641334
000210 33 4d 3a bd 17 32 1c 3d 6e b1 aa bc b9 cd fa bc
       -0.04548378 0.038133707 -0.020836558 -0.030615674
000220 b1 51 3d bd c1 5a bd bc c1 8e 78 be e2 26 ca bd
       -0.046220485 -0.023114564 -0.24273206 -0.098706976
000230 29 3e 77 bc 83 6b cb bd 20 50 20 3e f8 cc 24 3e
       -0.015090504 -0.099326156 0.15655565 0.16093814
000240 b3 ed 5c 3d e6 af c5 bd 35 a7 27 be 16 31 4d bd
       0.053937625 -0.096526906 -0.16372378 -0.05009564
000250 de fa 58 bc 70 f7 72 bc 67 29 15 be 7f 98 e7 3d
       -0.013243405 -0.0148295015 -0.14566575 0.11308383
000260 86 f9 5b 3d a7 7b 9e 3c ed ea 11 bd 7d d7 97 bc
       0.05370476 0.019346071 -0.035624433 -0.01853537
000270 dc 70 74 3d 86 d6 28 be 23 34 5b bd 0b b9 83 3d
       0.059677944 -0.16488084 -0.05351652 0.064317785
000280 28 77 ed bc 6a d7 8b bc df 6e 9c 3b 37 64 23 bd
       -0.028987482 -0.01707049 0.004773959 -0.039890494
000290 fd fe 3f be 43 6c c2 bc a2 13 bd bd a1 2f 36 3d
       -0.18749614 -0.023733264 -0.0923226 0.044479016
0002a0 e2 eb 3b bd 8d 4d 2e 3e de 19 1e 3c b8 ab e2 3c
       -0.045879252 0.17021771 0.009649722 0.027669773
0002b0 bc e4 e7 bd 35 ce 0c bd 12 68 54 bd 7b 92 0a 3d
       -0.113229245 -0.03437634 -0.05185706 0.0338311
0002c0 90 3f f6 3d 32 a3 87 3c 9f 7c c1 3b 14 8c 83 3d
       0.12023842 0.01655731 0.0059047486 0.06423202
0002d0 44 e7 95 be ad 4f d4 bd c7 02 5b 3d e9 14 d8 3b
       -0.29278004 -0.103667594 0.053469446 0.0065942896
0002e0 71 2c 8e bd f2 1a 34 bc ac 01 99 3c fd c9 95 bd
       -0.0694207 -0.010992752 0.018677555 -0.07313917
0002f0 88 72 2a bd 58 5c 05 bb ab 54 07 be 26 7f bf 3d
       -0.04161313 -0.002034923 -0.13215892 0.093504235
000300 2c 54 d6 3d cd c0 e1 3c 4c a2 1a 3d 37 aa 57 3d
       0.10465273 0.027557755 0.037752435 0.052652564
000310 20 b8 90 3d 03 78 bf 3c 47 56 7f 3d 2d a0 87 bd
       0.07066369 0.023372656 0.06233814 -0.06622348
000320 9f a9 09 ba 28 da bb bc 23 f2 3c 3c 07 6b 90 3d
       -0.0005251411 -0.022931173 0.011532339 0.07051664
000330 2e 71 5a bd 6b eb 04 bd 4e 23 7a 3d 4f 76 71 3d
       -0.053330593 -0.032451075 0.061068825 0.05895072
000340 2f 8a ec bd 5e 57 1b 3e 95 85 a9 3d ac d2 9a bb
       -0.11549794 0.15170047 0.08277432 -0.004724821
000350 f6 92 1f be 73 b0 2a bb 48 c6 06 3e d4 ae 23 3e
       -0.15583405 -0.0026045113 0.13161576 0.1598466
000360 b6 d3 60 bd 33 9a bd bd 39 3a 8c bd 78 be 90 3c
       -0.054889403 -0.09257927 -0.068470426 0.017668948
000370 49 b2 ef 3c 31 ff 0f 3e e6 8b d7 3c 36 4d 00 3e
       0.029259818 0.14062192 0.026311826 0.12529454
000380 d3 e6 9d bd e0 de 92 bd 63 56 c7 3c b4 b4 be bc
       -0.07710042 -0.07171416 0.024333185 -0.023279525
000390 15 f8 6d 3d da 48 98 bc 6a 69 02 be 3f b3 4c 3d
       0.058097918 -0.018589426 -0.12735525 0.04997563
0003a0 83 76 95 bd 9b d7 91 bd 68 5e 1d bd b9 df 53 3d
       -0.07297995 -0.071212016 -0.03842011 0.05172703
0003b0 cb c6 93 3d b6 ec 18 3d 87 a6 c3 bd c7 67 ca 3d
       0.07215651 0.03733512 -0.09553247 0.09883075
0003c0 91 7d 8c 3d 69 f4 aa 3d 17 68 d6 3d e3 f7 a8 3d
       0.068598874 0.08347399 0.10469072 0.08250406
0003d0 6a ac a5 3d 0b 65 24 3b a1 d8 97 bd 18 ad bd bc
       0.08089526 0.002508464 -0.074143656 -0.023153827
0003e0 97 07 ce 3c 47 a0 52 3d 26 80 79 bd 3d 9b fb bd
       0.025150103 0.051422384 -0.060913227 -0.12285469
0003f0 e4 81 0b bd 7e d8 f3 3c 0a bf 1b be eb cc 7c bd
       -0.03405942 0.029766317 -0.15209594 -0.061718863

network_body._body_endoder.seq_layers.2.bias f4 [128]
000000 b7 50 88 39 ed 17 13 38 a2 d1 90 b8 0a 28 14 3a
       0.0002600008 3.5069814e-05 -6.905502e-05 0.0005651718
000010 36 7e 12 b9 53 ea 2b 3a 1e 34 70 39 51 90 a9 ba
       -0.00013970662 0.00065580494 0.00022907599 -0.0012936686
000020 0e 7a 61 ba 52 7d ed 39 4b 3a 08 3a 97 88 0e ba
       -0.00086012564 0.00045297534 0.00051966746 -0.00054372236
000030 97 06 33 ba cd 63 f1 b9 a1 26 af 39 91 25 c1 b9
       -0.000682929 -0.0004604146 0.00033407382 -0.00036839818
000040 1c b0 07 3a b9 16 5f 3a 64 20 13 ba 46 e5 ab ba
       0.00051760837 0.0008510161 -0.00056124316 -0.0013114593
000050 9c 53 6f 3b 36 0d 92 3a 23 dd 12 ba 50 d6 1c b9
       0.003651834 0.0011142853 -0.000560241 -0.00014957157
000060 e2 28 e8 36 0a b5 8f b8 ff 43 c5 39 a1 aa 5e b9
       6.918898e-06 -6.8524925e-05 0.0003762543 -0.00021235134
000070 d6 e4 ae b9 fa b6 3d 3a 85 60 11 3a c2 3d 24 39
       -0.00033358362 0.00072370435 0.00055456936 0.00015663265
000080 5f 87 4e 39 1e 11 8f 3a 4a 83 84 b9 09 42 08 3a
       0.0001969612 0.0010915135 -0.0002527482 0.0005197828
000090 42 bc fd 39 6e 19 20 3a 29 6c b7 39 1d f0 20 b9
       0.00048396183 0.0006107305 0.00034985066 -0.00015348238
0000a0 de 33 1c 3a e3 6d 82 3a a0 3c 8b 39 b3 0d 9c 39
       0.00059586565 0.0009950962 0.00026557315 0.00029764845
0000b0 16 b9 02 3a da d5 fb b9 f8 79 05 38 d6 6a 37 ba
       0.00049866864 -0.00048033783 3.1823263e-05 -0.0006996816
0000c0 33 00 01 ba 90 a7 80 b9 64 4f e0 b9 be 2d 88 38
       -0.0004920989 -0.00024538906 -0.0004278376 6.4935055e-05
0000d0 53 29 76 ba c8 ac c8 b8 d3 df ad ba 58 f0 e0 b7
       -0.0009390313 -9.568926e-05 -0.0013265557 -2.68148e-05
0000e0 bc fb 69 39 ed 81 a1 39 c6 f1 b8 39 8c 33 9c b8
       0.0002231439 0.00030805115 0.0003527535 -7.448261e-05
0000f0 c7 cb d2 b9 a3 0f df ba 9a fd 96 3a 3e 17 8f b9
       -0.00040206147 -0.001701821 0.0011519671 -0.00027292402
000100 d9 ec b9 38 f8 46 69 3a 3e 7e 3f ba c2 a8 04 3a
       8.865604e-05 0.000889882 -0.00073048833 0.0005060547
000110 86 69 ea 39 86 ce ed 38 51 05 22 ba 52 26 42 b8
       0.0004471058 0.00011339509 -0.0006180602 -4.6288893e-05
000120 cb 38 45 ba 7c da 23 b9 a2 8d b2 b9 d2 52 38 38
       -0.00075234164 -0.00015626283 -0.0003405633 4.394615e-05
000130 34 bc 9e b8 8f f9 56 3a 84 04 5d b8 73 c8 b8 39
       -7.569083e-05 0.0008200639 -5.269471e-05 0.0003524456
000140 96 a4 23 ba 1c 17 cc b8 b9 35 01 ba 06 2e 37 b9
       -0.0006242482 -9.7317825e-05 -0.0004928965 -0.00017469385
000150 30 95 3d ba ce f1 66 3a 93 60 a7 b9 39 87 79 39
       -0.00072320085 0.00088098354 -0.00031924676 0.00023796865
000160 44 2f 2b b8 12 c0 6f 39 7a 79 4d 38 26 ad eb 39
       -4.0813597e-05 0.00022864368 4.8988943e-05 0.00044951699
000170 f4 fa 93 39 f1 54 a6 ba 33 48 16 ba dc 49 85 b7
       0.00028225 -0.001269011 -0.00057328044 -1.5889229e-05
000180 14 71 6e 39 d7 5f df b8 f1 ae 7c 3a 8c 71 a4 38
       0.00022739574 -0.0001065132 0.00096391054 7.841279e-05
000190 41 cc aa 39 aa e0 77 39 d6 28 30 ba 1c c5 3d ba
       0.00032577108 0.0002363945 -0.0006719952 -0.00072391494
0001a0 6c e8 f0 b9 b7 c3 fe 39 54 a9 13 ba c4 c6 2e 3b
       -0.00045949535 0.00048592474 -0.0005632837 0.0026668767
0001b0 82 c5 55 39 02 10 99 b8 d3 27 0c 3a 94 eb 29 ba
       0.0002038684 -7.29859e-05 0.00053465104 -0.0006481942
0001c0 23 53 d5 b9 fd 80 9f 38 6e 2a e8 3a 40 8f d5 b4
       -0.00040688468 7.605737e-05 0.001771284 -3.977857e-07
0001d0 f4 d2 50 39 4d 28 12 3a 3d cd 7f 39 87 22 c4 b9
       0.00019915012 0.00055754633 0.00024395152 -0.00037409758
0001e0 40 2b 4e ba 44 28 2c 39 c5 dd df 37 ca 37 ca b9
       -0.0007864721 0.00016418198 2.6686941e-05 -0.00038570008
0001f0 f4 cd 38 3a 03 b4 36 3a 9c 00 b1 38 85 e7 fa b8
       0.00070497324 0.0006969573 8.440131e-05 -0.00011964053

action_model._continuous_distribution.mu.weight f4 [1, 128]
000000 b5 f8 67 3c dc 02 ea 3c 1a 81 72 bb 8f ce 3f 3d
       0.0141584175 0.028565817 -0.003700322 0.04682785
000010 1c 88 a3 3b 42 c3 50 bc 2c eb 5c 3c d7 74 ca bc
       0.0049905907 -0.012741866 0.013483804 -0.024713917
000020 d7 71 28 3c 0d fc 84 bc fd 8e bb bc 90 0e 8c bc
       0.010281048 -0.016233468 -0.02289533 -0.017096788
000030 2a 28 e4 3c cf 63 0a 3c b6 9a 11 3b 03 3c d4 bc
       0.027851183 0.008446648 0.002221746 -0.025907522
000040 6a 3b 6e bc 0c 34 63 3c c0 97 c9 bc c6 74 94 3c
       -0.014540533 0.013867389 -0.024608493 0.018122088
000050 08 06 45 3a b1 25 6a 3c 15 9f 4c 3c 1e 14 1d 3c
       0.00075158523 0.014291213 0.0124891 0.009587316
000060 40 12 89 3c b8 e6 b4 3c 88 59 70 bc c9 01 7b bc
       0.016732335 0.022082672 -0.014669783 -0.01532025
000070 de e7 f8 3b fb 42 64 3c ae a8 9e bc a5 79 85 bb
       0.007596 0.013931985 -0.019367542 -0.004073339
000080 58 b5 1e bc 0b 47 f5 bc 09 fc aa 3c a0 2d 75 bc
       -0.00968679 -0.029941102 0.020872133 -0.014964491
000090 01 95 88 bc 60 51 a5 bc 6b 76 d3 bc b2 96 ef bb
       -0.016672613 -0.020180404 -0.025813302 -0.0073116655
0000a0 d8 72 a5 bc 0f bc b5 bc 08 c0 82 bb 92 6a b9 3b
       -0.020196363 -0.0221844 -0.003990177 0.005658456
0000b0 b4 fe e4 3c ec e6 06 3d dd 85 bb 3b 0a 09 2b 3b
       0.027953483 0.032935068 0.005722745 0.0026097917
0000c0 c4 81 4d 3c 27 64 4b 3c 36 f4 31 3c bc 66 a0 3c
       0.012543146 0.012414015 0.010861447 0.019580238
0000d0 7b 9a 9e ba 7f bb ca bb fc c5 03 ba 73 80 4c 3c
       -0.0012100482 -0.006186902 -0.00050267554 0.012481797
0000e0 27 8e 83 3c 9d d0 57 3c 23 e9 bc ba 37 0d 1d bc
       0.016058994 0.013172296 -0.0014412742 -0.00958567
0000f0 e0 0e 99 bc a4 c3 47 b8 88 31 19 3d 1f 05 d4 3c
       -0.01868385 -4.76275e-05 0.037400752 0.025881348
000100 9f b3 d3 3b e6 a9 fa 3c 9a e4 04 bd c8 5b 71 3d
       0.0064606215 0.030598592 -0.032444574 0.05892542
000110 1d a6 2a 3d 8d ae 30 3c 82 ff af bc f6 50 10 bb
       0.041662324 0.010783804 -0.02148414 -0.0022020913
000120 2a 5a 3d 3c 6f e8 5c bb 9e ab 68 bb 35 c4 7f 3c
       0.011557141 -0.0033707877 -0.0035502682 0.015610744
000130 0e cf e5 3b 15 dd 5c 3c a7 a4 86 bc 62 75 e0 3c
       0.007013208 0.013480444 -0.016435934 0.027399722
000140 6e f1 64 3b 47 3a 97 bc fa 00 c6 bc bb f6 12 bc
       0.0034933942 -0.018460406 -0.024170388 -0.008969958
000150 13 63 82 ba 00 4d dd 3b 10 b9 87 3c d4 ec a5 bc
       -0.0009947739 0.006753564 0.016567737 -0.02025453
000160 27 96 ee ba e3 87 ba 3b 54 6d 51 3b cb af 8c 3c
       -0.0018202708 0.0056924685 0.0031956034 0.017173668
000170 46 96 0e 3d a3 9a 0d 3c 75 0f a7 3b 66 38 80 3c
       0.03481128 0.008642825 0.005098278 0.015651893
000180 ac da 2a bc cc a8 91 bc a7 24 f2 3b a6 c1 d8 3c
       -0.010428112 -0.017780684 0.007389623 0.026459526
000190 f8 d3 f4 3c 44 2b e0 bc 7a 28 bf bc 4b 50 05 3c
       0.02988623 -0.02736438 -0.02333473 0.008136819
0001a0 b4 67 2d 3c 44 e8 c7 bc 52 13 8c 3c 5d e8 20 3b
       0.010583807 -0.024402745 0.017099056 0.0024552562
0001b0 d6 92 ae bb eb cc 7c bc e4 de 10 bb 13 85 85 3c
       -0.005327563 -0.015429716 -0.002210551 0.016298806
0001c0 d2 cf b9 bc 4c 18 07 bd ef b2 81 3b 06 ef 21 bc
       -0.022682104 -0.032982156 0.003958098 -0.009883648
0001d0 3b 2f 8b 3c bf 02 92 3b bc ff 37 3c b5 8d b5 3c
       0.016990295 0.0044558938 0.011230405 0.022162298
0001e0 b4 1b f1 bb ff 63 81 3c ff 75 53 bc 8c b5 25 bc
       -0.007358039 0.015794752 -0.01290655 -0.010114085
0001f0 d6 e2 5a bc 07 8b c9 3c ee b5 96 bb a4 d1 21 3d
       -0.013359746 0.024602426 -0.0045993244 0.03950657

action_model._discrete_distribution.branches.0.weight f4 [1, 128]
000000 1b d8 53 3c 53 da 3a 3c 12 5c 5d bb 9f 40 11 3b
       0.0129299415 0.011404592 -0.0033776802 0.0022163761
000010 a3 9b 9e 3c db 37 10 3c 23 b5 a7 ba a2 40 6d bc
       0.019361323 0.0088023795 -0.0012795072 -0.014480742
000020 aa 5e ff ba ce 09 13 bb 5f d8 c2 bb 1c 37 c1 3a
       -0.0019483168 -0.0022436264 -0.0059462036 0.0014741155
000030 aa 2f 7a bb 34 af 26 ba 70 e0 ef 3b e7 0a ef 3b
       -0.0038175383 -0.0006358505 0.007320456 0.007295001
000040 d3 6d 0d 3b ab e1 2e bb d0 12 84 3c 0f 43 fb bb
       0.0021580353 -0.0026684802 0.016122252 -0.007667906
000050 fc cc 92 3b 80 f2 36 3b 06 fc b6 3b af 7d 19 bc
       0.0044800024 0.0027915537 0.0055842428 -0.009368344
000060 b0 12 6a 3b f1 a5 07 3c 96 23 4c 3c 43 d6 08 3c
       0.0035716705 0.00827931 0.012459656 0.008351865
000070 ef 1d d2 3b ca f0 02 bb fb 1c 8a bc fd bd 0b 3a
       0.00641226 -0.0019979947 -0.016859522 0.00053307397
000080 cd 25 77 bc bf 48 f7 3b 00 c3 e4 3a 75 2f d6 3a
       -0.015084696 0.007546514 0.0017453134 0.0016341048
000090 23 d6 24 ba a3 47 d4 3a 54 47 3d 3c 48 c2 96 b9
       -0.00062880124 0.0016195666 0.0115526505 -0.0002875498
0000a0 fc 0f 83 3b d0 11 b2 bb b7 7d 17 3c 1d 1a 97 3a
       0.003999708 -0.0054342523 0.009246281 0.0011528168
0000b0 63 94 70 bc a3 ce 20 3b 66 89 18 bc b4 a4 80 bc
       -0.014683816 0.0024537228 -0.009310102 -0.015703537
0000c0 9b 15 d8 b9 69 25 ac 3b 9d cf 9d 3b ea 62 4f bb
       -0.00041214828 0.005253483 0.004816009 -0.003164465
0000d0 c6 7a a0 3c fc 5a a2 3b f0 32 e1 ba 1f a0 31 bc
       0.019589793 0.004954694 -0.0017181318 -0.0108413985
0000e0 e7 7b 2e 3c b0 75 d7 3b 03 78 78 ba 44 89 4b 3c
       0.010649658 0.0065753087 -0.00094783324 0.012422863
0000f0 88 a5 46 3b b3 00 52 ba c3 0d 1a bc f8 07 95 bc
       0.0030311067 -0.00080109684 -0.009402695 -0.018192276
000100 00 e3 af 3b 7c ee 8b 3c 1b b2 18 ba 58 81 c0 ba
       0.0053676367 0.017081492 -0.00058248796 -0.0014686985
000110 c3 3f 25 3c 60 de 91 3a 3e b4 b4 bb cc d9 30 bb
       0.010086003 0.0011128895 -0.0055146506 -0.0026985286
000120 07 ec 84 3c 07 56 9d bc 73 95 0b 3c 5a 79 7f 3b
       0.016225828 -0.01920606 0.008519518 0.0038982243
000130 2d d5 e0 ba 11 4a 1f 3c a9 4e 09 3b 0a 1b 15 bc
       -0.0017153375 0.009722249 0.0020951426 -0.009100685
000140 27 60 05 ba 7a f9 44 bc 17 a9 02 3b 3e f7 0d bb
       -0.0005087875 -0.0120223705 0.0019937211 -0.002166226
000150 57 f4 e3 bb 4f 57 b9 ba 9b e8 ae bc 43 73 32 3b
       -0.006956618 -0.00141404 -0.02135115 0.0027229346
000160 6a 4e 00 3c 30 be 59 3c d8 50 21 bb 07 ae a7 3b
       0.007831195 0.013289973 -0.0024614837 0.005117181
000170 38 70 66 bb 5b 77 4e bb 28 6d a3 bb 42 fa 53 3c
       -0.0035162102 -0.0031504247 -0.0049873777 0.012938084
000180 1a f2 0a 3c 71 38 3d 3c 92 36 37 bc dc 8d c2 3b
       0.008480573 0.011549101 -0.011182444 0.005937321
000190 7b bd 10 3c f7 bb 4e bb 38 61 0c 3b 68 61 1e 3c
       0.008834238 -0.0031545141 0.0021420252 0.009666778
0001a0 38 fc cf 3b 2b 94 d2 bb 9f 0b cb bb 67 52 05 3c
       0.0063472055 -0.0064263544 -0.0061964537 0.008137322
0001b0 0e 86 c5 3b df 37 d4 3b 78 9a 37 bb 6d 79 da 3b
       0.0060279435 0.006476387 -0.0028015655 0.006667307
0001c0 9f c0 18 3c bb d6 65 3a 40 d1 79 3a e7 c9 32 3c
       0.009323268 0.0008767654 0.0009529777 0.010912395
0001d0 72 f0 60 bc 3f 82 b8 3c db 0a 92 3b f7 ff 01 3a
       -0.013729202 0.022523044 0.0044568605 0.0004959101
0001e0 b6 a1 11 3c bb 2e 15 bc 74 52 1b 3c 6f 8a 08 3c
       0.008888653 -0.00910538 0.009480108 0.008333786
0001f0 3c 95 00 3b 98 e7 ad bc 49 98 19 3c 51 2d ab 3b
       0.00196202 -0.021228597 0.0093746865 0.005223908

onnx::Div_70 f4 [6]
000000 6d be 4a 40 60 06 d9 3f 88 5b 0c 3c d8 6b ca 3f
       3.1678727 1.695507 0.008566745 1.5814161
000010 b8 6e 55 3d 88 5b 0c 3c
       0.052107543 0.008566745
