Assets/Models/Slider_behavior/SliderBehavior/SliderBehavior-20031.pt (torch, 467300 bytes, 41 tensors)

network_body.observation_encoder.processors.0.normalizer.running_mean f4 [12]
0	0x40ab19ec	5.3469143
1	0xc0c3eba2	-6.122514
2	0x3f45312e	0.7702817
3	0x3bae5233	0.0053198575
4	0xbd54df93	-0.05197103
5	0xc05d84d4	-3.4612322
6	0x00000000	0.0
7	0xbee129c4	-0.43977177
8	0x3c4a0fa2	0.012332829
9	0xbf209137	-0.6272158
10	0x3f7ffcb7	0.9999499
11	0x3f7ffcb7	0.9999499

network_body.observation_encoder.processors.0.normalizer.running_variance f4 [12]
0	0x4749a614	51622.08
1	0x4749af00	51631.0
2	0x47498a1d	51594.113
3	0x47498980	51593.5
4	0x4843d7ad	200542.7
5	0x4770bec1	61630.754
6	0x3f800000	1.0
7	0x48ae09f8	356431.75
8	0x482ef113	179140.3
9	0x48690ed2	238651.28
10	0x3ffffe59	1.9999496
11	0x3ffffe59	1.9999496

network_body.processors.0.normalizer.running_mean f4 [12]
0	0x40ab19ec	5.3469143
1	0xc0c3eba2	-6.122514
2	0x3f45312e	0.7702817
3	0x3bae5233	0.0053198575
4	0xbd54df93	-0.05197103
5	0xc05d84d4	-3.4612322
6	0x00000000	0.0
7	0xbee129c4	-0.43977177
8	0x3c4a0fa2	0.012332829
9	0xbf209137	-0.6272158
10	0x3f7ffcb7	0.9999499
11	0x3f7ffcb7	0.9999499

network_body.processors.0.normalizer.running_variance f4 [12]
0	0x4749a614	51622.08
1	0x4749af00	51631.0
2	0x47498a1d	51594.113
3	0x47498980	51593.5
4	0x4843d7ad	200542.7
5	0x4770bec1	61630.754
6	0x3f800000	1.0
7	0x48ae09f8	356431.75
8	0x482ef113	179140.3
9	0x48690ed2	238651.28
10	0x3ffffe59	1.9999496
11	0x3ffffe59	1.9999496

network_body._body_endoder.seq_layers.0.weight f4 [128, 12]
0	0xbf188fd0	-0.5959444
1	0xbeaea71f	-0.34111878
2	0xbdd1249c	-0.10212061
3	0xbeab29a7	-0.33430216
4	0x3ea2b741	0.31780437
5	0x3e5446c4	0.2073012
6	0x3e9564a8	0.29178357
7	0xbe73de5d	-0.23815294
8	0xbe00d340	-0.12580585
9	0x3e534012	0.2062991
10	0xbedfeee8	-0.43736959
11	0xbe707efe	-0.23485944
12	0xbeb1244e	-0.3459801
13	0x3eaf175e	0.34197515
14	0x3ee4719c	0.44617927
15	0x3e951bee	0.2912287
16	0x3dfd2f2a	0.123625115
17	0xbe66decc	-0.22545928
18	0x3ea80968	0.32819676
19	0x3c16f734	0.009214211
20	0x3f100234	0.5625336
21	0x3ec14f96	0.37756032
22	0x3e5f916e	0.21832821
23	0xbebffb4e	-0.37496418
24	0xbd274cea	-0.040844835
25	0xbdc55435	-0.09635202
26	0xbdc555ce	-0.096355066
27	0x3cca82be	0.024720546
28	0x3da85926	0.08220129
29	0xbe054fd6	-0.13018736
30	0xbb6a48a3	-0.0035748861
31	0xbe33d6df	-0.17562436
32	0x3e3f7306	0.18696222
33	0xbc44762d	-0.011991066
34	0x3e15b9bd	0.14621635
35	0x3e4e74c8	0.20161736
36	0x3ebc2c47	0.3675253
37	0xbe9d3d33	-0.30710754
38	0x3d60a588	0.054845363
39	0xbe0cc81b	-0.13748209
40	0xbe7fd7ec	-0.24984711
41	0x3e9c9a0b	0.30586275
42	0xbeac9596	-0.33707875
43	0xbdcbd140	-0.09952021
44	0xbd5c5d8b	-0.053800147
45	0xbdf54bcd	-0.119773485
46	0x3e84242c	0.25808847
47	0x3df77144	0.120821506
48	0xbdcd5fd9	-0.10028047
49	0xbeccf178	-0.40027976
50	0xbdc14720	-0.09437394
51	0xbe10b4f9	-0.14131536
52	0x3d793f47	0.06085136
53	0x3dcbeed0	0.09957659
54	0x3d6d1de8	0.05788985
55	0xbbfe29aa	-0.0077564316
56	0x3edbe424	0.42947495
57	0xbebc7192	-0.36805397
58	0x3ef9bca1	0.48776725
59	0xbedde3a3	-0.43337736
60	0x3e2e25e7	0.17006646
61	0xbf1290b6	-0.5725206
62	0x3e9ef1f3	0.31043968
63	0xbf531e58	-0.82468176
64	0x3ed92ec7	0.424185
65	0xbb5f958b	-0.0034116234
66	0xbd16e798	-0.03684196
67	0xbee6c07f	-0.45068738
68	0xbef6ef19	-0.48229292
69	0xbd3807e6	-0.044929408
70	0x3e466aca	0.19376674
71	0xbdaf1a66	-0.08549957
72	0xbcfdd348	-0.030984536
73	0x3e1d9d39	0.15392007
74	0x3d9a4a34	0.075336844
75	0x3f22f4b9	0.6365467
76	0x3eae293d	0.34015837
77	0xbdec65be	-0.11542843
78	0xbed84808	-0.42242455
79	0x3eeaab99	0.45834044
80	0x3eb807d9	0.35943487
81	0x3e2b0a7c	0.16703218
82	0x3e6a5eb0	0.22887683
83	0xbebfcd6b	-0.3746141
84	0xbe46bc4f	-0.19407772
85	0xbf028783	-0.50988024
86	0x3ed37862	0.41302782
87	0x3e6b6347	0.2298709
88	0x3e8436bf	0.25823018
89	0x3f03e6e9	0.51524216
90	0xbd009c52	-0.03139908
91	0x3cb05c7e	0.021528479
92	0xbe81510f	-0.25257155
93	0x3f542460	0.82868004
94	0xbeb19db3	-0.34690627
95	0x3e4fe071	0.20300461
96	0xbe3542e4	-0.17701298
97	0x3ee7f180	0.45301437
98	0x3e297689	0.16549124
99	0xbccff776	-0.025386553
100	0xbd086c3f	-0.033306357
101	0x3efd83f4	0.49514735
102	0x3e88ef41	0.26745036
103	0x3e855ed2	0.26048905
104	0x3e628a67	0.22123109
105	0x3ef1ee71	0.4725223
106	0xbec5c631	-0.3862777
107	0xbc9e3545	-0.01931251
108	0xbe95b10e	-0.29236645
109	0x3eeadb70	0.45870543
110	0x3d38debb	0.045134287
111	0x3e271c05	0.16319282
112	0xbeecc827	-0.46246454
113	0xbe920696	-0.2852065
114	0x3e0a8fb9	0.13531388
115	0xbd983718	-0.07432383
116	0xbdbd910d	-0.09256182
117	0xbf3af241	-0.730259
118	0x3ed2a2d3	0.4113985
119	0xbe40efe6	-0.18841514
120	0xbe8203c3	-0.25393495
121	0x3d4a4a08	0.049387008
122	0x3d6eb6e8	0.0582799
123	0xbdb1cf5b	-0.08682128
124	0x3d06cdc2	0.03291107
125	0x3e3a39a1	0.18186046
126	0x3eb2ef62	0.3494826
127	0x3e1fc3ef	0.15602086
128	0xbe34b10b	-0.17645662
129	0x3c59c2b5	0.013291051
130	0x3e8c02b6	0.27345818
131	0x3e9ed870	0.31024504
132	0x3e02e188	0.12781346
133	0x3e1f6344	0.1556521
134	0xbe722b16	-0.23649248
135	0x3dcd6e01	0.10030747
136	0xbc73beb9	-0.014877015
137	0x3ef9c031	0.48779443
138	0xbeb2f0a6	-0.34949225
139	0xbea5e954	-0.32404578
140	0xbe47061f	-0.19435929
141	0x3dd964c0	0.1061492
142	0x3de9d81d	0.114181735
143	0x3f1cf534	0.6131165
144	0x3ec4f2ac	0.38466394
145	0xbca42cc0	-0.02004087
146	0xbf0d7a37	-0.5526461
147	0xbe7f9a3a	-0.24961177
148	0xbe8e2677	-0.2776372
149	0xbe1e99ea	-0.15488401
150	0xbd9ccf1c	-0.076566905
151	0x3e1531cc	0.14569777
152	0xbe0df3bb	-0.13862507
153	0x3d900fe4	0.07034281
154	0x3ee5abf2	0.44857746
155	0x3e097f5d	0.13427491
156	0x3eafe198	0.34351802
157	0x3ee40fba	0.44543248
158	0x3ed43fa6	0.4145481
159	0x3ec6328e	0.38710445
160	0x3d6162a2	0.055025704
161	0x3c391adc	0.011297908
162	0x3dfbcb83	0.12294676
163	0xbd78a822	-0.06070722
164	0x3dce7a85	0.100819625
165	0xbe308d9f	-0.17241524
166	0xbe905e9a	-0.28197175
167	0x3e49df52	0.19714096
168	0xbdfca486	-0.12336068
169	0x3e9bef50	0.30456018
170	0xbf012fe6	-0.5046371
171	0x3dbe8cc2	0.09304191
172	0xbe6a309d	-0.22870107
173	0xbe7e011a	-0.24805108
174	0xbe95a6a5	-0.29228702
175	0x3e46fbd7	0.19432007
176	0xbc82f458	-0.015985653
177	0xbdf00c02	-0.1172104
178	0xbe9fdae1	-0.3122168
179	0x3dc1dad5	0.09465567
180	0x3c3d8097	0.011566303
181	0xbeccef10	-0.4002614
182	0x3ec5ea6d	0.38655415
183	0xbbfffd2d	-0.0078121633
184	0x3eb412ed	0.3517069
185	0x3eee1bcc	0.46505582
186	0x3edfc68a	0.4370616
187	0x3e405334	0.1878174
188	0xbe7d0a54	-0.24710971
189	0xbee80005	-0.45312515
190	0x3e05afdb	0.13055365
191	0xbe3a1a5e	-0.18174121
192	0xbd9be7d2	-0.076125756
193	0x3c8c2377	0.017106755
194	0x3d478ee2	0.048720248
195	0xbef5c7c1	-0.48003963
196	0xbd23ca85	-0.03998806
197	0xbeb10ece	-0.34581608
198	0xbe40fd62	-0.18846658
199	0x3e834ab7	0.2564294
200	0x3e109075	0.14117606
201	0x3e6fa229	0.23401703
202	0x3d1033a7	0.03520551
203	0xbddb70bb	-0.10714861
204	0xbde6e86c	-0.112748
205	0xbdeafc25	-0.11473874
206	0xbd952681	-0.07282735
207	0x3e317cfb	0.17332833
208	0x3eae0150	0.33985376
209	0xbe543cfc	-0.20726389
210	0xbec605f2	-0.3867641
211	0x3c8366f0	0.016040295
212	0xbe814427	-0.2524731
213	0x3efa67fb	0.48907456
214	0x3e76b810	0.24093652
215	0x3e513f81	0.20434381
216	0xbd081873	-0.03322644
217	0xbe50747b	-0.20356934
218	0x3f3de2b5	0.7417405
219	0x3e031e36	0.12804493
220	0x3ece34cd	0.4027466
221	0xbda590cf	-0.08084261
222	0xbf04821a	-0.5176102
223	0xbec0e44f	-0.37674186
224	0x3eadc249	0.3393729
225	0x3ea3b5aa	0.31974536
226	0xbcc9342e	-0.024561014
227	0x3e64109d	0.22271962
228	0x3ea486ec	0.32134187
229	0x3eca3170	0.39490843
230	0xbe01e17d	-0.12683673
231	0x3f21baa7	0.63175434
232	0x3e0f014f	0.13965343
233	0x3e5e50c8	0.21710503
234	0xbe7d835b	-0.2475714
235	0xbed1508c	-0.40881765
236	0x3dd9ffc5	0.10644487
237	0x3eb5bc9a	0.35495454
238	0xbd88e2c1	-0.06683875
239	0xbd64e2e3	-0.05588044
240	0xbe968821	-0.29400733
241	0xbcaf5c44	-0.0214063
242	0xbea13125	-0.31482807
243	0xbd99a3bd	-0.07501934
244	0x3dc1770f	0.09446537
245	0xbb710576	-0.0036776937
246	0xbef6afc2	-0.48180968
247	0x3d727ae1	0.059199218
248	0xbe2d97cb	-0.16952436
249	0xbc41d1a4	-0.011829767
250	0xbef277af	-0.47356936
251	0x3e679ca2	0.22618344
252	0xbef27b90	-0.47359896
253	0xbe951f87	-0.29125616
254	0x3d3f8cd0	0.04676515
255	0x3ecbca56	0.39802808

network_body._body_endoder.seq_layers.0.bias f4 [128]
0	0xbc066849	-0.008203574
1	0x3c4326ec	0.011911135
2	0xba63230e	-0.00086645863
3	0x3cb4bf33	0.022063827
4	0xbba2faec	-0.00497376
5	0x3be4646b	0.0069699786
6	0x3c161d37	0.009162239
7	0x3ba90677	0.0051582414
8	0x3c920628	0.017825201
9	0x3c076b92	0.008265393
10	0xbc90a821	-0.017658295
11	0x3c8c8852	0.017154846
12	0x3cc1d452	0.023660813
13	0xbb819480	-0.00395447
14	0xbbf33c6a	-0.0074229734
15	0xbcba434a	-0.022737164
16	0xbc9878c1	-0.018612267
17	0x3ace6d7a	0.0015749179
18	0x3aab7df7	0.0013083805
19	0x3ac93b1f	0.0015352702
20	0x3c17ba4f	0.009260728
21	0x3c211354	0.009831268
22	0x3bf7f471	0.0075669815
23	0x3c54c6a1	0.01298681
24	0x3c192338	0.009346776
25	0xba4f2da4	-0.00079032243
26	0x3c1d589e	0.0096036475
27	0x3c67accc	0.014140319
28	0x3bced218	0.006311666
29	0x3c652f3a	0.0139883105
30	0x3c82277a	0.015887965
31	0x3ad893b4	0.0016523511
32	0x3bc6d97a	0.0060684057
33	0xbc10cc8f	-0.008837833
34	0x3c8c5b5b	0.017133405
35	0x3a8f27d7	0.0010921907
36	0x3cb8c5f6	0.022555333
37	0xbd10b462	-0.035328276
38	0xbc97cd26	-0.01853044
39	0xbb48c698	-0.003063595
40	0x3b788a9e	0.003792442
41	0x3c59d84b	0.013296197
42	0x3b7e1502	0.0038769846
43	0x3c296e88	0.010341294
44	0xbbb89433	-0.005632901
45	0xbbaa9fbf	-0.0052070315
46	0xbcdb40af	-0.026764242
47	0xbc7e076b	-0.015504698
48	0x3d1526fb	0.036414128
49	0x3b949328	0.004534144
50	0x3cec64d9	0.028856682
51	0x3cfccad8	0.030858442
52	0x3bfd6442	0.007732899
53	0x385cd311	5.264866e-05
54	0x3c05963d	0.008153495
55	0xbbe8aa4c	-0.007100379
56	0x3cd507d8	0.026004717
57	0xbb2880d0	-0.0025711544
58	0xbc519d85	-0.012793903
59	0x3cb1df94	0.021713056
60	0x3c1f745e	0.009732334
61	0x3c908b12	0.017644439
62	0x3c1f999c	0.009741213
63	0x3c26f357	0.010189853
64	0xbc90de42	-0.017684106
65	0xbcc9ab8c	-0.024617933
66	0x3ce0f334	0.027459718
67	0xba9fb211	-0.0012183805
68	0x3c6c3f19	0.0144193405
69	0xbb7a27f4	-0.0038170787
70	0x3bba6f15	0.0056895115
71	0xbb76e1aa	-0.0037671127
72	0x3cd73275	0.026269177
73	0xbb985cdf	-0.004649743
74	0x3c5f47b8	0.013627939
75	0xbc5fc67b	-0.013658161
76	0x3c9a03dd	0.01880067
77	0xbcb47417	-0.022028012
78	0x3cde2cd5	0.027120987
79	0xbba097d7	-0.004900913
80	0x3cd18767	0.02557726
81	0x3aaa1937	0.0012977485
82	0x3ca3e3d2	0.020006094
83	0xbca0ff45	-0.019652972
84	0x3c9a3488	0.018823877
85	0x3c372b59	0.0111797685
86	0xbbda0aed	-0.0066541345
87	0xba2e4abc	-0.00066487095
88	0xba0a671e	-0.0005279648
89	0x3c3fca92	0.011706011
90	0x3a9240e1	0.0011158251
91	0x3c3838e8	0.011244036
92	0xbc8653d3	-0.016397392
93	0xba4bfe36	-0.0007781716
94	0x3b609628	0.0034269188
95	0x3a63af73	0.0008685507
96	0xbb0753f0	-0.0020649396
97	0x3c46a4b3	0.012124228
98	0xbb183fa9	-0.0023231304
99	0xbb9b471c	-0.0047387015
100	0x3ca2bd34	0.01986561
101	0x3c85e470	0.016344279
102	0x3c1a8828	0.009431876
103	0x3c832351	0.016008051
104	0x3b4efa95	0.0031582464
105	0xbb8e5d79	-0.004344639
106	0x3ad157a5	0.0015971555
107	0x3bddc6a6	0.0067680655
108	0x39d111d6	0.00039876875
109	0x3c8e7eaa	0.017394383
110	0x3c8756e1	0.01652092
111	0x3cae8e3f	0.021308063
112	0xbb8fccb7	-0.0043884176
113	0x3ca45ed4	0.020064749
114	0x3c05b41f	0.00816062
115	0x3c1d0eac	0.009586018
116	0x3b52226b	0.0032063972
117	0x3c9936bd	0.018702859
118	0x3c2c9b1f	0.010535031
119	0x3cb3bb94	0.02194003
120	0xbb075f74	-0.002065626
121	0xbc16ba94	-0.009199757
122	0x3c03afb4	0.008037496
123	0x3b88ee9d	0.0041788355
124	0xbaa75c8a	-0.0012768668
125	0x3bcd6202	0.006267787
126	0x3b37660a	0.0027984404
127	0xbc2a5505	-0.010396247

network_body._body_endoder.seq_layers.2.weight f4 [128, 128]
0	0x3d0892db	0.033343177
1	0x3c7b96de	0.015355794
2	0x3de50477	0.11182492
3	0xbda0fb05	-0.07860378
4	0x3dafdb9d	0.0858681
5	0x3dd9b01e	0.10629295
6	0x3c42328e	0.0118528735
7	0xbd84159c	-0.06449434
8	0x3e273e7d	0.16332431
9	0x3d7d6c1a	0.06187067
10	0x3ca8b606	0.020594608
11	0xbd152ca1	-0.036419515
12	0xbc02e5a4	-0.007989321
13	0xbda32da3	-0.07967689
14	0xbc8183a2	-0.015809838
15	0x3da2cc04	0.07949069
16	0x3e479063	0.19488673
17	0x3dac10dc	0.08401653
18	0x3e94448b	0.28958544
19	0xbde931a4	-0.11386421
20	0x3d9fcbd7	0.07802551
21	0x3d6dd254	0.058061913
22	0xbd985809	-0.074386664
23	0x3de78777	0.11305135
24	0xbd9aa88f	-0.07551681
25	0x3cf1d271	0.029519292
26	0xbd3ad9de	-0.04561793
27	0xbd3710c6	-0.04469373
28	0x3e293ad3	0.16526346
29	0x3ca541fb	0.020173064
30	0xbd61cabd	-0.055124987
31	0x3d1a4637	0.03766462
32	0x3d897baf	0.06713044
33	0xbdfb53c8	-0.122718394
34	0xbd593538	-0.05302927
35	0xbcda0720	-0.026614726
36	0xbde04a80	-0.1095171
37	0x3d70d9e4	0.058801547
38	0xbcc3ff79	-0.02392553
39	0x3ac7377f	0.0015199034
40	0xbcc9bcb2	-0.02462611
41	0x3d6b4b8b	0.05744509
42	0x3daec9f4	0.08534613
43	0x3daf7853	0.08567872
44	0xbe320d06	-0.1738778
45	0x3da31090	0.079621434
46	0xbdc87cf1	-0.09789456
47	0x3cb0ceaf	0.02158293
48	0x3e0632a4	0.13105255
49	0x3db4e7c2	0.08833267
50	0x3e2f53a7	0.17121755
51	0xbb924e08	-0.0044648685
52	0x3bcfd738	0.0063427947
53	0x3d5e7dab	0.054319065
54	0x3cc0a738	0.023517236
55	0x3db2e26f	0.08734595
56	0xbd4a8436	-0.049442492
57	0x3cf495e6	0.029856633
58	0x3cd4c174	0.025971152
59	0xbd050ea0	-0.03248465
60	0x3df75db5	0.1207842
61	0xbdbcc8fa	-0.09218021
62	0x3d796e03	0.06089593
63	0x3d419917	0.04726514
64	0xbd67a0de	-0.0565499
65	0x3c02c248	0.007980891
66	0xbe04147c	-0.12898439
67	0xbba71df5	-0.0051000067
68	0x3d0b45e7	0.03400221
69	0x3e0becc9	0.13664545
70	0xbc122a65	-0.00892124
71	0xbc68f0b6	-0.014217546
72	0x3c63b32a	0.0138976965
73	0xbcf6ae52	-0.03011242
74	0x3dd07644	0.101788074
75	0xbd8df15f	-0.069308035
76	0x3d8c4657	0.06849354
77	0x3e0a85a9	0.1352755
78	0xbe463b51	-0.19358565
79	0x3d821b07	0.06352811
80	0x3d1b5663	0.03792418
81	0xbdc9f0d6	-0.09860389
82	0xbe10976a	-0.1412026
83	0x3d92da30	0.07170522
84	0xbcbb2843	-0.022846347
85	0x3b94282b	0.00452139
86	0xbd09907d	-0.03358506
87	0x3d286fe4	0.041122332
88	0x3d0012ed	0.03126805
89	0xbd9eb4fe	-0.07749365
90	0xbcf94baa	-0.030431587
91	0x3dfc65bb	0.12324091
92	0x3d9ed6b7	0.07755797
93	0x3da23d81	0.07921887
94	0x3cd1cd27	0.02561052
95	0xbe0c36e8	-0.1369282
96	0x3d5580de	0.05212485
97	0x3db288b3	0.087174796
98	0x3cfe7f51	0.031066569
99	0xbdbd832d	-0.092535354
100	0x3d1264f0	0.035740793
101	0xbd8e52b6	-0.069493696
102	0xbc8ce7ca	-0.01720037
103	0x3db23234	0.08700982
104	0xbe039ffe	-0.12854001
105	0x3ce089d1	0.027409466
106	0x3dc3df82	0.09564115
107	0xbd3962de	-0.045260303
108	0x3c869ba4	0.016431637
109	0xbcaa5630	-0.02079305
110	0x3db3d079	0.087799974
111	0x3e022c77	0.12712274
112	0x3d89c83d	0.067276455
113	0x3e35f4db	0.17769186
114	0x3e50cd6b	0.2039086
115	0xbe01d6d8	-0.12679613
116	0xbc8f4d7f	-0.017493008
117	0xbdab4bb0	-0.083640456
118	0x3cf9648d	0.030443454
119	0xbd9d6081	-0.07684422
120	0xbda39ca7	-0.079888634
121	0xbe0853b3	-0.13313179
122	0xbb7da47c	-0.0038702777
123	0x3d9839b8	0.07432884
124	0x3e0dbf19	0.13842429
125	0x3d5394e6	0.051655672
126	0xbca162df	-0.019700466
127	0xbd5faac0	-0.0546062
128	0xbd1928e3	-0.03739251
129	0x3dfd6576	0.12372868
130	0x3e0621d9	0.1309885
131	0xbb84eedd	-0.004056795
132	0x3c6406d4	0.013917644
133	0x3d015d9b	0.03158341
134	0x3d8a53d0	0.06754267
135	0xbc18dd12	-0.009330051
136	0x3db0605d	0.0861213
137	0xbd5d73a5	-0.054065365
138	0xbdaab571	-0.083353885
139	0xbc019e32	-0.007911252
140	0x3d3bfdba	0.04589627
141	0x3e1df064	0.15423733
142	0x3d08ad2c	0.033368275
143	0xbdf1b029	-0.11801178
144	0x3d06517a	0.032792546
145	0x3d9e7e23	0.077389024
146	0x3d50ea66	0.05100479
147	0xbe14cb19	-0.145306
148	0xbcaf5520	-0.021402895
149	0x3d184c34	0.037182048
150	0x3baa2327	0.005192179
151	0x3ddd45a4	0.108042985
152	0xbdad70aa	-0.084687546
153	0xbd501bcd	-0.050807763
154	0xbd1a3e6f	-0.037657198
155	0x3dce690d	0.100786306
156	0xbc977300	-0.018487453
157	0xbd990e8f	-0.0747348
158	0xbc9459b9	-0.01810919
159	0xbdf9c99d	-0.12196658
160	0x3b5245a2	0.0032084961
161	0xbe73f552	-0.23824051
162	0xbd844527	-0.06458502
163	0x3d74ddad	0.05978172
164	0x3dc28f42	0.094999805
165	0x3de95843	0.11393788
166	0x3e13403d	0.14379974
167	0x3e467cf5	0.19383605
168	0x3e1f22f0	0.15540671
169	0xbe01e244	-0.1268397
170	0x3de86de7	0.11349087
171	0x3d974106	0.07385449
172	0xbbdd83ee	-0.006760112
173	0x3cff0a5b	0.031132868
174	0xbb985472	-0.0046487385
175	0x3e1f48c4	0.15555102
176	0xbe33a93f	-0.17545031
177	0x3db08796	0.08619611
178	0xbd6a4cea	-0.057202257
179	0x3c9083b3	0.017640924
180	0xbdfccea3	-0.123441
181	0xbcc49376	-0.023996096
182	0xbb859b0b	-0.0040773205
183	0xbd8ed6f1	-0.069745906
184	0xbe31b436	-0.17353901
185	0xbbbbc495	-0.0057302215
186	0x3e1b4828	0.15164244
187	0x3d828d03	0.06374552
188	0x3daffd53	0.0859324
189	0x3dc9643c	0.09833571
190	0x3ce92117	0.028458161
191	0xbdc2624d	-0.09491406
192	0xbc7362d7	-0.014855108
193	0xbd34ff22	-0.044188626
194	0x3c8fdc9a	0.017561246
195	0xbd2311f3	-0.03981204
196	0xbe010450	-0.12599301
197	0xbd9694f0	-0.07352626
198	0xbd8a94ae	-0.0676664
199	0x3e0d5510	0.1380198
200	0xbe07eecb	-0.13274686
201	0x3d536d00	0.051617622
202	0xbdc42782	-0.09577848
203	0xbdfa084f	-0.12208616
204	0xbd749ecd	-0.059721757
205	0xbbe9f679	-0.0071399775
206	0xbd1cf18b	-0.03831629
207	0xbd4e4fc6	-0.050369047
208	0xbc9bf49d	-0.01903754
209	0x3e4806df	0.19533871
210	0xbe32181a	-0.17392007
211	0xbe36bfde	-0.17846629
212	0xbddc99f0	-0.10771549
213	0xbd22940a	-0.039691962
214	0x3db35b44	0.08757642
215	0xbdcc172f	-0.099653594
216	0xbd973e2d	-0.07384906
217	0xbe286f99	-0.16448821
218	0xbdb3d3e5	-0.0878065
219	0xbdb729ed	-0.089435436
220	0x3b180fd1	0.0023202787
221	0xbd345135	-0.044022758
222	0xbc937868	-0.01800175
223	0x3d1f1d00	0.038846016
224	0xbdecaefa	-0.11556812
225	0xbdc68892	-0.096940175
226	0xbd1c9503	-0.038228046
227	0xbc2b0f3d	-0.010440645
228	0xbc3dc109	-0.011581668
229	0x3bb05c84	0.0053821225
230	0x3d1aae4c	0.03776388
231	0x3d58ff5a	0.052977897
232	0x3db424c1	0.08796073
233	0xbd3ad077	-0.045608964
234	0x3ded5458	0.11588353
235	0xbc862423	-0.016374653
236	0xbdd98cd7	-0.10622566
237	0x3db4c124	0.08825901
238	0xbd04085b	-0.03223453
239	0xbd5213bf	-0.051288363
240	0xbd0dc724	-0.034613743
241	0x3d8005ba	0.06251092
242	0xbd9fdf72	-0.07806291
243	0x3dd028fa	0.10164066
244	0x3d001055	0.031265575
245	0xbd878910	-0.066179395
246	0x3d9efb40	0.07762766
247	0xbce7e613	-0.02830795
248	0xbd0a5c60	-0.033779502
249	0x3d5dea2f	0.054178413
250	0x3d276f95	0.040877897
251	0x3e5675ee	0.20943424
252	0x3dd93a59	0.10606832
253	0x3d998752	0.074965134
254	0xbcf3e43c	-0.029771917
255	0xbe13358d	-0.14375897

network_body._body_endoder.seq_layers.2.bias f4 [128]
0	0x393ee28e	0.0001820421
1	0x3b708673	0.0036701232
2	0xbac62146	-0.0015116117
3	0xbbbc69b8	-0.0057499073
4	0x3b5ef75f	0.0034021956
5	0x3c46eb41	0.01214105
6	0xbbe419c5	-0.00696108
7	0xbb304a67	-0.0026899816
8	0xbc0f98e9	-0.008764484
9	0x3bef59f3	0.007304424
10	0x3b2ee6b7	0.002668781
11	0xbbcd2cb3	-0.006261432
12	0xbbdec69c	-0.0067985784
13	0xbae54b4d	-0.0017493755
14	0x3cc1ece1	0.023672523
15	0xbc591db9	-0.013251715
16	0x392200e2	0.00015449853
17	0x3a6c3043	0.0009009877
18	0xba109897	-0.0005515902
19	0x3b956484	0.0045591015
20	0x3c290892	0.010316985
21	0x3b7fd372	0.0039035943
22	0x3c8c785e	0.01714724
23	0xbb13bf42	-0.0022544418
24	0x3c996916	0.018726867
25	0x3c102ceb	0.008799772
26	0x3c72d60e	0.014821542
27	0x3c7a3598	0.015271567
28	0x3c85b8a9	0.016323404
29	0xbbfb7909	-0.0076743406
30	0x3bc0cf71	0.005884104
31	0x3c4f8a9a	0.0126673225
32	0x3b948a7f	0.0045331116
33	0x3bcad518	0.0061899535
34	0x3c4b6446	0.012414044
35	0xbbf1fb02	-0.007384659
36	0x3c998cd3	0.018743908
37	0x3c658fd2	0.01401134
38	0xbb42a1be	-0.0029698457
39	0x3bef8bac	0.0073103514
40	0x3c237955	0.009977658
41	0x3c2de184	0.010612849
42	0xbb8bfc71	-0.0042720367
43	0x3c0606ae	0.0081803035
44	0x3c8d955e	0.017283138
45	0x3c57d646	0.013173645
46	0x3b4a8403	0.003090144
47	0x3c973dae	0.018462028
48	0xb96dff30	-0.00022697146
49	0xb8bf9d73	-9.136917e-05
50	0xbc151eae	-0.009101553
51	0xbbe00d6f	-0.006837539
52	0x3b14df48	0.0022716094
53	0x3c8f8a08	0.017521873
54	0xbc38bef9	-0.011276
55	0xbb7b0185	-0.0038300466
56	0xbc0c9bff	-0.008582114
57	0xbb996e54	-0.0046823416
58	0x3ca699d2	0.02033702
59	0x3c22c92f	0.009935661
60	0xbc07a5dd	-0.008279291
61	0xbc095e28	-0.008384265
62	0xbbc59344	-0.0060295183
63	0xbc8bb282	-0.017052893
64	0xbc0ebb90	-0.008711711
65	0x3c95d4e4	0.01828999
66	0x3c8bbeb7	0.017058713
67	0x3bb5c1a9	0.0055467677
68	0xbc040595	-0.0080579715
69	0x387b6c48	5.9943908e-05
70	0x3b51e27c	0.0032025864
71	0x3b85d75e	0.0040845117
72	0xbb975e40	-0.00461939
73	0x3c903187	0.017601741
74	0xbc710206	-0.014709955
75	0xbbddff00	-0.006774783
76	0x3c267bbf	0.010161339
77	0x3c3d0809	0.01153756
78	0xbc7eb838	-0.015546851
79	0xbc0e8188	-0.008697875
80	0x3bd3d58b	0.0064646653
81	0x3b877010	0.004133232
82	0xbc7d8159	-0.015472733
83	0xbbfe8e91	-0.00776846
84	0xbaae56eb	-0.001330105
85	0x39214cd8	0.00015382783
86	0x3b6c252c	0.0036032898
87	0xbb87e113	-0.004146704
88	0xbb83763d	-0.004011898
89	0x3c4949d9	0.012285673
90	0xbb190d9d	-0.0023354061
91	0xbb37d555	-0.002805074
92	0x3c87ebcf	0.016591934
93	0xbc4e6386	-0.01259697
94	0xbbe6bc6c	-0.0070415046
95	0xbc60720e	-0.013699068
96	0x3c55fea6	0.013061201
97	0xbc1a8d5c	-0.009433117
98	0xbc33880b	-0.010957728
99	0xbc5aff9a	-0.013366604
100	0x3c23c2cd	0.009995175
101	0x3bd282c3	0.0064242794
102	0x3cdce398	0.026963994
103	0xbc05c7b4	-0.008165289
104	0x3a41e658	0.00073966896
105	0xbc172457	-0.009224973
106	0x3c90e004	0.017684944
107	0x3c3025fd	0.010751245
108	0x3ce5cadf	0.028050838
109	0xbc47e205	-0.012199883
110	0x3cca4614	0.024691619
111	0xbbd88fc6	-0.006608936
112	0xbc1dfc06	-0.009642607
113	0x3cb3fdaa	0.021971542
114	0x3bce5c18	0.0062975995
115	0x3cb5adac	0.02217754
116	0x3c906f52	0.017631207
117	0xbbe4e225	-0.0069849663
118	0x3c92c03c	0.01791393
119	0x3ba029e9	0.0048878086
120	0xbc7960cd	-0.015220833
121	0xb858a791	-5.165447e-05
122	0x3b855616	0.0040691
123	0xba7c468e	-0.00096235506
124	0x3b820bef	0.0039687078
125	0xbbc9bd9a	-0.0061566355
126	0xbb6b7e80	-0.0035933554
127	0x3c1ca355	0.009560426

action_model._continuous_distribution.mu.weight f4 [1, 128]
0	0xbca9adf5	-0.020712832
1	0xbd04edae	-0.03245323
2	0xbd80c129	-0.062868424
3	0xbce2dc94	-0.02769307
4	0xbd113793	-0.03545339
5	0x3d2f8a77	0.04285666
6	0xbc673d3e	-0.014113722
7	0xbcabae00	-0.020956993
8	0xbbaf82d0	-0.0053561702
9	0xbce49e23	-0.027907437
10	0xbcb68dbe	-0.022284385
11	0xbc5e96ee	-0.013585789
12	0xbc360eb7	-0.011111907
13	0xbcbd1481	-0.023081066
14	0x3d119c55	0.03554948
15	0xbbcc8ed1	-0.006242611
16	0xbcb85132	-0.022499654
17	0x3c381abb	0.011236842
18	0xbd18cb00	-0.03730297
19	0xbcc137b8	-0.02358614
20	0x3ce952bd	0.028481835
21	0x3c93c8e1	0.018040122
22	0x3d6baa78	0.05753562
23	0xbd2901a7	-0.04126134
24	0x3c8d9b67	0.017286016
25	0x3c803a0d	0.01565268
26	0x3ceee94d	0.02916398
27	0x3caf2f0a	0.021384735
28	0x3ce7c823	0.028293675
29	0xbcb04288	-0.0215161
30	0xbd249a10	-0.040185988
31	0x3d2e4300	0.042544365
32	0x3c1c7bb8	0.009550981
33	0x3c63eef3	0.01391195
34	0x3c991675	0.018687466
35	0xbad81b31	-0.0016487596
36	0x3d887548	0.066629946
37	0x3d332c00	0.043743134
38	0xbd018482	-0.03162051
39	0xbd8c10ca	-0.0683914
40	0xbd52ac66	-0.051433943
41	0x3ca1453d	0.019686336
42	0xbbb5cac6	-0.005547854
43	0x3ce67306	0.02813102
44	0x3cb00f23	0.021491593
45	0x3c71ff76	0.014770379
46	0xbc972dd9	-0.018454479
47	0x3d0ce322	0.0343963
48	0xbce20641	-0.027590873
49	0xbd36fbb4	-0.044673637
50	0xbbea5aa6	-0.0071519194
51	0xbbc8a189	-0.006122772
52	0x3c502f21	0.012706549
53	0x3ced19da	0.028942991
54	0x3b986107	0.0046502384
55	0xbc8afafd	-0.016965384
56	0xbc82b977	-0.015957577
57	0xbcc16a0c	-0.023610137
58	0x3d2e8c8c	0.042614505
59	0xbd181303	-0.037127506
60	0x3ba55cf4	0.0050464813
61	0xbcea7774	-0.028621413
62	0xbbe1b67d	-0.0068882094
63	0xbb525bd6	-0.0032098196
64	0xbb3ca7e2	-0.002878659
65	0x3d38e9eb	0.045144957
66	0x3ca1e620	0.019763052
67	0x3ae9d3ea	0.0017839645
68	0xbce5d68b	-0.028056404
69	0xbc892c3f	-0.016744731
70	0x3c898661	0.01678771
71	0xbd52661c	-0.05136691
72	0xbcacd62d	-0.02109822
73	0x3d151608	0.036397964
74	0xbbbc337b	-0.0057434416
75	0xbc8ad98e	-0.016949441
76	0x3cce5ffd	0.025192255
77	0x3ce86d96	0.028372567
78	0xbc7fb6b8	-0.015607528
79	0xbc9a7e5f	-0.018859087
80	0xbcfc04dc	-0.030764036
81	0x3cc24b36	0.023717504
82	0xbc528568	-0.012849189
83	0xbbd9d1a1	-0.006647304
84	0xbd2eb5da	-0.042653896
85	0xbd168d0c	-0.036755607
86	0xbcf7b5fc	-0.030238144
87	0xbd650d59	-0.055920932
88	0xbca7774a	-0.020442624
89	0x3cc7131a	0.0243011
90	0x3c2316ad	0.009954137
91	0xbc6caad7	-0.014445028
92	0x3cdfd116	0.02732138
93	0x3bcf0d60	0.006318733
94	0xbc196a68	-0.009363748
95	0xbbdd9251	-0.006761827
96	0x3ca998bc	0.020702712
97	0x3aae4b13	0.001329752
98	0xbc1975fb	-0.009366508
99	0x3c05e1b2	0.008171486
100	0x3cb122fa	0.021623123
101	0x3ce8d218	0.028420493
102	0x3d350ab7	0.04419967
103	0xba53d5b8	-0.0008080858
104	0x3cfaa0de	0.030594286
105	0xbc2d51a7	-0.0105785495
106	0x3d03c6a8	0.032171875
107	0x3cf0e274	0.029404856
108	0x3d49536b	0.04915182
109	0xbc332021	-0.010932953
110	0x3d3c7257	0.04600748
111	0xbc392b3d	-0.011301813
112	0xbc83ec11	-0.016103776
113	0x3d2071e8	0.03917113
114	0x3c855394	0.016275205
115	0x3cf85294	0.030312814
116	0x3d0246e2	0.03180588
117	0xbc013187	-0.007885343
118	0x3c9f49e9	0.019444423
119	0xbcf46aa0	-0.029835999
120	0xbb2fa4f4	-0.00268012
121	0xbd01a0d6	-0.031647526
122	0xbca756df	-0.020427166
123	0x3bd6d4de	0.0065561375
124	0xbcc282af	-0.023743955
125	0xbd35daaa	-0.044397987
126	0xbc929e2b	-0.017897686
127	0x3c94d703	0.018168932

action_model._discrete_distribution.branches.0.weight f4 [1, 128]
0	0xbb84797b	-0.004042802
1	0xbc9c341b	-0.019067815
2	0xbbf9352f	-0.007605217
3	0x3b553462	0.0032532443
4	0xbc68c548	-0.014207192
5	0x3c4d2f60	0.012523502
6	0xbc35ca2b	-0.011095564
7	0x3b7396fa	0.0037168846
8	0x3b83e32a	0.004024883
9	0x3ba53d23	0.0050426885
10	0x3a2d322a	0.00066069013
11	0x3ba9cd8b	0.0051819733
12	0x3b2660ab	0.0025387208
13	0x3b9021aa	0.0043985443
14	0x3b2ddf5d	0.002653084
15	0xbc250d77	-0.010074011
16	0xbb897a98	-0.0041955225
17	0x3b5f0b02	0.003403366
18	0x3b497326	0.00307388
19	0xba78b670	-0.00094876345
20	0x3c3f8477	0.011689297
21	0xb977c592	-0.00023629356
22	0xbb9adab3	-0.004725778
23	0xbc46a717	-0.012124798
24	0x3b96ca64	0.0046017636
25	0xbc111573	-0.008855212
26	0xbc109cb8	-0.008826427
27	0x3aac5485	0.0013147747
28	0xbb99106b	-0.0046711466
29	0xbbf20c62	-0.00738673
30	0x3c91ad1f	0.017782746
31	0xb926b217	-0.00015897337
32	0x3b0e6f1b	0.0021733704
33	0xbbf389f2	-0.007432216
34	0x3c12682f	0.008935972
35	0x3a96beeb	0.001150099
36	0xbc354449	-0.011063644
37	0xbacf51e8	-0.0015817257
38	0x3c860734	0.016360857
39	0x3c6d4c4f	0.014483525
40	0xbce8b017	-0.028404279
41	0xbc0d92a5	-0.00864092
42	0x3c035e52	0.008018093
43	0xbc2c0de7	-0.010501361
44	0x3b3a76f1	0.0028452242
45	0x3be647fa	0.0070276232
46	0x3b8e2c1f	0.0043387557
47	0xbb1d088e	-0.0023961398
48	0x3b0fc280	0.0021936
49	0xbb879e02	-0.004138709
50	0xbc2d087b	-0.010561104
51	0x3c0ed9b7	0.008718899
52	0x3c8ec9bb	0.017430177
53	0x3c7785ea	0.015107611
54	0xba899b57	-0.0010498565
55	0x3c21097d	0.009828922
56	0xbb6e550a	-0.0036366605
57	0x3b4c1f6e	0.0031146663
58	0x3b4ebd4d	0.0031545938
59	0xbc2c5d6e	-0.010520322
60	0x3ace0747	0.0015718722
61	0xbcd240c2	-0.025665645
62	0xbc59b252	-0.013287144
63	0xbbc15be9	-0.005900849
64	0xbb9a180f	-0.004702575
65	0xbc6c4b4b	-0.014422248
66	0xbb8d1826	-0.0043058572
67	0x3bfdbb1a	0.0077432515
68	0x3c62a983	0.01383436
69	0x3c8e2ef7	0.017356379
70	0x3b97b416	0.004629622
71	0xbc1096f9	-0.008825057
72	0xbc09fe32	-0.008422421
73	0xb9abb4eb	-0.00032750456
74	0xbc0a98c2	-0.008459272
75	0xbc971daf	-0.018446771
76	0xbcacdabb	-0.021100393
77	0x3b8ebc69	0.0043559563
78	0x3b7b4a55	0.0038343866
79	0x3bf3f747	0.0074452492
80	0x3be4e8f2	0.006985777
81	0xbbaf0153	-0.005340734
82	0x3b62b6cd	0.003459382
83	0xbc3e5c63	-0.011618706
84	0xbbad2c02	-0.005284787
85	0x3b6e99cf	0.0036407595
86	0x3c2d1a1d	0.010565308
87	0x3b60acca	0.0034282678
88	0xbb9b0a1b	-0.0047314293
89	0xba932b24	-0.0011228067
90	0xb985753b	-0.0002545508
91	0xbcaec608	-0.021334663
92	0xbc0657c2	-0.008199634
93	0x3b247926	0.0025096624
94	0xbac70fc7	-0.0015187197
95	0xbc98a717	-0.018634362
96	0x3c1a8297	0.009430549
97	0x3b4a1c57	0.0030839646
98	0x3c32c120	0.010910302
99	0xbc2f8949	-0.010713884
100	0xbc1b907c	-0.009494897
101	0x3c25a4ca	0.01011009
102	0x3c06c71c	0.008226182
103	0x3bd470b8	0.0064831637
104	0x3b91c0de	0.0044480404
105	0xbc0ff32d	-0.008786005
106	0x3c40ca37	0.011766962
107	0x3badd490	0.0053048804
108	0x3c56fb2f	0.01312141
109	0x3c4a0d8e	0.012332333
110	0x3ca3eac7	0.020009411
111	0xbc112f95	-0.008861442
112	0x3bccaf1c	0.0062464606
113	0x3b226803	0.0024781234
114	0xbc0fba1f	-0.008772402
115	0x399a780d	0.00029462614
116	0xbc0be7cd	-0.008539152
117	0x3a07462b	0.0005160297
118	0xbc34e5c3	-0.011041108
119	0x3bf7c188	0.0075609125
120	0xbb8cec3a	-0.0043006213
121	0x3b0b49cd	0.0021253705
122	0x3bf0beab	0.007346948
123	0xbb98d787	-0.0046643647
124	0x3c8d8162	0.017273609
125	0x3c4c8e2f	0.012485071
126	0xbb0ba23c	-0.0021306416
127	0xbc601a57	-0.013678155

exp_avg f4 [128, 12]
0	0x38537a76	5.042037e-05
1	0x38537177	5.0411993e-05
2	0xb8538857	-5.0433297e-05
3	0xb85388ff	-5.0433908e-05
4	0x380e31ae	3.3901706e-05
5	0xb8682b68	-5.5353536e-05
6	0x00000000	0.0
7	0x383bcfba	4.4777735e-05
8	0xb84428b4	-4.676795e-05
9	0x37a64e65	1.9825247e-05
10	0x3369a3c8	5.4398498e-08
11	0x3369a3c8	5.4398498e-08
12	0xb7bcaf3c	-2.2492946e-05
13	0xb7bc61ea	-2.2456941e-05
14	0x37bc9697	2.248147e-05
15	0x37bc9bd1	2.2483904e-05
16	0x38a58329	7.8922436e-05
17	0x39013215	0.00012321056
18	0x00000000	0.0
19	0x38543f4c	5.060369e-05
20	0xb877b072	-5.9053717e-05
21	0x35c760d4	1.4854836e-06
22	0xb4f66281	-4.5892742e-07
23	0xb4f66281	-4.5892742e-07
24	0x3649c97c	3.0068613e-06
25	0x364ae547	3.0233803e-06
26	0xb64a7304	-3.0167294e-06
27	0xb64a5fd2	-3.015612e-06
28	0xb75ba2d6	-1.309133e-05
29	0x38e5168b	0.0001092377
30	0x00000000	0.0
31	0xb7116cf8	-8.668045e-06
32	0xb758c253	-1.2919848e-05
33	0x371d2cf8	9.368399e-06
34	0xb473305f	-2.2648736e-07
35	0xb473305f	-2.2648736e-07
36	0x3806d846	3.214951e-05
37	0x3806d993	3.215072e-05
38	0xb806e4e3	-3.2161257e-05
39	0xb806e4d3	-3.21612e-05
40	0x38187044	3.634418e-05
41	0xb7f061a1	-2.8655691e-05
42	0x00000000	0.0
43	0x38261961	3.960112e-05
44	0xb658cd5d	-3.2306045e-06
45	0x382d342b	4.1295e-05
46	0xb3667fac	-5.3667165e-08
47	0xb3667fac	-5.3667165e-08
48	0xb8f7508c	-0.00011792881
49	0xb8f744ff	-0.00011790729
50	0x38f7603b	0.00011795802
51	0x38f76108	0.00011795951
52	0xb8e47e95	-0.00010895465
53	0x3944bc8e	0.00018762259
54	0x00000000	0.0
55	0xb90525a8	-0.00012697896
56	0xb7aa5069	-2.0303023e-05
57	0xb785af7f	-1.5936557e-05
58	0xb423b43c	-1.5246127e-07
59	0xb423b43c	-1.5246127e-07
60	0x37a4ddda	1.9653631e-05
61	0x37a4d384	1.9648818e-05
62	0xb7a4e6f0	-1.9657862e-05
63	0xb7a4e7b2	-1.9658215e-05
64	0xb78e11d8	-1.6936028e-05
65	0xb83ce94f	-4.503998e-05
66	0x00000000	0.0
67	0xb6ad7851	-5.1698084e-06
68	0xb6cc2948	-6.0844795e-06
69	0x35d479b7	1.5830655e-06
70	0x3334b80f	4.2076916e-08
71	0x3334b80f	4.2076916e-08
72	0xb8830e48	-6.249227e-05
73	0xb8830393	-6.2472325e-05
74	0x38831430	6.250327e-05
75	0x388314e9	6.2504616e-05
76	0x383b3b7e	4.463968e-05
77	0x3924b047	0.00015705927
78	0x00000000	0.0
79	0x371fd911	9.527678e-06
80	0xb7efefba	-2.8602652e-05
81	0x38788edb	5.9260852e-05
82	0xb451bef1	-1.9534106e-07
83	0xb451bef1	-1.9534106e-07
84	0x38dafab8	0.0001044175
85	0x38dafaae	0.00010441743
86	0xb8db0e1a	-0.000104453604
87	0xb8db0e20	-0.00010445365
88	0xb8f21ba3	-0.00011544607
89	0xb911a293	-0.00013888841
90	0x00000000	0.0
91	0xb8436241	-4.658313e-05
92	0x388d575e	6.739677e-05
93	0x3852fb7e	5.0302122e-05
94	0xb4012d03	-1.2030436e-07
95	0xb4012d03	-1.2030436e-07
96	0xb871e58a	-5.7672652e-05
97	0xb871de6a	-5.7666017e-05
98	0x3871f721	5.7689034e-05
99	0x3871f79c	5.768948e-05
100	0xb89343bb	-7.022122e-05
101	0x35ec0cbd	1.7587078e-06
102	0x00000000	0.0
103	0xb89ce2a8	-7.480878e-05
104	0x387bebbd	6.006261e-05
105	0x37a641b8	1.9819345e-05
106	0xb2ba3bf9	-2.1680522e-08
107	0xb2ba3bf9	-2.1680522e-08
108	0xb852693e	-5.0165916e-05
109	0xb852338f	-5.011592e-05
110	0x38525f15	5.0156454e-05
111	0x385262b3	5.0159822e-05
112	0xb99cda99	-0.00029917507
113	0x3a13193e	0.00056113664
114	0x00000000	0.0
115	0xb97f91d5	-0.00024373022
116	0x392b1982	0.00016317333
117	0x3809a62d	3.281811e-05
118	0xb5258411	-6.165947e-07
119	0xb5258411	-6.165947e-07
120	0x37839cca	1.5689428e-05
121	0x378385ab	1.5678661e-05
122	0xb7839c10	-1.568909e-05
123	0xb7839da0	-1.5689817e-05
124	0x38073f25	3.2245316e-05
125	0xb899c883	-7.332957e-05
126	0x00000000	0.0
127	0x37fd709e	3.0212392e-05
128	0xb7b49f0b	-2.1531732e-05
129	0x372ff4d6	1.0487818e-05
130	0x34082737	1.2680253e-07
131	0x34082737	1.2680253e-07
132	0x394f6524	0.00019778736
133	0x394f5ee4	0.00019776408
134	0xb94f7425	-0.00019784326
135	0xb94f7496	-0.0001978449
136	0xb7d7ce56	-2.572608e-05
137	0x38f8ab8f	0.00011857517
138	0x00000000	0.0
139	0x386d205b	5.6535337e-05
140	0x38b9a3e4	8.8520144e-05
141	0x390b64b9	0.00013293595
142	0x33b14b7a	8.255934e-08
143	0x33b14b7a	8.255934e-08
144	0xb7c528b7	-2.350319e-05
145	0xb7c52011	-2.3499162e-05
146	0x37c53595	2.3509181e-05
147	0x37c5362b	2.3509454e-05
148	0x36de1116	6.6181046e-06
149	0x38099695	3.2803586e-05
150	0x00000000	0.0
151	0xb687e09b	-4.049461e-06
152	0x37973fe5	1.8030356e-05
153	0x37dd4db3	2.6381435e-05
154	0xb2e2f9e1	-2.6423495e-08
155	0xb2e2f9e1	-2.6423495e-08
156	0x36f32f2a	7.247455e-06
157	0x36f44801	7.280149e-06
158	0xb6f3dab8	-7.2674266e-06
159	0xb6f3c7d2	-7.2652265e-06
160	0xb78ddc44	-1.6911079e-05
161	0x395804cf	0.00020601157
162	0x00000000	0.0
163	0xb7262f03	-9.905317e-06
164	0xb7c1d2a4	-2.310548e-05
165	0x37a05eb4	1.9117586e-05
166	0xb4f170ef	-4.4971918e-07
167	0xb4f170ef	-4.4971918e-07
168	0xb7974f30	-1.8037477e-05
169	0xb7978c5c	-1.8065963e-05
170	0x37977d40	1.8058927e-05
171	0x37977920	1.8057006e-05
172	0x37e395c8	2.7130256e-05
173	0xb8a7f8d1	-8.009526e-05
174	0x00000000	0.0
175	0x37616e57	1.3436736e-05
176	0x37807168	1.5311598e-05
177	0xb791236e	-1.7301845e-05
178	0x34d9a74c	4.0541124e-07
179	0x34d9a74c	4.0541124e-07
180	0xb79ce542	-1.8703406e-05
181	0xb79ce727	-1.8704288e-05
182	0x379cf42e	1.8710354e-05
183	0x379cf41b	1.871032e-05
184	0x37498b95	1.2013033e-05
185	0x387c294e	6.011995e-05
186	0x00000000	0.0
187	0x35f6a6ee	1.8377011e-06
188	0x370247bf	7.7653085e-06
189	0x3597ebfc	1.1319057e-06
190	0x330f9baa	3.3436358e-08
191	0x330f9baa	3.3436358e-08
192	0xb8462c79	-4.7248297e-05
193	0xb84633c2	-4.7255082e-05
194	0x384641ea	4.7268266e-05
195	0x38464171	4.7267826e-05
196	0xb7b15eaf	-2.1144135e-05
197	0xb7a83060	-2.0049687e-05
198	0x00000000	0.0
199	0xb80e903e	-3.3989774e-05
200	0x376fba20	1.4288846e-05
201	0x36df2461	6.650153e-06
202	0x341ddd96	1.4702377e-07
203	0x341ddd96	1.4702377e-07
204	0xb6efe7c2	-7.149735e-06
205	0xb6f03a2d	-7.15933e-06
206	0x36f02924	7.1573468e-06
207	0x36f02361	7.156676e-06
208	0xb7e92b98	-2.7796064e-05
209	0xb8a54a4b	-7.881651e-05
210	0x00000000	0.0
211	0xb7c5f969	-2.360037e-05
212	0xb7c9491b	-2.399511e-05
213	0xb80ce1d5	-3.3588924e-05
214	0x34147b8b	1.3828519e-07
215	0x34147b8b	1.3828519e-07
216	0x380c2f7c	3.3422824e-05
217	0x380c4f8e	3.3452692e-05
218	0xb80c4cfa	-3.345029e-05
219	0xb80c4ad2	-3.3448283e-05
220	0x38b2e02b	8.529456e-05
221	0x391b1067	0.00014788062
222	0x00000000	0.0
223	0x38a11ce9	7.682463e-05
224	0xb7af7ca5	-2.0919668e-05
225	0x372b8644	1.0223655e-05
226	0xb4ed47bc	-4.4196884e-07
227	0xb4ed47bc	-4.4196884e-07
228	0x37a72d49	1.9929039e-05
229	0x37a71dab	1.9921767e-05
230	0xb7a733b8	-1.9932035e-05
231	0xb7a734ce	-1.993254e-05
232	0x37b214d4	2.1228952e-05
233	0xb831518a	-4.2276028e-05
234	0x00000000	0.0
235	0x37c5bc9f	2.3572064e-05
236	0x34b7b997	3.422144e-07
237	0x37e35a91	2.7102682e-05
238	0x33a13515	7.506802e-08
239	0x33a13515	7.506802e-08
240	0xb7ef2df6	-2.8512422e-05
241	0xb7ef3a45	-2.8518154e-05
242	0x37ef49b4	2.852534e-05
243	0x37ef48dd	2.852495e-05
244	0xb862553a	-5.3961972e-05
245	0xb8c8865b	-9.561769e-05
246	0x00000000	0.0
247	0xb857b415	-5.142771e-05
248	0x37e0f80b	2.6818385e-05
249	0xb718ca16	-9.106958e-06
250	0x33ee9d65	1.11113685e-07
251	0x33ee9d65	1.11113685e-07
252	0xb7ceb29c	-2.4640285e-05
253	0xb7ce839b	-2.4618397e-05
254	0x37ceabca	2.463711e-05
255	0x37ceaef9	2.4638592e-05

exp_avg_sq f4 [128, 12]
0	0x315a7883	3.1791678e-09
1	0x315a889b	3.1800826e-09
2	0x315ab0b1	3.1823613e-09
3	0x315aafa7	3.1823022e-09
4	0x31191f5a	2.2282252e-09
5	0x30f4ff5e	1.7825916e-09
6	0x00000000	0.0
7	0x3155eba3	3.1129523e-09
8	0x30e5423c	1.6680768e-09
9	0x30d53598	1.5513022e-09
10	0x297b005f	5.5733518e-14
11	0x297b005f	5.5733518e-14
12	0x3304587b	3.0814117e-08
13	0x33046717	3.0827405e-08
14	0x33048451	3.0853986e-08
15	0x3304835b	3.0853112e-08
16	0x333a4319	4.3367525e-08
17	0x33562c2e	4.986594e-08
18	0x00000000	0.0
19	0x3349dc49	4.6999308e-08
20	0x3337ac1a	4.2764533e-08
21	0x32879e54	1.5788068e-08
22	0x2bbb601f	1.3313828e-12
23	0x2bbb601f	1.3313828e-12
24	0x317b6f05	3.6588415e-09
25	0x317b6aa3	3.6585923e-09
26	0x317bb178	3.6626187e-09
27	0x317bb1bf	3.6626344e-09
28	0x3199ba9e	4.474102e-09
29	0x31b86cf1	5.36749e-09
30	0x00000000	0.0
31	0x31a481f6	4.787803e-09
32	0x31adbb9f	5.0562927e-09
33	0x31572778	3.1309053e-09
34	0x2a78bce3	2.2092358e-13
35	0x2a78bce3	2.2092358e-13
36	0x316ad563	3.4172778e-09
37	0x316add86	3.4177403e-09
38	0x316b1b44	3.42125e-09
39	0x316b1ab9	3.421219e-09
40	0x31a9f9d2	4.9469486e-09
41	0x31d33c25	6.147746e-09
42	0x00000000	0.0
43	0x31afd6e2	5.1175997e-09
44	0x31b76a53	5.3380886e-09
45	0x3100321d	1.8654938e-09
46	0x2a2a6e4a	1.5137297e-13
47	0x2a2a6e4a	1.5137297e-13
48	0x32bbb5ac	2.185228e-08
49	0x32bbcb98	2.1862249e-08
50	0x32bbeda5	2.1877733e-08
51	0x32bbec28	2.1877057e-08
52	0x32d8c8db	2.5237048e-08
53	0x32f5be14	2.8608191e-08
54	0x00000000	0.0
55	0x32ffd246	2.9781528e-08
56	0x32c5e615	2.3038448e-08
57	0x31faf1a5	7.3034294e-09
58	0x2b21bd0f	5.746106e-13
59	0x2b21bd0f	5.746106e-13
60	0x3120291a	2.3306428e-09
61	0x3120168d	2.3295883e-09
62	0x312049c0	2.3324986e-09
63	0x31204afc	2.3325688e-09
64	0x31168940	2.190589e-09
65	0x30e57452	1.6695003e-09
66	0x00000000	0.0
67	0x313d8ada	2.7582048e-09
68	0x30c0f2ea	1.4038879e-09
69	0x30c379ba	1.4222714e-09
70	0x2987c26b	6.0289305e-14
71	0x2987c26b	6.0289305e-14
72	0x32d0b918	2.4298558e-08
73	0x32d0943e	2.42818e-08
74	0x32d0ddd4	2.4315263e-08
75	0x32d0e058	2.4316407e-08
76	0x32c90baf	2.3404793e-08
77	0x32cb6c27	2.3681492e-08
78	0x00000000	0.0
79	0x32f58bde	2.8585358e-08
80	0x32d9233e	2.5278151e-08
81	0x32a5af5c	1.9288272e-08
82	0x2b8266eb	9.265621e-13
83	0x2b8266eb	9.265621e-13
84	0x32c8401e	2.3312221e-08
85	0x32c854c7	2.3321617e-08
86	0x32c87669	2.3336911e-08
87	0x32c87510	2.3336298e-08
88	0x32ff8748	2.9747426e-08
89	0x330334c4	3.0548804e-08
90	0x00000000	0.0
91	0x3307c0b0	3.1607385e-08
92	0x32f68037	2.8696475e-08
93	0x32a94428	1.9705183e-08
94	0x2b345175	6.406189e-13
95	0x2b345175	6.406189e-13
96	0x31b84c94	5.3638107e-09
97	0x31b82a04	5.3598814e-09
98	0x31b875f1	5.368513e-09
99	0x31b87849	5.3687796e-09
100	0x31bd3e81	5.50773e-09
101	0x31b371d8	5.222528e-09
102	0x00000000	0.0
103	0x31eaa67e	6.8292243e-09
104	0x31ac8ecf	5.0220943e-09
105	0x318c9097	4.0909742e-09
106	0x2a773cba	2.1959076e-13
107	0x2a773cba	2.1959076e-13
108	0x337cc932	5.885631e-08
109	0x337ce029	5.8877195e-08
110	0x337d0fb6	5.8920442e-08
111	0x337d0e3b	5.8919095e-08
112	0x3396af04	7.0167545e-08
113	0x33a77048	7.796967e-08
114	0x00000000	0.0
115	0x33a47f97	7.6600536e-08
116	0x336c5ae2	5.503069e-08
117	0x33178471	3.5277882e-08
118	0x2c087954	1.9394113e-12
119	0x2c087954	1.9394113e-12
120	0x319b65ed	4.5226813e-09
121	0x319b7456	4.5243196e-09
122	0x319b9aa7	4.5286757e-09
123	0x319b99af	4.5285655e-09
124	0x31a50801	4.803042e-09
125	0x31bffc92	5.5875455e-09
126	0x00000000	0.0
127	0x31c84582	5.828668e-09
128	0x3188ee04	3.98518e-09
129	0x30d55917	1.5523111e-09
130	0x2a1a59d6	1.3709116e-13
131	0x2a1a59d6	1.3709116e-13
132	0x33aca4ee	8.039375e-08
133	0x33ac937e	8.036203e-08
134	0x33accfff	8.0472084e-08
135	0x33acd136	8.0474294e-08
136	0x33e260a6	1.0541525e-07
137	0x33f65491	1.147065e-07
138	0x00000000	0.0
139	0x33f4c38c	1.1397705e-07
140	0x33e56616	1.0682213e-07
141	0x334c1274	4.7514234e-08
142	0x2c5b4f2c	3.116572e-12
143	0x2c5b4f2c	3.116572e-12
144	0x310266df	1.8975965e-09
145	0x31023562	1.8947834e-09
146	0x310277ab	1.8985513e-09
147	0x31027afa	1.8987394e-09
148	0x316c97c5	3.442879e-09
149	0x3143fa9f	2.8518696e-09
150	0x00000000	0.0
151	0x313b2756	2.7234441e-09
152	0x317621d6	3.5816945e-09
153	0x315e74dd	3.237168e-09
154	0x2a1e14f4	1.4040489e-13
155	0x2a1e14f4	1.4040489e-13
156	0x322935e6	9.84935e-09
157	0x322945f7	9.853003e-09
158	0x322964a9	9.859982e-09
159	0x3229639b	9.859742e-09
160	0x324bc746	1.1861465e-08
161	0x32822ecd	1.5155274e-08
162	0x00000000	0.0
163	0x325f3843	1.2993101e-08
164	0x32578718	1.2545364e-08
165	0x31f97126	7.2597173e-09
166	0x2adc61da	3.9147749e-13
167	0x2adc61da	3.9147749e-13
168	0x315c90ea	3.2096588e-09
169	0x315c55cb	3.2062981e-09
170	0x315ca894	3.211004e-09
171	0x315cac92	3.2112308e-09
172	0x3185c3a7	3.8930525e-09
173	0x319aa501	4.5007487e-09
174	0x00000000	0.0
175	0x318f8e5f	4.1780335e-09
176	0x319a7e4a	4.4963473e-09
177	0x31a9898d	4.934185e-09
178	0x2a5e6c0d	1.9755049e-13
179	0x2a5e6c0d	1.9755049e-13
180	0x3192cbb3	4.272317e-09
181	0x3192d782	4.2736596e-09
182	0x3192f20b	4.2766763e-09
183	0x3192f144	4.276588e-09
184	0x31546b97	3.0911218e-09
185	0x318f37c1	4.1681862e-09
186	0x00000000	0.0
187	0x31879a52	3.9465613e-09
188	0x31259c3e	2.4099474e-09
189	0x311ec78a	2.310545e-09
190	0x29b9d838	8.2531584e-14
191	0x29b9d838	8.2531584e-14
192	0x309e2f45	1.1509448e-09
193	0x309dfb0e	1.1494607e-09
194	0x309e4d35	1.1517957e-09
195	0x309e50b7	1.1518954e-09
196	0x309081e5	1.0514297e-09
197	0x3048b2b4	7.301353e-10
198	0x00000000	0.0
199	0x30c058df	1.3995097e-09
200	0x3094b4ff	1.081986e-09
201	0x306de493	8.654492e-10
202	0x298d6f37	6.2809506e-14
203	0x298d6f37	6.2809506e-14
204	0x315194fd	3.0498193e-09
205	0x31517168	3.0477967e-09
206	0x3151cdc1	3.053046e-09
207	0x3151d029	3.0531828e-09
208	0x31418831	2.8162612e-09
209	0x31285332	2.4494509e-09
210	0x00000000	0.0
211	0x31783131	3.6116712e-09
212	0x314f748a	3.018871e-09
213	0x313eb7ef	2.7753193e-09
214	0x2a5a3432	1.9380398e-13
215	0x2a5a3432	1.9380398e-13
216	0x325e7724	1.294919e-08
217	0x325e94a3	1.2955897e-08
218	0x325ec24d	1.296628e-08
219	0x325ec050	1.29658275e-08
220	0x328b440a	1.621267e-08
221	0x329cde53	1.8261892e-08
222	0x00000000	0.0
223	0x329c43e4	1.8191663e-08
224	0x328a0553	1.6067736e-08
225	0x3219fc40	8.963127e-09
226	0x2b0dd453	5.038792e-13
227	0x2b0dd453	5.038792e-13
228	0x31320089	2.5902713e-09
229	0x31320fea	2.5911455e-09
230	0x31323513	2.5932578e-09
231	0x3132340a	2.593199e-09
232	0x319ca942	4.55944e-09
233	0x318fab4e	4.181323e-09
234	0x00000000	0.0
235	0x3196103d	4.3674206e-09
236	0x318755c3	3.938767e-09
237	0x310156ed	1.8821382e-09
238	0x29efc969	1.0648671e-13
239	0x29efc969	1.0648671e-13
240	0x312e16ac	2.533322e-09
241	0x312e1c36	2.5336369e-09
242	0x312e4492	2.535931e-09
243	0x312e4439	2.5359113e-09
244	0x3183c950	3.8354884e-09
245	0x31b7b5d9	5.3466747e-09
246	0x00000000	0.0
247	0x317fd801	3.7230168e-09
248	0x31974a9a	4.4031596e-09
249	0x313b94ef	2.729674e-09
250	0x2a13fe64	1.3144482e-13
251	0x2a13fe64	1.3144482e-13
252	0x3310e2d7	3.3733922e-08
253	0x3310f1fb	3.3747693e-08
254	0x33110b49	3.3770707e-08
255	0x33110a48	3.3769794e-08

exp_avg f4 [128]
0	0x372d3a60	1.0325195e-05
1	0xb8b653a1	-8.6940134e-05
2	0xb8340812	-4.292286e-05
3	0xb72aa8d6	-1.01721e-05
4	0xb7f22cd4	-2.8869523e-05
5	0x3705bde7	7.971633e-06
6	0xb81aee9f	-3.6938694e-05
7	0xb7bf8f80	-2.2835797e-05
8	0xb689cc6b	-4.1067156e-06
9	0xb8f520d0	-0.00011688622
10	0x37c9ad0d	2.404165e-05
11	0x3782f975	1.561337e-05
12	0xb6a7d994	-5.0023173e-06
13	0xb8b2c2f8	-8.524017e-05
14	0x38a11ca9	7.6824166e-05
15	0x36d4407f	6.3256007e-06
16	0x37ea067e	2.7897997e-05
17	0x37dc2450	2.6242953e-05
18	0xb8afac1f	-8.37671e-05
19	0x376e90f7	1.4219658e-05
20	0x37b0bb0c	2.1067935e-05
21	0xb8544628	-5.0610077e-05
22	0xb8c8954f	-9.564554e-05
23	0x3772dd01	1.44757805e-05
24	0x36fd1dd2	7.543459e-06
25	0x385b2803	5.2250933e-05
26	0xb7df8583	-2.6645843e-05
27	0xb834b8ff	-4.3087635e-05
28	0xb9401a3e	-0.00018320323
29	0x3616c3a3	2.2465617e-06
30	0xb84815e0	-4.770409e-05
31	0x373b95c1	1.1180936e-05
32	0x384ff4c8	4.9580616e-05
33	0xb53cdc4d	-7.035604e-07
34	0x37e2587e	2.6982507e-05
35	0xb6b8f9f2	-5.512725e-06
36	0x37b639c9	2.1722999e-05
37	0x37d61352	2.5519785e-05
38	0x37c6439b	2.363492e-05
39	0xb60e1206	-2.117014e-06
40	0x389cda59	7.47933e-05
41	0x379ad06d	1.8455286e-05
42	0xb7e31692	-2.7071019e-05
43	0xb7ba0de1	-2.217939e-05
44	0x383ff3d7	4.5765042e-05
45	0xb784f49f	-1.5849537e-05
46	0x38343563	4.2965064e-05
47	0xb87a7067	-5.9709328e-05
48	0xb80bc632	-3.3324766e-05
49	0x373a3d29	1.1100704e-05
50	0xb6e48acb	-6.811087e-06
51	0xb754e6f0	-1.2689954e-05
52	0x3871462d	5.7524234e-05
53	0x38cf55c0	9.886501e-05
54	0xb81b180a	-3.6977268e-05
55	0xb7362f89	-1.0859113e-05
56	0x38141c31	3.5312205e-05
57	0x3655a7f1	3.1837228e-06
58	0xb849f07a	-4.8146096e-05
59	0x371d1ec1	9.36509e-06
60	0xb83da7b6	-4.5217304e-05
61	0x37c8c38d	2.3932918e-05
62	0xb7e63bf2	-2.744605e-05
63	0x36eb78bb	7.0176006e-06
64	0xb74d0213	-1.2219435e-05
65	0x3741c9bc	1.1550666e-05
66	0xb6605f6c	-3.3434144e-06
67	0x37de7e52	2.6523285e-05
68	0xb75be8d0	-1.3107623e-05
69	0xb65e6e6a	-3.3144847e-06
70	0xb7aaca94	-2.0359912e-05
71	0xb6a2c7e0	-4.8512447e-06
72	0xb7e99947	-2.784714e-05
73	0xb3b83ff1	-8.5797986e-08
74	0x3807d663	3.238617e-05
75	0xb72d939b	-1.0345971e-05
76	0x37b5b84d	2.1662703e-05
77	0x384f51e7	4.9428923e-05
78	0xb89bb55c	-7.424757e-05
79	0xb5a5bf26	-1.234909e-06
80	0x37a88dab	2.009313e-05
81	0xb86f24f6	-5.7016463e-05
82	0x3741fb5c	1.1562221e-05
83	0x38635f0e	5.4209544e-05
84	0x369882aa	4.5451643e-06
85	0xb6338d88	-2.675546e-06
86	0xb8817b3e	-6.174155e-05
87	0x35ac9afc	1.2860105e-06
88	0x36455ff4	2.941114e-06
89	0xb840c5a2	-4.5960427e-05
90	0xb7fda67e	-3.023748e-05
91	0xb8e0951f	-0.00010708928
92	0xb7954d2b	-1.7798118e-05
93	0x3825002a	3.933922e-05
94	0xb902f29e	-0.00012488148
95	0xb8fb15af	-0.000119726516
96	0x3815567c	3.5604913e-05
97	0x37d35c00	2.5196001e-05
98	0xb82cf740	-4.1238265e-05
99	0xb899ea8f	-7.3392985e-05
100	0x37370e39	1.09109615e-05
101	0x3744f812	1.1740269e-05
102	0x381e3044	3.7715086e-05
103	0xb84e14a7	-4.913346e-05
104	0x38b3a1e5	8.56554e-05
105	0x38633495	5.416999e-05
106	0xb78a0060	-1.6451057e-05
107	0xb5082a8b	-5.0725856e-07
108	0xb71c4096	-9.313362e-06
109	0x38cd2bde	9.783333e-05
110	0x37a70f8e	1.9915195e-05
111	0xb817f6a7	-3.623092e-05
112	0xb7c989ed	-2.4025294e-05
113	0xb8ab5d5a	-8.1713035e-05
114	0xb85da24b	-5.2841653e-05
115	0xb87a7f49	-5.972319e-05
116	0x37ecc99b	2.8227272e-05
117	0x3885daec	6.3827116e-05
118	0xb6a92ccd	-5.041808e-06
119	0x36dc8b90	6.572758e-06
120	0xb690c716	-4.314711e-06
121	0x382f5fa7	4.1812335e-05
122	0x38049631	3.161113e-05
123	0xb819a5a1	-3.6632297e-05
124	0xb7572e7e	-1.2825823e-05
125	0xb836a951	-4.354987e-05
126	0xb7dd8abe	-2.640986e-05
127	0x3797975a	1.8071081e-05

exp_avg_sq f4 [128]
0	0x30b1b499	1.2929774e-09
1	0x32d292fe	2.4514062e-08
2	0x318eeb35	4.159484e-09
3	0x31432503	2.8397273e-09
4	0x32651387	1.3333994e-08
5	0x30a1bd59	1.1768108e-09
6	0x32a314b3	1.898511e-08
7	0x328f9658	1.671576e-08
8	0x317d9345	3.6900059e-09
9	0x334f34c0	4.824392e-08
10	0x312e20d8	2.5339002e-09
11	0x3372835d	5.646449e-08
12	0x314ef37e	3.0115355e-09
13	0x322791bd	9.753816e-09
14	0x31a9f61f	4.946528e-09
15	0x3119a5a8	2.2358595e-09
16	0x307085fe	8.7501906e-10
17	0x312249e1	2.3616098e-09
18	0x3220e2e4	9.364815e-09
19	0x3124e397	2.399451e-09
20	0x314022bd	2.7959424e-09
21	0x329976d9	1.786559e-08
22	0x32542eab	1.2350635e-08
23	0x327627d0	1.4328137e-08
24	0x32988871	1.7757175e-08
25	0x314d33e9	2.9860934e-09
26	0x32770b2a	1.4379831e-08
27	0x32e9a24e	2.7198578e-08
28	0x3338bcf6	4.3012697e-08
29	0x30173c46	5.5019134e-10
30	0x32d6fece	2.502875e-08
31	0x31dbcaec	6.3968084e-09
32	0x32328faa	1.0393629e-08
33	0x30f907ba	1.811933e-09
34	0x32f51f18	2.8535894e-08
35	0x30fbb660	1.8314488e-09
36	0x307fdd3e	9.3082864e-10
37	0x2fa64b38	3.024867e-10
38	0x31553939	3.1028107e-09
39	0x329803fb	1.7696939e-08
40	0x3217780e	8.816654e-09
41	0x329b7571	1.8097781e-08
42	0x30801606	9.319485e-10
43	0x30865f70	9.776908e-10
44	0x3163f889	3.3174123e-09
45	0x319d52c9	4.578713e-09
46	0x309b20fe	1.1287111e-09
47	0x3107ef0a	1.9780964e-09
48	0x31b920b9	5.3879288e-09
49	0x30df773f	1.6259277e-09
50	0x3177bb2e	3.604963e-09
51	0x308fd0a6	1.0463921e-09
52	0x320c3540	8.16118e-09
53	0x31949073	4.323789e-09
54	0x31ccccaa	5.960449e-09
55	0x32de3149	2.5866614e-08
56	0x32396557	1.0791459e-08
57	0x31429749	2.8316711e-09
58	0x300b5f73	5.0703547e-10
59	0x333635e0	4.2424176e-08
60	0x3300579b	2.9882e-08
61	0x314b6df7	2.9602896e-09
62	0x31ce705e	6.0081637e-09
63	0x314e19d7	2.9991634e-09
64	0x3034e151	6.580381e-10
65	0x300a26d2	5.0259275e-10
66	0x3160a6f3	3.269119e-09
67	0x30b645e9	1.3262113e-09
68	0x31421974	2.8245184e-09
69	0x305b71ec	7.983363e-10
70	0x309a9406	1.1247046e-09
71	0x30cd2d3f	1.4928573e-09
72	0x321ec288	9.241042e-09
73	0x3198c886	4.446579e-09
74	0x31f967d0	7.258656e-09
75	0x31558c55	3.107535e-09
76	0x33bc95fe	8.7817156e-08
77	0x318768b7	3.940922e-09
78	0x3338ecc1	4.3056165e-08
79	0x30918ccd	1.0590157e-09
80	0x3196a3b7	4.384187e-09
81	0x32aa27f2	1.980877e-08
82	0x3274d66b	1.4251422e-08
83	0x301d55f6	5.7238425e-10
84	0x3275110f	1.4264756e-08
85	0x31aa3f37	4.954838e-09
86	0x327dc3a3	1.4771021e-08
87	0x30d5c159	1.5552742e-09
88	0x30bfd0a2	1.3956376e-09
89	0x3257a2ca	1.2551661e-08
90	0x31a03e48	4.6636934e-09
91	0x32fbf34d	2.9330886e-08
92	0x3001aac1	4.717258e-10
93	0x30e40558	1.6590702e-09
94	0x323fedc1	1.1171722e-08
95	0x32e3f8fd	2.6539505e-08
96	0x30a9f7bb	1.2366778e-09
97	0x3220dfed	9.364141e-09
98	0x323e6236	1.1081786e-08
99	0x324b5c3a	1.1837125e-08
100	0x31b4d855	5.2632836e-09
101	0x32c1cc18	2.2560968e-08
102	0x323216dd	1.0366162e-08
103	0x30865242	9.773162e-10
104	0x31c3c2a8	5.697377e-09
105	0x3145a0c8	2.8758667e-09
106	0x3123f991	2.3861484e-09
107	0x30f300de	1.7680823e-09
108	0x307b3ff2	9.140414e-10
109	0x32eccabc	2.7566209e-08
110	0x3203396a	7.638258e-09
111	0x30ebb473	1.7149787e-09
112	0x32432f23	1.13612115e-08
113	0x3202cd9d	7.613747e-09
114	0x31b28146	5.1951785e-09
115	0x31ae9507	5.081009e-09
116	0x31332a2b	2.6071898e-09
117	0x333f7f9e	4.458672e-08
118	0x304be5a7	7.4177325e-10
119	0x3152b37b	3.0661045e-09
120	0x30934f36	1.0718171e-09
121	0x31e8e5fd	6.7782353e-09
122	0x31827218	3.796469e-09
123	0x325dd726	1.2912812e-08
124	0x32256db1	9.629205e-09
125	0x328e018a	1.6531676e-08
126	0x32b02101	2.0504105e-08
127	0x31d9f459	6.3433103e-09
