results/SliderBehavior-jgf-002/SliderBehavior/checkpoint.pt (torch, 448098 bytes, 41 tensors)

network_body.observation_encoder.processors.0.normalizer.running_mean f4 [6]
0	0xbdd8cd5a	-0.10586043
1	0xc059ba90	-3.4020119
2	0x00000000	0.0
3	0x3db758b6	0.08952467
4	0xc0bfff62	-5.9999247
5	0x00000000	0.0

network_body.observation_encoder.processors.0.normalizer.running_variance f4 [6]
0	0x496eee08	978656.5
1	0x48a07086	328580.2
2	0x3f800000	1.0
3	0x489be826	319297.2
4	0x42140190	37.001526
5	0x3f800000	1.0

network_body.processors.0.normalizer.running_mean f4 [6]
0	0xbdd8cd5a	-0.10586043
1	0xc059ba90	-3.4020119
2	0x00000000	0.0
3	0x3db758b6	0.08952467
4	0xc0bfff62	-5.9999247
5	0x00000000	0.0

network_body.processors.0.normalizer.running_variance f4 [6]
0	0x496eee08	978656.5
1	0x48a07086	328580.2
2	0x3f800000	1.0
3	0x489be826	319297.2
4	0x42140190	37.001526
5	0x3f800000	1.0

network_body._body_endoder.seq_layers.0.weight f4 [128, 6]
0	0x3f2560d1	0.64600855
1	0x3a9c5eb4	0.0011930079
2	0xbe462fca	-0.19354168
3	0xbeae58c3	-0.34052095
4	0xbe6fe827	-0.23428403
5	0x3d3b1a9c	0.045679674
6	0x3dd47711	0.103742726
7	0xbf2e77cc	-0.68151546
8	0xbf5b851c	-0.85749984
9	0xbd9bba2c	-0.07603869
10	0xbe119b33	-0.1421936
11	0x3eb9311b	0.36170277
12	0x3e37f624	0.17964989
13	0xbda39083	-0.07986548
14	0xbebf5315	-0.37368074
15	0xbec5281f	-0.38507172
16	0x3e9934c6	0.29923075
17	0x3f0f089e	0.55872524
18	0x3f744724	0.9542105
19	0xbd055b8c	-0.03255801
20	0x3b9e71dc	0.0048353504
21	0xbd2304ba	-0.03979943
22	0x3f538f0f	0.82640165
23	0xbed1d186	-0.40980166
24	0x3ea25d2a	0.31711704
25	0x3f2717fe	0.65270984
26	0x3f7a91e8	0.97878885
27	0xbdaeb5d1	-0.085307725
28	0xbf0469a6	-0.51723707
29	0xbd2281a2	-0.03967441
30	0x3e071344	0.13190943
31	0xbea493c7	-0.32143995
32	0xbf001488	-0.5003133
33	0xbd4f55a5	-0.050618786
34	0xbe818500	-0.25296783
35	0x3eba2248	0.3635428
36	0xbe871727	-0.2638485
37	0xbeb46190	-0.35230684
38	0x3e612be8	0.21989405
39	0x3f0d7ebd	0.5527151
40	0xbe7138fe	-0.23556897
41	0xbe2f4490	-0.17115998
42	0xbdd3fff4	-0.103515536
43	0xbeef4041	-0.4672871
44	0xbe67125a	-0.22565594
45	0xbf8641e9	-1.0488864
46	0xbeda2118	-0.42603374
47	0x3e92fdfb	0.28709397
48	0x3ed42470	0.4143405
49	0x3e3cb128	0.18426955
50	0x3f1157f6	0.5677484
51	0x3efea37e	0.4973411
52	0xbe555859	-0.20834483
53	0x3efb383b	0.49066338
54	0x3ba2ee95	0.004972289
55	0xbf5e6591	-0.8687373
56	0x3dbd034e	0.09229146
57	0xbe83e195	-0.25758043
58	0x3e8f1b56	0.27950543
59	0x3dd69a84	0.1047869
60	0xbb8cc56e	-0.0042959964
61	0xbd5057b5	-0.050864894
62	0xbee69b47	-0.45040342
63	0x3e9b15a7	0.30289957
64	0xbccd3bcf	-0.025052933
65	0x3d5040d2	0.050843067
66	0xbdfd57a6	-0.12370233
67	0x3e436d15	0.1908458
68	0xbe88e8d2	-0.26740128
69	0xbe740f79	-0.23834027
70	0x3e934043	0.28759965
71	0x3e29d711	0.16585948
72	0xbdec35dd	-0.11533711
73	0x3f38930b	0.7209937
74	0xbec006e2	-0.3750525
75	0xbf3e1f6e	-0.7426671
76	0x3eb82741	0.35967448
77	0x3eb1d74b	0.34734568
78	0xbfa32a7c	-1.274734
79	0x3e8856ab	0.26628622
80	0x3e203342	0.15644553
81	0xbcf91a74	-0.030408122
82	0x3e6bad8e	0.23015425
83	0xbc64960b	-0.013951789
84	0xbeb2921b	-0.34877095
85	0x3f194e5c	0.5988519
86	0x3ea99e40	0.33128548
87	0xbe860433	-0.2617508
88	0xbece2550	-0.40262842
89	0x3eba2786	0.3635828
90	0xbe012177	-0.12610422
91	0x3e335641	0.17513372
92	0x3f1c3cca	0.61030257
93	0xbe2cde63	-0.16881709
94	0xbed3de23	-0.41380414
95	0x3eb61a74	0.35567057
96	0x3d03db0e	0.03219133
97	0x3f03485e	0.512823
98	0x3e16bf7c	0.14721483
99	0xbdd7927c	-0.105259866
100	0x3f0e7ed4	0.55662274
101	0xbeb19ad9	-0.34688452
102	0x3f047cd5	0.5175298
103	0x3f1eb61b	0.6199662
104	0xbe2bf7d7	-0.16793762
105	0xbe10998c	-0.14121073
106	0xbe66890a	-0.22513214
107	0xbea5ce3d	-0.3238391
108	0x3e98d9b0	0.29853582
109	0xbde913dd	-0.11380742
110	0x3dac2c82	0.08406927
111	0x3fa83d4d	1.3143708
112	0xbef06c50	-0.46957636
113	0xbe26d0b2	-0.16290548
114	0x3bce3092	0.006292411
115	0x3e6cbc08	0.23118603
116	0xbeed6be1	-0.46371368
117	0x3df5b1d6	0.1199681
118	0xbe49c63b	-0.19704525
119	0xbeec251e	-0.46122068
120	0x3f216508	0.63044786
121	0xbf88d995	-1.0691401
122	0xbdc5d442	-0.096596256
123	0x3c2fb45a	0.0107241515
124	0x3d01b982	0.031671055
125	0xbeb0f5f6	-0.34562653
126	0x3f1fd13e	0.62428653
127	0xbebafa03	-0.3651887
128	0xbefd3f91	-0.4946256
129	0x3e49c931	0.19705655
130	0xbd762490	-0.060093462
131	0xbf09a88f	-0.53772825
132	0x3e418c90	0.18901277
133	0xbf1345f8	-0.5752864
134	0x3d6837f2	0.05669398
135	0x3ea92d65	0.33042446
136	0x3d2b4923	0.041817795
137	0x3ebdfa9a	0.37105256
138	0x3f52e772	0.8238441
139	0xbeadd4ef	-0.33951518
140	0x3e9e27f4	0.30889857
141	0x3eb49ae8	0.35274434
142	0x3e39a66a	0.18129888
143	0xbe58f583	-0.21187405
144	0xbeb2b2c1	-0.34902003
145	0x3f1ba525	0.60798866
146	0x3c8b5458	0.017007992
147	0x3e404dea	0.18779722
148	0x3db09937	0.086229734
149	0xbda08700	-0.07838249
150	0x3ded177a	0.115767434
151	0xbe19ad8c	-0.15007609
152	0xbf0a0e3a	-0.5392796
153	0x3d8aebbe	0.067832455
154	0xbeac3b05	-0.33638778
155	0xbe0359f5	-0.12827285
156	0xbebb1f0a	-0.36547118
157	0xbe4a6352	-0.1976445
158	0x3cf56812	0.029956851
159	0x3f01aac6	0.50651205
160	0xbe05cf61	-0.1306739
161	0xbf16a848	-0.58850527
162	0x3e1f99b4	0.15585977
163	0xbea7c02d	-0.32763806
164	0xbda05b21	-0.078298815
165	0x3e6dea05	0.23233803
166	0x3e759fb6	0.23986706
167	0x3ed919d2	0.42402512
168	0x3eb84bb6	0.35995263
169	0x3ec42c99	0.38315275
170	0x3e76e20b	0.24109666
171	0xbe1d29ff	-0.15348051
172	0x3ebf0c02	0.3731385
173	0x3f532ea5	0.8249305
174	0x3d67ac5f	0.05656087
175	0xbe5dc71f	-0.2165799
176	0x3f0a52f2	0.54032815
177	0x3e4610d2	0.19342354
178	0x3e681230	0.22663188
179	0xbf104445	-0.5635417
180	0xbcada764	-0.021197982
181	0xbe944fb0	-0.28967047
182	0x3de4e377	0.11176198
183	0x3e82d8bf	0.2555599
184	0xbebab56e	-0.36466545
185	0x3e4ef1f1	0.20209481
186	0xbf6b7100	-0.919693
187	0xbf24645e	-0.6421565
188	0xbed49f6a	-0.41527873
189	0x3e41f92b	0.18942706
190	0xbf4b44e3	-0.7940199
191	0xbefbedbe	-0.4920482
192	0x3e2564b0	0.1615169
193	0xbf81567a	-1.0104516
194	0xbf17f380	-0.59355927
195	0xbe3e604f	-0.18591426
196	0xbeb8fa39	-0.36128405
197	0xbddf235a	-0.10895415
198	0x3f478584	0.77938104
199	0xbeeccd90	-0.46250582
200	0x3e5a217b	0.21301834
201	0x3ecf649c	0.40506446
202	0xbf25f2f3	-0.64823836
203	0x3ead2de8	0.33824086
204	0xbf014916	-0.50502145
205	0xbd8d5dc1	-0.06902648
206	0x3b72da3f	0.0037056354
207	0x3e30c8a5	0.1726404
208	0xbec4bc94	-0.38425124
209	0xbf141e36	-0.578586
210	0x3e2e8192	0.17041615
211	0xbec398fd	-0.38202658
212	0xbed27249	-0.41102818
213	0x3e3516bb	0.17684452
214	0x3ec4166b	0.38298354
215	0xbf12240b	-0.5708625
216	0x3e331f4b	0.17492406
217	0xbe10ae69	-0.14129032
218	0xbf0dec8c	-0.55439067
219	0x3c8681f5	0.01641939
220	0xbdcd812d	-0.10034404
221	0xbe79b1a0	-0.24384165
222	0x3dabe2ea	0.0839289
223	0xbe5ec76a	-0.21755758
224	0xbf056d00	-0.52119446
225	0x3ee3babc	0.44478405
226	0xbe5937dc	-0.21212715
227	0xbec49fd8	-0.384032
228	0xbe359fe1	-0.1773677
229	0xbeff4ed8	-0.4986484
230	0x3f20f0ad	0.6286724
231	0x3e19bad4	0.15012676
232	0xbe0bc211	-0.13648249
233	0xbcacbeec	-0.021087132
234	0x3de143c6	0.10999255
235	0x3e75507b	0.23956482
236	0x3f08bd2b	0.5341365
237	0x3ea41893	0.3205
238	0xbc0cf4cd	-0.008603287
239	0x3f028a9d	0.5099276
240	0x3e8f559a	0.27994996
241	0xbba4c710	-0.005028613
242	0x3e3117ad	0.17294188
243	0xbd9311d9	-0.071811385
244	0x3efebbc3	0.49752626
245	0xbf08e4b2	-0.5347396
246	0xbe9267ed	-0.28594914
247	0xbe78198a	-0.24228492
248	0xbeb414d0	-0.3517213
249	0x3df37dbc	0.11889216
250	0x3e47b6d3	0.19503336
251	0x3e7295bb	0.2368993
252	0x3e0e361c	0.13887829
253	0xbec8bd71	-0.39207032
254	0x3e71d224	0.23615319
255	0x3e39efa3	0.1815782

network_body._body_endoder.seq_layers.0.bias f4 [128]
0	0x39f56f15	0.00046812804
1	0xb6a02647	-4.7728277e-06
2	0x38ee8c4c	0.00011374857
3	0xbad8371b	-0.0016495915
4	0x3a0c5f10	0.00053547416
5	0xb9807009	-0.00024497535
6	0xb8e7a1d7	-0.000110450834
7	0x38535915	5.0389284e-05
8	0x3a4d5d05	0.00078339904
9	0x394b7298	0.00019402278
10	0xbace545f	-0.0015741697
11	0x3a616cb3	0.00085992663
12	0xba5a499e	-0.000832701
13	0xb9eae8ac	-0.00044805312
14	0xb9b7de51	-0.0003507012
15	0xb981b842	-0.0002474208
16	0xbaca9925	-0.0015457018
17	0x3ac28d1e	0.0014843082
18	0xba3e440f	-0.00072580663
19	0xbb07c05a	-0.0020714016
20	0x3b0d6936	0.0021577603
21	0x3a1e0dd2	0.0006029281
22	0x3a5bd65a	0.0008386128
23	0x3b05f502	0.0020440225
24	0xba0c5f38	-0.0005354765
25	0x3ae0a3a2	0.001713861
26	0xbb150d78	-0.0022743624
27	0xba862b49	-0.0010236289
28	0x38a526be	7.8750294e-05
29	0xb9cec0c3	-0.00039435
30	0x3aaad54f	0.0013033542
31	0x3a708a58	0.0009175888
32	0x3a11709b	0.00055480906
33	0x3920ae37	0.00015323689
34	0x3a9cd99f	0.0011966712
35	0x3a77861e	0.0009442287
36	0x3a0e861d	0.00054368546
37	0xbad6689f	-0.0016358084
38	0xbb472dd3	-0.0030392304
39	0xb9eca66f	-0.0004513743
40	0x392dcaba	0.00016574087
41	0xbabec089	-0.001455323
42	0xbb2ab0e4	-0.0026045376
43	0xbb0348cb	-0.0020032402
44	0xbaa7a1fd	-0.0012789365
45	0xb91b041b	-0.00014783481
46	0xb9d06d0a	-0.00039754092
47	0xbae2c243	-0.0017300326
48	0x3a5759ce	0.0008214981
49	0xbb4b4d37	-0.0031021365
50	0xba745581	-0.00093206024
51	0x3b2c9596	0.0026334277
52	0xbabf9665	-0.0014616965
53	0x3aad81ad	0.0013237499
54	0x399393e6	0.00028148218
55	0x398f6e96	0.00027357478
56	0xb9995aa2	-0.0002924996
57	0x3a899fd9	0.0010499909
58	0xbb1968c6	-0.0023408397
59	0xbb20ed46	-0.0024555488
60	0x3a8b4a9a	0.0010627091
61	0xbae9f3c1	-0.0017849134
62	0x39e1be40	0.00043057092
63	0x382a2251	4.0563118e-05
64	0xba7f4e6f	-0.00097391655
65	0x3aa4d85c	0.0012576687
66	0xba61b90b	-0.00086106424
67	0x3a725d0a	0.0009245431
68	0xba7aea5d	-0.0009571666
69	0x39bb103e	0.0003567952
70	0x3984fcb5	0.00025365283
71	0x3a447dab	0.00074955326
72	0x3a9af106	0.0011821098
73	0x3b316eeb	0.002707417
74	0xba51bbf0	-0.0008000722
75	0x3b61c7ad	0.0034451291
76	0x3a447003	0.00074934977
77	0x3a09a2d1	0.0005250397
78	0x3af66f28	0.0018801438
79	0x3b159439	0.0022823943
80	0x39fd1e2b	0.00048278397
81	0xb9eb885e	-0.00044924294
82	0x3b530c6f	0.0032203456
83	0x39702d6d	0.00022905106
84	0x3a429b98	0.0007423698
85	0x399302b7	0.00028040048
86	0x3ab56f14	0.0013842308
87	0x395ff94c	0.00021359808
88	0x3b00a5d8	0.00196301
89	0x37fe0f5e	3.0286315e-05
90	0xbade9815	-0.001698258
91	0x3b0f0972	0.0021825698
92	0xb94c00f2	-0.00019455308
93	0x3a6dffd7	0.00090789556
94	0xbb3fea2a	-0.002928386
95	0xba2ec38f	-0.0006666714
96	0x3a1bb6ae	0.0005940002
97	0xba92881f	-0.0011179483
98	0x39a32351	0.00031116095
99	0xba101b9f	-0.000549728
100	0xb78308da	-1.5620539e-05
101	0x3b001f55	0.0019549925
102	0x39966237	0.00028683405
103	0xbaa1e14a	-0.0012350467
104	0x3aad9adb	0.0013245003
105	0x3992e89b	0.00028020595
106	0x3ac07009	0.0014681827
107	0x3966a2e3	0.0002199519
108	0x3a316359	0.0006766818
109	0x3ab7d13f	0.0014024152
110	0xb9e2b128	-0.0004323807
111	0x3a95454e	0.0011388452
112	0xb92d9313	-0.00016553355
113	0xb83f1256	-4.5555025e-05
114	0xbac7bfea	-0.001523969
115	0xbb3316d4	-0.002732684
116	0xbac2c9c0	-0.0014861152
117	0x3a02c691	0.0004988695
118	0xb9ddc74a	-0.00042300887
119	0x3b02d4bf	0.0019963232
120	0xb9e16276	-0.00042988703
121	0xbac88bdc	-0.001530047
122	0x38bf561f	9.123631e-05
123	0xb9ef35b9	-0.0004562566
124	0xbaef3ddb	-0.0018252687
125	0x3ac64137	0.0015125637
126	0x3a3fb521	0.0007313062
127	0x3b2237e7	0.0024752559

network_body._body_endoder.seq_layers.2.weight f4 [128, 128]
0	0xbd5347a3	-0.05158199
1	0x3c92155a	0.017832447
2	0xbe08db6f	-0.13364957
3	0x3ca0ab47	0.019612921
4	0xbb25a296	-0.002527391
5	0x3d8b97cb	0.068160616
6	0xbc877abb	-0.016538015
7	0x3e3561f1	0.17713143
8	0x3e52a032	0.20568922
9	0x3d672c87	0.05643895
10	0x3c5688dd	0.013094154
11	0x3dda4327	0.106573395
12	0xbd492bc3	-0.049114
13	0xbd66c32e	-0.05633848
14	0x3d1f0c65	0.03883018
15	0x3cd61fc9	0.026138203
16	0x3d8215d6	0.06351821
17	0xbc1b7f7f	-0.009490847
18	0x384421c1	4.6761477e-05
19	0xbc3d1942	-0.011541666
20	0x3e2109a5	0.15726335
21	0xbd041091	-0.03224236
22	0x3c6f4a45	0.01460511
23	0x3da20932	0.0791191
24	0x3d0a2ab1	0.03373212
25	0xbd5027d3	-0.05081923
26	0xbca8df12	-0.02061418
27	0x3d8c39a0	0.068469286
28	0x3c4dc779	0.012559765
29	0xbcf3f119	-0.02977805
30	0xbddc7002	-0.10763551
31	0xbe08e348	-0.13367951
32	0xbd07c9da	-0.033151485
33	0x3d4a16ee	0.049338274
34	0xbcb55374	-0.02213452
35	0xbb3421ad	-0.0027485893
36	0x3d9ac730	0.07557523
37	0xbd615438	-0.055011958
38	0x3bcc3ef3	0.00623309
39	0xbd8d1af4	-0.068899065
40	0xbd5fbd07	-0.05462363
41	0x3d7e8435	0.0621378
42	0xbd5d3d50	-0.05401355
43	0xbdb04175	-0.08606235
44	0xbb402a97	-0.002932226
45	0xbb95704b	-0.0045605055
46	0xbd826c4d	-0.06368313
47	0x3e05ae01	0.13054658
48	0x3e147b29	0.14500107
49	0xbd17051a	-0.0368701
50	0x3d9e3ea9	0.07726795
51	0x3dfa1a30	0.12212026
52	0x3e272981	0.16324426
53	0xbd5b98e1	-0.053612594
54	0xbdc3b2e1	-0.09555603
55	0xbd4f82fd	-0.05066203
56	0x3c42f62c	0.011899512
57	0x3dd1d079	0.10244841
58	0x3d9822a9	0.07428486
59	0xbd22815b	-0.039674144
60	0xbe2e537f	-0.17024039
61	0x3d10984b	0.035301488
62	0xbce031b4	-0.02736745
63	0x3d8e1c64	0.06939009
64	0x3ddf1ec5	0.10894541
65	0x3e7c5f02	0.24645618
66	0xbc1f625a	-0.009728039
67	0x3c67f6b7	0.0141579425
68	0xbc98cd11	-0.01865247
69	0xbdb89915	-0.09013573
70	0xbd8c9d47	-0.06865936
71	0x3d9d858b	0.07691487
72	0x3c810a4c	0.01575198
73	0x3c953df9	0.018218027
74	0xbc3c786a	-0.011503318
75	0xbd7ec93b	-0.062203627
76	0x3dbab24d	0.091160394
77	0x3d9b1451	0.075722344
78	0xba20df4f	-0.0006136791
79	0xbdc2707b	-0.0949411
80	0x3c953cdd	0.018217498
81	0xbd3bf7cd	-0.045890618
82	0xbe50e37d	-0.2039928
83	0xbe35f489	-0.17769064
84	0x3ce6ebbf	0.028188584
85	0xbd1630e2	-0.036667712
86	0x3dc0d687	0.09415918
87	0xbd5e154a	-0.05421952
88	0xbd2331b3	-0.03984232
89	0x3da0c056	0.07849185
90	0x3dde2a82	0.108479515
91	0xbca92d65	-0.020651529
92	0x3dccf956	0.100084946
93	0x3c84332b	0.01613768
94	0xbd9a50e9	-0.07534964
95	0x3d20df93	0.039275717
96	0x3d632f58	0.055465072
97	0xbc57a399	-0.013161563
98	0xbe3ad2fd	-0.18244548
99	0x3ceeb7ed	0.029140437
100	0xbcc37088	-0.02385737
101	0xbe2f9218	-0.17145574
102	0x3dd53ac4	0.10411599
103	0xbe70b771	-0.23507477
104	0x3d96e81c	0.0736849
105	0xbd9e798d	-0.07738028
106	0xbd2f5b8c	-0.042811915
107	0xbe2f7155	-0.17133076
108	0xbd4e3d38	-0.05035135
109	0x3d56ef7d	0.052474488
110	0x3da468d2	0.080278054
111	0xbe2ba228	-0.16761076
112	0xbb80a4b8	-0.003925886
113	0x3e01239a	0.12611237
114	0xbbd127b3	-0.0063829063
115	0x3c1b9b81	0.009497524
116	0x3e752597	0.2394012
117	0x3deecab1	0.11659754
118	0xbd7b1a57	-0.061304417
119	0xbd2f3fae	-0.04278534
120	0xbdfc7a23	-0.12327983
121	0xbd2c3d23	-0.042050492
122	0x3b3e177c	0.0029005697
123	0x3d8e8314	0.06958595
124	0x3d42f761	0.0475992
125	0xbdebdd0a	-0.11516769
126	0xbd94b679	-0.072613664
127	0x3e371743	0.17879967
128	0xbd9c3b9a	-0.076285556
129	0xbd591d15	-0.05300625
130	0x3e257025	0.16156061
131	0x3e922117	0.2854087
132	0xbca5b908	-0.020229831
133	0x3e28cb24	0.16483742
134	0xbd00acf1	-0.03141493
135	0x3d95e33f	0.073187344
136	0x3da4aaef	0.080404155
137	0x3d807b9a	0.06273575
138	0x3c657f2c	0.014007371
139	0x3da75046	0.08169608
140	0x3e084f3a	0.13311473
141	0x3d67cbba	0.056590773
142	0x3d16f77c	0.036857113
143	0x3defef9e	0.11715625
144	0x3bc842e7	0.006111491
145	0x3d0467e1	0.03232563
146	0x3d8b486b	0.06800922
147	0xbe1e2dda	-0.15447178
148	0xbd44811d	-0.047974695
149	0xbcff6ca5	-0.031179735
150	0xbcca33d5	-0.024682919
151	0x3dcf25a2	0.101146
152	0xbd299237	-0.041399207
153	0xbdc70b40	-0.09718943
154	0xbd03b051	-0.03215057
155	0xbd931dce	-0.07183419
156	0x3c561a3a	0.013067776
157	0xbdbf1746	-0.09330611
158	0x3d86d387	0.065833144
159	0xbdfe1ec4	-0.12408212
160	0xbe100e00	-0.1406784
161	0x3d0f1759	0.034934375
162	0x3d0d1000	0.034439087
163	0xbd4b14c9	-0.04958037
164	0xbda25a62	-0.079273954
165	0x3d8d0dfa	0.068874314
166	0xbdb8db39	-0.090261884
167	0xbcd4d59a	-0.02598076
168	0xbb1b15c2	-0.0023664092
169	0x3bf53e07	0.007484201
170	0x3d9688fe	0.07350348
171	0xbdd7de38	-0.10540432
172	0xbd2ab06c	-0.041672155
173	0x3d802d36	0.06258623
174	0xbde3f6ed	-0.11131082
175	0xbbc7c0e6	-0.0060959933
176	0xbd257ec5	-0.0404041
177	0x3e12aaad	0.1432292
178	0x3de4e3cd	0.11176262
179	0xbd38162e	-0.044943027
180	0xbe1654c1	-0.14680769
181	0x3cd5a420	0.026079237
182	0x3de119ad	0.109912254
183	0x3dbfc4c5	0.09363703
184	0xbd9ac429	-0.07556946
185	0x3c2962b7	0.010338477
186	0xbdcffa10	-0.101551175
187	0x3d59e5d0	0.053197682
188	0xbd643f6f	-0.055724557
189	0x3dde0cae	0.10842262
190	0xbd865c0a	-0.06560524
191	0xbdd80ed0	-0.105497
192	0x3dd97c09	0.10619361
193	0xbe13b907	-0.14426051
194	0xbb3b9e3e	-0.0028628255
195	0xbdadeb0e	-0.08492099
196	0xbdf22ce8	-0.118249714
197	0xbe38b685	-0.18038376
198	0x3c53d30f	0.012928738
199	0xbdf42e84	-0.11922935
200	0xbe4988bf	-0.1968107
201	0x3b9bd096	0.00475509
202	0x3c8df421	0.017328324
203	0x3d00de00	0.031461716
204	0x3e53a08c	0.20666713
205	0x3e29bd57	0.16576134
206	0xbd84ff5d	-0.06494019
207	0xbd2e6747	-0.04257896
208	0x3db19b1a	0.086721614
209	0x3c4cbba5	0.01249591
210	0x3d00685b	0.03134952
211	0xbca298f2	-0.01984832
212	0x3e03a449	0.12855639
213	0x3ab8b23a	0.0014091202
214	0x3c4b4486	0.012406474
215	0x3e2e38b1	0.17013814
216	0xbd4fd9c2	-0.05074478
217	0x3daa5775	0.08317462
218	0xbd0ab4db	-0.033863883
219	0x3b8a72e1	0.0042251204
220	0x3d524bf4	0.051341966
221	0x3c6861f6	0.014183512
222	0x3e4b447d	0.19850345
223	0xbd4c6818	-0.04990396
224	0xbda7171c	-0.08158705
225	0xbdd1630e	-0.10223971
226	0xbd542a27	-0.051798012
227	0xbe26c2d4	-0.16285259
228	0xbc0e366d	-0.008679968
229	0xbe47480d	-0.19461079
230	0x3d76febf	0.06030154
231	0xbdcaab49	-0.09895951
232	0x3d3d7a06	0.04625895
233	0xbd61e02b	-0.055145424
234	0xbd28e42d	-0.04123323
235	0xbd534b70	-0.051585615
236	0x3dc01fb3	0.09381046
237	0xbd9fa5b3	-0.077952765
238	0x3d28d711	0.04122073
239	0xbd7404c8	-0.059574872
240	0x3e25cc02	0.16191104
241	0xbc6cc99f	-0.014452367
242	0x3d6df887	0.058098342
243	0xbdcf49a0	-0.10121465
244	0x3defe502	0.11713602
245	0xbdace35d	-0.084418036
246	0x3ceec951	0.02914873
247	0x3d8a5862	0.06755139
248	0x3ddc5faa	0.10760434
249	0xbd9abad2	-0.075551644
250	0xbd81d275	-0.063389696
251	0x3d9ec7b1	0.07752932
252	0xbd923617	-0.07139223
253	0x3dda23ba	0.106513456
254	0xbd6c7f64	-0.057738677
255	0x3d84d918	0.0648672

network_body._body_endoder.seq_layers.2.bias f4 [128]
0	0x3ad93a9b	0.0016573252
1	0x39156548	0.00014247478
2	0xb92fde2b	-0.00016772065
3	0x38906be8	6.886554e-05
4	0xba646557	-0.00087126106
5	0xbade6574	-0.0016967491
6	0xb955340a	-0.00020332649
7	0x39b75fb0	0.00034975773
8	0x3aa2b61d	0.0012413893
9	0x3ae9b150	0.0017829333
10	0xba5a118d	-0.00083186553
11	0xba276088	-0.0006384929
12	0xb9dc0c6d	-0.00041970928
13	0xba6542b9	-0.0008745599
14	0x3995cd43	0.00028572427
15	0xb93c8a3f	-0.00017980578
16	0xba3821da	-0.0007024087
17	0x3aea7cd3	0.0017889984
18	0x3aa37e7d	0.001247361
19	0x3a4023ca	0.0007329552
20	0xba9ec595	-0.0012113327
21	0xbac91f97	-0.0015344498
22	0x3a2fa3a7	0.00067001063
23	0xb7f26852	-2.8897226e-05
24	0xb99d95f7	-0.00030057106
25	0x39bea7ec	0.00036364736
26	0xba06afba	-0.00051378796
27	0x3a3e50ea	0.0007259982
28	0x37b1ed93	2.1210673e-05
29	0x3a792dd2	0.0009505424
30	0xb9f6727f	-0.00047006083
31	0xba0bb0b9	-0.0005328763
32	0x3a8fdd5b	0.0010976003
33	0xba98a8e4	-0.0011647013
34	0x38bdc6c2	9.049244e-05
35	0xba555375	-0.0008137741
36	0xb8ec5c6f	-0.00011270574
37	0xba74a210	-0.00093320105
38	0x371e62d2	9.440542e-06
39	0xb7f1e299	-2.8834957e-05
40	0xba828396	-0.0009957429
41	0x3a01f672	0.00049576827
42	0xbaa4ab5c	-0.0012563276
43	0xb9da0a91	-0.00041588073
44	0x3ae6701d	0.001758102
45	0x3a90533e	0.0011011136
46	0x3aaf1cba	0.0013360002
47	0x3ac9a629	0.0015384603
48	0x38c32383	9.304939e-05
49	0x3a19901a	0.00058579596
50	0xb92502ab	-0.0001573662
51	0x3a72f775	0.00092684414
52	0x3aae94f2	0.0013319536
53	0x3a46b3dd	0.00075799023
54	0xba60c093	-0.00085736177
55	0xb9503bc6	-0.00019858693
56	0x3a038468	0.00050169835
57	0xba10ce50	-0.0005523907
58	0x3a8e479c	0.0010855081
59	0x3a01c839	0.0004950795
60	0x3ab0b52e	0.001348173
61	0x3a65e833	0.0008770257
62	0xba42e560	-0.0007434692
63	0x3951cfd5	0.00020009217
64	0x38eec192	0.0001138478
65	0xbaa8e828	-0.0012886571
66	0x3a6ab20f	0.00089529244
67	0x3a15ae6f	0.00057098916
68	0x38965f83	7.170348e-05
69	0xb9163dde	-0.00014328162
70	0x38a9feeb	8.10603e-05
71	0xb854fdc5	-5.078108e-05
72	0x3a9f41fa	0.00121504
73	0x3a5b6489	0.0008369168
74	0xba9ef1c5	-0.0012126496
75	0xb8f4fa44	-0.00011681442
76	0xbaf3538e	-0.001856433
77	0xb8ac4fb3	-8.216444e-05
78	0xb9d08a2f	-0.00039775806
79	0xb9b4dd1d	-0.00034497018
80	0x39c881a8	0.00038243574
81	0x3a897e50	0.0010489915
82	0x3a5f7213	0.0008523773
83	0x3aa33362	0.0012451226
84	0xba8db87e	-0.0010812429
85	0xba1c5622	-0.00059637625
86	0x39e3c982	0.0004344695
87	0xb9cac6f0	-0.00038676662
88	0xba478b62	-0.0007612017
89	0x3a902bf5	0.0010999428
90	0x3a9c2ad3	0.0011914618
91	0xb8e11767	-0.00010733195
92	0x3998423a	0.00029041042
93	0xba281507	-0.0006411825
94	0xb8c18acc	-9.22881e-05
95	0x390c4938	0.00013378717
96	0xba48a404	-0.0007653835
97	0xba15438f	-0.0005693966
98	0x3a0f6420	0.0005469937
99	0xba2e2e7f	-0.00066445017
100	0xba4e844c	-0.000787799
101	0xba772b83	-0.0009428786
102	0x3979f50a	0.00023837775
103	0x3a488258	0.0007648817
104	0x3a74a7da	0.0009332873
105	0x386141a1	5.3705302e-05
106	0x381d10e0	3.7447433e-05
107	0x3aecbc19	0.0018061429
108	0xba0396a9	-0.00050197035
109	0x3a2dcdd3	0.00066300965
110	0x3a90cafe	0.0011046825
111	0xb9522eab	-0.00020044546
112	0x3a662d1e	0.00087805267
113	0x39cd8714	0.00039201288
114	0xba5ef7be	-0.00085055444
115	0xb9726c66	-0.000231193
116	0xba2b9f59	-0.0006546877
117	0x383ddc84	4.5266483e-05
118	0x3aa4cecc	0.0012573837
119	0x3a8ecc36	0.00108946
120	0x3a4a4f17	0.0007717474
121	0x3a8eed84	0.0010904525
122	0xba0266a7	-0.0004974403
123	0xb944ada5	-0.00018756704
124	0xbacc123d	-0.00155694
125	0xb960ff65	-0.00021457447
126	0xba65dcb0	-0.0008768542
127	0xbac547a9	-0.0015051264

action_model._continuous_distribution.mu.weight f4 [1, 128]
0	0x3bdaaeb4	0.0066736583
1	0xbc33939d	-0.010960487
2	0xbccdddac	-0.025130115
3	0x3d0691b3	0.032853793
4	0xbcde3ffa	-0.027130116
5	0xbc26fe7f	-0.010192513
6	0x3a15651e	0.00056989666
7	0x3a152b45	0.00056903466
8	0x3cdc13c6	0.026864897
9	0x3bcd7138	0.0062696002
10	0xbd56f6e1	-0.052481536
11	0xbbeb5aef	-0.007182471
12	0xbb9343d2	-0.004494169
13	0xb91bd2b9	-0.00014860452
14	0x3c385e74	0.011252988
15	0xbd1e3664	-0.03862609
16	0xbb3b4d1c	-0.0028579896
17	0x3bdbc1da	0.0067064585
18	0x3c8b9a21	0.017041268
19	0x3b51e0e7	0.0032024921
20	0xbcad6c65	-0.02116985
21	0xbad24d61	-0.0016044789
22	0x3c7d0f8f	0.015445604
23	0xbbc9fd22	-0.006164209
24	0xbd8c2dae	-0.0684465
25	0x3bbaaf40	0.005697161
26	0xbb293694	-0.0025819885
27	0x3c4442f5	0.011978854
28	0xbc6d3697	-0.014478347
29	0x3aaeaf3b	0.0013327369
30	0xbb922997	-0.0044605243
31	0xbc73fbc7	-0.014891571
32	0x3c850b50	0.016240746
33	0x3a312241	0.00067571184
34	0xbc7ec151	-0.01554902
35	0xbd2f154f	-0.04274493
36	0xbc141039	-0.009037071
37	0xbbba4fc7	-0.0056857797
38	0x3befc0c2	0.0073166797
39	0x3a070094	0.00051499275
40	0xbc537b73	-0.012907851
41	0x3d4ddfc5	0.05026223
42	0x3a5baa8d	0.0008379601
43	0x3c1745cc	0.009232949
44	0x3b38e2c3	0.0028211332
45	0x3be09d76	0.0068547083
46	0xbcaef6ac	-0.021357857
47	0xbb039a68	-0.0020081047
48	0x3c83a2d3	0.016068852
49	0x3cdcb361	0.026941003
50	0xbbe7a668	-0.0070693977
51	0x3c506035	0.01271825
52	0xbcbc1056	-0.022957008
53	0x3c7ace35	0.015307953
54	0xbc4313c7	-0.011906571
55	0xbcc1ec09	-0.02367212
56	0x3c1ff1a7	0.009762204
57	0xbca24a56	-0.019810837
58	0x3c99d282	0.018777136
59	0x3c52d157	0.012867293
60	0x3cf5d4b0	0.030008644
61	0x3b2a96ea	0.0026029893
62	0xbc3b181c	-0.011419322
63	0x3b1f0161	0.0024262297
64	0x3c1c086c	0.009523492
65	0xbca37cc9	-0.019956963
66	0x3c15b8a6	0.009138262
67	0xbc0a952a	-0.008458415
68	0x3c8f6b6b	0.017507276
69	0xbc826918	-0.015919253
70	0xbc648d8f	-0.013949766
71	0x3bad27ea	0.005284299
72	0x3d2d7af8	0.0423536
73	0x3bab85ec	0.0052344706
74	0xbc0281c8	-0.007965513
75	0x3b4c5514	0.003117864
76	0xbc51ec81	-0.012812735
77	0xbc2dff19	-0.010619902
78	0xbc87dc58	-0.01658456
79	0xbc96aa50	-0.018391758
80	0xbcac99a9	-0.021069365
81	0x3c105500	0.008809328
82	0x3ca972ca	0.020684619
83	0x3cc52604	0.024065979
84	0xbcc21bd4	-0.02369491
85	0xbc7bcd09	-0.015368708
86	0xbd1390d1	-0.03602678
87	0xbcffdadd	-0.031232292
88	0xbc50ac39	-0.012736374
89	0x3bc75a08	0.0060837306
90	0x3c82062c	0.015872084
91	0x3ba17e3a	0.0049283775
92	0x3caad827	0.020855023
93	0xbcdf48b1	-0.027256342
94	0x3bfd669e	0.00773318
95	0x3c9709a2	0.01843721
96	0xbc677066	-0.014125919
97	0xbc00e479	-0.007866972
98	0xbc9eb2a7	-0.019372297
99	0xbc37c0dc	-0.011215415
100	0xbb691afa	-0.0035569058
101	0x3a0cddce	0.00053736276
102	0x3cb75145	0.02237762
103	0x3c9191fc	0.017769806
104	0x3be67e8d	0.007034129
105	0xbc777078	-0.015102498
106	0x3cc75501	0.024332525
107	0x3c9bd058	0.019020244
108	0x3d04040b	0.03223042
109	0x3c8e67ae	0.017383423
110	0x3cb82603	0.022479063
111	0x3ac206dc	0.001480307
112	0x3c85342a	0.016260225
113	0x3cfb7a43	0.030697947
114	0x3ceada3e	0.02866852
115	0xbcb55add	-0.022138054
116	0xbcc757f0	-0.024333924
117	0x3c20b928	0.00980977
118	0xbc1a5747	-0.009420223
119	0x3c48abce	0.012247993
120	0x3cf91ce0	0.030409276
121	0xbc562957	-0.01307138
122	0xbcf6d768	-0.03013201
123	0x3a6abfc1	0.0008954965
124	0xbc50ee3e	-0.012752114
125	0xbc929994	-0.017895497
126	0xbc6215c9	-0.013799139
127	0xbc18eaa7	-0.009333289

action_model._discrete_distribution.branches.0.weight f4 [1, 128]
0	0x3a60c98b	0.0008574954
1	0xbc66b1ef	-0.014080509
2	0x3c73db18	0.014883779
3	0xbb843efa	-0.0040358277
4	0x3c8d5169	0.017250733
5	0x3b6ad58a	0.0035832846
6	0xbc842ae7	-0.016133739
7	0xbc85b454	-0.016321339
8	0xbc20bee1	-0.009811134
9	0xbbf66758	-0.0075196438
10	0x3c6679fb	0.014067168
11	0xbbfed812	-0.0077772224
12	0xbbf09e93	-0.0073431223
13	0x3b8108df	0.003937825
14	0x3b95ea69	0.004575063
15	0x3bf67d55	0.007522265
16	0xbb9691d9	-0.004595023
17	0xbb0aad0d	-0.0021160275
18	0xbb7992f7	-0.0038081983
19	0xbc27b6d7	-0.0102364635
20	0x3a42103f	0.00074029336
21	0x3c88d383	0.01670242
22	0xbb373cb5	-0.0027959768
23	0xbc091c4d	-0.008368564
24	0xb9bb06b4	-0.00035672414
25	0x3b8657bb	0.0040998138
26	0xbbf97aa3	-0.0076134964
27	0xbac3618f	-0.0014906394
28	0xbb8813fc	-0.004152773
29	0xba9b70db	-0.0011859195
30	0xbcbcd00f	-0.023048429
31	0xbc41d4c8	-0.011830516
32	0xbc0a2cdb	-0.008433546
33	0xbc1ef092	-0.009700911
34	0x3b9e8250	0.004837312
35	0xbc187828	-0.009305991
36	0x3bb5c81b	0.005547536
37	0x3c1ac82f	0.009447142
38	0xba81f7af	-0.0009915734
39	0xbc7cd47b	-0.015431519
40	0xbb8c63e7	-0.00428437
41	0xbae05d65	-0.0017117677
42	0x3b93687a	0.0044985386
43	0xbb1d226b	-0.0023976814
44	0x3c093762	0.008375021
45	0xbc4a2279	-0.0123373205
46	0x3b128520	0.002235718
47	0xbbdc0c8d	-0.0067153634
48	0xbc1e5fac	-0.009666365
49	0xbc0f92f9	-0.008763068
50	0xbb7bf6f7	-0.0038446763
51	0x3b486bf3	0.003058192
52	0x3cbf1b22	0.023328368
53	0xbc40ff2d	-0.011779589
54	0x3c1aec7d	0.009455797
55	0x3b137b33	0.0022503852
56	0xbbaa633c	-0.005199818
57	0xbba936ac	-0.005163988
58	0xbc59cf73	-0.013294089
59	0xbb8493cc	-0.004045939
60	0xbb2cc7b9	-0.0026364161
61	0x39ebedaa	0.00044999766
62	0x3c355744	0.011068169
63	0xbadf7bc3	-0.0017050434
64	0x3ac79b6b	0.0015228813
65	0xbbbb5c24	-0.005717771
66	0xbcaceb05	-0.02110816
67	0x3b9da79a	0.0048112394
68	0x3b96d6a3	0.0046032234
69	0xbbe365e3	-0.006939636
70	0xba9813bf	-0.0011602564
71	0x3becb302	0.007223488
72	0xbaf3ba6b	-0.0018594986
73	0x3bdd0da7	0.0067460123
74	0x3bb88d2d	0.005632064
75	0x3be1691b	0.0068789846
76	0x3bc265db	0.0059325523
77	0xbbbfa1ee	-0.005848161
78	0xba3283cc	-0.00068098004
79	0xb988e167	-0.0002610788
80	0xbc015c5c	-0.007895555
81	0x3c35e381	0.011101604
82	0xbc887808	-0.016658798
83	0xbb113838	-0.0022158753
84	0xbc0134d0	-0.007886127
85	0x3bb2b755	0.005453984
86	0xbb607c00	-0.0034253597
87	0x39d34013	0.00040292795
88	0xbc16ee43	-0.009212079
89	0x3a964d59	0.0011467143
90	0xbc3f73c2	-0.011685314
91	0xbbc51963	-0.006014989
92	0x3be2f0fb	0.0069256998
93	0xbb1cc2c6	-0.0023919805
94	0xbbc6f225	-0.0060713463
95	0x3ceca550	0.02888742
96	0xbbc1d3e9	-0.0059151542
97	0xbc33dc60	-0.010977834
98	0xb9b1685b	-0.00033837822
99	0xbbf80eff	-0.007570147
100	0xbcc0a770	-0.02351734
101	0xbc7d93da	-0.015477145
102	0xbc1aff43	-0.009460273
103	0x3b52c988	0.003216358
104	0x3c641a12	0.013922231
105	0xbc3491f3	-0.011021125
106	0xbbb28041	-0.005447418
107	0x3ae8af98	0.0017752526
108	0xbb397358	-0.002829751
109	0xbc96dc4f	-0.018415598
110	0xbba3cf54	-0.0049990807
111	0x3a96d472	0.0011507405
112	0xbbd9d440	-0.0066476166
113	0x3c0e5c3a	0.008688981
114	0xbb7d325d	-0.0038634755
115	0x3bfc8f7b	0.007707534
116	0x3ac5b69b	0.0015084328
117	0xbc1cc72f	-0.009568973
118	0x3c87e993	0.016590869
119	0xbc1bf54b	-0.009518932
120	0xbba78687	-0.0051124725
121	0x3b1df44b	0.0024101909
122	0xbb8567b4	-0.0040712003
123	0x3c0af59d	0.00848141
124	0x3b0cc14e	0.0021477523
125	0x3c3f8778	0.011690013
126	0xbaac7a93	-0.0013159089
127	0x3aa0e309	0.0012274693

exp_avg f4 [128, 6]
0	0xb707107a	-8.050463e-06
1	0xb74958a1	-1.2001169e-05
2	0x00000000	0.0
3	0xb6ee43bc	-7.100838e-06
4	0xb28646e2	-1.5631887e-08
5	0x00000000	0.0
6	0x37635bb5	1.3551607e-05
7	0x3722a2b1	9.693832e-06
8	0x00000000	0.0
9	0x364c2d4a	3.042473e-06
10	0xb2e857f0	-2.7048344e-08
11	0x00000000	0.0
12	0xb7799b45	-1.4877708e-05
13	0x362bb53d	2.558648e-06
14	0x00000000	0.0
15	0xb74dc3b9	-1.2264522e-05
16	0x32990193	1.781226e-08
17	0x00000000	0.0
18	0x37a73f36	1.9937386e-05
19	0x374972ba	1.20072455e-05
20	0x00000000	0.0
21	0xb6bf3777	-5.6987005e-06
22	0xb3381494	-4.2859554e-08
23	0x00000000	0.0
24	0xb88fca19	-6.856415e-05
25	0xb845e0b0	-4.7177717e-05
26	0x00000000	0.0
27	0xb7819637	-1.5447948e-05
28	0x33d8fe63	1.01045565e-07
29	0x00000000	0.0
30	0x36214c69	2.4035346e-06
31	0x37713906	1.4377996e-05
32	0x00000000	0.0
33	0x37df668f	2.663143e-05
34	0x3339da91	4.3272454e-08
35	0x00000000	0.0
36	0x37d6f94f	2.5626881e-05
37	0x379a25ef	1.8375895e-05
38	0x00000000	0.0
39	0x37bda2ec	2.2606422e-05
40	0x330d27ea	3.2865422e-08
41	0x00000000	0.0
42	0x37b57a3c	2.1633801e-05
43	0x37389016	1.1000802e-05
44	0x00000000	0.0
45	0x3724a08f	9.812545e-06
46	0xb29cc0d1	-1.8248473e-08
47	0x00000000	0.0
48	0xb77cfb0d	-1.5078823e-05
49	0xb5faab3b	-1.8676286e-06
50	0x00000000	0.0
51	0xb6a9cb45	-5.060256e-06
52	0x335419b3	4.938347e-08
53	0x00000000	0.0
54	0xb78b94a1	-1.6639302e-05
55	0xb7806cb9	-1.5309417e-05
56	0x00000000	0.0
57	0xb707e905	-8.100881e-06
58	0x32910fcf	1.688741e-08
59	0x00000000	0.0
60	0xb7990023	-1.8239085e-05
61	0xb807da69	-3.238992e-05
62	0x00000000	0.0
63	0x38548bef	5.0675062e-05
64	0x30b88750	1.342622e-09
65	0x00000000	0.0
66	0x36e1be15	6.727651e-06
67	0x36f07b62	7.166921e-06
68	0x00000000	0.0
69	0x3693d53f	4.4057665e-06
70	0x31ed43d3	6.9053185e-09
71	0x00000000	0.0
72	0xb6584b16	-3.2230214e-06
73	0x37cd0133	2.4438463e-05
74	0x00000000	0.0
75	0x38026553	3.108878e-05
76	0xb30898d7	-3.1803975e-08
77	0x00000000	0.0
78	0x37aa5d0f	2.0308913e-05
79	0x369933e5	4.5657966e-06
80	0x00000000	0.0
81	0x37a5a882	1.9748e-05
82	0xb2377ec2	-1.0680823e-08
83	0x00000000	0.0
84	0xb6e697c8	-6.872204e-06
85	0x35a90f0a	1.2595858e-06
86	0x00000000	0.0
87	0x357670ff	9.180657e-07
88	0xaf7e026b	-2.3102024e-10
89	0x00000000	0.0
90	0x3710a336	8.621069e-06
91	0x37ea66e4	2.7942886e-05
92	0x00000000	0.0
93	0x36bc1a9f	5.6059357e-06
94	0xb3624e84	-5.2691135e-08
95	0x00000000	0.0
96	0x376bfbed	1.4065748e-05
97	0x372ef7c2	1.0428894e-05
98	0x00000000	0.0
99	0xb64a74d3	-3.0168346e-06
100	0xb33906bb	-4.307979e-08
101	0x00000000	0.0
102	0xb8096864	-3.2760567e-05
103	0xb8080403	-3.2428663e-05
104	0x00000000	0.0
105	0xb7a5b2b7	-1.9752753e-05
106	0x3403d141	1.2276452e-07
107	0x00000000	0.0
108	0x37afd87c	2.0962434e-05
109	0x37cfab10	2.475598e-05
110	0x00000000	0.0
111	0x3603f3c1	1.9662405e-06
112	0xb3ee2050	-1.1088616e-07
113	0x00000000	0.0
114	0xb7ab09aa	-2.0389289e-05
115	0xb781c07f	-1.5467636e-05
116	0x00000000	0.0
117	0xb68db877	-4.223602e-06
118	0x322b0806	9.955334e-09
119	0x00000000	0.0
120	0x38286c6e	4.0155304e-05
121	0x37aa7d46	2.0323914e-05
122	0x00000000	0.0
123	0xb76404e6	-1.35909995e-05
124	0xb223956b	-9.521822e-09
125	0x00000000	0.0
126	0x381080cc	3.4452227e-05
127	0x36e2a7e8	6.7548717e-06
128	0x00000000	0.0
129	0xb5833048	-9.774312e-07
130	0xb32bcdfa	-4.0001375e-08
131	0x00000000	0.0
132	0x35f50b23	1.8257164e-06
133	0xb7261367	-9.8988885e-06
134	0x00000000	0.0
135	0xb7fbb9a0	-3.000797e-05
136	0xb22e8937	-1.0159332e-08
137	0x00000000	0.0
138	0x37b11443	2.110948e-05
139	0x37552434	1.27042185e-05
140	0x00000000	0.0
141	0xb803b5e9	-3.140225e-05
142	0x32fa65a1	2.9150046e-08
143	0x00000000	0.0
144	0x36436e03	2.91213e-06
145	0x37b29288	2.1287487e-05
146	0x00000000	0.0
147	0x37a76741	1.9956033e-05
148	0xb30180ed	-3.015241e-08
149	0x00000000	0.0
150	0x37498e20	1.2013625e-05
151	0x3711bbfa	8.68644e-06
152	0x00000000	0.0
153	0xb80693bf	-3.208569e-05
154	0xb27ac3aa	-1.4596404e-08
155	0x00000000	0.0
156	0xb78bfb36	-1.668707e-05
157	0xb7a024af	-1.9090568e-05
158	0x00000000	0.0
159	0x37f68e57	2.9391767e-05
160	0xb302f608	-3.0491748e-08
161	0x00000000	0.0
162	0xb7102c7b	-8.593425e-06
163	0xb6ba2f8f	-5.5487685e-06
164	0x00000000	0.0
165	0x37925950	1.7446146e-05
166	0xb12960e8	-2.4647822e-09
167	0x00000000	0.0
168	0xb89912ee	-7.2991344e-05
169	0xb88cb52d	-6.709467e-05
170	0x00000000	0.0
171	0xb82d7b32	-4.136115e-05
172	0x33cdf149	9.589946e-08
173	0x00000000	0.0
174	0xb71ffe43	-9.536338e-06
175	0xb707ab3e	-8.0864975e-06
176	0x00000000	0.0
177	0xb6d4b927	-6.339647e-06
178	0xb3163cde	-3.4979955e-08
179	0x00000000	0.0
180	0x377adbfb	1.4952379e-05
181	0x3748704c	1.1947075e-05
182	0x00000000	0.0
183	0xb7b2b4c2	-2.1303425e-05
184	0xb2747747	-1.422979e-08
185	0x00000000	0.0
186	0x36c6c03b	5.9232384e-06
187	0x36132d6f	2.1931153e-06
188	0x00000000	0.0
189	0x389d61ff	7.5045966e-05
190	0x32a016bd	1.8636792e-08
191	0x00000000	0.0
192	0x378012b1	1.5267493e-05
193	0xb834bfc5	-4.3093944e-05
194	0x00000000	0.0
195	0xb64215a4	-2.892085e-06
196	0x33090869	3.1905447e-08
197	0x00000000	0.0
198	0x38bf617b	9.125747e-05
199	0x37ec99ed	2.820507e-05
200	0x00000000	0.0
201	0xb7c6a5ff	-2.3680737e-05
202	0xb3c89688	-9.340607e-08
203	0x00000000	0.0
204	0xb814aa5f	-3.544462e-05
205	0x37d3bb41	2.5240357e-05
206	0x00000000	0.0
207	0xb8ca52fd	-9.6475684e-05
208	0x324728ab	1.1592571e-08
209	0x00000000	0.0
210	0x37d1dfbf	2.5018931e-05
211	0x36737cbc	3.6282427e-06
212	0x00000000	0.0
213	0x3617eca5	2.2638499e-06
214	0x2fed4329	4.315777e-10
215	0x00000000	0.0
216	0xb77f500c	-1.5217822e-05
217	0xb62839c3	-2.5067573e-06
218	0x00000000	0.0
219	0xb72f026a	-1.0431375e-05
220	0x32d18aec	2.4393977e-08
221	0x00000000	0.0
222	0x36fbb972	7.5019716e-06
223	0x363a88c9	2.779578e-06
224	0x00000000	0.0
225	0x37637748	1.3558027e-05
226	0xb2ba8750	-2.1714783e-08
227	0x00000000	0.0
228	0xb8069ffb	-3.2097083e-05
229	0xb7dc727d	-2.6279356e-05
230	0x00000000	0.0
231	0xb73360c7	-1.0691764e-05
232	0xb294992b	-1.729912e-08
233	0x00000000	0.0
234	0xb8b072c1	-8.4137086e-05
235	0xb8d33d4f	-0.00010072684
236	0x00000000	0.0
237	0x3808208f	3.245525e-05
238	0x341a62fd	1.437838e-07
239	0x00000000	0.0
240	0xb80a59c2	-3.2985357e-05
241	0xb78851ad	-1.6250497e-05
242	0x00000000	0.0
243	0x3638d6b4	2.754311e-06
244	0x338be3b6	6.514112e-08
245	0x00000000	0.0
246	0x3708edc2	8.161589e-06
247	0xb698ba52	-4.5516435e-06
248	0x00000000	0.0
249	0x36ea3d0c	6.9808502e-06
250	0x3223446c	9.503406e-09
251	0x00000000	0.0
252	0xb7cb43cb	-2.4231054e-05
253	0xb7f63fd7	-2.9355213e-05
254	0x00000000	0.0
255	0x36d62405	6.38189e-06

exp_avg_sq f4 [128, 6]
0	0x30a8ec12	1.2290704e-09
1	0x30b20925	1.2953804e-09
2	0x00000000	0.0
3	0x30ae714d	1.2692368e-09
4	0x28aa577c	1.8911732e-14
5	0x00000000	0.0
6	0x30b87ef5	1.3423845e-09
7	0x308fbea9	1.0458808e-09
8	0x00000000	0.0
9	0x30873bd3	9.839546e-10
10	0x28e5e177	2.5521887e-14
11	0x00000000	0.0
12	0x316b375d	3.4228471e-09
13	0x31c87ae5	5.8347376e-09
14	0x00000000	0.0
15	0x3206aa80	7.838594e-09
16	0x2a120e85	1.2972442e-13
17	0x00000000	0.0
18	0x311f2630	2.3159252e-09
19	0x30e8608c	1.6907662e-09
20	0x00000000	0.0
21	0x31203524	2.3313271e-09
22	0x292f03dc	3.8861153e-14
23	0x00000000	0.0
24	0x323f30c3	1.112875e-08
25	0x31f9b2f5	7.267199e-09
26	0x00000000	0.0
27	0x324d2cdb	1.1942769e-08
28	0x2a5e90ec	1.9767841e-13
29	0x00000000	0.0
30	0x3210f1e2	8.436901e-09
31	0x323a07c8	1.0828394e-08
32	0x00000000	0.0
33	0x323b06f0	1.088641e-08
34	0x2a7aa59b	2.2261916e-13
35	0x00000000	0.0
36	0x30bc43ef	1.3698108e-09
37	0x310a90a0	2.0163853e-09
38	0x00000000	0.0
39	0x30c16631	1.4071643e-09
40	0x293c0441	4.1748075e-14
41	0x00000000	0.0
42	0x3115ef01	2.1818212e-09
43	0x3114b0ae	2.1637265e-09
44	0x00000000	0.0
45	0x30d33592	1.5367496e-09
46	0x29705586	5.3364885e-14
47	0x00000000	0.0
48	0x3148e8c3	2.923614e-09
49	0x311b3bbc	2.2589424e-09
50	0x00000000	0.0
51	0x30cbc45c	1.4826003e-09
52	0x2974f241	5.4389005e-14
53	0x00000000	0.0
54	0x30dd602d	1.6107201e-09
55	0x312c8022	2.510213e-09
56	0x00000000	0.0
57	0x31494da3	2.929348e-09
58	0x294f7722	4.6066564e-14
59	0x00000000	0.0
60	0x32213927	9.384428e-09
61	0x323fc5a7	1.1162604e-08
62	0x00000000	0.0
63	0x32c5d46c	2.3030417e-08
64	0x2a9ff318	2.8412754e-13
65	0x00000000	0.0
66	0x3035a8a4	6.608707e-10
67	0x303e9180	6.9328365e-10
68	0x00000000	0.0
69	0x311247ba	2.1286568e-09
70	0x286a49fd	1.3005653e-14
71	0x00000000	0.0
72	0x31fcffdc	7.363253e-09
73	0x320d1006	8.2109235e-09
74	0x00000000	0.0
75	0x31ef7ca6	6.9699864e-09
76	0x2a3b071a	1.66114e-13
77	0x00000000	0.0
78	0x302bcce0	6.250058e-10
79	0x3025f5e9	6.037611e-10
80	0x00000000	0.0
81	0x305dc7c4	8.0683216e-10
82	0x285206bd	1.1658803e-14
83	0x00000000	0.0
84	0x2f316fbe	1.6137755e-10
85	0x2f679c51	2.1064862e-10
86	0x00000000	0.0
87	0x2fd3ec49	3.8548567e-10
88	0x27b13daa	4.9194225e-15
89	0x00000000	0.0
90	0x316adccd	3.4176992e-09
91	0x319106be	4.220822e-09
92	0x00000000	0.0
93	0x3131058a	2.5760039e-09
94	0x29db145b	9.729085e-14
95	0x00000000	0.0
96	0x30aeb814	1.2712484e-09
97	0x30b0a480	1.2852439e-09
98	0x00000000	0.0
99	0x30d2f31a	1.5348605e-09
100	0x2912542f	3.249153e-14
101	0x00000000	0.0
102	0x31330b7b	2.6054454e-09
103	0x318492dc	3.8584016e-09
104	0x00000000	0.0
105	0x311f5224	2.3184237e-09
106	0x297f6e3d	5.671699e-14
107	0x00000000	0.0
108	0x3130d318	2.5731364e-09
109	0x3147878b	2.9035359e-09
110	0x00000000	0.0
111	0x31139d22	2.1480635e-09
112	0x2973ba52	5.4118446e-14
113	0x00000000	0.0
114	0x304afcfd	7.384669e-10
115	0x2ff0641c	4.3726878e-10
116	0x00000000	0.0
117	0x302b9cef	6.2432454e-10
118	0x2842c74e	1.0812381e-14
119	0x00000000	0.0
120	0x3180b3eb	3.7457446e-09
121	0x31446078	2.857659e-09
122	0x00000000	0.0
123	0x31d691b1	6.244783e-09
124	0x2984d8bd	5.899576e-14
125	0x00000000	0.0
126	0x3182fef2	3.812482e-09
127	0x319fa772	4.6465454e-09
128	0x00000000	0.0
129	0x31a2836f	4.729763e-09
130	0x29dc5b95	9.7858496e-14
131	0x00000000	0.0
132	0x314cfa0a	2.9828038e-09
133	0x31a2d8d5	4.7394715e-09
134	0x00000000	0.0
135	0x318af8e7	4.0446255e-09
136	0x2999f618	6.8372554e-14
137	0x00000000	0.0
138	0x3181c895	3.7771977e-09
139	0x319a4889	4.490236e-09
140	0x00000000	0.0
141	0x31c13b87	5.6238068e-09
142	0x298e858b	6.329233e-14
143	0x00000000	0.0
144	0x31290871	2.4597535e-09
145	0x3149c7df	2.9362963e-09
146	0x00000000	0.0
147	0x310079c6	1.8695672e-09
148	0x2993a2e7	6.5563704e-14
149	0x00000000	0.0
150	0x319f67bf	4.6393036e-09
151	0x31cc007a	5.9372356e-09
152	0x00000000	0.0
153	0x322f314f	1.0197552e-08
154	0x2a09d679	1.2242455e-13
155	0x00000000	0.0
156	0x3085db2a	9.739314e-10
157	0x3085c635	9.733357e-10
158	0x00000000	0.0
159	0x3184b9d6	3.8628327e-09
160	0x28f3d602	2.707123e-14
161	0x00000000	0.0
162	0x310a8251	2.015572e-09
163	0x31262f31	2.4183004e-09
164	0x00000000	0.0
165	0x3185e9ad	3.8973753e-09
166	0x2993f766	6.571028e-14
167	0x00000000	0.0
168	0x328f823d	1.6706617e-08
169	0x329d2787	1.829518e-08
170	0x00000000	0.0
171	0x329df14c	1.8386935e-08
172	0x2af59ca4	4.3629434e-13
173	0x00000000	0.0
174	0x30a2cee1	1.184585e-09
175	0x30cb8ff3	1.4811107e-09
176	0x00000000	0.0
177	0x30968d23	1.095405e-09
178	0x28bbce0c	2.0850529e-14
179	0x00000000	0.0
180	0x30c17c1d	1.4077873e-09
181	0x30e17302	1.6403592e-09
182	0x00000000	0.0
183	0x3199068e	4.4536312e-09
184	0x2926051d	3.686384e-14
185	0x00000000	0.0
186	0x311f7237	2.3202469e-09
187	0x3113683b	2.1450564e-09
188	0x00000000	0.0
189	0x31474352	2.8996578e-09
190	0x298bf8bb	6.215988e-14
191	0x00000000	0.0
192	0x32ba3ea5	2.1681737e-08
193	0x33119873	3.3899095e-08
194	0x00000000	0.0
195	0x33208c65	3.738059e-08
196	0x2b3ddece	6.745549e-13
197	0x00000000	0.0
198	0x32eb5c26	2.7399505e-08
199	0x33029405	3.0402607e-08
200	0x00000000	0.0
201	0x330d1652	3.284942e-08
202	0x2b3400b1	6.3949806e-13
203	0x00000000	0.0
204	0x32e53f6b	2.6687948e-08
205	0x32e35ff7	2.6469918e-08
206	0x00000000	0.0
207	0x332e509a	4.058584e-08
208	0x2b2bf3e9	6.1089897e-13
209	0x00000000	0.0
210	0x3192021b	4.2493986e-09
211	0x31b08c4d	5.1382245e-09
212	0x00000000	0.0
213	0x31ac65d0	5.0174336e-09
214	0x29e05f05	9.9640816e-14
215	0x00000000	0.0
216	0x314d29de	2.9855225e-09
217	0x3181c8d2	3.7772248e-09
218	0x00000000	0.0
219	0x31b95765	5.3941442e-09
220	0x29ddd65a	9.8515556e-14
221	0x00000000	0.0
222	0x3075f7b9	8.9482516e-10
223	0x30c42508	1.4271402e-09
224	0x00000000	0.0
225	0x30a54535	1.2025e-09
226	0x292c9712	3.8322705e-14
227	0x00000000	0.0
228	0x30e051b6	1.6321369e-09
229	0x30a67a18	1.2112791e-09
230	0x00000000	0.0
231	0x3134035d	2.619536e-09
232	0x290a60d3	3.0726137e-14
233	0x00000000	0.0
234	0x331f4772	3.708505e-08
235	0x332d373b	4.0329933e-08
236	0x00000000	0.0
237	0x337e37a4	5.918959e-08
238	0x2b918c73	1.0341852e-12
239	0x00000000	0.0
240	0x319229b1	4.253899e-09
241	0x31921d11	4.2524637e-09
242	0x00000000	0.0
243	0x31a0cc2c	4.6798245e-09
244	0x29cbe106	9.054046e-14
245	0x00000000	0.0
246	0x30fb6d6a	1.8293751e-09
247	0x30f0ccd7	1.7520517e-09
248	0x00000000	0.0
249	0x310b21c4	2.0246356e-09
250	0x2941c1e0	4.302277e-14
251	0x00000000	0.0
252	0x30a1d133	1.177375e-09
253	0x30fd9685	1.8450953e-09
254	0x00000000	0.0
255	0x30bf7ce2	1.3932573e-09

exp_avg f4 [128]
0	0x368643ec	4.0014183e-06
1	0x36e851e3	6.9236717e-06
2	0xb699015a	-4.5599127e-06
3	0x37380ba0	1.0969961e-05
4	0xb7d8f669	-2.586395e-05
5	0xb739d451	-1.1076293e-05
6	0xb70d214e	-8.412009e-06
7	0x369cb7e4	4.67057e-06
8	0xb7540fb3	-1.263984e-05
9	0xb691085e	-4.322311e-06
10	0xb4b91dc3	-3.448059e-07
11	0xb5ed41be	-1.767701e-06
12	0x3708983b	8.141676e-06
13	0x363770da	2.7334813e-06
14	0x337f288b	5.9408688e-08
15	0x37624754	1.3487257e-05
16	0x37390004	1.1026863e-05
17	0xb803cc14	-3.1422896e-05
18	0x37ee1688	2.8382303e-05
19	0xb62b0519	-2.5483953e-06
20	0x36238d42	2.4371116e-06
21	0x372bc875	1.0239067e-05
22	0x362e84c3	2.6005298e-06
23	0xb6fa5979	-7.4609966e-06
24	0x37017cfb	7.7180985e-06
25	0x367ac56a	3.7367813e-06
26	0x3702edf9	7.804011e-06
27	0x35293eb2	6.304864e-07
28	0xb7cdeb5b	-2.45475e-05
29	0x3716370b	8.953512e-06
30	0x36747a23	3.6429926e-06
31	0xb6a007c5	-4.769276e-06
32	0xb708fbda	-8.16487e-06
33	0x37c88f40	2.3908564e-05
34	0xb6470f02	-2.9662046e-06
35	0xb3eb2850	-1.0950373e-07
36	0xb6d186e7	-6.24439e-06
37	0x36ba8182	5.5583087e-06
38	0x36948897	4.426645e-06
39	0xb81a5e94	-3.6804544e-05
40	0xb78bdf0b	-1.6673954e-05
41	0xb623403e	-2.4326287e-06
42	0x377c25f5	1.5029208e-05
43	0x37321cdc	1.0616346e-05
44	0xb67546a7	-3.654897e-06
45	0x36be5687	5.6725144e-06
46	0x381c2ad0	3.723317e-05
47	0x3648acf1	2.9902988e-06
48	0x31edabeb	6.9171526e-09
49	0x3700e3e8	7.682458e-06
50	0xb6dd3c01	-6.5932986e-06
51	0xb60ed809	-2.1285398e-06
52	0xb792ec1c	-1.7514503e-05
53	0x35143c83	5.522235e-07
54	0x368e624d	4.2433735e-06
55	0x374f7153	1.2364547e-05
56	0x34d55206	3.9734022e-07
57	0xb69a3804	-4.5960787e-06
58	0x351b07a4	5.775312e-07
59	0x380f9c66	3.4239514e-05
60	0xb7e5f693	-2.7413747e-05
61	0xb5cf641c	-1.5451837e-06
62	0xb6a25d96	-4.838871e-06
63	0x3755a561	1.2734295e-05
64	0xb71718cf	-9.006078e-06
65	0xb611ffbe	-2.1755545e-06
66	0xb6ff12e6	-7.6017923e-06
67	0xb83bedc3	-4.4805707e-05
68	0x361e37c5	2.3576297e-06
69	0x3701447b	7.7049435e-06
70	0xb77386a7	-1.451528e-05
71	0x37029404	7.783066e-06
72	0xb60e0683	-2.116344e-06
73	0xb5298f32	-6.316578e-07
74	0xb6338c6c	-2.6754815e-06
75	0xb7099813	-8.201244e-06
76	0xb7b1aa09	-2.1179223e-05
77	0xb80832b2	-3.247214e-05
78	0x351418ea	5.517055e-07
79	0xb6d7c98a	-6.4309615e-06
80	0xb806b7d2	-3.2119286e-05
81	0x367b507d	3.7448765e-06
82	0xb6aee465	-5.2121927e-06
83	0xb6998981	-4.575763e-06
84	0x36682ae1	3.4595653e-06
85	0x37a239fe	1.933891e-05
86	0xb7115b10	-8.663876e-06
87	0xb57ad8cd	-9.3447744e-07
88	0xb69dd72a	-4.704013e-06
89	0xb6e8d559	-6.9389757e-06
90	0x3604392d	1.9702813e-06
91	0xb5b0595a	-1.3139027e-06
92	0xb6cc788d	-6.0937077e-06
93	0xb70902fb	-8.16653e-06
94	0x36c54154	5.8786627e-06
95	0xb74cee3b	-1.2214815e-05
96	0xb680c8c2	-3.8380686e-06
97	0xb61e95f5	-2.3631121e-06
98	0xb77f620e	-1.5222015e-05
99	0xb6962ee9	-4.4758094e-06
100	0x369780f3	4.5151623e-06
101	0xb669df09	-3.484953e-06
102	0x37066133	8.009653e-06
103	0xb6b02fbc	-5.2507658e-06
104	0x35ee13ef	1.7738183e-06
105	0xb67b3365	-3.743183e-06
106	0xb7ae5fc7	-2.0787016e-05
107	0x378400c5	1.5735985e-05
108	0x37011d7e	7.695866e-06
109	0xb73ac892	-1.1133163e-05
110	0x360bd26d	2.0835098e-06
111	0x35cfcbc5	1.5482007e-06
112	0xb6583567	-3.2217592e-06
113	0x358c4394	1.0450481e-06
114	0x37096cd3	8.191174e-06
115	0x3697d0ed	4.524473e-06
116	0x36ed799a	7.0773067e-06
117	0x34cdf8c2	3.836522e-07
118	0xb4047280	-1.2335113e-07
119	0xb7aaa674	-2.034309e-05
120	0x378b02c7	1.6571385e-05
121	0x359e289f	1.178374e-06
122	0x356072c1	8.361349e-07
123	0xb6f09207	-7.169557e-06
124	0x36e12f9b	6.7110645e-06
125	0xb74f5700	-1.2358418e-05
126	0x36ab022d	5.0964504e-06
127	0xb7e648fe	-2.7452126e-05

exp_avg_sq f4 [128]
0	0x3041bcad	7.0481115e-10
1	0x30836db8	9.562688e-10
2	0x31a69d19	4.849096e-09
3	0x30af52bb	1.2756439e-09
4	0x31f4ece5	7.1282664e-09
5	0x320b3cf5	8.104725e-09
6	0x30c6e9c6	1.4472838e-09
7	0x31137ac0	2.146109e-09
8	0x31024acd	1.896001e-09
9	0x30d73a90	1.5659953e-09
10	0x32238295	9.51754e-09
11	0x300d456c	5.1394156e-10
12	0x31d284b3	6.1268906e-09
13	0x3010e9a8	5.271894e-10
14	0x2f2bd7a6	1.5628973e-10
15	0x315bf800	3.2009666e-09
16	0x3083995a	9.57509e-10
17	0x3124af10	2.3964652e-09
18	0x314424e5	2.8542726e-09
19	0x2fe44b4f	4.1526468e-10
20	0x313369d8	2.6108093e-09
21	0x317c53d7	3.6718484e-09
22	0x315f86d6	3.2527416e-09
23	0x31432b47	2.8400835e-09
24	0x312d8ec2	2.5255962e-09
25	0x31a11771	4.6883817e-09
26	0x306cb3cd	8.611181e-10
27	0x310c4349	2.0410929e-09
28	0x32890081	1.5949128e-08
29	0x30815a3a	9.411629e-10
30	0x30ca6b2d	1.4727896e-09
31	0x31075c94	1.969771e-09
32	0x32e8b579	2.7090879e-08
33	0x32cda32e	2.3939347e-08
34	0x32bff01f	2.2344521e-08
35	0x31911b11	4.2231325e-09
36	0x316f7322	3.4844523e-09
37	0x30abe67c	1.2507395e-09
38	0x309a10cd	1.120975e-09
39	0x3318dc03	3.5590357e-08
40	0x316ee830	3.4765542e-09
41	0x30d673dd	1.560348e-09
42	0x30a921b5	1.2305948e-09
43	0x312d4248	2.521249e-09
44	0x317e9dd5	3.7051582e-09
45	0x316e7e84	3.4705474e-09
46	0x321af7e7	9.020346e-09
47	0x31b407a3	5.2395577e-09
48	0x31c24b8b	5.6547313e-09
49	0x2feb0435	4.274924e-10
50	0x314560f6	2.872239e-09
51	0x3069b8e7	8.502767e-10
52	0x3315d7f0	3.488816e-08
53	0x2f951faf	2.7125455e-10
54	0x30e457ff	1.6614193e-09
55	0x320e3760	8.278079e-09
56	0x3087146e	9.828349e-10
57	0x2fbb0abe	3.4022735e-10
58	0x30198ddc	5.586267e-10
59	0x30cdb52a	1.4967203e-09
60	0x3131b187	2.5857803e-09
61	0x2f3e18ae	1.7289167e-10
62	0x324544e3	1.1482572e-08
63	0x31386174	2.683092e-09
64	0x32686159	1.3526312e-08
65	0x31048351	1.9283173e-09
66	0x31bf609a	5.569814e-09
67	0x328b43c1	1.621254e-08
68	0x30061748	4.8782e-10
69	0x3123729b	2.3784767e-09
70	0x311b08b6	2.256042e-09
71	0x319474d8	4.3206505e-09
72	0x31be4b7f	5.5383107e-09
73	0x30944628	1.0788357e-09
74	0x3067766d	8.4205604e-10
75	0x3041d8cd	7.0521083e-10
76	0x3184f732	3.8698085e-09
77	0x32b6475b	2.1220037e-08
78	0x2fcc5845	3.7170103e-10
79	0x31620714	3.2891352e-09
80	0x325e59c7	1.2942514e-08
81	0x30a20e77	1.1791162e-09
82	0x2fddc21c	4.033759e-10
83	0x31c19bdb	5.634758e-09
84	0x3187784c	3.9426933e-09
85	0x31e78de0	6.739114e-09
86	0x2fd7a6ab	3.9226697e-10
87	0x318a724d	4.029323e-09
88	0x30b1e4d8	1.2943486e-09
89	0x303c8030	6.8576167e-10
90	0x305143ac	7.6129925e-10
91	0x30211b14	5.860994e-10
92	0x302f9035	6.386956e-10
93	0x320c4f35	8.167082e-09
94	0x2f326f7f	1.6228617e-10
95	0x318ad45c	4.040471e-09
96	0x3140fa5c	2.808199e-09
97	0x3115640d	2.1739226e-09
98	0x3164236f	3.3198508e-09
99	0x30f01a19	1.7469716e-09
100	0x306544c8	8.340746e-10
101	0x3009dc9b	5.015381e-10
102	0x301c2dde	5.681765e-10
103	0x321a6b53	8.9883825e-09
104	0x313869f1	2.6835745e-09
105	0x305dd3f7	8.070055e-10
106	0x3094ceae	1.0827159e-09
107	0x32ff7367	2.9738386e-08
108	0x321b95c6	9.056242e-09
109	0x3060af1f	8.173959e-10
110	0x30333bc4	6.520475e-10
111	0x307bdd80	9.162804e-10
112	0x31b346aa	5.2176192e-09
113	0x2fce05c6	3.7475284e-10
114	0x303aa48b	6.7900235e-10
115	0x30615e5c	8.1988616e-10
116	0x322a8e4f	9.92766e-09
117	0x2f413d94	1.7575125e-10
118	0x3266a8c4	1.3426135e-08
119	0x31f6ed22	7.186501e-09
120	0x31444791	2.8562435e-09
121	0x316f5a78	3.4830503e-09
122	0x32b1bc8e	2.0691257e-08
123	0x30d0d837	1.5195444e-09
124	0x30a172ff	1.1746976e-09
125	0x301a347c	5.609946e-10
126	0x30539f76	7.698796e-10
127	0x30d0a9b4	1.5182224e-09
