results/Slider_behavior/SliderBehavior/SliderBehavior-3206.pt (torch, 467223 bytes, 41 tensors)

network_body.observation_encoder.processors.0.normalizer.running_mean f4 [12]
6.110242 -5.3561816 0.3877311 -1.1417917 -0.24897465 -3.61743 0.0 0.12805559
0.088803045 -0.9265256 0.99968845 0.99968845
00000000: 1a87 c340 d765 abc0 b184 c63e 3b26 92bf
00000010: 36f3 7ebe f983 67c0 0000 0000 0121 033e
00000020: 5fde b53d c830 6dbf 95eb 7f3f 95eb 7f3f

network_body.observation_encoder.processors.0.normalizer.running_variance f4 [12]
15304.699 15296.048 15267.497 15268.652 29592.518 10005.5205 1.0 53586.207
28113.291 37107.246 1.9996833 1.9996833
00000000: cc22 6f46 3100 6f46 fd8d 6e46 9c92 6e46
00000010: 0931 e746 1556 1c46 0000 803f 3552 5147
00000020: 95a2 db46 3ff3 1047 9ff5 ff3f 9ff5 ff3f

network_body.processors.0.normalizer.running_mean f4 [12]
6.110242 -5.3561816 0.3877311 -1.1417917 -0.24897465 -3.61743 0.0 0.12805559
0.088803045 -0.9265256 0.99968845 0.99968845
00000000: 1a87 c340 d765 abc0 b184 c63e 3b26 92bf
00000010: 36f3 7ebe f983 67c0 0000 0000 0121 033e
00000020: 5fde b53d c830 6dbf 95eb 7f3f 95eb 7f3f

network_body.processors.0.normalizer.running_variance f4 [12]
15304.699 15296.048 15267.497 15268.652 29592.518 10005.5205 1.0 53586.207
28113.291 37107.246 1.9996833 1.9996833
00000000: cc22 6f46 3100 6f46 fd8d 6e46 9c92 6e46
00000010: 0931 e746 1556 1c46 0000 803f 3552 5147
00000020: 95a2 db46 3ff3 1047 9ff5 ff3f 9ff5 ff3f

network_body._body_endoder.seq_layers.0.weight f4 [128, 12]
0.11159818 -0.05972468 -0.41826734 -0.41967154 -0.050689314 -0.4562285 -0.034016028 0.09212987
-0.18535706 0.23434241 -0.79933286 -0.52840096 -0.7455191 0.053009186 -0.44992223 -0.30777466
-0.18117522 -0.2650563 0.29103312 0.21213055 -0.79045355 -0.46463034 -0.6399488 0.26619497
-0.08775449 0.014072003 -0.025857747 -0.29698557 0.09349657 -0.14896242 0.0677991 -0.17961529
0.029496314 -1.026583 0.65830183 -0.07684081 0.2867436 0.31306735 0.007888928 -0.5659118
0.04474445 -0.0202453 0.11604107 -0.26294756 -0.7272345 0.34669283 -0.9594474 -0.51459605
-0.1445411 0.8387983 -0.37732175 -0.3629351 -0.011983202 -0.53941274 0.11927474 -0.016066093
-0.17757258 -1.0035964 0.5553181 0.42594656 0.022109643 -0.15226674 -0.38323316 -0.49415246
0.38193384 -0.15788417 -0.11420727 -0.4518721 -0.18200016 0.033870406 -0.29863393 -0.43365726
0.20942865 0.046605982 -0.021473754 -0.8499618 0.13476346 -0.12452587 0.5163266 0.26636884
-0.19556761 0.8430205 -0.52203 -0.47883624 0.5100208 0.23749334 -0.09506677 -0.00827256
0.6051843 0.112887785 0.24935675 -0.23122668 -0.015608908 0.6057662 0.003789809 -0.5841638
-0.12784806 0.6051947 -0.079793856 0.043647397 -0.2343106 -0.32838872 -0.19890644 0.22542873
-0.2970312 -0.28852093 -0.20507218 -0.8966332 0.13737199 0.01274536 -0.06095325 0.039151836
0.40570614 -0.15437548 -0.13109748 0.70974344 0.24432206 0.99358344 0.399531 0.12383219
-0.4912523 0.15170734 -0.11731799 0.017297544 -1.0369955 0.12726244 0.025630992 -0.1299727
0.19560972 -0.523741 0.42814863 -0.23475437 0.5308123 0.39223054 -0.36410493 0.00538509
0.03205265 -0.6300569 0.03137621 0.33015522 -0.25145665 -0.9366413 0.10321193 0.14265582
-0.22148867 0.43052828 -0.25825256 -0.26756752 0.5628075 -0.3623151 0.3329478 -0.04766301
-0.60437447 -1.1320809 0.23948675 -0.22633994 0.13095212 0.53442615 0.11419403 -0.4295088
-0.023183694 -0.3291852 -0.18626486 -0.20299281 -0.18916163 0.3001418 -1.1206827 -0.6845829
-0.46751115 0.05462411 0.56672597 0.42007998 -0.36385363 -0.09602354 -0.031627573 -0.27398723
0.42933932 0.50768256 0.4011816 0.8380568 0.020796858 0.21851738 -0.2695249 -0.74150264
0.2839196 -0.4064471 0.023243047 0.39961335 -0.1647696 -1.2036859 0.568106 0.1430515
0.79674006 0.5273978 0.48820367 -0.6027188 0.3987959 -0.20929128 0.4724448 -0.5414909
-0.24653372 0.18764624 -0.3999192 -0.2102028 0.7543999 0.8038925 0.037971217 -0.055703364
-0.16632038 -0.32680482 -0.06808781 0.22969615 -0.36498544 -0.8758705 0.2182049 -0.047178354
0.18081352 0.123420246 0.25906563 0.1392439 -0.6010195 0.1417323 -0.29097864 -0.54802805
1.1443824 -0.581145 -0.034979504 0.25512904 0.10371546 0.32885867 -0.2754622 -0.2790681
0.20116997 -0.08462702 0.17093875 -0.19495727 -0.42253914 0.71260726 -0.11474193 -0.19263397
-0.18949838 -0.26401302 0.3185661 0.43360063 -0.11753445 0.22897767 0.12789737 0.3558801
-0.0519294 -0.49508852 0.02432186 0.04378958 -0.24160586 0.04928913 0.2592023 -0.1747348
00000000: 968d e43d dea1 74bd 2327 d6be 30df d6be
00000010: 999f 4fbd c896 e9be 6454 0bbd 96ae bc3d
00000020: 3ece 3dbe 75f7 6f3e 14a1 4cbf 4945 07bf
00000030: 57da 3ebf 2920 593d 355c e6be a494 9dbe
00000040: ff85 39be 76b5 87be 4b02 953e c038 593e
00000050: 2a5b 4abf 07e4 edbe afd3 23bf b54a 883e
00000060: a0b8 b3bd 428e 663c a0d3 d3bc 7e0e 98be
00000070: 217b bf3d 9b89 18be 41da 8a3d 12ed 37be
00000080: 41a2 f13c 1267 83bf 7886 283f b75e 9dbd
00000090: 0fd0 923e 5d4a a03e 9040 013c 99df 10bf
000000a0: f545 373d 79d9 a5bc f1a6 ed3d 10a1 86be
000000b0: 0a2c 3abf b981 b13e 589e 75bf 91bc 03bf
000000c0: 9502 14be 7cbb 563f 5130 c1be a1d2 b9be
000000d0: 3155 44bc f416 0abf 5146 f43d 0a9d 83bc
000000e0: 96d5 35be d975 80bf 5429 0e3f ab15 da3e
000000f0: 481f b53c d0eb 1bbe 2337 c4be 8d01 fdbe
00000100: d58c c33e 63ac 21be 80e5 e9bd c85b e7be
00000110: 405e 3abe b2bb 0a3d 8ce6 98be 5308 debe
00000120: 7774 563e eae5 3e3d bae9 afbc 1997 59bf
00000130: 6fff 093e 6b07 ffbd fb2d 043f 7f61 883e
00000140: e042 48be 31d0 573f c2a3 05bf 062a f5be
00000150: b990 023f 7431 733e 5eb2 c2bd a289 07bc
00000160: 5ced 1a3f b631 e73d 6057 7f3e b0c6 6cbe
00000170: 81bc 7fbc 7e13 1b3f 725e 783b c28b 15bf
00000180: 9aea 02be 0aee 1a3f f66a a3bd 9dc7 323d
00000190: 1eef 6fbe 9122 a8be 21ae 4bbe cad6 663e
000001a0: 7914 98be 04b9 93be 71fe 51be c189 65bf
000001b0: 3eab 0c3e ead1 503c 1daa 79bd ad5d 203d
000001c0: b7b8 cf3e 9b14 1ebe 6b3e 06be bfb1 353f
000001d0: 902f 7a3e 7c5b 7e3f 548f cc3e bb9b fd3d
000001e0: 6c85 fbbe 2b59 1b3e 6a44 f0bd 94b3 8d3c
000001f0: 45bc 84bf 1651 023e 16f8 d13c 9017 05be
00000200: ea4d 483e e413 06bf 4c36 db3e 7363 70be
00000210: 51e3 073f 71d2 c83e f66b babe 6975 b03b
00000220: a449 033d 694b 21bf 5784 003d 1b0a a93e
00000230: edbe 80be b9c7 6fbf c760 d33d 5e14 123e
00000240: edcd 62be 346e dc3e ae39 84be 9cfe 88be
00000250: 2714 103f 5d81 b9be 2278 aa3e 4a3a 43bd
00000260: 49b8 1abf 07e8 90bf 043c 753e a8c5 67be
00000270: 5018 063e 27d0 083f 8fde e93d 94e8 dbbe
00000280: bbeb bdbc f68a a8be 37bc 3ebe 59dd 4fbe
00000290: 96b3 41be 30ac 993e 8872 8fbf d340 2fbf
000002a0: 9f5d efbe 88bd 5f3d f414 113f b914 d73e
000002b0: 064b babe fda7 c4bd ea8b 01bd 0e48 8cbe
000002c0: 5dd2 db3e 7cf7 013f ad67 cd3e e48a 563f
000002d0: 2c5e aa3c 05c3 5f3e 2bff 89be 1ed3 3dbf
000002e0: e95d 913e d619 d0be 3468 be3c 1f9a cc3e
000002f0: 5db9 28be 6112 9abf 656f 113f 187c 123e
00000300: 28f7 4b3f 8b03 073f d5f5 f93e c74b 1abf
00000310: fa2e cc3e 7450 56be 49e4 f13e 269f 0abf
00000320: 5673 7cbe 5626 403e 36c2 ccbe 673f 57be
00000330: 5a20 413f e6cb 4d3f b587 1b3d 3629 64bd
00000340: e44f 2abe f652 a7be 9f71 8bbd 7835 6b3e
00000350: 5fdf babe 0d39 60bf 1b71 5f3e 173e 41bd
00000360: 2e27 393e c1c3 fc3d 40a4 843e f495 0e3e
00000370: 6adc 19bf 4622 113e 27fb 94be 914b 0cbf
00000380: 1f7b 923f ebc5 14bf ab46 0fbd 46a0 823e
00000390: c568 d43d 2a60 a83e 6209 8dbe 04e2 8ebe
000003a0: 80ff 4d3e ee50 adbd 910a 2f3e e1a2 47be
000003b0: 0d57 d8be 6e6d 363f d1fd eabd d741 45be
000003c0: dd0b 42be b72c 87be 191b a33e e700 de3e
000003d0: e7b5 f0bd 1f79 6a3e 87f7 023e eb35 b63e
000003e0: ecb3 54bd 3e7c fdbe a33e c73c b45c 333d
000003f0: 8767 77be 66e3 493d 2ab6 843e aeed 32be

network_body._body_endoder.seq_layers.0.bias f4 [128]
-0.5727251 -0.44034418 0.28105113 -0.36950102 0.043849748 -0.5880377 -0.23820181 -0.2704195
-0.5488128 -0.049145795 0.095457375 -0.070093185 -0.17375594 -0.5893918 0.5098862 0.011119062
-0.37022135 0.111262575 0.0018677926 -0.42857015 -0.42675054 -0.5588058 0.012846957 -0.5393685
-0.28860688 -0.6068938 0.22469077 -0.17312956 -0.37053788 -0.36143616 0.28140244 -0.14668205
0.13756433 0.032701045 -0.3492587 -0.47212374 0.062385116 -0.13121982 -0.4974401 -0.28613472
0.27406022 -0.42059457 -0.5622448 -0.038805217 0.19083437 -0.2648557 0.5590801 0.21252818
-0.48326775 -0.3303423 0.24230936 -0.38337067 -0.6115732 0.123464175 0.0017349126 0.0017404857
-0.12775205 0.19449118 -0.4049845 0.31014583 -0.14233357 0.24780154 -0.3215102 0.04895027
-0.24030106 -0.09887725 -0.34206438 0.30888563 -0.5163551 -0.012706175 -0.23435225 -0.49131295
-0.14363374 0.10939356 -0.5504271 -0.56344485 -0.521355 -0.25350967 -0.6235254 -0.61300516
-0.094823316 0.18094848 -0.2612476 -0.41744918 -0.37204853 -0.42700285 -0.46171358 0.20448066
0.03533755 0.027685784 -0.15612522 -0.28486034 -0.06906556 0.22616787 -0.61922646 0.2784198
-0.46344346 -0.5180648 -0.29359758 -0.29404277 -0.51045644 -0.1820789 0.2239631 -0.19042888
-0.42776144 -0.3039234 -0.45875096 -0.18048649 -0.4953102 -0.26449716 0.60726523 -0.1752047
0.3464754 -0.3495906 -0.52681494 -0.35159785 -0.2982073 0.04472198 0.10696116 -0.19056895
-0.57103574 -0.3010604 0.30286312 -0.41238374 0.044243257 0.24120322 -0.55597377 -0.56331146
00000000: 1d9e 12bf cb74 e1be efe5 8f3e 3d2f bdbe
00000010: cb9b 333d a489 16bf 2deb 73be 6d74 8abe
00000020: ff7e 0cbf 1a4d 49bd 287f c33d 048d 8fbd
00000030: 14ed 31be 62e2 16bf e787 023f ba2c 363c
00000040: a78d bdbe a2dd e33d b8d0 f43a 8c6d dbbe
00000050: 0c7f dabe e60d 0fbf 0b7c 523c 0e14 0abf
00000060: 48c4 93be 645d 1bbf 5615 663e e048 31be
00000070: 24b7 bdbe 290e b9be fb13 903e d233 16be
00000080: aadd 0c3e 88f1 053d 09d2 b2be 34ba f1be
00000090: 8987 7f3d 7d5e 06be 78b0 febe 4080 92be
000000a0: 9f51 8c3e 2c58 d7be 46ef 0fbf 38f2 1ebd
000000b0: 166a 433e 2b9b 87be e01f 0f3f fda0 593e
000000c0: df6e f7be a022 a9be f21f 783e 2949 c4be
000000d0: 1090 1cbf c9da fc3d 0266 e33a 0221 e43a
000000e0: 6fd1 02be b228 473e 215a cfbe 6fcb 9e3e
000000f0: e4bf 11be b0bf 7d3e fc9c a4be 1480 483d
00000100: 7b11 76be 2880 cabd 1023 afbe 4226 9e3e
00000110: d92f 04bf 902d 50bc 09fa 6fbe 5f8d fbbe
00000120: b914 13be bb09 e03d cae8 0cbf ec3d 10bf
00000130: 8577 05bf 05cc 81be 5c9f 1fbf e8ed 1cbf
00000140: ba32 c2bd 8f4a 393e 3fc2 85be e6bb d5be
00000150: 257d bebe 1ea0 dabe b965 ecbe 6163 513e
00000160: 1bbe 103d 4ccd e23c 4adf 1fbe 37d9 91be
00000170: 3f72 8dbd 8d98 673e a085 1ebf 0a8d 8e3e
00000180: 7648 edbe e59f 04bf 6c52 96be c68c 96be
00000190: 46ad 02bf e472 3abe 9556 653e caff 42be
000001a0: 8c03 dbbe d99b 9bbe 68e1 eabe 73d1 38be
000001b0: 4c99 fdbe 2c6c 87be bc75 1b3f dc68 33be
000001c0: 3965 b13e 8afd b2be 58dd 06bf a204 b4be
000001d0: a1ae 98be 652e 373d 740e db3d 8224 43be
000001e0: 662f 12bf 9724 9abe e010 9b3e f623 d3be
000001f0: 6b38 353d fafd 763e 4c54 0ebf 2e35 10bf

network_body._body_endoder.seq_layers.2.weight f4 [128, 128]
-0.10494305 0.12750833 0.423502 -0.07426773 -0.025066389 -0.05785284 -0.17384943 -0.2120399
-0.1492883 -0.24660233 0.22458854 -0.06533943 0.08037081 0.34598383 -0.55292445 0.15269911
0.07508906 -0.51481074 0.42144513 -0.3884409 0.38515452 0.37014425 0.6299462 -0.21970148
-0.34312084 -0.26082033 0.40765017 -0.36250958 -0.038428698 0.25560662 0.043974433 -0.3355662
0.40413472 0.3994963 -0.25998828 -0.17713612 0.23416185 -0.11165432 0.3143007 0.17268513
-0.527176 0.08108289 -0.13170418 0.26332104 0.57518643 -0.111918144 -0.5998818 0.4014666
0.40686843 -0.2839729 -0.022236673 -0.09078799 -0.30462348 -0.38941285 0.5482015 -0.5802584
0.04311393 0.47281706 -0.24978656 0.48752022 -0.19690855 -0.27711418 0.17966178 -0.3264755
-0.36611414 -0.52091897 0.056595042 -0.6010747 -0.3115309 -0.2598211 -0.43376866 0.12040748
0.017953688 -0.6014611 -0.0068301107 -0.2204245 0.12249844 -0.46310776 -0.26275936 -0.28258577
-0.32016253 0.45970473 -0.12019642 -0.2727244 -0.16250399 0.08582882 0.19429748 -0.12350668
0.15133707 -0.019031437 0.06040925 0.0922877 0.015310407 0.36435184 -0.046813793 -0.66868705
-0.15835036 -0.111474425 -0.2815308 -0.25563076 0.04152912 0.17717871 0.050423335 -0.20677824
-0.020356113 0.1005575 -0.4611692 -0.31289452 -0.23090856 -0.09995913 -0.6849557 -0.45989788
0.3485475 0.16914806 -0.034171656 0.31022182 -0.14636293 0.14812458 0.5428781 -0.16461827
0.3093231 0.054513622 0.29158357 0.025233347 -0.50777954 0.69597244 -0.22741623 -0.057255488
-0.019271377 0.22897673 -0.1753168 0.3796882 -0.33546466 0.024504272 -0.13396825 -0.09302501
0.36709493 -0.16176352 0.2968669 -0.3384703 -0.23833835 0.08536267 -0.28166378 -0.2450749
-0.034947384 -0.3475286 0.27913144 -0.18090537 0.65829676 0.15579681 0.16244675 -0.018727228
-0.21398883 0.38017023 0.4766748 -0.15716894 0.19076091 0.0671707 -0.121358186 -0.2418009
0.2945344 0.35644624 -0.32673076 -0.449187 -0.12483404 -0.19075915 0.24488507 0.22546339
-0.32773495 0.15686698 -0.3298981 0.36808184 0.0010996056 0.60471547 -0.41234532 0.39069244
0.45324063 0.09799823 -0.26147982 -0.16463251 -0.11172644 -0.43949172 0.14701782 -0.4031043
-0.45179906 0.5181644 -0.39088124 0.372561 -0.03830968 -0.095863186 0.24967481 -0.15311077
-0.05745367 -0.40806633 -0.1229989 -0.47607878 -0.067827955 -0.3711557 -0.34706172 0.09058362
0.0669525 -0.032446977 0.03311621 0.108636506 0.06707566 -0.40925 0.2191755 -0.45597517
0.015716527 0.4277407 0.3020628 -0.18503127 -0.10852106 0.043641586 0.19819127 -0.3491467
0.072721794 -0.20051253 -0.09847432 0.06664767 -0.27679917 0.23369531 -0.25452802 -0.41939205
-0.2890579 -0.010557024 -0.26103634 -0.046551622 0.04397507 0.101816826 0.029125053 -0.12690604
-0.1133045 0.21851432 -0.28118065 -0.18109345 -0.26648262 0.37327445 -0.15688737 -0.42077747
0.43681598 0.27896595 -0.065669045 0.2630123 -0.19807275 -0.088892125 0.25801778 -0.48090547
0.4393708 0.25746545 0.09799857 0.042151388 0.38156366 0.13320321 -0.21335056 -0.32350963
00000000: 62ec d6bd 8b91 023e 41d5 d83e ae19 98bd
00000010: 0758 cdbc 19f7 6cbd 9605 32be fd20 59be
00000020: 08df 18be 5285 7cbe 8afa 653e aed0 85bd
00000030: 7499 a43d cb24 b13e 758c 0dbf 285d 1c3e
00000040: 4bc8 993d a3ca 03bf a8c7 d73e bae1 c6be
00000050: f932 c53e 8c83 bd3e 2744 213f 6df9 60be
00000060: 89ad afbe 3e8a 85be 86b7 d03e db9a b9be
00000070: 6967 1dbd dfde 823e 891e 343d 55cf abbe
00000080: bfea ce3e c78a cc3e 2f1d 85be 2c63 35be
00000090: 20c8 6f3e 05ab e4bd 05ec a03e 5fd4 303e
000000a0: 02f5 06bf c90e a63d 76dd 06be 04d2 863e
000000b0: 6b3f 133f 5735 e5bd db91 19bf 088d cd3e
000000c0: 0f51 d03e e564 91be af29 b6bc 0eef b9bd
000000d0: 9cf7 9bbe 1f61 c7be ef56 0c3f d18b 14bf
000000e0: 3b98 303d 1415 f23e 0cc8 7fbe 409c f93e
000000f0: 65a2 49be e9e1 8dbe 42f9 373e cc27 a7be
00000100: 5073 bbbe f25a 05bf 34d0 673d 08e0 19bf
00000110: fa80 9fbe 4507 85be ed16 debe 3298 f63d
00000120: 9d13 933c 5bf9 19bf 1fcf dfbb f6b6 61be
00000130: 76e0 fa3d 761c edbe 6588 86be 15af 90be
00000140: 58ec a3be 6b5e eb3e 8a29 f6bd 88a2 8bbe
00000150: 7267 26be 05c7 af3d ebf5 463e 12f1 fcbd
00000160: 1bf8 1a3e d1e7 9bbc b16f 773d 5501 bd3d
00000170: 80d8 7a3c 538c ba3e d2bf 3fbd 132f 2bbf
00000180: 9926 22be b44c e4bd ce24 90be 09e2 82be
00000190: 701a 2a3d 566e 353e b388 4e3d adbd 53be
000001a0: ddc1 a6bc 17f1 cd3d 5f1e ecbe b633 a0be
000001b0: 4b73 6cbe 5fb7 ccbd 4259 2fbf bc77 ebbe
000001c0: d174 b23e 2635 2d3e 94f7 0bbd 65d5 9e3e
000001d0: 2ae0 15be f8ad 173e 0ffa 0a3f b191 28be
000001e0: 995f 9e3e ad49 5f3d 714a 953e 2ab6 ce3c
000001f0: d7fd 01bf 402b 323f cddf 68be bb84 6abd
00000200: 02df 9dbc e078 6a3e 3f86 33be 7e66 c23e
00000210: 06c2 abbe 2fbd c83c f92e 09be e583 bebd
00000220: def3 bb3e 56a5 25be f0fe 973e fb4b adbe
00000230: f80e 74be a0d2 ae3d 3c36 90be eaf4 7abe
00000240: fd24 0fbd 45ef b1be 51ea 8e3e 423f 39be
00000250: 2386 283f 3389 1f3e 7158 263e d869 99bc
00000260: e31f 5bbe aca5 c23e b80e f43e e5f0 20be
00000270: d456 433e cb90 893d a48a f8bd a89a 77be
00000280: 36cd 963e 1f80 b63e 4149 a7be d7fb e5be
00000290: fda8 ffbd 5e56 43be 27c3 7a3e e0df 663e
000002a0: e0cc a7be bda1 203e 67e8 a8be 3975 bc3e
000002b0: a420 903a a2ce 1a3f ed1e d3be d708 c83e
000002c0: 280f e83e 4cb3 c83d afe0 85be 6d95 28be
000002d0: d5d0 e4bd 0f05 e1be d78b 163e b063 cebe
000002e0: 3552 e7be 6ca6 043f 9621 c8be 51c0 be3e
000002f0: 9cea 1cbd eb53 c4bd c1aa 7f3e 12c9 1cbe
00000300: 8a54 6bbd 12ee d0be d9e6 fbbd 99c0 f3be
00000310: 62e9 8abd 1f08 bebe 13b2 b1be e883 b93d
00000320: 641e 893d 1fe7 04bd dda4 073d d17c de3d
00000330: f75e 893d 3789 d1be 8b6f 603e 9475 e9be
00000340: f2bf 803c d400 db3e faa7 9a3e d678 3dbe
00000350: 4a40 debd 85c1 323d a7f2 4a3e 5bc3 b2be
00000360: 2aef 943d 2853 4dbe e7ac c9bd 937e 883d
00000370: 9fb8 8dbe d34d 6f3e 7f51 82be 8eba d6be
00000380: 66ff 93be 5ef7 2cbc 8ea6 85be eaac 3ebd
00000390: 341f 343d 5785 d03d aa97 ee3c a8f3 01be
000003a0: 310c e8bd 38c2 5f3e e9f6 8fbe 9070 39be
000003b0: 6970 88be d41d bf3e 15a7 20be 2570 d7be
000003c0: 58a6 df3e a0d4 8e3e 7e7d 86bd 8ca9 863e
000003d0: 95d3 4abe 130d b6bd e81a 843e 3e39 f6be
000003e0: 36f5 e03e 83d2 833e 79b3 c83d efa6 2c3d
000003f0: 505c c33e 6c66 083e 9278 5abe 0ea3 a5be

network_body._body_endoder.seq_layers.2.bias f4 [128]
-0.10503435 -0.121797815 -0.3516981 0.031934593 -0.4489746 -0.4859474 0.012977633 -0.35608706
-0.2986977 -0.101679005 -0.45109344 -0.081758305 -0.33841386 -0.3036061 -0.10973648 -0.22579661
-0.41741645 -0.43493915 -0.33974263 -0.07107637 -0.28755975 -0.5152447 -0.58114964 -0.25631145
-0.22501944 -0.42507845 -0.5265226 -0.3099197 -0.48955864 -0.085573316 -0.25528604 -0.39548776
-0.29550794 -0.056403484 -0.22661424 -0.6027402 -0.4155858 -0.28963372 -0.31971574 -0.7085648
-0.21440096 -0.30240753 -0.17655376 -0.37234262 -0.16777131 -0.20253515 -0.4455655 -0.113432944
-0.07543501 -0.061300337 -0.45449868 -0.6537372 -0.07396968 -0.29771936 -0.23902683 -0.25225624
-0.3983046 -0.2762497 -0.85957974 -0.34529305 -0.35114846 -0.5932096 -0.11505164 -0.2508091
-0.21046174 -0.14101003 0.023102606 -0.030604638 -0.5958286 -0.35748014 -0.14883152 -0.47762012
-0.0094254855 0.023760835 -0.25781617 -0.12293357 -0.15123932 -0.06430218 -0.5268279 -0.6287575
-0.53831226 -0.43491596 -0.029164154 -0.045338806 -0.11678769 -0.3389917 -0.03413272 -0.40519416
-0.037266333 -0.20452517 -0.18445788 -0.30944297 -0.07946155 -0.20760638 -0.34108806 -0.49285975
-0.7690115 -0.51746905 -0.26853636 -0.5440233 -0.019256342 -0.5780252 -0.340351 -0.17775658
-0.39432493 -0.076767825 0.0024333904 -0.46430644 -0.25024357 -0.4274481 -0.15303569 -0.66501284
-0.045768745 -0.23735566 -0.033807706 -0.037488345 -0.21552907 -0.2753731 -0.09941859 -0.35443145
-0.08759268 -0.3981153 -0.05462486 -0.14013971 -0.33723176 -0.44245416 -0.6485265 -0.26272526
00000000: 401c d7bd 2271 f9bd c611 b4be d9cd 023d
00000010: 00e0 e5be 19ce f8be 23a0 543c 0b51 b6be
00000020: e8ee 98be 153d d0bd b8f5 e6be e670 a7bd
00000030: 9544 adbe 4272 9bbe 85bd e0bd 3a37 67be
00000040: 9cb7 d5be 58b0 debe bff2 adbe 7d90 91bd
00000050: 083b 93be 14e7 03bf 39c6 14bf 413b 83be
00000060: 7f6b 66be e2a3 d9be 2fca 06bf cbad 9ebe
00000070: 6ea7 fabe 1041 afbd dab4 82be 5f7d cabe
00000080: d14c 97be 5707 67bd 900d 68be 2f4d 1abf
00000090: a9c7 d4be df4a 94be c8b1 a3be 8164 35bf
000000a0: ed8b 5bbe 29d5 9abe 82ca 34be b1a3 bebe
000000b0: 3ecc 2bbe 6065 4fbe 2921 e4be 884f e8bd
000000c0: ac7d 9abd 1016 7bbd 0db4 e8be 525b 27bf
000000d0: 6a7d 97bd ac6e 98be 73c3 74be bb27 81be
000000e0: 95ee cbbe 9a70 8dbe 6b0d 5cbf 40ca b0be
000000f0: bbc9 b3be 96dc 17bf 32a0 ebbd 0d6a 80be
00000100: 4883 57be ef64 10be ad41 bd3c 94b6 fabc
00000110: 3988 18bf a307 b7be 4a67 18be a08a f4be
00000120: 5a6d 1abc 15a6 c23c 7b00 84be 98c4 fbbd
00000130: 7bde 1abe ddb0 83bd 31de 06bf 40f6 20bf
00000140: d5ce 09bf 4ead debe aae9 eebc 2fb5 39bd
00000150: 622e efbd 5290 adbe c0ce 0bbd 9c75 cfbe
00000160: 95a4 18bd 0c6f 51be 87e2 3cbe 4f6f 9ebe
00000170: bdbc a2bd c496 54be 18a3 aebe 1d58 fcbe
00000180: f0dd 44bf da78 04bf 997d 89be 1c45 0bbf
00000190: 7abf 9dbc 76f9 13bf 7c42 aebe d205 36be
000001a0: f5e4 c9be 7338 9dbd 8479 1f3b 93b9 edbe
000001b0: ed1f 80be 7ada dabe 63b5 1cbe 483e 2abf
000001c0: 0278 3bbd 5d0d 73be f379 0abd 618d 19bd
000001d0: a7b3 5cbe b4fd 8cbe f99b cbbd 0a78 b5be
000001e0: ca63 b3bd c5d5 cbbe 51be 5fbd c980 0fbe
000001f0: a4a9 acbe 5a89 e2be d505 26bf ed83 86be

action_model._continuous_distribution.mu.weight f4 [1, 128]
0.1850579 0.027174063 0.051893488 0.04590895 -0.028628437 -0.34766397 0.13851747 -0.3001622
-0.24813095 0.10949896 0.10653158 0.042163078 0.051643457 0.15307292 0.09260445 0.06502651
-0.2922464 -0.3333749 0.1320953 0.031106718 0.0024178722 0.12408231 0.03886842 -0.07554861
0.16433167 0.11416646 0.05203199 0.01903804 0.09083024 0.17878528 -0.09676593 0.095954515
0.10069303 0.019467132 -0.045663357 -0.2608438 0.11972953 0.042096302 0.060378086 0.07858328
0.033896595 0.08557993 -0.00023909692 -0.30509552 0.06270429 0.20690292 -0.21048352 -0.009044411
0.051435433 0.008621419 0.04526006 -0.04473691 0.060903918 0.25488403 -0.18688661 0.22177067
-0.041987333 -0.18052875 -0.13466026 0.17682523 0.05987458 -0.18697698 0.08730098 0.07317253
0.2803243 0.22242504 0.010112327 0.073565304 -0.36762387 -0.22499764 0.014976696 -0.26185462
0.099317834 0.19186017 0.09137227 0.26557547 -0.0049426127 0.031128976 -0.12047192 0.0039988346
-0.25884923 -0.054064754 0.105674796 0.048533037 0.05656273 -0.0134093715 -0.008462493 0.046952855
0.08693577 0.16733095 0.19723162 0.12490139 0.082953 0.007732185 -0.26001316 -0.2538377
-0.0778223 -0.16800138 0.035303663 0.02488289 0.04695972 0.03427827 -0.007208231 0.08297899
0.101646 -0.03113225 0.0645306 0.13905554 0.036866255 -0.23583592 0.34166992 -0.2593839
0.15615015 0.013262523 0.07423795 -0.028810404 -0.03873646 -0.056684002 0.058305867 0.12284794
0.03889304 -0.03664519 0.00640862 -0.0008202175 0.08613649 0.09493949 -0.20398007 0.22603454
00000000: d17f 3d3e 249c de3c 448e 543d 060b 3c3d
00000010: 2f86 eabc 0301 b2be 86d7 0d3e dcae 99be
00000020: 0a16 7ebe fe40 e03d 3b2d da3d 31b3 2c3d
00000030: 1788 533d 26bf 1c3e 67a7 bd3d 9e2c 853d
00000040: 52a1 95be 1db0 aabe fe43 073e 84d3 fe3c
00000050: 2a75 1e3b de1e fe3d 7e34 1f3d 3bb9 9abd
00000060: 9046 283e 1bd0 e93d 7f1f 553d aaf5 9b3c
00000070: 3405 ba3d 7d13 373e 372d c6bd cd83 c43d
00000080: 2638 ce3d 8979 9f3c 8009 3bbd 528d 85be
00000090: c134 f53d 2c6d 2c3d 034f 773d 45f0 a03d
000000a0: 28d7 0a3d 8844 af3d 17b6 7ab9 7b35 9cbe
000000b0: 1b6b 803d 5cde 533e fe88 57be 022f 14bc
000000c0: f6ad 523d da40 0d3c 9d62 393d 0d3e 37bd
000000d0: 6376 793d 2980 823e 345f 3fbe da17 633e
000000e0: e9fa 2bbd 87dc 38be 61e4 09be ac11 353e
000000f0: 0c3f 753d e576 3fbe dbca b23d 7bdb 953d
00000100: ab86 8f3e 64c3 633e 2cae 253c 68a9 963d
00000110: 3239 bcbe c865 66be d160 753c cf11 86be
00000120: 2667 cb3d fe76 443e 6221 bb3d 82f9 873e
00000130: a4f5 a1bb 3202 ff3c fbb9 f6bd a808 833b
00000140: e387 84be 0173 5dbd 076c d83d 94ca 463d
00000150: 52ae 673d fbb2 5bbc 45a6 0abc a351 403d
00000160: 620b b23d ce58 2b3e 16f7 493e 4dcc ff3d
00000170: 43e3 a93d 455e fd3b 7220 85be 04f7 81be
00000180: 4c61 9fbd 8e08 2cbe 939a 103d 34d7 cb3c
00000190: d658 403d 5f67 0c3d 0633 ecbb e4f0 a93d
000001a0: c72b d03d 0f09 ffbc 9f28 843d 9364 0e3e
000001b0: 1201 173d f97e 71be 5cef ae3e f7cd 84be
000001c0: d3e5 1f3e 0e4b 593c 110a 983d cc03 ecbc
000001d0: 1faa 1ebd 7c2d 68bd 22d2 6e3d b397 fb3d
000001e0: 4f4e 1f3d 4419 16bd 67ff d13b dd03 57ba
000001f0: 5468 b03d a36f c23d 27e0 50be 9975 673e

action_model._discrete_distribution.branches.0.weight f4 [1, 128]
-0.0033216365 0.00032747554 -0.016093371 0.0135899065 -0.0036765472 0.0009306289 -0.011604662 0.0074824886
-0.0051993164 -0.010149892 -0.0019646254 0.008085235 -0.0014536394 0.0023376632 0.008242111 0.004818646
0.0037345588 -0.016640402 -0.004938302 -0.009495383 -0.00280815 -0.0012668585 0.01347771 -0.00459315
0.0036702554 0.007981515 0.0014736686 0.0003675479 0.005489605 0.0006227597 0.012099571 -0.005195118
-0.001441623 0.002185732 0.010449251 0.009158584 0.007639795 -0.00011364473 0.00094030314 0.0064172596
-0.0042714933 0.01062642 0.0017978953 0.00521275 0.0007319415 0.0046383827 0.01112952 -0.020924814
-0.0007757046 0.004094976 0.008208476 -0.00994779 -0.0034605626 -0.0072953524 0.008115019 -0.010467383
0.016124828 -0.011857183 -0.013667966 -0.0046091136 -0.007223697 -0.009475364 0.01069107 -0.0058288514
-0.0027917125 0.0033160392 -0.017812034 -0.003690536 0.0021701127 -0.0026084506 0.003373863 -0.0023835893
0.0017274965 -0.0057394686 0.005830699 -0.0053628054 -0.007840843 -0.0010552815 -0.0014043723 0.008792225
-0.017192977 0.0053968034 -0.01599377 0.025648832 -0.004272131 0.006721505 0.0019174423 0.01135401
-0.008615618 -0.004130524 0.009266361 0.00036893736 -0.011203882 0.015958592 0.005668234 0.0025092082
0.0033908405 0.0063867653 -0.0128706535 -0.012681888 -0.003758248 0.008088644 -0.005488023 0.0037397337
0.00090826367 -0.00985372 0.011047411 0.01072767 -0.009413429 0.007576534 -0.010982878 -0.004903182
0.000864125 0.013661633 0.0061091445 -0.0045283632 -0.019684732 0.004842542 -0.015660094 0.009724169
-0.0018684032 0.004241914 0.011191244 0.0033086117 -0.012237287 -0.00043804414 -0.010704954 0.0048325714
00000000: d0af 59bb 06b1 ab39 3fd6 83bc 33a8 5e3c
00000010: 3af2 70bb 73f5 733a 7b21 3ebc aa2f f53b
00000020: 075f aabb bc4b 26bc f2c0 00bb ef77 043c
00000030: 0b88 beba 7b33 193b eb09 073c bbe5 9d3b
00000040: 80bf 743b 7451 88bc 7bd1 a1bb 8692 1bbc
00000050: f008 38bb b80c a6ba 9dd1 5c3c 2382 96bb
00000060: ab88 703b e6c4 023c 1d28 c13a 72b3 c039
00000070: 25e2 b33b b240 233a 473d 463c cf3b aabb
00000080: d7f4 bcba 7f3e 0f3b 5633 2b3c e30d 163c
00000090: 3f57 fa3b 8d54 eeb8 ad7e 763a e047 d23b
000000a0: e2f7 8bbb 701a 2e3c 5ba7 eb3a b7cf aa3b
000000b0: c3df 3f3a 93fd 973b 9758 363c 846a abbc
000000c0: a858 4bba 262f 863b d87c 063c 0efc 22bc
000000d0: 9bca 62bb da0d efbb dbf4 043c 637f 2bbc
000000e0: 3718 843c a144 42bc 9bef 5fbc 0c08 97bb
000000f0: c3b4 ecbb 8f3e 1bbc 9929 2f3c f3ff bebb
00000100: 2af5 36bb e851 593b 8bea 91bc ebdc 71bb
00000110: 7338 0e3b 8af2 2abb 071c 5d3b fe35 1cbb
00000120: 2a6d e23a 2712 bcbb 730f bf3b 79ba afbb
00000130: e176 00bc 5f51 8aba ea12 b8ba 440d 103c
00000140: 49d8 8cbc abd7 b03b 5e05 83bc 801d d23c
00000150: 3bfd 8bbb 1240 dc3b b052 fb3a 2b06 3a3c
00000160: 8528 0dbc 5959 87bb efd1 173c ef6d c139
00000170: 7d90 37bc 98bb 823c 98bc b93b 8771 243b
00000180: dd38 5e3b 1248 d13b 6fdf 52bc b2c7 4fbc
00000190: f04c 76bb 3b86 043c e0d4 b3bb 5216 753b
000001a0: 8b18 6e3a 7f71 21bc 3300 353c 1cc3 2f3c
000001b0: c83a 1abc 9344 f83b 87f1 33bc dfaa a0bb
000001c0: 7286 623a 0bd5 5f3c 382f c83b aa62 94bb
000001d0: e041 a1bc 30ae 9e3b 9949 80bc 1f52 1f3c
000001e0: 35e5 f4ba c1ff 8a3b 7b5b 373c 4bd5 583b
000001f0: e77e 48bc 4aa9 e5b9 d563 2fbc 8c5a 9e3b

exp_avg f4 [128, 12]
1.4839342e-06 1.0271838e-06 -1.226689e-06 -1.2876565e-06 0.00025868416 -0.00022141894 0.0 0.00019825666
-0.00016082577 -1.9825631e-05 3.1733405e-06 3.1733405e-06 -0.000111619614 -0.00011216354 0.00011207032 0.00011199773
-0.0001838835 -9.442736e-06 0.0 -0.00019650446 5.520968e-05 -0.00012005818 3.6432448e-06 3.6432448e-06
-0.00086377765 -0.00086477416 0.0008654429 0.0008653099 -0.0001197759 -0.00026774476 0.0 -0.00052423397
0.0012548978 -0.00012562513 5.8889455e-06 5.8889455e-06 -7.388074e-05 -7.425805e-05 7.4188916e-05 7.41385e-05
0.000106460306 -0.00025493148 0.0 4.4247634e-05 -0.00010171789 -0.00010004917 2.5316674e-06 2.5316674e-06
-0.00058145606 -0.0005829087 0.0005830207 0.0005828268 -0.00024769802 -0.00025986027 0.0 -0.00048072374
0.0003776131 -0.00030194322 9.3910085e-06 9.3910085e-06 5.4457582e-06 5.23859e-06 -5.3351378e-06 -5.3628e-06
0.0001188457 -4.4627966e-05 0.0 9.346979e-05 -5.8790258e-05 1.8983043e-05 1.4450956e-06 1.4450956e-06
-4.2879918e-05 -4.3259617e-05 4.3149943e-05 4.309924e-05 6.9395064e-05 -0.00040229651 0.0 3.14517e-05
-0.00023347833 -0.00029324336 2.5851868e-06 2.5851868e-06 -5.485007e-05 -5.503364e-05 5.5024087e-05 5.4999564e-05
9.417363e-06 -0.00037516857 0.0 -2.0313886e-05 -0.00022601888 -0.00018713613 1.2092164e-06 1.2092164e-06
-0.00015689051 -0.00015721568 0.00015727482 0.00015723148 3.326465e-05 -0.00013924409 0.0 -5.322046e-05
-4.1375268e-05 -0.00012558294 2.070087e-06 2.070087e-06 0.00016676825 0.00016695581 -0.00016708708 -0.00016706197
-0.00026286047 -0.00012311766 0.0 -0.00011727365 -0.00050470344 -0.00042602705 -1.1036271e-06 -1.1036271e-06
0.00067793817 0.00067903247 -0.0006794222 -0.00067927607 5.5628225e-05 0.0008007255 0.0 0.0003822046
-0.0004970529 0.0008099763 -6.7883097e-06 -6.7883097e-06 -0.0013057583 -0.0013080193 0.0013087038 0.001308402
-0.00020931766 -0.0009241889 0.0 -0.00081425055 0.0010833526 -0.00048311145 1.4142252e-05 1.4142252e-05
-0.0010589736 -0.0010612548 0.0010616162 0.0010613118 4.701068e-05 -0.0004372424 0.0 -0.0004948664
0.00072659506 -0.00070729037 1.45750255e-05 1.45750255e-05 -7.037315e-05 -7.07638e-05 7.06844e-05 7.063222e-05
0.00018940798 -0.0002243318 0.0 0.00010937042 -2.6520851e-05 -0.00012368128 2.6283426e-06 2.6283426e-06
0.0009099487 0.0009114167 -0.00091194053 -0.0009117445 6.3172716e-05 0.0004056495 0.0 0.0005042258
-0.00020996829 5.2212727e-05 -9.106144e-06 -9.106144e-06 -0.0011790202 -0.0011815582 0.0011819616 0.0011816227
0.0002898295 -0.0003582594 0.0 -0.0003695286 0.0013255964 -0.0005269708 1.6213424e-05 1.6213424e-05
-7.141322e-06 -7.2706057e-06 7.2237785e-06 7.2065e-06 6.7752444e-05 -4.8642112e-05 0.0 4.8153226e-05
9.6359414e-05 6.478716e-06 8.8918335e-07 8.8918335e-07 -0.00013706005 -0.00013801908 0.00013777868 0.00013765066
-0.00041882583 0.00043354544 0.0 -0.00038883596 3.4347722e-05 -0.00026749604 6.494323e-06 6.494323e-06
0.0011209972 0.0011233096 -0.0011237366 -0.0011234279 3.0110095e-07 0.00090401544 0.0 0.0005620732
-0.0007325522 0.0009906718 -1.4717209e-05 -1.4717209e-05 -3.2937234e-05 -3.3339744e-05 3.3207547e-05 3.3153767e-05
0.00017476072 -0.000363135 0.0 0.000116920855 -0.0001511653 -0.0001816227 2.7556507e-06 2.7556507e-06
0.00025667122 0.00025710076 -0.00025724183 -0.00025718467 9.485652e-06 0.00065885 0.0 0.00013586521
-0.00052646536 0.0009955516 -2.6754926e-06 -2.6754926e-06 0.00022731091 0.00022745499 -0.0002276821 -0.00022766285
00000000: 972b c735 c4dd 8935 b7a4 a4b5 8ad3 acb5
00000010: 00a0 8739 b22c 68b9 0000 0000 1ee3 4f39
00000020: 57a3 28b9 384f a6b7 93f5 5436 93f5 5436
00000030: 5315 eab8 5839 ebb8 4b07 eb38 53e0 ea38
00000040: dad0 40b9 3e6c 1eb7 0000 0000 c40c 4eb9
00000050: f190 6738 bfc7 fbb8 787e 7436 787e 7436
00000060: 236f 62ba 03b2 62ba e4de 623a f7d5 623a
00000070: 3230 fbb8 1860 8cb9 0000 0000 bf6c 09ba
00000080: 627b a43a 3dba 03b9 a899 c536 a899 c536
00000090: 6cf0 9ab8 fdba 9bb8 df95 9b38 ce7a 9b38
000000a0: 7143 df38 53a8 85b9 0000 0000 8996 3938
000000b0: 6051 d5b8 7dd1 d1b8 b7e5 2936 b7e5 2936
000000c0: db6c 18ba 57ce 18ba dbd5 183a d8c8 183a
000000d0: 77dd 81b9 db3d 88b9 0000 0000 a609 fcb9
000000e0: 5ffa c539 224e 9eb9 138e 1d37 138e 1d37
000000f0: b5ba b636 25c7 af36 7c04 b3b6 1af2 b3b6
00000100: cd3c f938 ea2e 3bb8 0000 0000 3605 c438
00000110: 8f95 76b8 c63d 9f37 1bf5 c135 1bf5 c135
00000120: f6d9 33b8 a971 35b8 e6fb 3438 75c5 3438
00000130: 3188 9138 53eb d2b9 0000 0000 01eb 0338
00000140: ddd1 74b9 75be 99b9 2c7d 2d36 2c7d 2d36
00000150: d00e 66b8 ecd3 66b8 aac9 6638 55af 6638
00000160: 44ff 1d37 46b2 c4b9 0000 0000 bd67 aab7
00000170: 7bff 6cb9 f939 44b9 5c4c a235 5c4c a235
00000180: fa82 24b9 43da 24b9 23ea 2439 81de 2439
00000190: a585 0b38 0d02 12b9 0000 0000 0939 5fb8
000001a0: 5b8a 2db8 eaae 03b9 d3eb 0a36 d3eb 0a36
000001b0: 83de 2e39 dc10 2f39 1934 2fb9 5b2d 2fb9
000001c0: 89d0 89b9 2519 01b9 0000 0000 d0f0 f5b8
000001d0: 134e 04ba 625c dfb9 5720 94b5 5720 94b5
000001e0: a9b7 313a 1901 323a 411b 32ba 7211 32ba
000001f0: 5a52 6938 c7e7 513a 0000 0000 a262 c839
00000200: a84c 02ba 9754 543a 23c7 e3b6 23c7 e3b6
00000210: fa25 abba d871 abba d088 ab3a b07e ab3a
00000220: 487c 5bb9 4445 72ba 0000 0000 6e73 55ba
00000230: 48ff 8d3a 1f4a fdb9 8344 6d37 8344 6d37
00000240: 42cd 8aba cd19 8bba ee25 8b3a b71b 8b3a
00000250: 552d 4538 ae3d e5b9 0000 0000 ecb9 01ba
00000260: f878 3e3a 7469 39ba 4287 7437 4287 7437
00000270: 4c95 93b8 0767 94b8 663c 9438 6220 9438
00000280: d19b 4639 9c3a 6bb9 0000 0000 cc5d e538
00000290: 1879 deb7 71b0 01b9 9562 3036 9562 3036
000002a0: a089 6e3a 24ec 6e3a 4b0f 6fba 2302 6fba
000002b0: 987b 8438 5bad d439 0000 0000 052e 043a
000002c0: ef2a 5cb9 fdfe 5a38 97c6 18b7 97c6 18b7
000002d0: 5a89 9aba 84de 9aba 0dec 9a3a aee0 9a3a
000002e0: 42f4 9739 c3d4 bbb9 0000 0000 4abd c1b9
000002f0: a2bf ad3a 6924 0aba 1002 8837 1002 8837
00000300: 7d9f efb6 07f6 f3b6 c963 f236 5dcf f136
00000310: 5116 8e38 1205 4cb8 0000 0000 22f8 4938
00000320: 9114 ca38 bf63 d936 37b0 6e35 37b0 6e35
00000330: c7b7 0fb9 37b9 10b9 af78 1039 5156 1039
00000340: da95 dbb9 7c4d e339 0000 0000 aedc cbb9
00000350: 9610 1038 b63e 8cb9 cfe9 d936 cfe9 d936
00000360: 6dee 923a 043c 933a 584a 93ba fc3f 93ba
00000370: 00a7 a134 73fb 6c3a 0000 0000 1858 133a
00000380: bf08 40ba 6ed9 813a eee9 76b7 eee9 76b7
00000390: 1626 0ab8 47d6 0bb8 5548 0b38 960e 0b38
000003a0: f93f 3739 2863 beb9 0000 0000 6833 f538
000003b0: 2082 1eb9 f971 3eb9 b8ed 3836 b8ed 3836
000003c0: d491 8639 7bcb 8639 6ade 86b9 bed6 86b9
000003d0: 9124 1f37 adb6 2c3a 0000 0000 0a77 0e39
000003e0: 7e02 0aba 2b7d 823a 9d8c 33b6 9d8c 33b6
000003f0: 4f5a 6e39 fc80 6e39 f3bd 6eb9 c8b8 6eb9

exp_avg_sq f4 [128, 12]
6.2509606e-08 6.234122e-08 6.257317e-08 6.259567e-08 1.4473139e-07 9.4309826e-08 0.0 1.5275567e-07
4.9532794e-08 5.5808474e-08 1.5131814e-11 1.5131814e-11 7.73765e-08 7.745107e-08 7.7615894e-08 7.7605954e-08
2.7802264e-07 1.1066879e-07 0.0 2.3919304e-07 9.374645e-08 1.0172346e-07 2.4611972e-11 2.4611972e-11
3.619309e-07 3.6282017e-07 3.6335808e-07 3.632392e-07 6.255087e-07 3.6992185e-07 0.0 5.1480237e-07
3.8157387e-07 1.7922213e-07 5.184728e-11 5.184728e-11 3.071672e-08 3.0944513e-08 3.0924173e-08 3.0893716e-08
5.851976e-07 6.5971484e-08 0.0 4.0981726e-07 1.7052737e-07 1.6049154e-07 4.4494217e-11 4.4494217e-11
1.6512604e-07 1.6540412e-07 1.6570455e-07 1.656674e-07 3.100339e-07 4.6831283e-07 0.0 2.6964233e-07
2.1277135e-07 3.913722e-07 5.0410242e-11 5.0410242e-11 4.70284e-08 4.7041844e-08 4.7155748e-08 4.7153968e-08
2.3712185e-07 7.834501e-08 0.0 1.9852813e-07 8.426885e-08 8.825655e-08 2.211235e-11 2.211235e-11
3.1216413e-08 3.130879e-08 3.1348264e-08 3.1335922e-08 3.329005e-07 1.6548924e-07 0.0 2.3464273e-07
1.6779825e-07 1.1498253e-07 3.3452095e-11 3.3452095e-11 2.9518985e-08 2.9644776e-08 2.966555e-08 2.9648742e-08
1.4873044e-07 8.668579e-08 0.0 1.0954894e-07 8.342163e-08 1.0046647e-07 2.1004455e-11 2.1004455e-11
2.009445e-08 2.010713e-08 2.0152841e-08 2.0151148e-08 3.2329094e-08 2.6930065e-08 0.0 3.1834205e-08
1.5725163e-08 2.3123524e-08 4.3721905e-12 4.3721905e-12 5.91167e-08 5.926145e-08 5.934942e-08 5.933007e-08
2.6847826e-07 1.5021105e-07 0.0 1.8752048e-07 1.661219e-07 1.5420376e-07 3.2298733e-11 3.2298733e-11
2.2898897e-07 2.2979141e-07 2.300281e-07 2.2992079e-07 2.7179652e-07 4.4914785e-07 0.0 2.4660886e-07
1.6932282e-07 4.832026e-07 5.751228e-11 5.751228e-11 5.415977e-07 5.426045e-07 5.435495e-07 5.4341496e-07
4.0603544e-07 9.114851e-07 0.0 4.974157e-07 3.779929e-07 4.5392702e-07 7.81373e-11 7.81373e-11
3.9000892e-07 3.9093186e-07 3.915267e-07 3.9140335e-07 4.4194692e-07 8.6217983e-07 0.0 3.9451038e-07
3.931793e-07 4.178727e-07 7.859682e-11 7.859682e-11 2.513254e-08 2.5229552e-08 2.5251506e-08 2.523854e-08
5.3444643e-07 5.759147e-08 0.0 3.6133878e-07 1.6401546e-07 1.4336567e-07 3.575715e-11 3.575715e-11
8.7412346e-08 8.775254e-08 8.7828276e-08 8.7782766e-08 1.0866514e-07 1.022426e-07 0.0 7.071846e-08
9.3583736e-08 1.2162134e-07 2.1708293e-11 2.1708293e-11 3.639159e-07 3.648783e-07 3.653896e-07 3.6526092e-07
4.4903393e-07 6.2022855e-07 0.0 3.3138642e-07 4.717957e-07 3.5153596e-07 7.469929e-11 7.469929e-11
5.036784e-08 5.0897107e-08 5.0796352e-08 5.0725586e-08 1.4546762e-06 1.846286e-08 0.0 1.0433572e-06
3.7859274e-07 2.5568247e-07 9.6949684e-11 9.6949684e-11 1.663274e-07 1.6673475e-07 1.669824e-07 1.6692792e-07
2.6968064e-07 6.548707e-07 0.0 2.3463443e-07 2.8064522e-07 5.544034e-07 4.6998044e-11 4.6998044e-11
3.0213164e-07 3.030374e-07 3.0341587e-07 3.032948e-07 1.3190106e-07 4.903485e-07 0.0 1.464827e-07
2.1913687e-07 3.1761618e-07 5.0729764e-11 5.0729764e-11 2.6192927e-08 2.627005e-08 2.6303365e-08 2.6293051e-08
2.3676145e-07 1.06964954e-07 0.0 1.7472159e-07 1.081591e-07 8.106192e-08 2.3489486e-11 2.3489486e-11
2.2379687e-07 2.2452278e-07 2.2477936e-07 2.2468235e-07 2.808226e-07 2.424403e-07 0.0 1.7204154e-07
2.1771775e-07 1.7124653e-07 3.9797523e-11 3.9797523e-11 4.6027576e-08 4.6067477e-08 4.6167386e-08 4.6162047e-08
00000000: 053d 8633 73e0 8533 f75f 8633 556c 8633
00000010: 7667 1b34 6087 ca33 0000 0000 2905 2434
00000020: e2bd 5433 11b2 6f33 d119 852d d119 852d
00000030: 2e2a a633 2d53 a633 caad a633 53a8 a633
00000040: 2443 9534 d0a8 ed33 0000 0000 716a 8034
00000050: a851 c933 1073 da33 3c7d d82d 3c7d d82d
00000060: 674f c234 a0c9 c234 8e13 c334 3703 c334
00000070: a1e8 2735 ac99 c634 0000 0000 f330 0a35
00000080: 1ddb cc34 3470 4034 d906 642e d906 642e
00000090: 64ed 0333 dae7 0433 7dd1 0433 00b0 0433
000000a0: 7916 1d35 35ac 8d33 0000 0000 db04 dc34
000000b0: 351a 3734 9453 2c34 09b0 432e 09b0 432e
000000c0: 804d 3134 f099 3134 85ec 3134 4fe2 3134
000000d0: bc72 a634 6d6c fb34 0000 0000 5cc3 9034
000000e0: 2576 6434 c91d d234 e3b4 5d2e e3b4 5d2e
000000f0: 46fc 4933 0e0b 4a33 4b88 4a33 5686 4a33
00000100: 8f9b 7e34 a03e a833 0000 0000 ff2a 5534
00000110: 4af7 b433 8d87 bd33 9680 c22d 9680 c22d
00000120: cf12 0633 6178 0633 c8a3 0633 3696 0633
00000130: 7fb9 b234 56b1 3134 0000 0000 1af2 7b34
00000140: 082c 3434 50ec f633 b61f 132e b61f 132e
00000150: ef90 fd32 8da5 fe32 3cd3 fe32 46ae fe32
00000160: b6b2 1f34 0428 ba33 0000 0000 2b41 eb33
00000170: 8725 b333 07c0 d733 d4c1 b82d d4c1 b82d
00000180: 2a9c ac32 0cb8 ac32 911c ad32 d818 ad32
00000190: 37da 0a33 d753 e732 0000 0000 14ba 0833
000001a0: 0014 8732 2ba1 c632 31d5 992c 31d5 992c
000001b0: 80e7 7d33 a786 7e33 61e7 7e33 1ad2 7e33
000001c0: 5f23 9034 b349 2134 0000 0000 3d59 4934
000001d0: 3d5f 3234 3593 2534 240d 0e2e 240d 0e2e
000001e0: 02e0 7534 95bc 7634 a5fd 7634 25e0 7634
000001f0: 6eeb 9134 6922 f134 0000 0000 aa65 8434
00000200: 1acf 3534 6eb5 0135 12f1 7c2e 12f1 7c2e
00000210: 4f62 1135 7fa7 1135 70e8 1135 31df 1135
00000220: 16fd d934 c7ac 7435 0000 0000 2686 0535
00000230: f3ee ca34 41b3 f334 64d3 ab2e 64d3 ab2e
00000240: 6b62 d134 44e1 d134 0533 d234 1122 d234
00000250: b944 ed34 8c70 6735 0000 0000 18cd d334
00000260: 2716 d334 fd57 e034 13d6 ac2e 13d6 ac2e
00000270: 0ae3 d732 5fb8 d832 a6e8 d832 23cc d832
00000280: e176 0f35 7e5a 7733 0000 0000 06fe c134
00000290: 3a1c 3034 0ef0 1934 f942 1d2e f942 1d2e
000002a0: 72b7 bb33 7872 bc33 1b9c bc33 1683 bc33
000002b0: 4b5b e933 7790 db33 0000 0000 e2dd 9733
000002c0: 34f8 c833 0597 0234 bbf2 be2d bbf2 be2d
000002d0: 3860 c334 7ee4 c334 c42a c434 1419 c434
000002e0: c112 f134 c87d 2635 0000 0000 67e9 b134
000002f0: 1b4b fd34 bcba bc34 f643 a42e f643 a42e
00000300: 0754 5833 f699 5a33 2e2b 5a33 5fdd 5933
00000310: 4b3e c335 4298 9e32 0000 0000 7b09 8c35
00000320: 6441 cb34 bb44 8934 d231 d52e d231 d52e
00000330: ba97 3234 b307 3334 c64b 3334 cc3c 3334
00000340: a0c8 9034 5fca 2f35 0000 0000 d2ef 7b34
00000350: 96ab 9634 50d2 1435 18b3 4e2e 18b3 4e2e
00000360: a834 a234 25b1 a234 29e5 a234 85d4 a234
00000370: b0a0 0d34 7ea0 0335 0000 0000 dc48 1d34
00000380: e24b 6b34 d684 aa34 a31c 5f2e a31c 5f2e
00000390: dbfe e032 73a8 e132 b6f1 e132 08db e132
000003a0: 7e38 7e34 9bb4 e533 0000 0000 1b9b 3b34
000003b0: 1845 e833 4314 ae33 9f9d ce2d 9f9d ce2d
000003c0: d14c 7034 5a14 7134 e15a 7134 3740 7134
000003d0: f7c3 9634 be28 8234 0000 0000 6bba 3834
000003e0: cdc5 6934 e3df 3734 0708 2f2e 0708 2f2e
000003f0: dbaf 4533 badb 4533 9449 4633 b543 4633

exp_avg f4 [128]
0.00024680092 0.0002833469 0.00045800215 0.00019689594 0.00073036907 0.00011238977 0.00020105834 9.404466e-05
0.00016099737 -8.583265e-05 -0.0005279487 0.0010998887 0.0011335469 0.00020441473 -0.00070821424 0.0012609704
6.915467e-05 0.00050508446 -0.0011446046 0.00021431585 -0.00020808184 -5.667189e-05 -6.755479e-05 0.0001823103
-0.00012616796 0.0002809709 -0.0018851587 2.681439e-05 0.00012933894 -2.8688593e-05 -0.00030182238 -0.00014071843
-0.0007837644 -0.0010978738 0.0009899507 0.0002205408 -0.0002324625 1.2493431e-05 4.7001e-05 0.00024104457
0.00089838484 1.5016703e-05 5.3693362e-05 -0.00056382234 -0.00043149284 0.0001456961 -0.000345036 -0.0004009418
5.258722e-07 0.00019254908 0.0027365382 0.0013967267 6.1402745e-05 0.0008095755 -0.0010048075 0.0015850515
0.00017721854 -0.0012247636 8.869145e-05 -0.0005221386 -0.00023540528 0.000288544 4.106985e-05 0.001730501
8.83092e-05 0.00044346933 6.600036e-05 0.0027003696 2.0404024e-05 0.0016519806 -0.00025760033 0.00010348131
-0.00013402439 0.00012222565 0.000155394 0.0002220513 0.00017906772 0.0017354791 0.00024154053 0.00013304297
-0.00022791834 -0.00131911 -7.010355e-05 0.00060750404 -5.5139444e-05 6.72446e-05 -0.0001851357 -0.0005820706
-0.0007292783 0.0019716225 0.0004131381 -6.838274e-05 0.0005749665 -0.00089085277 8.107652e-05 0.0011819246
0.00030612628 0.00013026853 0.00016636931 0.00016856179 4.7778176e-05 -0.00011727113 0.00052804785 4.258965e-07
0.000116193936 -0.00013481428 0.00024934535 3.671509e-05 0.00015856049 -2.639284e-05 1.3430252e-05 0.0017865979
-0.0014347486 -4.0689945e-05 0.00011556066 7.1946175e-05 0.00011379015 0.00096259994 -0.0013639604 5.081863e-05
7.522083e-05 5.840302e-05 -0.0018012881 5.431163e-05 7.526381e-05 -0.0010147477 0.00017254685 0.00041994266
00000000: 0f65 8139 2d8e 9439 0220 f039 da75 4e39
00000010: 3d76 3f3a ccb2 eb38 30d3 5239 d839 c538
00000020: 67d1 2839 0e01 b4b8 0a66 0aba 242a 903a
00000030: 8693 943a 2958 5639 74a7 39ba 2547 a53a
00000040: 2107 9138 a567 043a 8f06 96ba f9b9 6039
00000050: 8b30 5ab9 fbb2 6db8 34ac 8db8 8c2a 3f39
00000060: f44b 04b9 474f 9339 6e17 f7ba 77ef e037
00000070: 289f 0739 49a8 f0b7 ea3d 9eb9 d18d 13b9
00000080: 8a75 4dba 88e6 8fba 3cc1 813a f840 6739
00000090: 2dc1 73b9 e19a 5137 f122 4538 e9c0 7c39
000000a0: 9681 6b3a 40f0 7b37 cf34 6138 7acd 13ba
000000b0: fd39 e2b9 00c6 1839 f3e5 b4b9 7f35 d2b9
000000c0: aa29 0d35 00e7 4939 7e57 333b 5f12 b73a
000000d0: 59c5 8038 b139 543a bfb3 83ba 81c1 cf3a
000000e0: bdd3 3939 3f88 a0ba dcff b938 21e0 08ba
000000f0: 20d7 76b9 b847 9739 6a42 2c38 fad1 e23a
00000100: a432 b938 7281 e839 ac69 8a38 aff8 303b
00000110: 4f29 ab37 4587 d83a 880e 87b9 1b04 d938
00000120: e688 0cb9 b329 0039 42f1 2239 71d6 6839
00000130: 20c4 3b39 0479 e33a 0b46 7d39 7381 0b39
00000140: 5dfd 6eb9 fde5 acba 8f04 93b8 e840 1f3a
00000150: 8745 67b8 ab05 8d38 fc20 42b9 1996 18ba
00000160: 0a2d 3fba 5636 013b 759a d839 b468 8fb8
00000170: 59b9 163a 1e88 69ba a007 aa38 cfea 9a3a
00000180: 937f a039 b198 0839 6c73 2e39 f6bf 3039
00000190: 6d65 4838 75ef f5b8 b16c 0a3a c5a6 e434
000001a0: 25ad f338 ef5c 0db9 91ba 8239 87fe 1938
000001b0: 4243 2639 3166 ddb7 7e52 6137 472c ea3a
000001c0: 2d0e bcba 7faa 2ab8 2859 f238 cfe1 9638
000001d0: 9fa2 ee38 fd56 7c3a ebc6 b2ba 1726 5538
000001e0: e0bf 9d38 c4f5 7438 3319 ecba abcc 6338
000001f0: f3d6 9d38 4801 85ba b1ed 3439 c02b dc39

exp_avg_sq f4 [128]
9.1527426e-08 1.4886982e-07 3.136074e-07 2.6913096e-07 3.049152e-07 1.3375042e-07 2.0234089e-07 1.2704915e-07
2.6445962e-08 1.9536462e-07 3.4787305e-07 4.7262725e-07 4.7540667e-07 2.1628341e-07 1.3130645e-07 4.5183177e-07
5.864169e-07 2.842759e-07 3.0684788e-07 1.4208028e-07 2.4072236e-07 1.80432e-07 1.5826078e-07 1.71844e-07
1.8453935e-07 5.9231553e-08 1.4109567e-06 4.964732e-08 2.2584122e-07 2.7967027e-07 1.12906065e-07 1.3799416e-07
3.4559108e-07 7.096607e-07 3.2707163e-07 1.2529293e-07 1.4595183e-07 2.0062349e-07 4.2998207e-07 8.008119e-08
4.6485377e-07 2.7198024e-07 1.1527862e-07 2.7585543e-07 1.9918417e-07 6.353705e-08 1.3417988e-07 3.1918148e-07
2.6434753e-07 1.9736741e-07 2.0728353e-06 6.7201177e-07 5.7242424e-08 3.9319238e-07 3.3883325e-07 6.5197327e-07
1.3620014e-07 8.959906e-07 1.0634646e-07 5.0244313e-07 2.127003e-07 1.3912438e-07 1.2221103e-07 9.185544e-07
1.7292896e-07 1.4446786e-07 4.0300972e-07 2.1868022e-06 1.1263795e-07 7.6787506e-07 1.5097294e-07 3.182891e-07
1.9792199e-07 1.7277516e-07 1.2777039e-07 1.3223413e-07 3.1911947e-07 8.5191476e-07 9.691158e-08 9.187462e-08
4.3396724e-07 1.0668997e-06 2.3370866e-07 1.337527e-07 7.369047e-08 2.854786e-07 1.4387071e-07 4.074326e-07
3.3997705e-07 1.2454102e-06 1.7407655e-07 2.9444791e-07 2.0277687e-07 6.5835e-07 8.11304e-08 5.5530654e-07
2.0371444e-07 1.1389151e-07 2.0136773e-07 1.8914629e-07 3.6002174e-07 1.8113354e-08 1.6702356e-07 9.670823e-08
5.189866e-08 1.6017536e-07 9.272656e-08 2.1015012e-07 1.5198553e-07 6.229903e-08 2.044744e-07 9.1363086e-07
9.570679e-07 2.631351e-07 2.0032178e-07 5.6648605e-07 2.0300271e-07 3.627375e-07 7.2764703e-07 8.3844796e-08
8.211497e-08 3.205541e-07 6.443007e-07 3.2064202e-07 1.1026215e-07 5.6184075e-07 1.5242267e-07 1.5619356e-07
00000000: bc8d c433 06d9 1f34 df5d a834 147d 9034
00000010: 3ab3 a334 099d 0f34 0a43 5934 016b 0834
00000020: 492b e332 6bc5 5134 4fc3 ba34 65bd fd34
00000030: 653b ff34 883b 6834 3efd 0c34 4993 f234
00000040: 436a 1d35 959e 9834 dabc a434 bb8e 1834
00000050: a13c 8134 c5bc 4134 64ee 2934 1e84 3834
00000060: ca25 4634 c865 7e33 1a60 bd35 ce3b 5533
00000070: c37e 7234 9725 9634 c476 f233 8c2b 1434
00000080: ad89 b934 837f 3e35 6298 af34 4288 0634
00000090: efb6 1c34 f76a 5734 49d8 e634 1af9 ab33
000000a0: 0491 f934 ae04 9234 178f f733 4819 9434
000000b0: 54df 5534 dd71 8833 1613 1034 f85b ab34
000000c0: a6eb 8d34 f1eb 5334 0a1b 0b36 4c64 3435
000000d0: b6da 7533 f317 d334 e3e8 b534 4303 2f35
000000e0: 693e 1234 0184 7035 9660 e433 a1df 0635
000000f0: 9d62 6434 3862 1534 1d39 0334 9492 7635
00000100: 5aae 3934 061f 1b34 3c5d d834 fac0 1236
00000110: 5ee3 f133 f91f 4e35 201b 2234 52e1 aa34
00000120: 6284 5434 1384 3934 4231 0934 3efc 0d34
00000130: 7253 ab34 23af 6435 b41d d033 9b4c c533
00000140: 01fc e834 6532 8f35 59f1 7a34 aa9d 0f34
00000150: c43f 9e33 e143 9934 e17a 1a34 1cbd da34
00000160: 1786 b634 f827 a735 cce9 3a34 9d14 9e34
00000170: e2ba 5934 78b9 3035 e939 ae33 6010 1535
00000180: 99bc 5a34 8594 f433 8a37 5834 2318 4b34
00000190: 0349 c134 b097 9b32 1657 3334 e9ad cf33
000001a0: 2ee7 5e33 abfc 2b34 f720 c733 a0a5 6134
000001b0: 7731 2334 41c9 8533 7f8d 5b34 3c40 7535
000001c0: 9a74 8035 0345 8d34 0818 5734 a010 1835
000001d0: f6f8 5934 43be c234 8653 4335 2a0e b433
000001e0: 2f57 b033 9f18 ac34 02f4 2c35 b424 ac34
000001f0: 42c9 ec33 67d1 1635 a0a9 2334 29b6 2734
