results/Slider_behavior/SliderBehavior/SliderBehavior-40003.pt (torch, 467300 bytes, 41 tensors)

network_body.observation_encoder.processors.0.normalizer.running_mean f4 [12]
7.122889 -4.346822 -1.0820433 -1.6940278 -0.35089085 -3.2058623 0.0 1.0371451
3.5814815 0.11261376 -0.34678033 0.9999751
00000000: b5ee e340 2a19 8bc0 6580 8abf e7d5 d8bf
00000010: f7a7 b3be d92c 4dc0 0000 0000 2cc1 843f
00000020: fe36 6540 0ba2 e63d 318d b1be 5efe 7f3f

network_body.observation_encoder.processors.0.normalizer.running_variance f4 [12]
261874.16 261842.33 261824.48 261826.3 463469.9 124272.39 1.0 187178.36
153632.47 349338.8 493339.97 1.999964
00000000: 8abc 7f48 95b4 7f48 1fb0 7f48 93b0 7f48
00000010: bd4d e248 32b8 f247 0000 803f 97ca 3648
00000020: 1e08 1648 5a93 aa48 7fe3 f048 d2fe ff3f

network_body.processors.0.normalizer.running_mean f4 [12]
7.122889 -4.346822 -1.0820433 -1.6940278 -0.35089085 -3.2058623 0.0 1.0371451
3.5814815 0.11261376 -0.34678033 0.9999751
00000000: b5ee e340 2a19 8bc0 6580 8abf e7d5 d8bf
00000010: f7a7 b3be d92c 4dc0 0000 0000 2cc1 843f
00000020: fe36 6540 0ba2 e63d 318d b1be 5efe 7f3f

network_body.processors.0.normalizer.running_variance f4 [12]
261874.16 261842.33 261824.48 261826.3 463469.9 124272.39 1.0 187178.36
153632.47 349338.8 493339.97 1.999964
00000000: 8abc 7f48 95b4 7f48 1fb0 7f48 93b0 7f48
00000010: bd4d e248 32b8 f247 0000 803f 97ca 3648
00000020: 1e08 1648 5a93 aa48 7fe3 f048 d2fe ff3f

network_body._body_endoder.seq_layers.0.weight f4 [128, 12]
-0.21165338 0.0018576805 -0.07605462 0.2787311 0.043588035 -0.10896566 -0.15797809 -0.024274107
-0.567249 -0.7221883 0.6958531 -0.25900838 -0.062363923 -0.60246235 -0.039215546 -0.61568093
0.45982012 -0.46764842 0.38561073 -0.17552567 0.40583646 0.38074565 0.5806376 0.19957907
-0.021280095 0.023621798 0.49003357 0.31943136 -0.3074961 0.0018652474 0.09732472 -0.20702837
-0.12696223 0.52234596 -0.056707878 0.02096918 0.36730334 0.3548708 0.025282126 -0.29698104
-0.14199665 0.17320201 0.19184168 0.01614817 0.050682954 -0.30265704 0.055507317 0.1044797
0.029617501 0.082370594 0.43283212 -0.32722783 -0.30216125 0.2094182 -0.09496494 0.65024316
-0.05679374 -0.42191148 0.026953464 0.045315713 0.24068743 0.5171158 -0.09996295 -0.15269008
-0.2247564 -0.14404127 0.007907826 0.08940025 0.18211442 -0.22208965 0.91054636 -0.37904978
0.26764938 -0.21879244 0.45637864 0.17533396 -0.087421976 0.52559835 0.089717776 0.4360486
0.18243036 -0.010423281 -0.48104423 -0.12532978 -0.3360803 0.06097056 -0.053678323 0.021041121
0.1033954 0.01223626 0.07011892 0.60199606 -0.31355634 -0.0030399158 -0.21237609 -0.33617285
0.033510085 -0.14711106 -0.052660584 -0.03141068 0.19480349 -0.11103377 -0.0051329946 0.19958384
0.5116839 -0.32927644 -0.1622457 0.47408292 0.087738775 0.31032437 -0.4056733 0.21202917
-0.06535663 -0.05028102 0.056092437 0.5166389 0.08056823 0.3131514 -0.41838092 0.6005705
0.3688971 0.38530457 0.19274515 0.0014297848 0.08460362 0.09999194 -0.5187694 -0.21153626
0.08454782 -0.25606576 -0.23979735 -0.46487305 0.20627347 0.5156486 -0.12256821 0.3475618
0.08877394 0.09728747 -0.62269455 0.2880605 0.22777562 0.017399976 0.04995373 0.502258
0.014106369 0.19643557 -0.03879307 0.5362012 0.40263683 0.06396731 -0.04497312 -0.5920139
0.073687434 -0.04161537 -0.07218626 0.27184615 -0.16471583 0.7092683 -0.18410583 -0.036980152
0.5986839 0.28399852 0.15497155 0.32623923 -0.20101045 0.30843094 -0.0072390726 -0.10051189
-0.63969153 0.09507059 -0.38291624 0.038558435 0.12401176 -0.15031955 1.2086998 0.022994107
-0.009224358 -0.019639011 0.19160894 -0.09713146 -0.40584007 0.12593298 -0.075910375 0.2688432
-0.41525435 0.53636456 0.05713775 -0.17020321 0.21857482 -0.10258596 -0.40943328 -0.27786583
0.063717 -0.30634886 0.047296602 -0.2967593 0.114857964 0.049207307 0.44404438 -0.20973668
-0.4932681 0.020689048 -0.37928444 0.2145987 -0.16840622 -0.20545466 0.31836304 0.22171193
-0.050088964 -0.20457374 -0.15229915 -0.13238432 -0.19452244 0.37436846 -0.45498922 -0.21763635
0.23344216 -0.03428336 0.16943896 0.008968486 -0.091064766 -0.5431203 -0.17130479 0.16350506
-0.12659875 -0.21730001 0.27957496 -0.25966227 -0.0107364915 0.13113786 -0.025244901 0.030450756
-0.17499875 0.34454864 -0.07711455 0.036846448 0.0864064 0.14206277 0.1604248 0.29547372
0.24022675 0.24510038 0.13465632 -0.7603782 -0.13317814 -0.25990176 0.37095198 0.077778764
0.1748507 0.19109634 0.2874616 0.6121616 -0.039819587 -0.17409213 0.19207267 -0.31681684
00000000: aabb 58be 6a7d f33a 86c2 9bbd d8b5 8e3e
00000010: 5e89 323d 6329 dfbd 02c5 21be 7eda c6bc
00000020: 3b37 11bf 55e1 38bf 6e23 323f bf9c 84be
00000030: 5071 7fbd f93a 1abf 7ba0 20bd 449d 1dbf
00000040: 8b6d eb3e 9d6f efbe c56e c53e 00bd 33be
00000050: ccc9 cf3e 18f1 c23e aaa4 143f 755e 4c3e
00000060: 9853 aebc 8082 c13c aee5 fa3e 828c a33e
00000070: 2170 9dbe 517b f43a 2f52 c73d 3fff 53be
00000080: 6302 02be 77b8 053f 8546 68bd 8fc7 ab3c
00000090: 2f0f bc3e a0b1 b53e 761c cf3c e60d 98be
000000a0: 9267 11be de5b 313e 2572 443e 2b49 843c
000000b0: ee98 4f3d ddf5 9abe a45b 633d 74f9 d53d
000000c0: 67a0 f23c eab1 a83d 2c9c dd3e 688a a7be
000000d0: e1b4 9abe ba71 563e fa7c c2bd 5676 263f
000000e0: 8da0 68bd c804 d8be 83cd dc3c f89c 393d
000000f0: c476 763e b361 043f 60b9 ccbd ca5a 1cbe
00000100: 8b26 66be 8e7f 13be d48f 013c 7a17 b73d
00000110: 347c 3a3e 786b 63be 9119 693f d012 c2be
00000120: 5709 893e 200b 60be 76aa e93e bf8a 333e
00000130: 4b0a b3bd 9d8d 063f f4bd b73d c341 df3e
00000140: 06cf 3a3e 69c6 2abc 6e4b f6be 7356 00be
00000150: b812 acbe 44bc 793d cddd 5bbd 6e5e ac3c
00000160: f8c0 d33d 987a 483c 829a 8f3d 6a1c 1a3f
00000170: 758a a0be 5339 47bb 1e79 59be d91e acbe
00000180: df41 093d 48a4 16be a0b2 57bd 7ca8 00bd
00000190: 917a 473e ac65 e3bd ae32 a8bb b55f 4c3e
000001a0: b7fd 023f ec96 a8be bd23 26be ffba f23e
000001b0: 63b0 b33d d6e2 9e3e 69b4 cfbe 2d1e 593e
000001c0: b2d9 85bd 79f3 4dbd 2fc1 653d 7242 043f
000001d0: f500 a53d 6155 a03e 0636 d6be fdbe 193f
000001e0: 15e0 bc3e a446 c53e fc5e 453e 9e67 bb3a
000001f0: aa44 ad3d 93c8 cc3d 12ce 04bf f69c 58be
00000200: 6827 ad3d 0d1b 83be 708d 75be d703 eebe
00000210: 5a39 533e 8c01 043f 0b05 fbbd 9ff3 b13e
00000220: 1dcf b53d a73e c73d e968 1fbf aa7c 933e
00000230: 033e 693e 658a 8e3c 489c 4c3d fb93 003f
00000240: 661e 673c 6826 493e 7be5 1ebd 7b44 093f
00000250: 6a26 ce3e 4b01 833d bc35 38bd 398e 17bf
00000260: 70e9 963d e174 2abd 64d6 93bd 6b2f 8b3e
00000270: 44ab 28be 9b92 353f 3d86 3cbe 8078 17bd
00000280: 5943 193f 4168 913e ddb0 1e3e d408 a73e
00000290: afd5 4dbe a9ea 9d3e be35 edbb 2ed9 cdbd
000002a0: d3c2 23bf 5fb4 c23d 990d c4be 73ef 1d3d
000002b0: e1f9 fd3d 5eed 19be adb6 9a3f 235e bc3c
000002c0: c321 17bc fee1 a0bc 2235 443e dcec c6bd
000002d0: 45ca cfbe 93f4 003e e676 9bbd d1a5 893e
000002e0: 389c d4be 304f 093f 4609 6a3d c049 2ebe
000002f0: 14d2 5f3e 9618 d2bd 3da1 d1be 6e44 8ebe
00000300: 0f7e 823d c2d9 9cbe 15ba 413d d6f0 97be
00000310: a73a eb3d 9a8d 493d c959 e33e 36c5 56be
00000320: a38d fcbe 147c a93c 9231 c2be c3bf 5b3e
00000330: ae72 2cbe b562 52be 7b00 a33e 7408 633e
00000340: 162a 4dbd c77b 51be 4ff4 1bbe c18f 07be
00000350: e430 47be 39ad bf3e 59f4 e8be 10dc 5ebe
00000360: 760b 6f3e b56c 0cbd 6881 2d3e 8ff0 123c
00000370: 2a80 babd ef09 0bbf 866a 2fbe df6d 273e
00000380: 1aa3 01be e583 5ebe 7324 8f3e 74f2 84be
00000390: 1ce8 2fbc 0149 063e 65ce cebc dd73 f93c
000003a0: df32 33be ae68 b03e 3cee 9dbd 4dec 163d
000003b0: d7f5 b03d e778 113e 6646 243e 5548 973e
000003c0: 00fe 753e 98fb 7a3e 59e3 093e 25a8 42bf
000003d0: da5f 08be d811 85be 6bed bd3e 794a 9f3d
000003e0: 100c 333e c2ae 433e 2b2e 933e 9fb6 1c3f
000003f0: dd19 23bd 3545 32be b3ae 443e d135 a2be

network_body._body_endoder.seq_layers.0.bias f4 [128]
0.008159147 0.03984508 0.01807709 0.0010110458 0.022209253 0.046951197 -0.029547822 -0.0059191524
-0.002134277 0.0028641077 0.023582906 -0.013099058 0.047318995 0.0042480463 0.0077186166 -0.000919545
0.06126588 -0.018138286 0.021851666 0.039628796 0.026341444 0.06888241 -0.0148635395 0.0007013411
0.055584148 -0.025972793 0.020739403 0.039011322 -0.017009333 0.03304004 -0.013902059 0.014773847
-0.0025197885 0.03337662 -0.031445846 0.032942187 0.004004465 0.022596516 -0.01624487 0.008042126
0.023228996 0.03667078 -0.029079257 -0.016330859 0.035768118 0.009395964 0.0069516273 0.020423276
0.026839498 0.023862857 0.04042366 -0.04314819 -0.04472521 0.037791215 -0.020981733 0.031760037
-0.017815417 0.0294957 0.007518965 -0.013021993 0.0116920825 -0.00805779 -0.008685968 0.016958373
-0.016640479 0.040225886 0.01406676 0.041350644 0.008774536 0.021572914 -0.024963737 -0.02163199
-0.020669105 -0.036682405 0.03751317 0.013029657 0.014800907 -0.005183929 -0.021167697 0.013616131
0.024366105 0.021602241 0.038920317 -0.016850593 0.042635065 0.02668594 0.018810153 -0.0037581204
-0.003887061 0.017340273 -0.0049416614 -0.004113727 -0.009745667 0.02015913 -0.0013855896 0.021612696
-0.027605765 0.083108135 0.034903154 0.046210855 -3.0465899e-05 -0.023480333 0.016677162 0.031004298
-0.034468643 -0.021426233 0.027067268 0.035709556 0.0058722314 0.007936533 0.055896465 0.0024442836
0.03016026 -0.013142147 -0.047142368 0.035064224 0.0294015 -0.013165996 0.0065293284 0.014127786
-0.011444635 -0.011637704 0.030701691 0.0039781774 0.007150139 0.046342928 0.01346194 0.054578245
00000000: f1ad 053c 9834 233d 6816 943c 1185 843a
00000010: 2ef0 b53c e64f 403d 460e f2bc 73f5 c1bb
00000020: 3adf 0bbb c1b3 3b3b f030 c13c 6e9d 56bc
00000030: 90d1 413d 3233 8b3b 73ec fc3b 9f0d 71ba
00000040: eef1 7a3d be96 94bc 4402 b33c ce51 223d
00000050: 03ca d73c 3912 8d3d 3486 73bc 34da 373a
00000060: 34ac 633d e5c4 d4bc aee5 a93c 56ca 1f3d
00000070: 2857 8bbc fe54 073d 76c5 63bc 010e 723c
00000080: 0923 25bb ecb5 083d 5ccd 00bd 63ee 063d
00000090: e337 833b 541c b93c f613 85bc 1fc3 033c
000000a0: bc4a be3c 1a34 163d 9f37 eebc 4bc8 85bc
000000b0: 9781 123d 88f1 193c 7aca e33b b74e a73c
000000c0: 82de db3c 0a7c c33c 4893 253d 28bc 30bd
000000d0: c831 37bd f6ca 1a3d e2e1 abbc d016 023d
000000e0: a3f1 91bc f7a0 f13c a661 f63b 335a 55bc
000000f0: 2690 3f3c d204 04bc 974f 0ebc 49ec 8a3c
00000100: 9d51 88bc e6c3 243d 4578 663c 4b5f 293d
00000110: 12c3 0f3c aeb9 b03c c080 ccbc 9235 b1bc
00000120: 4152 a9bc 4a40 16bd 69a7 193d 587a 553c
00000130: 817f 723c f3dd a9bb e167 adbc 3116 5f3c
00000140: 6d9b c73c 2ff7 b03c e96a 1f3d 410a 8abc
00000150: 1ba2 2e3d 799c da3c c017 9a3c cc4a 76bb
00000160: 10be 7ebb 300d 8e3c a9ed a1bb 71cc 86bb
00000170: 4aac 1fbc c324 a53c ac9c b5ba 1c0d b13c
00000180: 7c25 e2bc 9934 aa3d 9cf6 0e3d 9847 3d3d
00000190: 0591 ffb7 d459 c0bc 8b9e 883c bafc fd3c
000001a0: fe2e 0dbd 1186 afbc 2dbc dd3c 2f44 123d
000001b0: d96b c03b 3b08 023c b1f3 643d 4630 203b
000001c0: a612 f73c 2952 57bc 5b18 41bd 819f 0f3d
000001d0: 6adb f03c 31b6 57bc faf3 d53b 3b78 673c
000001e0: 4782 3bbc 12ac 3ebc 1d82 fb3c 5f5b 823b
000001f0: b74b ea3b 15d2 3d3d 788f 5c3c 708d 5f3d

network_body._body_endoder.seq_layers.2.weight f4 [128, 128]
0.079837404 0.025129354 0.20648637 -0.0033542302 0.11999435 -0.13676962 -0.038363144 -0.17354465
0.056812584 0.07491794 -0.09788265 0.07979281 -0.053844057 -0.05539718 -0.040365852 0.00891642
-0.028789178 -0.03420043 0.10427617 -0.0005932026 -0.0019062753 -0.06272633 -0.017277876 0.09766337
0.042274658 -0.057296686 0.068455465 0.27586293 -0.15009509 -0.00030319174 0.058915623 0.08491445
-0.03264577 0.09054393 -0.122375384 -0.006344416 -0.037945762 -0.0034084134 -0.10247212 0.011196231
0.0446919 0.13960944 -0.118032575 0.025674054 -0.09003184 0.010137465 -0.032722827 0.17038698
0.054847877 0.017706575 0.16444276 -0.034811724 -0.084474534 0.16787079 -0.13697948 0.13222845
-0.030116906 -0.14907403 -0.008038628 0.048070706 0.029242385 0.080207385 -0.00058358733 -0.2401066
0.024102313 0.18147933 0.024100117 0.11709521 -0.0016643043 0.018470537 0.14782819 -0.05735903
-0.031640075 -0.13076623 0.08256426 0.009115507 -0.20993151 -0.051436305 0.04518141 -0.103735074
-0.10298394 0.067041 -0.07728132 -0.16166276 0.033004977 -0.04666241 0.17198326 0.010201603
0.05953706 -0.008486429 0.18167005 -0.13194834 -0.03165027 -0.019906672 0.16399013 -0.10881806
0.19670753 0.11484342 -0.02188374 0.13411406 0.10693694 -0.17836648 0.012189164 0.14202933
-0.19649982 0.06109339 0.018461794 -0.027634516 0.037235275 -0.021934679 -0.017160622 0.08111955
-0.041267004 -0.016304059 -0.12900475 0.11523267 0.00751427 0.14896588 -0.087839276 0.061850954
-0.0676208 -0.08556107 0.15977606 -0.065396175 0.028504904 -0.020312881 -0.014183111 -0.10113121
-0.022881266 -0.14693376 -0.053494453 -0.022047259 0.05682043 -0.0613078 -0.20418611 0.1832241
-0.08996412 0.026251594 0.06264871 -0.01976454 -0.190275 0.0019392815 0.032627393 0.05246778
-0.031113723 -0.07721246 0.017899731 0.005753804 -0.0876361 -0.11406657 0.0037396974 -0.047279906
-0.061637245 -0.16556983 -0.12782443 0.13502878 0.019899907 -0.2038573 0.016721092 -0.0130985165
-0.13040006 -0.0920891 0.056614894 -0.07200367 -0.055330023 0.090011865 -0.036893852 0.06975591
-0.047747247 -0.056517493 -0.016347485 -0.10119889 -0.03223357 0.038276926 0.02366778 0.06242391
-0.03708644 0.013038516 -0.21753535 0.0063647474 0.12738858 0.02213572 0.026823461 -0.19616745
-0.19877349 -0.008118585 -0.038908724 0.07618252 -0.033922 0.15333077 0.0390297 0.14091371
0.070090316 -0.28930038 0.06783428 -0.23163448 0.20489168 0.0030447408 0.09477054 -0.14400548
-0.054597996 -0.013720155 -0.12172575 0.11306211 0.13516243 0.11003635 0.12020653 -0.0858675
-0.017120916 -0.23250106 -0.19387306 0.02155986 0.10349168 -0.10529739 -0.015833745 -0.09106879
-0.19193715 0.0889 0.071106635 -0.006897975 -0.03976873 -0.016553627 0.1988158 -0.10338109
-0.21375278 0.15536734 -0.16980892 -0.023722878 0.15935871 -0.09857705 0.05070127 -0.13143784
0.15154526 0.006564656 -0.14992164 0.07857445 -0.0468973 -0.06522037 0.063154005 0.046595804
0.22758922 -0.08806609 -0.028681919 -0.2369676 0.09022196 -0.08982565 0.00047870894 0.017553486
-0.0087887 0.004248897 -0.2688783 -0.10966287 0.13307434 -0.22331843 0.049027145 -0.21232069
00000000: cb81 a33d 13dc cd3c 2a71 533e a5d2 5bbb
00000010: 99bf f53d 560d 0cbe ac22 1dbd b0b5 31be
00000020: 50b4 683d 946e 993d b376 c8bd 6a6a a33d
00000030: 968b 5cbd 27e8 62bd aa56 25bd 2d16 123c
00000040: 48d7 ebbc c015 0cbd bf8e d53d 2781 1bba
00000050: fcdb f9ba a976 80bd 558a 8dbc bc03 c83d
00000060: 3128 2d3d eeaf 6abd 6132 8c3d e83d 8d3e
00000070: 87b2 19be b5f5 9eb9 8251 713d a1e7 ad3d
00000080: 92b7 05bd 196f b93d f29f fabd d2e4 cfbb
00000090: 046d 1bbd b05f 5fbb e7dc d1bd 6570 373c
000000a0: db0e 373d c7f5 0e3e 10bb f1bd 6552 d23c
000000b0: 9d62 b8bd 9c17 263c 5f08 06bd ed79 2e3e
000000c0: 2ba8 603d 610d 913c af63 283e bd96 0ebd
000000d0: fc00 adbd 52e6 2b3e 5944 0cbe e566 073e
000000e0: bbb7 f6bc dda6 18be 73b4 03bc cae5 443d
000000f0: ba8d ef3c c543 a43d e2fb 18ba 81de 75be
00000100: 3772 c53c b8d5 393e 9c6d c53c 9dcf ef3d
00000110: c924 daba 864f 973c 4660 173e 4df1 6abd
00000120: 0699 01bd 95e7 05be 7317 a93d 3559 153c
00000130: 49f8 56be e0ae 52bd 2410 393d 0e73 d4bd
00000140: 3ee9 d2bd cb4c 893d ab45 9ebd ec8a 25be
00000150: 3a30 073d 1521 3fbd 611c 303e a024 273c
00000160: 22dd 733d aa0a 0bbc b707 3a3e 771d 07be
00000170: b7a3 01bd 5113 a3bc 07ed 273e 01dc debd
00000180: b36d 493e 0733 eb3d 8745 b3bc 3255 093e
00000190: c101 db3d b4a5 36be 0fb5 473c 2370 113e
000001a0: 4037 49be 103d 7a3d 303d 973c c861 e2bc
000001b0: 0484 183d 5bb0 b3bc 6f94 8cbc 0222 a63d
000001c0: 9707 29bd 1790 85bc d219 04be 1bff eb3d
000001d0: 443a f63b 838a 183e 14e5 b3bd 6d57 7d3d
000001e0: c67c 8abd a43a afbd 569c 233e 6eee 85bd
000001f0: 1e83 e93c 3367 a6bc 4760 68bc e11d cfbd
00000200: 7e71 bbbc ce75 16be 001d 5bbd 749c b4bc
00000210: 8abc 683d e31d 7bbd 2a16 51be 199f 3b3e
00000220: 1c3f b8bd 950d d73c f84d 803d 3fe9 a1bc
00000230: 73d7 42be 7d2f fe3a 4da4 053d 74e8 563d
00000240: 35e2 febc 9121 9ebd 75a2 923c 688a bc3b
00000250: 8e7a b3bd bc9b e9bd b615 753b 93a8 41bd
00000260: 5677 7cbd 238b 29be 68e4 02be fc44 0a3e
00000270: 2105 a33c f8bf 50be acfa 883c 299b 56bc
00000280: 9887 05be 3699 bcbd 05e5 673d a976 93bd
00000290: bca1 62bd 2458 b83d 021e 17bd 30dc 8e3d
000002a0: 9e92 43bd e37e 67bd 29eb 85bc 5d41 cfbd
000002b0: 5907 04bd 44c8 1c3d efe2 c13c 37b0 7f3d
000002c0: f3e7 17bd 809f 553c 96c1 5ebe 5f8f d03b
000002d0: 2772 023e f855 b53c e0bc db3c 1fe0 48be
000002e0: 478b 4bbe d003 05bc c15e 1fbd 9505 9c3d
000002f0: ccf1 0abd be02 1d3e 9bdd 1f3d af4b 103e
00000300: 838b 8f3d 2e1f 94be b3ec 8a3d 9731 6dbe
00000310: 20cf 513e 468a 473b 0f17 c23d 2c76 13be
00000320: 26a2 5fbd 80ca 60bc 5a4b f9bd 1c8d e73d
00000330: 0568 0a3e bd5a e13d d72e f63d 4ddb afbd
00000340: 2a41 8cbc c214 6ebe a986 46be 4e9e b03c
00000350: 72f3 d33d 28a6 d7bd c5b5 81bc 4682 babd
00000360: 2c8b 44be 3411 b63d 5ba0 913d 6908 e2bb
00000370: 89e4 22bd 799b 87bc 5e96 4b3e 77b9 d3bd
00000380: 02e2 5abe 9e18 1f3e 64e2 2dbe 7b56 c2bc
00000390: ee2e 233e c4e2 c9bd 23ac 4f3d a497 06be
000003a0: ae2e 1b3e 531c d73b 0f85 19be a4eb a03d
000003b0: 6217 40bd 4292 85bd e356 813d 3edb 3e3d
000003c0: 260d 693e ff5b b4bd 58f6 eabc a2a7 72be
000003d0: 4ac6 b83d 83f6 b7bd 3afb fa39 54cc 8f3c
000003e0: 7bfe 0fbc 553a 8b3b 6baa 89be ed96 e0bd
000003f0: a444 083e 96ad 64be b0d0 483d 986a 59be

network_body._body_endoder.seq_layers.2.bias f4 [128]
0.05817182 0.01182288 0.021472024 0.03139616 0.02347537 -0.001458806 0.05137638 0.044409446
-0.0064838207 -0.012415748 -0.0028803349 0.065633014 0.043114726 -0.00029090806 0.035594456 0.034895577
0.021458834 0.036577374 -0.020131141 -0.03624979 0.045798924 -0.015943134 0.010867222 -0.00078704173
-0.017290104 0.008508551 -0.015358572 -0.015662225 0.035006378 0.02524802 -0.031650312 -0.023888607
-0.03149514 0.03155954 0.011591344 -0.03234215 0.05408193 0.027800264 0.048362963 -0.0061529353
0.0462897 0.054654244 -0.016623795 0.0088482015 0.04554201 0.03209231 0.037070896 -0.01572218
0.020355182 0.042434502 0.031182822 0.0026438087 0.0076806853 0.02409123 0.043631796 -0.021254908
-0.01594644 -0.001912904 0.038435366 -0.018874131 -0.033344902 -0.012346124 -0.028032431 0.03858909
-0.015304402 0.058892738 -0.019583806 0.03787347 0.030217152 0.04011773 -0.002113828 0.0340847
0.008533718 0.046066288 0.020529179 -0.003754474 -0.03330471 0.032569632 0.048488487 0.029666282
-0.021475708 -0.015004641 0.02699765 -0.016927298 0.005720982 0.057099223 0.05410702 -0.015059495
0.020492215 -0.01928744 0.013305024 0.032644555 0.046903852 -0.007115982 0.008810498 0.037831683
-0.022524703 0.05146122 -0.020943569 0.0067603793 0.023007004 0.045172557 -0.027012816 0.050864853
-0.0014913264 -0.027070286 -0.0048969924 0.041628644 0.017846059 0.038428325 -0.030424992 0.063321665
-0.015781412 0.019279076 -0.016898056 0.014224827 0.04622645 -0.040287398 -0.010590839 -0.014902173
-0.006522741 0.036438603 -0.0017023335 -0.0065155732 -0.028410802 0.028534297 0.04425036 0.050671794
00000000: 9345 6e3d c1b4 413c 19e6 af3c 4399 003d
00000010: 6b4f c03c 6835 bfba 0a70 523d aee6 353d
00000020: 3b76 d4bb 6c6b 4bbc 00c4 3cbb 9a6a 863d
00000030: 1199 303d 0585 98b9 7ecb 113d aaee 0e3d
00000040: 70ca af3c 28d2 153d 10ea a4bc a97a 14bd
00000050: a797 3b3d 2d9b 82bc 6f0c 323c 7a51 4eba
00000060: faa3 8dbc 7367 0b3c 85a2 7bbc 114e 80bc
00000070: d962 0f3d f0d4 ce3c c2a3 01bd 0ab2 c3bc
00000080: 0c01 01bd 9444 013d 9fe9 3d3c 3479 04bd
00000090: 0485 5d3d 61bd e33c 3e18 463d 909e c9bb
000000a0: 459a 3d3d 21dd 5f3d a02e 88bc 0cf8 103c
000000b0: 428a 3a3d 3a73 033d a7d7 173d cdcb 80bc
000000c0: e9bf a63c cdcf 2d3d 1e73 ff3c c043 2d3b
000000d0: 42ae fb3b f95a c53c 41b7 323d c61e aebc
000000e0: 1ca2 82bc 68ba faba 676e 1d3d ec9d 9abc
000000f0: aa94 08bd 6647 4abc 45a4 e5bc 980f 1e3d
00000100: 51bf 7abc 8339 713d 386e a0bc 3621 1b3d
00000110: f689 f73c 7d52 243d 2688 0abb 669c 0b3d
00000120: 02d1 0b3c 01b0 3c3d cf2c a83c 9f0d 76bb
00000130: 856a 08bd bc67 053d dd9b 463d b406 f33c
00000140: d3ed afbc 07d6 75bc 2d2a dd3c 1eab 8abc
00000150: 1377 bb3b e0e0 693d 539f 5d3d 1abc 76bc
00000160: 4adf a73c b200 9ebc 51fd 593c 4cb6 053d
00000170: 411e 403d 2f2d e9bb e859 103c 65f5 1a3d
00000180: ba85 b8bc 00c9 523d d991 abbc 2c86 dd3b
00000190: 2f79 bc3c dc06 393d fb49 ddbc aa57 503d
000001a0: 9c78 c3ba 81c2 ddbc f376 a0bb cc82 2a3d
000001b0: e631 923c 0567 1d3d d53d f9bc caae 813d
000001c0: 0548 81bc 27ef 9d3c cb6d 8abc 400f 693c
000001d0: f257 3d3d 6604 25bd 3385 2dbc 3e28 74bc
000001e0: b8bc d5bb a540 153d d520 dfba 9780 d5bb
000001f0: c5bd e8bc c2c0 e93c de3f 353d 3a8d 4f3d

action_model._continuous_distribution.mu.weight f4 [1, 128]
-0.06960472 0.109710954 -0.014796778 -0.038293555 -0.030401824 -0.011510845 -0.050492015 -0.048973795
0.04142957 0.06749772 0.049808327 -0.05285586 -0.075297795 0.05040881 -0.0361669 -0.048447393
-0.012145091 -0.021735976 0.06100192 0.0075897286 -0.030703185 0.029194005 -0.0085601015 0.06280864
0.07955897 0.0025298004 0.026473578 0.031164832 -0.0257531 -0.013844693 0.023502674 0.03993321
0.0032816303 -0.026099183 0.11604893 0.039534595 -0.046926226 -0.037919383 -0.053600483 0.1122964
-0.04659632 -0.06535655 0.036735035 -0.021724049 -0.04029179 -0.052237332 -0.053135972 0.03466516
-0.005393892 -0.050232336 -0.022342075 -0.014457709 0.11281637 -0.035930607 -0.03735134 0.050828863
0.0232638 0.031380292 -0.035901252 0.060621534 0.013019815 0.028093139 0.046037596 -0.049497426
0.025098544 -0.051097587 0.038300812 -0.022319376 -0.014597484 -0.0365003 0.0013613956 -0.024159132
-0.005905348 -0.049056068 -0.018682642 0.04224615 0.018686807 -0.05071828 -0.07151071 -0.041975558
0.038822964 0.044033322 -0.014494366 0.07420941 0.08493717 -0.089911185 -0.064922675 0.07862128
-0.008647685 0.04218138 -0.0043119793 -0.04314614 -0.055905614 0.0404104 -0.004052988 -0.043343693
0.03625492 -0.074404374 0.031762354 -0.021857629 0.06608009 -0.059821326 0.04689237 -0.052729238
0.06725534 0.04641708 0.050390057 -0.05744771 -0.027371287 -0.07036688 0.028498353 -0.06746821
0.017953621 -0.026521599 0.016103985 -0.004787444 -0.028494667 0.016280878 0.07954475 0.003101
0.022478128 -0.018704548 0.082299635 0.04923001 0.02585632 -0.010163911 -0.05111391 -0.047608387
00000000: eb8c 8ebd 23b0 e03d 2f6e 72bc b4d9 1cbd
00000010: 3f0d f9bc fc97 3cbc b7d0 4ebd bf98 48bd
00000020: 0eb2 293d 3f3c 8a3d d103 4c3d 637f 58bd
00000030: bb35 9abd 7879 4e3d be23 14bd c670 46bd
00000040: 34fc 46bc a50f b2bc 26dd 793d 42b3 f83b
00000050: 3f85 fbbc 4428 ef3c ab3f 0cbc d1a1 803d
00000060: d0ef a23d 02cb 253b 1edf d83c 644d ff3c
00000070: 2af8 d2bc dad4 62bc ae88 c03c 0191 233d
00000080: 9f10 573b f4cd d5bc 10ab ed3d 07ef 213d
00000090: b735 40bd 5b51 1bbd 2e8c 5bbd a8fb e53d
000000a0: c8db 3ebd a8d9 85bd 7a77 163d a2f6 b1bc
000000b0: 0109 25bd d0f6 55bd 1ba5 59bd 0efd 0d3d
000000c0: 3fbf b0bb 6cc0 4dbd ba06 b7bc 07e0 6cbc
000000d0: 450c e73d f92b 13bd b8fd 18bd ed31 503d
000000e0: ba93 be3c 9f88 003d 310d 13bd 494e 783d
000000f0: 1051 553c 9523 e63c eb91 3c3d d0bd 4abd
00000100: 769b cd3c b44b 51bd 50e1 1c3d 20d7 b6bc
00000110: 492a 6fbc 5781 15bd db70 b23a 5fe9 c5bc
00000120: a681 c1bb 04ef 48bd 570c 99bc 4d0a 2d3d
00000130: 1315 993c f9bd 4fbd 3574 92bd 90ee 2bbd
00000140: d404 1f3d 495c 343d c779 6dbc 1afb 973d
00000150: 8af3 ad3d 5b23 b8bd 2ef6 84bd 3204 a13d
00000160: 05af 0dbc 62c6 2c3d 814b 8dbb 02ba 30bd
00000170: 49fd 64bd 6085 253d edce 84bb 2889 31bd
00000180: 0a80 143d 5261 98bd 3e19 023d c50e b3bc
00000190: 0055 873d 3507 75bd 3712 403d 9dfa 57bd
000001a0: 2bbd 893d d61f 3e3d ce65 4e3d 4a4e 6bbd
000001b0: c039 e0bc 831c 90bd 6175 e93c c62c 8abd
000001c0: 7913 933c d343 d9bc 81ec 833c fedf 9cbb
000001d0: a66d e9bc 7a5f 853c 5ce8 a23d 263a 4b3b
000001e0: 0d24 b83c 483a 99bc b68c a83d 68a5 493d
000001f0: a2d0 d33c 8886 26bc d25c 51bd 0301 43bd

action_model._discrete_distribution.branches.0.weight f4 [1, 128]
-0.009089305 0.010205379 -0.0018860642 -0.0006228799 -0.0047707576 0.011753491 0.004653857 -0.0039093434
-0.0055630854 -0.00083576556 -0.0041389843 -0.0035716102 0.0038173185 -0.0068606897 0.0039427266 2.424101e-06
-0.004339751 -0.007356853 0.012205818 0.01852916 0.010163594 -0.013847756 0.0004525565 -0.0005121839
0.004695956 0.0070992284 0.0038356096 -0.009338987 -0.00552134 -0.011046847 0.0012996857 0.0080141695
-0.014153155 -0.008238182 0.006370763 -0.00800591 0.0037972385 0.011214936 0.00045288453 0.008654025
0.015492948 0.0018560089 -0.011995082 0.0067170276 -0.006480859 -0.0015609473 -0.004515057 -0.004591366
-0.0049897116 -0.0040775556 0.0047423397 0.004226961 -0.011415018 0.0136189535 -0.009093399 0.0062599005
-0.005288487 0.014599467 0.014959872 -0.0062034586 0.024944788 0.0010156123 -0.00084353314 0.003079778
-0.014226796 0.0072298343 -0.001197033 0.00083975354 -0.006157585 -0.020729614 -0.011044825 0.0014982462
-0.01143911 0.002041781 0.011979069 0.027983522 0.0037948918 0.007413467 0.0042951494 -0.0021214734
-0.0051169684 0.0015004218 -0.004621819 -0.0037823734 0.008028429 0.007054325 -1.33281765e-05 0.0066594514
-0.016246697 0.0016149972 -0.009642075 -0.0029534893 0.010787045 0.011352491 -0.01241561 -0.0037887027
0.0035234347 0.00039720486 0.0035090179 0.02020792 -0.0009685663 -0.019862952 -0.016285228 -0.0039630285
-0.0008231859 -0.0006120847 -0.0002095409 -0.00054729276 0.0067444476 0.012609194 -0.0073000113 -0.013027258
-0.003995961 -0.007787528 0.0003086517 -0.0028278916 -0.0014473852 -6.237896e-05 -0.015441664 -0.004858409
0.016537178 0.006976239 0.007901231 0.0069888304 0.00289903 -0.0051510893 -0.0038629428 -0.02181162
00000000: 4feb 14bc 7634 273c d035 f7ba c348 23ba
00000010: 0454 9cbb b791 403c 627f 983b f319 80bb
00000020: 8b4a b6bb 4717 5bba 51a0 87bb ad11 6abb
00000030: fa2b 7a3b a3cf e0bb fd31 813b bdad 2236
00000040: 7834 8ebb c211 f1bb e9fa 473c 77ca 973c
00000050: 3485 263c b3e1 62bc 1b45 ed39 1444 06ba
00000060: 89e0 993b a5a0 e83b da5e 7b3b 8d02 19bc
00000070: 5bec b4bb d6fd 34bc 375a aa3a dd4d 033c
00000080: a2e2 67bc 71f9 06bc d5c1 d03b 382b 03bc
00000090: 17db 783b dabe 373c 2271 ed39 9dc9 0d3c
000000a0: 22d6 7d3c 5345 f33a 0587 44bc 831a dc3b
000000b0: 635d d4bb b398 ccba 0bf3 93bb 2b73 96bb
000000c0: bc80 a3bb 049d 85bb a165 9b3b 5282 8a3b
000000d0: 0e06 3bbc 0822 5f3c 7bfc 14bc da1f cd3b
000000e0: 0b4b adbb 9a32 6f3c 401a 753c 6246 cbbb
000000f0: 0359 cc3c 4b1e 853a 8d20 5dba 1ad6 493b
00000100: 8217 69bc 3fe8 ec3b c3e5 9cba e822 5c3a
00000110: 91c5 c9bb 27d1 a9bc 5bf5 34bc cd60 c43a
00000120: 1b6b 3bbc 67cf 053b db43 443c b33d e53c
00000130: b8b3 783b abec f23b 53be 8c3b 6b08 0bbb
00000140: 3eac a7bb cda9 c43a a172 97bb b2e1 77bb
00000150: ac89 033c f827 e73b 159c 5fb7 8737 da3b
00000160: cb17 85bc 50ae d33a cbf9 1dbc 548f 41bb
00000170: 25bc 303c ccff 393c d86a 4bbc e24b 78bb
00000180: 6de9 663b ef3f d039 8df7 653b 148b a53c
00000190: 62e7 7dba a1b7 a2bc 9968 85bc 4bdc 81bb
000001a0: 12cb 57ba 4f74 20ba 35b8 5bb9 3278 0fba
000001b0: 8700 dd3b cb96 4e3c ef34 efbb 4870 55bc
000001c0: 8df0 82bb 852e ffbb 88d2 a139 2654 39bb
000001d0: 30b6 bdba 73d1 82b8 08ff 7cbc 4a33 9fbb
000001e0: fa78 873c ef98 e43b 2a74 013c 8f02 e53b
000001f0: a7fd 3d3b 78ca a8bb 6d29 7dbb 48ae b2bc

exp_avg f4 [128, 12]
-0.00030077522 -0.00030076507 0.0003007892 0.00030078963 0.00020898104 0.00035180346 0.0 -2.6034808e-05
0.00035179232 -6.3218184e-05 -0.00079447805 -8.833078e-07 -8.2873805e-05 -8.288593e-05 8.2885585e-05 8.288488e-05
0.0002841302 0.001137571 0.0 0.00034613308 0.000982475 0.00011095166 -0.00017585608 2.2295217e-07
9.352755e-05 9.350897e-05 -9.352363e-05 -9.352463e-05 2.2426479e-05 0.0005293366 0.0 0.00014439788
0.00045098198 -0.00018338022 -0.0002670674 7.5396605e-07 3.696381e-05 3.695369e-05 -3.696078e-05 -3.6961304e-05
1.0536613e-05 7.3889736e-05 0.0 5.9688657e-05 7.387954e-05 -6.292429e-05 -8.9191664e-05 3.8360253e-07
-7.9711026e-05 -7.972856e-05 7.9725476e-05 7.972456e-05 0.000119404314 7.595161e-05 0.0 9.292764e-05
6.8995294e-05 0.00010078794 -0.00028692215 3.9376184e-07 0.00012662924 0.00012662691 -0.00012663614 -0.00012663627
-1.47799765e-05 0.00048290976 0.0 0.00012513962 0.00041806189 -1.6880314e-05 -1.0028875e-05 3.1398972e-07
-0.00010519709 -0.00010524287 0.00010522825 0.0001052258 0.00015656119 0.00027875387 0.0 0.000121018566
0.00019321413 -0.00017989732 -0.00026241006 1.2216954e-06 3.695245e-05 3.706519e-05 -3.701493e-05 -3.7008875e-05
-0.00042440553 -0.0018965795 0.0 -0.00061852165 -0.0016382156 0.00076374545 0.0013530065 -3.4354925e-06
-6.674964e-05 -6.678513e-05 6.677282e-05 6.677093e-05 0.00012542932 0.00029708436 0.0 0.00011746309
0.00022909664 -0.00016879641 -0.00021168405 9.756268e-07 -9.85377e-05 -9.842226e-05 9.848246e-05 9.8488556e-05
-0.0003122044 -0.0015403266 0.0 -0.00060205243 -0.001112086 -0.00015886538 0.0009729622 -3.7715424e-06
-8.847755e-05 -8.8519664e-05 8.850569e-05 8.850344e-05 0.00012634069 0.00017769245 0.0 9.344056e-05
0.0001054341 -4.3906173e-05 -0.0005648619 1.1397011e-06 0.00011524622 0.00011531023 -0.00011528774 -0.00011528433
-0.0003384137 -0.0005955907 0.0 -0.00039284403 -0.00047366013 -0.0003899714 0.00043237206 -1.770405e-06
-3.1496213e-05 -3.1514464e-05 3.150795e-05 3.150698e-05 4.4969638e-05 0.00020347798 0.0 3.3248885e-05
0.00016996775 -0.0001661433 -0.0002479183 5.0821575e-07 -2.3959223e-05 -2.3906685e-05 2.3932811e-05 2.3935583e-05
-0.00015619067 -0.00065572356 0.0 -0.0002715703 -0.00046839323 -0.00016291368 0.0005932425 -1.6766937e-06
-1.9597437e-05 -1.960682e-05 1.960367e-05 1.9603172e-05 0.00010013938 0.000292303 0.0 0.00013323045
0.0002539524 5.6743967e-05 1.4953514e-05 2.5478994e-07 -0.00035248225 -0.00035260868 0.0003525723 0.00035256555
0.0004791598 0.00049659837 0.0 0.0003346305 0.0003357825 -0.00015835307 -0.000985297 3.256973e-06
-1.7583447e-05 -1.7569524e-05 1.7577146e-05 1.757789e-05 -2.5144382e-05 -0.00016303874 0.0 -5.97803e-05
-0.0001106179 2.1584998e-05 0.00020829268 -4.66414e-07 2.8714883e-05 2.8732971e-05 -2.8726363e-05 -2.8725388e-05
-5.4867905e-05 -0.0002609079 0.0 -5.193951e-05 -0.00020495946 0.00019472915 0.0002556393 -5.080411e-07
1.7746626e-05 1.7758524e-05 -1.7754097e-05 -1.7753468e-05 -2.185415e-05 8.7829576e-05 0.0 -1.3308934e-05
0.00011373475 -3.4063326e-06 -0.0001978952 -3.3613318e-07 7.335161e-06 7.3079227e-06 -7.3211136e-06 -7.3225683e-06
8.199271e-05 0.00037913458 0.0 0.00013642917 0.000291989 -6.395772e-05 -0.00017705599 8.606179e-07
0.00011059889 0.00011061069 -0.000110612265 -0.000110611625 -0.00014056533 4.094007e-05 0.0 -8.978625e-05
1.1525284e-05 -0.000116497926 3.0069348e-05 -1.5578217e-07 2.0931233e-05 2.0933161e-05 -2.0933554e-05 -2.0933465e-05
00000000: 5eb1 9db9 01b0 9db9 3eb3 9d39 4db3 9d39
00000010: ec21 5b39 4372 b839 0000 0000 5365 dab7
00000020: c470 b839 0194 84b8 8544 50ba 731c 6db5
00000030: 89cc adb8 0bd3 adb8 dcd2 ad38 7bd2 ad38
00000040: 4ff7 9439 8c1a 953a 0000 0000 3279 b539
00000050: 64c6 803a b8ae e838 0266 38b9 a064 6f34
00000060: 3924 c438 3f1a c438 1e22 c4b8 a722 c4b8
00000070: 7f20 bc37 2ec3 0a3a 0000 0000 8369 1739
00000080: c771 ec39 c149 40b9 2e05 8cb9 2764 4a35
00000090: 9709 1b38 b9fe 1a38 5606 1bb8 e606 1bb8
000000a0: 69c6 3037 40f5 9a38 0000 0000 355a 7a38
000000b0: c7ef 9a38 39f6 83b8 690c bbb8 eef1 cd34
000000c0: 882a a7b8 f233 a7b8 4a32 a738 cc31 a738
000000d0: b468 fa38 3648 9f38 0000 0000 26e2 c238
000000e0: 91b1 9038 1d5e d338 0a6e 96b9 3766 d334
000000f0: c7c7 0439 27c7 0439 a1c9 04b9 aac9 04b9
00000100: 84f7 77b7 0d2f fd39 0000 0000 e937 0339
00000110: 512f db39 339a 8db7 b141 28b7 6b92 a834
00000120: 429d dcb8 d6b5 dcb8 fdad dc38 acac dc38
00000130: 932a 2439 b625 9239 0000 0000 59cb fd38
00000140: 8699 4a39 d2a2 3cb9 1594 89b9 22f9 a335
00000150: 64fd 1a38 7276 1b38 7a40 1bb8 fa39 1bb8
00000160: bf82 deb9 a696 f8ba 0000 0000 4924 22ba
00000170: 65b9 d6ba 1736 483a 5d57 b13a 508d 66b6
00000180: f1fb 8bb8 fe0e 8cb8 6308 8c38 5f07 8c38
00000190: ad85 0339 fdc1 9b39 0000 0000 8456 f638
000001a0: a939 7039 f1fe 30b9 81f7 5db9 48f2 8235
000001b0: 06a6 ceb8 0c68 ceb8 5e88 ce38 a48b ce38
000001c0: 5eaf a3b9 c9e4 c9ba 0000 0000 0ed3 1dba
000001d0: 6ac3 91ba 1a95 26b9 630e 7f3a 9b1a 7db6
000001e0: 068d b9b8 a2a3 b9b8 219c b938 ec9a b938
000001f0: 527a 0439 f452 3a39 0000 0000 85f5 c338
00000200: 801c dd38 e527 38b8 3e13 14ba d5f7 9835
00000210: 58b0 f138 b5d2 f138 a2c6 f1b8 cec4 f1b8
00000220: 1e6d b1b9 6a21 1cba 0000 0000 a2f6 cdb9
00000230: 9655 f8b9 1375 ccb9 ffaf e239 a79e edb5
00000240: cd1a 04b8 662e 04b8 6727 0438 5d26 0438
00000250: c89d 3c38 b45c 5539 0000 0000 b874 0b38
00000260: 5f39 3239 c136 2eb9 08fb 81b9 526c 0835
00000270: 0afc c8b7 378b c8b7 52c3 c837 46c9 c837
00000280: 1dc7 23b9 dde4 2bba 0000 0000 8c61 8eb9
00000290: ad92 f5b9 cfd3 2ab9 d583 1b3a c20a e1b5
000002a0: 2d65 a4b7 5379 a4b7 9072 a437 7e71 a437
000002b0: ec01 d238 3f40 9939 0000 0000 c7b3 0b39
000002c0: ea24 8539 5f00 6e38 dbe0 7a37 10ca 8834
000002d0: 5ecd b8b9 56de b8b9 74d9 b839 8cd8 b839
000002e0: bd37 fb39 272e 023a 0000 0000 5871 af39
000002f0: f70b b039 940b 26b9 1525 81ba 5f92 5a36
00000300: 2a80 93b7 4462 93b7 a272 9337 3b74 9337
00000310: 26ed d2b7 61f5 2ab9 0000 0000 9cbc 7ab8
00000320: 88fb e7b8 6e11 b537 2469 5a39 7467 fab4
00000330: bee0 f037 9607 f137 65f9 f0b7 4df7 f0b7
00000340: f721 66b8 77ca 88b9 0000 0000 a0d9 59b8
00000350: 63ea 56b9 3530 4c39 5307 8639 5260 08b5
00000360: 97de 9437 24f8 9437 a2ee 94b7 48ed 94b7
00000370: 6e53 b7b7 2531 b838 0000 0000 7049 5fb7
00000380: e184 ee38 5998 64b6 1782 4fb9 cb75 b4b4
00000390: 8e20 f636 9436 f536 e3a7 f5b6 62b4 f5b6
000003a0: 80f3 ab38 95c6 c639 0000 0000 6d0e 0f39
000003b0: 1a16 9939 0a21 86b8 1ba8 39b9 3605 6735
000003c0: 54f1 e738 a9f7 e738 82f8 e7b8 2af8 e7b8
000003d0: b864 13b9 11b7 2b38 0000 0000 a04b bcb8
000003e0: b85c 4137 5950 f4b8 6f3d fc37 1445 27b4
000003f0: 7b95 af37 9f99 af37 779a afb7 469a afb7

exp_avg_sq f4 [128, 12]
3.219952e-07 3.2199583e-07 3.2206535e-07 3.220653e-07 2.1612537e-07 1.8200925e-07 0.0 5.1882395e-08
1.4117118e-07 1.4817905e-07 2.6184583e-07 3.0974958e-12 2.0463611e-07 2.0465664e-07 2.0468497e-07 2.0468379e-07
1.823345e-07 3.6448554e-07 0.0 1.5697874e-07 2.9682954e-07 1.5604613e-07 2.0499911e-07 2.9126983e-12
1.1289222e-07 1.1291928e-07 1.129295e-07 1.1292799e-07 8.438965e-08 1.3442069e-07 0.0 2.7823955e-08
1.0685335e-07 7.5005175e-08 7.987573e-08 1.7158056e-12 2.6472293e-08 2.6469102e-08 2.6478245e-08 2.64784e-08
1.8188379e-08 2.3952627e-08 0.0 4.197605e-09 1.3807321e-08 1.2447386e-08 1.936697e-08 3.3488384e-13
1.5133887e-07 1.5132309e-07 1.5138127e-07 1.5138208e-07 1.03299584e-07 1.3805456e-07 0.0 2.659564e-08
7.034186e-08 9.1556196e-08 9.0992636e-08 1.9912698e-12 6.369197e-08 6.368753e-08 6.37064e-08 6.370663e-08
4.2526054e-08 8.220908e-08 0.0 1.0340206e-08 4.6073644e-08 4.3728846e-08 3.2291712e-08 7.9562415e-13
1.0825296e-08 1.0827207e-08 1.0828455e-08 1.0828349e-08 1.1795843e-08 2.334762e-08 0.0 6.756549e-09
1.5351349e-08 1.0974624e-08 1.562065e-08 2.7479099e-13 6.687463e-07 6.688811e-07 6.689385e-07 6.6893165e-07
5.2036654e-07 7.670126e-07 0.0 2.439743e-07 7.161926e-07 3.1056751e-07 6.4360296e-07 8.352835e-12
1.913356e-08 1.913468e-08 1.9140767e-08 1.9140701e-08 2.1530324e-08 2.5450706e-08 0.0 1.4086049e-08
2.1419115e-08 1.3956154e-08 1.68364e-08 4.4809967e-13 1.4296992e-06 1.4295905e-06 1.4300091e-06 1.4300138e-06
1.0672716e-06 1.5401387e-06 0.0 3.653163e-07 9.908955e-07 7.9457163e-07 1.0060734e-06 1.7516606e-11
3.3909558e-07 3.3907122e-07 3.3917755e-07 3.391789e-07 2.2763318e-07 2.6028619e-07 0.0 3.1428705e-08
1.3066149e-07 1.540543e-07 1.9409586e-07 3.1283203e-12 6.308107e-07 6.307673e-07 6.3095035e-07 6.3095206e-07
4.3924334e-07 7.2200186e-07 0.0 1.4402147e-07 4.03438e-07 3.620048e-07 4.1995165e-07 6.8233427e-12
1.41333505e-08 1.41377505e-08 1.4138791e-08 1.413855e-08 9.0127585e-09 1.7665844e-08 0.0 3.46302e-09
1.4369327e-08 9.790712e-09 1.7167157e-08 2.787469e-13 5.5387983e-07 5.5383657e-07 5.540052e-07 5.540071e-07
3.6992392e-07 6.0622807e-07 0.0 1.0437632e-07 3.291796e-07 3.0245204e-07 3.9437202e-07 6.578549e-12
7.823056e-09 7.824305e-09 7.826274e-09 7.8262055e-09 1.162712e-08 1.9533202e-08 0.0 1.17639e-08
1.874876e-08 1.08711316e-08 1.1270901e-08 2.953095e-13 5.084495e-07 5.084418e-07 5.085543e-07 5.085546e-07
3.8314266e-07 7.4496285e-07 0.0 8.9116384e-08 3.7339794e-07 3.5254646e-07 4.077251e-07 5.400657e-12
2.5603383e-08 2.5607786e-08 2.5612023e-08 2.5611792e-08 1.892855e-08 1.7672683e-08 0.0 4.164428e-09
1.7790653e-08 1.2157264e-08 2.0252715e-08 4.9314204e-13 2.4209012e-08 2.4215604e-08 2.4216645e-08 2.421628e-08
2.1831443e-08 2.4311577e-08 0.0 7.2657462e-09 2.224912e-08 1.5246451e-08 2.1039483e-08 3.485673e-13
6.663953e-08 6.663887e-08 6.665186e-08 6.6651864e-08 4.5826337e-08 2.7831703e-08 0.0 6.772163e-09
3.358032e-08 2.1529125e-08 4.260343e-08 5.3056875e-13 6.5702843e-09 6.570285e-09 6.572018e-09 6.572017e-09
8.941697e-09 3.6418758e-08 0.0 1.0182098e-08 2.554908e-08 1.5545329e-08 1.370435e-08 2.7776663e-13
5.9504373e-08 5.9500106e-08 5.951654e-08 5.9516747e-08 3.4610522e-08 5.781163e-08 0.0 1.2805322e-08
3.7586336e-08 3.123856e-08 3.652301e-08 5.5562727e-13 1.06734e-06 1.0672998e-06 1.0675748e-06 1.0675762e-06
00000000: afde ac34 c5de ac34 53e8 ac34 51e8 ac34
00000010: 1710 6834 526e 4334 0000 0000 4cd5 5e33
00000020: d794 1734 261b 1f34 d193 8c34 86f7 592c
00000030: f2b9 5b34 97bf 5b34 60c7 5b34 0dc7 5b34
00000040: bac7 4334 83ae c334 0000 0000 fd8d 2834
00000050: f15b 9f34 a28d 2734 ba1d 5c34 82f6 4c2c
00000060: 276f f233 087e f233 a683 f233 d282 f233
00000070: b339 b533 4755 1034 0000 0000 8601 ef32
00000080: 4077 e533 8812 a133 2688 ab33 697a f12b
00000090: 3065 e332 2c5e e332 4772 e332 9e72 e332
000000a0: ab3c 9c32 62c0 cd32 0000 0000 863a 9031
000000b0: 3d35 6d32 2fd8 5532 6b5c a632 d985 bc2a
000000c0: b67f 2234 607b 2234 5e8b 2234 978b 2234
000000d0: 8cd5 dd33 263c 1434 0000 0000 6e74 e432
000000e0: d90e 9733 8d9d c433 bb67 c333 871f 0c2c
000000f0: 08c7 8833 97c4 8833 f7ce 8833 17cf 8833
00000100: e4a5 3633 eb8a b033 0000 0000 b5a4 3132
00000110: 82e2 4533 60d0 3b33 1db1 0a33 c3f2 5f2b
00000120: 28fa 3932 8f02 3a32 0c08 3a32 9507 3a32
00000130: aba6 4a32 f68d c832 0000 0000 3c27 e831
00000140: f9dd 8332 e88a 3c32 2c2e 8632 8eb1 9a2a
00000150: e583 3335 298d 3335 1b91 3335 a290 3335
00000160: 51af 0b35 b4e4 4d35 0000 0000 93fb 8234
00000170: 6140 4035 13bc a634 0fc4 2c35 d3f1 122d
00000180: 255b a432 9b5d a432 fe6a a432 d96a a432
00000190: aff1 b832 b29e da32 0000 0000 19ff 7132
000001a0: 22fd b732 d0c3 6f32 a39f 9032 f841 fc2a
000001b0: 17e4 bf35 5be0 bf35 bdee bf35 e6ee bf35
000001c0: 2c3f 8f35 c3b6 ce35 0000 0000 b120 c434
000001d0: e9fe 8435 8c4a 5535 6b08 8735 e413 9a2d
000001e0: f10c b634 9809 b634 3518 b634 6518 b634
000001f0: 556b 7434 76bd 8b34 0000 0000 3afc 0633
00000200: f54b 0c34 206a 2534 aa68 5034 cf22 5c2c
00000210: fb54 2935 0052 2935 945e 2935 b25e 2935
00000220: 25d1 eb34 97cf 4135 0000 0000 52a4 1a34
00000230: 1998 d834 9059 c234 b775 e134 3513 f02c
00000240: 22cf 7232 7ce2 7232 0fe7 7232 00e6 7232
00000250: 88d6 1a32 9abf 9732 0000 0000 18fa 6d31
00000260: f8dc 7632 0234 2832 fa76 9332 a9eb 9c2a
00000270: 55ae 1435 5cab 1435 f3b6 1435 14b7 1435
00000280: f599 c634 adbb 2235 0000 0000 7d25 e033
00000290: 1aba b034 b160 a234 14ba d334 4d76 e72c
000002a0: 2a66 0632 a86b 0632 5174 0632 0474 0632
000002b0: 9dc0 4732 f7c9 a732 0000 0000 2e1a 4a32
000002c0: f60c a132 bec3 3a32 f2a1 4132 963e a62a
000002d0: 627c 0835 db7b 0835 9683 0835 9b83 0835
000002e0: bab2 cd34 75f9 4735 0000 0000 4060 bf33
000002f0: 6c77 c834 9e45 bd34 50e5 da34 cb04 be2c
00000300: 6fee db32 1ef8 db32 6f01 dc32 ed00 dc32
00000310: 5298 a232 a4ce 9732 0000 0000 b216 8f31
00000320: 0fd2 9832 36dc 5032 31f8 ad32 a1ce 0a2b
00000330: 2ef4 cf32 ad02 d032 f704 d032 2a04 d032
00000340: da87 bb32 b9d5 d032 0000 0000 2ea6 f931
00000350: 551e bf32 4df7 8232 50ba b432 d839 c42a
00000360: 781b 8f33 1b1b 8f33 3f22 8f33 4022 8f33
00000370: 97d2 4433 9012 ef32 0000 0000 93b0 e831
00000380: f439 1033 0cef b832 f7fa 3633 8257 152b
00000390: d5c0 e131 d7c0 e131 15d0 e131 13d0 e131
000003a0: 009e 1932 d96a 1c33 0000 0000 57ed 2e32
000003b0: 0577 db32 8a88 8532 5e70 6b32 645e 9c2a
000003c0: c091 7f33 0f8d 7f33 219f 7f33 5b9f 7f33
000003d0: aca6 1433 8f4c 7833 0000 0000 67fe 5b32
000003e0: 9d6e 2133 292b 0633 79dd 1c33 2a65 1c2b
000003f0: 8641 8f35 2440 8f35 9749 8f35 a449 8f35

exp_avg f4 [128]
-0.00024671404 6.231457e-05 0.00021077038 0.00010720383 0.00011003131 8.778274e-05 0.00034140082 -0.0009602023
0.00027264704 -0.0010539378 0.00031846587 -0.00049470767 0.00014203721 -0.0004685164 7.121211e-05 0.0009100752
-0.0001303642 -0.00014200892 -9.387881e-05 0.00024049732 -4.3523538e-05 -5.993217e-06 -0.00012580403 -0.0002475199
0.0005246153 8.147015e-05 0.0009161974 -0.00022081217 -1.7554057e-05 3.290578e-05 -0.0002226679 0.00020284191
0.00020485304 0.00081163336 -6.0034003e-05 0.00033731185 -0.00033985756 -0.00012150605 0.00016486975 -0.0002100271
7.354541e-05 0.00062523095 -0.00014239455 2.6895153e-05 -0.0003790929 0.00040946258 -3.4896268e-05 2.2012764e-05
0.00044858956 -1.3983182e-05 0.00017406709 -6.006889e-05 0.00019648885 9.3115086e-05 8.177503e-05 8.374566e-05
7.22026e-05 -0.00041953314 -0.00015480403 -7.413451e-05 0.0005117736 -0.00050485466 0.00019777835 -0.0007983046
-0.00045688084 0.00031328746 -0.00025597354 0.00016028795 -0.0004261985 0.0008877779 -0.00017335273 0.00024678276
0.00015739352 8.139133e-05 0.00023525821 -5.4022894e-05 -0.0005148425 -0.00041625134 -0.0002207865 0.00014333951
-0.00076035026 -0.00011884089 0.0002422116 -0.00011510268 -7.5322394e-05 -0.00073735527 0.0002571815 -6.8613896e-05
8.4570245e-05 -0.0003063321 0.0007389904 -0.0010666299 2.210993e-05 0.00012347891 -1.6004638e-05 0.00019389822
-4.6518533e-05 0.0002838861 0.00018509082 0.0003345037 -0.0005524818 -0.00057119626 0.000103100756 5.8332193e-05
-0.00036462946 -0.00015416318 -0.0001476579 3.2401553e-05 0.000396937 8.73137e-05 6.139371e-05 1.8277939e-05
6.2052524e-05 -0.00013348396 -0.0001818838 0.0004165794 -7.15259e-06 0.00040329705 -0.00034377043 0.00015237363
8.591195e-05 -2.7328697e-05 -0.0001396758 8.68414e-05 -5.4420267e-05 0.00013841818 -0.00036722564 0.0003585055
00000000: 6659 81b9 e1ae 8238 3e02 5d39 9ed2 e038
00000010: 9cc0 e638 0018 b838 0bfe b239 16b6 7bba
00000020: 11f2 8e39 4924 8aba c4f7 a639 45af 01ba
00000030: d3ef 1439 35a3 f5b9 b657 9538 1d92 6e3a
00000040: 60b2 08b9 3be8 14b9 cde0 c4b8 022e 7c39
00000050: 0b8d 36b8 5819 c9b6 43ea 03b9 8fc5 81b9
00000060: 5686 093a f4da aa38 f72c 703a d189 67b9
00000070: 0d41 93b7 5004 0a38 f67b 69b9 f6b1 5439
00000080: d2cd 5639 cbc3 543a 05cd 7bb8 3bd9 b039
00000090: e92e b2b9 10d1 feb8 e3e0 2c39 b83a 5cb9
000000a0: 643c 9a38 8ae6 233a bf4f 15b9 e79c e137
000000b0: fdc0 c6b9 23ad d639 955d 12b8 0da8 b837
000000c0: ac30 eb39 4f99 6ab7 c785 3639 7bf2 7bb8
000000d0: 9308 4e39 c846 c338 a37e ab38 9ca0 af38
000000e0: 7a6b 9738 c9f4 dbb9 e452 22b9 a978 9bb8
000000f0: 8b28 063a 3958 04ba b962 4f39 5145 51ba
00000100: 8289 efb9 bb40 a439 3034 86b9 f812 2839
00000110: 6573 dfb9 c4b9 683a 05c6 35b9 9f62 8139
00000120: 000a 2539 a3b0 aa38 a5af 7639 a496 62b8
00000130: 7ff6 06ba 4f3c dab9 ed82 67b9 684d 1639
00000140: 3e52 47ba 383a f9b8 2efa 7d39 4863 f1b8
00000150: 67f6 9db8 134b 41ba 51d6 8639 cee4 8fb8
00000160: 4e5b b138 339b a0b9 ceb8 413a 29ce 8bba
00000170: b778 b937 1e7a 0139 b341 86b7 2851 4b39
00000180: e51c 43b8 8cd6 9439 f014 4239 5460 af39
00000190: 6dd4 10ba 55bc 15ba cc37 d838 b7a9 7438
000001a0: bd2b bfb9 dda6 21b9 9ed4 1ab9 e7e6 0738
000001b0: fb1b d039 301c b738 7fc0 8038 9353 9937
000001c0: 3222 8238 d4f7 0bb9 10b8 3eb9 5768 da39
000001d0: 4800 f0b6 9d71 d339 163c b4b9 7cc6 1f39
000001e0: a02b b438 ee3f e5b7 f075 12b9 9f1e b638
000001f0: 5141 64b8 5924 1139 3188 c0b9 cbf5 bb39

exp_avg_sq f4 [128]
1.6051686e-07 1.6840626e-07 8.968127e-08 1.4087069e-08 6.967116e-08 3.3813578e-08 1.6443337e-08 4.913972e-07
1.7861e-08 8.757578e-07 1.4274463e-07 3.2787466e-07 1.3690573e-08 3.1289835e-07 9.6188915e-09 3.0908674e-07
2.319875e-08 2.229038e-08 2.9560118e-08 1.6663842e-08 2.6472396e-08 4.830076e-07 4.4379227e-08 1.2292068e-07
2.4367105e-07 1.799063e-08 3.1139368e-07 1.533531e-07 1.2427442e-07 2.5162077e-08 3.417164e-08 3.467594e-08
1.01013505e-07 3.692424e-07 2.0242439e-08 7.956539e-08 2.575944e-07 1.0665723e-07 1.1727025e-08 3.2881087e-07
1.8276714e-07 6.2843714e-07 1.27533335e-08 7.214059e-08 1.429525e-07 6.7702274e-08 9.892053e-09 4.2774786e-08
9.200478e-08 2.564369e-08 1.5401667e-07 2.537511e-09 5.6475088e-08 7.085354e-08 4.154184e-09 1.4795172e-07
7.6638116e-08 6.6056245e-08 3.279477e-08 1.1132674e-08 1.4042055e-07 9.032667e-08 3.0263262e-08 3.1422132e-07
1.0514174e-07 7.1925444e-07 5.5440207e-08 4.9539562e-08 4.789818e-08 2.2079949e-07 5.200593e-08 3.228818e-08
1.5209958e-08 8.0485085e-09 2.6356187e-07 5.468441e-09 2.5890037e-07 1.0082592e-07 2.6908083e-07 1.4946409e-08
6.9597786e-07 3.875832e-08 9.5779455e-08 4.051463e-09 2.7331222e-07 1.5977358e-07 6.58025e-08 1.2634405e-07
1.0762749e-08 4.6862965e-08 2.586033e-07 2.6425167e-07 5.050643e-08 3.5823582e-08 2.0165292e-08 1.884863e-08
5.3470707e-08 2.6467092e-07 2.384746e-08 8.6026446e-08 5.415292e-07 6.0157424e-07 1.0479645e-08 1.1957641e-07
7.294915e-08 1.4604643e-07 1.8814798e-07 1.773085e-08 5.3168556e-08 8.091399e-09 9.527975e-09 1.05956474e-07
1.0945922e-07 1.5183505e-07 3.2607765e-08 1.6391868e-07 1.16162875e-08 1.2938841e-07 1.0083276e-07 1.3912943e-07
4.465465e-08 3.8943546e-09 6.965239e-07 3.1541333e-08 2.4093728e-08 1.8179918e-08 4.5053486e-08 1.4353984e-07
00000000: 8a5a 2c34 29d3 3434 cd96 c033 9603 7232
00000010: 209e 9533 6c3a 1133 483f 8d32 8fe8 0335
00000020: c16c 9932 9e15 6b35 5845 1934 c006 b034
00000030: c733 6b32 6cfc a734 5540 2532 8ff0 a534
00000040: 9746 c732 1079 bf32 63eb fd32 2d24 8f32
00000050: 6a65 e332 08a8 0135 7a9b 3e33 2efc 0334
00000060: e5d1 8234 d089 9a32 9f2d a734 61a9 2434
00000070: 4b70 0534 fe23 d832 1ec4 1233 99ee 1433
00000080: c3ec d833 4a3c c634 98e1 ad32 89dd aa33
00000090: 814b 8a34 6f0b e533 0078 4932 6c87 b034
000000a0: a63e 4434 dfb1 2835 c119 5b32 b5eb 9a33
000000b0: 7c7e 1934 b863 9133 b6f1 2932 60b7 3733
000000c0: 2a94 c533 1247 dc32 c85f 2534 5e60 2e31
000000d0: 048f 7233 2528 9833 97bc 8e31 a9dc 1e34
000000e0: 4094 a433 ceda 8d33 3bda 0c33 0542 3f32
000000f0: 82c6 1634 9df9 c133 cffa 0133 40b2 a834
00000100: 48ca e133 ca12 4135 271d 6e33 53c5 5433
00000110: 9bb8 4d33 e714 6d34 205d 5f33 3bad 0a33
00000120: 0da7 8232 b745 0a32 ab7f 8d34 eae4 bb31
00000130: fffe 8a34 a385 d833 3076 9034 8063 8032
00000140: 3cd3 3a35 3977 2633 50af cd33 0c35 8b31
00000150: bfbb 9234 3a8e 2b34 4f4f 8d33 30a9 0734
00000160: 12e7 3832 6046 4933 2bd6 8a34 79de 8d34
00000170: 68ec 5833 72dc 1933 f237 ad32 93e8 a132
00000180: aaa7 6533 1818 8e34 1ed9 cc32 8abd b833
00000190: 9a5d 1135 de7b 2135 f709 3432 ea64 0034
000001a0: 38a8 9c33 f0d0 1c34 b905 4a34 8d4e 9832
000001b0: 725b 6433 5902 0b32 7ab0 2332 308a e333
000001c0: d80f eb33 1a08 2334 9e0c 0c33 a001 3034
000001d0: f990 4732 04ee 0a34 6589 d833 9b63 1534
000001e0: 4fca 3f33 1bcf 8531 c2f8 3a35 1078 0733
000001f0: abf6 ce32 102a 9c32 d580 4133 ee1f 1a34
