results/Slider_behavior/SliderBehavior/SliderBehavior-80064.onnx (onnx, 81804 bytes, 8 tensors)

network_body.observation_encoder.processors.0.normalizer.running_mean f4 [12]
6.6628995 -4.80696 -0.6219735 -1.2339661 -0.4957619 -3.2379172 0.0 0.4322077
3.8038363 0.18233937 -0.33321548 0.999979
00000000: 7936 d540 9ed2 99c0 a839 1fbf 9af2 9dbf
00000010: 81d4 fdbe 093a 4fc0 0000 0000 544a dd3e
00000020: 0e72 7340 2cb7 3a3e 389b aabe a0fe 7f3f

network_body._body_endoder.seq_layers.0.weight f4 [128, 12]
-0.12161878 0.06510851 0.34409252 0.21590668 0.28497398 -0.061316587 -0.054345526 0.24149233
0.013838234 0.19498248 -0.0027384344 -0.39899346 0.47667852 0.1869028 0.06587975 0.30509943
-0.2887286 -0.16534477 0.3516238 0.23275568 -0.5068768 0.40583038 0.046148695 0.39059988
0.017113743 -0.18181701 -0.13513829 0.5685046 -0.04373203 -0.2607993 0.038123913 0.030379651
-0.07296059 0.06438236 0.28761798 0.13124432 0.053068943 -0.08408471 -0.034538433 0.1941522
0.2886666 0.26245293 -0.06105239 0.085879564 0.08955051 0.2834055 -0.47061583 -0.055301312
-0.6041121 -0.16669297 -0.29885024 -0.026466183 -0.10978937 -0.071676575 -0.5013011 0.045154486
0.4133832 -0.30919647 -0.05203571 -0.0021647965 -0.1434716 0.26762283 0.031115811 -0.13630792
0.43780243 -0.21027647 0.16929597 -0.06279606 -0.2808495 0.52302355 -0.48509526 0.27237287
0.0016512731 0.014143386 0.05651001 0.368693 0.0035126293 0.44179302 0.22605109 0.14955054
0.5578908 0.005442215 -0.18195069 -0.059057727 0.1292736 -0.2972533 0.19404118 0.19619118
-0.1673371 0.262449 0.101382665 0.31824356 0.06573852 0.43806168 -0.049989317 0.03459517
0.02603956 -0.08028756 0.30745387 0.18540461 0.060452588 0.7302214 -0.22018456 0.09133953
0.10391073 -0.07985627 -0.004003459 0.15164085 0.13286921 0.01964578 -0.2955552 0.49577358
-0.02098658 -0.19879457 -0.24120785 0.443976 -0.33403924 0.268204 -0.21026471 0.027370026
0.31833625 -0.17609765 -0.20233907 -0.16961555 0.1605531 0.24472074 0.95988286 0.31667113
-0.39173165 0.14950866 -0.50161743 -0.58827674 0.03821121 -0.05011132 -0.41550645 -0.30930784
-0.20808364 -0.02655168 0.2569283 -0.01656823 0.31382638 -0.19207197 0.44098362 0.10142209
-0.061969902 0.09625543 0.11736962 -0.34149227 -0.37521088 0.29477003 0.09472871 0.113862276
-0.11663227 -0.055841617 0.065757126 0.08779508 -0.14856423 -0.2955898 -0.03322668 -0.03721306
0.17190571 0.0021096135 0.23632176 0.009892528 -0.014670742 -0.52612805 -0.13977517 0.06796506
0.13900039 0.15864825 -0.3812219 -0.1371597 0.1156165 0.28012368 0.2117797 0.45012093
-0.25830734 -0.15348792 -0.108150356 -0.24533045 -0.050270405 0.53217316 -0.30984366 -0.074381255
0.026166929 -0.0718157 0.01890229 0.3299567 0.39684588 -0.4125204 0.40584725 0.29735196
0.5287799 0.010532654 0.12189608 -0.0022720762 -0.080358036 0.46397457 0.108270146 -0.28184828
0.31658015 0.2830268 0.22481439 0.3932264 0.069957875 -0.29415038 -0.22463757 -0.17536043
0.21739875 5.408199e-05 0.15640882 0.32523036 0.21415955 0.044210702 -0.39884135 0.12298359
-0.1992451 -0.1365194 0.7488914 0.04529997 -0.14548947 0.016260143 0.061675597 -0.5111653
-0.5225283 0.07074347 0.07214828 0.38963443 -0.19916473 0.16449568 -0.18284969 0.031005977
0.03172685 -0.0075066537 -0.16326888 0.52687836 -0.21992442 0.17104098 0.084957086 -0.08476213
0.29530665 -0.014988057 0.0867066 0.18308468 -0.13344833 -0.24298726 -0.14614402 0.2931605
-0.5088408 -0.66362 -0.38539156 0.12293388 -0.13533129 0.19420166 0.06498082 -0.03915621
00000000: 4413 f9bd 9c57 853d e52c b03e a416 5d3e
00000010: 1ce8 913e 1a27 7bbd 6a99 5ebd c449 773e
00000020: c3b9 623c 7da9 473e 4e77 33bb df48 ccbe
00000030: 350f f43e 7363 3f3e f6eb 863d fe35 9c3e
00000040: 3cd4 93be 2450 29be 0908 b43e 8157 6e3e
00000050: aec2 01bf 00c9 cf3e 6a06 3d3d b5fc c73e
00000060: 1f32 8c3c 3d2e 3abe b161 0abe 8489 113f
00000070: 5b20 33bd 7c87 85be d227 1c3d bfde f83c
00000080: 5d6c 95bd e6da 833d aa42 933e e964 063e
00000090: d25e 593d 9b34 acbd 2c78 0dbd d6cf 463e
000000a0: 1ccc 933e 3b60 863e 1212 7abd a0e1 af3d
000000b0: 4266 b73d 871a 913e 8ff4 f0be a183 62bd
000000c0: 17a7 1abf 90b1 2abe e602 99be 9ccf d8bc
000000d0: 40d9 e0bd 2bcb 92bd 4555 00bf e9f3 383d
000000e0: f6a6 d33e 004f 9ebe 6623 55bd 42df 0dbb
000000f0: 38ea 12be dc05 893e 96e6 fe3c 4e94 0bbe
00000100: a427 e03e b752 57be ec5b 2d3e 399b 80bd
00000110: 81cb 8fbe dfe4 053f 685e f8be 7574 8b3e
00000120: 886f d83a a9b9 673c 0a77 673d 54c5 bc3e
00000130: 2434 663b b232 e23e f079 673e c723 193e
00000140: eed1 0e3f 9c54 b23b 4851 3abe 84e6 71bd
00000150: 4c60 043e 9631 98be bbb2 463e 57e6 483e
00000160: 6b5a 2bbe b75f 863e b7a1 cf3d d2f0 a23e
00000170: eba1 863d 9f49 e03e 99c1 4cbd aab3 0d3d
00000180: ea50 d53c ce6d a4bd 986a 9d3e b5da 3d3e
00000190: 229d 773d caef 3a3f 1078 61be 3810 bb3d
000001a0: 26cf d43d af8b a3bd 732f 83bb bd47 1b3e
000001b0: de0e 083e 30f0 a03c 0353 97be 09d6 fd3e
000001c0: 0cec abbc ce90 4bbe 31ff 76be d350 e33e
000001d0: 3107 abbe 0952 893e a24f 57be 1b37 e03c
000001e0: f8fc a23e f152 34be f931 4fbe b3af 2dbe
000001f0: 0868 243e 1398 7a3e e2ba 753f b822 a23e
00000200: 0d91 c8be cc18 193e 006a 00bf 4e99 16bf
00000210: 5c83 1c3d 8741 4dbd 43bd d4be 995d 9ebe
00000220: e113 55be e982 d9bc 1b8c 833e 19ba 87bc
00000230: daad a03e 84ae 44be 9bc8 e13e 62b6 cf3d
00000240: 27d4 7dbd 9121 c53d 7c5f f03d 13d8 aebe
00000250: a41b c0be 19ec 963e 2001 c23d a030 e93d
00000260: e6dc eebd 2eba 64bd acab 863d e8cd b33d
00000270: 3921 18be 8c57 97be b318 08bd b96c 18bd
00000280: 0d08 303e 7141 0a3b 55fe 713e 4514 223c
00000290: 8d5d 70bc 54b0 06bf 3921 0fbe 4431 8b3d
000002a0: 1e56 0e3e b074 223e 842f c3be 9873 0cbe
000002b0: 58c8 ec3d 5f6c 8f3e c7dc 583e 4076 e63e
000002c0: dc40 84be f02b 1dbe ef7d ddbd e837 7bbe
000002d0: 57e8 4dbd 803c 083f d4a3 9ebe 3355 98bd
000002e0: 075c d63c 1c14 93bd fad8 9a3c 16f0 a83e
000002f0: 622f cb3e e035 d3be 36cb cf3e 843e 983e
00000300: 1f5e 073f 2791 2c3c a7a4 f93d 1de7 14bb
00000310: c192 a4bd 138e ed3e bdbc dd3d 6b4e 90be
00000320: cb16 a23e e4e8 903e be35 663e f854 c93e
00000330: 1346 8f3d e19a 96be 6407 66be af91 33be
00000340: c79d 5e3e 18d6 6238 a229 203e 9884 a63e
00000350: a44c 5b3e 4816 353d ef34 ccbe d2de fb3d
00000360: e806 4cbe becb 0bbe 59b7 3f3f 768c 393d
00000370: 31fb 14be fe33 853c 8d9f 7c3d bbdb 02bf
00000380: 6ac4 05bf f4e1 903d 7ac2 933d 2a7e c73e
00000390: d7f1 4bbe 8e71 283e f33c 3bbe 3f00 fe3c
000003a0: 03f4 013d 60fa f5bb f52f 27be 80e1 063f
000003b0: de33 61be 5e25 2f3e fbfd ad3d c597 adbd
000003c0: 6f32 973e 7890 75bc 3b93 b13d 8d7a 3b3e
000003d0: aea6 08be a7d1 78be c7a6 15be 2219 963e
000003e0: 6443 02bf 00e3 29bf 0b52 c5be c2c4 fb3d
000003f0: 4994 0abe cddc 463e aa14 853d 4362 20bd

network_body._body_endoder.seq_layers.0.bias f4 [128]
-0.03648855 -0.014006552 0.014492365 0.00467861 0.043217376 0.028597796 -0.0042273356 -0.01992199
0.013410509 0.00072981516 0.02939317 0.037817843 -0.0034774623 0.023935888 0.018080577 0.031723924
0.031795725 0.0116492715 -0.0059885886 0.016746841 0.07451885 -0.01657994 0.017080178 -0.016680319
-0.0012054639 -0.046680383 0.009605149 0.05829184 0.024712097 0.018991446 0.0075117485 0.024621297
0.026920533 -0.015595469 -0.006882278 0.024309754 -0.025163148 -0.046751503 0.07114813 0.017296117
0.019715153 -0.006941108 0.00547325 0.0041138907 0.03377432 -0.008632508 0.01741139 0.008356179
0.0069470326 0.008254447 0.0031320413 0.014971786 0.04646266 0.0016853733 -0.012021266 -0.0013901227
0.04514613 0.023868723 -0.00016238459 -0.012754643 0.030668002 -0.0014739734 0.0021245375 -0.010132792
-0.03490024 -0.00089761405 0.048072997 0.03749693 0.003427989 -0.004121132 0.014313108 0.01690498
0.013940113 0.017003471 0.017770406 -0.0060565034 0.00047875952 0.009864751 -0.017007783 0.021237412
0.0037571117 -0.005334636 0.08328325 -0.009060037 0.02018044 0.023489797 0.005029961 0.02108075
0.008394819 -0.008869143 0.025833718 0.020172652 0.06854757 0.05065 0.013233768 0.0044408487
0.039856877 0.0032829149 0.01641598 0.03290033 0.001333181 0.016921086 -0.002856304 0.020690385
0.020035036 0.0048821648 0.0422636 0.084217854 0.030085906 -0.0048698424 -0.007876702 0.005317556
0.014609887 0.05348593 0.0022076238 0.010904183 -0.017866032 0.011945352 0.047689375 0.0356937
-0.0020291584 0.057354935 0.027372254 0.0422048 0.06992288 -0.0046351836 0.0023182188 4.0134328e-05
00000000: 0575 15bd bd7b 65bc 6271 6d3c 064f 993b
00000010: b404 313d ed45 ea3c 7685 8abb 7133 a3bc
00000020: c0b7 5b3c 1151 3f3a f2c9 f03c e2e6 1a3d
00000030: 23e6 63bb 3215 c43c b81d 943c f2f0 013d
00000040: 3c3c 023d 96dc 3e3c ec3b c4bb ac30 893c
00000050: 579d 983d a8d2 87bc bbeb 8b3c 2aa5 88bc
00000060: a800 9eba ee33 3fbd ea5e 1d3c 6dc3 6e3d
00000070: 0671 ca3c f393 9b3c 1d25 f63b 9ab2 c93c
00000080: 7388 dc3c 2384 7fbc bb84 e1bb 4025 c73c
00000090: f222 cebc 817e 3fbd 1cb6 913d 96b0 8d3c
000000a0: ac81 a13c 3c72 e3bb f358 b33b d1cd 863b
000000b0: f156 0a3d 5d6f 0dbc 55a2 8e3c 5be8 083c
000000c0: efa3 e33b a93d 073c ef42 4d3b 394c 753c
000000d0: a14f 3e3d bee7 dc3a d8f4 44bc c734 b6ba
000000e0: 26eb 383d 5788 c33c c845 2ab9 daf8 50bc
000000f0: 763b fb3c 5732 c1ba d33b 0b3b 0304 26bc
00000100: 8ef3 0ebd dc4d 6bba 31e8 443d 6296 193d
00000110: 1da8 603b 900a 87bb 8781 6a3c 507c 8a3c
00000120: 1265 643c dd4a 8b3c 3e93 913c a275 c6bb
00000130: 0402 fb39 c49f 213c e853 8bbc 15fa ad3c
00000140: e039 763b 2cce aebb 6990 aa3d 8d70 14bc
00000150: 7351 a53c ad6d c03c 5fd2 a43b 89b1 ac3c
00000160: 6c8a 093c e24f 11bc 3ca1 d33c 1e41 a53c
00000170: ab62 8c3d 6076 4f3d 72d2 583c 8a84 913b
00000180: f740 233d 2c26 573b ce7a 863c 7fc2 063d
00000190: 22be ae3a 179e 8a3c d430 3bbb e27e a93c
000001a0: 8420 a43c 91fa 9f3b 991c 2d3d 697a ac3d
000001b0: b876 f63c 3393 9fbb 480d 01bc e53e ae3b
000001c0: 4f5e 6f3c 1014 5b3d c8ad 103b 75a7 323c
000001d0: c95b 92bc 70b6 433c ef55 433d 8f33 123d
000001e0: a1fb 04bb 02ed 6a3d c73b e03c f1de 2c3d
000001f0: ba33 8f3d bde2 97bb 42ed 173b e855 2838

network_body._body_endoder.seq_layers.2.weight f4 [128, 128]
0.049242217 -0.112560526 -0.09492614 -0.002185703 0.0026410627 -0.027706893 -0.046811428 0.08427715
0.09088028 -0.07967554 0.08757968 0.08221242 -0.02727044 0.10713473 0.10876934 -0.06214255
0.09618807 0.03486368 -0.06587298 -0.026624199 -0.033452798 0.07143531 0.045889907 0.009322503
0.025479555 -0.11118796 0.10146898 0.056659654 0.005618231 0.010322457 -0.015832797 0.014706039
0.09507606 0.07386109 0.19765516 -0.1827433 0.045100603 0.08857923 -0.097785115 0.15946674
0.011814351 -0.1680588 -0.05828326 0.027780183 -0.027546065 -0.060697537 -0.0061858953 0.16742976
0.21357313 -0.026959354 0.22138335 -0.0117502995 0.07476949 0.08242177 -0.039955 0.0072168633
0.011772391 0.008093491 -0.076189086 0.043944545 -0.121137775 -0.05408987 -0.0035250075 -0.09441059
0.16231237 0.016299438 0.0043853573 -0.053037364 -0.000986554 -0.051903684 0.103608884 -0.19365287
-0.07127544 0.19965847 0.11962968 0.12993062 0.08916045 0.026460772 0.03651648 0.08750023
-0.026876383 -0.04849134 -0.047997445 -0.038764175 -0.02051489 -0.066512756 0.017973516 -0.09104715
-0.020053925 -0.041025724 0.07860913 -0.1572444 0.15025318 0.13039991 0.034164112 0.113107234
-0.11630639 -0.08544829 -0.03224332 0.05310982 -0.082806945 -0.11808836 0.10711091 -0.042788293
0.08129106 0.1224087 -0.078495845 0.090129696 -0.019150054 0.17548166 -0.09394539 -0.028081125
0.014133081 -0.033419322 0.02914174 -0.10579989 -0.10219617 0.026975606 -0.081316836 -0.0027288648
0.05213604 -0.014766779 0.056605242 -0.036854483 -0.10176874 0.022537893 -0.043708295 0.023134734
0.13709511 -0.06475791 0.070804514 0.05990761 -0.010651897 -0.039364107 -0.146086 0.017956998
0.016907105 -0.030590128 -0.008460573 -0.17427644 0.106450684 -0.011000598 -0.1325465 -0.15329245
-0.03140622 -0.029773485 -0.030928643 -0.11490616 -0.057890438 -0.11333648 -0.044437613 0.110513404
0.073891714 -0.023767363 -0.14422913 -0.14604898 -0.040510777 -0.10287153 0.17977309 -0.05715614
-0.05310465 -0.0053557204 -0.10800082 0.2618464 0.15426594 0.023131344 0.1246068 0.16240177
0.03433951 0.101778015 0.018758247 -0.08026272 0.0763091 -0.18488215 -0.050435 -0.16896324
-0.15035734 -0.06057906 0.15790896 0.081730045 0.118573785 -0.020914035 0.12663235 0.054255497
-0.028171035 -0.08288899 -0.08999284 0.109699465 -0.0220754 0.05013327 -0.012574149 0.1601906
0.13119861 0.021151239 0.004436391 0.024778893 0.15067878 -0.082738444 -0.14013375 -0.08848894
0.084944606 0.054771774 -0.042177442 -0.08784033 -0.12277645 -0.049124036 -0.1424618 -0.02074463
0.16208385 -0.14500989 -0.14063561 -0.028314035 0.08240362 -0.11865079 0.02461081 -0.1115265
0.02570786 -0.006008882 0.22848861 -0.00091436895 -0.056962114 -0.10721899 0.06439843 0.02220769
0.12580271 -0.07105837 -0.06719323 -0.040728323 0.14818375 -0.07227047 0.041299257 0.14169678
-0.06897888 0.0009858431 0.012830193 -0.17431211 0.065075256 0.03507072 -0.08529538 -0.17690395
0.044936106 -0.051981755 0.08434603 0.012401643 0.10229702 -0.08105551 -0.03066039 0.10664956
-0.057475287 -0.07721689 -0.027804935 0.021178285 -0.122741506 0.081921674 -0.069540806 0.024857309
00000000: 35b2 493d 2286 e6bd a368 c2bd 033e 0fbb
00000010: ae15 2d3b 91f9 e2bc 57bd 3fbd 8099 ac3d
00000020: 711f ba3d ee2c a3bd fa5c b33d fc5e a83d
00000030: 4266 dfbc 7469 db3d 76c2 de3d 3089 7ebd
00000040: 40fe c43d 38cd 0e3d 6ae8 86bd fe1a dabc
00000050: cd05 09bd ad4c 923d 0ef7 3b3d 69bd 183c
00000060: 80ba d03c 83b6 e3bd f8ce cf3d f413 683d
00000070: 2319 b83b 861f 293c c8b3 81bc 99f1 703c
00000080: 3db7 c23d 7c44 973d 1d66 4a3e 0f21 3bbe
00000090: 69bb 383d 0769 b53d 9043 c8bd 404b 233e
000000a0: fb90 413c 9b17 2cbe 6dba 6ebd 4493 e33c
000000b0: 49a8 e1bc fb9d 78bd 0db3 cabb b572 2b3e
000000c0: eab2 5a3e ddd9 dcbc 51b2 623e 5484 40bc
000000d0: bf20 993d bfcc a83d dba7 23bd 707b ec3b
000000e0: fde0 403c 909a 043c 0609 9cbd 32ff 333d
000000f0: 1517 f8bd 578d 5dbd d003 67bb 575a c1bd
00000100: 3735 263e 6686 853c 0bb3 8f3b b53d 59bd
00000110: 424f 81ba f598 54bd e530 d43d f04c 46be
00000120: dcf8 91bd 4573 4c3e 6800 f53d 880c 053e
00000130: c199 b63d 43c4 d83c 4e92 153d 5233 b33d
00000140: dc2b dcbc db9e 46bd f898 44bd 2fc7 1ebd
00000150: d80e a8bc d737 88bd 323d 933c ee76 babd
00000160: 2148 a4bc 970a 28bd d3fd a03d ad04 21be
00000170: f8db 193e 8e87 053e abef 0b3d c4a4 e73d
00000180: 0b32 eebd 83ff aebd 9211 04bd af89 593d
00000190: b096 a9bd 4fd8 f1bd f75c db3d c742 2fbd
000001a0: ed7b a63d 6ab1 fa3d 6ec2 a0bd eb95 b83d
000001b0: 93e0 9cbc 77b1 333e 7166 c0bd 630a e6bc
000001c0: 708e 673c b3e2 08bd a9ba ee3c 9dad d8bd
000001d0: 3a4c d1bd f2fb dc3c 7189 a6bd c1d6 32bb
000001e0: 9a8c 553d 5cf0 71bc e6da 673d baf4 16bd
000001f0: 216c d0bd 63a1 b83c 7807 33bd 0e85 bd3c
00000200: a962 0c3e cc9f 84bd f501 913d af61 753d
00000210: 4b85 2ebc 423c 21bd 9297 15be 8e1a 933c
00000220: c580 8a3c 2698 fabc 379e 0abc 8675 32be
00000230: d102 da3d da3b 34bc 45ba 07be b2f8 1cbe
00000240: cfa3 00bd 86e7 f3bc 115e fdbc ec53 ebbd
00000250: 861e 6dbd f51c e8bd 3704 36bd da54 e23d
00000260: 8a54 973d c6b3 c2bc cdb0 13be dd8d 15be
00000270: a1ee 25bd 4fae d2bd 7016 383e 8f1c 6abd
00000280: 4384 59bd 0a7f afbb 892f ddbd bb10 863e
00000290: e4f7 1d3e f27d bd3c da31 ff3d a64c 263e
000002a0: 96a7 0c3d fe70 d03d e5aa 993c c860 a4bd
000002b0: f247 9c3d bf51 3dbe ee94 4ebd b304 2dbe
000002c0: 46f7 19be c021 78bd e3b2 213e 1562 a73d
000002d0: d0d6 f23d e953 abbc e9ab 013e 033b 5e3d
000002e0: f1c6 e6bc b4c1 a9bd 2b4e b8bd 1daa e03d
000002f0: 78d7 b4bc 8b58 4d3d ce03 4ebc 0109 243e
00000300: ee58 063e 5d45 ad3c 255f 913b 1bfd ca3c
00000310: 8a4b 1a3e c672 a9bd 397f 0fbe b039 b5bd
00000320: 70f7 ad3d 5e58 603d 41c2 2cbd a2e5 b3bd
00000330: 3872 fbbd 4936 49bd 82e1 11be a4f0 a9bc
00000340: 4ff9 253e 797d 14be c802 10be d6f2 e7bc
00000350: 3bc3 a83d 2fff f2bd 9c9c c93c 0168 e4bd
00000360: 4a99 d23c 28e6 c4bb ebf8 693e 43b2 6fba
00000370: 1b51 69bd a195 dbbd 53e3 833d e7ec b53c
00000380: 6dd2 003e 0d87 91bd 9b9c 89bd bed2 26bd
00000390: 7bbd 173e 8a02 94bd 6929 293d f618 113e
000003a0: cd44 8dbd 6837 813a bb35 523c e07e 32be
000003b0: 2d46 853d 51a6 0f3d 58af aebd 4f26 35be
000003c0: ec0e 383d d2ea 54bd 9dbd ac3d 4330 4b3c
000003d0: 1a81 d13d 6e00 a6bd 802b fbbc 166b da3d
000003e0: 356b 6bbd e423 9ebd 2dc7 e3bc 157e ad3c
000003f0: e65f fbbd 8dc6 a73d 696b 8ebd 8ea1 cb3c

network_body._body_endoder.seq_layers.2.bias f4 [128]
0.00014577463 0.0031919864 0.0023914645 0.018054284 -0.021337813 0.022880869 0.020896176 0.0028904178
-0.013205437 0.012600116 0.00062006677 -0.017219834 -0.0012462763 0.010690063 -0.018996935 0.018851029
0.016913055 -0.023515888 0.00686504 0.00548701 -0.0029980252 -0.00415265 0.013041446 -0.008107094
-0.025461027 -0.019700171 -0.0136313755 0.007971438 0.005189743 -0.0023823367 -0.030702917 -0.01900079
-0.01846498 0.023160564 0.015533623 -0.0024783842 0.0006025668 0.01608893 0.012829942 -0.030516434
0.004937522 0.0064061354 -0.005724191 -0.021679556 0.010727565 -0.018440954 -0.018402133 0.005843148
0.015385274 0.012676243 0.0042419373 0.0033028694 0.009501737 0.0015777908 0.0020152999 0.0073255277
0.0004912805 0.0045954236 0.009110477 -0.01387977 0.011475736 0.0075569237 -0.00660445 0.0116564715
-0.04270475 -0.0048635914 -0.016453186 0.005021031 -0.0034741764 -0.030096784 0.01763504 0.0037997712
-0.008886439 -0.018019874 0.011770672 0.027141213 0.022470597 -0.00603405 -0.00030563676 0.0053115743
0.02135725 0.023538427 -0.011768185 0.020006625 0.016784916 -0.018965244 0.008608738 -0.020083828
-0.021599287 0.003203126 -0.01177303 -0.0008421023 0.00529888 0.014738599 0.025341345 -0.022765731
0.01225897 0.015802525 -0.014431483 0.012928676 -0.0010180052 -0.028791023 -0.0029924342 -0.039902154
-0.0097722355 0.02682003 -0.026221685 -0.0033913672 0.013848639 0.027442494 -0.01600284 0.0028881086
0.014500201 0.0043616393 0.00275322 0.021412406 -0.005302245 0.008765141 -0.01456246 0.022314172
0.009679012 -0.015602922 0.00030657757 -0.0025055194 0.006982776 0.025799857 0.0054883757 0.013213862
00000000: 14db 1839 a530 513b 1eba 1c3b 94e6 933c
00000010: a3cc aebc a970 bb3c 752e ab3c 2a6d 3d3b
00000020: 9e5b 58bc b870 4e3c fa8b 223a 9c10 8dbc
00000030: 185a a3ba 6025 2f3c 769f 9bbc 796d 9a3c
00000040: 3f8d 8a3c 64a4 c0bc 21f4 e03b 60cc b33b
00000050: 847a 44bb f412 88bb caab 553c 9ed3 04bc
00000060: a593 d0bc 4162 a1bc 2256 5fbc a29a 023c
00000070: b80e aa3b fa20 1cbb af84 fbbc 8ba7 9bbc
00000080: df43 97bc 39bb bd3c bd80 7e3c 636c 22bb
00000090: 93f5 1d3a efcc 833c ad34 523c 9afd f9bc
000000a0: f0ca a13b 8fea d13b ff91 bbbb 5399 b1bc
000000b0: abc2 2f3c 7c11 97bc 12c0 96bc e177 bf3b
000000c0: 8412 7c3c 04b0 4f3c f3ff 8a3b f474 583b
000000d0: 2cad 1b3c e0cd ce3a 1f13 043b fb0a f03b
000000e0: 47c9 003a 3595 963b 1c44 153c fa67 63bc
000000f0: ba04 3c3c 12a0 f73b 246a d8bb c9fa 3e3c
00000100: 2deb 2ebd c35e 9fbb d5c8 86bc 7687 a43b
00000110: 02af 63bb 888d f6bc 5c77 903c 9505 793b
00000120: 6d98 11bc 6a9e 93bc c7d9 403c 4057 de3c
00000130: 4214 b83c 48b9 c5bb df3d a0b9 b70c ae3b
00000140: 66f5 ae3c a9d3 c03c 58cf 40bc efe4 a33c
00000150: 8580 893c 005d 9bbc aa0b 0d3c d786 a4bc
00000160: fdf0 b0bc 89eb 513b abe3 40bc 87c0 5cba
00000170: 3aa2 ad3b 2a7a 713c a798 cf3c 337f babc
00000180: d9d9 483c 4c74 813c 0772 6cbc ccd2 533c
00000190: 966e 85ba 27db ebbc b71c 44bb 7170 23bd
000001a0: ba1b 20bc aeb5 db3c dcce d6bc b341 5ebb
000001b0: 67e5 623c 15cf e03c 6318 83bc 6c46 3d3b
000001c0: 4092 6d3c 15ec 8e3b 5e6f 343b 1269 af3c
000001d0: 74be adbb aa9b 0f3c 6297 6ebc 36cc b63c
000001e0: b894 1e3c 66a3 7fbc 25bc a039 a433 24bb
000001f0: c5cf e43b 395a d33c d5d7 b33b f47e 583c

action_model._continuous_distribution.mu.weight f4 [1, 128]
0.013118443 -0.08643448 0.028796727 -0.041498147 0.008772624 -0.07084699 0.046594344 0.03543037
0.09013224 -0.06689776 0.03280728 0.08227022 0.036192074 0.007454626 -0.034722127 0.07907249
0.0591054 -0.04983321 -0.01728705 0.038606405 -0.024360577 0.011455548 -0.018182911 -0.06843615
-0.06749579 0.023425518 0.009082415 0.047485657 -0.025389373 -0.04947665 -0.0069489665 -0.050117508
0.054902725 0.03428924 -0.06358269 0.04231549 -0.028415058 0.037647948 -0.079541855 -0.0151613895
-0.0602475 0.046120316 0.12930804 -0.047096346 0.036618974 -0.035793077 0.08880853 0.032581594
-0.04508619 -0.05182392 -0.03796501 -0.0083808815 -0.038333837 0.002297532 -0.013504792 -0.030654319
0.01951867 0.04570572 -0.02591282 -0.024476232 0.065021515 -0.049797866 -0.048219003 0.0556498
-0.025701944 -0.06858694 -0.049188673 -0.019234963 -0.0033509317 -0.00014303389 -0.11570391 0.06791676
0.027929576 0.117867485 -0.04149359 0.064184025 -0.053243924 -0.042321697 -0.037874125 -0.07355481
0.04380228 0.05836718 0.0326534 0.030697605 0.01770709 0.065960124 0.06852513 0.04856865
0.096685246 0.029668339 -0.032057956 -0.044550605 0.0335557 -0.05950221 -0.07953973 -0.021344805
0.077687345 0.061458033 0.038613234 -0.04143161 -0.017406339 -0.007265995 0.029741962 -0.0022318058
0.008239248 0.08352446 -0.021054385 0.037615072 0.019277195 -0.090948075 0.09747756 0.11229573
0.07015155 -0.039464157 -0.075191334 0.063297436 0.020272618 -0.063207656 -0.001769155 -0.049241718
0.028788896 0.053988773 0.03892958 0.04781144 -0.052954603 0.07393774 0.041594446 -0.06924243
00000000: bdee 563c 9004 b1bd 1de7 eb3c f6f9 29bd
00000010: 0dbb 0f3c 3a18 91bd b6d9 3e3d 701f 113d
00000020: 4097 b83d b101 89bd ed60 063d 4a7d a83d
00000030: 243e 143d ef45 f43b ca38 0ebd c2f0 a13d
00000040: 8118 723d e81d 4cbd 929d 8dbc c021 1e3d
00000050: d58f c7bc 0db0 3b3c 54f4 94bc 4128 8cbd
00000060: 3c3b 8abd dfe6 bf3c 69ce 143c 5280 423d
00000070: 60fd cfbc 07a8 4abd 28b4 e3bb 0448 4dbd
00000080: aee1 603d e072 0c3d a437 82bd 0253 2d3d
00000090: b2c6 e8bc bc34 1a3d d7e6 a2bd 7a67 78bc
000000a0: 15c6 76bd a8e8 3c3d 5469 043e 19e8 40bd
000000b0: c7fd 153d c39b 12bd 3fe1 b53d 4774 053d
000000c0: 4cac 38bd 5245 54bd 3381 1bbd f74f 09bc
000000d0: f103 1dbd 3192 163b 3443 5dbc c41e fbbc
000000e0: 9ee5 9f3c ec35 3b3d 1f47 d4bc 6182 c8bc
000000f0: 002a 853d d9f8 4bbd 4a81 45bd 0bf1 633d
00000100: e28c d2bc 4f77 8cbd 107a 49bd a492 9dbc
00000110: 4e9b 5bbb 5efb 15b9 2cf6 ecbd f117 8b3d
00000120: 91cc e43c 8264 f13d 2ff5 29bd ea72 833d
00000130: 4d16 5abd 8459 2dbd e621 1bbd e7a3 96bd
00000140: 056a 333d 6d12 6f3d 92bf 053d 8b79 fb3c
00000150: 760e 913c 1a16 873d e756 8c3d ecef 463d
00000160: ea02 c63d 040b f33c 344f 03bd b27a 36bd
00000170: b471 093d 97b8 73bd bae5 a2bd 4ddb aebc
00000180: 8b1a 9f3d 6bbb 7b3d e928 1e3d 31b4 29bd
00000190: bd97 8ebc 9517 eebb 6aa5 f33c 7d43 12bb
000001a0: e9fd 063c df0e ab3d 3f7a acbc 4312 1a3d
000001b0: 35eb 9d3c fc42 babd 51a2 c73d 4efb e53d
000001c0: 9eab 8f3d 2ba5 21bd eafd 99bd 16a2 813d
000001d0: c312 a63c 0473 81bd fee2 e7ba afb1 49bd
000001e0: b1d6 eb3c 5523 5d3d a074 1f3d eed5 433d
000001f0: ede6 58bd ab6c 973d f05e 2a3d face 8dbd

action_model._discrete_distribution.branches.0.weight f4 [1, 128]
0.000140998 -0.0027404714 0.008248668 -0.010139669 -0.0055746464 -0.0100326035 0.0021672922 -0.006680054
0.0015052963 -0.0006074767 -0.0025966056 -0.00750319 -0.001009077 0.009369916 -0.0018352394 -0.005903765
-0.0031957538 0.0076897964 -0.0033156432 -0.01013317 -0.0067185047 0.009263449 -0.02673913 0.017573914
-0.009757156 -0.002570658 0.007387283 -0.0037821934 0.0015568087 0.009190639 -0.011130848 -0.017049922
-0.0019289366 0.00942595 -0.007612298 -0.010100301 0.0043952726 0.0021665012 0.011396569 -0.003438158
-0.008581112 -0.002325474 -0.0047172094 -0.01265714 -0.009515001 0.01165888 -0.000626622 0.0074422057
0.009847156 0.0026145005 6.9196125e-05 -0.0047961166 0.008417196 -0.0033065088 0.00080751907 0.00084104337
-0.00028835007 -0.0039334083 -0.008475018 -0.003145635 -0.0051990235 -0.010909728 0.0017521702 0.017128184
-0.004116331 0.0022461356 0.0030178756 0.003701514 0.0066591613 0.00193822 -0.0063442416 -0.011515732
0.0031607368 0.0051922444 0.018581705 0.005218664 -0.007940989 -0.0034863271 0.008461544 -0.004040428
0.009029648 0.0035535973 -0.004244914 -0.008320873 0.0070462055 0.0036098983 0.0076472037 0.012094519
0.0012901332 -0.0009890373 -0.0013121854 0.00342824 -0.011065892 -0.002754915 0.003985426 0.0060090316
-0.008832033 0.001271786 0.019938007 -0.004752206 -0.0035409238 -0.01880019 0.0046093636 -0.0008713074
0.007171714 0.0015060416 -0.0031744607 0.0116921915 0.0029532488 -0.009772342 0.014871255 0.015204291
0.0074752676 0.0051767584 -0.005165661 0.0025390305 -0.005763996 -0.0031508547 -0.0037513643 0.004059108
-0.005483934 -0.0016436133 0.004003729 0.0006381734 -0.008838253 -0.008670764 -0.008349954 0.025468085
00000000: ddd8 1339 7b99 33bb 6c25 073c db20 26bc
00000010: 86ab b6bb ca5f 24bc 2109 0e3b 5be4 dabb
00000020: 5d4d c53a 123f 1fba d02b 2abb 52dd f5bb
00000030: 0143 84ba 4784 193c 6a8c f0ba 5f74 c1bb
00000040: da6f 51bb b0fa fb3b 434b 59bb 9805 26bc
00000050: e726 dcbb b9c5 173c 050c dbbc 2bf7 8f3c
00000060: 7adc 1fbc 7c78 28bb 0511 f23b adde 77bb
00000070: d50d cc3a 5594 163c 295e 36bc 47ac 8bbc
00000080: 5fd4 fcba 4d6f 1a3c 9570 f9bb bc7b 25bc
00000090: 3806 903b dcfb 0d3b adb8 3a3c b852 61bb
000000a0: cb97 0cbc fb66 18bb d292 9abb e55f 4fbc
000000b0: cfe4 1bbc e304 3f3c e443 24ba bfdd f33b
000000c0: f755 213c 0a58 2b3b 631d 9138 be28 9dbb
000000d0: 47e8 093c 03b2 58bb b0af 533a 7779 5c3a
000000e0: b12d 97b9 d2e3 80bb cdda 0abc ff26 4ebb
000000f0: 925c aabb b7be 32bc 13a9 e53a 6850 8c3c
00000100: 4ae2 86bb e733 133b 8dc7 453b 1a95 723b
00000110: 1835 da3b df0b fe3a 5be3 cfbb 7bac 3cbc
00000120: 5d24 4f3b b423 aa3b a938 983c 5401 ab3b
00000130: ec1a 02bc dd7a 64bb 4aa2 0a3c 9165 84bb
00000140: 17f1 133c 78e3 683b eb18 8bbb 4554 08bc
00000150: dbe3 e63b 0b94 6c3b 6595 fa3b 1728 463c
00000160: b019 a93a 96a2 81ba a3fd abba 53ac 603b
00000170: b74d 35bc ce8b 34bb 2d98 823b 69e7 c43b
00000180: 3bb4 10bc 0fb2 a63a 0855 a33c 65b8 9bbb
00000190: d80e 68bb db02 9abc 250a 973b 7368 64ba
000001a0: b300 eb3b 5f66 c53a 9d0a 50bb 9b90 3f3c
000001b0: 4b8b 413b 2c1c 20bc 90a6 733c 6b1b 793c
000001c0: 17f3 f43b cca1 a93b b544 a9bb dd65 263b
000001d0: e7df bcbb 927e 4ebb 73d9 75bb 4402 853b
000001e0: 93b2 b3bb 836e d7ba b731 833b 184b 273a
000001f0: 52ce 10bc d20f 0ebc 3fce 08bc 72a2 d03c

onnx::Div_70 f4 [12]
1.4244064 1.4243134 1.4242138 1.4242185 3.2299154 1.7392707 0.0035340984 2.8203058
2.0797787 2.837507 3.623526 0.004997932
00000000: f352 b63f e74f b63f a34c b63f cb4c b63f
00000010: efb6 4e40 6ca0 de3f 559c 673b e47f 3440
00000020: 181b 0540 b799 3540 dae7 6740 b1c5 a33b
