results/Slider_behavior/SliderBehavior/SliderBehavior-3531.onnx (onnx, 81804 bytes, 8 tensors)

network_body.observation_encoder.processors.0.normalizer.running_mean f4 [12]
00000000: 8507 af40 1ce8 bfc0 c866 253f 8810 f3bd
00000010: a6e7 1f3e 9e06 65c0 0000 0000 8c43 dcbd
00000020: f03d 8940 4d62 c6bd 109b 50bf 73ed 7f3f
5.469668 -5.9970837 0.64609957 -0.118683875 0.1561571 -3.578529 0.0 -0.10755071
4.2888107 -0.09686718 -0.81486607 0.99971694

network_body._body_endoder.seq_layers.0.weight f4 [128, 12]
00000000: f665 c83e 212c b2bb 2b8d 72bc 67ef a13d
00000010: e7c7 78bd a057 3fbe 3141 cbbe cc52 063f
00000020: 4b66 0d3e 34cc b3be 265d be3d 589b b1be
00000030: 2e38 433e 8d07 69be b3c0 873d 033a 103e
00000040: eb4c 183f e09d 293c 0169 813d 76e7 3c3d
00000050: d9ed 28bc 0c4d 44be 2478 ff3d 5665 f5bc
00000060: de82 d73e de7b 18bd dc1c a63d d932 243e
00000070: 82ba 23bd d856 b93e 15f2 79bc 218a 023e
00000080: 8b2e 09bf f60d 92be 76c5 483e 59e4 5bbe
00000090: 5250 a43d a150 1d3d 3ffc 45be 477c 35be
000000a0: 9017 293e 96be 2e3d 84d9 543d 8a33 06bd
000000b0: 9ae7 91be cd06 b13e f86f 06bf 68b7 c73d
000000c0: b32e cc39 1b9c 4bbe 59c7 cd3b 58fe 45be
000000d0: e6a0 88bc 9e5b 8c3c d66e dfbe 7b27 8abe
000000e0: a3c5 033d 0354 ae3e c2fb c1bc 6352 423f
000000f0: d34d 183e b954 a43d ed5e eb3e 7177 1a3d
00000100: d792 843f 0cf8 ce3e 6f6c 103f 2260 dcbe
00000110: e764 053f 0a28 ec3e 3c0f 09be 8609 253f
00000120: 910f 993e 5053 183e e116 3abe 57f7 3fbe
00000130: 0f3d efbd bcd8 11be fdca ef3c aa4f 603e
00000140: 7be1 b23d 1d4a 8cbe 1f58 e1bd aba8 e8be
00000150: 60a4 76be cb7c 1c3d 2b0c f1bd 0d28 1f3e
00000160: e3a4 c13d 717a 5b3e 1d2e 00bd b7b1 ddbe
00000170: 0924 0c3f bc43 4bbe 99ff 4a3e fe09 453d
00000180: f4e9 bdbe b4b9 b13d e7bc 1d3d 3483 d63e
00000190: aa08 be3e 092d 563e 7bdd 54bd b184 8d3b
000001a0: c231 7ebe 3e61 433f 4219 94bc 6674 00bf
000001b0: 58d6 6bbe 6ada 033f a945 e7be 3b43 e33e
000001c0: 8c7f 8ebe 39f3 b83e 82e3 35be d48f 71be
000001d0: 3ca9 3d3e e592 4f3e c6e0 a9be 9670 09bc
000001e0: b663 ec3e e9b7 0cbe 8910 febd e8bd 33be
000001f0: ef34 5d3e 201e 0bbe 04e6 cb3d 25e7 7dbe
00000200: 47d5 ec3d b9b3 22be ae41 d3be ca0b cbbd
00000210: b4c5 3a3c b69d 19be 879d c8be 4a25 0cbe
00000220: 9062 c53d abc2 a4be 9850 803e b904 0cbd
00000230: b99f d83e c81a a4bd ff33 e03d ad79 98be
00000240: d64a 77be 4929 323e 3b0c 1abe c8ff 0d3e
00000250: 627b 07be 6e96 5e3e b343 ddbe 1cca b03d
00000260: 4673 9f3d 627e cbbe e06d fcbd 13db edbe
00000270: f722 983d d70f b23c 59cd 49be a124 c4bd
00000280: 2d24 e73d 7773 403e 115c db3d dca4 70be
00000290: 24b8 333d 4aee 40be 4995 de3d 39c5 aabd
000002a0: 67fc 3cbe 85dc c0be b31e d33d d8cd 83bd
000002b0: c9be 12be 5794 8c3d ad90 e8be c1fb 28bf
000002c0: 3ea2 9d3d 653d 3fbc 6023 5abe 8368 1cbf
000002d0: 674a 213e f733 01be 2005 b1be b018 30bb
000002e0: 0b92 d73e e763 b5be fe61 ac3e 5b84 c5bc
000002f0: 5212 2c3e 908c 9e3d d77c ddbe 2f2a dabd
00000300: 04d3 b63e f351 bebe 05cf b93e 3bbf 083e
00000310: 2312 cfbe 7255 e3bd a1cf 033e 0bbe 44be
00000320: 68b3 043e 6faa c5be 30d7 bcbc d4aa 0d3e
00000330: 104b 8c3e f596 053d b18f 1a3c d575 22bb
00000340: 50fc 723d 2295 5fbe 4b7e 21be 67d9 54bd
00000350: 103c f8be 08f7 adbc 100e 2b3e 4c0d 5a3e
00000360: 3f0e 4c3d 4b77 5cbe e846 243f 7089 173d
00000370: 3121 cdbc 3d55 9b3d 78f5 f73e 8d6e 06bf
00000380: e507 afbe 69a7 273e cbce 473e 9aa8 9d3e
00000390: 51dc c6bd d6f9 01be b946 093e 319c 07bf
000003a0: 5816 36be 9084 893e 0a56 55bd c8b3 c8be
000003b0: 7d72 cb3e 252c d83d f014 cbbd 4b73 5e3e
000003c0: f699 c13d 0c57 18bf daf0 b13d 5c01 9e3e
000003d0: 7af0 e7be e9ed d8be 0801 3c3d 5206 18bf
000003e0: dcdf 153f 2654 9dbe 66cf 75be f0dc 92bd
000003f0: 4813 1ebf e22e 00be 049e 273e 2c9c e6be
0.3914029 -0.0054373895 -0.014804165 0.079069905 -0.060737517 -0.1868577 -0.39698175 0.5247009
0.13808553 -0.35116732 0.092951104 -0.3468883 0.190644 -0.22756787 0.06628551 0.1408463
0.5949237 0.010352582 0.06318856 0.046119176 -0.010310614 -0.19170016 0.12474087 -0.029955547
0.4209203 -0.037227504 0.08110973 0.16035022 -0.03997279 0.3619907 -0.015255471 0.12748004
-0.53586644 -0.28526276 0.19606575 -0.21473826 0.080231324 0.03840697 -0.19334505 -0.1772319
0.16512895 0.042662226 0.05196525 -0.032763995 -0.2849701 0.345755 -0.525146 0.09751779
0.00038944706 -0.19883768 0.0062798676 -0.19335306 -0.016678285 0.01713353 -0.4363925 -0.26983246
0.032170903 0.3404847 -0.023679618 0.7590696 0.14873438 0.08023972 0.4597086 0.037711564
1.0357312 0.4042362 0.56415457 -0.43042094 0.5210709 0.46124297 -0.13384718 0.64467657
0.2989469 0.14875531 -0.1817279 -0.18746696 -0.11681568 -0.14242834 0.029271597 0.2190539
0.08734413 -0.27400294 -0.11003136 -0.45441183 -0.24086142 0.03820495 -0.11769899 0.15542622
0.09455278 0.21433426 -0.031293977 -0.43299648 0.54742485 -0.19850057 0.19824065 0.048105232
-0.37092555 0.08677998 0.03851023 0.41896975 0.37115985 0.20915617 -0.051969033 0.0043187966
-0.24823669 0.76320255 -0.01807845 -0.5017761 -0.23030984 0.5150515 -0.45170334 0.4438723
-0.27831686 0.36123064 -0.17762569 -0.23590022 0.18521589 0.2027088 -0.331793 -0.008388659
0.46169823 -0.13742031 -0.124054976 -0.17552912 0.21602224 -0.1358571 0.099559814 -0.24795206
0.11564117 -0.15888871 -0.41261047 -0.09914358 0.011399675 -0.15001568 -0.39182684 -0.136861
0.0963794 -0.3217977 0.25061488 -0.03418419 0.4230936 -0.080129206 0.109474175 -0.2978033
-0.24149641 0.17398562 -0.15043728 0.13867104 -0.1323066 0.21737072 -0.43215713 0.08632299
0.077856585 -0.3974486 -0.123256445 -0.46456203 0.07428544 0.021736069 -0.1970724 -0.09577299
0.11286197 0.18794046 0.1071092 -0.23500389 0.043876782 -0.188409 0.10868318 -0.083383985
-0.18455659 -0.37668243 0.1030859 -0.06435746 -0.14330591 0.06864231 -0.4542288 -0.66009146
0.07696961 -0.011672352 -0.21302557 -0.6109697 0.15751038 -0.1261748 -0.34574223 -0.0026870184
0.4210361 -0.35427782 0.33668512 -0.024110964 0.16803864 0.07741654 -0.43259308 -0.10652577
0.35707867 -0.37171897 0.36290756 0.13354199 -0.40443525 -0.11100282 0.12872173 -0.1921312
0.12959063 -0.38606593 -0.023051828 0.13834697 0.27401018 0.032614667 0.009433673 -0.0024789472
0.059322655 -0.21834233 -0.15770833 -0.051965144 -0.48483324 -0.021235958 0.16704583 0.21294135
0.049818274 -0.21529882 0.64170694 0.036996305 -0.025040241 0.07584617 0.48429465 -0.5251244
-0.3418571 0.16372456 0.19512479 0.30792695 -0.09709991 -0.12692961 0.13405885 -0.52972704
-0.17781961 0.2685895 -0.052084006 -0.39199662 0.39735785 0.10555295 -0.09916103 0.21723668
0.09453194 -0.59507823 0.08688517 0.30860412 -0.45300657 -0.4236901 0.04589942 -0.59384644
0.5854471 -0.30728263 -0.24004897 -0.07171047 -0.6174817 -0.12517884 0.16368872 -0.45041025

network_body._body_endoder.seq_layers.0.bias f4 [128]
00000000: d84f d7b9 0529 683b 23e3 293b b8d6 323c
00000010: 4580 d93a 30e0 b2bb 4339 453b 51f0 e4bb
00000020: 2f4d 2f3b 97ea f63a db2c 333c e9e9 c0bb
00000030: ae65 cb3b 6e49 7abb 7130 69bb 904d dd3a
00000040: a5cd f1ba 6464 093c 3e44 80bb 17b4 913b
00000050: d531 933b 8dbd 9639 f59d f7ba a65e ce3a
00000060: 142c 8abb 9bae 57bb 77e1 433b 324a eaba
00000070: 0c6d 263b 0781 82bb a509 4a3c 5c98 41bb
00000080: 667f c8bb 4e64 3abc 0958 5a3b 7378 593b
00000090: 384a bdbb e758 ca3b b532 ec3a 7ef6 59ba
000000a0: c076 dbbb 4735 08bc b8ea 0e3c 6d21 2abc
000000b0: 58d2 59b9 e9f6 94bb 3156 453b 8eb5 8bbb
000000c0: 16f1 c639 0b59 ca3b 7dcf a53a 4a14 a8bb
000000d0: ad85 cd3a 2b19 6bbb 784c 353b d23d 64ba
000000e0: fa51 73bc 4228 1ebb a921 bd3b ed83 0abb
000000f0: bccd 00bc 2994 873a de36 a4bb 1cab a23a
00000100: 57eb 973a 68f4 4c3a fbc6 be3a 9957 67bb
00000110: e0e4 8a3c e1c6 36bb 6eee df39 ff6f c83b
00000120: 4b61 8d3b a19c 74bb c253 173c 184d 2fba
00000130: ed6f 97bb 34b9 7dba 1b8b 893b a909 e23a
00000140: 56ee 75b9 cf29 d3ba 383e 18bc 16ff 053c
00000150: fc42 9a3c b317 673b beac 583b cf23 313c
00000160: 45a2 f43a d793 1ebb 1e3d d9b9 4848 ab3a
00000170: de67 05ba a630 9dba b76b 8dbb 4bf3 943b
00000180: 2efe e73b d320 11bc 0018 e6b9 b936 993a
00000190: 6e4b ed3b 50b9 473b f4e9 88bb 05c2 b83b
000001a0: e363 ae3b 800e 4bbc 2171 b5bb 434a 5b3b
000001b0: 45b9 9dba b168 87bb e44a 863a d6c2 d73b
000001c0: 1acc 92ba b9c9 843c fe47 3abc 5d86 243b
000001d0: cbc6 17ba ceed f339 4df2 003b c1ea a3bb
000001e0: ad07 a13b c538 8939 6b7e c0bb 44be 21bb
000001f0: e31a acbb 396c f0b9 df4b c03b 0795 a3bb
-0.00041067484 0.003542484 0.0025922738 0.010915451 0.0016594013 -0.005458854 0.0030093945 -0.0069866558
0.0026748886 0.0018838224 0.010935987 -0.0058872593 0.0062071895 -0.003819074 -0.0035581852 0.0016884077
-0.0018448128 0.008385751 -0.003914385 0.004446517 0.0044920244 0.00028751456 -0.0018891679 0.001574476
-0.0042166803 -0.003291047 0.0029889026 -0.0017874895 0.0025394587 -0.0039826664 0.012331401 -0.0029540276
-0.0061187027 -0.011376454 0.0033316633 0.0033183366 -0.00577667 0.0061751488 0.0018020483 -0.0008314623
-0.0066975057 -0.008313484 0.0087229535 -0.010383946 -0.00020773092 -0.0045460355 0.0030111189 -0.0042635864
0.00037945126 0.0061751655 0.0012650337 -0.005129372 0.0015680097 -0.0035873156 0.0027663987 -0.0008706722
-0.014851088 -0.0024132882 0.005771835 -0.0021135763 -0.007861551 0.0010343838 -0.0050114235 0.0012410614
0.0011590522 0.0007818402 0.001455515 -0.0035300015 0.01695484 -0.0027889537 0.00042711518 0.0061168666
0.0043145767 -0.0037324803 0.009236278 -0.0006687208 -0.004621497 -0.00096787815 0.004197491 0.0017245311
-0.00023453808 -0.0016110482 -0.009292178 0.008178493 0.018830769 0.0035261929 0.0033061947 0.01081176
0.0018664083 -0.0024197006 -0.00041435 0.0013067806 -0.0005089025 -0.0011992648 -0.004315819 0.0045456043
0.007079861 -0.008857924 -0.000438869 0.0011689282 0.007241658 0.0030475445 -0.00417828 0.0056383633
0.005321966 -0.012393594 -0.0055371677 0.0033461011 -0.0012033364 -0.0041323532 0.0010245708 0.0065845056
-0.0011199743 0.01620947 -0.011369703 0.00251045 -0.00057898153 0.0004652575 0.0019675673 -0.00500235
0.004914245 0.00026172973 -0.005874445 -0.0024680058 -0.0052522286 -0.00045857 0.0058684195 -0.0049921307

network_body._body_endoder.seq_layers.2.weight f4 [128, 128]
00000000: c785 623d cb87 18be 1e3e 9dbb 5339 353e
00000010: 2c80 6e3d 63c4 c43d 5788 613c 2fd6 a53d
00000020: 8baa 9abd 7ca9 a23d 4024 4d3d 4a34 1ebd
00000030: aa9b f13d b225 92bd 7674 d73c 3095 56bd
00000040: f29b 0dbc daba 053e 8865 303e 3336 263e
00000050: 8b9e fabd c9bb 86bd eaae d03d 0e4e 913d
00000060: 7dcc d93c 8ecd cb3d d875 513d b8c9 8a3d
00000070: b51a ab3d 248b fe3c d04a 233c bfe5 6abe
00000080: 2ce8 87bd b077 5b3a 2a62 a9bb 9986 ccbb
00000090: 3ddc 6b3d 260d 593d 6cd4 f2bc f49f 0abc
000000a0: 8809 cdbd f881 f63c 3f2a a43d 48aa de3c
000000b0: efc2 2a3d 9359 25be f970 44bd fda1 90bd
000000c0: b994 ad3d 41b3 5b3d f981 e13d c7f4 9c3d
000000d0: b2d6 2fbc 1e4b 6b3d 7763 b5bd 79fc 8dbd
000000e0: d7cc 5d3c 315c 53bd 7759 1bbe e637 a2bd
000000f0: 88ec 4bbe afa4 47bd 9392 ce3d 4251 55bd
00000100: ecf5 fbbd e06f b83d 674a 6fbd 3c7b 14be
00000110: c1d4 d6bb 4736 433d d277 5dbd 4469 efbc
00000120: e5f4 133d 7c28 07be 4850 f83d 08f3 323d
00000130: 5cb3 08bd 3ead babc 5f44 6e3d ecda b03d
00000140: 39e5 e5bc 9f84 c63d 9f57 d2bc 89e9 ea3d
00000150: 0eae 4c3d 0893 9f3c 574e de3d 19c6 653a
00000160: 3a68 403d 50ac 373d 4e2e d33d d0d5 03be
00000170: 9b98 823c f701 0cbe 00bf 67be 57c0 27bd
00000180: f63a b73d 1aaf 4f3d 1c1d 1abe 0db3 c7bd
00000190: a589 b13c 7f96 52bd 7838 bb3b 3845 093d
000001a0: a5e6 45bc 8e1a 1f3d cce1 1bbc 3b1e 513e
000001b0: e11f 293c 1912 00bd d085 b03d b93a 35bd
000001c0: 8205 1e3d 9375 30be 750f 963d af81 423e
000001d0: b616 13be 9a39 303d 0f8f efbc 2e97 86bd
000001e0: 3eee 503d ea4a 3ebb 795b 4d3e fd05 a4bd
000001f0: 967d 6a3d 86cc b13b 7869 83bc 74b7 b93c
00000200: 5b55 8bbd 2999 863a e962 2bbc aebd 99bd
00000210: 97ba edbd 9aa9 f3bd 11e1 e23d 7820 2fbe
00000220: d55f b3bc 6172 803d 993a b13c 5f74 bf3b
00000230: 268d 2f3d 645a 2c3d 16f0 a5bd 8867 32bd
00000240: 122b c93c 9c97 62bd 91a2 443c 2cc1 6a3d
00000250: cffd aebc 2f67 543d af87 b2bd d780 e1bd
00000260: a73b 113b 46f7 0abd bc9d 233d 69be 963c
00000270: 66bb 22bd 5c00 613d df7f a63b 90b6 f3bd
00000280: 7d5b 87bc 8e54 bf3b cd71 30be 71cf cb3d
00000290: 11b3 e93b 5d70 f53c b890 e2bd 9ba4 aebc
000002a0: f71f 663d a428 013a ea37 3cbd f953 80bd
000002b0: c1db fbbd a8be 99bd a231 95bd 018d 98bd
000002c0: ed85 e5bc c674 d83c a6fd d7bd 3aa8 043c
000002d0: abb2 95bd 76a8 18be 9123 37bc fd07 20bd
000002e0: eb0d eb3d 8c53 e63d 5906 91bd fdf3 22bd
000002f0: 225f 3f3e 31d0 533d 15e5 723d 6f85 9c3c
00000300: 6254 353e 013d f43c 14a0 e23d c57b 013e
00000310: bc83 223e 93ec acbd de37 e7bc c92d 9bbd
00000320: a68d 6a3d 393d d5bd bcfa 64bd 1afb 33be
00000330: 0693 2fbc 0116 6e3c a539 213e aa35 893d
00000340: 54d1 673d 3b91 3ebe cc15 7cbd da33 62bc
00000350: 8e05 2f3c 500e c73d 45ac a83c 2f7e dbbd
00000360: 6c4f 2c3d e604 3abe 9f58 27be 68ea ce3d
00000370: ffd1 6c3d 9f6d 4cbb 97fa babc d8a8 073d
00000380: 9df6 e9bb ad95 3bbd 946f 0a3c 76c3 cd3c
00000390: 7400 cc3c d357 103e 9f85 14be be3b 0ebd
000003a0: ac63 0fbd 5cf0 893d 61f5 b4ba 23ec ae3d
000003b0: 3ffd e1bc 814e 3c3d b2ab 883d 18b6 2a3d
000003c0: 23d4 ae3c 53e2 6dbd ee3d 82bd f63b 12be
000003d0: 6937 2e3d 9c68 7bbd f2cf 0ebd b442 d23d
000003e0: 5acd 5cbd 139a 0e3e 9df7 a9bc cf21 823a
000003f0: 94f0 97bd c6a1 82bc 5fc1 5cbc 4475 56bd
0.05530336 -0.14895551 -0.0047986647 0.17697649 0.058227703 0.0960777 0.013765416 0.08097493
-0.0755206 0.07942483 0.0500834 -0.038624085 0.11797269 -0.07136096 0.02630065 -0.05238837
-0.008643137 0.1305956 0.17226231 0.16231613 -0.12237271 -0.06578786 0.10189612 0.07094966
0.026586765 0.09951316 0.051137775 0.06776756 0.08354703 0.031072207 0.009966567 -0.22939204
-0.0663608 0.0008372022 -0.005169173 -0.006241631 0.057583082 0.052991055 -0.029642306 -0.008460987
-0.100115836 0.03009127 0.0801587 0.027180806 0.04168981 -0.16147451 -0.0479593 -0.07062147
0.08475632 0.053637747 0.110111184 0.07663875 -0.01073234 0.057444684 -0.08856862 -0.06932921
0.013537607 -0.051601592 -0.15170847 -0.07920818 -0.19914448 -0.04874104 0.100865506 -0.052079447
-0.12302765 0.090057135 -0.058420565 -0.14500135 -0.006556124 0.047659185 -0.054069348 -0.029225
0.03612222 -0.13199037 0.121246874 0.043688804 -0.033374175 -0.022787686 0.058170673 0.08635506
-0.028063403 0.09693264 -0.025676547 0.114703245 0.04997068 0.01947929 0.10854786 0.00087651756
0.0469744 0.044842064 0.10311566 -0.12874532 0.015941909 -0.13672625 -0.22631454 -0.040954914
0.08946793 0.0507041 -0.15050167 -0.09750948 0.02167208 -0.051413056 0.0057135187 0.033513278
-0.012078916 0.038843684 -0.009514283 0.20421688 0.010322542 -0.03126726 0.08619273 -0.044245455
0.03857947 -0.17232351 0.07327167 0.18994783 -0.14364132 0.043023683 -0.02924302 -0.06571804
0.051008455 -0.0029036351 0.20054425 -0.08008955 0.057248674 0.0054259924 -0.016041502 0.022670485
-0.0680339 0.0010269034 -0.010460594 -0.07506882 -0.11607855 -0.11897583 0.11078084 -0.1710223
-0.021896282 0.06271816 0.021634387 0.00584273 0.04285922 0.04207839 -0.081024334 -0.043555766
0.02455667 -0.055320367 0.0120016495 0.05731313 -0.02136126 0.051856216 -0.08717286 -0.110109024
0.00221608 -0.033927225 0.03994535 0.018401342 -0.0397295 0.054931983 0.0050811614 -0.119000554
-0.016523117 0.005838937 -0.17230912 0.09951676 0.007131942 0.029960806 -0.11062759 -0.021318724
0.056182828 0.00049270154 -0.04595176 -0.062660165 -0.12297774 -0.07507068 -0.07284857 -0.07448769
-0.028017962 0.02642287 -0.105464265 0.008096749 -0.07309469 -0.14908013 -0.011177913 -0.03907012
0.11477264 0.11246404 -0.07081289 -0.039783467 0.18688634 0.05171222 0.0593005 0.019106595
0.1770797 0.029814245 0.11065689 0.1264487 0.15870565 -0.084435605 -0.028224882 -0.07577092
0.057263993 -0.10412068 -0.05590318 -0.17576256 -0.010716205 0.014531613 0.15744646 0.06699689
0.056596115 -0.18610089 -0.061544225 -0.013806308 0.010682477 0.09719527 0.020589957 -0.10717427
0.04206793 -0.18165931 -0.163424 0.10103303 0.057817455 -0.003119327 -0.022824569 0.033120006
-0.0071399943 -0.04579704 0.008449454 0.025117617 0.02490256 0.14096002 -0.14504097 -0.034724943
-0.035007164 0.06735298 -0.0013806039 0.08541133 -0.027586577 0.045973305 0.06673373 0.041677564
0.021341389 -0.058077168 -0.063594684 -0.14280686 0.042533312 -0.06137906 -0.03486628 0.10266629
-0.053906776 0.13925962 -0.020747954 0.0009928289 -0.074189335 -0.01594628 -0.013473838 -0.052357927

network_body._body_endoder.seq_layers.2.bias f4 [128]
00000000: d38f fc3a 4bc0 6c3a 9f44 2e3b a785 78bb
00000010: d24e 03bb e05e 89bb bdc4 323b ef4b 8f3a
00000020: 631a 0e3b 1a6c fbb9 2250 843b 4cd3 d939
00000030: b46a 5c3b b57f 343b 373e 513b 9b8f 85bb
00000040: 3d7e 933b b4bb 33bb f052 493b 1aa1 f739
00000050: 36d7 70ba e849 a33a d067 29ba 2068 123b
00000060: 8018 fc3a 4213 0dbc 26d5 2abb 36e6 a33b
00000070: 75af 19b8 e58a 82bb 0bf4 11bb c02d 40bb
00000080: 70f0 763b 7b2d ca3a d79e 3a3c b8ac 643a
00000090: d4a8 7a3b 4ffb e839 4083 583b acf2 4a3b
000000a0: e11b 2e3b ef22 0c3a eeec fa3a df07 823a
000000b0: 7d78 7d3a 3c6c 4aba 788d 19ba 2b32 d039
000000c0: 1980 3bba 1bb1 58bb 1a60 2dbb 292e f63a
000000d0: b8fc 89ba 5461 da3a 1933 39ba 3912 04bb
000000e0: 1822 3ebb 5e52 3339 369d f9ba 5980 733b
000000f0: 0497 a9bb 2b54 fcb9 0509 2b3b 08ce 11b9
00000100: 5035 0f3b 4a8d 4c39 05b3 39bb 5705 85ba
00000110: cc02 133b a9da 273c 2107 06ba f4cc 6c3b
00000120: 98e4 4bba 7431 1b3c 9015 58ba f0d8 b6bb
00000130: 959e cc3a 01f2 a4bb 6be8 873b 8908 27bb
00000140: c1c1 38b7 705f 26ba 9c97 df3a 2556 ed39
00000150: efc5 a038 ca2d 8739 a0a6 a7bb 6459 6ebb
00000160: fe28 3dbb c0f9 07ba c954 43bb 28b9 9cb8
00000170: 5326 bbbb 69a9 933b af95 35bb 898d bf3a
00000180: e68e 55bb c771 0e3b 34b8 03ba f076 35bb
00000190: 9e4d 67bb 2548 18bb c4c2 8aba adf9 40bb
000001a0: 00ab 7e3b c878 b2bb e0d5 a2ba a95b edba
000001b0: fb82 e83a e8a9 6dbb 5cf6 883b 964d 303b
000001c0: 8820 443b c52d 2aba b388 42bb 2010 273c
000001d0: 4a17 ffba b667 eb39 fef7 333b 08b2 de3a
000001e0: 9b25 a93a c096 f5ba 0d71 76ba 51f0 eeb9
000001f0: ec37 e0ba 8e0d d53a 531d 9dba 2144 863a
0.0019268937 0.00090313394 0.0026591194 -0.003792146 -0.0020035994 -0.004192218 0.002727791 0.0010932664
0.0021683208 -0.00047954993 0.004037873 0.00041546894 0.0033632936 0.002754194 0.0031927952 -0.004075957
0.0045011328 -0.0027425112 0.00307196 0.0004723154 -0.00091873424 0.0012457939 -0.00064623076 0.0022339895
0.0019233376 -0.008610548 -0.0026066988 0.0050018085 -3.664145e-05 -0.0039838427 -0.0022270705 -0.0029324144
0.0037679933 0.0015424931 0.011390409 0.0008723247 0.0038247602 0.00044437728 0.0033037215 0.0030967398
0.002656691 0.00053457817 0.0019144097 0.0009920559 0.0009669138 -0.00077218167 -0.00058575673 0.0003971023
-0.0007152572 -0.0033064547 -0.0026454986 0.0018782067 -0.0010527587 0.0016661086 -0.0007064804 -0.0020152463
-0.002901202 0.00017101454 -0.0019044045 0.0037155359 -0.005175473 -0.00048127896 0.0026097905 -0.0001390503
0.0021851845 0.0001950759 -0.0028335464 -0.0010148686 0.0022432087 0.010245004 -0.00051127566 0.0036132904
-0.00077778986 0.00947224 -0.0008242959 -0.00558006 0.0015611226 -0.005033732 0.0041475794 -0.0025487265
-1.10123665e-05 -0.0006346619 0.0017058733 0.00045268345 7.6662625e-05 0.00025783322 -0.005116299 -0.00363692
-0.0028863545 -0.0005187057 -0.0029805175 -7.473148e-05 -0.0057113557 0.0045062792 -0.0027707627 0.0014614324
-0.0032586395 0.0021735297 -0.0005024702 -0.00276893 -0.0035294066 -0.002323636 -0.0010586609 -0.0029445693
0.0038859248 -0.005446527 -0.0012423359 -0.0018108982 0.001773923 -0.0036264602 0.004179759 0.0026901714
0.0029926617 -0.00064918055 -0.002968353 0.010196716 -0.0019461897 0.00044899964 0.0027461047 0.0016990313
0.0012904884 -0.0018736944 -0.0009401001 -0.00045573947 -0.001710651 0.001625465 -0.0011986889 0.0010243693

action_model._continuous_distribution.mu.weight f4 [1, 128]
00000000: 8016 e53c a4e0 31bd 6b2f 833d 30de bb3b
00000010: 506b b3bc 546f 87bc 60a7 b83c 7a29 45bb
00000020: fde7 2f3c e64b a539 7866 9cbc 5cb8 cd3c
00000030: 52ac 463d 8f95 d53c 59e4 25bc c15e dd3a
00000040: 8bfd 39bc aae4 e8bc 1652 033d 1b16 ffbb
00000050: 5596 053c 7a71 923c 9f61 1e3c 899b 563c
00000060: 8c01 d9bc 05c3 31bb 99b6 febb a97c 09bd
00000070: 325d 6dbc c91c 583c d8f7 2abb 6162 213c
00000080: 3d75 e8bb 213a 54bb 04e3 2dbc be63 a63c
00000090: 87c2 543c 57df 0b3c 65ff 693c 9abf 573c
000000a0: 3c4d a63c 4b96 88bc 1025 803c ddd4 083c
000000b0: 44cd af3b b4be 853a b90b 643c 9eee 52bc
000000c0: 7a0c a93c a120 64bc 8138 7c3b a71c e73c
000000d0: 6150 eb3c 820e 53bc c098 a0bc 6a0a 75bc
000000e0: 4947 783c 6f6e 0e3d ee2b a3bc abb1 9bbc
000000f0: eff9 93ba cd51 9bbc 2822 793c 6f7c c0bc
00000100: ddf9 883c b7cd 773c 25f9 92bc 6098 09bd
00000110: 8921 103b 0c77 2bbc f64a 883c 7632 45bd
00000120: 56cf 5d3c dfbd bcbc 4b56 2f3b ff0c 733b
00000130: 6fa4 833b cf60 9fb9 7535 05bd ec16 443c
00000140: fe7d 2f3c 9a2a b0ba 3422 14bd c71f db3c
00000150: 8c65 16bc bd81 ea3c ea4a 953c 9041 51bb
00000160: 38c2 6a3c 7294 7cbb b3ab 16bc 0b68 173d
00000170: 11db 1fba dfc7 b13c 81d8 3d3c fe3c 6e3c
00000180: d1e1 b3bc ebcf af3c d341 903c 4eba 66ba
00000190: 1333 0abc e9b0 bbbb 8dc4 cd3c b609 45bc
000001a0: 6dc7 d4bc fcfc 2b3a 6ee8 393c eb9f 073c
000001b0: a24e 423c bfa9 11ba ca86 8bbc 83c5 cdbb
000001c0: 5e24 a7bc 56e2 b63c f388 53bc 7664 3bbc
000001d0: f8c7 e7bc 8fb3 21bd 9d97 523c 29bf 9cbc
000001e0: 162e 873c e34e 8b3c 2dc2 51bc 4360 9b3c
000001f0: 2d8b 8ebc 0792 9ebc 21a7 50bc 59f4 a3bc
0.02796483 -0.043427125 0.06405529 0.005733274 -0.021901757 -0.016532578 0.022540748 -0.0030084536
0.010736463 0.000315278 -0.01909183 0.025112323 0.04850418 0.026072292 -0.010125243 0.0016889201
-0.011351953 -0.028429348 0.032060705 -0.0077846176 0.008153518 0.017876375 0.009666829 0.013098606
-0.026489995 -0.0027124297 -0.007773232 -0.03356615 -0.0144875515 0.013190457 -0.0026087668 0.0098501155
-0.007094054 -0.003238328 -0.010613207 0.020311233 0.012985832 0.008537135 0.014282082 0.01316824
0.0203005 -0.016673228 0.015642673 0.008351532 0.0053650457 0.0010203929 0.0139188105 -0.012874274
0.020635832 -0.013923795 0.0038485827 0.028211905 0.028724851 -0.012881877 -0.019604087 -0.014956096
0.015153714 0.034773286 -0.019918408 -0.019005617 -0.0011289696 -0.018959904 0.015205897 -0.023496835
0.016720707 0.01512473 -0.017941067 -0.03359258 0.0021992645 -0.010465395 0.016637307 -0.048143826
0.013538202 -0.023039756 0.0026754315 0.0037086604 0.0040174047 -0.0003039897 -0.032521684 0.011968356
0.010711191 -0.0013440431 -0.03616543 0.026748551 -0.009179484 0.028626317 0.018224198 -0.0031929947
0.014328532 -0.0038540629 -0.00919621 0.036964457 -0.0006098012 0.021701751 0.011587263 0.014540909
-0.021958264 0.021461448 0.017609512 -0.0008801565 -0.008435029 -0.0057278764 0.025118137 -0.012026241
-0.025974 0.000656083 0.011346919 0.0082778735 0.011859568 -0.0005556605 -0.017032046 -0.0062796487
-0.020403083 0.022324722 -0.012911069 -0.011437526 -0.028293595 -0.03947788 0.01285353 -0.019134121
0.016501468 0.01700539 -0.012802643 0.0189668 -0.017400349 -0.01935674 -0.012735159 -0.020013975

action_model._discrete_distribution.branches.0.weight f4 [1, 128]
00000000: ad79 7dbb 6f5e 9939 e773 fe3a 5f8c debb
00000010: 3dbb a03c b55b 65bc d2f4 82bb 1b60 363b
00000020: 445b 35bc bd14 7fbc a717 263c b88d 8cbb
00000030: f257 a9ba e926 2e3c 67b8 21bc 9c60 b4bb
00000040: 5ddf 7fbc 3727 5cbc c4b3 b139 c22c f23b
00000050: 37f9 b73b fd1a 30bc 0c3f 313c e70a f83b
00000060: 0f28 3abc 7771 9c3b 9bb8 953b a434 bd3b
00000070: 83be bcbb b8a6 e1ba 7b10 a23b 0bf9 d039
00000080: 289a e63b 2255 5cbc 03df 363c 92b5 53bc
00000090: 07cb 00bc 7b8f d0bb 1e5b 3dbc 68fb 00bc
000000a0: 9a59 f1bb e0f0 7e3c b348 94bc b5a6 8d3c
000000b0: eff9 293c a7c1 9ebb 3bec 25ba ff52 6dbb
000000c0: c70e d7bb abda b73b 63c8 90ba 33e6 4dbc
000000d0: 08b4 613a 2f5b 85bb 177d 35bb 7b0c b9b7
000000e0: 9893 7dbc 4e01 1e3c 754e e8bb d24b e2bb
000000f0: b205 56ba 1676 8a3b 8792 a53c ee05 a1bb
00000100: b71a f6bb a114 11bb 5025 80bc fa27 60bc
00000110: 7f37 53bb 4010 43bb a30c 17bc 2583 6c3b
00000120: 17b5 993a 9f99 8b3b fb19 d8ba f2cd de3b
00000130: 80b6 8c3a 9a2d b83a 8f97 acbb 3dda b337
00000140: 98ba 773c b52f 513c 83ff ccbb bfc3 d0b7
00000150: c1a7 003c 9a07 18bb c81c 743b 8d39 6d3b
00000160: e5f5 84bb 0d14 4d3c bad3 153c 7c35 a4bc
00000170: 3365 01ba 33f9 17bc 9b25 6a3c 9568 7939
00000180: 4e6f 9ebc f005 90bb 0061 063a bbbb 9fb9
00000190: 1287 333b 2371 1139 82fc cc3b dbea 8c3b
000001a0: 5939 883b d18e b8bb 07e1 9b3b 8c27 473b
000001b0: 0151 c13b afb7 c93a 2176 373c d307 033b
000001c0: edd1 8abb 2679 14ba bb81 d7bb d54c d8ba
000001d0: 9668 4abc 2f67 b3bc c1f1 233c 5390 203b
000001e0: 9f67 963b e57f 57bb da58 523b 5a21 2f3c
000001f0: 4f40 eaba 4a1c f93a 7d12 a53c a9b8 463b
-0.003867726 0.00029252793 0.0019413204 -0.006791636 0.019620532 -0.013998915 -0.00399647 0.002782828
-0.011069123 -0.015568909 0.010137475 -0.004289355 -0.0012919887 0.010629394 -0.009870625 -0.005504681
-0.015617219 -0.013437084 0.00033894007 0.0073905895 0.0056144255 -0.010748622 0.010818254 0.007569659
-0.01136209 0.0047742683 0.004569126 0.0057740975 -0.0057600155 -0.0017215824 0.0049458123 0.00039858403
0.00703742 -0.013448032 0.011161569 -0.012921708 -0.0078609055 -0.0063647605 -0.011557369 -0.00787244
-0.0073654177 0.015560359 -0.018101072 0.017291406 0.01037453 -0.0048448625 -0.00063294516 -0.00362128
-0.006563041 0.005610784 -0.0011046048 -0.012567091 0.00086098956 -0.004069708 -0.0027692968 -2.205953e-05
-0.015477084 0.009643866 -0.007089431 -0.006906011 -0.0008164301 0.0042255027 0.020211471 -0.004914037
-0.007510509 -0.002213754 -0.015642792 -0.013681406 -0.0032229123 -0.0029764324 -0.009219321 0.003608891
0.0011726943 0.0042602564 -0.0016487235 0.006799453 0.0010735542 0.0014051676 -0.0052670906 2.1440088e-05
0.015120171 0.012767722 -0.0062560453 -2.4886684e-05 0.007852496 -0.002319789 0.00372486 0.0036197633
-0.004057633 0.0125169875 0.009144718 -0.020045035 -0.00049360393 -0.009275722 0.014291192 0.0002378545
-0.019340184 -0.004395239 0.00051261485 -0.00030466713 0.002739374 0.00013870424 0.006255687 0.004300458
0.004157227 -0.0056322594 0.00475705 0.0030388562 0.005899549 0.0015389825 0.011197598 0.0019993677
-0.004236451 -0.00056638045 -0.0065767444 -0.001650239 -0.012354037 -0.021899788 0.010006369 0.0024500086
0.0045899893 -0.0032882628 0.0032096417 0.010689104 -0.0017871949 0.0019005623 0.020150417 0.0030322468

onnx::Div_70 f4 [12]
00000000: e1b2 0340 b4b9 0340 9b91 0340 2791 0340
00000010: 4de2 4c40 d068 e13f 64d7 893c 794a 7f40
00000020: adf5 2240 7e8f 3a40 33c8 5d40 5eec c23c
2.057793 2.0582094 2.055762 2.0557344 3.2013123 1.7610111 0.016826339 3.9889205
2.5462449 2.915008 3.4653442 0.02379435
