results/Slider_behavior/SliderBehavior/SliderBehavior-20052.pt (torch, 467300 bytes, 41 tensors)

network_body.observation_encoder.processors.0.normalizer.running_mean f4 [12]
00000000: 8006 bd40 16ff b1c0 e8b6 173f 29f2 6fbf
00000010: c8c2 913e 93fd 5ec0 0000 0000 13fe e93e
00000020: 1b2e 203d d962 23bf bbfc 7f3f bbfc 7f3f
5.9070435 -5.5623884 0.5926347 -0.9372888 0.2846892 -3.484227 0.0 0.45701656
0.03910647 -0.63822705 0.9999501 0.9999501

network_body.observation_encoder.processors.0.normalizer.running_variance f4 [12]
00000000: 15af 1647 21ab 1647 8c8c 1647 0b8d 1647
00000010: 79c4 4548 5618 6f47 0000 803f e6d8 7848
00000020: 9141 3048 f7e9 6648 1dfe ff3f 1dfe ff3f
38575.082 38571.13 38540.547 38541.043 202513.89 61208.336 1.0 254819.6
180486.27 236455.86 1.9999424 1.9999424

network_body.processors.0.normalizer.running_mean f4 [12]
00000000: 8006 bd40 16ff b1c0 e8b6 173f 29f2 6fbf
00000010: c8c2 913e 93fd 5ec0 0000 0000 13fe e93e
00000020: 1b2e 203d d962 23bf bbfc 7f3f bbfc 7f3f
5.9070435 -5.5623884 0.5926347 -0.9372888 0.2846892 -3.484227 0.0 0.45701656
0.03910647 -0.63822705 0.9999501 0.9999501

network_body.processors.0.normalizer.running_variance f4 [12]
00000000: 15af 1647 21ab 1647 8c8c 1647 0b8d 1647
00000010: 79c4 4548 5618 6f47 0000 803f e6d8 7848
00000020: 9141 3048 f7e9 6648 1dfe ff3f 1dfe ff3f
38575.082 38571.13 38540.547 38541.043 202513.89 61208.336 1.0 254819.6
180486.27 236455.86 1.9999424 1.9999424

network_body._body_endoder.seq_layers.0.weight f4 [128, 12]
00000000: d1a7 ef3b 5168 15bf fe23 e2be 2cf9 f2bd
00000010: 75a7 8abe e507 0cbe e0e7 06bf 1081 89be
00000020: 2b99 29be 8074 17bf 3da9 263e 5626 11bf
00000030: 39a7 383d 56ad c5bd c99a e7be cc26 783e
00000040: edf3 313e 555a 173c 9d34 b63e 39aa 003e
00000050: ba01 ef3e 9f71 6e3e f457 e93e dcbf b43e
00000060: 057c 813e 719a 42bd 2bea cb3e abb0 0f3f
00000070: d28c 333e 67b2 99bd 4613 0fbf 4fa2 f0bd
00000080: e8a4 d6be ce17 6c3e c895 25be 9149 443e
00000090: 1097 98be ec72 80be 5c79 95bd 7c6e 50be
000000a0: 832e 0f3f 9cc5 a4be 0e32 d43e 10c4 42be
000000b0: d6af 333f 9c46 c9bd be2f 4dbe 30d4 91be
000000c0: 52cd 8d3e c65b 333d d2c2 20bd 7dc2 e1bd
000000d0: 6707 0d3e e3f3 82bd 729a 1b3d 1944 88bc
000000e0: d94a 12bf 9f72 bd3e 2a8b ed3e 5445 443e
000000f0: 2310 163d 8c2b 663d 2103 49bd 1b64 6cbe
00000100: 7d94 383c b2be 19bf 21d2 46be 5e9a b13e
00000110: aedb fe3d e558 debd a3ee 023f ebaf 9dbe
00000120: 298b 823e c839 f33c 4e1e 19be c363 b63c
00000130: 1408 873e 3a12 44be ec58 9dbe 9680 063f
00000140: e5ee a63e 4c69 08be b475 bfbe 5a75 8ebe
00000150: 4c97 9cbe cbee 3f3f a4d2 49be 99b3 5d3e
00000160: f39d 6d3c 735a b8bc 7bcc 993e 77f8 ffbe
00000170: 9c8d f7be bc6e 1fbe ffa3 5b3e d124 85bd
00000180: 025d 873e b2ea 4bbe 9301 883e ab01 d8be
00000190: 2da7 d53e 0359 8bbe f36a 9dbd cce7 d33d
000001a0: f627 e83e fd2a 5cbe afb9 7b3e 9aee b0be
000001b0: b8e6 49be 37b2 8abe 799d d23d 1135 f6be
000001c0: 06f6 37bd 3307 27bf 3980 aa3e 49ad 993e
000001d0: c6aa 173e 4596 29bf ac42 fcbe fe44 35bd
000001e0: a505 6abe e678 8b3e b875 c9be 6205 493e
000001f0: 4ca0 b3be 0227 f9bd dcb2 c63d 906b 073f
00000200: d418 d33d 142e a4bd 5afa 06bf 74b3 96be
00000210: ab9b 683b 6582 09bf c671 9abe 5442 673d
00000220: 890d e53d 3ac8 bfbe 75ef b43d faa6 8cbe
00000230: bf5c e7be eb2f 913e 9e9c aa3d 0269 febe
00000240: 83d4 8b3e ee3e 4dbd 09f8 1a3d d6a0 583d
00000250: fc56 f4bd 2332 1e3e 5aea 0cbe a1ec adbd
00000260: 7ab7 84bd 0f88 19bf cac5 883c f1c7 fa3d
00000270: 8917 223d 6df7 093d 7181 b83d adce 733e
00000280: d1c4 213f 2d9a 003d 03b1 b5be 57ed 05bf
00000290: 68bb d1bd 4928 153e 2ca4 643c 65f7 ebbc
000002a0: 29c4 bfbe 629b 853d da36 c2be 5051 92be
000002b0: 84fc 90be 1182 2fbf a104 c6be d4ba f6be
000002c0: 3a66 fe3e b0d2 a83d 305e 42be f5d6 bdbc
000002d0: 400f e9bd 10fa 82bd d3de bdbe 6841 6dbd
000002e0: be31 6d3d 397c 003f 8182 3a3e 8f0f 153e
000002f0: 3dae 263f 097e 2fbe 847d f1bd 449b 0c3e
00000300: 4658 6abe dd4b ecbe 5a83 8ebe 6a24 083e
00000310: 5bbb c53e b841 d23e a452 3c3e d052 963e
00000320: 0699 523e 38f6 01be ba00 b13e 87aa cebd
00000330: 5f98 963e b1bd e03e e1e8 edbb 60af debe
00000340: 345b 86bd eaee 9f3d 1f29 5d3e 5daa ad3e
00000350: ddba 7c3d c992 fcbe d0e8 e03d a001 6e3e
00000360: 10c8 19be a283 d53e fb1a 123d b1d1 45be
00000370: 03ee 973d a595 323e 94f3 47bd 9b32 273d
00000380: a97b b6bc 42d3 89be 4913 f1bc c6e4 673e
00000390: 3fe1 6b3e 0b48 ac3e 45ad 1a3f 4029 b8be
000003a0: 7b9e 133d 8238 833e 64c4 453d 881b 443d
000003b0: 7908 9abe b29c a23e 8eaa b43e 51e2 583e
000003c0: 7608 68bf 92f9 a0be b097 a63e e738 6e3e
000003d0: 550e ec3e 9a7b cfbc f1cd ce3e a6ba bbbd
000003e0: 56d7 fd3d a164 cebd b1b7 90bd b5ff 753e
000003f0: dae0 1bbd af77 123f 9d71 d2be 2207 ea3e
0.0073137064 -0.583623 -0.44168085 -0.11863932 -0.27080885 -0.13674887 -0.52697563 -0.2685628
-0.16562335 -0.5916214 0.16275497 -0.5669912 0.04508135 -0.09652202 -0.4523528 0.2423355
0.17378207 0.009237845 0.35587016 0.12564935 0.46681005 0.2328553 0.45574915 0.35302627
0.25289932 -0.047510568 0.39827093 0.5612895 0.17534187 -0.07504731 -0.55888784 -0.11749708
-0.41922688 0.23055956 -0.16170418 0.19168688 -0.29802752 -0.25087678 -0.07298538 -0.20354646
0.55930346 -0.32182014 0.4144444 -0.19020104 0.7019018 -0.09827921 -0.20037743 -0.284822
0.2769571 0.043788694 -0.039248295 -0.11023424 0.13772355 -0.06394174 0.037989087 -0.016634034
-0.5714546 0.3700151 0.46395236 0.19167072 0.036636483 0.056193873 -0.04907525 -0.23085062
0.011265871 -0.600566 -0.19416095 0.34688085 0.12444244 -0.10856799 0.5114538 -0.30798277
0.25496796 0.029690638 -0.14952967 0.022264367 0.2637335 -0.19147578 -0.30731905 0.52539957
0.32604137 -0.13321418 -0.37394488 -0.27823907 -0.3058418 0.74973744 -0.1970926 0.21650542
0.01450299 -0.022504067 0.3003882 -0.4999425 -0.48350227 -0.15569586 0.21449278 -0.06501163
0.26438147 -0.19913748 0.265637 -0.42188773 0.41729107 -0.27216348 -0.076864146 0.10346946
0.45342988 -0.21500774 0.24582551 -0.3455704 -0.19716918 -0.27089092 0.10283942 -0.4808736
-0.04491236 -0.6524536 0.3330095 0.3001502 0.14811239 -0.6624492 -0.49269617 -0.04425525
-0.22853716 0.27240676 -0.39347625 0.1963096 -0.35083234 -0.12165643 0.097020835 0.528985
0.1030747 -0.08016601 -0.52725756 -0.29433787 0.0035493176 -0.5371459 -0.30164927 0.05645974
0.11184222 -0.37457448 0.08834735 -0.27471143 -0.45187947 0.2835687 0.083306536 -0.4968949
0.2731057 -0.050108843 0.0378342 0.05288776 -0.119306535 0.15448813 -0.13761273 -0.08492399
-0.06480308 -0.59973234 0.016695876 0.12245167 0.039573226 0.03368323 0.09009064 0.2380931
0.63190943 0.031397033 -0.35486612 -0.52315277 -0.10240823 0.14566149 0.013955157 -0.02880449
-0.37454346 0.065237775 -0.37932473 -0.28577662 -0.28317654 -0.6855784 -0.38675407 -0.48189414
0.49687368 0.082433105 -0.18981242 -0.023173789 -0.11379862 -0.06395352 -0.37084064 -0.057923704
0.057908766 0.5018955 0.18213846 0.14556716 0.65109617 -0.17137922 -0.11791518 0.13731104
-0.22885236 -0.4615163 -0.27834588 0.13295141 0.38619503 0.41065764 0.183909 0.29360056
0.20566186 -0.12691581 0.34570867 -0.10091119 0.29413125 0.43894723 -0.0072604273 -0.43493176
-0.06560364 0.07809241 0.21597718 0.3391904 0.061701644 -0.49330738 0.109819055 0.23242807
-0.15017724 0.4170199 0.03567026 -0.19318272 0.07418444 0.17439897 -0.04881628 0.040819746
-0.022275763 -0.2691899 -0.029428141 0.22645864 0.23035143 0.33648714 0.6042064 -0.3596897
0.03603981 0.2562905 0.048282996 0.04787782 -0.3008459 0.31760174 0.35286373 0.21180083
-0.9063791 -0.31440407 0.32537603 0.23263894 0.46104684 -0.025327493 0.40391496 -0.0916646
0.12394588 -0.10077787 -0.07066286 0.24023326 -0.038056232 0.5721387 -0.41102305 0.45708567

network_body._body_endoder.seq_layers.0.bias f4 [128]
00000000: 2b5b 083d e267 953c 1063 2b3c f1bb 4d3b
00000010: 1357 3b3c 2318 903c f6a3 173c 3eb9 b03c
00000020: 48f8 6bbc 1d82 15bc 7ecc b23c 46e9 f93c
00000030: fc28 4d3c 99c6 b13c a49f 1b3c 5dcb 5ebc
00000040: c982 e9bb da0c 253c b350 f2bb 04a2 bfbc
00000050: 76e0 903b 301e 6b3c 00ab 9ebc 662b 023d
00000060: bd4e 5f3c 163a 36bc 017b 3cbc 3e31 c1bc
00000070: e711 f73c e019 e43c 2c70 30bc 450e 15bc
00000080: a715 573c 443f f0bc 05cd aebb c239 5dbc
00000090: 6b43 393b 3656 b5bc 0487 c4ba b701 ca3c
000000a0: 85d4 413c 078b eab9 742a 9b3c 99a4 3dbc
000000b0: 1ef5 5a3c 9f56 1fbc 1187 053d b301 c53b
000000c0: 92df 9abb 05d0 843c fd62 153b f3bd 11bc
000000d0: a32f 03bd 6cb6 26bc 3d2d b0bc 48ab 733c
000000e0: 4b60 073d 9a98 7c3c d33b da3c 7605 4dbb
000000f0: ca34 99bc ce6b 6f3c 41cc 3bbc e726 a3bc
00000100: b8c1 b13b dd49 173b b391 183c 7d95 683b
00000110: 5f4d 0a3c d98c 0dbc 4aaa d7bb 6eae 9cbb
00000120: 0edf 613c c578 b93c fb9a 04bc d791 903c
00000130: 6952 d03c 3610 7bbc 298e c73b 984b 503c
00000140: ed02 59bc 6547 943b 5f43 f13b 7065 343c
00000150: 9242 8dbc 2d2c 093c 46ec 723c 4e0b 3f3b
00000160: f55f a63c 05e6 393c 560a 6b39 1e20 78bc
00000170: 3533 31bc 4a44 04bb 565e c43b f4e9 fc3a
00000180: 40a7 693c 53eb 9dbb 2dfc f43b 1eed 30bb
00000190: 8662 46bb 3917 03bb ab79 7fbb ec2c 9c3b
000001a0: 127c 9fbc 5ad7 4c3c c4b4 903c 92ae 6f3c
000001b0: 63a2 9d3c 8aad 3d3a 07bc 8b3c 110f 78bc
000001c0: 489a ab3b 58f8 21bc d5e4 2a3c 1046 583c
000001d0: 7f2f 98bc 9e4d fb3c d8a8 06bd 018c e53c
000001e0: 70ea f4bb 1723 4d3b 1a21 cc3a 62da 50bc
000001f0: e8e6 13bc 2088 e93c 99ce 073c 4247 b23c
0.03329007 0.018238012 0.01046063 0.003139254 0.011434334 0.017589634 0.0092554 0.021572705
-0.014402457 -0.00912526 0.021826025 0.030506741 0.0125219785 0.021701144 0.0094985105 -0.01359829
-0.0071261865 0.010073865 -0.007394874 -0.023392685 0.004421289 0.014350459 -0.019368649 0.03177967
0.0136296125 -0.011122247 -0.011503936 -0.02358305 0.030159904 0.02784437 -0.010768931 -0.00909764
0.013127721 -0.029327042 -0.005334499 -0.01350254 0.0028268944 -0.022135835 -0.0014993851 0.02465902
0.011830454 -0.0004473554 0.018941142 -0.011574888 0.013364105 -0.009725242 0.032599512 0.0060121655
-0.0047263587 0.016212473 0.0022794597 -0.008895385 -0.03202785 -0.010175329 -0.021505946 0.01487238
0.033050817 0.015417242 0.026639855 -0.0031283773 -0.01870193 0.014613105 -0.011462272 -0.019916011
0.0054247044 0.0023084797 0.009312081 0.0035489493 0.008441298 -0.008639538 -0.0065815793 -0.004781536
0.013786091 0.022640595 -0.008093591 0.017647667 0.025429921 -0.015323689 0.006089945 0.012713335
-0.0132453265 0.0045251125 0.0073627676 0.011010513 -0.017243657 0.008372349 0.01482684 0.0029151025
0.020309428 0.011346345 0.00022415197 -0.015144376 -0.010815431 -0.0020182305 0.005992691 0.0019295798
0.014261067 -0.0048193126 0.0074763508 -0.0026996802 -0.0030271127 -0.0020002855 -0.0038982432 0.0047660973
-0.019468341 0.012502516 0.01766432 0.014629023 0.019242471 0.0007235637 0.017057432 -0.015140311
0.0052368976 -0.00988587 0.010430534 0.013200298 -0.018577335 0.03067666 -0.032875866 0.02802086
-0.007474236 0.0031301433 0.001557383 -0.012747379 -0.00902722 0.028507292 0.008289003 0.021762494

network_body._body_endoder.seq_layers.2.weight f4 [128, 128]
00000000: 7f8e 03bd cdd1 363d 796b e3bc 22cf b53c
00000010: 33b8 13be acbf d23d 2e3e 06bc 38c2 b0bc
00000020: 3fa1 1fbe f091 30bd 2366 103e 39a3 b5bd
00000030: dbf5 f2bd e8fb c3bc 56f6 ac3b 7443 123e
00000040: d0b4 fcbb abf8 32bb c417 9d3d d8ef 99be
00000050: 8744 673d f728 06bc 71b3 0a3d 7ccc 993c
00000060: a3b3 21be 4714 4dbd 7f2a dbbd 072d e1bd
00000070: 5e9b 7a3a 1c2f cdbd 725b 72bd 2c87 4dbd
00000080: f375 633d b0f3 9ebd a5e1 83bd 6bf7 253d
00000090: cc1e 7d3d 76ec c33c d012 00bd 59f8 013e
000000a0: 9156 5dba 86c5 a2bb b21f e63d 8bcf 1dbd
000000b0: 6a6c a5bc dda7 bf3c 64e5 abbd 5adb c63d
000000c0: 6847 2dbc 39cc 123d f14b e6bd db93 ad3d
000000d0: 4b35 4e3d dcfb 78be 1aec 1dbe 670b bc3d
000000e0: 5e24 89bd 3e64 b03d c8ac b73d ea32 81bd
000000f0: a1c7 60bd 0b3e a53d b5d3 a1bc 3ee3 27bb
00000100: e6b8 853c b27d 0a3e 43b3 cb3d 98a4 bf3d
00000110: 3c40 fa3d 3014 393e 99df e53d b79e e5bc
00000120: 2bdf 9f3d 62cc 2b3e 046c 153d 20db f4bc
00000130: aa64 923d 2e85 b43c ca4f abbd 1bb7 1cbe
00000140: de3f 2abc c910 0abd 29fb 8b3d 0bcc 9f3d
00000150: 6273 6cb9 fc93 1a3d 7580 dabd 5f0c 50be
00000160: 8a70 003e c7d4 2c3e 4700 a33d b7c9 a13d
00000170: 5cfb bb3d 73ef a3bd a876 a63a a3aa 463c
00000180: 1411 c5bd 24ce 97bd 41fb 9a3c 67b7 0bbe
00000190: 11f3 87bd 7451 5d3e 32cb 35bd 3e98 b0bd
000001a0: 111c bbbc ed22 203e 557b 573d b8e2 653d
000001b0: caad 893d 546a 1f3d 2880 56be 5109 68bd
000001c0: a7b1 b73d 168f fabd 4c79 9f3d 3021 3e3d
000001d0: 6e11 283b f711 50bd 066c 543d b83e e03d
000001e0: 29d4 adbc 172d 8cbc 0f4e 2a3e 1cc7 96bc
000001f0: a4bc abbd 5ccb 56bd 6cf2 20bc 17b2 37be
00000200: 99a7 6ebd 0614 a8bd 7649 e5bc 378b 7fba
00000210: 66d1 5bbc 872a 813d b3df 3ebd 7631 be3c
00000220: 5aa9 813d 9dfc e63d b13c 9fbd 755e 0fbd
00000230: 1308 42bd 5ffd fd3d f3b0 3ebd adf4 9a3d
00000240: 993b 0bbe 65a2 9d3d 871f d43d cc94 9a3d
00000250: c630 ae3b 0177 963d aa3a 553d 0663 d03d
00000260: 8dbf d4bc f543 4b3c 53fc d0bd f12c 053e
00000270: b4ea 9fbb f35b efbd 3f43 003e 591b 733e
00000280: e655 f93d 3318 453e 3dab 9cbd 517b 72bd
00000290: 8da4 a23c 0d54 b03d d92e cbbc 6418 5bbc
000002a0: 6d83 82bd 6d8a 953d 7a03 cd3d 96d2 f7bd
000002b0: aa91 e43d 38ec 443d 81a9 aebd d85a 8a3c
000002c0: b212 263e 34db f63c 678d 2abe 2123 e8bc
000002d0: 8203 953d 5cd8 fa3d d3b2 76bc aba0 523d
000002e0: cbaa bd3d be0d 8b3d 514c afbd 1591 24bd
000002f0: 57f7 99bc ab2a 1f3e b345 903b a6ff f33c
00000300: 9675 073d db14 aa3d 5c29 343d a1c9 e2bd
00000310: 1b67 0abc 49ff c13d b792 3a3d 2820 3c3d
00000320: 008c f4bd 25fa e83d 96a3 4dbd 8c3b d3bb
00000330: 22e6 d03d a4ce b7bc cca9 21be dd17 a9ba
00000340: 2d64 d5bc ce30 cc3d e57d e1bc 4a34 753d
00000350: da8b cabc 94fa 1c3d c874 21bd 7ca1 8f3d
00000360: ad3c 08be 9898 2cbe 0116 5abd 9fa3 d13d
00000370: c7cb b83b f8e9 4d3c 112c f5bd ebee 35bd
00000380: c710 b53d 0bc2 1abd 7251 17bd c423 b13d
00000390: 8296 2b3e d6a9 ee3d 20e8 dbbd bee1 ac3d
000003a0: 572d 0c3e 12c3 e3bb aebb 54bd ec05 0b3e
000003b0: bc64 ec3d eb59 55be 0ed1 0dbd d5c3 703d
000003c0: 99c5 2cbd 9f88 1fbe 6f59 3b3e 7a7b 223e
000003d0: 6c8c 16be 1c21 bebd 595c 33bc d82f 803d
000003e0: 2aa1 423d 276e 7c3d d3a9 96bd 90e6 13bd
000003f0: 027f 96bc e8d6 a73d ef66 41bd 05f6 b8bd
-0.032118317 0.044633675 -0.027761208 0.022193495 -0.14425735 0.10290465 -0.008193536 -0.021576986
-0.15588854 -0.043107927 0.14101462 -0.08869023 -0.118632995 -0.02392383 0.005278389 0.14283544
-0.007711984 -0.0027308862 0.076705486 -0.300658 0.056461837 -0.008188478 0.033862535 0.018774264
-0.15791182 -0.050068166 -0.10701465 -0.109949164 0.00095598947 -0.10018751 -0.05916924 -0.050177738
0.055532407 -0.077613235 -0.06439523 0.04051916 0.06179695 0.023916464 -0.03126794 0.12692393
-0.00084433804 -0.0049673943 0.11236514 -0.038528007 -0.020193297 0.023395473 -0.08393362 0.09709807
-0.010576107 0.035839293 -0.112449534 0.08475467 0.050343793 -0.24314827 -0.15422097 0.09181862
-0.066963896 0.0861287 0.08968502 -0.06308539 -0.05487788 0.080684744 -0.01975427 -0.0025617625
0.016323518 0.13524511 0.09946301 0.09357566 0.12219283 0.18074107 0.112242885 -0.028029783
0.07806238 0.16777185 0.036479965 -0.029889643 0.071481064 0.022036161 -0.08364828 -0.15304224
-0.010391204 -0.033707414 0.068350144 0.0780259 -0.00022549697 0.037738785 -0.106690325 -0.20317219
0.1254293 0.16878043 0.07959037 0.07899802 0.09178802 -0.08004656 0.0012700157 0.012125644
-0.09622398 -0.07412365 0.018918635 -0.13644181 -0.06638158 0.21613103 -0.044383235 -0.08622788
-0.022840532 0.15638323 0.052607853 0.05612442 0.06722601 0.03891976 -0.20947325 -0.05664951
0.08969431 -0.12234323 0.077868074 0.04641837 0.0025645155 -0.050798383 0.05186083 0.10949463
-0.02121933 -0.017111344 0.1663134 -0.01840549 -0.0838559 -0.052440032 -0.009823423 -0.1793903
-0.058265302 -0.08206944 -0.02798913 -0.00097482227 -0.013416624 0.063069396 -0.046600055 0.023216944
0.06331129 0.11278651 -0.07775248 -0.03500219 -0.04737098 0.12401842 -0.04655547 0.075661995
-0.13596953 0.0769699 0.10357576 0.07547912 0.005315873 0.07346917 0.0520579 0.10175137
-0.025970245 0.012406339 -0.10204377 0.13005425 -0.0048802737 -0.1168746 0.12525652 0.23740901
0.12174587 0.19247513 -0.076498486 -0.059199635 0.019853855 0.086097814 -0.024802612 -0.013372514
-0.06372724 0.07301793 0.10010429 -0.12100713 0.11160596 0.04807684 -0.08528424 0.01688902
0.16218069 0.030133821 -0.16655503 -0.028337063 0.0727606 0.122482985 -0.015057283 0.051422756
0.09261092 0.067897305 -0.08559478 -0.040177424 -0.018794699 0.1554362 0.00440284 0.029784989
0.033071123 0.08304759 0.043984756 -0.11073614 -0.008447434 0.0947252 0.045550074 0.045929104
-0.119407654 0.11375836 -0.050204836 -0.0064463075 0.10200144 -0.022437401 -0.15787429 -0.0012900789
-0.026048744 0.09970246 -0.027525852 0.05986432 -0.02472489 0.038324907 -0.039418012 0.070132226
-0.13304396 -0.16855085 -0.05324364 0.10236286 0.0056395265 0.0125679895 -0.119712956 -0.044417303
0.08841091 -0.03778271 -0.036942907 0.086494 0.16756633 0.116534874 -0.10737634 0.084414944
0.13689171 -0.0069507444 -0.051936798 0.13576478 0.11542651 -0.20835082 -0.0346232 0.05878051
-0.04218063 -0.1557946 0.18295835 0.15867415 -0.14702004 -0.09283659 -0.01094731 0.062591255
0.04751698 0.061628487 -0.0735661 -0.036108553 -0.018371109 0.08195287 -0.047217306 -0.090312995

network_body._body_endoder.seq_layers.2.bias f4 [128]
00000000: c419 9c3c 2d69 2e3c 339b 603c 83e2 7cbc
00000010: f958 4d3c 20a0 9fbc 146f cc3c 37ba ea3c
00000020: e4d7 a83c 9b85 96bc 00ea 8abc a9a7 96bb
00000030: 6547 89bc 0405 22bc 9bb9 5e3c a156 583c
00000040: d116 2cbc 5ea4 e13c b258 24bc 17f2 cd3c
00000050: 0ca7 58bc f985 c13c 1358 823c 9ccd dc3b
00000060: e85c d03c 642f 32bc f518 aa3c 9e01 15bc
00000070: 2b7e c93c 1c21 e63c c1b1 2fbc 76f9 92bb
00000080: 6d6f a73b 6a2f a03c 2eea 923c 9f84 89bc
00000090: ff7e 58bc 9797 a83b 8506 ccbc caa8 503b
000000a0: cf4b 93bb 07c8 84bc 3d38 92bc b58c fb3b
000000b0: 0eff d83b 8e2c aabb fffe 56bc 3f75 b53c
000000c0: 0fb7 57bc 38f6 3f3c 27c4 a03c 197e da3b
000000d0: 89ac 8c3c 354b 98bb 702f da3c ab07 dabb
000000e0: e03e 0bbc df2b c13c ba26 f6bb 7c10 873c
000000f0: d418 02bc 5d13 b93c b1a7 a23c 1caa 643c
00000100: 7e7c b93c f1d0 c1bc 91ca a8bc 6ff2 173d
00000110: 1fff c93c aa9c 3d3c a163 3f3c 4c0b 8b3c
00000120: d3b5 b23c 7baa 10bc a443 c13b 5e25 e23a
00000130: 02df e6bb b1f7 a43b e72e 933a e3b4 4a3c
00000140: ef10 503c f0b1 28bc 4a56 71bb ec58 8bbc
00000150: 215f 8fbc 4af5 ee3c fc49 f8bb 26ea 80bc
00000160: 1c61 813c 5256 883c 99b0 583b c547 ebbb
00000170: ceed ebba 3a5d 453c f2e4 e1bb 6681 403c
00000180: 62d3 3ebc 5b0c 4039 3cdf 0abc ee12 6ebc
00000190: 14b7 333c 24d3 4abc b045 33bc b869 87bc
000001a0: b4f7 1f3c a926 97b9 f762 473c a208 723c
000001b0: 3a0d a7bc f48e f13c f61f abbb be35 abbc
000001c0: d868 9c3c 6903 433c 7136 163c 45c0 b6bb
000001d0: 481d a23c 6c0d 323c b9c9 e03a afd9 c33c
000001e0: a477 59bc 52b5 a33c 9cfc 25bc f081 a2bb
000001f0: 18be 62bb 1e5b cebc 8fcf 823c cfcd 1dbc
0.019055255 0.010645193 0.013708877 -0.015434864 0.01253342 -0.019485533 0.02495531 0.028653247
0.020610757 -0.018374255 -0.016957283 -0.0045976234 -0.016757676 -0.009888891 0.0135940565 0.013204248
-0.010503487 0.027544197 -0.010030912 0.025139851 -0.013223421 0.023623453 0.015911138 0.0067383777
0.025434926 -0.010875557 0.020763854 -0.009094624 0.024596294 0.02809196 -0.010723532 -0.0044853045
0.0051097185 0.019553859 0.017933931 -0.016786871 -0.013213872 0.005145024 -0.024905453 0.0031838887
-0.004495121 -0.016208662 -0.017849082 0.0076766857 0.0066222018 -0.0051932996 -0.013122319 0.022150634
-0.013166203 0.011716418 0.019624783 0.006667864 0.017172115 -0.0046476373 0.026633948 -0.006653746
-0.008498877 0.02358049 -0.007511941 0.016487353 -0.00794049 0.022592241 0.019855352 0.013956573
0.02264237 -0.023659201 -0.020604404 0.037096437 0.024657784 0.011572996 0.011681468 0.01697316
0.021815216 -0.008829708 0.005897956 0.0017253568 -0.0070456276 0.00503441 0.0011229188 0.012372228
0.01269935 -0.01029633 -0.0036825114 -0.017010175 -0.017501416 0.029169697 -0.007577179 -0.01573665
0.015793376 0.016642723 0.0033064245 -0.0071801865 -0.0017999948 0.012046153 -0.0068937475 0.011749601
-0.011647077 0.0001831515 -0.008476075 -0.01453088 0.010968942 -0.012379441 -0.010941908 -0.016529903
0.009763647 -0.00028829768 0.012169591 0.014772566 -0.02039205 0.02948711 -0.005222316 -0.02089965
0.019092962 0.0119026685 0.009168253 -0.0055771195 0.019789353 0.010867458 0.0017149962 0.02390751
-0.013273153 0.019983921 -0.010131028 -0.0049593374 -0.0034598168 -0.025189932 0.015968112 -0.009631588

action_model._continuous_distribution.mu.weight f4 [1, 128]
00000000: 0109 f53c 6701 953c ea71 8f3c fc1d 80bc
00000010: 3a1d 8d3c 95aa f1bb 64fd e93c f570 2e3d
00000020: 5206 833c b9e1 1dbc 63dd 7cbc 65b8 1cbd
00000030: 62cf d8bc a276 19bc 3081 5e3c 61c3 643c
00000040: 8fce 62bc 49c3 6c3d e319 72bc 241c 443d
00000050: 8252 70bc 091b 283d 8f56 213d c7f1 ab3c
00000060: 44ee 173d 5eb8 04bc af47 c53c 824d 0cbd
00000070: c632 cc3c 2b1d 293d f4d5 6ebd 530e f4bc
00000080: 5c6b c63b ae08 a73c 1efe 1f3c 7009 9ebc
00000090: e7aa 1bbc 4208 0abb 9f7a 86bc c239 823b
000000a0: 88e5 303c d001 11bd bab9 a6bb d7e0 3a3b
000000b0: d1b2 d53c ba9b 67bd f082 fbbb ad58 793d
000000c0: ae0a 24bd 0f31 8d3c 4963 b43c 36c0 013c
000000d0: a336 b53a c670 b8bc c752 863c 809c 5cbd
000000e0: 49a5 07bd a5f7 113d 74fd 35bd 4be9 293d
000000f0: 62d4 1dbd 375e a93c 5940 153d 1599 483c
00000100: ff0c d63c 96b8 c4bc 281a aabc d031 b23c
00000110: 65db 013d 7dba d439 8039 1a3d 90e9 1b3d
00000120: 352c c33c d71d 91bc 085b 2b3c 8711 3dbd
00000130: 1d2b c4bc c94d 673b 5f70 00bc 0186 973c
00000140: 2402 253c 3afb 62bb cef8 28bd a357 98bc
00000150: 1ab4 19bc f404 893c 4a5d 53bc 4428 31bc
00000160: 1169 f83c d1b8 b93c 5748 a1bb 40ea 8dbc
00000170: 62e0 063c 153a c53c 3620 a5b9 45eb e63c
00000180: 2584 87bc 253d e33b 211f 07bd ad7b f7bc
00000190: 1c92 923c 4eed aeba abd9 8ebc 0e24 2dbd
000001a0: ed08 d93b 3b92 58bd 41e2 ac3c eea4 243c
000001b0: bb95 89bc 71a0 203d b68e 1cbd a67f 96bc
000001c0: 679e 703c 5245 ad3b 517d 083b cbaf eebb
000001d0: e4c1 603c d907 6a3c 98d6 213c 77e2 6c3d
000001e0: 3df7 0dbd 0622 e73c f57e 22bd 20ee 2cbb
000001f0: 4b72 31bc 0d97 91bb 6297 843c d0bd dabc
0.02991152 0.018189145 0.017510373 -0.015639298 0.01722585 -0.0073750713 0.028563209 0.042588193
0.015994225 -0.009636336 -0.015433642 -0.03826179 -0.026466075 -0.009366663 0.013580605 0.013962598
-0.013843193 0.057803426 -0.01477668 0.0478784 -0.014668109 0.041041408 0.03938919 0.020989312
0.037092462 -0.008100597 0.024082033 -0.034253605 0.024926554 0.041287582 -0.05830951 -0.029791987
0.0060552787 0.020389881 0.009765176 -0.01929161 -0.0095011955 -0.002106205 -0.016415892 0.0039741704
0.010796912 -0.03540212 -0.0050880583 0.0028515363 0.026086243 -0.056544997 -0.007675521 0.060875583
-0.040049247 0.017235307 0.02202 0.007919362 0.0013825487 -0.022514712 0.016396893 -0.053860188
-0.033116613 0.035636563 -0.044431165 0.04148225 -0.038532622 0.020674808 0.03643832 0.012243529
0.026129244 -0.024013799 -0.020764425 0.021752268 0.03170337 0.00040574736 0.037652493 0.03806454
0.02382479 -0.017714424 0.010458715 -0.046159294 -0.02394634 0.0035294166 -0.007839291 0.018496515
0.010071311 -0.0034634606 -0.041252904 -0.018596476 -0.009381318 0.016725995 -0.01290066 -0.010812823
0.030323537 0.022671135 -0.0049219537 -0.017323613 0.008232208 0.024075547 -0.00031495251 0.028188357
-0.016542504 0.006934779 -0.03298867 -0.03021034 0.017891936 -0.0013345869 -0.017437777 -0.042270713
0.0066233785 -0.05287383 0.02110398 0.010049088 -0.01679503 0.03921551 -0.038222037 -0.018371414
0.014686204 0.0052878046 0.0020826648 -0.0072841397 0.013718102 0.014284098 0.009877823 0.05783316
-0.034659613 0.028214466 -0.039671857 -0.002638705 -0.010830472 -0.0044430555 0.016185466 -0.026701838

action_model._discrete_distribution.branches.0.weight f4 [1, 128]
00000000: 8e7e 02bb 4a03 2bbc 5586 f2ba 37dc 0c3a
00000010: c1c4 1ebc d7b5 c23a 73f3 6dbc 2e7a 303c
00000020: e988 20ba 5fdd 56ba daa6 cd3b 1bb6 0c3c
00000030: ebb7 3c3c f053 f6bb 1bff 813a db6a 16bc
00000040: f82b 3abc 4117 a8bb 8138 00bc 135b 07bb
00000050: 858e 9238 2d8f 0abc 2907 01bc 62aa a9bc
00000060: 41da 033b 45b7 0bbc d771 983c db47 b73b
00000070: bde9 583c 178f a1ba 00b0 68b8 925f 87bb
00000080: 4bca 093b 0b6b 3dbc fa82 62bc 1016 1f3b
00000090: 27b8 dabb 0db7 54bb c1ed 993b 4869 26bb
000000a0: e87d 543c 188b 28bb 9051 543b 7a51 953c
000000b0: 6d29 0c3c 62d8 d13b b35d 3abc f30f 7639
000000c0: 0847 fb39 4762 42bc 482f b1bb 8744 af3a
000000d0: db51 04bb 53ec 323c b882 5539 4c63 bdba
000000e0: 0048 2a3c 689f 7ebb fd3d e0bb ac88 113b
000000f0: 0dfb 723c 0741 503b a246 893c 1632 403c
00000100: c5f6 ae3c a3b9 56bb 2dda 553b fa40 ee3a
00000110: 9409 22bc f041 cebb 028b 333c ea1d 433c
00000120: fc77 173c 4d0a 92ba a875 273c be0e 083c
00000130: ce1a 0fbb cc7f 043c 45f4 7ebc 941d 81bb
00000140: 7da9 f9bb d273 9abb f1f8 873b b22f 21bc
00000150: cf64 7ebc 1b5d 94bb 02e1 703b 0b5c 3d3c
00000160: 56fc c4ba fa58 7f3c c3e2 063c 55ce e4bb
00000170: 55f0 173b 2420 36bb 2226 a93c 3067 ff38
00000180: 8f5c 60bc eb0b 943b 1fb6 bbbb db46 e1bb
00000190: 984e 343c 209d 92bc c58d 223a 8a21 a8bc
000001a0: 7b07 033c 6877 f93b b341 843b 3fa3 5f3b
000001b0: 77cc f83a b85c 293c 9790 233c ebca b7bb
000001c0: abb1 1fbb 8f84 ad3b ef98 5b3c 77e8 0abc
000001d0: 7079 05bc 07ca 263b 4d5d 273b 0dda 353c
000001e0: 98cc c7bb 8ef9 2dbc 656d 3fbb c73d 7f3b
000001f0: f7cd 44bc 81fa 18bc 9dfe ccbb 805e 4abc
-0.0019911858 -0.010437796 -0.0018503169 0.0005373391 -0.0096904645 0.0014855218 -0.014523375 0.010771317
-0.0006123917 -0.0008196439 0.006275994 0.008588339 0.011518459 -0.0075173303 0.0009917946 -0.00918075
-0.011363022 -0.005129725 -0.007825972 -0.002065365 6.988369e-05 -0.008456987 -0.007875242 -0.020711128
0.0020119103 -0.008527582 0.01860897 0.0055932826 0.013239321 -0.0012325969 -5.5477023e-05 -0.004131266
0.0021025117 -0.011561166 -0.013825173 0.0024274625 -0.0066747847 -0.003245774 0.004697532 -0.0025392342
0.0129694715 -0.0025717672 0.0032397248 0.018227328 0.008554799 0.0064039687 -0.011374879 0.0002346633
0.00047927373 -0.011864251 -0.0054072477 0.0013371863 -0.0020190391 0.010920602 0.0002036196 -0.0014449148
0.010393143 -0.0038852338 -0.006843327 0.0022206707 0.014830363 0.003177704 0.016757313 0.011730691
0.021357903 -0.0032764457 0.0032631264 0.0018177324 -0.009889979 -0.0062944815 0.010958435 0.011908988
0.009244915 -0.0011141986 0.0102209225 0.008304296 -0.0021836045 0.00808711 -0.015561168 -0.0039402936
-0.0076190815 -0.004713514 0.004149549 -0.009838032 -0.015526964 -0.0045277006 0.003675521 0.011557589
-0.0015028815 0.0155851785 0.008232775 -0.0069826045 0.002318402 -0.0027790153 0.020648066 0.00012178568
-0.013693943 0.0045180223 -0.0057284976 -0.0068749017 0.011005066 -0.017897189 0.0006200935 -0.020523805
0.007997389 0.0076131113 0.0040361523 0.0034124402 0.0018981834 0.010337047 0.009983203 -0.0056089065
-0.0024367373 0.005295343 0.013403161 -0.0084782755 -0.008146629 0.0025450008 0.002553779 0.011099351
-0.0060973875 -0.0106185805 -0.0029209491 0.0038946734 -0.0120119965 -0.009337069 -0.006255938 -0.012351632

exp_avg f4 [128, 12]
00000000: 5b2f 9d37 0056 9d37 7657 9db7 5152 9db7
00000010: 8040 ac37 2aa5 3138 0000 0000 6c6e d737
00000020: fac9 5a37 106e 8938 27a6 52b4 27a6 52b4
00000030: 8880 0cb5 1df2 0bb5 f140 0c35 fd53 0c35
00000040: 2495 5e37 0491 bd37 0000 0000 acc6 4237
00000050: 458c 20b8 30b6 10b7 77bf d1b2 77bf d1b2
00000060: 710f e9b5 41a8 e9b5 3f81 e935 f96c e935
00000070: e1ee d2b6 43e3 9137 0000 0000 f1e5 d2b6
00000080: cc5e 80b7 417a deb6 df64 5933 df64 5933
00000090: 39c6 b8b6 8e65 bab6 e6c6 b936 bd8f b936
000000a0: 0505 fc37 bbb5 4bb8 0000 0000 eb3c ce37
000000b0: 7e85 6c38 547e 98b8 20d2 1535 20d2 1535
000000c0: 7893 6c37 afa9 6c37 7bbb 6cb7 82b8 6cb7
000000d0: 8312 cbb7 9ff4 39b8 0000 0000 5744 86b7
000000e0: 7280 e237 f416 c036 8465 59b3 8465 59b3
000000f0: 9295 bdb7 b562 bdb7 d98e bd37 9d95 bd37
00000100: edf5 9d38 a7d5 0239 0000 0000 d308 7438
00000110: 1ea4 0ab9 107b 9e38 fb04 9cb4 fb04 9cb4
00000120: 7cfc 8c37 ac04 8d37 7111 8db7 5e10 8db7
00000130: 7dce 9b36 c9d5 d537 0000 0000 4584 3437
00000140: 7a80 8035 37cb 57b7 a56d 0cb3 a56d 0cb3
00000150: 402a 1338 6131 1338 583f 13b8 693e 13b8
00000160: 211e 2438 88ec b738 0000 0000 da34 4c38
00000170: 83c4 a1b7 fe5e 7438 c788 64b3 c788 64b3
00000180: 18da 2237 909c 2237 39ca 22b7 6ed2 22b7
00000190: 1bd6 a436 4472 fdb7 0000 0000 d09d 0937
000001a0: d257 c137 8b7b b3b7 88d5 3934 88d5 3934
000001b0: 8a59 3538 ba53 3538 4d6b 35b8 166c 35b8
000001c0: aa65 4a36 c67a 8f37 0000 0000 c484 a537
000001d0: 7510 b938 8d13 0db8 d28e c633 d28e c633
000001e0: 6035 a837 9a43 a837 e750 a8b7 034f a8b7
000001f0: b151 0238 0e6b c438 0000 0000 f638 1538
00000200: 316f dbb7 0150 2738 2286 87b3 2286 87b3
00000210: e397 ed37 f6be ed37 86c9 edb7 56c4 edb7
00000220: b84d 2ab6 680b 5138 0000 0000 8767 1537
00000230: 321c 8eb8 7803 f9b7 88d2 4db4 88d2 4db4
00000240: 9b16 64b6 bc73 62b6 9743 6336 da7b 6336
00000250: a8b2 dcb7 5cf1 4038 0000 0000 40c8 cfb7
00000260: 1146 1ab8 2bf1 cd38 d05c 99b4 d05c 99b4
00000270: a7fe 3338 f1ff 3338 4614 34b8 1b14 34b8
00000280: 6154 8137 dbc9 ce36 0000 0000 808c 0038
00000290: 9a2f b4b7 1bc9 02b8 2600 8532 2600 8532
000002a0: 4cb4 ba37 7695 ba37 7fb8 bab7 a3bc bab7
000002b0: 1a48 4f36 bfd9 3bb9 0000 0000 7157 4137
000002c0: 23dd cbb7 25fd d937 2528 4334 2528 4334
000002d0: 2315 09b8 c025 09b8 7a2e 0938 462c 0938
000002e0: 3e0a 1038 b273 8b37 0000 0000 c682 9437
000002f0: 427d 9734 d7ec c1b8 64df 2834 64df 2834
00000300: 958c 18b9 cf91 18b9 38a1 1839 88a0 1839
00000310: 8a0c 8637 a78d 3938 0000 0000 63c8 34b8
00000320: 89dc e738 db48 c5b8 b1e5 0834 b1e5 0834
00000330: ab9d ec38 acaa ec38 71c0 ecb8 b9be ecb8
00000340: 46c5 8238 c5d0 6639 0000 0000 33bc d138
00000350: ef47 7f38 177d d938 813a 5bb4 813a 5bb4
00000360: 2c47 12b8 af4e 12b8 5d5c 1238 615b 1238
00000370: 6c70 7637 9ffe 34b8 0000 0000 4bae 30b5
00000380: e00a 0c38 411f d0b8 0122 7733 0122 7733
00000390: f638 87b8 0a3e 87b8 814b 8738 d84a 8738
000003a0: 21cd 77b7 cb23 7235 0000 0000 40c6 21b8
000003b0: 89ab 8837 8141 e8b6 5f8b 8d33 5f8b 8d33
000003c0: 63fb 29b8 e745 2ab8 4f39 2a38 5d2f 2a38
000003d0: 6d24 3837 406a 1939 0000 0000 4238 d0b6
000003e0: 9059 1839 9a9f 1c38 9c0b 5135 9c0b 5135
000003f0: d185 0138 9c9c 0138 bca1 01b8 b09e 01b8
1.873791e-05 1.8755905e-05 -1.8756586e-05 -1.875419e-05 2.0534033e-05 4.235391e-05 0.0 2.5681416e-05
1.3040839e-05 6.55317e-05 -1.961822e-07 -1.961822e-07 -5.23411e-07 -5.2133856e-07 5.2248566e-07 5.2276283e-07
1.3266956e-05 2.2598084e-05 0.0 1.1609558e-05 -3.827761e-05 -8.625488e-06 -2.441787e-08 -2.441787e-08
-1.7364347e-06 -1.7408821e-06 1.7397468e-06 1.7391568e-06 -6.286297e-06 1.7391174e-05 0.0 -6.2852564e-06
-1.5302932e-05 -6.630348e-06 5.061599e-08 5.061599e-08 -5.5067035e-06 -5.5550545e-06 5.5365845e-06 5.530163e-06
3.0043078e-05 -4.856822e-05 0.0 2.458548e-05 5.639111e-05 -7.271455e-05 5.58126e-07 5.58126e-07
1.4101031e-05 1.4106204e-05 -1.4110347e-05 -1.4109655e-05 -2.4208106e-05 -4.433526e-05 0.0 -1.6005868e-05
2.7001111e-05 5.724718e-06 -5.0616578e-08 -5.0616578e-08 -2.2600205e-05 -2.257652e-05 2.2597074e-05 2.2600225e-05
7.5321506e-05 0.00012477358 0.0 5.818235e-05 -0.00013221844 7.556949e-05 -2.9060888e-07 -2.9060888e-07
1.6806873e-05 1.6810685e-05 -1.6816632e-05 -1.6816131e-05 4.6433984e-06 2.549113e-05 0.0 1.07596325e-05
9.574135e-07 -1.2862313e-05 -3.269601e-08 -3.269601e-08 3.508688e-05 3.509352e-05 -3.5106525e-05 -3.5105655e-05
3.9128707e-05 8.7701774e-05 0.0 4.8686612e-05 -1.9284204e-05 5.82626e-05 -5.3209785e-08 -5.3209785e-08
9.706731e-06 9.692405e-06 -9.703036e-06 -9.704947e-06 4.912506e-06 -3.021316e-05 0.0 8.20258e-06
2.3048287e-05 -2.1395992e-05 1.730715e-07 1.730715e-07 4.3237153e-05 4.323174e-05 -4.3253694e-05 -4.3254426e-05
3.0159522e-06 1.71041e-05 0.0 1.9731357e-05 8.824553e-05 -3.3635228e-05 9.246072e-08 9.246072e-08
2.0052015e-05 2.005864e-05 -2.0064834e-05 -2.0063953e-05 3.1070496e-05 9.365949e-05 0.0 3.5577417e-05
-2.6158612e-05 3.9890412e-05 -6.310826e-08 -6.310826e-08 2.832333e-05 2.8341525e-05 -2.8346443e-05 -2.8344028e-05
-2.5377212e-06 4.9840106e-05 0.0 8.905196e-06 -6.7763394e-05 -2.9684728e-05 -1.9168704e-07 -1.9168704e-07
-3.3987806e-06 -3.374399e-06 3.3864978e-06 3.3897727e-06 -2.6309237e-05 4.600115e-05 0.0 -2.4769572e-05
-3.6781716e-05 9.820083e-05 -2.8566e-07 -2.8566e-07 4.291409e-05 4.291529e-05 -4.2934225e-05 -4.293407e-05
1.541729e-05 6.1627775e-06 0.0 3.064843e-05 -2.1479838e-05 -3.118171e-05 1.5483305e-08 1.5483305e-08
2.2256885e-05 2.2242526e-05 -2.225884e-05 -2.2260769e-05 3.0887372e-06 -0.00017914826 0.0 1.15240555e-05
-2.430246e-05 2.5986295e-05 1.8175395e-07 1.8175395e-07 -3.268303e-05 -3.2698503e-05 3.270663e-05 3.270458e-05
3.4341814e-05 1.6623966e-05 0.0 1.7703871e-05 2.821708e-07 -9.247072e-05 1.5727488e-07 1.5727488e-07
-0.0001454822 -0.00014550168 0.00014555908 0.00014555652 1.5979884e-05 4.423936e-05 0.0 -4.310197e-05
0.00011056016 -9.4072624e-05 1.2749548e-07 1.2749548e-07 0.00011282725 0.00011285147 -0.00011289202 -0.00011288882
6.235628e-05 0.00022012282 0.0 0.000100009514 6.086373e-05 0.00010370666 -2.0417248e-07 -2.0417248e-07
-3.4875397e-05 -3.4882392e-05 3.4895133e-05 3.4894216e-05 1.4688918e-05 -4.315248e-05 0.0 -6.581874e-07
3.338873e-05 -9.9240344e-05 5.7540095e-08 5.7540095e-08 -6.4479114e-05 -6.448857e-05 6.451365e-05 6.4512424e-05
-1.4770108e-05 9.020411e-07 0.0 -3.8570026e-05 1.629234e-05 -6.9217645e-06 6.5911756e-08 6.5911756e-08
-4.0526862e-05 -4.059626e-05 4.058453e-05 4.057527e-05 1.0975736e-05 0.00014630798 0.0 -6.2054323e-06
0.00014529214 3.734194e-05 7.787546e-07 7.787546e-07 3.0880623e-05 3.090185e-05 -3.0906624e-05 -3.0903786e-05

exp_avg_sq f4 [128, 12]
00000000: a794 7e30 af7f 7e30 a1eb 7e30 76ee 7e30
00000010: 2fd0 a330 228b d530 0000 0000 9bc2 7730
00000020: 1dae 9130 4718 1831 7e7f ac29 7e7f ac29
00000030: 2a89 4430 2c86 4430 7ce8 4430 e8e8 4430
00000040: afdf 9c30 e8a2 9730 0000 0000 4d1d af30
00000050: af1e 9b30 b985 5d30 4870 8729 4870 8729
00000060: 3e55 a030 4091 a030 f3d3 a030 e9cb a030
00000070: 1414 a430 e471 d330 0000 0000 5697 9830
00000080: 2445 c030 35e2 e330 0c86 8429 0c86 8429
00000090: 16d7 3f32 37f8 3f32 ee1e 4032 851a 4032
000000a0: 32b4 1032 5436 4732 0000 0000 4618 0132
000000b0: 0f7a 1232 a05d 7432 b9f1 002b b9f1 002b
000000c0: d4ed c530 c1fc c530 664e c630 6c4c c630
000000d0: 456c 0a31 6a0f c330 0000 0000 a738 1a31
000000e0: 532f d830 09fb e230 c183 f629 c183 f629
000000f0: b26d 6e31 b658 6e31 eaa8 6e31 bcab 6e31
00000100: 279c a431 2746 fe31 0000 0000 bdb8 9431
00000110: 2953 d631 747f 0432 68a0 8c2a 68a0 8c2a
00000120: 4c79 1830 4c61 1830 22a6 1830 5da9 1830
00000130: 16e7 d12f 5941 e72f 0000 0000 b9d4 1230
00000140: 06a7 f82f 2a72 f42f b681 ea28 b681 ea28
00000150: 60bd 9a31 56bc 9a31 59f8 9a31 80f8 9a31
00000160: 332c c831 7f36 a231 0000 0000 1c46 a631
00000170: e7d6 ca31 eb18 b431 5f19 722a 5f19 722a
00000180: 7c7e 8630 5e61 8630 72bc 8630 57c0 8630
00000190: eb8a 9330 39c3 b630 0000 0000 636c 9d30
000001a0: c75b d730 13ac ee30 9576 182a 9576 182a
000001b0: 5526 c931 f031 c931 4379 c931 c377 c931
000001c0: 0a63 6231 4fa3 b431 0000 0000 1604 8b31
000001d0: d081 7531 c233 f231 f28c bf2a f28c bf2a
000001e0: 63c3 0131 0cb0 0131 bfe3 0131 54e6 0131
000001f0: 5880 0731 3c5a 5631 0000 0000 b0ea f830
00000200: a588 3c31 ef00 4931 1bd1 0e2a 1bd1 0e2a
00000210: edbc 7731 a327 7831 fe7b 7831 bf6d 7831
00000220: 583e 9631 1afb 8b31 0000 0000 f82e cc31
00000230: 0918 b331 6e80 ec31 f8bc cb2a f8bc cb2a
00000240: 3235 9b31 0941 9b31 096a 9b31 7a68 9b31
00000250: c61d 9c31 d11f 9a31 0000 0000 f22b bf31
00000260: 8334 3a31 aa94 d131 5785 4d2a 5785 4d2a
00000270: 294a 6431 0e96 6431 ebd4 6431 d9ca 6431
00000280: a092 0c31 1e1b 5731 0000 0000 c912 4831
00000290: 380c 4e31 2fe4 9031 b458 412a b458 412a
000002a0: b71a f431 a21c f431 a270 f431 5e70 f431
000002b0: bcb8 0c32 6c6a 3832 0000 0000 f6d2 e331
000002c0: 70e8 1432 c825 0e32 1331 ce2a 1331 ce2a
000002d0: 5e95 8931 9eae 8931 2acc 8931 cfc8 8931
000002e0: 7427 9331 0b6d b631 0000 0000 0639 8331
000002f0: ab54 5831 2989 bf31 3446 1a2a 3446 1a2a
00000300: acb2 2133 cfd0 2133 d1fc 2133 cff8 2133
00000310: 5fba 0e33 7506 3f33 0000 0000 3c97 0e33
00000320: faab 1f33 c68c 3233 93c2 ff2b 93c2 ff2b
00000330: ed4e 4332 062f 4332 d879 4332 197e 4332
00000340: 2f55 0332 2a1f 5f32 0000 0000 c48c 1132
00000350: 3866 1c32 3b18 3432 5287 e92a 5287 e92a
00000360: baa5 c731 6d84 c731 caea c731 4cef c731
00000370: 1146 c031 a54b 1132 0000 0000 5c6e d731
00000380: ab96 0732 47a5 ea31 4c0b f72a 4c0b f72a
00000390: 2db0 9f31 13de 9f31 2912 a031 100c a031
000003a0: 26a1 a331 db94 b731 0000 0000 9569 bf31
000003b0: b855 c231 167b c031 8af8 a52a 8af8 a52a
000003c0: 82d2 9133 4dfb 9133 d71a 9233 6e15 9233
000003d0: deb0 5233 b69e 8433 0000 0000 5738 8633
000003e0: b7e9 1c33 5948 8333 2833 152c 2833 152c
000003f0: 1d26 a231 3541 a231 1176 a231 7a72 a231
9.261591e-10 9.258611e-10 9.273951e-10 9.2743535e-10 1.191898e-09 1.5537334e-09 0.0 9.013463e-10
1.0599625e-09 2.2132711e-09 7.660451e-14 7.660451e-14 7.1499306e-10 7.1495054e-10 7.1634765e-10 7.1635364e-10
1.1414069e-09 1.1032997e-09 0.0 1.2741254e-09 1.1286455e-09 8.0589363e-10 6.014682e-14 6.014682e-14
1.166576e-09 1.1682815e-09 1.1701772e-09 1.1699487e-09 1.1938277e-09 1.538464e-09 0.0 1.1102468e-09
1.398949e-09 1.6580716e-09 5.885231e-14 5.885231e-14 1.1166568e-08 1.1174101e-08 1.11829035e-08 1.1181901e-08
8.422875e-09 1.1595677e-08 0.0 7.514307e-09 8.526071e-09 1.4223957e-08 4.581019e-13 4.581019e-13
1.4401231e-09 1.4405473e-09 1.4428678e-09 1.4428116e-09 2.0143187e-09 1.4192498e-09 0.0 2.2442153e-09
1.5729519e-09 1.6515013e-09 1.094745e-13 1.094745e-13 3.4695913e-09 3.4683985e-09 3.4729575e-09 3.4731178e-09
4.7907807e-09 7.4003483e-09 0.0 4.328369e-09 6.237674e-09 7.712391e-09 2.49803e-13 2.49803e-13
5.546965e-10 5.5435545e-10 5.5533367e-10 5.553796e-10 3.8181075e-10 4.2065088e-10 0.0 5.341679e-10
4.5229614e-10 4.446446e-10 2.6035472e-14 2.6035472e-14 4.5035193e-09 4.503401e-09 4.5102238e-09 4.510241e-09
5.825791e-09 4.721016e-09 0.0 4.8392064e-09 5.9034053e-09 5.2415223e-09 2.150272e-13 2.150272e-13
9.785732e-10 9.777457e-10 9.803343e-10 9.80445e-10 1.073514e-09 1.3297728e-09 0.0 1.1454059e-09
1.5669394e-09 1.7365686e-09 1.3541453e-13 1.3541453e-13 5.8542278e-09 5.855547e-09 5.863656e-09 5.8634853e-09
3.2943626e-09 5.2572555e-09 0.0 4.045897e-09 3.5725982e-09 7.049011e-09 3.4026216e-13 3.4026216e-13
1.8883035e-09 1.8872042e-09 1.890143e-09 1.8902897e-09 1.971804e-09 3.119239e-09 0.0 1.8111077e-09
2.7435274e-09 2.924988e-09 1.2684682e-13 1.2684682e-13 3.6050622e-09 3.611128e-09 3.6159231e-09 3.6151133e-09
4.3726622e-09 4.0739794e-09 0.0 5.942521e-09 5.212318e-09 6.8831048e-09 3.6191167e-13 3.6191167e-13
4.5171413e-09 4.5184874e-09 4.5231485e-09 4.5229713e-09 4.5435824e-09 4.485607e-09 0.0 5.5638276e-09
2.7096412e-09 6.0996017e-09 1.8253919e-13 1.8253919e-13 3.3220522e-09 3.3263663e-09 3.3299397e-09 3.3293672e-09
2.0456028e-09 3.1302032e-09 0.0 2.9114509e-09 2.998389e-09 4.216893e-09 1.7172619e-13 1.7172619e-13
7.1043718e-09 7.10459e-09 7.1141395e-09 7.1141093e-09 8.191076e-09 1.0734407e-08 0.0 6.630553e-09
8.667584e-09 8.274078e-09 3.6627003e-13 3.6627003e-13 4.004206e-09 4.0070764e-09 4.0104355e-09 4.010054e-09
4.2827484e-09 5.309294e-09 0.0 3.8190846e-09 3.1480265e-09 5.574425e-09 1.3702304e-13 1.3702304e-13
3.7648235e-08 3.7675644e-08 3.771567e-08 3.7712024e-08 3.3231455e-08 4.4476526e-08 0.0 3.31995e-08
3.7176484e-08 4.1571887e-08 1.8172845e-12 1.8172845e-12 1.13684395e-08 1.1361186e-08 1.1378198e-08 1.1379165e-08
7.644572e-09 1.2987394e-08 0.0 8.472117e-09 9.103637e-09 1.0482888e-08 4.1483012e-13 4.1483012e-13
5.810503e-09 5.8067173e-09 5.8183547e-09 5.818867e-09 5.595901e-09 8.45731e-09 0.0 6.26987e-09
7.892292e-09 6.829086e-09 4.3883853e-13 4.3883853e-13 4.647538e-09 4.652756e-09 4.6586774e-09 4.657984e-09
4.762245e-09 5.342924e-09 0.0 5.570835e-09 5.655888e-09 5.6019287e-09 2.9482346e-13 2.9482346e-13
6.79038e-08 6.7978e-08 6.803537e-08 6.802553e-08 4.9055295e-08 6.175598e-08 0.0 6.2501094e-08
3.6534143e-08 6.113323e-08 2.120257e-12 2.120257e-12 4.7191535e-09 4.7222337e-09 4.728243e-09 4.727835e-09

exp_avg f4 [128]
00000000: 5508 1db8 3c28 9cb6 1a79 2237 ee72 df38
00000010: 7e6c 22b7 749c 68b8 bdaa d0b6 c1ac 29b7
00000020: 1597 0a38 0440 9437 9076 49b7 0c5c 19b8
00000030: f7a6 64b8 c8ff 4836 f34e 1138 5cc4 fb37
00000040: 24bc cb37 590f 23b8 f6b3 3737 c9bc 5237
00000050: 29f4 1b39 6dbb 34b8 fa09 4c37 e144 9cb7
00000060: ed2b 23b8 24f8 72b7 8a89 8fb8 5e3f f938
00000070: 8564 03b8 3876 59b8 85e4 0537 a388 2d38
00000080: d0c0 29b8 328f 8a36 8af0 4539 1bf3 3e39
00000090: 4b9b 1937 413e d2b7 0337 a7b7 d059 e9b6
000000a0: 11c4 24b8 1f20 3c37 335e 8ab8 59fa 7138
000000b0: fc51 21b8 c41e 70b7 952f f1b7 ecdb 0cb6
000000c0: a49f ddb6 bf8e ba37 bdd1 13b8 d66b c437
000000d0: 7013 1fb7 7c83 ce37 7d97 2934 2da4 0938
000000e0: c187 e4b6 d6d7 ac37 0fbb 3637 b543 ff38
000000f0: b76b e1b7 bc3e adb6 6003 9138 0c7a ec37
00000100: b13a 4337 775e 25b7 d13f 2237 01d9 c138
00000110: b85b b9b7 86c5 aa37 4b75 cab7 fa89 5eb7
00000120: 7f6c be37 9f5a 8cb8 776d 4eb7 343e ab37
00000130: b856 e0b8 7119 4e38 2d78 07b6 5930 59b7
00000140: 25ab 1939 6dbb 8bb7 1820 bfb7 160f 2c38
00000150: d5cd 4737 1e64 2e39 dcf3 afb8 eddc 98b8
00000160: b7a3 0fb8 06fe 34b8 1df0 a7b8 5c36 0738
00000170: 21fc 2037 acf5 bb38 18c6 5736 01a4 c6b6
00000180: b063 78b8 54dd 3238 fa6f 1438 d8b0 9338
00000190: 380a d836 712a 70b6 cbbd 96b8 ae7e db37
000001a0: 17cc 0f37 25a7 b9b8 34bd c3b8 dc81 11b8
000001b0: 4169 92b8 3f26 a2b5 56f9 ceb7 fb3a 6bb8
000001c0: 99c9 79b8 315e 05b7 6985 49b8 332d 1b38
000001d0: 5e4f 9436 a4c6 08b7 8efa 8d37 57a4 b3b7
000001e0: da93 97b7 03b1 1b37 c2de 4db8 3ff9 4e37
000001f0: 92b7 a738 24aa 64b8 4853 e7b6 aa23 e9b7
-3.7439477e-05 -4.653846e-06 9.684149e-06 0.00010654876 -9.681213e-06 -5.545882e-05 -6.2187596e-06 -1.0113407e-05
3.304247e-05 1.7672784e-05 -1.2008139e-05 -3.6563768e-05 -5.4514934e-05 2.9951207e-06 3.464422e-05 3.0012969e-05
2.4287096e-05 -3.8876522e-05 1.094955e-05 1.256093e-05 0.00014872909 -4.3089898e-05 1.216167e-05 -1.8628723e-05
-3.8903137e-05 -1.4482099e-05 -6.84439e-05 0.00011885048 -3.132645e-05 -5.184693e-05 7.980624e-06 4.1373667e-05
-4.047231e-05 4.1293906e-06 0.00018876992 0.00018210376 9.155668e-06 -2.506294e-05 -1.9933568e-05 -6.9543967e-06
-3.9283248e-05 1.1213152e-05 -6.597899e-05 5.7692032e-05 -3.8461745e-05 -1.4312278e-05 -2.8751596e-05 -2.0989637e-06
-6.604898e-06 2.22394e-05 -3.5242865e-05 2.3415236e-05 -9.481664e-06 2.461834e-05 1.5794463e-07 3.2816246e-05
-6.8107333e-06 2.0604504e-05 1.0891598e-05 0.00012171959 -2.6872249e-05 -5.163105e-06 6.9147674e-05 2.8190225e-05
1.1636571e-05 -9.856761e-06 9.670811e-06 9.243377e-05 -2.2096428e-05 2.0357558e-05 -2.4134895e-05 -1.3264356e-05
2.2700287e-05 -6.6926e-05 -1.2304044e-05 2.0413754e-05 -0.00010697305 4.913792e-05 -2.018652e-06 -1.2945465e-05
0.00014654973 -1.6657368e-05 -2.278392e-05 4.1022045e-05 1.1909248e-05 0.0001663123 -8.3900726e-05 -7.2890754e-05
-3.4246328e-05 -4.3151922e-05 -8.007905e-05 3.2237134e-05 9.5954465e-06 8.962615e-05 3.2152802e-06 -5.9199524e-06
-5.922065e-05 4.2644635e-05 3.5390236e-05 7.042446e-05 6.4384913e-06 -3.578749e-06 -7.187909e-05 2.6165824e-05
8.570983e-06 -8.8526205e-05 -9.3335664e-05 -3.4691635e-05 -6.9814276e-05 -1.2081072e-06 -2.467322e-05 -5.6083296e-05
-5.955398e-05 -7.949348e-06 -4.8046382e-05 3.6996975e-05 4.4199833e-06 -8.152481e-06 1.6925183e-05 -2.141499e-05
-1.8069451e-05 9.279934e-06 -4.9083268e-05 1.2336589e-05 7.997373e-05 -5.4517892e-05 -6.8940317e-06 -2.7792372e-05

exp_avg_sq f4 [128]
00000000: 075d ed30 498b 7530 01ac 6c30 4ada 5f32
00000010: 6afb d230 0217 fc31 fccf 0f30 2d8d 8f31
00000020: 3a81 ea30 bde7 c631 c61d 4431 406b aa31
00000030: 64d2 ab31 9e7d 4a31 22c3 1432 40f2 7d31
00000040: da78 1f33 3aab 3f32 7116 f031 699a 9431
00000050: 547f 4733 f9be 8a31 6b34 db31 be5f bd31
00000060: cbbf 0333 a8f5 d630 16be f832 b788 f232
00000070: e834 2c31 615c de30 5b37 1332 0db3 d331
00000080: a36c ec31 1cb5 c12f 4e1f ba33 d03c 3233
00000090: c904 ff30 5baf a732 d2d4 4d31 bb9e c431
000000a0: 54d9 0432 49b4 b531 ac9b 1d33 bade ca32
000000b0: b6fb c831 1490 a831 2965 9e30 f439 cf30
000000c0: 6698 a732 77b9 b731 bb60 7231 9392 2b31
000000d0: 70cc 5730 847e 2432 c796 1233 6096 e932
000000e0: 6ced 8331 7293 0a31 2c7d 2731 5fe2 ba32
000000f0: a32e 0d31 dcd3 1431 bdb6 1a32 0ca1 0832
00000100: 0700 1a31 8fcd 5631 389f 4b30 f1d0 6533
00000110: fb98 2031 0e74 eb30 1faa 0431 b3e1 d931
00000120: 5a05 3331 f6ca 3c32 5795 bc32 a75e a131
00000130: 73e3 0332 3e69 2f31 05e1 4231 e00e bf30
00000140: 6237 8d33 5efa 0232 1866 7d30 82a0 6632
00000150: 9a48 2531 4bd5 7933 d93a 3f33 fa2d 5432
00000160: 45a9 2830 ece2 0232 ab3e df31 c01b 0332
00000170: f527 4d30 1255 aa32 802b ce30 ec97 5f31
00000180: 84ba 7932 2115 3b32 0d55 1732 2076 ae32
00000190: e698 1132 ba1b 0831 da1c bd31 585f 7030
000001a0: b8b7 0a31 e988 2d32 7cf4 4133 8851 1432
000001b0: f350 8732 445d 2030 e949 9631 ca33 9d32
000001c0: 7631 dc31 9db2 0032 4140 2331 e6c8 0433
000001d0: e7b6 b130 e334 1032 2e16 7e30 2917 0332
000001e0: 6ffe 1e31 ee45 6c31 4c3f 3c31 a93a 2432
000001f0: 6bd7 4932 29ff 3832 09fe c730 15aa 0632
1.727046e-09 8.9328417e-10 8.610073e-10 1.3029942e-08 1.5350967e-09 7.336781e-09 5.231866e-10 4.1778976e-09
1.7062469e-09 5.788904e-09 2.8538678e-09 4.959844e-09 5.0006737e-09 2.9466274e-09 8.659102e-09 3.6954049e-09
3.7129986e-08 1.1156596e-08 6.9874706e-09 4.3249213e-09 4.6449102e-08 4.0380397e-09 6.379698e-09 5.5115086e-09
3.067525e-08 1.5640369e-09 2.8957441e-08 2.8234679e-08 2.5059368e-09 1.6178882e-09 8.5691125e-09 6.161264e-09
6.8808546e-09 3.5235181e-10 8.666994e-08 4.1499163e-08 1.8555052e-09 1.9521101e-08 2.99524e-09 5.7223963e-09
7.732826e-09 5.2882894e-09 3.6695994e-08 2.361718e-08 5.8493823e-09 4.9058233e-09 1.1524764e-09 1.5077704e-09
1.9510662e-08 5.347086e-09 3.527062e-09 2.4967093e-09 7.850707e-10 9.574823e-09 3.4130405e-08 2.7193153e-08
3.8395935e-09 2.0165456e-09 2.437285e-09 2.1756192e-08 2.054471e-09 2.1657263e-09 9.00553e-09 7.95286e-09
2.2409965e-09 3.1257945e-09 7.4077233e-10 5.350825e-08 2.3370024e-09 1.7131485e-09 1.930523e-09 6.3411902e-09
2.605097e-09 1.0989188e-08 2.1953992e-08 4.6964774e-09 7.6769195e-09 2.5525675e-09 2.8358624e-09 1.3901307e-09
6.575898e-08 7.623923e-09 9.218595e-10 1.3424257e-08 2.405193e-09 5.816882e-08 4.4524175e-08 1.2350478e-08
6.135859e-10 7.618592e-09 6.4972787e-09 7.631513e-09 7.463535e-10 1.982929e-08 1.5000836e-09 3.2537129e-09
1.4536116e-08 1.0889637e-08 8.808695e-09 2.0309983e-08 8.474876e-09 1.9806365e-09 5.503904e-09 8.7446983e-10
2.0186075e-09 1.0101055e-08 4.515867e-08 8.633272e-09 1.575288e-08 5.83402e-10 4.373977e-09 1.8300756e-08
6.4084658e-09 7.4911926e-09 2.3756146e-09 3.091636e-08 1.2930429e-09 8.393928e-09 9.243618e-10 7.63047e-09
2.3136655e-09 3.438227e-09 2.739358e-09 9.559394e-09 1.174872e-08 1.0768226e-08 1.4551357e-09 7.838499e-09
