results/Slider_behavior/SliderBehavior/SliderBehavior-1947.onnx (onnx, 81383 bytes, 7 tensors)

network_body.observation_encoder.processors.0.normalizer.running_mean f4 [12]
0	0x40cb3730	6.3504868
1	0xc0a3a2cf	-5.113624
2	0xbea00ba6	-0.31258887
3	0xbf6c9d3d	-0.92427427
4	0xbd4b7da6	-0.049680375
5	0xc06580b5	-3.5859807
6	0x00000000	0.0
7	0x3f1199ae	0.5687512
8	0x4087c930	4.243309
9	0x3daea367	0.0852726
10	0xbf6111c1	-0.87917715
11	0x3f7fde5b	0.9994866

network_body._body_endoder.seq_layers.0.weight f4 [128, 12]
0	0x3ec916a4	0.39275086
1	0x3dd82ea1	0.10555769
2	0x3d463bdb	0.048396926
3	0x3ea1f530	0.31632376
4	0xbe3b10ab	-0.18268077
5	0xbe0651e4	-0.13117176
6	0x3e20375d	0.1564612
7	0x3deeeefc	0.116666764
8	0x3f368abc	0.7130544
9	0xbd80677d	-0.06269739
10	0x3ef871d3	0.4852434
11	0x3e36a285	0.17835434
12	0x3f2debbe	0.6793784
13	0x3ee40166	0.44532317
14	0xbeb3ca56	-0.35115308
15	0x3e065deb	0.13121764
16	0x3c204e10	0.009784237
17	0xbec043a7	-0.37551615
18	0xbd553870	-0.052055776
19	0xbd2ffae9	-0.042963896
20	0xbdfd6dd6	-0.12374465
21	0x3da87cd0	0.08226931
22	0xbf36cd43	-0.71406955
23	0x3e84f20a	0.2596591
24	0x3da642bc	0.08118197
25	0xbeb10310	-0.3457265
26	0xbf0ed887	-0.55799145
27	0x3d3936fc	0.045218453
28	0xbee827f6	-0.45342988
29	0x3e0e0374	0.13868505
30	0xbb39efc6	-0.0028371676
31	0x3e5c241d	0.21498151
32	0xbf09ebec	-0.53875613
33	0x3e71cf1a	0.23614159
34	0x3f18a225	0.5962241
35	0x3e740a6d	0.23832102
36	0x3ee506bb	0.44731697
37	0x3e57372c	0.2101714
38	0x3dbad4dd	0.09122632
39	0x3d4379ca	0.04772357
40	0xbea7b857	-0.32757828
41	0x3d97ec26	0.074180886
42	0x3d6d219a	0.057893373
43	0x3ee8d419	0.45474318
44	0xbe464c60	-0.19365072
45	0xbf2851dd	-0.65749913
46	0x3eb1fd78	0.34763694
47	0x3d667834	0.05626698
48	0xbe905b30	-0.2819457
49	0x3e387935	0.18014987
50	0x3e927829	0.286073
51	0xbc8bb980	-0.017056227
52	0xbd1059e9	-0.035241995
53	0xbeb9d76c	-0.36297166
54	0x3f1c43e1	0.61041075
55	0x3e263e2d	0.16234656
56	0xbe6e2040	-0.2325449
57	0x3e4e0e95	0.2012275
58	0x3e758d8a	0.23979774
59	0x3e68e395	0.22743066
60	0xbdf3a59c	-0.11896822
61	0x3ec72d8a	0.3890193
62	0xbea304c0	-0.3183956
63	0xbe80477b	-0.25054535
64	0x3ddc5e2a	0.10760148
65	0x3d5e19dd	0.054223884
66	0xbe8ab943	-0.27094468
67	0xbb42f597	-0.0029748434
68	0xbcd929b8	-0.02650915
69	0x3e453367	0.1925789
70	0xbec8ce53	-0.39219913
71	0x3e7e257d	0.24818988
72	0xbe9d1b30	-0.30684805
73	0xbe635335	-0.2219971
74	0x3e308d82	0.17241481
75	0x3f148aad	0.580241
76	0xbe43d1b6	-0.19122967
77	0x3e15291f	0.14566468
78	0x3e674391	0.22584368
79	0xbf02668d	-0.5093773
80	0x3e499b07	0.19688044
81	0xbe76dac7	-0.24106894
82	0xbd11556a	-0.035481848
83	0x3c16679f	0.009179979
84	0xbeb88148	-0.36036134
85	0xbdf482a5	-0.11938981
86	0x3ba13ae0	0.0049203485
87	0x3e2707d6	0.16311583
88	0xbd7bc511	-0.061467234
89	0x3e8bdf25	0.27318683
90	0xbe60fc31	-0.21971203
91	0x3e461a3d	0.19345947
92	0x3e97dacd	0.2965912
93	0x3e907ba3	0.28219327
94	0xbea28c1b	-0.31747517
95	0xbea7ec7c	-0.3279761
96	0xbe291cdd	-0.16514917
97	0x3d8a8520	0.06763673
98	0x3e130ee6	0.14361152
99	0x3dce3572	0.10068788
100	0x3ec3a6c0	0.38213158
101	0x3d90860f	0.0705682
102	0xbf355039	-0.70825535
103	0x3e1c29ef	0.15250371
104	0xbea355ce	-0.319014
105	0x3e3e82c7	0.18604575
106	0xbefedd8e	-0.49778408
107	0x3da12d0a	0.07869919
108	0x3cc4e010	0.024032623
109	0xbeac5c1e	-0.3366403
110	0xbedc0a38	-0.42976546
111	0xbe2401d8	-0.16016328
112	0xbee84ff0	-0.45373487
113	0xbc7be33f	-0.015374004
114	0x3eb47e3d	0.35252562
115	0x3efdbe71	0.49559358
116	0x3ea61636	0.3243882
117	0x3e24f1c2	0.16107848
118	0x3e87223c	0.26393306
119	0x3f21f4cb	0.6326415
120	0x3e6073c0	0.21919155
121	0xbe17771d	-0.14791532
122	0x3ed859c0	0.42255974
123	0x3e60d9f4	0.21958143
124	0xbe8c6d30	-0.27427053
125	0x3c215961	0.00984797
126	0x3f0b58eb	0.54432553
127	0x3e0e0159	0.13867702
128	0xbc59a834	-0.013284732
129	0xbdefbf03	-0.117063545
130	0x3e727cf5	0.2368048
131	0xbe96b00d	-0.2943119
132	0xbcad2b62	-0.02113885
133	0x3e79a8a3	0.24380736
134	0xbd09d7f4	-0.033653215
135	0x3ed69073	0.4190708
136	0xbd6c8aca	-0.057749547
137	0x3ea1d68d	0.31609002
138	0x3e9cd320	0.30629826
139	0xbe9b6c1f	-0.30355927
140	0xbdd93825	-0.10606412
141	0x3e5406d4	0.2070573
142	0xbe145584	-0.14485747
143	0x3df76792	0.12080301
144	0x3e2fe16a	0.17175832
145	0xbc1b4279	-0.009476298
146	0x3e5cbea8	0.21557105
147	0x3e9d29f4	0.3069607
148	0x3e78be42	0.24291328
149	0x3e6bcde5	0.23027761
150	0x3de3c03c	0.1112065
151	0x3e6e2dc7	0.2325965
152	0xbe1febd8	-0.15617311
153	0x3f4a13c2	0.789364
154	0xbc6bfdd3	-0.014403778
155	0x3ed756f8	0.4205854
156	0xbdf19fc4	-0.11798051
157	0xbe113470	-0.1418016
158	0xbd83d7a4	-0.064376146
159	0xbec36736	-0.3816468
160	0x3e4ac066	0.19799957
161	0x3e94aa3d	0.29036132
162	0xbd5abc8a	-0.05340246
163	0xbe151803	-0.14559941
164	0x3ee2f5b8	0.44328094
165	0x3e9221d6	0.2854144
166	0x3e7e88e1	0.24856903
167	0x3e9ea1b9	0.3098276
168	0xbebdd84c	-0.37079084
169	0x3ed03fc3	0.40673646
170	0xbe4af4ca	-0.19819942
171	0x3e0d267c	0.13784212
172	0x3ee2bbd4	0.44283926
173	0x3eb337c2	0.35003477
174	0xbf1ac3ee	-0.60455215
175	0xbed49a83	-0.41524133
176	0xbeb179b2	-0.3466316
177	0xbcf5cd46	-0.030005109
178	0x3e3f7d49	0.18700136
179	0x3c35d552	0.011098223
180	0x3ef1a801	0.4719849
181	0x3d8853af	0.066565864
182	0xbe559ff0	-0.20861793
183	0xbe3934c9	-0.18086542
184	0x3dffed61	0.12496448
185	0x3e0d6524	0.13808113
186	0x3e1f36a2	0.15548185
187	0xbe347be1	-0.17625381
188	0xbf366405	-0.7124637
189	0xbf29ce2e	-0.6633023
190	0xbe948ab8	-0.29012084
191	0xbdc64797	-0.096816234
192	0x3c474173	0.0121616
193	0x3e61b620	0.22042131
194	0x3ef3be08	0.4760592
195	0x3d10f47c	0.03538941
196	0x3e06ca47	0.131631
197	0xbe5a0266	-0.21289977
198	0xbd541357	-0.051776256
199	0xbe221d43	-0.15831475
200	0x3f5b161c	0.8558061
201	0x3f27fc85	0.6561969
202	0x3ed8128a	0.42201644
203	0xbf08d2e1	-0.53446776
204	0x3e638706	0.22219476
205	0x3eef2831	0.4671035
206	0xbed4fde1	-0.41599944
207	0x3eddb377	0.43300983
208	0xbdca54cd	-0.09879456
209	0x3ea37139	0.3192232
210	0xbe994c6a	-0.29941112
211	0xbe5821ce	-0.21106645
212	0xbe558c5a	-0.20854321
213	0xbe9d62d4	-0.30739462
214	0x3e96ca6f	0.2945132
215	0xbed29692	-0.411305
216	0x3f53dba0	0.82756996
217	0xbe97d0a7	-0.29651377
218	0xbea2f998	-0.3183105
219	0xbea39aa6	-0.31953925
220	0x3da0de20	0.07854867
221	0x3bef9ddb	0.007312519
222	0x3f052bd7	0.5202002
223	0x3dcc4d2e	0.09975658
224	0x3dbbec7e	0.09175967
225	0xbd99b033	-0.075043105
226	0x3c772bcc	0.015086126
227	0x3e0e6df2	0.13909128
228	0xbf1079bf	-0.5643577
229	0xbe65c53b	-0.22438519
230	0xbe1a5095	-0.15069802
231	0xbeb0b9fc	-0.34516895
232	0x3eef6d34	0.46763003
233	0x3c21b54e	0.009869887
234	0xbe66641f	-0.2249913
235	0x3e80d722	0.25164133
236	0x3e394ad9	0.18094958
237	0xbe363c44	-0.17796427
238	0x3d37dd71	0.044888917
239	0xbeeb13d8	-0.45913577
240	0x3dd43ce9	0.1036318
241	0x3c95d430	0.018289655
242	0x3d319a70	0.043360174
243	0xbd0360f5	-0.032074887
244	0xbca5f1bf	-0.020256875
245	0xbe6cbd29	-0.23119034
246	0x3e1f08d2	0.15530708
247	0x3d808c6b	0.062767826
248	0xbdadd9f8	-0.0848884
249	0x3d2b0018	0.041748136
250	0xbde09fbf	-0.10967969
251	0x3e3e114b	0.18561284
252	0xbe9e31aa	-0.30897266
253	0xbe19936a	-0.1499764
254	0x3d82b8a7	0.06382876
255	0xbf194140	-0.5986519

network_body._body_endoder.seq_layers.0.bias f4 [128]
0	0x00000000	0.0
1	0x00000000	0.0
2	0x00000000	0.0
3	0x00000000	0.0
4	0x00000000	0.0
5	0x00000000	0.0
6	0x00000000	0.0
7	0x00000000	0.0
8	0x00000000	0.0
9	0x00000000	0.0
10	0x00000000	0.0
11	0x00000000	0.0
12	0x00000000	0.0
13	0x00000000	0.0
14	0x00000000	0.0
15	0x00000000	0.0
16	0x00000000	0.0
17	0x00000000	0.0
18	0x00000000	0.0
19	0x00000000	0.0
20	0x00000000	0.0
21	0x00000000	0.0
22	0x00000000	0.0
23	0x00000000	0.0
24	0x00000000	0.0
25	0x00000000	0.0
26	0x00000000	0.0
27	0x00000000	0.0
28	0x00000000	0.0
29	0x00000000	0.0
30	0x00000000	0.0
31	0x00000000	0.0
32	0x00000000	0.0
33	0x00000000	0.0
34	0x00000000	0.0
35	0x00000000	0.0
36	0x00000000	0.0
37	0x00000000	0.0
38	0x00000000	0.0
39	0x00000000	0.0
40	0x00000000	0.0
41	0x00000000	0.0
42	0x00000000	0.0
43	0x00000000	0.0
44	0x00000000	0.0
45	0x00000000	0.0
46	0x00000000	0.0
47	0x00000000	0.0
48	0x00000000	0.0
49	0x00000000	0.0
50	0x00000000	0.0
51	0x00000000	0.0
52	0x00000000	0.0
53	0x00000000	0.0
54	0x00000000	0.0
55	0x00000000	0.0
56	0x00000000	0.0
57	0x00000000	0.0
58	0x00000000	0.0
59	0x00000000	0.0
60	0x00000000	0.0
61	0x00000000	0.0
62	0x00000000	0.0
63	0x00000000	0.0
64	0x00000000	0.0
65	0x00000000	0.0
66	0x00000000	0.0
67	0x00000000	0.0
68	0x00000000	0.0
69	0x00000000	0.0
70	0x00000000	0.0
71	0x00000000	0.0
72	0x00000000	0.0
73	0x00000000	0.0
74	0x00000000	0.0
75	0x00000000	0.0
76	0x00000000	0.0
77	0x00000000	0.0
78	0x00000000	0.0
79	0x00000000	0.0
80	0x00000000	0.0
81	0x00000000	0.0
82	0x00000000	0.0
83	0x00000000	0.0
84	0x00000000	0.0
85	0x00000000	0.0
86	0x00000000	0.0
87	0x00000000	0.0
88	0x00000000	0.0
89	0x00000000	0.0
90	0x00000000	0.0
91	0x00000000	0.0
92	0x00000000	0.0
93	0x00000000	0.0
94	0x00000000	0.0
95	0x00000000	0.0
96	0x00000000	0.0
97	0x00000000	0.0
98	0x00000000	0.0
99	0x00000000	0.0
100	0x00000000	0.0
101	0x00000000	0.0
102	0x00000000	0.0
103	0x00000000	0.0
104	0x00000000	0.0
105	0x00000000	0.0
106	0x00000000	0.0
107	0x00000000	0.0
108	0x00000000	0.0
109	0x00000000	0.0
110	0x00000000	0.0
111	0x00000000	0.0
112	0x00000000	0.0
113	0x00000000	0.0
114	0x00000000	0.0
115	0x00000000	0.0
116	0x00000000	0.0
117	0x00000000	0.0
118	0x00000000	0.0
119	0x00000000	0.0
120	0x00000000	0.0
121	0x00000000	0.0
122	0x00000000	0.0
123	0x00000000	0.0
124	0x00000000	0.0
125	0x00000000	0.0
126	0x00000000	0.0
127	0x00000000	0.0

network_body._body_endoder.seq_layers.2.weight f4 [128, 128]
0	0x3db1a82a	0.08674653
1	0x3daaa20a	0.08331688
2	0x3c87bd4a	0.016569752
3	0x3d3bffb4	0.045898154
4	0xbda4727e	-0.0802965
5	0xbb62020b	-0.003448608
6	0x3ac6b3e1	0.0015159809
7	0x3e243380	0.1603527
8	0x3dc5bcb2	0.096551314
9	0xbe10c82c	-0.1413886
10	0xbd816537	-0.06318133
11	0x3bdd4880	0.0067530274
12	0xbd2b591d	-0.041833032
13	0x3de14637	0.109997205
14	0x3d3309fc	0.043710694
15	0xbd9e5332	-0.07730712
16	0x3e62c840	0.22146702
17	0xbd580bcb	-0.05274562
18	0xbdcad668	-0.09904176
19	0x3ce13163	0.02748937
20	0xbd5f224d	-0.05447607
21	0xbd49d174	-0.049272016
22	0xbb3a07b8	-0.0028385948
23	0x3c0d53a8	0.008625902
24	0x3dee1f62	0.116270795
25	0xbcb8ea27	-0.02257259
26	0xbd733f80	-0.05938673
27	0x3d9199b7	0.07109397
28	0x3cea2d21	0.028585972
29	0xbccfbf2b	-0.02535971
30	0x3d95d432	0.07315864
31	0x3e065f9c	0.1312241
32	0x3d96db22	0.07366015
33	0x3d82839c	0.06372759
34	0x3d3bc272	0.045839734
35	0x3d8e499c	0.069476336
36	0xbc332740	-0.010934651
37	0xbdd2bcb9	-0.10289902
38	0xbce6eed1	-0.028190048
39	0x3dd790d9	0.105256744
40	0xbdcb009c	-0.099122256
41	0xbc68cc14	-0.014208812
42	0xbd598892	-0.05310876
43	0x3dfbeef1	0.12301434
44	0x3dad3ad8	0.08458489
45	0xbd41e806	-0.047340415
46	0xbd0e2e63	-0.034712207
47	0x3e05bf84	0.13061339
48	0xbd233736	-0.039847575
49	0xbdc8a66c	-0.097973675
50	0xbc8b63d5	-0.017015377
51	0xbd9bada7	-0.07601481
52	0x3df86e00	0.12130356
53	0xbdac5f40	-0.08416605
54	0xbdb07beb	-0.086173855
55	0xbe5ac47c	-0.21364015
56	0xbdacac13	-0.08431258
57	0xbda3f220	-0.08005166
58	0xbb3e8cc1	-0.0029075595
59	0x3d00dbe7	0.031459715
60	0x3e062c98	0.13102949
61	0x3d974c29	0.07387573
62	0xbc9cc314	-0.01913599
63	0x3beb5a18	0.007182371
64	0xbd5c629d	-0.053804982
65	0x3d9d3743	0.07676556
66	0xbc985601	-0.018595697
67	0x3d02b5a0	0.031911492
68	0x3dd2b991	0.102893
69	0xbdc5e6f4	-0.096631914
70	0xbe066088	-0.13122761
71	0x3e111b6c	0.14170617
72	0xbdd03696	-0.101666614
73	0x3c619fa8	0.013770975
74	0x3d93989d	0.07206843
75	0xbd0aafdf	-0.03385913
76	0x3d047ee7	0.032347586
77	0x3d3201f9	0.043458913
78	0xbdc9e288	-0.098576605
79	0xbdcf73d5	-0.10129515
80	0x3deca6e3	0.115552686
81	0xbe0a65b5	-0.1351536
82	0x3d3fb671	0.04680485
83	0xbe41eb20	-0.1893735
84	0x3d9f78df	0.07786726
85	0x3c4fac0b	0.012675296
86	0xbd8219df	-0.06352591
87	0x3d01aed9	0.03166089
88	0x3ddd6194	0.10809627
89	0xbd646233	-0.055757713
90	0x3cdfabb9	0.027303563
91	0xbd77bf95	-0.06048544
92	0x3c3f9e72	0.011695491
93	0xbd5403d0	-0.05176145
94	0xbd94dff9	-0.07269282
95	0xbd33ea0c	-0.043924376
96	0xbcde03f4	-0.027101494
97	0x3d662b1d	0.05619346
98	0xbda51dec	-0.08062348
99	0xbd947890	-0.07249558
100	0x3dc23c3d	0.09484146
101	0xbde8f427	-0.11374693
102	0xbcf03e09	-0.029326456
103	0xbc84278a	-0.016132135
104	0xbd0c1908	-0.03420356
105	0xbd059d12	-0.032620497
106	0x3cafc9f8	0.02145861
107	0x3df7542d	0.12076602
108	0x3ce7f49b	0.02831488
109	0x3c803ea0	0.015654862
110	0xbdcaae80	-0.098965645
111	0x3cdd9553	0.027048742
112	0x3d29b0f9	0.04142854
113	0x3d35ea79	0.044413064
114	0x3c806588	0.015673414
115	0xbdc9e71a	-0.09858532
116	0x3d4d3b25	0.050105233
117	0x3cead209	0.028664606
118	0x3d276c93	0.04087503
119	0x3daa8829	0.08326752
120	0x3d8c7dc3	0.06859925
121	0xbaf86f03	-0.0018953983
122	0xbc8a2f3f	-0.016868232
123	0xbce150a8	-0.02750428
124	0xbcb5f22f	-0.022210209
125	0xbbd9784e	-0.006636656
126	0x3e0645ab	0.13112514
127	0xbe120510	-0.14259744
128	0xbe0c7a5e	-0.13718554
129	0x3de13ab2	0.10997523
130	0xbd7a69fb	-0.061136227
131	0xbd30841c	-0.04309474
132	0x3d1996f8	0.03749749
133	0xbe199f62	-0.15002206
134	0x3d16ce41	0.036817793
135	0x3c2f9891	0.010717527
136	0x3d46191d	0.048363794
137	0xbe040483	-0.12892346
138	0xbd8bc74a	-0.06825121
139	0x3e10271b	0.14077418
140	0x3d8d5841	0.06901599
141	0xbd53993f	-0.05165982
142	0xbdd078f3	-0.10179319
143	0xbde3dc01	-0.11125947
144	0xbc6e8d30	-0.014560029
145	0x3cced737	0.025249107
146	0x3c75b6b6	0.014997175
147	0xbdb298f8	-0.08720583
148	0x3e0e3593	0.13887624
149	0x3def9366	0.11698036
150	0xbddf4baf	-0.109031074
151	0xbd2640bc	-0.04058908
152	0x3ce02303	0.027360445
153	0xbd06cdb3	-0.032911014
154	0xbd4ed969	-0.050500307
155	0xbdf038ac	-0.11729559
156	0xbdbc6fe0	-0.09201026
157	0x3dcc18e3	0.09965684
158	0x3ce469ae	0.027882423
159	0xbccbe034	-0.024887182
160	0xbd618935	-0.05506249
161	0xbaf72ea6	-0.0018858507
162	0x3d95f701	0.07322503
163	0xbdc997a4	-0.09843376
164	0x3d8f3a96	0.06993596
165	0x3dabe4e2	0.08393265
166	0x3dcfdbae	0.101493225
167	0xbb4b441d	-0.003101594
168	0x3bf9d53c	0.0076242965
169	0xbd1c327f	-0.038134094
170	0xbd05f91a	-0.032708265
171	0x3b4b7f0c	0.0031051068
172	0x3d8bbbb6	0.068229124
173	0xbde74a9e	-0.11293529
174	0xbdf6bf57	-0.12048214
175	0x3c00f267	0.007870293
176	0x3d91735a	0.0710208
177	0xbd654fe0	-0.055984378
178	0x3d9ea946	0.0774713
179	0xbdca1a72	-0.09868325
180	0x3dcd9ede	0.10040067
181	0xbce6042e	-0.028078165
182	0xbd9f4fae	-0.077788696
183	0xbe013701	-0.12618639
184	0xbceaf0ca	-0.02867927
185	0x3cc20f69	0.023688989
186	0x3c285b20	0.010275632
187	0x3d7a97d2	0.061179943
188	0xbe39d29e	-0.1814675
189	0xbcded8bf	-0.027202962
190	0x3ca84049	0.020538466
191	0x3cb7f02f	0.022453396
192	0x3d59118c	0.05299525
193	0x3d846908	0.064653456
194	0xbd1945fd	-0.03742026
195	0xbd6336ea	-0.055472292
196	0xbc591d44	-0.013251606
197	0xbd2e2cc4	-0.04252316
198	0x3d378a99	0.04480991
199	0xbd0607fe	-0.032722466
200	0x3d48d2e2	0.04902924
201	0xbdf0552b	-0.117349945
202	0xbd0f2c0c	-0.034954116
203	0x3c994528	0.018709734
204	0x3db546ca	0.088513926
205	0x3cbb6676	0.022876006
206	0xbda8fd9e	-0.08251499
207	0x3ddc5e7e	0.107602105
208	0xbd30c267	-0.043154147
209	0xbd99ee0d	-0.07516108
210	0xbddfd8b5	-0.109300055
211	0x3d1c9645	0.038229246
212	0xbd12651f	-0.035740968
213	0x3d8697ad	0.065718986
214	0xbdc23fbe	-0.09484814
215	0xbd9d5f32	-0.07684173
216	0xbd5f01de	-0.05444514
217	0xbe4c15a8	-0.19930136
218	0xbc7af7bd	-0.0153178545
219	0xbbc84d42	-0.0061127255
220	0x3c920cee	0.017828431
221	0x3dbd7b9d	0.09252093
222	0x3d87a3ec	0.066230625
223	0x3d87f8fc	0.06639287
224	0x3cabdbd9	0.020978855
225	0xbc5d51c5	-0.013508265
226	0x3d090632	0.033453174
227	0x3d2b5d1f	0.041836854
228	0xbcd01512	-0.025400672
229	0xbe33a9c8	-0.17545235
230	0x3e2124b7	0.15736662
231	0x3df7bbfb	0.12096401
232	0xbe60d010	-0.2195437
233	0x3d802fc6	0.06259112
234	0xbe0630ba	-0.13104525
235	0x3c8ce1d2	0.017197523
236	0x3e0cec5e	0.13762042
237	0xbe27ae95	-0.16375192
238	0xbdcac648	-0.099011004
239	0x3e3e3b7e	0.18577382
240	0x3d7a0558	0.061040252
241	0x3d89ca2d	0.06728015
242	0xbe531711	-0.20614268
243	0xbd0b3d0c	-0.033993766
244	0x3db26db5	0.08712331
245	0xbcbe3287	-0.023217453
246	0xbd32e2c3	-0.043673288
247	0xbb333b8e	-0.002734873
248	0x3dbc7d67	0.09203606
249	0xbd519e22	-0.051176198
250	0xbe0012ef	-0.12507223
251	0xbdb7d0ff	-0.0897541
252	0xbd654708	-0.055975944
253	0xbcae339e	-0.021264847
254	0x3de1b668	0.11021119
255	0xbccb13ff	-0.024789808

action_model._continuous_distribution.mu.weight f4 [1, 128]
0	0x3aa339ff	0.0012453197
1	0x3c8acf5a	0.016944576
2	0x3cd4fd95	0.025999824
3	0x3bd8c50a	0.0066152858
4	0x3beba21f	0.007190957
5	0xbc31b2d0	-0.010845855
6	0xbcfd4fab	-0.030921778
7	0xbcbf6e2a	-0.02336796
8	0xbbabc99f	-0.005242541
9	0xb9e8436b	-0.0004430072
10	0xbd0a14b1	-0.03371114
11	0x3c270143	0.010193172
12	0xbb6196db	-0.0034422192
13	0x3ba31107	0.004976395
14	0xb9fb4c2a	-0.00047931197
15	0x3b73f612	0.0037225527
16	0xbc1c4b83	-0.009539488
17	0x3a7e319f	0.0009696725
18	0xbc0c2234	-0.008553077
19	0xbc2700fb	-0.010193105
20	0x3b9ac129	0.0047227335
21	0xbc255f2a	-0.01009349
22	0x3c84f03f	0.01622784
23	0x3b17be4f	0.0023154204
24	0x3c65e83d	0.014032421
25	0x3c0f83ee	0.008759482
26	0x3b45e7a3	0.003019788
27	0x3d2ab46c	0.04167597
28	0xbd2d96d3	-0.042380165
29	0xbcf9606d	-0.030441487
30	0x3c3e47b3	0.011613774
31	0xbc1d8d89	-0.009616264
32	0xbc91a267	-0.017777635
33	0x3d25b125	0.04045214
34	0x3b11064a	0.0022128993
35	0x3cf8ae5a	0.030356575
36	0xbc663ce8	-0.014052607
37	0x3c3b68da	0.011438573
38	0x3c95a672	0.018267844
39	0x3d14c99f	0.036325093
40	0x3c269820	0.010168105
41	0x3bf9db38	0.00762501
42	0x3b134f28	0.00224776
43	0x3d0da650	0.034582436
44	0x3b8bbb77	0.004264291
45	0xbb5c811a	-0.0033646286
46	0x3ba20da5	0.004945474
47	0x3c2d37bf	0.010572373
48	0x3cc12ffb	0.02358245
49	0x3c9fc217	0.019501729
50	0xbc255e3a	-0.010093266
51	0xbd08087d	-0.03321122
52	0x3c7dbb1f	0.015486508
53	0x3b203b58	0.0024449434
54	0xbc700570	-0.014649734
55	0xbceff65a	-0.029292274
56	0x3cfda0db	0.03096049
57	0x3b43bd2a	0.002986739
58	0xbd11474f	-0.035468396
59	0xbcb176d7	-0.021663113
60	0xbd02fc4b	-0.031978887
61	0xbc94ccff	-0.018164156
62	0x3c446a2f	0.011988207
63	0x3c10d337	0.00883942
64	0xbbe6364b	-0.007025515
65	0x3c3bdca3	0.011466178
66	0x3bf75af0	0.0075486824
67	0xbbb7cab7	-0.0056088823
68	0xbbe3c17f	-0.0069505568
69	0x3c899a9c	0.016797356
70	0x3c106d97	0.008815191
71	0xbcc2d04a	-0.02378096
72	0xbbc8c6a1	-0.006127194
73	0x3aa0654b	0.0012237219
74	0xbc18f0f3	-0.0093347905
75	0xbce83d6f	-0.028349606
76	0x3c57597a	0.0131438915
77	0xbb26f101	-0.002547324
78	0x3bfd1515	0.0077234604
79	0xbc2fb630	-0.010724589
80	0x3c99b12d	0.018761242
81	0x3caeaa7a	0.021321524
82	0xbd0d42d7	-0.03448757
83	0xbcdea5fa	-0.027178753
84	0xbce55335	-0.027993778
85	0x3c85590d	0.016277814
86	0xbc1d6429	-0.0096064
87	0x3becbbbb	0.0072245277
88	0x3c876c26	0.016531061
89	0xbb147358	-0.0022651758
90	0xbc6ece28	-0.014575519
91	0xbbc17dcd	-0.005904889
92	0xbc38c101	-0.0112764845
93	0xbc51d395	-0.012806793
94	0xbd33e9ab	-0.043924015
95	0x3c215276	0.00984632
96	0xbd58e853	-0.052955937
97	0xbcd5ddff	-0.026106833
98	0xbb1b3587	-0.0023683028
99	0x3cdf0a53	0.027226603
100	0x3ccbc039	0.024871932
101	0xbb0f879b	-0.0021900896
102	0xbcac12f5	-0.021005133
103	0x3aab31c3	0.0013061095
104	0xbc8a7032	-0.016899202
105	0x3c47cc54	0.012194712
106	0x3cd4714a	0.025932927
107	0x3ca3dbd4	0.020002283
108	0xbc91ffe0	-0.017822206
109	0x3b5a7e83	0.0033339567
110	0xbbc18a29	-0.0059063626
111	0xbbc23b65	-0.0059274905
112	0xbcd9c91a	-0.02658515
113	0x3c12f441	0.0089693675
114	0xbb7da3a0	-0.0038702264
115	0xbc1ee79c	-0.009698775
116	0xbc2d5203	-0.010578635
117	0x3bd2f8bb	0.0064383424
118	0xbc732500	-0.014840364
119	0x3c2732e1	0.010205002
120	0xbd422b8f	-0.047404822
121	0x3ccf42fa	0.025300492
122	0x3bba336b	0.005682399
123	0xbb4c74e6	-0.0031197607
124	0x3b3036c7	0.0026888119
125	0x3ce3cab2	0.027806614
126	0xbc514252	-0.01277216
127	0xbbab3d0d	-0.0052257837

action_model._discrete_distribution.branches.0.weight f4 [1, 128]
0	0x3b0af370	0.002120223
1	0xbb0cb05b	-0.002146742
2	0x3b7746d8	0.0037731435
3	0x3c9ab527	0.018885208
4	0xbc4c2d91	-0.012462036
5	0xbc0a4dfa	-0.008441443
6	0xbb352377	-0.0027639547
7	0x3b91991c	0.004443301
8	0xbbb37b26	-0.005477327
9	0x3afd7da0	0.0019339807
10	0x3a868da0	0.0010265596
11	0xbc80c228	-0.01571758
12	0x3b12548c	0.0022328226
13	0x3aed7c53	0.0018118717
14	0x3b925598	0.00446577
15	0x3b63b082	0.0034742658
16	0xbbfa175d	-0.0076321797
17	0x3baa34bf	0.005194276
18	0xbae9cf75	-0.0017838316
19	0xbc502cbb	-0.012705977
20	0xbc03acaf	-0.008036776
21	0xbc03fa0e	-0.008055223
22	0x3b93a343	0.0045055463
23	0x3bc42e74	0.005986983
24	0xbc7d9303	-0.015476945
25	0xbab20e43	-0.0013584573
26	0xbc9961ed	-0.018723452
27	0x3c16248a	0.009163985
28	0x3b4f87e7	0.0031666697
29	0xbba923de	-0.0051617464
30	0x3c2b32e8	0.010449149
31	0xbc640063	-0.013916108
32	0xbbc84559	-0.0061117825
33	0x3beef3fb	0.0072922683
34	0x3b9254fc	0.0044656973
35	0xbb31c3e3	-0.0027124814
36	0x3c117093	0.008876937
37	0x3c1e7cf9	0.0096733505
38	0xbc37927d	-0.011204359
39	0x3b871c12	0.0041232193
40	0xbb5fba68	-0.0034138206
41	0x3baa8739	0.005204108
42	0x3c47a2d8	0.012184821
43	0x3bafae7a	0.0053613754
44	0x3a9446af	0.0011312569
45	0xbb561337	-0.0032665262
46	0x3c070903	0.008241895
47	0xbbb8786d	-0.0056295902
48	0x3b87afc8	0.004140828
49	0x3c2bf89a	0.010496283
50	0x3bc540c7	0.006019685
51	0x3c846b02	0.016164307
52	0xbc2d0f4b	-0.010562728
53	0x3ac1baff	0.0014780461
54	0x3be1c818	0.006890308
55	0x3b21f527	0.0024712773
56	0x3b97d5ba	0.0046336325
57	0xbb5fd05b	-0.003415129
58	0x3c4e3fd0	0.012588456
59	0x3c4cd43d	0.012501773
60	0xbc155533	-0.009114551
61	0x3b4ccf8a	0.0031251633
62	0xba99500b	-0.0011696828
63	0xbbc92ec8	-0.00613961
64	0x3be447c0	0.006966561
65	0x3bf2fcff	0.0074154134
66	0x3c71a1df	0.014748066
67	0xbbf5500d	-0.0074863494
68	0x3c20d154	0.009815533
69	0x3bb95350	0.0056556836
70	0x3b8791d7	0.0041372585
71	0x3bf68e3b	0.0075242794
72	0x3c4d564b	0.012532781
73	0xbc9943ac	-0.018709026
74	0xbb5021bb	-0.0031758386
75	0x3c236c4d	0.009974551
76	0x3be613eb	0.0070214174
77	0xbacf4047	-0.0015812003
78	0xbb58ddb5	-0.0033091132
79	0xbbe4e685	-0.006985488
80	0xbc9dde13	-0.019270932
81	0xbc57adeb	-0.013164024
82	0xbc7b6c6f	-0.015345677
83	0xbb1da417	-0.0024054104
84	0x3be30b67	0.0069288495
85	0xbc43a683	-0.011941555
86	0xbc7a427b	-0.015274639
87	0xbc0fb64d	-0.008771491
88	0x3bc8377a	0.006110129
89	0xbb23410f	-0.0024910604
90	0xbc25a9c3	-0.010111275
91	0xbbdc92c7	-0.0067313644
92	0xbbda3a8f	-0.0066598128
93	0xbc9b0e08	-0.018927589
94	0xbb44308a	-0.0029936158
95	0xbc19b2c9	-0.009381005
96	0xbb82c67f	-0.0039909477
97	0x3b810e2f	0.0039384584
98	0x3c685c3b	0.014182146
99	0xbc1dc8e4	-0.009630416
100	0x3c0bd180	0.008533835
101	0xbb68837f	-0.0035478768
102	0xba913c90	-0.0011080671
103	0xbc04c7a3	-0.008104238
104	0xbc5b089f	-0.013368755
105	0x3c618257	0.013763986
106	0xbb39e3af	-0.002836447
107	0x3bd0bd5d	0.00637023
108	0xbbf292ba	-0.007402745
109	0xbbcc2a03	-0.006230594
110	0xbc18eeff	-0.009334325
111	0xbc56690d	-0.0130865695
112	0xbb7af43f	-0.0038292555
113	0x3bac66a7	0.0052612606
114	0xbaaa6fae	-0.0013003254
115	0x3c5702da	0.013123238
116	0xb95a1ca2	-0.00020800767
117	0x3bfe15ca	0.0077540623
118	0xbbd36230	-0.006450914
119	0x3c3e6fec	0.011623364
120	0x3a041970	0.0005039191
121	0xbba096e4	-0.0049008
122	0x3c8d976d	0.01728412
123	0x3c07ddf4	0.008292664
124	0xbb6e9720	-0.0036405995
125	0xbbdcd79a	-0.006739569
126	0xbc617578	-0.013760917
127	0x38caaf01	9.6647076e-05

onnx::Div_70 f4 [12]
0	0x40116bed	2.2722123
1	0x401151aa	2.2706094
2	0x4011215c	2.267661
3	0x401122c2	2.2677464
4	0x40407ae3	3.0075004
5	0x3fe03c5c	1.751842
6	0x3cb99b84	0.022657163
7	0x407ad53c	3.9192648
8	0x4023de5d	2.560447
9	0x40350120	2.8281937
10	0x40617141	3.5225375
11	0x3d033a3b	0.032037955
