results/SliderBehavior-jgf-005/SliderBehavior/SliderBehavior-13027.pt (torch, 447716 bytes, 41 tensors)

network_body.observation_encoder.processors.0.normalizer.running_mean f4 [6]
-14.485998 -3.548343 0.0 -14.907599 -5.9995413 0.0
00000000: a6c6 67c1 0d18 63c0 0000 0000 8785 6ec1
00000010: 3efc bfc0 0000 0000

network_body.observation_encoder.processors.0.normalizer.running_variance f4 [6]
129014.85 37150.918 1.0 38949.17 36.997173 1.0
00000000: 6dfb fb47 eb1e 1147 0000 803f 2c25 1847
00000010: 1bfd 1342 0000 803f

network_body.processors.0.normalizer.running_mean f4 [6]
-14.485998 -3.548343 0.0 -14.907599 -5.9995413 0.0
00000000: a6c6 67c1 0d18 63c0 0000 0000 8785 6ec1
00000010: 3efc bfc0 0000 0000

network_body.processors.0.normalizer.running_variance f4 [6]
129014.85 37150.918 1.0 38949.17 36.997173 1.0
00000000: 6dfb fb47 eb1e 1147 0000 803f 2c25 1847
00000010: 1bfd 1342 0000 803f

network_body._body_endoder.seq_layers.0.weight f4 [128, 6]
0.10760172 -0.4280237 0.629038 0.42815602 -0.5117248 -0.028666396 -0.38000464 -0.39518553
1.0437125 0.36027905 -0.31353214 0.25343657 0.3491502 -0.61576355 0.1466309 0.4595021
-0.14391741 -0.13086464 -0.0040419484 -0.10414383 0.66911286 -0.58829993 0.5222421 -0.28792334
-0.34652272 -0.5398418 -0.18614297 -1.2138247 0.035583213 -0.03893979 0.2188111 0.3687414
0.49498358 -0.08030034 -0.048688095 0.7080422 -0.481461 0.5033479 -0.27148753 0.61226225
-0.4427652 -0.350695 0.04328183 -0.37643504 0.16702464 -0.43959832 0.33892655 -0.12909427
-0.3161238 0.14750236 -0.25632656 -0.7097918 0.42101103 -0.9026026 -0.035536245 0.9438337
0.8485373 -0.41368443 -0.59459376 -0.5120888 0.5988387 0.010300075 0.023708029 0.25705323
0.20932369 -0.004970095 0.2392849 -0.37617224 0.71550304 -0.013620306 0.49190366 -0.20127076
0.825334 0.48914722 0.5032911 0.018807456 0.07890434 -0.64163244 0.16854076 -0.016589845
-0.6862537 -0.43470165 -0.51710486 0.01693275 -0.26809305 -0.02339013 -0.3828067 -0.31745547
0.45742828 -0.13799341 -0.38624933 -0.14175673 0.5462443 0.13589539 0.31449863 0.00071536977
0.061277453 -0.21515425 -0.14756133 0.7127623 -0.30117428 0.10823636 0.28904697 0.3159813
0.15935205 -0.6656267 0.7704508 -0.043607663 0.07622438 -0.21206029 -0.15444458 0.12893881
0.36094692 0.30937862 -0.07236454 -0.20241663 -0.1523416 -0.15715726 0.37216473 -0.24484463
0.010927419 0.11225654 0.37443963 0.2535108 -0.86845636 -0.4259562 0.12954539 -0.5189273
-0.7119766 -0.77530265 0.86666137 -0.27032316 0.119255155 -0.2357937 -0.31488547 0.07678623
-0.70430887 -0.696544 -0.07051862 0.57612306 0.043963585 -0.16335207 -0.0026566824 -0.017328411
-0.8415243 0.321392 0.34167883 0.1371775 -0.39006928 -0.569659 -0.5720516 -0.04334266
0.9037902 0.4707251 0.0636197 -0.050034802 1.0794818 0.39304233 -1.0778403 -0.38417196
-0.07545295 0.36562267 0.2743125 0.80653596 -0.20885952 0.66237205 -0.76117575 -0.3829194
-0.35416663 0.54770267 -0.35508502 -0.45564356 0.06290902 -0.2217679 -0.20255503 0.7996379
-0.25471094 0.070827916 -0.19246934 0.0043125614 -0.16629434 0.60445553 0.3030967 0.2091281
-0.16755669 0.8201992 0.2834419 0.4681766 -0.5476666 0.4516121 -0.1780289 -0.16239896
-0.10547241 0.106041655 -0.6371407 -0.20001152 0.06331858 -0.13750507 -0.12155907 0.72684574
-0.012726569 -0.1810436 0.4565947 -0.015929507 -0.061902784 0.19160129 -0.05085407 0.041441403
-0.27932888 0.06593195 0.114467 -0.2868038 -0.15480681 -0.21054685 -0.38648713 0.32595786
0.44446385 0.7362469 0.78649807 -0.04870709 0.19600151 0.64940023 0.28614733 -0.7549266
0.3202301 0.86795706 0.06375365 0.13796641 0.083276264 0.47129732 -0.14916326 -0.13061343
-0.06437168 0.5383081 -0.40875426 0.23143399 -0.027671508 -0.16984916 0.036746226 0.52851135
-0.18977149 -0.25978574 0.28925717 -0.29877293 -0.27365682 0.5648417 -0.4283403 0.45935783
-0.63065386 0.3059103 0.18259901 0.75540847 0.22182828 -0.08016809 -0.02058057 -0.017329618
00000000: 4a5e dc3d ec25 dbbe a208 213f 4437 db3e
00000010: 6600 03bf cad5 eabc f88f c2be c255 cabe
00000020: 5f98 853f 7f76 b83e 4987 a0be 70c2 813e
00000030: d1c3 b23e aea2 1dbf 6926 163e dc43 eb3e
00000040: 165f 13be 6101 06be 5272 84bb 5c49 d5bd
00000050: fb4a 2b3f d39a 16bf a9b1 053f b06a 93be
00000060: 6d6b b1be 1233 0abf 439c 3ebe 9c5e 9bbf
00000070: b4bf 113d 547f 1fbd 0410 603e accb bc3e
00000080: 7d6e fd3e 8174 a4bd 2b6d 47bd 4142 353f
00000090: 0e82 f6be 68db 003f 6a00 8bbe 38bd 1c3f
000000a0: 1fb2 e2be 4c8e b3be 4a48 313d 18bc c0be
000000b0: 8208 2b3e 0813 e1be c887 ad3e 4a31 04be
000000c0: fbda a1be dc0a 173e 3c3d 83be eab4 35bf
000000d0: c28e d73e f710 67bf 748e 11bd 169f 713f
000000e0: be39 593f 72ce d3be 4c37 18bf 4018 03bf
000000f0: 7e4d 193f a5c1 283c 5737 c23c 7b9c 833e
00000100: f358 563e 2edc a2bb 1a07 753e a699 c0be
00000110: 352b 373f b427 5fbc ccda fb3e ec19 4ebe
00000120: 1749 533f 8171 fa3e afd7 003f 1812 9a3c
00000130: 9998 a13d 0642 24bf f395 2c3e 6de7 87bc
00000140: 53ae 2fbf 3791 debe fc60 04bf 8db6 8a3c
00000150: 7e43 89be a89c bfbc 3dff c3be 8689 a2be
00000160: 0a34 ea3e 254e 0dbe 79c2 c5be ad28 11be
00000170: abd6 0b3f 2928 0b3e f705 a13e a787 3b3a
00000180: 11fe 7a3d 6551 5cbe 511a 17be 9777 363f
00000190: 8433 9abe 06ab dd3d f7fd 933e 4dc8 a13e
000001a0: 2f2d 233e 8366 2abf 433c 453f f39d 32bd
000001b0: 871b 9c3d 5526 59be b826 1ebe 8908 043e
000001c0: 09ce b83e e066 9e3e dc33 94bd 4e46 4fbe
000001d0: 70ff 1bbe d5ed 20be 608c be3e 8db8 7abe
000001e0: eb08 333c c2e6 e53d 8db6 bf3e 2bcc 813e
000001f0: 2853 5ebf ee16 dabe 8ca7 043e 6bd8 04bf
00000200: 1944 36bf 3c7a 46bf 85dd 5d3f cc67 8abe
00000210: 0c3c f43d e773 71be ab38 a1be 1942 9d3d
00000220: 964d 34bf b550 32bf 116c 90bd cd7c 133f
00000230: 2913 343d c445 27be bc1b 2ebb 50f4 8dbc
00000240: 236e 57bf 7e8d a43e 87f0 ae3e 4278 0c3e
00000250: 29b7 c7be 2cd5 11bf f971 12bf 1388 31bd
00000260: cb5e 673f e102 f13e 0c4b 823d 4bf1 4cbd
00000270: 762c 8a3f d83c c93e acf6 89bf 30b2 c4be
00000280: 1487 9abd e532 bb3e b072 8c3e 2479 4e3f
00000290: 45df 55be 3791 293f 6adc 42bf 030e c4be
000002a0: 5455 b5be 3e36 0c3f b4cd b5be 1d4a e9be
000002b0: 72d6 803d 2017 63be 966a 4fbe 12b5 4c3f
000002c0: 7969 82be 3a0e 913d af16 45be 6350 8d3b
000002d0: 1049 2abe 99bd 1a3f 7e2f 9b3e ad25 563e
000002e0: fb93 2bbe 93f8 513f 4c1f 913e d8b4 ef3e
000002f0: e133 0cbf b339 e73e 354d 36be ea4b 26be
00000300: eb01 d8bd 5e2c d93d a71b 23bf d2cf 4cbe
00000310: 2cad 813d 21ce 0cbe f6f3 f8bd 9012 3a3f
00000320: 1983 50bc 7e63 39be c8c6 e93e 997e 82bc
00000330: c68d 7dbd 2133 443e 5b4c 50bd 76be 293d
00000340: 3204 8fbe 5507 873d ad6d ea3d f3d7 92be
00000350: ad85 1ebe 9899 57be a4e1 c5be f3e3 a63e
00000360: c490 e33e ad7a 3c3f f057 493f 1681 47bd
00000370: 9fb4 483e 183f 263f e781 923e df42 41bf
00000380: 33f5 a33e 6f32 5e3f 4691 823d 1147 0d3e
00000390: bf8c aa3d e24d f13e 41be 18be 87bf 05be
000003a0: 4dd5 83bd 8fce 093f 3d48 d1be 08fd 6c3e
000003b0: 5caf e2bc f0ec 2dbe 3683 163d 854c 073f
000003c0: 7553 42be a302 85be 8419 943e c4f8 98be
000003d0: bf1c 8cbe 7799 103f 6b4f dbbe f330 eb3e
000003e0: 8872 21bf 46a0 9c3e 3cfb 3a3e 7362 413f
000003f0: f426 633e 2b2f a4bd 9598 a8bc d8f6 8dbc

network_body._body_endoder.seq_layers.0.bias f4 [128]
-0.0016959622 -0.0022158485 0.0021255852 0.003531187 0.0036269322 0.00403517 -0.001668582 -0.0026847126
0.0006243157 -0.0023213685 0.002906347 0.0031097962 -0.0061729564 -0.0043084226 -0.0035631426 0.0006240193
-2.5044172e-05 0.006423127 -0.003837401 -0.0021466727 -0.002755861 0.0034534414 -0.0022951355 -0.0030378527
-0.0007587367 -0.0012930202 0.003919864 0.0050394456 -0.0038043994 0.0039621675 -0.0006362647 0.00544855
0.00083049166 0.004155652 0.003826158 0.0009997882 0.0035709054 -0.0013758859 -0.0028716184 0.003130342
0.0017557482 0.0016452587 0.004998962 -0.00203459 -0.003855406 -0.0018180833 0.0020713094 -0.004360508
0.001696989 0.00044768432 0.0025910905 -0.004052431 -0.0034652324 -0.0022958533 0.002933121 0.003416491
0.004040564 0.003305906 0.002766661 0.0042556087 -0.0035588848 -0.002336703 -0.0015595517 -0.003121448
-0.0037185664 0.0014284228 0.0046768086 -0.0027971417 -0.0027111946 -0.0039596176 0.0025907403 0.0005778384
-0.0027344816 -0.003511186 -0.0034703654 0.0039886762 -0.0003684361 0.0013220619 -0.0010805707 0.0052061705
0.0022762157 -0.002736244 0.0027749606 0.0032985006 -0.0021625601 0.0029185193 0.00081749813 0.00019940473
-0.0029294859 -0.005357405 -0.0012238316 -0.00043719634 0.0029316908 0.004699335 0.0041328226 -0.0031463068
0.005266868 9.9351586e-05 0.004690892 0.0024574485 0.0032105008 0.0030077405 -0.003599973 -0.0019067641
-0.005469813 0.0053105163 0.0068892394 -0.0038564627 0.0039793984 0.008247835 -0.0048883823 0.0015233606
0.0063277963 0.0060254266 0.0025598786 0.0036692359 -0.0016057857 -0.003632157 0.0014245576 0.004005055
0.0001892155 0.0026585872 -0.0011744705 0.0006117553 -0.0024590038 -0.0032139996 0.0011544159 0.0049917856
00000000: 0c4b deba c537 11bb 674d 0b3b 7d6b 673b
00000010: d3b1 6d3b 7639 843b 52b4 daba 01f2 2fbb
00000020: 1ea9 233a 1a22 18bb 6978 3e3b b9cd 4b3b
00000030: 8346 cabb ab2d 8dbb 9d83 69bb 3a95 233a
00000040: f315 d2b7 1879 d23b e87c 7bbb 31af 0cbb
00000050: ad9b 34bb 2253 623b fc69 16bb b616 47bb
00000060: f5e5 46ba 8f7a a9ba 3472 803b ef21 a53b
00000070: 3b53 79bb 12d5 813b 00cb 26ba c089 b23b
00000080: 5ab5 593a 232c 883b 47c0 7a3b 530b 833a
00000090: da05 6a3b 1257 b4ba c331 3cbb 6d26 4d3b
000000a0: 2221 e63a b9a5 d73a 55ce a33b c256 05bb
000000b0: fbaa 7cbb c14c eeba cebe 073b 98e2 8ebb
000000c0: 816d de3a 2cb7 ea39 49cf 293b 41ca 84bb
000000d0: f418 63bb 0776 16bb 9b39 403b 35e7 5f3b
000000e0: b566 843b e6a7 583b df50 353b a272 8b3b
000000f0: 2e3c 69bb 5f23 19bb df69 ccba 3591 4cbb
00000100: 31b3 73bb ea39 bb3a ea3f 993b 4050 37bb
00000110: 4cae 31bb aebf 81bb 69c9 293b 147a 173a
00000120: fd34 33bb ed1b 66bb 126f 63bb 71b3 823b
00000130: a82a c1b9 0949 ad3a f0a1 8dba 8698 aa3b
00000140: 902c 153b 8e52 33bb 1ddc 353b a82b 583b
00000150: bdb9 0dbb a144 3f3b 5f4d 563a 4d17 5139
00000160: 9efc 3fbb 2c8d afbb f968 a0ba 8037 e5b9
00000170: 9c21 403b e1fc 993b a16c 873b 4532 4ebb
00000180: b195 ac3b fa5a d038 0eb6 993b 250d 213b
00000190: 4467 523b 831d 453b 86ed 6bbb 63ec f9ba
000001a0: 1e3c b3bb d703 ae3b 21bf e13b b5bc 7cbb
000001b0: 9d65 823b ed21 073c b92e a0bb 80ab c73a
000001c0: 6759 cf3b f170 c53b a3c3 273b 9077 703b
000001d0: 3a79 d2ba 7c09 6ebb 39b8 ba3a d63c 833b
000001e0: 2668 4639 b13b 2e3b b1f0 99ba 345e 203a
000001f0: 3d27 21bb f7a1 52bb c54f 973a 2292 a33b

network_body._body_endoder.seq_layers.2.weight f4 [128, 128]
-0.12005601 0.1291576 0.13680921 0.015250657 -0.057630733 0.14276604 0.059385356 0.15371454
-0.0075792563 -0.078234345 -0.05040553 -0.13352124 -0.021248484 0.09365735 -0.043182865 0.040317513
-0.01294541 0.049758222 0.027206706 -0.053413104 -0.14828993 0.1986906 0.021955485 -0.1948543
0.15943353 0.00941043 0.0044831987 0.08081298 0.0058725206 -0.14203185 -0.17831554 -0.099749126
0.022343695 0.029660987 -0.19678073 -0.03413725 0.025298709 -0.06923772 0.058792684 -0.13835895
-0.11540402 0.07789171 -0.096273735 -0.09409068 -0.064939305 -0.079480715 -0.038400177 -0.0019077756
0.01011061 0.06208975 -0.08220543 -0.13040137 -0.06306848 -0.03773636 0.104951024 -0.07528737
-0.037183825 -0.0033664943 0.06725395 0.032763574 0.07485287 -0.051164128 -0.10369099 0.059984434
-0.061001163 -0.052223913 -0.14609903 0.09497803 -0.094399564 0.11509656 -0.10703125 0.320725
0.12417755 -0.066964984 0.05007505 -0.0338391 -0.052544076 -0.0629467 -0.030963618 0.16626191
-0.05996807 0.106593065 -0.09082463 0.060667742 0.036730707 0.17341273 0.115311705 -0.15700649
-0.006493543 -0.07864239 0.11015342 0.082756005 -0.023130754 0.050615475 -0.06038439 0.15058154
-0.0907511 0.0061366465 0.01456757 0.057008833 -0.16710274 -0.11634193 0.11553764 0.05340236
-0.01468762 -0.041120715 -0.05060737 0.0042767655 -0.16672684 0.030448986 0.016561378 -0.071512975
0.1494998 0.020234643 -0.031285543 -0.06657157 0.15412286 0.018262561 -0.13000324 -0.17216872
0.020404106 -0.017783567 0.053799387 0.041412096 0.06406509 -0.041234642 0.012535346 0.07777624
0.035188347 0.046828613 0.19233255 -0.08746684 -0.094018124 -0.042276744 0.09308954 -0.013457114
-0.012263598 -0.024005886 0.105298266 -0.085273646 -0.04838575 0.17565288 0.1612048 -0.04305174
-0.17535464 -0.15840991 0.14989364 -0.11963154 0.12665667 0.0987132 0.16533116 0.0071449196
0.09160614 0.1895934 0.05909615 0.061611626 0.03125993 -0.025137393 -0.11736693 0.023736073
0.13896777 -0.031237025 0.21943955 0.0023603437 -0.07100826 -0.07580159 -0.06596148 0.107573904
0.10611633 0.07995315 0.117883615 -0.0726126 0.14624447 0.07619222 0.1693641 -0.03785723
0.2258316 0.04920976 0.025287738 -0.12879768 0.038135845 -0.060127325 -0.028564436 -0.016896097
-0.11644585 -0.054314807 0.031767655 0.06630319 -0.04533817 0.10107183 -0.053383302 0.11148962
0.12808147 -0.13639218 -0.021262562 0.10074699 0.13457769 0.03986954 0.1063789 -0.22019622
0.05697426 0.014478524 -0.16504073 0.03419693 -0.019906968 -0.046404924 -0.073117405 0.09996784
-0.043637734 -0.00037033838 0.122270666 -0.025928453 -0.00017307798 0.12476016 -0.0095859235 0.14135875
-0.11216221 0.0019498186 -0.12439394 -0.081344604 0.01967705 0.131088 0.13974099 0.075995624
-0.0018211242 -0.010897074 0.00086467306 -0.009114798 0.032721065 0.15482223 -0.03484576 -0.097119845
0.14981982 0.04009449 -0.05222532 0.019284297 0.00565228 0.037391715 -0.014986062 -0.006905306
0.049903683 -0.02826572 0.10433544 0.11287583 -0.18573183 -0.06355036 0.095135 -0.11441731
-0.028657082 0.051106863 0.16531302 0.09328248 -0.0766739 -0.022935925 -0.06311877 0.092824295
00000000: eddf f5bd e441 043e b717 0c3e e4dd 793c
00000010: 340e 6cbd 4331 123e 0f3e 733d 5867 1d3e
00000020: 695b f8bb 5439 a0bd 0776 4ebd cbb9 08be
00000030: 4d11 aebc 6dcf bf3d 84e0 30bd fa23 253d
00000040: fc18 54bc 47cf 4b3d 99e0 de3c b3c7 5abd
00000050: 51d9 17be 8c75 4b3e fddb b33c e387 47be
00000060: 8b42 233e 342e 1a3c cce7 923b 4781 a53d
00000070: 466e c03b cc70 11be 5998 36be 4549 ccbd
00000080: 200a b73c 99fb f23c e380 49be 80d3 0bbd
00000090: 3d3f cf3c 81cc 8dbd 99d0 703d f8ad 0dbe
000000a0: f158 ecbd b085 9f3d 2a2b c5bd 9db2 c0bd
000000b0: e6fe 84bd c9c6 a2bd 8149 1dbd 540e faba
000000c0: f9a6 253c d251 7e3d 525b a8bd f087 05be
000000d0: 0c2a 81bd 7191 1abd 90f0 d63d 4430 9abd
000000e0: 114e 18bd 67a0 5cbb 70bc 893d 1933 063d
000000f0: 764c 993d 7a91 51bd f15b d4bd 3db2 753d
00000100: 5bdc 79bd bee8 55bd fc9a 15be d783 c23d
00000110: 8f54 c1bd bfb7 eb3d 3333 dbbd 1136 a43e
00000120: cd50 fe3d f024 89bd 7f1b 4d3d de9a 0abd
00000130: 7538 57bd 33ea 80bd 6aa7 fdbc 9040 2a3e
00000140: 14a1 75bd 774d da3d 4302 babd bd7e 783d
00000150: f072 163d 1b93 313e 8b28 ec3d 4fc6 20be
00000160: c9c7 d4bb 430f a1bd 1e98 e13d fb7b a93d
00000170: b57c bdbc 2c52 4f3d 9f55 77bd 0c32 1a3e
00000180: b6db b9bd ec15 c93b d1ac 6e3c 1882 693d
00000190: fb1c 2bbe ae44 eebd 009f ec3d 6fbc 5a3d
000001a0: 58a4 70bc 326e 28bd ac49 4fbd 1c24 8c3b
000001b0: 71ba 2abe 2770 f93c baab 873c 6575 92bd
000001c0: 7a16 193e 1fc3 a53c 4525 00bd ad56 88bd
000001d0: 62d2 1d3e 5e9b 953c 921f 05be ff4c 30be
000001e0: 8326 a73c d8ae 91bc bf5c 5c3d bb9f 293d
000001f0: 8f34 833d a8e5 28bd 0d61 4d3c 2649 9f3d
00000200: a821 103d 5ccf 3f3d d3f2 443e d121 b3bd
00000210: 938c c0bd 612a 2dbd bba5 be3d 3a7b 5cbc
00000220: 42ed 48bc fea7 c4bc 9ea6 d73d f3a3 aebd
00000230: 2330 46bd 59de 333e df12 253e 0557 30bd
00000240: 2b90 33be 3536 22be b87d 193e 6101 f5bd
00000250: 49b2 013e 252a ca3d 924c 293e ee1f ea3b
00000260: 009c bb3d c624 423e ce0e 723d 795c 7c3d
00000270: 6a0a 003d efec cdbc 135e f0bd 2772 c23c
00000280: 914d 0e3e cae4 ffbc c3b4 603e ffaf 1a3b
00000290: c76c 91bd dd3d 9bbd d016 87bd b54f dc3d
000002a0: 8553 d93d 7abe a33d f76c f13d eab5 94bd
000002b0: 1cc1 153e ab0a 9c3d c86d 2d3e 2f10 1bbd
000002c0: 6640 673e 2c90 493d 3b28 cf3c 8ae3 03be
000002d0: 5534 1c3d 1248 76bd f7ff e9bc af69 8abc
000002e0: 297b eebd 3479 5ebd cd1e 023d f8c9 873d
000002f0: 84b4 39bd bffe ce3d 73a8 5abd ab54 e43d
00000300: ca27 033e 64aa 0bbe d32e aebc 7054 ce3d
00000310: bcce 093e 3e4e 233d 2edd d93d 1e7b 61be
00000320: d75d 693d 5537 6d3c 7000 29be 1412 0c3d
00000330: f013 a3bc 1713 3ebd 94be 95bd f0bb cc3d
00000340: 7bbd 32bd fa29 c2b9 0b69 fa3d e867 d4bc
00000350: 447c 35b9 4182 ff3d 470e 1dbc 59c0 103e
00000360: 4db5 e5bd 0e91 ff3a 40c2 febd 0098 a6bd
00000370: c431 a13c ef3b 063e 4318 0f3e 98a3 9b3d
00000380: cab2 eeba a489 32bc 3aab 623a 3c56 15bc
00000390: 8606 063d b889 1e3e 6dba 0ebd c5e6 c6bd
000003a0: 5e6a 193e 1f3a 243d 38ea 55bd 1afa 9d3c
000003b0: c336 b93b 0e28 193d 1a88 75bc e845 e2bb
000003c0: ce67 4c3d 838d e7bc d2ad d53d 712b e73d
000003d0: 7c30 3ebe b126 82bd 24d6 c23d 9f53 eabd
000003e0: 42c2 eabc 6e55 513d d147 293e e30a bf3d
000003f0: 3507 9dbd 1fe4 bbbc 6a44 81bd aa1a be3d

network_body._body_endoder.seq_layers.2.bias f4 [128]
-0.0036013275 -0.0030946208 0.0023830328 0.004258948 0.0050006723 0.0030804512 0.0042536035 0.0025476299
0.004076885 -0.0035032523 -0.0037996403 0.0036648496 -0.0015109299 0.0044237403 -0.0028415525 0.0027091175
0.0028323848 0.0035510794 0.0039774175 0.0038991796 0.002301151 -0.003446184 -0.003444731 0.004051123
-0.0024847162 0.0040157605 0.00026280447 0.0039006006 0.0024250501 0.0047373488 -0.0010317271 0.0033609367
-0.0036985832 -0.004133323 -0.0041877953 -0.0040287813 0.002971715 -0.0014831575 0.0031850522 -0.0039093695
0.0042955684 -0.0031984055 -0.0033602195 0.0031673175 -0.0036197358 -0.00417364 0.0048011844 -0.0031927007
-0.0028354623 0.004356477 0.0031278918 -0.0023485413 -0.0027482405 0.0045019146 -0.0030058527 0.0017620834
-0.0025126443 -0.0025973103 0.0029304319 0.0031080127 -0.0027478475 0.0031977026 0.0027932932 -0.0028097783
0.0026486162 0.0030835029 0.0043103257 -0.004306253 -0.0033952969 -0.0028069194 -0.0026994136 0.0027568832
-0.0034448905 0.0025886598 0.0020464528 -0.0029207086 -0.004181359 -0.003991506 -0.0036691346 -0.0003568597
-0.003915341 0.0022132676 -0.0035227414 -0.0031308809 -0.003181542 0.0038170435 0.0037575092 0.004121626
0.0021110016 0.0033584626 -0.0028419974 -0.0032783197 -0.0021268912 0.0034856463 0.004497126 0.0041892175
-0.0026223944 0.003044733 -0.0035067112 -0.0038185916 0.00405182 -0.003029164 0.004117209 0.002442666
-0.00237176 -0.0046228208 -0.0034946091 0.0017821187 -0.0037831122 -0.0025298025 0.003383698 -0.002948354
-0.0031432856 -0.0035180692 0.004798842 -0.0037184076 0.0024905296 -0.0032785807 0.004534033 0.0021520392
0.004891547 -0.0034614864 -0.0031050134 0.004580086 -0.004101454 0.0029009758 -0.0027775753 0.0030297686
00000000: 4004 6cbb 1fcf 4abb a82c 1c3b a58e 8b3b
00000010: aedc a33b 65e1 493b d061 8b3b 23f6 263b
00000020: 6497 853b d296 65bb 6303 79bb f92d 703b
00000030: 650a c6ba 06f5 903b 5739 3abb 738b 313b
00000040: 889f 393b 3ab9 683b ff54 823b 6189 7f3b
00000050: e8ce 163b 60d9 61bb ffc0 61bb 48bf 843b
00000060: 9fd6 22bb a496 833b 05c9 8939 38a1 7f3b
00000070: 97ed 1e3b c33b 9b3b 043b 87ba 2943 5c3b
00000080: ee63 72bb d470 87bb c639 89bb de03 84bb
00000090: 1bc1 423b 8266 c2ba 4fbc 503b 2b1a 80bb
000000a0: d7c1 8c3b 579c 51bb 2137 5cbb c592 4f3b
000000b0: 1739 6dbb 08c3 88bb 4153 9d3b a13c 51bb
000000c0: 2ad3 39bb c7c0 8e3b 51fd 4c3b fce9 19bb
000000d0: d31b 34bb cc84 933b d7fd 44bb b5f5 e63a
000000e0: 2dab 24bb a337 2abb 7d0c 403b cdaf 4b3b
000000f0: 3b15 34bb 8c90 513b af0f 373b 4224 38bb
00000100: 6894 2d3b 9814 4a3b a23d 8d3b 781b 8dbb
00000110: a183 5ebb 4bf4 37bb a5e8 30bb d3ac 343b
00000120: acc3 61bb 81a6 293b c81d 063b 5c69 3fbb
00000130: c803 89bb 2ecb 82bb dd75 70bb e618 bbb9
00000140: 434c 80bb 780c 113b cbdd 66bb 772f 4dbb
00000150: 6b81 50bb 5d27 7a3b 8b40 763b b40e 873b
00000160: bb58 0a3b a719 5c3b ce40 3abb 14d9 56bb
00000170: 5063 0bbb 716f 643b a15c 933b b445 893b
00000180: 7adc 2bbb 258a 473b dad0 65bb 5641 7abb
00000190: 21c5 843b f084 46bb a7e9 863b 2315 203b
000001a0: 886f 1bbb 087b 97bb d005 65bb fb95 e93a
000001b0: 17ee 77bb 0bcb 25bb 08c1 5d3b 2c39 41bb
000001c0: 95ff 4dbb 688f 66bb 9b3f 9d3b 87b0 73bb
000001d0: 2738 233b 75dd 56bb 3a92 943b 3a09 0d3b
000001e0: 4549 a03b 1bda 62bb 7b7d 4bbb 8c14 963b
000001f0: 7d65 86bb 4c1e 3e3b fb07 36bb 158f 463b

action_model._continuous_distribution.mu.weight f4 [1, 128]
-0.03361598 -0.0037499398 0.0057548564 0.012486721 0.006986829 0.0342949 0.018459456 0.026799591
0.009465013 -0.024755038 -0.0036760985 0.042278823 -0.012242858 0.0019460804 -0.004714789 0.023487616
0.028641978 0.008007102 0.030412942 0.0077005844 0.0052202614 -0.004813478 -0.004771062 0.015572052
-0.017761998 0.021283837 -0.0007802637 0.043082323 0.009647923 0.0050781104 -0.014884443 0.02942716
-0.0012392517 -0.0093095 -0.0021872022 -0.012511946 0.019233394 -0.0303085 0.005102778 -0.0047217375
0.016921775 -0.03875418 -0.022940813 0.008779487 -0.037586257 -0.0070888023 0.03749928 -0.034032684
-0.020285139 0.0050208056 0.02961069 -0.011596201 -0.027003704 0.015399376 -0.015429897 0.0036820539
-0.03688452 -0.010870378 0.024076572 0.020163279 -0.014816338 0.0021445684 0.016146177 -0.018994652
0.025178585 0.052553914 0.034504835 -0.024919499 -0.021038178 -0.015713833 -0.042707954 0.018076526
-0.0048533534 0.01839536 0.016760435 -0.0117362635 -0.005288656 -0.0037870181 -0.04155949 -0.00073061534
-0.0036644023 0.021561429 -0.007753862 -0.012750859 -0.008099254 0.01993331 0.019061297 0.0012094339
0.0030206323 0.007903421 -0.00912796 -0.0046922336 -0.020958869 0.0064629666 0.02366246 0.012890352
-0.016105339 0.00991608 -0.027573688 -0.009392773 0.008125708 -0.011270702 0.019599658 0.0054878253
-0.007027544 -0.005062091 -0.008310258 0.0021488662 -0.015704626 -0.031036645 0.010325948 -0.047118682
-0.0015402836 -0.004511182 0.0026755724 -0.0010769392 0.0036526148 -0.0014683233 0.01131242 0.006217893
0.02196495 -0.007940285 -0.0070381872 0.019190587 -0.012028881 0.018427605 -0.023027975 0.025416477
00000000: e9b0 09bd 8dc1 75bb 3c93 bc3b 1b95 4c3c
00000010: c5f1 e43b cf78 0c3d 4938 973c d18a db3c
00000020: 2413 1b3c 14cb cabc b3ea 70bb 8f2c 2d3d
00000030: 4596 48bc 9f13 ff3a 847e 9abb 1a69 c03c
00000040: 95a2 ea3c 3830 033c 9024 f93c 2f55 fc3b
00000050: ba0e ab3b 61ba 9dbb 9256 9cbb ec21 7f3c
00000060: 9c81 91bc 715b ae3c 9c8a 4cba 1777 303d
00000070: 5212 1e3c 4766 a63b e1dd 73bc 3a11 f13c
00000080: 636e a2ba e086 18bc 2a57 0fbb e8fe 4cbc
00000090: 5a8f 9d3c 8849 f8bc 3435 a73b ceb8 9abb
000000a0: 899f 8a3c b4bc 1ebd 5fee bbbc d6d7 0f3c
000000b0: 0cf4 19bd 2f49 e8bb d898 193d db65 0bbd
000000c0: 052d a6bc 9285 a43b 1e92 f23c fefd 3dbc
000000d0: df36 ddbc aa4d 7c3c aecd 7cbc 9d4e 713b
000000e0: 3914 17bd ac19 32bc 3b3c c53c 762d a53c
000000f0: 3ac0 72bc e38b 0c3b fd44 843c ac9a 9bbc
00000100: 5243 ce3c c642 573d f154 0d3d fa23 ccbc
00000110: 4258 acbc 4cba 80bc 89ee 2ebd 3915 943c
00000120: e108 9fbb deb1 963c 2e4d 893c 7549 40bc
00000130: 764c adbb 9f2f 78bb 493a 2abd c486 3fba
00000140: 7826 70bb 98a1 b03c 1c14 febb fbe8 50bc
00000150: bcb2 04bc 2e4b a33c 7026 9c3c de85 9e3a
00000160: cdf5 453b 5a7d 013c 708d 15bc 4fc1 99bb
00000170: efb1 abbc 4bc7 d33b c6d7 c13c 0e32 533c
00000180: 58ef 83bc 0e77 223c 37e2 e1bc 25e4 19bc
00000190: b121 053c c0a8 38bc 768f a03c 37d3 b33b
000001a0: 5047 e6bb e6df a5bb c027 08bc fed3 0c3b
000001b0: fda6 80bc 9040 febc 2a2e 293c 85ff 40bd
000001c0: 57e3 c9ba 8ad2 93bb a858 2f3b 1528 8dba
000001d0: b560 6f3b c174 c0ba ba57 393c 78bf cb3b
000001e0: d7ef b33c f817 02bc 98a0 e6bb 9435 9d3c
000001f0: c914 45bc 7df5 963c 2aa5 bcbc 3736 d03c

action_model._discrete_distribution.branches.0.weight f4 [1, 128]
0.0053189686 -0.0027949752 -0.007548692 -0.0049303127 0.014892841 -0.0024846522 -0.006375 -0.005485234
0.004468684 0.014608416 0.008989676 -0.008276041 0.006116515 0.0069229356 0.00079097104 0.0011284421
0.0052854586 0.009064319 0.008024461 -0.008462853 0.011799279 -0.0007594411 -0.006706466 -0.010331966
0.0145371035 0.005944292 0.018447958 0.006767593 -0.0055246353 -0.0022697335 -0.0013046584 0.000336745
0.014155537 0.007907283 -0.016973 -0.011407709 -0.0036974729 0.0053368434 0.0071298885 -0.002338129
0.00528118 0.009654442 0.00034081104 -0.0036676936 -0.0023381447 -0.01173364 0.007743911 -0.013586751
-0.008790644 -0.0012501351 -0.0145908985 0.00032439228 0.01329388 0.001704849 0.005270796 0.006367735
-0.0031162405 -0.004957584 0.0012464029 -0.013512038 0.010716173 0.00839856 -0.00077888614 0.0062573715
0.0031355775 0.012681599 -0.0009305898 -0.0016524394 -0.0005663767 -0.0045871935 -0.006325406 -5.4477267e-05
0.012783468 0.010925646 0.0038229097 -0.013112883 5.48659e-05 0.0060528633 -0.009604304 -0.011862381
0.01066685 0.0034277164 -0.0051269173 -0.0022693144 -0.0005015214 -0.001311521 0.012735523 0.009002844
-0.014032967 -0.0019202557 0.008796623 -0.008621723 0.008996341 -0.0034121168 -0.0021948232 0.01782324
-0.0067414157 -0.0024887323 -0.0030618906 -0.013060981 0.012255596 -0.008557668 -0.007830783 -0.00044238992
0.0037304107 -0.0067732516 0.015199192 0.007201361 -0.0012166908 -0.0053454987 0.021428576 -0.005681042
0.0004311709 0.0025721474 -0.0029977984 -0.014176011 0.008449635 0.008396055 -0.004024116 0.008380657
-0.00033045263 0.0053762062 -0.009949367 -0.003567675 -0.009906244 0.0057817353 -0.014734501 -0.001706896
00000000: be4a ae3b e72b 37bb 055b f7bb 768e a1bb
00000010: 1a01 743c 8cd5 22bb 60e5 d0bb 7abd b3bb
00000020: 0a6e 923b 2358 6f3c 6f49 133c 3b98 07bc
00000030: 0c6d c83b cbd9 e23b 2b59 4f3a 3ce8 933a
00000040: a431 ad3b 8282 143c 0779 033c c7a7 0abc
00000050: c351 413c 3b15 47ba eac1 dbbb 6847 29bc
00000060: 082d 6e3c 56c8 c23b 2c20 973c afc2 dd3b
00000070: 0008 b5bb cfbf 14bb 1201 abba 268d b039
00000080: a0ec 673c 8c8d 013c f60a 8bbc 66e7 3abc
00000090: 4d51 72bb b0e0 ae3b d7a1 e93b 4c3b 19bb
000000a0: c00d ad3b aa2d 1e3c e2ae b239 b05d 70bb
000000b0: 8f3b 19bb 743e 40bc a2c0 fd3b f79a 5ebc
000000c0: a206 10bc 93db a3ba aa0e 6fbc 3213 aa39
000000d0: 93ce 593c 3d75 df3a a4b6 ac3b 6fa8 d03b
000000e0: d739 4cbb 3b73 a2bb 575e a33a 9861 5dbc
000000f0: e392 2f3c 1d9a 093c 2a2e 4cba a30a cd3b
00000100: 437e 4d3b 7bc6 4f3c d3f2 73ba aa96 d8ba
00000110: e678 14ba 2b50 96bb 5a45 cfbb 857e 64b8
00000120: c071 513c 7b01 333c c889 7a3b 6bd7 56bc
00000130: d01f 6638 1957 c63b 5f5b 1dbc 6f5a 42bc
00000140: 03c4 2e3c 8aa3 603b b3ff a7bb c7b8 14bb
00000150: 8878 03ba 58e7 abba a8a8 503c aa80 133c
00000160: 88ea 65bc 17b1 fbba b61f 103c 2142 0dbc
00000170: 6465 133c d29d 5fbb 06d7 0fbb 0b02 923c
00000180: 18e7 dcbb 001a 23bb 00aa 48bb bafd 55bc
00000190: b2cb 483c 7635 0cbc af4c 00bc 92f0 e7b9
000001a0: e879 743b 27f2 ddbb 0806 793c 65f9 eb3b
000001b0: 5e79 9fba 4b29 afbb fb8a af3c 0928 babb
000001c0: c70e e239 7991 283b b676 44bb 8042 68bc
000001d0: 5670 0a3c 9b8f 093c bbdc 83bb 064f 093c
000001e0: 9a40 adb9 e32a b03b ab02 23bc a7cf 69bb
000001f0: cd4d 22bc b674 bd3b fa68 71bc edb9 dfba

exp_avg f4 [128, 6]
1.3299325e-05 -1.2372361e-05 0.0 1.6592552e-05 -9.299387e-08 0.0 -3.8596177e-06 6.478135e-06
0.0 -2.1738738e-06 -1.7326794e-08 0.0 -1.5021001e-05 2.2118006e-06 0.0 2.130897e-06
1.01989706e-07 0.0 -3.2996868e-05 1.5101634e-05 0.0 9.789144e-06 -8.870963e-09 0.0
3.1810607e-05 9.680499e-06 0.0 -2.712588e-06 6.9899215e-08 0.0 -6.770633e-07 -2.9408788e-05
0.0 1.2446608e-05 2.129437e-07 0.0 6.442076e-06 -9.634265e-06 0.0 -1.3780076e-05
4.1831868e-08 0.0 3.142812e-05 -2.5195304e-05 0.0 -4.0109535e-06 -1.8823705e-08 0.0
-4.0745654e-05 1.48050985e-05 0.0 -3.8573307e-07 -1.2378294e-07 0.0 1.8641531e-05 -4.4313674e-05
0.0 -9.450832e-08 8.511986e-09 0.0 -3.8436654e-05 7.791943e-06 0.0 -2.730474e-05
1.9318526e-07 0.0 1.4095118e-05 1.2498481e-05 0.0 2.5363717e-05 1.4862927e-07 0.0
7.005497e-05 4.3335378e-05 0.0 6.0152495e-05 -6.9857884e-07 0.0 4.4898807e-05 -1.3214011e-05
0.0 -1.0324966e-06 -3.972318e-07 0.0 4.6087105e-05 1.56951e-05 0.0 -8.636888e-06
-4.7040075e-08 0.0 -2.0833584e-05 2.3804982e-05 0.0 -6.8582185e-06 -6.711117e-08 0.0
3.8533006e-05 -2.3157803e-05 0.0 3.7043334e-05 6.945548e-09 0.0 -5.0076662e-05 -3.4228387e-06
0.0 1.6487635e-07 3.9878321e-07 0.0 3.4507484e-05 1.3318026e-05 0.0 4.1953672e-07
-8.113647e-08 0.0 1.890681e-05 1.9872967e-05 0.0 3.851545e-05 -2.1440137e-08 0.0
4.4467768e-05 -8.721842e-06 0.0 3.3208606e-05 -1.2786401e-07 0.0 -2.8118777e-05 7.364011e-05
0.0 7.697385e-05 2.5416568e-07 0.0 3.990885e-05 -3.1737318e-06 0.0 6.381536e-05
-1.6666122e-07 0.0 8.0004625e-05 4.550125e-05 0.0 8.720974e-06 -3.8397467e-08 0.0
9.7150034e-05 9.704764e-06 0.0 1.0516764e-05 3.8060713e-07 0.0 8.2994186e-05 -8.1697945e-06
0.0 -9.0575195e-06 1.2055752e-07 0.0 1.5997034e-07 -2.7154329e-06 0.0 -5.749295e-05
4.4520533e-07 0.0 -9.8179684e-05 -4.9186354e-05 0.0 -9.06153e-05 3.1819772e-07 0.0
2.1961727e-05 1.3598941e-05 0.0 -9.28464e-06 -9.856262e-08 0.0 -8.552497e-05 -2.0774865e-05
0.0 -3.9764913e-05 7.313755e-09 0.0 1.3925846e-05 2.0899526e-05 0.0 2.4641864e-05
-5.8253775e-09 0.0 -6.0569142e-05 -1.742375e-05 0.0 -4.4482855e-05 2.6264513e-07 0.0
-6.7173755e-06 -7.8134735e-06 0.0 6.844391e-06 -4.1696293e-08 0.0 -2.90242e-05 -2.9156593e-06
0.0 -1.2775154e-06 4.1844512e-08 0.0 -7.511104e-05 -2.410082e-06 0.0 -3.0656138e-05
1.0387113e-07 0.0 2.1683525e-05 1.8013468e-05 0.0 6.611767e-06 3.732236e-08 0.0
-6.0556707e-05 -1.9738322e-06 0.0 -1.0341009e-05 1.2200186e-08 0.0 2.6399139e-05 -1.5176079e-06
0.0 2.4311576e-06 -1.4110707e-08 0.0 6.5477645e-05 -1.2452687e-05 0.0 2.3936394e-05
7.769134e-08 0.0 -1.1455176e-05 1.9237945e-05 0.0 6.7655483e-06 1.7968361e-08 0.0
-6.404314e-05 5.0056256e-05 0.0 2.2207632e-05 -1.191443e-07 0.0 -8.8403394e-05 -2.494935e-05
0.0 -6.213096e-05 -8.5919524e-08 0.0 -1.4461342e-05 -4.7607755e-06 0.0 -4.0435907e-06
00000000: 2a20 5f37 e392 4fb7 0000 0000 3c30 8b37
00000010: ecb3 c7b3 0000 0000 dd81 81b6 c25e d936
00000020: 0000 0000 dee2 11b6 06d6 94b2 0000 0000
00000030: b502 7cb7 726e 1436 0000 0000 8800 0f36
00000040: 6f05 db33 0000 0000 1e66 0ab8 065d 7d37
00000050: 0000 0000 0e3c 2437 e866 18b2 0000 0000
00000060: 616c 0538 6d69 2237 0000 0000 e809 36b6
00000070: 801b 9633 0000 0000 70bf 35b5 e4b2 f6b7
00000080: 0000 0000 c6d1 5037 85a5 6434 0000 0000
00000090: 0329 d836 daa2 21b7 0000 0000 fa30 67b7
000000a0: a0aa 3333 0000 0000 b0d1 0338 815a d3b7
000000b0: 0000 0000 d495 86b6 c4b1 a1b2 0000 0000
000000c0: 50e6 2ab8 6a63 7837 0000 0000 c016 cfb4
000000d0: 32e9 04b4 0000 0000 6260 9c37 72dd 39b8
000000e0: 0000 0000 80f4 cab3 1c3c 1232 0000 0000
000000f0: 0b37 21b8 24ba 0237 0000 0000 7c0c e5b7
00000100: 5c6e 4f34 0000 0000 127a 6c37 91b0 5137
00000110: 0000 0000 2bc4 d437 e796 1f34 0000 0000
00000120: 7aea 9238 02c3 3538 0000 0000 404c 7c38
00000130: f985 3bb5 0000 0000 ba51 3c38 bfb1 5db7
00000140: 0000 0000 5094 8ab5 1f43 d5b4 0000 0000
00000150: a74d 4138 f8a8 8337 0000 0000 27e7 10b7
00000160: 1c09 4ab3 0000 0000 c8c3 aeb7 cfb0 c737
00000170: 0000 0000 a61f e6b6 c21e 90b3 0000 0000
00000180: 809e 2138 0143 c2b7 0000 0000 fa5e 1b38
00000190: b0a5 ee31 0000 0000 6809 52b8 ecb3 65b6
000001a0: 0000 0000 de08 3134 5918 d634 0000 0000
000001b0: 21bc 1038 7c70 5f37 0000 0000 b03c e134
000001c0: 3f3d aeb3 0000 0000 119a 9e37 dfb4 a637
000001d0: 0000 0000 a68b 2138 5c2b b8b2 0000 0000
000001e0: e782 3a38 0754 12b7 0000 0000 7849 0b38
000001f0: fe4a 09b4 0000 0000 9de0 ebb7 3c6f 9a38
00000200: 0000 0000 056d a138 4474 8834 0000 0000
00000210: cd63 2738 4cfc 54b6 0000 0000 9cd4 8538
00000220: 7df3 32b4 0000 0000 28c8 a738 98d8 3e38
00000230: 0000 0000 4c50 1237 76ea 24b3 0000 0000
00000240: 07bd cb38 a5d1 2237 0000 0000 2871 3037
00000250: 3f56 cc34 0000 0000 2a0d ae38 0011 09b7
00000260: 0000 0000 c0f5 17b7 9972 0134 0000 0000
00000270: 50c4 2b34 c83a 36b6 0000 0000 9624 71b8
00000280: 8e04 ef34 0000 0000 d1e5 cdb8 724d 4eb8
00000290: 0000 0000 b808 beb8 c3d4 aa34 0000 0000
000002a0: 733a b837 0227 6437 0000 0000 3ac5 1bb7
000002b0: 60a9 d3b3 0000 0000 de5b b3b8 af45 aeb7
000002c0: 0000 0000 40c9 26b8 784c fb31 0000 0000
000002d0: 0ea3 6937 6451 af37 0000 0000 00b6 ce37
000002e0: 9028 c8b1 0000 0000 9f0b 7eb8 3829 92b7
000002f0: 0000 0000 1a93 3ab8 ac01 8d34 0000 0000
00000300: d165 e1b6 9d16 03b7 0000 0000 dfa8 e536
00000310: 8f15 33b3 0000 0000 ff78 f3b7 a5aa 43b6
00000320: 0000 0000 1877 abb5 87b8 3333 0000 0000
00000330: ef84 9db8 e5bc 21b6 0000 0000 c794 00b8
00000340: c20f df33 0000 0000 04e5 b537 a11b 9737
00000350: 0000 0000 a5da dd36 5e4c 2033 0000 0000
00000360: 45fe 7db8 2e76 04b6 0000 0000 4c7e 2db7
00000370: fc98 5132 0000 0000 b873 dd37 9cb0 cbb5
00000380: 0000 0000 f826 2336 8c6b 72b2 0000 0000
00000390: 0b51 8938 e2eb 50b7 0000 0000 04cb c837
000003a0: 44d7 a633 0000 0000 9b2f 40b7 2c61 a137
000003b0: 0000 0000 9e03 e336 d858 9a32 0000 0000
000003c0: e64e 86b8 7ff3 5138 0000 0000 874a ba37
000003d0: 46dc ffb3 0000 0000 3665 b9b8 524a d1b7
000003e0: 0000 0000 4e4c 82b8 c282 b8b3 0000 0000
000003f0: fe9e 72b7 c0be 9fb6 0000 0000 2eae 87b6

exp_avg_sq f4 [128, 6]
4.775434e-09 5.91976e-09 0.0 5.180407e-09 6.96765e-13 0.0 1.3593515e-09 1.0111172e-09
0.0 7.471584e-10 1.3962595e-13 0.0 1.7536527e-09 2.0436572e-09 0.0 2.5808562e-09
3.8588636e-13 0.0 1.577453e-09 1.6023416e-09 0.0 9.809427e-10 1.807052e-13 0.0
5.1046314e-09 1.0418616e-08 0.0 8.400822e-09 1.0500358e-12 0.0 9.792896e-10 1.3273274e-09
0.0 1.45123e-09 1.2734961e-13 0.0 9.581191e-10 6.750773e-10 0.0 6.0629374e-10
6.7745106e-14 0.0 7.872897e-09 1.1099234e-08 0.0 7.1782007e-09 1.6814847e-12 0.0
1.017076e-08 4.9359588e-09 0.0 2.244555e-09 6.0813393e-13 0.0 8.453627e-09 4.652478e-09
0.0 1.0022731e-08 9.982715e-13 0.0 2.4502391e-09 3.7627768e-09 0.0 4.2925326e-09
5.4078096e-13 0.0 4.286519e-09 6.6044885e-09 0.0 4.746905e-09 7.7760243e-13 0.0
9.884111e-09 1.9773761e-08 0.0 1.1820092e-08 2.5570655e-12 0.0 4.0262066e-08 6.130482e-08
0.0 4.5804224e-08 9.317266e-12 0.0 6.943623e-09 1.0282756e-08 0.0 4.8186215e-09
1.7696976e-12 0.0 5.8221232e-09 4.7227835e-09 0.0 3.1037248e-09 6.4868174e-13 0.0
2.4702682e-09 4.4664303e-09 0.0 5.2774207e-09 4.688136e-13 0.0 9.148093e-09 1.1974784e-08
0.0 7.776813e-09 1.9348008e-12 0.0 1.1891463e-09 2.2001203e-09 0.0 1.0518704e-09
4.1093702e-13 0.0 2.9991258e-09 2.8560738e-09 0.0 2.4182836e-09 3.3861154e-13 0.0
6.713471e-09 8.619968e-09 0.0 7.253136e-09 1.0747214e-12 0.0 1.6559365e-08 2.5098604e-08
0.0 1.1379601e-08 3.2573456e-12 0.0 8.440197e-09 1.2413552e-08 0.0 1.0982126e-08
1.5923264e-12 0.0 1.6686768e-08 1.2814157e-08 0.0 7.2070527e-09 1.4101501e-12 0.0
3.4624346e-08 2.1647843e-08 0.0 1.3296146e-08 3.0223293e-12 0.0 1.7593742e-08 1.43527386e-08
0.0 7.812076e-09 2.0508395e-12 0.0 1.6395669e-08 1.740275e-08 0.0 1.703135e-08
2.109219e-12 0.0 1.2992453e-08 1.6439497e-08 0.0 1.2489694e-08 1.4285615e-12 0.0
4.0636112e-09 3.0498495e-09 0.0 2.1897724e-09 4.57187e-13 0.0 1.2354905e-08 1.2750114e-08
0.0 9.128491e-09 1.5746763e-12 0.0 1.0401386e-08 6.8929857e-09 0.0 5.9272054e-09
5.870743e-13 0.0 4.7345776e-09 6.694497e-09 0.0 4.3286135e-09 7.1955484e-13 0.0
5.977825e-10 8.401061e-10 0.0 6.425414e-10 1.4515181e-13 0.0 1.811102e-09 1.4919539e-09
0.0 2.0922157e-09 2.4734563e-13 0.0 1.4364187e-08 1.6172285e-08 0.0 1.1071296e-08
2.3581944e-12 0.0 1.3004566e-09 8.440179e-10 0.0 2.592118e-09 1.0216859e-13 0.0
1.802264e-09 1.2529053e-09 0.0 9.158594e-10 1.7181302e-13 0.0 8.0451795e-10 1.6643418e-09
0.0 1.4754715e-09 1.9589793e-13 0.0 8.322686e-09 6.6058226e-09 0.0 6.1151817e-09
8.612868e-13 0.0 3.456718e-09 4.4204165e-09 0.0 5.8978054e-09 7.730965e-13 0.0
2.4907006e-08 1.7686743e-08 0.0 1.31114515e-08 2.8906794e-12 0.0 3.2602674e-08 2.3602905e-08
0.0 2.2292987e-08 3.0108901e-12 0.0 2.5702542e-09 4.669271e-09 0.0 3.1288718e-09
00000000: 2915 a431 c266 cb31 0000 0000 58ff b131
00000010: 361f 442b 0000 0000 eed3 ba30 86f7 8a30
00000020: 0000 0000 9960 4d30 7134 1d2a 0000 0000
00000030: 2b05 f130 6670 0c31 0000 0000 e75a 3131
00000040: 163c d92a 0000 0000 b1cd d830 6239 dc30
00000050: 0000 0000 dad1 8630 ba74 4b2a 0000 0000
00000060: d064 af31 8ffd 3232 0000 0000 3553 1032
00000070: 87c7 932b 0000 0000 b197 8630 2e6d b630
00000080: 0000 0000 9e74 c730 0762 0f2a 0000 0000
00000090: d2ae 8330 5890 3930 0000 0000 21a8 2630
000000a0: 658c 9829 0000 0000 5e41 0732 f3ae 3e32
000000b0: 0000 0000 1fa4 f631 dfa5 ec2b 0000 0000
000000c0: 7abb 2e32 2799 a931 0000 0000 a13e 1a31
000000d0: ab2c 2b2b 0000 0000 723b 1132 a1db 9f31
000000e0: 0000 0000 7030 2c32 857e 8c2b 0000 0000
000000f0: 1061 2831 bc49 8131 0000 0000 847d 9331
00000100: 6037 182b 0000 0000 9f48 9331 b2ed e231
00000110: 0000 0000 381a a331 29e0 5a2b 0000 0000
00000120: c8ce 2932 f6da a932 0000 0000 5011 4b32
00000130: ffef 332c 0000 0000 9cec 2c33 aea6 8333
00000140: 0000 0000 47ba 4433 3ce9 232d 0000 0000
00000150: c194 ee31 0aa8 3032 0000 0000 0b91 a531
00000160: 1310 f92b 0000 0000 f00b c831 0b46 a231
00000170: 0000 0000 4e49 5531 7296 362b 0000 0000
00000180: 6bc1 2931 2377 9931 0000 0000 af54 b531
00000190: 94f5 032b 0000 0000 bd29 1d32 a8b9 4d32
000001a0: 0000 0000 c99a 0532 4626 082c 0000 0000
000001b0: 5e6f a330 ed30 1731 0000 0000 6691 9030
000001c0: 4456 e72a 0000 0000 2e19 4e31 9544 4431
000001d0: 0000 0000 e52e 2631 119f be2a 0000 0000
000001e0: 51ac e631 0517 1432 0000 0000 4237 f931
000001f0: eb40 972b 0000 0000 6e3e 8e32 6a98 d732
00000200: 0000 0000 0480 4332 1f37 652c 0000 0000
00000210: 6100 1132 6143 5532 0000 0000 e7ab 3c32
00000220: 9b19 e02b 0000 0000 9756 8f32 4225 5c32
00000230: 0000 0000 e8a1 f731 0376 c62b 0000 0000
00000240: dfb5 1433 1cf4 b932 0000 0000 126d 6432
00000250: 72ad 542c 0000 0000 0c21 9732 0394 7632
00000260: 0000 0000 e035 0632 a450 102c 0000 0000
00000270: 75d6 8c32 0d7d 9532 0000 0000 564c 9232
00000280: 506c 142c 0000 0000 6a35 5f32 d636 8d32
00000290: 0000 0000 4192 5632 5a0d c92b 0000 0000
000002a0: e79f 8b31 8595 5131 0000 0000 e27a 1631
000002b0: ccaf 002b 0000 0000 7241 5432 980b 5b32
000002c0: 0000 0000 87d3 1c32 b19d dd2b 0000 0000
000002d0: c8b1 3232 58d7 ec31 0000 0000 40a8 cb31
000002e0: 293f 252b 0000 0000 c9ad a231 6b05 e631
000002f0: 0000 0000 e3ba 9431 6489 4a2b 0000 0000
00000300: 3451 2430 36ed 6630 0000 0000 d59e 3030
00000310: 296d 232a 0000 0000 7dea f830 760d cd30
00000320: 0000 0000 a6c6 0f31 433e 8b2a 0000 0000
00000330: 5dc6 7632 3beb 8a32 0000 0000 1334 3e32
00000340: 74f1 252c 0000 0000 c0bb b230 7b00 6830
00000350: 0000 0000 0621 3231 2f10 e629 0000 0000
00000360: 87b3 f730 b032 ac30 0000 0000 e0bf 7b30
00000370: bb71 412a 0000 0000 eb24 5d30 d2be e430
00000380: 0000 0000 8ac9 ca30 bc8f 5c2a 0000 0000
00000390: 8ffb 0e32 6ef9 e231 0000 0000 b51d d231
000003a0: 416e 722b 0000 0000 3a8b 6d31 65e2 9731
000003b0: 0000 0000 a5a5 ca31 799b 592b 0000 0000
000003c0: 16f3 d532 8fed 9732 0000 0000 c640 6132
000003d0: da69 4b2c 0000 0000 0507 0c33 56bf ca32
000003e0: 0000 0000 cc7e bf32 60df 532c 0000 0000
000003f0: 64a0 3031 586f a031 0000 0000 b203 5731

exp_avg f4 [128]
1.051064e-05 1.9583667e-06 -1.1527396e-05 1.0026538e-06 -7.900349e-06 -2.4067998e-05 -4.72805e-06 2.1275291e-06
1.3990591e-05 -9.620649e-07 -2.1834785e-05 -1.6798826e-05 7.895698e-05 4.4897104e-05 5.316716e-06 7.5852577e-06
-7.850358e-07 -4.5072524e-05 9.170455e-06 2.423274e-06 1.4451836e-05 -2.8727101e-05 1.8836916e-05 4.3398327e-06
-4.301819e-05 -1.3626066e-05 -5.0319406e-05 -3.5964298e-05 1.1140039e-05 -8.2660654e-07 6.584132e-07 -2.9685496e-05
4.7127296e-06 -4.729468e-06 -1.174004e-05 -4.21836e-06 -1.3789036e-06 1.5948639e-06 -8.781087e-06 -2.0308644e-06
1.3466348e-05 9.711077e-06 -1.858747e-05 -2.744604e-06 7.889308e-06 -1.1563434e-05 -2.2145302e-06 3.1566917e-05
-1.5717855e-05 6.6495636e-07 -1.7496282e-05 2.754272e-05 2.1236687e-05 1.9995785e-05 -2.9315606e-07 1.153011e-06
-2.2515469e-05 -9.4887e-06 -1.7203274e-05 -2.7200118e-05 9.436707e-06 -4.1469093e-08 4.77079e-06 1.1096608e-05
2.936555e-05 4.441005e-06 -6.531592e-05 -6.0556545e-06 3.2121811e-06 1.1090033e-06 -1.4035254e-05 4.884858e-06
9.031042e-06 6.4929523e-06 1.3237821e-05 -1.8676668e-05 -1.4102833e-06 -6.192782e-06 1.3667625e-05 -1.6439426e-05
2.7434887e-06 1.2816663e-05 -1.9322038e-05 -1.5641097e-05 -5.683273e-06 -2.1264555e-05 -1.3442387e-05 -1.8851484e-05
2.1193526e-05 1.3698355e-05 9.047851e-06 -5.7396537e-05 -1.1609044e-05 -1.4001117e-05 -1.6859507e-05 1.535832e-05
-1.2984022e-05 -1.6498403e-05 -1.5035767e-05 -5.7559296e-06 -1.264767e-05 -5.200586e-06 4.6037912e-06 -1.5330943e-05
1.0322008e-05 -3.8910875e-05 -3.672529e-05 4.4116227e-06 -8.878402e-06 -2.8620158e-05 1.8108729e-05 1.32645255e-08
-9.228584e-06 -1.575568e-05 -9.612435e-06 -1.1687405e-05 -3.4559982e-06 -9.2481287e-07 6.3264306e-06 -4.188203e-05
-8.643388e-06 -6.522183e-05 -4.9705695e-06 1.130873e-05 5.886889e-06 1.0480258e-05 -6.1932633e-06 -2.1342326e-05
00000000: db56 3037 7c6c 0336 ca65 41b7 ec92 8635
00000010: be8b 04b7 a2e5 c9b7 a4a5 9eb6 acc6 0e36
00000020: 21b9 6a37 4c20 81b5 d829 b7b7 34eb 8cb7
00000030: b595 a538 e64f 3c38 3e66 b236 de84 fe36
00000040: 40bb 52b5 410c 3db8 ceda 1937 889f 2236
00000050: 2a76 7237 fbfa f0b7 f803 9e37 e19e 9136
00000060: 6e6e 34b8 829b 64b7 0d0e 53b8 5fd8 16b8
00000070: 1ae6 3a37 f8e3 5db5 d0bd 3035 1e05 f9b7
00000080: 0a22 9e36 d2b1 9eb6 16f7 44b7 708b 8db6
00000090: c412 b9b5 1b0f d635 7b52 13b7 fc49 08b6
000000a0: 86ed 6137 c2ec 2237 4aec 9bb7 f02f 38b6
000000b0: 525c 0437 9200 42b7 579d 14b6 b866 0438
000000c0: d6d9 83b7 747f 3235 fbc4 92b7 8a0b e737
000000d0: 7025 b237 9fbc a737 1063 9db4 28c1 9a35
000000e0: 9adf bcb7 a831 1fb7 c04f 90b7 cf2b e4b7
000000f0: 5952 1e37 c01b 32b3 c614 a036 922b 3a37
00000100: 0a56 f637 f103 9536 38fa 88b8 ad31 cbb6
00000110: da90 5736 10d9 9435 f578 6bb7 9ce8 a336
00000120: 0884 1737 09de d936 0218 5e37 d7ab 9cb7
00000130: f748 bdb5 98cb cfb6 014e 6537 66e7 89b7
00000140: c71c 3836 2607 5737 c315 a2b7 0035 83b7
00000150: f1b2 beb6 4961 b2b7 9d86 61b7 4123 9eb7
00000160: c0c8 b137 fdd1 6537 39cc 1737 10bd 70b8
00000170: 77c4 42b7 57e6 6ab7 846d 8db7 bed5 8037
00000180: f3d5 59b7 0d66 8ab7 2142 7cb7 0f23 c1b6
00000190: 5431 54b7 b280 aeb6 447a 9a36 f39a 80b7
000001a0: b02c 2d37 3c34 23b8 7b09 1ab8 8d07 9436
000001b0: 72f4 14b7 5215 f0b7 33e8 9737 00e2 6332
000001c0: 77d4 1ab7 112b 84b7 1845 21b7 0615 44b7
000001d0: 99ed 67b6 a840 78b5 a047 d436 7daa 2fb8
000001e0: 1203 11b7 b4c7 88b8 dec8 a6b6 a0ba 3d37
000001f0: fe87 c536 5ed4 2f37 bacf cfb6 4c08 b3b7

exp_avg_sq f4 [128]
5.572818e-09 8.167417e-10 2.7931695e-09 1.5180647e-09 8.387763e-09 1.0131239e-09 5.445753e-10 1.1792726e-08
4.665862e-09 6.835529e-09 4.345661e-09 6.251295e-09 1.787236e-08 6.534765e-08 1.34800064e-08 4.1962296e-09
3.874257e-09 1.4760073e-08 2.8799378e-09 2.2632425e-09 8.3296126e-09 2.6023512e-08 1.12812675e-08 1.092414e-08
2.5519032e-08 1.7511155e-08 1.4655358e-08 1.2787605e-08 3.584371e-09 1.2427202e-08 4.4755777e-09 5.920029e-09
1.0671003e-09 2.0930282e-09 1.7881232e-08 7.660997e-10 1.5527608e-09 1.795553e-09 6.6564754e-09 5.198387e-09
2.2021426e-08 2.2442672e-08 5.227154e-09 1.8734576e-09 8.288187e-09 1.368328e-09 2.0046949e-09 8.150979e-09
6.2044085e-09 4.6904725e-10 7.0685324e-09 1.05570885e-08 6.2075416e-09 4.364453e-09 3.434545e-09 6.4956435e-10
1.1067754e-09 5.9640937e-09 8.865804e-09 4.3978963e-09 3.690021e-09 7.491291e-09 6.898876e-08 6.2789605e-09
1.8678505e-09 2.1772386e-09 3.250527e-08 3.3839147e-09 8.323573e-09 9.599972e-10 1.8695652e-09 1.5214384e-09
9.1534885e-10 2.199706e-10 3.536773e-09 2.4684308e-08 7.610092e-10 3.8423874e-08 7.682048e-10 4.1414556e-09
4.4167803e-09 1.5161264e-08 9.6761e-09 1.1402405e-08 7.2247417e-09 9.519512e-09 1.5590952e-09 6.1019882e-09
2.1449676e-08 7.336962e-10 7.2762935e-10 4.8718767e-09 7.0715067e-10 5.2702576e-09 8.346177e-09 1.3476966e-08
2.5706128e-09 1.7978731e-09 8.800801e-10 4.2192452e-10 6.4709765e-10 1.9087164e-08 2.827898e-09 1.657065e-08
7.955434e-10 1.7663625e-08 3.4785963e-09 2.1378521e-09 2.0121345e-09 2.0186788e-09 1.7967143e-09 6.2004863e-09
5.1135296e-10 2.083868e-09 1.6380955e-09 8.74844e-09 8.475113e-09 6.8438233e-10 1.0977914e-09 4.6913096e-09
4.445918e-09 1.8134159e-08 9.9671515e-09 3.5652112e-09 2.6183988e-08 1.8846744e-09 4.1449724e-09 5.7364393e-09
00000000: 077b bf31 1681 6030 f5f1 3f31 27a4 d030
00000010: c619 1032 213e 8b30 14b1 1530 f598 4a32
00000020: 5b51 a031 f3dd ea31 d750 9531 f9ca d631
00000030: bc85 9932 4055 8c33 b295 6732 6d2e 9031
00000040: 531e 8531 7d93 7d32 67e8 4531 6287 1b31
00000050: 061a 0f32 4f8a df32 8acf 4132 e0ac 3b32
00000060: f234 db32 706b 9632 f2c6 7b32 7bb0 5b32
00000070: ec50 7631 6a7f 5532 99c7 9931 2069 cb31
00000080: 41a9 9230 f1d4 0f31 3f99 9932 7995 5230
00000090: ea68 d530 68c7 f630 fab6 e431 7f9d b231
000000a0: a129 bd32 f5c7 c032 889a b331 37be 0031
000000b0: d563 0e32 c30f bc30 f7c2 0931 6208 0c32
000000c0: 8e2e d531 44ee 0030 78df f231 915e 3532
000000d0: 1d4a d531 22f6 9531 2805 6c31 078d 3230
000000e0: 331d 9830 b9ec cc31 3850 1832 4e1c 9731
000000f0: 8993 7d31 0cb3 0032 f926 9433 52be d731
00000100: 935b 0031 639e 1531 ec9b 0b33 758a 6831
00000110: 76ff 0e32 e6f0 8330 bd79 0031 db1a d130
00000120: f39b 7b30 38dc 712f 920b 7331 5e09 d432
00000130: 432f 5130 7f07 2533 9b29 5330 a14c 8e31
00000140: 69c2 9731 f93b 8232 f03b 2632 4fe4 4332
00000150: 803d f831 428b 2332 c947 d630 a8a9 d131
00000160: 5640 b832 48ad 4930 5d02 4830 7b65 a731
00000170: 4e61 4230 ad15 b531 e062 0f32 5388 6732
00000180: b3a6 3031 0919 f730 22ea 7130 99f4 e72f
00000190: 73df 3130 1ef5 a332 e854 4231 3f57 8e32
000001a0: 64ad 5a30 b9ba 9732 1d0c 6f31 7ee9 1231
000001b0: d845 0a31 f9b8 0a31 44f0 f630 0e0c d531
000001c0: 448f 0c30 cb33 0f31 5d23 e130 0c4c 1632
000001d0: f199 1132 201f 3c30 1ae1 9630 3231 a131
000001e0: b5c2 9831 70c5 9b32 ff3b 2b32 dcff 7431
000001f0: 33eb e032 8b83 0131 906b 8e31 411a c531
