results/SliderBehavior-jgf-001/SliderBehavior/checkpoint.pt (torch, 448098 bytes, 41 tensors)

network_body.observation_encoder.processors.0.normalizer.running_mean f4 [6]
-0.028027833 -3.3995519 0.0 -0.15415952 -5.9998975 0.0
00000000: a09a e5bc 4292 59c0 0000 0000 fedb 1dbe
00000010: 29ff bfc0 0000 0000

network_body.observation_encoder.processors.0.normalizer.running_variance f4 [6]
608513.5 193753.1 1.0 180757.31 37.000374 1.0
00000000: 1890 1449 4636 3d48 0000 803f 5485 3048
00000010: 6200 1442 0000 803f

network_body.processors.0.normalizer.running_mean f4 [6]
-0.028027833 -3.3995519 0.0 -0.15415952 -5.9998975 0.0
00000000: a09a e5bc 4292 59c0 0000 0000 fedb 1dbe
00000010: 29ff bfc0 0000 0000

network_body.processors.0.normalizer.running_variance f4 [6]
608513.5 193753.1 1.0 180757.31 37.000374 1.0
00000000: 1890 1449 4636 3d48 0000 803f 5485 3048
00000010: 6200 1442 0000 803f

network_body._body_endoder.seq_layers.0.weight f4 [128, 6]
-0.3500173 -1.0198894 -0.3535053 0.049313806 0.13637252 0.36146972 -0.3943062 -0.022192648
-0.51364195 -0.6032935 0.22732691 0.060446855 0.07303431 0.15874636 0.5005671 0.036802467
-0.45517278 0.15297098 0.1474658 0.4495077 1.0133004 -0.12138583 -0.13270539 -0.13508408
0.13275611 -0.13478515 -0.53351897 0.23768523 0.30120516 0.5109388 -0.2272433 -0.52309966
-0.57394254 -0.20785385 0.2808528 -0.2198627 -0.038255744 -0.14234653 -0.2654771 -0.033663847
-0.66169214 0.14780529 0.79009193 0.30339366 0.3405618 0.11604533 0.52542317 -0.38641304
-0.30582204 -1.2433363 0.10948758 0.079357244 0.0075399335 0.5610958 -0.4381026 -0.14677915
0.1952319 -0.67936856 0.19887753 0.43833914 -0.25414336 0.030130878 -0.46832585 -0.3931813
-0.56440055 0.14979321 -0.5697638 -0.5430159 0.49809775 0.43336907 -0.052098233 0.52118546
-0.56519395 -0.22664253 0.44201216 0.054628514 -0.26226646 0.72396433 -0.66303116 0.14625444
0.38775665 0.5102287 -0.042906675 0.25951958 0.030884337 0.04815815 0.69913757 0.20493124
0.73801994 -0.0043755877 -0.25919616 0.11512682 -0.22279936 -0.11095286 0.54344 0.3665775
-0.46278518 0.07488213 0.18530996 -0.59042275 -0.074106894 0.2279203 -0.33492875 0.5552839
-0.015783077 -0.9248662 -0.09646843 -0.29530698 -0.46347514 -0.21447267 -0.6470464 0.04878062
-0.1989978 0.008825943 0.09883183 -0.30772343 0.7846804 -0.03248838 -0.809773 0.177212
-0.20440169 0.29320315 0.7214115 -0.12875171 0.7661563 -0.5127994 -0.22378695 -0.29479122
-0.263441 -0.15955608 -0.10904123 -0.73901 0.1852125 0.2747576 -0.31772843 0.14768744
-0.063425414 0.20599443 0.25443673 0.5248262 -0.08639893 0.3690661 1.0832773 -0.5727798
0.25249368 -0.05961751 0.071838826 0.31360075 -0.11968046 0.4961672 0.089283615 -0.44299293
-0.3837148 0.31966344 0.5381473 -0.15959656 0.21694137 0.30924118 -0.45863807 -0.0053335126
0.05282596 -0.1102881 0.2984947 -0.39851746 -0.23760386 -0.7241835 -0.78755105 0.039120212
0.04616914 -0.40810585 -0.36448973 0.22874236 0.010744141 0.017900772 0.3210259 -0.0063103116
-0.2692055 -0.3651259 0.6301692 -0.1005944 0.06787087 0.46280545 0.3393134 -0.05190467
-0.19364831 -0.2771206 0.11876426 -0.07016012 0.36303264 -0.16873774 -0.2829039 0.2375355
-0.37484434 -0.1083076 -0.582364 -0.22132427 0.12868047 -0.04992187 -0.12087389 -0.19611649
-0.85260254 0.40769103 0.20820245 0.60897785 0.22065435 -0.2831102 0.029393557 -0.4483553
0.1291564 -0.87534523 0.15747502 0.5523697 -0.17035896 0.25562304 -0.030058356 -0.99333125
0.53200424 0.040051628 0.45705044 0.0816429 0.17896889 0.053952735 0.086617075 0.08252168
-0.04019031 0.5022704 0.5467107 0.3079038 0.3974903 -0.34839362 0.42344663 -0.078061774
-0.2570182 -0.49469712 0.14729911 -0.27588767 0.16513595 0.10642835 0.8091905 0.20081915
-0.30231872 0.37281004 -0.7187886 0.025018718 -0.4401538 0.70843893 -0.079045266 -1.1063719
-0.16110475 -0.6072888 -0.31850213 0.39709944 0.81195927 0.26027492 -0.1158483 0.62308925
00000000: 7835 b3be bc8b 82bf a6fe b4be 46fd 493d
00000010: 3da5 0b3e 8f12 b93e 81e2 c9be 5bcd b5bc
00000020: 0a7e 03bf 7171 1abf 63c8 683e 1f97 773d
00000030: 0393 953d 688e 223e 2a25 003f 2fbe 163d
00000040: 680c e9be 6da4 1c3e 4601 173e e025 e63e
00000050: d4b3 813f 2299 f8bd ece3 07be 7b53 0abe
00000060: 38f1 073e 1e05 0abe b394 08bf c263 733e
00000070: 9037 9a3e e3cc 023f 78b2 68be dce9 05bf
00000080: e6ed 12bf a4d7 54be f0cb 8f3e b023 61be
00000090: 0eb2 1cbd 4ac3 11be 9dec 87be 1ae3 09bd
000000a0: a864 29bf 455a 173e 7743 4a3f 6a56 9b3e
000000b0: 1e5e ae3e 2da9 ed3d 2282 063f eed7 c5be
000000c0: b594 9cbe a525 9fbf 063b e03d 0d86 a23d
000000d0: 8c11 f73b f9a3 0f3f fc4e e0be 464d 16be
000000e0: dfea 473e 19eb 2dbf 8da6 4b3e fd6d e03e
000000f0: 141f 82be 08d5 f63c 68c8 efbe 0f4f c9be
00000100: 8e7c 10bf 6463 193e 0adc 11bf 1703 0bbf
00000110: ab06 ff3e 8de2 dd3e f564 55bd 696c 053f
00000120: 8db0 10bf fb14 68be 6b4f e23e 26c2 5f3d
00000130: ca47 86be ba55 393f 69bc 29bf b9c3 153e
00000140: 0a88 c63e 599e 023f e9be 2fbd c0df 843e
00000150: 2601 fd3c 7b41 453d aefa 323f 7fd9 513e
00000160: e0ee 3c3f 1761 8fbb 5cb5 84be 9cc7 eb3d
00000170: 8425 64be 413b e3bd e21e 0b3f 0cb0 bb3e
00000180: 2ef2 ecbe cd5b 993d e5c1 3d3e f225 17bf
00000190: 5bc5 97bd f063 693e c87b abbe 1627 0e3f
000001a0: 834b 81bc 08c4 6cbf 3d91 c5bd 7a32 97be
000001b0: 9d4c edbe b99e 5bbe d5a4 25bf 30ce 473d
000001c0: 14c6 4bbe b09a 103c 5868 ca3d ed8d 9dbe
000001d0: d1e0 483f 8912 05bd 494d 4fbf 1077 353e
000001e0: ad4e 51be b91e 963e 6dae 383f 7dd7 03be
000001f0: d222 443f d246 03bf 6828 65be e0ee 96be
00000200: bde1 86be ab62 23be 0251 dfbd c22f 3dbf
00000210: 58a8 3d3e 07ad 8c3e 4dad a2be 603b 173e
00000220: 2fe5 81bd 34f0 523e 8845 823e 035b 063f
00000230: ecf1 b0bd 3bf6 bc3e d5a8 8a3f b2a1 12bf
00000240: da46 813e 7d31 74bd 3c20 933d 4790 a03e
00000250: 071b f5bd a109 fe3e 54da b63d f8cf e2be
00000260: 4476 c4be edaa a33e 05c4 093f 486d 23be
00000270: e125 5e3e dc54 9e3e 9cd2 eabe bfc4 aebb
00000280: 0960 583d bade e1bd 4cd4 983e 7b0a ccbe
00000290: 6d4e 73be 1764 39bf f29c 49bf 843c 203d
000002a0: da1b 3d3d 40f3 d0be 669e babe 703b 6a3e
000002b0: 3208 303c a4a4 923c 825d a43e bbc6 cebb
000002c0: 4ed5 89be c8f1 babe c552 213f 7004 cebd
000002d0: e2ff 8a3d d6f4 ec3e 7cba ad3e fe99 54bd
000002e0: be4b 46be c0e2 8dbe ad3a f33d 1cb0 8fbd
000002f0: 6adf b93e 96c9 2cbe c8d8 90be 823c 733e
00000300: 99eb bfbe 60d0 ddbd cf15 15bf d4a2 62be
00000310: d0c4 033e e07a 4cbd bb8c f7bd c3d2 48be
00000320: 2944 5abf e1bc d03e 0633 553e f9e5 1b3f
00000330: 37f3 613e d2f3 90be c2ca f03c d38e e5be
00000340: 9341 043e a016 60bf 2241 213e 1a68 0d3f
00000350: 9472 2ebe 06e1 823e f13c f6bc f54a 7ebf
00000360: 6e31 083f 2d0d 243d 8402 ea3e 6534 a73d
00000370: 9f43 373e 8bfd 5c3d 4b64 b13d 2001 a93d
00000380: 989e 24bd cb94 003f 3cf5 0b3f 91a5 9d3e
00000390: d983 cb3e a660 b2be ffcd d83e dade 9fbd
000003a0: e497 83be f148 fdbe 94d5 163e 2641 8dbe
000003b0: 6619 293e 1bf7 d93d 1c27 4f3f 89a3 4d3e
000003c0: 85c9 9abe f5e0 be3e 8802 38bf 0ef4 cc3c
000003d0: d75b e1be 415c 353f 7ce2 a1bd 989d 8dbf
000003e0: a5f8 24be 4777 1bbf b612 a3be 9e50 cb3e
000003f0: 90dc 4f3f c142 853e e041 edbd c782 1f3f

network_body._body_endoder.seq_layers.0.bias f4 [128]
-0.0017752247 2.6217765e-05 0.000411804 0.003892744 0.0024317203 0.0037397465 0.0038067857 -0.004003435
-0.0019335864 0.00096541067 0.0042041424 0.0017463686 0.000980829 0.002635088 0.0041215126 -0.0030168234
-0.0019801934 0.0035647794 0.0025217533 0.0045317435 0.002753123 0.0010681798 -0.0020436726 -0.0024357254
-0.0032054323 0.0041805017 -0.004688426 -0.0019016332 -0.0019278001 -0.00096784113 -0.0031474337 -0.0051641194
0.0012888139 0.0027689503 0.00012892773 -0.002456213 0.006387297 -0.0001481727 0.0026236873 0.0054070298
0.0023320962 -0.0037201096 0.008592504 -0.004011377 0.006135244 0.0021865594 -0.00432051 0.004022172
0.00038692114 0.000500149 0.0010681603 0.0022182225 -0.003387231 -0.0035166 -0.0011739495 0.005673023
0.0016138342 -0.0021737856 0.0046778424 0.005671217 -0.0011051263 -0.0045794672 -0.0022164332 0.0047472287
-0.0008243624 0.0015967783 -0.0015394473 0.0012634137 0.0052174088 0.0034541385 -0.0012441076 0.0013993945
0.005018369 -0.0016294023 -0.0014750706 0.005139132 -0.006177497 -0.002502254 -0.0024406628 0.003480038
-0.0026541243 0.0052648913 -0.003094717 -0.0010984122 -0.003632168 0.0019289245 -0.004369686 -0.0003997992
-0.0043490254 -0.004595465 0.0031746728 0.0021820206 0.002202596 -0.0036318142 0.00027062243 0.007516118
-0.0048168674 -0.0036603769 0.0007309773 0.007665065 0.002078939 0.004318668 0.0016878541 -0.0021431386
-0.00057269377 -0.0049760863 0.0008614679 0.0038790172 0.0032180063 0.004033664 -0.0020234184 -0.00087477633
-0.00043478972 -0.0025816765 -0.0025839286 0.00048669384 0.0032110487 -0.0013385363 -0.0045413845 0.0058140247
0.0028371152 0.0053854994 -0.0036290034 0.0021600295 -0.00095566513 0.0012629306 -0.0022811634 -0.0013481147
00000000: a8ae e8ba 39ee db37 66e7 d739 681d 7f3b
00000010: 7f5d 1f3b 8916 753b 447b 793b 3f2f 83bb
00000020: 6570 fdba 9d13 7d3a e7c2 893b 68e6 e43a
00000030: 298f 803a 71b1 2c3b c10d 873b e6b5 45bb
00000040: 22c6 01bb 139f 693b 0044 253b 057f 943b
00000050: bd6d 343b 2b02 8c3a 23ef 05bb b1a0 1fbb
00000060: 3b12 52bb 97fc 883b 5ea1 99bb 3940 f9ba
00000070: 3dae fcba b8b6 7dba 2d45 4ebb c637 a9bb
00000080: 6bed a83a 4777 353b c630 0739 6bf8 20bb
00000090: 884c d13b ce5e 1bb9 2bf2 2b3b 742d b13b
000000a0: 15d6 183b 15cd 73bb 93c7 0c3c df71 83bb
000000b0: 280a c93b 614c 0f3b 1193 8dbb 6dcc 833b
000000c0: addb ca39 6e1c 033a 8301 8c3a 995f 113b
000000d0: 4efc 5dbb c276 66bb 35df 99ba c4e4 b93b
000000e0: 4a87 d33a 1276 0ebb 9648 993b 9ed5 b93b
000000f0: e3d9 90ba 5b0f 96bb 9441 11bb a48e 9b3b
00000100: 061a 58ba fd4a d13a 48c7 c9ba 2199 a53a
00000110: ccf6 aa3b d45e 623b 5311 a3ba e36b b73a
00000120: 2171 a43b ab91 d5ba 2857 c1ba 2a66 a83b
00000130: 9a6c cabb dbfc 23bb 87f3 1fbb 5911 643b
00000140: d1f0 2dbb 1c85 ac3b bcd0 4abb 99f8 8fba
00000150: ab09 6ebb f7d3 fc3a 952f 8fbb 249c d1b9
00000160: 4582 8ebb 8e95 96bb 2c0e 503b 3b00 0f3b
00000170: 6e59 103b bb03 6ebb 54e2 8d39 c549 f63b
00000180: d0d6 9dbb efe2 6fbb 0e9f 3f3a 3a2b fb3b
00000190: cf3e 083b 9d83 8d3b fc3a dd3a e673 0cbb
000001a0: d420 16ba 700e a3bb 22d4 613a 1c37 7e3b
000001b0: 30e5 523b d32c 843b 549b 04bb 3f51 65ba
000001c0: 7df4 e3b9 5831 29bb 2157 29bb f12a ff39
000001d0: 7570 523b d371 afba e5cf 94bb 9383 be3b
000001e0: e5ee 393b d878 b03b 93d4 6dbb 488f 0d3b
000001f0: 9a85 7aba eb88 a53a 927f 15bb 39b3 b0ba

network_body._body_endoder.seq_layers.2.weight f4 [128, 128]
0.025291583 -0.10422295 0.012380055 -0.03184307 -0.049234033 0.049222443 -0.012106482 0.07807956
0.05023958 -0.1413101 0.054198857 0.056359395 0.070374124 0.010526663 -0.0034053258 0.087590754
-0.03868495 -0.03037384 -0.09135758 0.05610758 0.07578905 -0.14258516 -0.10364124 0.046916563
0.007993394 0.060043223 0.06892009 0.03260869 0.036169536 0.0216105 0.011873883 -0.04782877
-0.008853104 0.027136358 0.12090469 0.08574651 0.054202333 0.10596541 0.025659459 0.07758856
-0.12668973 0.03654065 -0.018920474 0.2260191 0.068667844 -0.071494445 -0.17487651 -0.03662184
0.1501379 0.15541768 0.006760905 0.004785919 0.06303173 -0.08837281 0.022731759 -0.07572705
0.0400228 -0.029872622 0.010257068 0.01584571 -0.1786346 -0.057797562 0.005802093 0.073165685
0.103061885 0.09867346 0.13173844 0.09375583 -0.029681671 -0.06306221 0.1337671 0.085175835
0.094206445 0.04680039 -0.014732054 0.034576647 -0.112653255 -0.083140835 -0.05561492 0.103283636
-0.0030912196 0.0754282 -0.1387291 -0.09393192 -0.025227347 0.01174944 0.013789528 0.101379775
-0.07475822 0.095237665 -0.0018680543 -0.01431568 0.0064299153 0.18547517 -0.2910554 -0.032683562
-0.11813972 -0.16200395 -0.029292438 0.052192863 -0.048127692 -0.03860007 0.10372264 0.040350553
0.16990297 0.03434702 0.09637873 0.1495243 -0.053028196 0.00760092 -0.0044169975 0.118976764
-0.005173182 0.046723794 -0.037302665 -0.020079048 -0.016973805 -0.021847017 0.012374152 -0.08025887
-0.08797765 -0.11602116 -0.09638694 -0.047816023 -0.1769803 0.055005886 0.023237448 -0.0065284283
-0.04799225 -0.066982135 -0.11702036 0.091848634 0.2513493 0.16893993 0.05713128 -0.039490692
-0.15249632 0.049930748 0.012231373 -0.19937214 -0.022069182 0.16642135 -0.003923883 -0.08159987
-0.08696146 -0.02651708 -0.13588363 -0.10259523 -0.15526395 0.1372334 0.03186345 -0.03791905
0.08854443 0.031424545 0.039708596 0.09427522 0.08038229 0.11166058 -0.12841251 -0.14069964
-0.061045114 -0.10018431 0.047519173 -0.012896942 0.03206701 -0.044605207 0.01806454 0.040578607
-0.053760212 0.0063142627 -0.12651144 -0.060349543 0.03709419 -0.046995714 0.2912634 -0.02276992
0.054793306 0.014122931 -0.03226959 -0.08982199 -0.12989193 0.032850716 -0.023110442 0.053745702
0.0075203367 -0.12255092 0.05646314 0.075599566 -0.18872492 0.13694057 0.041834675 0.11125086
0.012251686 0.03508159 -0.03629308 -0.096812114 -0.09737199 -0.031750068 0.014508712 -0.12769976
0.031342972 -0.014570403 -0.06363821 -0.09785405 0.025281625 0.1300651 -0.029879408 0.028890608
-0.08412238 -0.036565457 -0.008613116 0.00023574207 -0.061632086 0.073517725 -0.0957938 0.034823038
-0.12236023 0.058624804 -0.19759785 -0.009635683 0.048789714 -0.07678948 0.01786769 -0.116595775
0.17470662 -0.09183527 0.069922805 -0.045676388 0.10069162 0.20695071 0.059998076 -0.028703563
-0.09432264 -0.028560078 0.13244109 -0.14651632 0.007923923 0.024765562 0.067427605 0.13004547
0.0064895554 0.09141829 -0.012175356 0.17324497 -0.034351062 0.059711926 -0.017699732 0.16238837
0.07900155 -0.09411153 -0.090313755 -0.019582765 -0.0135478275 -0.04289277 0.104279734 -0.031102527
00000000: 4b30 cf3c d872 d5bd b7d5 4a3c e16d 02bd
00000010: a0a9 49bd 799d 493d 445a 46bc 2de8 9f3d
00000020: 05c8 4d3d 98b3 10be 9fff 5d3d 1cd9 663d
00000030: 4f20 903d 0678 2c3c e32b 5fbb c862 b33d
00000040: 1c74 1ebd 8fd2 f8bc af19 bbbd 10d1 653d
00000050: 4a37 9b3d d801 12be dc41 d4bd 952b 403d
00000060: b9f6 023c e2ef 753d fa25 8d3d b190 053d
00000070: 8226 143d 8108 b13c ad8a 423c 1ae8 43bd
00000080: 9c0c 11bc 114d de3c e19c f73d de9b af3d
00000090: 4403 5e3d 6504 d93d c933 d23c c0e6 9e3d
000000a0: f4ba 01be a6ab 153d 1cff 9abc 8d71 673e
000000b0: baa1 8c3d ae6b 92bd d412 33be c800 16bd
000000c0: c0bd 193e d025 1f3e 958a dd3b 33d3 9c3b
000000d0: c816 813d cefc b4bd f437 ba3c c916 9bbd
000000e0: f3ee 233d 6eb7 f4bc 430d 283c ddce 813c
000000f0: fdeb 36be 23bd 6cbd 7c1f be3b e4d7 953d
00000100: 1c12 d33d 5015 ca3d 71e6 063e 0e03 c03d
00000110: fa26 f3bc c326 81bd 3efa 083e ab70 ae3d
00000120: 4fef c03d c4b1 3f3d b75e 71bc 3ea0 0d3d
00000130: c0b6 e6bd be45 aabd 78cc 63bd 5f86 d33d
00000140: 0f96 4abb 1a7a 9a3d 000f 0ebe 615f c0bd
00000150: 95a9 cebc b980 403c 79ed 613c 33a0 cf3d
00000160: d61a 99bd f70b c33d 80d9 f4ba 508c 6abc
00000170: 0ab2 d23b 34ed 3d3e 3705 95be 33df 05bd
00000180: 3df3 f1bd 5de4 25be b2f6 efbc 2fc8 553d
00000190: 8b21 45bd 1b1b 1ebd 896c d43d 9f46 253d
000001a0: 0bfb 2d3e 76af 0c3d 3662 c53d e61c 193e
000001b0: 1834 59bd 2311 f93b 76bc 90bb 17aa f33d
000001c0: cc83 a9bb 7361 3f3d aeca 18bd d17c a4bc
000001d0: a60c 8bbc 84f8 b2bc f5bc 4a3c c35e a4bd
000001e0: a02d b4bd 809c edbd 8466 c5bd bcda 43bd
000001f0: 533a 35be da4d 613d 765c be3c 6dec d5bb
00000200: 8693 44bd ee2d 89bd 5fa8 efbd 231b bc3d
00000210: dbb0 803e 97fe 2c3e 7d02 6a3d fec0 21bd
00000220: ff27 1cbe 2f84 4c3d 1966 483c 3628 4cbe
00000230: 6eca b4bc 5c6a 2a3e eb93 80bb d51d a7bd
00000240: da18 b2bd 593a d9bc 1425 0bbe 731d d2bd
00000250: 83fd 1ebe ea86 0c3e 4083 023d 0151 1bbd
00000260: c856 b53d 06b7 003d 7ba5 223d 5e13 c13d
00000270: 789f a43d 4dae e43d 927e 03be 9113 10be
00000280: 710a 7abd 6e2d cdbd 77a3 423d b24d 53bc
00000290: b258 033d f3b3 36bd 16fc 933c c135 263d
000002a0: ab33 5cbd e0e7 ce3b 378c 01be 1531 77bd
000002b0: 14f0 173d 947e 40bd 7a20 953e fc87 babc
000002c0: f26e 603d de63 673c 1e2d 04bd 97f4 b7bd
000002d0: 6402 05be 798e 063d 1c52 bdbc 7424 5c3d
000002e0: 286d f63b fafb fabd e545 673d f2d3 9a3d
000002f0: 1b41 41be 263a 0c3e d65a 2b3d 7ed7 e33d
00000300: 4cbb 483c b7b1 0f3d 0da8 14bd 6e45 c6bd
00000310: f76a c7bd 5c0c 02bd f3b5 6d3c bac3 02be
00000320: 7d61 003d b3b8 6ebc c054 82bd b467 c8bd
00000330: 691b cf3c c92f 053e a9c5 f4bc ffab ec3c
00000340: 5b48 acbd a9c5 15bd 071e 0dbc 8831 7739
00000350: ed71 7cbd 7690 963d 8a2f c4bd 9aa2 0e3d
00000360: 0098 fabd 9020 703d 1757 4abe fcde 1dbc
00000370: b9d7 473d ce43 9dbd 435f 923c c4c9 eebd
00000380: 4be6 323e 2114 bcbd b033 8f3d 2a17 3bbd
00000390: 6837 ce3d e3ea 533e 8bc0 753d bc23 ebbc
000003a0: 3a2c c1bd d3f6 e9bc a39e 073e 6008 16be
000003b0: 58d3 013c 26e1 ca3c 7c17 8a3d a42a 053e
000003c0: 56a6 d43b 8339 bb3d 257b 47bc 2167 313e
000003d0: b3b3 0cbd 7e94 743d 07ff 90bc 2349 263e
000003e0: 91cb a13d 8cbd c0bd 6bf6 b8bd 096c a0bc
000003f0: b5f7 5dbc 54b0 2fbd 9d90 d53d baca febc

network_body._body_endoder.seq_layers.2.bias f4 [128]
0.0043816934 0.0050955974 -0.0035108048 -0.0040855305 0.0036165367 0.0022441393 0.0040655895 0.0062082955
0.004969158 -0.0035776494 -0.0040179025 -0.0039804084 -0.0042741597 0.0029742022 -0.00349479 0.005347276
-0.0038232147 -0.0036832218 -0.0043879454 -0.0050002127 0.00014391613 -0.0032698852 0.005019636 -0.0029842523
-0.0040941047 0.0031247677 0.004376961 0.0052325027 -0.0040410296 -0.00510555 -0.003870634 0.002762305
0.0047569433 0.0037406753 -0.0036348293 0.002858728 0.0053115077 -0.0036066875 0.0042074975 -0.003599587
-0.0018917196 0.005148358 -0.004740069 0.004112528 0.004068159 -0.004353688 0.0031833337 -0.0031264883
-0.0042872224 0.0053592366 0.004044621 0.00405811 -0.003051371 -0.0032937934 -0.0035531553 -0.004228418
0.002069178 0.0010671688 -0.0036789912 0.0034773406 0.005288683 0.0068256906 0.0029438 -0.004273617
0.0033251035 -0.0026616629 -0.0038246238 0.0041130893 -0.0046645855 -0.0052288203 0.003359878 -0.0036221948
0.0018391802 -0.0040912866 -0.0037845366 0.005760563 -0.0024607428 0.0033993328 0.005257358 -0.0018247559
-0.00072596886 0.0044658477 -0.0031891495 -0.0036079949 0.0059901937 -0.0009794009 -0.004275433 0.0036193617
0.0028608853 -0.0036561121 0.005050715 -0.0044985465 0.0035965713 -0.0048857084 -0.0031971363 -0.003245442
0.005094184 0.0032443262 -0.0041196654 -0.004087438 -0.0044277865 0.004128574 -0.0036396666 -0.0045994148
-0.0033755833 0.0054948423 -0.0038049337 -0.0020934225 0.0033297993 -0.0047314316 -0.0039911726 0.005069298
0.0033616934 -0.0034144493 0.0034551867 0.0046384097 -0.004786516 -0.0037898582 0.006087172 0.004463309
0.003926875 -0.004952308 -0.0045799646 0.0040847007 -0.0016998379 -0.0035834066 -0.0036089749 -0.0036963904
00000000: 4f94 8f3b f8f8 a63b 8815 66bb eadf 85bb
00000010: 6b03 6d3b 6912 133b a338 853b f56e cb3b
00000020: 52d4 a23b ff76 6abb 9ca8 83bb 166e 82bb
00000030: 400e 8cbb d5ea 423b d908 65bb 3438 af3b
00000040: e68e 7abb 3562 71bb c1c8 8fbb d3d8 a3bb
00000050: 31e8 1639 924b 56bb c27b a43b 7293 43bb
00000060: d727 86bb e7c8 4c3b 9c6c 8f3b 6a75 ab3b
00000070: 9d6a 84bb 754c a7bb 76aa 7dbb ca07 353b
00000080: 22e0 9b3b 1e26 753b 5136 6ebb 7f59 3b3b
00000090: 280c ae3b 2d5e 6cbb 0cdf 893b 0ce7 6bbb
000000a0: 94f3 f7ba 8fb3 a83b 9552 9bbb 63c2 863b
000000b0: 314e 853b 62a9 8ebb 7a9f 503b c5e5 4cbb
000000c0: d47b 8cbb 899c af3b bd88 843b e5f9 843b
000000d0: 83f9 47bb afdc 57bb 0edc 68bb 8b8e 8abb
000000e0: 0c9b 073b 3ee0 8b3a 3b1b 71bb 18e4 633b
000000f0: b04c ad3b 0baa df3b c5ec 403b b309 8cbb
00000100: fbe9 593b 4b6f 2ebb 8aa6 7abb 18c7 863b
00000110: 61d9 98bb 8656 abbb 6631 5c3b 5862 6dbb
00000120: a610 f13a 3310 86bb fd05 78bb 1bc3 bc3b
00000130: 6a44 21bb 57c7 5e3b ea45 ac3b a62c efba
00000140: f24e 3eba 3f56 923b 0d01 51bb 1c74 6cbb
00000150: 6349 c43b 3e5f 80ba ee18 8cbb d032 6d3b
00000160: b17d 3b3b 629b 6fbb 7880 a53b 8b68 93bb
00000170: 74b4 6b3b 4b18 a0bb 0c87 51bb 7bb1 54bb
00000180: 1ded a63b c39e 543b 42fe 86bb eaef 85bb
00000190: f716 91bb fd48 873b 7987 6ebb b0b6 96bb
000001a0: e438 5dbb 140e b43b 325c 79bb cd31 09bb
000001b0: c338 5a3b 200a 9bbb 62c8 82bb 5b1c a63b
000001c0: db4f 5c3b f4c4 5fbb 6a70 623b cdfd 973b
000001d0: 35d8 9cbb 455f 78bb e676 c73b f340 923b
000001e0: 04ad 803b f846 a2bb 8713 96bb f4d8 853b
000001f0: 18cd deba 96d7 6abb 8d84 6cbb 243f 72bb

action_model._continuous_distribution.mu.weight f4 [1, 128]
-0.01756053 -0.011085753 0.009663533 0.028359476 -0.04520915 -0.0012168529 -0.008439251 -0.012333348
-0.022230284 0.022190696 0.007305104 0.010117247 0.0032973175 -0.05226829 0.0037975255 -0.0028430822
0.004061077 0.0043546697 0.009820536 0.015941089 -0.0020205474 0.010596247 -0.017434312 0.009230886
0.004452366 -0.016901748 -0.011853798 -0.018105622 0.007054383 0.023099888 0.056961317 -0.008987971
-0.007733563 -0.021442832 0.0028052146 -0.026282344 -0.015207295 0.028882775 -0.053542282 0.013688712
-0.0006312665 -0.011171037 0.008851149 -0.011692446 -0.0043370933 0.008142133 -0.022020096 0.013001073
0.03207099 -0.015277819 -0.0018081823 -0.036948994 0.020343546 0.005074038 0.028386591 0.017280288
-0.016380511 0.0013822949 0.012716799 -0.005468631 -0.033964332 -0.0061937743 -0.009310595 0.004329347
-0.027968843 0.027043846 0.003940288 -0.009275502 0.02599581 0.02253618 -0.023717688 0.017708555
-0.0200392 0.015912889 0.013267881 -0.0027747953 0.00025791404 -0.009515157 -0.015019123 -0.0010250709
-0.0018335554 -0.013238754 4.8519112e-05 0.008613492 -0.0081204735 0.00028153014 0.0046214904 -0.022297492
-0.0076675573 0.0072701606 -0.007392159 0.01946528 -0.00891544 0.016052395 0.0029149759 0.017932294
-0.0039602793 -0.019348236 0.013047858 0.015892891 0.020160027 -0.008224488 0.01683643 0.00910985
0.020836309 -0.014765198 0.007866101 -0.0014892597 -0.0080135055 0.0039432924 0.015999781 -0.029627422
-0.006073137 -0.0009383418 -0.000726859 -0.007282873 0.014723446 0.021168856 -0.023026118 -0.016955303
-0.016347613 0.020760518 0.0025244763 -0.03190679 0.0003159917 0.025543103 0.033718888 0.010083488
00000000: 1adb 8fbc 05a1 35bc cc53 1e3c 2252 e83c
00000010: 3b2d 39bd cf7e 9fba c944 0abc d011 4abc
00000020: 491c b6bc 43c9 b53c a75f ef3b cfc2 253c
00000030: cf17 583b 4617 56bd e8df 783b 0153 3abb
00000040: c812 853b 9eb1 8e3b 50e6 203c e396 823c
00000050: 296b 04bb e29b 2d3c 67d2 8ebc 243d 173c
00000060: 27e5 913b 8975 8abc 6f36 42bc 3e52 94bc
00000070: 7428 e73b fa3b bd3c 4550 693d 4842 13bc
00000080: d469 fdbb e1a8 afbc b1d7 373b 124e d7bc
00000090: 0528 79bc 929b ec3c 274f 5bbd 9f46 603c
000000a0: 947b 25ba ba06 37bc 6904 113c ac91 3fbc
000000b0: 2d1e 8ebb 9566 053c 7d63 b4bc 7402 553c
000000c0: df5c 033d d14f 7abc 8800 edba d457 17bd
000000d0: 82a7 a63c 1e44 a63b ff8a e83c 648f 8d3c
000000e0: 6c30 86bc 1f2e b53a 1f5a 503c 3432 b3bb
000000f0: 2f1e 0bbd 25f5 cabb 778b 18bc 32dd 8d3b
00000100: ea1e e5bc 0e8b dd3c 881d 813b 46f8 17bc
00000110: 2af5 d43c cc9d b83c 994b c2bc 8811 913c
00000120: 4029 a4bc bf5b 823c 8761 593c 57d9 35bb
00000130: a338 8739 76e5 1bbc c512 76bc ac5b 86ba
00000140: e953 f0ba 5ce7 58bc 0081 4b38 9b1f 0d3c
00000150: bc0b 05bc 569a 9339 df6f 973b 3ba9 b6bc
00000160: 2240 fbbb 873a ee3b ed39 f2bb a775 9f3c
00000170: 1112 12bc 5080 833c 2e09 3f3b bfe6 923c
00000180: 3bc5 81bb 3180 9ebc afc6 553c cf31 823c
00000190: a426 a53c 01c0 06bc 8eec 893c 7b41 153c
000001a0: e8b0 aa3c bbe9 71bc d2e0 003c 4333 c3ba
000001b0: 144b 03bc bc36 813b f911 833c 35b5 f2bc
000001c0: 2a01 c7bb 0dfb 75ba af8a 3eba 2ba5 eebb
000001d0: 9c3a 713c 4f6a ad3c 45a1 bcbc d9e5 8abc
000001e0: 6eeb 85bc f611 aa3c af71 253b b2b0 02bd
000001f0: b0ab a539 c53f d13c d11c 0a3d 3735 253c

action_model._discrete_distribution.branches.0.weight f4 [1, 128]
-0.0038317766 0.001380371 -0.013837426 0.0050968574 -0.009270635 0.0037696671 0.0030402306 -0.002810886
-0.0010962476 -0.0006914456 -0.005158889 -0.007297724 -0.0012263235 -0.0011565132 -0.015467792 -0.0008369769
-0.013647187 0.0069083474 0.009510357 -0.007093935 -0.011337442 0.001384712 0.004658925 0.0049161934
-0.0047438685 -0.012329367 0.0068450198 -0.0020918285 -0.009801152 -0.019796757 0.0050432873 -0.003596482
0.0022093426 0.007063944 -0.014538676 0.010171466 -0.0065546515 0.0074585923 0.0012581939 -0.0006421768
-0.005316839 0.0063613593 -0.0008812883 0.011433753 -0.008182223 -0.015470818 -0.0045230985 0.001988165
0.011126417 0.0058041094 -0.017118238 0.008025537 0.0025287964 0.0061385524 0.017038662 0.013979695
-0.0038224668 0.010649719 -0.0029789011 -0.007676379 -0.014154415 0.0023400288 -0.00762538 -0.0049155997
0.00970997 -0.00132752 0.0018253289 -0.011520521 -0.0029621068 -0.018836232 0.003994192 0.0076011047
-0.0061934027 -0.0050498014 0.0004731033 0.001008381 0.0005965098 0.0007165652 -0.0046369643 0.013517409
0.009660963 -0.0063776337 0.005319664 0.0022814993 -0.0041984706 0.00021347927 -8.502636e-05 0.0006149159
-0.0036722794 -0.009682454 -0.010698273 0.007634893 0.008214515 0.007429525 0.005460716 -0.012014179
-0.016276492 0.0031921756 0.0063653956 -0.0033346904 -0.0013784372 -0.00625297 -0.005723483 0.0154940365
0.0066017485 0.002195429 0.0080619315 -0.016255086 -0.005345775 -0.0034166113 0.00018204996 0.007148243
0.003949319 0.0024054418 -0.0059989817 -0.003608289 -0.0032792322 -0.004609411 -0.015475318 0.0028871198
-0.009736706 0.0015674543 -0.013669493 -0.017750066 -0.007799241 0.0074807787 0.0050772536 0.012865725
00000000: 8b1e 7bbb 91ed b43a 5fb6 62bc 8a03 a73b
00000010: dde3 17bc 850c 773b 9b3e 473b d736 38bb
00000020: f7af 8fba 2142 35ba e60b a9bb bf21 efbb
00000030: 97bc a0ba 2596 97ba 9f6c 7dbc 9268 5bba
00000040: 7398 5fbc 6b5f e23b 54d1 1b3c 3d74 e8bb
00000050: aec0 39bc 3a7f b53a e5a9 983b 0518 a13b
00000060: 7472 9bbb 1d01 4abc 304c e03b 0f17 09bb
00000070: 0395 20bc cf2c a2bc 2942 a53b f5b2 6bbb
00000080: 9eca 103b a878 e73b a033 6ebc 38a6 263c
00000090: 67c8 d6bb 3567 f43b fbe9 a43a c157 28ba
000000a0: e138 aebb f372 d03b 4206 67ba a354 3b3c
000000b0: bb0e 06bc 5079 7dbc 8036 94bb e04b 023b
000000c0: 934b 363c 6630 be3b 8c3b 8cbc 8b7d 033c
000000d0: 2aba 253b e925 c93b aa94 8b3c 170b 653c
000000e0: 5a82 7abb 297c 2e3c ab39 43bb 228a fbbb
000000f0: ebe7 67bc 2b5b 193b 53de f9bb 0a13 a1bb
00000100: 9116 1f3c 2e00 aeba e03f ef3a 91c0 3cbc
00000110: e81f 42bb 714e 9abc b6e1 823b b012 f93b
00000120: 07f2 cabb ce78 a5bb da0a f839 a72b 843a
00000130: 185f 1c3a e0d7 3b3a adf1 97bb 1f78 5d3c
00000140: 0449 1e3c 78fb d0bb 9350 ae3b 3585 153b
00000150: 5393 89bb 68d9 5f39 2e50 b2b8 4f32 213a
00000160: a0aa 70bb 28a3 1ebc cf47 2fbc 202e fa3b
00000170: 2c96 063c 5f73 f33b ceef b23b 1ed7 44bc
00000180: 4756 85bc d233 513b cf94 d03b d28a 5abb
00000190: adac b4ba b7e5 ccbb 0e8c bbbb b3da 7d3c
000001a0: 7b53 d83b 30e1 0f3b 3116 043c 6329 85bc
000001b0: 9c2b afbb 3ae9 5fbb aae4 3e39 cf3b ea3b
000001c0: 4a69 813b 9ea4 1d3b 1b93 c4bb 0b79 6cbb
000001d0: 63e8 56bb 8b0a 97bb 308c 7dbc d535 3d3b
000001e0: b486 1fbc 0a73 cd3a 02f6 5fbc 9668 91bc
000001f0: c790 ffbb 5221 f53b 175f a63b c3ca 523c

exp_avg f4 [128, 6]
4.875567e-05 -4.8187935e-06 0.0 1.7751305e-05 6.177338e-08 0.0 -7.031392e-06 -1.6554297e-05
0.0 -2.3299086e-05 3.0097166e-08 0.0 -3.7428814e-05 6.922966e-06 0.0 -3.948353e-05
5.5838413e-08 0.0 5.1784605e-06 -3.5851193e-05 0.0 1.6514448e-05 8.7781004e-08 0.0
-3.1583517e-05 -2.2053143e-06 0.0 7.7501903e-07 -6.8334295e-08 0.0 -3.9642935e-05 2.568506e-05
0.0 -4.6208228e-05 3.968185e-08 0.0 -2.9606752e-05 -7.999696e-06 0.0 5.7792995e-06
6.699408e-08 0.0 -8.455678e-06 -3.312618e-06 0.0 -1.2361338e-05 2.11612e-08 0.0
-2.9236928e-05 -8.384875e-06 0.0 -3.714083e-06 -7.1649595e-08 0.0 1.9666933e-05 -2.1985863e-05
0.0 8.833555e-05 2.125207e-08 0.0 -3.1172007e-05 -1.8939862e-05 0.0 -2.2605687e-05
-2.3120402e-08 0.0 -5.884383e-05 2.0924777e-05 0.0 -4.5035355e-05 1.36265745e-08 0.0
-4.8534563e-05 -1.2624667e-05 0.0 1.4338269e-05 -8.328396e-08 0.0 -2.7799347e-06 -2.2354312e-05
0.0 3.7364793e-05 -1.9482632e-08 0.0 -2.4896903e-05 -8.122116e-06 0.0 -1.3458454e-05
5.9830164e-08 0.0 7.942689e-06 9.496524e-06 0.0 2.5731826e-05 -4.2648043e-08 0.0
-3.6297894e-05 2.7086746e-05 0.0 -3.0290135e-05 -1.3193046e-08 0.0 -4.1052695e-06 -2.4358344e-06
0.0 1.8190172e-05 2.9461392e-08 0.0 -1.2432829e-05 1.2728052e-05 0.0 -2.1980191e-05
2.6052808e-08 0.0 -2.0425952e-05 4.590841e-06 0.0 -1.8106581e-06 6.120266e-08 0.0
4.6966597e-05 -3.6334884e-05 0.0 8.362993e-05 1.1021468e-07 0.0 9.446216e-06 -1.0928682e-05
0.0 1.6727288e-06 8.369454e-09 0.0 9.203684e-06 -3.8493513e-06 0.0 1.0858531e-05
-2.8129554e-08 0.0 -1.633888e-05 2.8530068e-05 0.0 -2.0694977e-05 2.2604999e-08 0.0
3.492301e-05 -5.42985e-06 0.0 1.8315963e-05 -3.5535854e-09 0.0 -5.2540712e-05 7.4636864e-06
0.0 -2.5743899e-05 3.511251e-09 0.0 8.187932e-05 2.7858381e-05 0.0 1.3791851e-05
-1.8715711e-07 0.0 -4.1545984e-05 -3.3558638e-06 0.0 -3.828996e-05 -4.5439066e-08 0.0
-1.1245938e-06 1.6424521e-05 0.0 -1.8229866e-05 7.677875e-08 0.0 -1.695188e-05 -1.4429692e-05
0.0 -2.5451514e-05 -2.0025006e-08 0.0 -1.24924445e-05 1.5303573e-05 0.0 -1.2912007e-05
-2.8039278e-08 0.0 1.7805427e-05 1.9640713e-05 0.0 1.4942542e-05 -5.43105e-08 0.0
1.3672767e-05 2.0912013e-05 0.0 -7.649815e-06 1.1009803e-08 0.0 -9.004332e-06 -9.294668e-06
0.0 4.731266e-06 -3.4367797e-08 0.0 -3.5325575e-05 -1.3876748e-05 0.0 -5.777666e-05
-6.973929e-08 0.0 5.4974544e-06 -2.5182095e-05 0.0 3.857512e-06 8.652805e-09 0.0
-0.00010465162 1.9466659e-05 0.0 -8.4718245e-05 1.822556e-07 0.0 -2.7655657e-05 8.340207e-06
0.0 -2.0085168e-05 6.2907375e-08 0.0 -3.6646208e-05 2.0704892e-05 0.0 -3.7945934e-05
4.870699e-08 0.0 -4.1032126e-05 6.662453e-07 0.0 -2.2133607e-05 6.48698e-08 0.0
1.4699098e-05 -2.0483498e-05 0.0 2.6546011e-05 3.1828208e-08 0.0 -3.8515933e-05 -1.5886959e-05
0.0 3.7295201e-06 -6.573869e-08 0.0 -3.787803e-05 8.8165525e-06 0.0 -2.4858997e-05
00000000: 017f 4c38 1fb1 a1b6 0000 0000 a3e8 9437
00000010: 46a8 8433 0000 0000 33ef ebb6 15de 8ab7
00000020: 0000 0000 6872 c3b7 2f44 0133 0000 0000
00000030: e2fc 1cb8 d34b e836 0000 0000 1e9b 25b8
00000040: fcd2 6f33 0000 0000 a3c2 ad36 ed5e 16b8
00000050: 0000 0000 8288 8a37 1e82 bc33 0000 0000
00000060: 8b78 04b8 03ff 13b6 0000 0000 e70a 5035
00000070: 2dbf 92b3 0000 0000 4746 26b8 3f76 d737
00000080: 0000 0000 b5cf 41b8 a86e 2a33 0000 0000
00000090: 045c f8b7 6f36 06b7 0000 0000 ceeb c136
000000a0: 63de 8f33 0000 0000 dcdc 0db7 584e 5eb6
000000b0: 0000 0000 8b63 4fb7 f9c5 b532 0000 0000
000000c0: d341 f5b7 c4ac 0cb7 0000 0000 763f 79b6
000000d0: c8dd 99b3 0000 0000 6bfa a437 486e b8b7
000000e0: 0000 0000 ca40 b938 cc8d b632 0000 0000
000000f0: b0be 02b8 0be1 9eb7 0000 0000 58a1 bdb7
00000100: 4d9a c6b2 0000 0000 15cf 76b8 9e87 af37
00000110: 0000 0000 58e4 3cb8 4f1a 6a32 0000 0000
00000120: 9791 4bb8 88ce 53b7 0000 0000 658e 7037
00000130: d7d9 b2b3 0000 0000 ea8e 3ab6 8585 bbb7
00000140: 0000 0000 24b8 1c38 c35a a7b2 0000 0000
00000150: b1d9 d0b7 3944 08b7 0000 0000 9fcb 61b7
00000160: fb7b 8033 0000 0000 9741 0537 4353 1f37
00000170: 0000 0000 adda d737 052c 37b3 0000 0000
00000180: 913e 18b8 5838 e337 0000 0000 9217 feb7
00000190: a1a7 62b2 0000 0000 ffbf 89b6 5177 23b6
000001a0: 0000 0000 1997 9837 4912 fd32 0000 0000
000001b0: 9896 50b7 918a 5537 0000 0000 1a62 b8b7
000001c0: bbca df32 0000 0000 6658 abb7 060b 9a36
000001d0: 0000 0000 bd05 f3b5 856e 8333 0000 0000
000001e0: 00fe 4438 4966 18b8 0000 0000 7a62 af38
000001f0: 29af ec33 0000 0000 307b 1e37 555a 37b7
00000200: 0000 0000 8682 e035 3fc9 0f32 0000 0000
00000210: 8669 1a37 ad29 81b6 0000 0000 092d 3637
00000220: 8ba1 f1b2 0000 0000 7a0f 89b7 db53 ef37
00000230: 0000 0000 209a adb7 eb2c c232 0000 0000
00000240: 4c7a 1238 0e32 b6b6 0000 0000 3ba5 9937
00000250: 5633 74b1 0000 0000 295f 5cb8 9470 fa36
00000260: 0000 0000 9af4 d7b7 954a 7131 0000 0000
00000270: a0b6 ab38 6bb1 e937 0000 0000 8d63 6737
00000280: 5bf5 48b4 0000 0000 a941 2eb8 4d35 61b6
00000290: 0000 0000 8899 20b8 c828 43b3 0000 0000
000002a0: c0f0 96b5 64c7 8937 0000 0000 57ec 98b7
000002b0: 90e1 a433 0000 0000 e333 8eb7 0e17 72b7
000002c0: 0000 0000 b680 d5b7 7403 acb2 0000 0000
000002d0: a496 51b7 2c60 8037 0000 0000 a6a0 58b7
000002e0: 06db f0b2 0000 0000 dd5c 9537 1cc2 a437
000002f0: 0000 0000 bbb1 7a37 0743 69b3 0000 0000
00000300: 1664 6537 356c af37 0000 0000 b557 00b7
00000310: a025 3d32 0000 0000 5011 17b7 4cf0 1bb7
00000320: 0000 0000 44c1 9e36 cb9b 13b3 0000 0000
00000330: 8c2a 14b8 2ed0 68b7 0000 0000 3755 72b8
00000340: 95c3 95b3 0000 0000 c676 b836 233e d3b7
00000350: 0000 0000 c76f 8136 70a7 1432 0000 0000
00000360: 6978 dbb8 554c a337 0000 0000 c3aa b1b8
00000370: 0ab2 4334 0000 0000 12fe e7b7 ebec 0b37
00000380: 0000 0000 927c a8b7 b217 8733 0000 0000
00000390: 91b4 19b8 6baf ad37 0000 0000 2328 1fb8
000003a0: e731 5133 0000 0000 e919 2cb8 07d8 3235
000003b0: 0000 0000 8fab b9b7 8d4e 8b33 0000 0000
000003c0: 259c 7637 fad3 abb7 0000 0000 20af de37
000003d0: 7cb3 0833 0000 0000 2b8c 21b8 fc44 85b7
000003e0: 0000 0000 ab48 7a36 3a2c 8db3 0000 0000
000003f0: 3adf 1eb8 ceea 1337 0000 0000 4a88 d0b7

exp_avg_sq f4 [128, 6]
3.218332e-09 3.6070988e-09 0.0 7.3351893e-09 1.2534388e-13 0.0 5.233696e-09 6.0169425e-09
0.0 7.7164515e-09 1.3938853e-13 0.0 1.334447e-09 1.1508349e-09 0.0 1.3946259e-09
4.190339e-14 0.0 5.234715e-09 5.8513607e-09 0.0 5.8636256e-09 1.6450224e-13 0.0
4.928258e-09 6.7570425e-09 0.0 7.1703843e-09 2.5624053e-13 0.0 4.2939328e-09 7.1536435e-09
0.0 1.04266995e-08 2.3922447e-13 0.0 9.863435e-09 1.2024327e-08 0.0 1.1994307e-08
4.587106e-13 0.0 2.0703042e-09 1.608036e-09 0.0 1.671005e-09 1.2711823e-13 0.0
1.708286e-09 2.4062925e-09 0.0 3.5607262e-09 6.2108704e-14 0.0 8.424625e-09 6.1177956e-09
0.0 5.9553615e-09 2.1684324e-13 0.0 8.278362e-10 5.703871e-10 0.0 8.7242535e-10
2.0582567e-14 0.0 4.2017776e-09 8.285709e-09 0.0 1.5323277e-08 2.9575067e-13 0.0
1.121347e-08 1.1579231e-08 0.0 1.4364245e-08 3.4168756e-13 0.0 9.676456e-09 1.0053484e-08
0.0 9.116603e-09 3.3784103e-13 0.0 1.2486993e-09 1.2425153e-09 0.0 2.0533466e-09
4.101524e-14 0.0 2.4026585e-09 2.9859573e-09 0.0 3.3732868e-09 9.804099e-14 0.0
1.3617884e-08 1.5115786e-08 0.0 2.6304395e-08 5.3209824e-13 0.0 5.113838e-10 3.4193565e-10
0.0 4.0373666e-10 1.6289746e-14 0.0 5.6127075e-10 9.484057e-10 0.0 2.0977773e-09
4.5889684e-14 0.0 9.3930455e-09 1.23402435e-08 0.0 1.858435e-08 2.745299e-13 0.0
1.606786e-08 1.754583e-08 0.0 2.0405063e-08 6.42168e-13 0.0 1.9698903e-09 3.1809266e-09
0.0 3.2707084e-09 7.4067495e-14 0.0 1.4636276e-09 1.3108018e-09 0.0 2.645577e-09
5.146723e-14 0.0 1.1716702e-09 1.9823523e-09 0.0 1.4504058e-09 6.275342e-14 0.0
4.3460746e-09 4.5818815e-09 0.0 8.126707e-09 2.2225468e-13 0.0 2.4790976e-09 3.7707104e-09
0.0 3.1925123e-09 1.228023e-13 0.0 2.6392952e-08 2.8064992e-08 0.0 2.7029403e-08
1.3112142e-12 0.0 3.2540484e-09 3.7804604e-09 0.0 7.017145e-09 1.6658139e-13 0.0
2.8789546e-09 5.439362e-09 0.0 3.2583185e-09 1.4842355e-13 0.0 1.0705324e-09 1.1319898e-09
0.0 1.6226195e-09 6.3215444e-14 0.0 2.0181734e-09 2.1186013e-09 0.0 1.7637534e-09
7.33631e-14 0.0 5.43755e-09 4.4093884e-09 0.0 7.0676047e-09 1.6467467e-13 0.0
3.769548e-09 3.6244e-09 0.0 6.2656755e-09 1.3393068e-13 0.0 1.2426838e-09 1.2620863e-09
0.0 1.3740402e-09 8.08054e-14 0.0 3.0218772e-09 2.0759656e-09 0.0 5.2011098e-09
1.1397769e-13 0.0 1.3594413e-09 1.7972152e-09 0.0 2.086268e-09 4.7627484e-14 0.0
7.3259554e-09 7.69938e-09 0.0 1.1255219e-08 2.1848158e-13 0.0 1.1830614e-09 1.0976262e-09
0.0 3.8287205e-09 4.150581e-14 0.0 2.1186755e-09 3.5900776e-09 0.0 3.2363223e-09
7.7626334e-14 0.0 7.0640085e-09 9.036351e-09 0.0 8.826059e-09 2.668003e-13 0.0
4.459746e-09 5.1150324e-09 0.0 5.706761e-09 2.200092e-13 0.0 7.4610185e-09 8.8699865e-09
0.0 1.6705561e-08 3.2703503e-13 0.0 6.178749e-10 6.494791e-10 0.0 6.1118266e-10
00000000: 7f29 5d31 c1e0 7731 0000 0000 0209 fc31
00000010: ea1f 0d2a 0000 0000 14d4 b331 96bd ce31
00000020: 0000 0000 5091 0432 02f0 1c2a 0000 0000
00000030: ae67 b730 672b 9e30 0000 0000 09ad bf30
00000040: 52b7 3c29 0000 0000 0add b331 1d0d c931
00000050: 0000 0000 ff78 c931 8b36 392a 0000 0000
00000060: 6a55 a931 932b e831 0000 0000 5e5f f631
00000070: 2740 902a 0000 0000 d589 9331 1dcc f531
00000080: 0000 0000 1c21 3332 e1ab 862a 0000 0000
00000090: d973 2932 8d93 4e32 0000 0000 850f 4e32
000000a0: 951d 012b 0000 0000 2d45 0e31 bd01 dd30
000000b0: 0000 0000 43a9 e530 561f 0f2a 0000 0000
000000c0: f8c8 ea30 f25b 2531 0000 0000 f5b0 7431
000000d0: 3bdb 8b29 0000 0000 e5bb 1032 b334 d231
000000e0: 0000 0000 ea9f cc31 cf24 742a 0000 0000
000000f0: cb8d 6330 6dc9 1c30 0000 0000 7acf 6f30
00000100: 2b64 b928 0000 0000 3a5f 9031 ef58 0e32
00000110: 0000 0000 3ea0 8332 2a7e a62a 0000 0000
00000120: 5da5 4032 ffed 4632 0000 0000 9ec6 7632
00000130: 5e5a c02a 0000 0000 813d 2632 b1b7 2c32
00000140: 0000 0000 3e9f 1c32 0630 be2a 0000 0000
00000150: b39e ab30 1fc5 aa30 0000 0000 db1a 0d31
00000160: 5ab7 3829 0000 0000 041c 2531 8431 4d31
00000170: 0000 0000 7dcf 6731 c8c4 dc29 0000 0000
00000180: 16f4 6932 f7d7 8132 0000 0000 faf3 e132
00000190: b8c5 152b 0000 0000 7091 0c30 2afb bb2f
000001a0: 0000 0000 e2f4 dd2f 99b9 9228 0000 0000
000001b0: eb47 1a30 0f59 8230 0000 0000 7d28 1031
000001c0: 34ab 4e29 0000 0000 0d5f 2132 f700 5432
000001d0: 0000 0000 6ba3 9f32 ee8b 9a2a 0000 0000
000001e0: 9905 8a32 b0b7 9632 0000 0000 3547 af32
000001f0: 15c1 342b 0000 0000 ad5e 0731 7497 5a31
00000200: 0000 0000 e9c2 6031 01c9 a629 0000 0000
00000210: d128 c930 bd27 b430 0000 0000 7ccd 3531
00000220: adc9 6729 0000 0000 7b08 a130 e939 0831
00000230: 0000 0000 9e57 c730 e24e 8d29 0000 0000
00000240: 7a54 9531 a86e 9d31 0000 0000 a39d 0b32
00000250: 8d3c 7a2a 0000 0000 bf5c 2a31 858f 8131
00000260: 0000 0000 4563 5b31 5a43 0a2a 0000 0000
00000270: b7b6 e232 9213 f132 0000 0000 492e e832
00000280: 7889 b82b 0000 0000 d39d 5f31 48e5 8131
00000290: 0000 0000 761b f131 d18d 3b2a 0000 0000
000002a0: 1bd7 4531 22e5 ba31 0000 0000 f2e8 5f31
000002b0: 2d1c 272a 0000 0000 0322 9330 5a94 9b30
000002c0: 0000 0000 d902 df30 3959 8e29 0000 0000
000002d0: 15b0 0a31 d496 1131 0000 0000 8e68 f230
000002e0: f332 a529 0000 0000 32d5 ba31 6481 9731
000002f0: 0000 0000 4fd7 f231 3e68 392a 0000 0000
00000300: 4b85 8131 1e11 7931 0000 0000 7749 d731
00000310: e4ca 162a 0000 0000 0dcb aa30 b775 ad30
00000320: 0000 0000 bed8 bc30 24f5 b529 0000 0000
00000330: 6da9 4f31 c6a8 0e31 0000 0000 72b5 b231
00000340: d553 002a 0000 0000 17d7 ba30 e301 f730
00000350: 0000 0000 045e 0f31 c07e 5629 0000 0000
00000360: c9b7 fb31 3b46 0432 0000 0000 fa5c 4132
00000370: 07fd 752a 0000 0000 4699 a230 4adb 9630
00000380: 0000 0000 c88d 8331 f1ec 3a29 0000 0000
00000390: 2298 1131 50b5 7631 0000 0000 fc65 5e31
000003a0: 89cc ae29 0000 0000 adb7 f231 4b3e 1b32
000003b0: 0000 0000 6ba1 1732 fa31 962a 0000 0000
000003c0: 573c 9931 4dc0 af31 0000 0000 3315 c431
000003d0: 56b5 772a 0000 0000 e82d 0032 9d62 1832
000003e0: 0000 0000 eb7f 8f32 b71a b82a 0000 0000
000003f0: 15d7 2930 0787 3230 0000 0000 2800 2830

exp_avg f4 [128]
-1.5196715e-05 -7.404665e-06 -1.3737187e-05 -2.1595926e-05 1.6810935e-05 -9.763072e-06 -1.648234e-05 -5.2058426e-06
1.7626793e-05 -5.228405e-06 5.68781e-06 -3.3529416e-06 2.0489091e-05 4.7925746e-06 -1.4719383e-05 1.049255e-05
3.2459611e-06 -7.2480407e-06 -6.409507e-06 -1.5057185e-05 -2.7115106e-05 -2.0590373e-06 6.920433e-06 -5.561094e-06
8.746013e-07 -8.643777e-07 4.6045225e-05 1.11786885e-05 -1.8888704e-05 4.9265886e-06 6.898254e-06 1.33615185e-05
-2.70877e-06 8.45484e-06 1.71572e-05 -2.1284493e-06 -4.483907e-05 -1.5476253e-05 -1.1983091e-05 -1.5959575e-05
-7.830461e-06 1.6172882e-05 -1.6334405e-05 2.7105616e-05 -2.2573207e-05 2.279982e-05 4.5305405e-05 -3.5607565e-05
-2.2793474e-06 1.886654e-05 8.884651e-06 6.534193e-07 -3.549871e-07 3.2217176e-05 -2.2966449e-06 -2.421012e-05
-1.5229755e-05 2.0949665e-06 -5.181421e-05 -3.284726e-05 -1.8028752e-06 1.4428001e-05 1.5859705e-05 -2.6231462e-05
1.6421474e-05 -8.499839e-06 5.795767e-06 6.3692028e-06 -3.3681947e-05 -9.09261e-06 -1.3379305e-05 -1.4433882e-06
-2.7961649e-05 4.4577027e-06 -1.1610827e-05 -2.6745112e-05 2.6258054e-05 1.4456858e-05 1.836059e-06 -5.5524747e-06
-2.0321397e-06 -8.652699e-06 1.8932764e-06 -3.7963007e-06 2.898867e-05 -3.7835205e-05 2.4370393e-05 1.0297556e-05
5.274264e-06 2.3702743e-05 -4.525864e-06 -5.791097e-06 4.8808706e-06 8.293254e-06 -1.985528e-06 -4.0290088e-05
4.792016e-06 3.8486578e-05 1.4568248e-05 -1.4922439e-05 -1.8574696e-05 -2.0148823e-06 -1.0791974e-05 5.91002e-06
-8.504451e-06 3.9503047e-05 -6.8062986e-06 -5.9991576e-06 -1.4112884e-05 -2.0725476e-05 8.301686e-06 1.3624069e-05
-4.397306e-06 6.001624e-06 1.9323075e-05 -1.20512605e-05 -1.4510779e-05 1.1694173e-05 3.9433584e-05 -4.649843e-05
-8.468812e-06 -4.399265e-05 1.6985085e-05 -4.6184855e-06 -1.683329e-06 1.145917e-06 -1.6212387e-06 -1.1098242e-05
00000000: 65f5 7eb7 9775 f8b6 c578 66b7 e628 b5b7
00000010: 3505 8d37 13cc 23b7 8e43 8ab7 d9ad aeb6
00000020: 40dd 9337 a86f afb6 ead9 be36 1903 61b6
00000030: fddf ab37 e7cf a036 45f3 76b7 2909 3037
00000040: 30d5 5936 3234 f3b6 3f11 d7b6 1e9e 7cb7
00000050: 3f75 e3b7 fe2d 0ab6 1136 e836 6f99 bab6
00000060: 25c6 6a35 9507 68b5 af20 4138 1a8c 3b37
00000070: 2f73 9eb7 134f a536 8d77 e736 492b 6037
00000080: 50c8 35b6 43d9 0d37 ceec 8f37 7bd6 0eb6
00000090: 9611 3cb8 00d3 81b7 fc0a 49b7 ede0 85b7
000000a0: 935f 03b7 00ab 8737 de05 89b7 de60 e337
000000b0: 985b bdb7 3e42 bf37 4f06 3e38 5559 15b8
000000c0: e4f6 18b6 9643 9e37 490f 1537 a266 2f35
000000d0: 0e95 beb4 ee20 0738 0f20 1ab6 d616 cbb7
000000e0: 4d83 7fb7 4097 0c36 1653 59b8 7ac5 09b8
000000f0: 52fa f1b5 cb0f 7237 750a 8537 a30b dcb7
00000100: d9c0 8937 889a 0eb7 4279 c236 09b7 d536
00000110: b745 0db8 768c 18b7 ad77 60b7 71ba c1b5
00000120: 2f8f eab7 6093 9536 1fcc 42b7 b15a e0b7
00000130: be44 dc37 bb8b 7237 826e f635 654f bab6
00000140: e55f 08b6 0f2b 11b7 7b1c fe35 f3c3 7eb6
00000150: b22c f337 3eb1 1eb8 056f cc37 abc3 2c37
00000160: 95f9 b036 41d5 c637 e0dc 97b6 2551 c2b6
00000170: 5cc6 a336 4123 0b37 1c3f 05b6 27fd 28b8
00000180: 1bcb a036 a66c 2138 266a 7437 635b 7ab7
00000190: dbd0 9bb7 6a37 07b6 2d0f 35b7 af4e c636
000001a0: 57ae 0eb7 13b0 2538 a961 e4b6 5f4c c9b6
000001b0: 60c6 6cb7 9fdb adb7 7847 0b37 ee92 6437
000001c0: 928c 93b6 8f61 c936 fd17 a237 c52f 4ab7
000001d0: 5273 73b7 1732 4437 7d65 2538 4f07 43b8
000001e0: 4515 0eb7 c084 38b8 317b 8e37 7df8 9ab6
000001f0: beee e1b5 69cd 9935 5699 d9b5 9632 3ab7

exp_avg_sq f4 [128]
2.879275e-09 3.7764045e-09 9.432239e-10 3.9711527e-09 5.866142e-09 5.457462e-09 9.7513695e-09 1.7337455e-09
1.2738298e-09 4.6231343e-09 5.3245547e-10 5.525825e-09 7.323002e-09 7.794223e-09 8.610977e-10 2.3130828e-09
1.2180233e-08 2.6696403e-10 7.5627743e-10 8.035229e-09 1.3393197e-08 1.7964453e-09 1.0078195e-09 1.1813921e-09
4.2349484e-09 3.220524e-09 2.7274389e-08 2.6398985e-09 3.5497065e-09 1.049971e-09 1.4647441e-09 3.3367045e-09
2.9919103e-09 1.4454627e-09 2.1470457e-09 1.1172571e-09 7.1906046e-09 8.025858e-10 2.2775908e-09 6.8867596e-09
3.8476866e-09 6.626419e-09 6.774698e-10 7.86913e-09 2.3340354e-09 5.1927778e-09 2.4336739e-08 1.04035625e-08
3.0078862e-09 6.4732055e-09 1.4748471e-09 6.0577676e-09 2.3459263e-08 1.4696717e-08 2.0609476e-09 2.6744191e-09
7.954378e-10 1.0865499e-09 1.6652738e-08 8.5776515e-09 2.4774036e-09 1.123641e-08 3.2189815e-09 1.1429265e-08
1.1907847e-09 1.5846907e-09 1.1053969e-09 1.0252301e-09 1.8483937e-09 3.2318834e-09 1.8761992e-09 6.144194e-09
3.4666598e-09 5.6479743e-10 2.0585298e-09 9.563719e-10 3.6868184e-09 3.607931e-09 2.3271682e-09 1.9021462e-09
3.291023e-09 1.7619942e-09 1.6480464e-09 6.254966e-10 9.606858e-09 1.003671e-08 7.101599e-09 2.8360192e-09
5.6276397e-09 6.7150943e-09 7.757431e-09 6.8225453e-10 8.2573276e-10 1.4702622e-09 7.0556455e-10 3.83259e-09
1.626673e-08 3.9366558e-08 9.0541254e-09 1.1931187e-09 5.6747242e-09 6.9315544e-09 3.4310794e-09 4.3847392e-09
9.790183e-10 7.790787e-09 2.3539508e-09 1.3479888e-09 3.3771727e-08 2.2662388e-09 6.5756445e-09 2.245032e-09
5.153265e-10 4.7560866e-09 3.2490063e-10 1.5580075e-09 5.502856e-09 4.0976936e-10 1.1401441e-08 1.4238054e-08
1.5466528e-09 5.584453e-09 1.06587965e-08 1.6310306e-08 2.8152791e-09 8.2112445e-10 6.754687e-10 1.4060743e-08
00000000: bedc 4531 9bc1 8131 bea2 8130 a172 8831
00000010: 218f c931 5884 bb31 fa86 2732 bf48 ee30
00000020: e712 af30 85d9 9e31 395c 1230 acdd bd31
00000030: cf9d fb31 5be7 0532 5db2 6c30 2ff4 1e31
00000040: 3b41 5132 d9c3 922f 4be2 4f30 500b 0a32
00000050: e717 6632 cde6 f630 7f83 8a30 8a5e a230
00000060: 0083 9131 0f50 5d31 0449 ea32 9669 3531
00000070: 19ef 7331 924e 9030 1a50 c930 ed4b 6531
00000080: 3e9a 4d31 b3a9 c630 3a8b 1331 fd8d 9930
00000090: 3a11 f731 f49c 5c30 cd83 1c31 94a0 ec31
000000a0: 9c34 8431 99ae e331 b338 3a30 cd30 0732
000000b0: c964 2031 286c b231 0e0d d132 5abb 3232
000000c0: 4bb3 4e31 eb6a de31 92b3 ca30 b024 d031
000000d0: 7783 c932 d87c 7c32 93a0 0d31 e1c8 3731
000000e0: f6a5 5a30 9355 9530 c20b 8f32 e95c 1332
000000f0: f23e 2a31 410a 4132 ec34 5d31 705a 4432
00000100: 03a9 a330 59cc d930 b2ec 9730 14e8 8c30
00000110: 920a fe30 e517 5e31 72ee 0031 e71c d331
00000120: 203a 6e31 1640 1b30 0a76 0d31 5871 8330
00000130: 325b 7d31 65ef 7731 faeb 1f31 e9b6 0231
00000140: 4a28 6231 a92a f230 7a81 e230 69ef 2b30
00000150: 690b 2532 eb6d 2c32 5302 f431 c7e3 4231
00000160: 3e5d c131 98ba e631 8b45 0532 6589 3b30
00000170: c7f9 6230 4112 ca30 b1f1 4130 d1af 8331
00000180: ebba 8b32 fd13 2933 778c 1b32 22fb a330
00000190: 67fb c231 992a ee31 30c8 6b31 93a8 9631
000001a0: 258e 8630 3ed8 0532 24c3 2131 2444 b930
000001b0: 680c 1133 18bc 1b31 fbef e131 0547 1a31
000001c0: e1a6 0d30 fb6a a331 b39d b22f 8421 d630
000001d0: a213 bd31 e945 e12f 11e0 4332 a09b 7432
000001e0: 0292 d430 5ee1 bf31 e21d 3732 be1a 8c32
000001f0: ea76 4131 7fb5 6130 e2ab 3930 cd8f 7132
