results/SliderBehavior-jgf-001/SliderBehavior/SliderBehavior-8569.pt (torch, 447639 bytes, 41 tensors)

network_body.observation_encoder.processors.0.normalizer.running_mean f4 [6]
00000000: ec0b 6ac1 55d1 64c0 0000 0000 c64a 6ec1
00000010: 40fa bfc0 0000 0000
-14.627911 -3.5752766 0.0 -14.893255 -5.999298 0.0

network_body.observation_encoder.processors.0.normalizer.running_variance f4 [6]
00000000: 483f a747 8531 bf46 0000 803f 7de5 cc46
00000010: d1fb 1342 0000 803f
85630.56 24472.76 1.0 26226.744 36.995914 1.0

network_body.processors.0.normalizer.running_mean f4 [6]
00000000: ec0b 6ac1 55d1 64c0 0000 0000 c64a 6ec1
00000010: 40fa bfc0 0000 0000
-14.627911 -3.5752766 0.0 -14.893255 -5.999298 0.0

network_body.processors.0.normalizer.running_variance f4 [6]
00000000: 483f a747 8531 bf46 0000 803f 7de5 cc46
00000010: d1fb 1342 0000 803f
85630.56 24472.76 1.0 26226.744 36.995914 1.0

network_body._body_endoder.seq_layers.0.weight f4 [128, 6]
00000000: 2a54 c1bd c482 773f fc7f 283f 08ab d5bd
00000010: 00bd 0f3e 2f22 36be 60d2 77be c36c 5e3e
00000020: 1370 fa3e d748 a73e eb45 ffbe 9e95 493e
00000030: f5a9 91bf a281 22be c3b0 f53c f0d5 05bf
00000040: 9bec 0dbd 3f25 543e be56 da3e da75 bbbe
00000050: 429a 96be 5626 8fbd b0df 403f 288c 9ebd
00000060: f22c 49bd feb5 783e 3cd0 a13e f418 85be
00000070: 20f3 98be 2fe3 853e beb8 693d d08d c5be
00000080: 0752 7cbf e46e 5a3e 3439 a43d 90f1 1bbf
00000090: 5842 a93e d305 a9be 0ff0 683f 8f76 1ebe
000000a0: e3c5 0dbf 75b7 e9bd 3789 81bd f6b2 543f
000000b0: 096a d43d 05dd 0b3c 7b01 14bf 7360 a0bf
000000c0: 1150 52bd 2987 123e 669a ccbd 4e6f febe
000000d0: 054a 2abe 04ef 54be 7673 ef3e de35 27bf
000000e0: affe 433d 25bd 3dbc 2349 8e3e cdcd 04be
000000f0: 5208 253e a870 833e 999d ff3e e576 c93d
00000100: d6a9 e0be 29b5 69bf 2485 95bd b07e a83e
00000110: 6209 f2bd 4581 02bf 4891 90be f52f eabb
00000120: e38d 6cbe c3d1 5c3f cde3 823e 1c52 93be
00000130: 0520 a13e 775f 0ebf 28d4 013f f3ca c83e
00000140: 9f6d a63d eeb7 2e3f 2991 a1be 44e0 973e
00000150: 060a 05bf 801c 433d 7932 dabc 3bc4 453e
00000160: f207 0fbf e2ef 413e c430 9a3e d188 48bd
00000170: 1c33 343e 280f 8cbe 3356 b5bd 587c 71bf
00000180: 5bc6 0cbf b2ea 183d 8978 9ebe 4aa6 043f
00000190: 83f3 3fbe 0f14 b9be 41f9 033f e264 a7be
000001a0: c4f5 69be 5b33 943e f112 5e3f de8f 523d
000001b0: a706 f2be e141 a8be 546e 06be f2d6 3d3f
000001c0: 4e12 1b3f bb4c 523d 10e3 4cbf cf16 fabe
000001d0: c3f5 8ebd 5221 5a3b 7e73 803e b119 b73e
000001e0: 2738 d6bd c958 b7bd 111a 823e ed59 da3e
000001f0: 7d33 81be 04fb 95be bab9 b43e 7db3 3e3e
00000200: 0af4 4c3f da97 89be dc91 ad3e 9e70 4e3e
00000210: 3e64 f13e e2ff 35bf c336 83be dba0 00bf
00000220: 457e 983a e016 af3e bc7b 03bf 952b d33d
00000230: 0690 42bf d101 2cbf f1a5 10be a740 2dbf
00000240: 410a 803f a49a dc3d 1b26 ecbd 8c68 9bbe
00000250: 5159 15be 655d cabe 1a9b 17be 313a ce3e
00000260: 6184 f9be 291c 8e3e c0f6 253e dcfc e2bb
00000270: 2cfb 653f e7d2 bb3e cbbf b5be dbfe a53e
00000280: 148b 5c3d d6fd 0abe bcba 10bf b6dd 14bc
00000290: 3950 023e 78a2 983d ae6e c4bd 8423 703f
000002a0: 3243 c2be 230a 323d 5c06 2ebf 6849 0ebe
000002b0: 137d da3d f6d2 e9bd ad49 4cbf 759e febe
000002c0: 5fd3 d6be 6407 abbe 15c4 a83e 7535 133e
000002d0: fa90 34bf ac6e 4b3d 0291 173e 11c1 f8bd
000002e0: 8887 063b 2c51 6bbe 6725 72be 531a 31bf
000002f0: 5d03 bf3e c54f 9cbd bd8b 0e3f 6023 0a3d
00000300: 10a0 43bf b186 90be 0dcf ca3d 4b1d 19be
00000310: 1853 0a3c 701f 9cbd 9cb1 b53e f065 b53d
00000320: d7e4 e53e 1c2a 93bd b8ff 61bc 90ea 1bbe
00000330: 8035 f83d c607 33be ecc7 d13e 718e cf3e
00000340: 1a0a 363f 6028 5abe eb22 483e 4dd7 c9be
00000350: 87ac f3be d650 563e 9c51 093e 686b 523e
00000360: 7e92 93be cf17 003f 50a2 c4be aef3 b1be
00000370: 66ed acbe d897 7f3e 0501 8a3e ac3f 953e
00000380: 37f6 ca3e 9ae2 c4bd 8c7a 5e3e 6cc3 a3bd
00000390: 5ac5 293e 9d89 53be e3fe 4dbe 56e8 df3c
000003a0: aeb3 1fbf e830 90be 9c45 463e 7a4c 453f
000003b0: 231b 443c ae98 00bf be05 d63e 9ff7 4fbd
000003c0: bd6b 933d 426b f6be 0662 223d 64da 1bbd
000003d0: 7083 393f a0ed 143d b9e6 25be 6a49 853e
000003e0: c52d 3f3f d235 023e b4a5 3a3e 3a07 c93e
000003f0: 3a67 cd3b fa3f b8be 7a4d dcbe b6b9 c1bb
-0.09439881 0.9668391 0.6582029 -0.10433012 0.14036942 -0.17786478 -0.24201345 0.21721177
0.4891363 0.3267276 -0.4985803 0.1968598 -1.1379992 -0.15869763 0.029991513 -0.5227957
-0.034649473 0.20717333 0.42644304 -0.3661335 -0.29414564 -0.06989734 0.7534132 -0.077415764
-0.04911513 0.24288175 0.31604183 -0.259956 -0.2987299 0.2614989 0.05706095 -0.38584757
-0.98562664 0.21331364 0.08018723 -0.6091547 0.3305843 -0.33012256 0.909913 -0.15474914
-0.55380076 -0.11411945 -0.06325 0.8308557 0.10371787 0.008536582 -0.5781476 -1.2529434
-0.05134589 0.14309372 -0.09990387 -0.49694294 -0.16629799 -0.20794302 0.46767777 -0.6531657
0.047850307 -0.01158074 0.27790174 -0.12969132 0.16116455 0.25671887 0.49924925 0.098371305
-0.43879575 -0.91292053 -0.07300785 0.32909155 -0.11818196 -0.509785 -0.2823584 -0.00714683
-0.23101 0.8625757 0.25564423 -0.28773582 0.3146974 -0.5561442 0.5071435 0.39217338
0.08126377 0.68249404 -0.3155606 0.2966329 -0.5196842 0.0476346 -0.026635395 0.19313137
-0.558715 0.18939164 0.3011533 -0.048958603 0.17597622 -0.27355313 -0.08854332 -0.9433036
-0.54990166 0.037333198 -0.30951336 0.51816237 -0.18745236 -0.36148116 0.51552206 -0.32694155
-0.22847658 0.2894543 0.8674765 0.051406734 -0.472707 -0.32862762 -0.13128024 0.74156106
0.60574806 0.051342707 -0.8003397 -0.48845527 -0.06980469 0.003328402 0.25088114 0.35761788
-0.10459929 -0.08952481 0.25410512 0.42646733 -0.25234595 -0.29293072 0.35297948 0.18623157
0.80059874 -0.26873666 0.33900344 0.20160148 0.4714679 -0.7109357 -0.25627717 -0.50245446
0.0011634311 0.3419714 -0.5136068 0.10311047 -0.7600101 -0.6719027 -0.14125802 -0.67676777
1.0003129 0.10771683 -0.115307055 -0.303532 -0.14584853 -0.3952438 -0.1480526 0.40278772
-0.4873381 0.2775586 0.16207409 -0.006927116 0.8983638 0.36684343 -0.3549789 0.32421002
0.053843573 -0.13573393 -0.56534934 -0.009086063 0.12725915 0.074528635 -0.09591423 0.9380419
-0.3794189 0.0434667 -0.67978454 -0.1389519 0.10668387 -0.11417191 -0.7979992 -0.49730268
-0.41958138 -0.33404076 0.329621 0.14375861 -0.70533717 0.04966609 0.1480141 -0.121461995
0.002052756 -0.22980183 -0.2364708 -0.6918079 0.37307253 -0.07632402 0.55681974 0.033725142
-0.7641611 -0.2822776 0.09902773 -0.1495258 0.008442663 -0.07623184 0.35487068 0.08857334
0.44901153 -0.07185766 -0.013793878 -0.15226197 0.12119579 -0.17483434 0.4097284 0.40538362
0.71109164 -0.21304464 0.1954457 -0.39422074 -0.47592565 0.20929274 0.13410038 0.20548785
-0.28822702 0.5003633 -0.38405085 -0.34756225 -0.3377487 0.24960268 0.26953903 0.2915014
0.39640972 -0.09613533 0.21726435 -0.07996258 0.1657919 -0.20657964 -0.20116763 0.027332466
-0.62383544 -0.28162313 0.19362491 0.7706982 0.0119693605 -0.5023297 0.41801256 -0.05077326
0.07198284 -0.48128706 0.039644264 -0.03805007 0.7246618 0.03635943 -0.16201295 0.26032573
0.74679214 0.12715843 0.18227273 0.39263326 0.006268409 -0.3598631 -0.4302786 -0.005912031

network_body._body_endoder.seq_layers.0.bias f4 [128]
00000000: 3c0f 28bb 7c89 e23a 76fe 4cb9 063b 97bb
00000010: 60d8 27bb a0b7 d6ba 5547 ffbb 6c94 b239
00000020: e0ca 84bb 24f7 11bc 1744 a83b 144f 81bb
00000030: 3192 343b 2b3f 9038 3837 dd38 1d0b 57bb
00000040: 69e4 8939 7866 7bbb c831 753a 46d0 2fbb
00000050: fc15 a039 93cb 0fbb f6d1 773b be35 3e39
00000060: f48e ae3b 78db 94bb 53dc a9ba bd5c 953b
00000070: 4998 4cbb ae8b 48ba 7cbc 87ba 0ae4 093b
00000080: e0a5 39ba 57cc faba ed37 093b cadf 44bb
00000090: 2f9f 393b d22c 4dba 502b 663b 70bc 83bb
000000a0: f950 293b a808 99bb 577e ef3a ddb3 c6bb
000000b0: 4c53 c1bb 598d 6739 6da1 9b3b 54ed 1aba
000000c0: 4636 11bb 69c7 18bb f561 143b f528 9e3a
000000d0: 66ff eeba 5f44 fabb d204 00ba bc50 e63a
000000e0: 0c06 0b3a ed95 4fbb 82b2 683b ee76 ae3b
000000f0: 39bd 1d38 3b3b e4bb 60ef 8dbb 36e2 83bb
00000100: fe46 e33a c6d7 a83b 20b5 e939 d0e6 2e3a
00000110: edd0 feba bf99 2e3b c051 d7ba 1374 46bb
00000120: 08aa 933b 5e42 ed3a ca0b 1fbb 818e bdbb
00000130: a122 0e3a b1b6 433b 5734 e4ba 72f8 8cbb
00000140: 13fe 823b 6ead 41bb 36ab 5c3b 5624 e23b
00000150: c09b 333b 5b9e a8bb d3cc b83b 8643 e0ba
00000160: 18fe 60bb 2150 15bb c0db 6dbb 75c7 a1bb
00000170: 4048 c4bb 451f 40bb b108 e238 6112 c1ba
00000180: 2672 8a3b f138 9dbb acc5 7a3a 9171 35bb
00000190: 34f8 c5ba 10f9 19bb d82d 653b b1ed aebb
000001a0: b93d a53a 2f46 37bb e82b cd3b 0d31 68bb
000001b0: 1016 1237 07e4 0ebb 0c24 ba3a 3f3f 4cbb
000001c0: bc6c 45bb 866e 9cbb d695 5bbc 6ae3 32bb
000001d0: 5634 01bb 1d27 07bb 4240 29bb 1e9b 7dbb
000001e0: 3e13 41bb 8aae 8fb8 f108 62b9 8bec 913b
000001f0: ab46 813b 4e6a 15bb 666f dc3a 9caf 86bb
-0.0025643846 0.0017283405 -0.0001954975 -0.0046151904 -0.0025611147 -0.0016381629 -0.007790486 0.0003406139
-0.004052505 -0.008909021 0.00513507 -0.0039461944 0.0027552957 6.878221e-05 0.000105483865 -0.003281302
0.00026300855 -0.0038360637 0.0009353426 -0.0026827022 0.00030533958 -0.0021941408 0.0037814355 0.00018139833
0.0053271 -0.0045427643 -0.0012959338 0.0045581744 -0.0031218699 -0.00076502084 -0.0010355855 0.0021040463
-0.0007081907 -0.0019134384 0.0020937875 -0.0030040615 0.002832364 -0.0007826808 0.003512103 -0.0040202662
0.0025835617 -0.0046702214 0.0018271905 -0.006063922 -0.0058998223 0.00022082533 0.004749468 -0.00059099984
-0.0022157594 -0.0023312217 0.0022641395 0.001206665 -0.0018234074 -0.007637545 -0.0004883531 0.0017571668
0.000530333 -0.0031675056 0.003550679 0.005324236 3.7607944e-05 -0.0069650686 -0.0043315142 -0.004024769
0.0017339883 0.0051526753 0.00044576172 0.0006671967 -0.0019440927 0.0026641933 -0.0016427562 -0.0030281588
0.0045063533 0.0018101444 -0.0024268501 -0.00578481 0.000542203 0.0029863531 -0.0017410618 -0.004302078
0.003997573 -0.0029552835 0.0033671386 0.0069013042 0.0027406067 -0.0051458306 0.0056396513 -0.0017109967
-0.003433114 -0.0022783356 -0.0036294311 -0.004937107 -0.005990058 -0.0029315513 0.00010778139 -0.0014730209
0.0042250333 -0.0047980477 0.00095661986 -0.00276861 -0.0015103878 -0.00234944 0.0034969952 -0.0053383936
0.0012606896 -0.0027965417 0.0062613375 -0.0035429627 8.707415e-06 -0.0021803395 0.0014201417 -0.0031165627
-0.0030124625 -0.0047739176 -0.013402423 -0.0027296194 -0.0019715033 -0.0020622679 -0.0025825654 -0.0038697193
-0.0029460932 -6.851282e-05 -0.0002155637 0.004453247 0.003945192 -0.0022798958 0.0016817867 -0.0041102897

network_body._body_endoder.seq_layers.2.weight f4 [128, 128]
00000000: c68f 26be 3175 99bd bf21 133d 71c1 41bd
00000010: 9700 023c d6aa 4cbd c17a 14bc 9a16 a93c
00000020: cae4 2d3e 1eee 81bd 9825 43be 5088 53bd
00000030: 90e1 7ebd 1141 20be 8652 22be f5fc 933c
00000040: 8c6e 7f3d cfa9 4fbd abdc 0abc 7dd3 ffbb
00000050: 1283 dfbc cb81 2a3e 12c6 ea3d dacf e33c
00000060: beb1 e4bd 8a7f 823e 0c9a 6abd 0763 7abd
00000070: 4757 513e 7889 323c 427c 8d3d 34a4 e0bd
00000080: 37b2 033e ab95 bd3d 6ade 39be 0712 873d
00000090: 6c6c 513b a7a2 c53b 96fc 8fbc 3f22 0d3e
000000a0: cde2 c7bb 260e 2b3d ec38 81bd 33d8 01bd
000000b0: 2046 3b3d 3574 2cbe 19e0 223e 66c0 2e3d
000000c0: 088d b03c c87f 07bc 708a e5bc c483 993d
000000d0: b8eb 20bd c112 753c 6970 40be f52a ddbd
000000e0: 5010 7e3d e156 223d fe84 03bd cc7b 70bd
000000f0: ea5e 823c 7fce 0a3e 8635 d8bc 20cd 3d3d
00000100: 8638 abbd 4f71 8a3d e91c c13d da40 183d
00000110: 19a9 533d c63a e33c 1629 e23d 92d5 8dbc
00000120: 3a12 c737 ea56 8c3d de9f 4b3c 1015 cbbc
00000130: 243b 01bd 9857 22be f113 10bd f316 5c3c
00000140: f06a c33d ce4a e5bc 6343 3fbd 1a13 0d3e
00000150: 30f4 cd3d fe97 09be 499c 223c aa5b c73d
00000160: 7601 1c3e d9ae 98bd d761 803d d496 723b
00000170: a5bf bf3d 5fc8 9a3e 698f 3f3e a894 b1bd
00000180: c363 e6bd 1c26 1d3c 38d6 4fbc a8cc 42bd
00000190: 47be a43d e9bf 2cbd 39cc a93b e45c 47bd
000001a0: ad0f b53c bb68 b0bc e166 913c 7167 90bd
000001b0: 2b56 ec3c 1ffe 183d 4632 97bd cbeb a23d
000001c0: 5728 f33d 74f6 c1bd 57d0 103c eddd 1b3e
000001d0: b129 edbd cf46 e5bd 1a7f 393c 3d79 b2bd
000001e0: 7b5b 6f3d da66 34bd 96e0 e93d b19f 7fbb
000001f0: 74ab 32be 3121 c13d 39f0 9d3d a314 3cbc
00000200: d48b 563d 4aa6 81bc 88bf 1ebe 0d64 2ebd
00000210: 85b3 37bd 73c9 d6bd 5dba 2ebd 71e9 21be
00000220: 3c17 b7bc a466 3fbd 5fb9 263d 133b f33c
00000230: 6a50 d83d 208c 2c3c 6777 b2bc 4d23 37bd
00000240: efe3 823d cd08 93bc e99c 143d 0ced 91bb
00000250: 9db8 cdbc 1d0e 4b3d 0910 8a3d 5155 643d
00000260: 3cf2 a63d cd60 50bd 931e be3d 8a48 3fbc
00000270: a231 453c ff21 f5bd 7611 b5bc 6025 14bd
00000280: ba8e 37bd ccdd c6bd 3b9d 13be edfb e13d
00000290: df85 6e3d a052 d23d 3c06 ad3d 9fdb 153e
000002a0: 61d6 5d3c eacb 14bd 715c b43d 0372 2f3e
000002b0: ea84 e73b 5e5e e23d 7d51 c1bc 4004 4b3e
000002c0: 0aeb dc3d b94a dfbd 45fa 9abd bf91 65b8
000002d0: 9430 573d b472 aa3c da77 b1bc 2c40 ddbd
000002e0: 29cc dabd b7ab ed3d 2fb5 a13c e0bb ac3b
000002f0: 5a6a 7f3c ce55 c03d 0f21 a73c dde9 133d
00000300: 8a21 19be b902 2bbe 61a6 db3d 2b01 1d3e
00000310: a19b b03d 1e58 40bc 2d4d 733d a4ae b9bc
00000320: 9425 91bc 834a e1bd 4909 c3bd 8809 41bd
00000330: 2aa3 1c3e 6941 07be 9530 373d d5c8 2a3e
00000340: f1b1 0d3e 6759 0fbe 2007 bebd 2986 60bd
00000350: 3e92 043d d60c 47be ad2f babb be2b 203e
00000360: e8cb c33c c91e c23d c2ba 973d f343 ff3d
00000370: 1daf 16be 0c23 05bd ec1b a7bc b8fd 2cbe
00000380: 03e2 7b3d ef4b 64bd 6847 043d 4278 f63d
00000390: 21f8 ed3d 5374 cf3d 3058 fdbc 62d8 60bc
000003a0: 97bd 4d3c 916d 7f3d 9565 9ebd 1183 24be
000003b0: 7893 26bd fb4d c63d 3b99 01bd 715a cfbb
000003c0: 1017 aa3b 894e bebd 8298 bb3d 6f14 99bc
000003d0: c1f9 6dbd 3f91 85bd d512 d6bc 5d14 073d
000003e0: 20aa 4ebd f960 c9bc e0b0 ff3c 4b0c 9c3d
000003f0: ae17 91bc ffa6 3abe 4d7e 00be fd11 ffbc
-0.16265783 -0.074930556 0.035920855 -0.04730362 0.007934711 -0.04996761 -0.00906247 0.02064066
0.16981807 -0.063442454 -0.1905731 -0.05164367 -0.062226832 -0.15649821 -0.15851793 0.018064955
0.062361285 -0.05069905 -0.008475463 -0.007807194 -0.027284179 0.16651075 0.1146356 0.027809072
-0.11166714 0.2548793 -0.057275817 -0.061129596 0.2044345 0.010897033 0.06908466 -0.10968819
0.12860952 0.092570625 -0.1815125 0.06595235 0.0031955494 0.0060313526 -0.017576497 0.13782595
-0.006100035 0.04176154 -0.06309685 -0.031700324 0.045721173 -0.16841204 0.15905799 0.042663954
0.021551624 -0.0082702115 -0.028020114 0.074958354 -0.0392873 0.014958085 -0.18792881 -0.10799209
0.062027276 0.039633635 -0.032109253 -0.058711812 0.0159144 0.13555335 -0.02639271 0.0463382
-0.0836039 0.06759893 0.09429342 0.037171222 0.051674936 0.027737986 0.11042993 -0.017313752
2.3731136e-05 0.06852515 0.012428252 -0.024790317 -0.03155054 -0.15853727 -0.035175268 0.013433206
0.09541881 -0.027989771 -0.046695124 0.13776818 0.10056341 -0.13436887 0.009924957 0.097342804
0.15234932 -0.074552245 0.062686615 0.003701617 0.09362725 0.30230996 0.1870705 -0.08670932
-0.11249497 0.0095916055 -0.012685351 -0.047558457 0.08044105 -0.042175207 0.005181816 -0.04867257
0.022102201 -0.021534314 0.017749252 -0.0705098 0.028849682 0.037351724 -0.07382636 0.0795513
0.118729286 -0.09470835 0.008838735 0.15221377 -0.11580218 -0.11195146 0.011321807 -0.087145306
0.058436852 -0.0440434 0.114197895 -0.0039005096 -0.17448217 0.09430159 0.077118345 -0.01147953
0.052379444 -0.015826363 -0.15502751 -0.042575885 -0.044848938 -0.10487642 -0.0426582 -0.15811707
-0.022349946 -0.046728745 0.040704127 0.029691255 0.10562213 0.010531455 -0.021785451 -0.0447114
0.06391131 -0.017948532 0.036282454 -0.004453307 -0.025112445 0.049574006 0.0674134 0.055745427
0.08151671 -0.050873566 0.09283175 -0.0116750095 0.012035759 -0.11969375 -0.022103053 -0.036168456
-0.04481385 -0.09710273 -0.14415447 0.11034379 0.05823314 0.10269666 0.08448455 0.1463456
0.013539881 -0.03632728 0.08806694 0.17133336 0.007065405 0.11053155 -0.023598427 0.1982584
0.10787018 -0.10902924 -0.075672664 -5.473359e-05 0.052536562 0.020806648 -0.021663595 -0.108032554
-0.10683472 0.11605018 0.019739715 0.00527142 0.015589321 0.09391366 0.020401506 0.0361117
-0.149542 -0.16700257 0.10725094 0.15332477 0.08623434 -0.011739759 0.059399772 -0.022666283
-0.017718114 -0.1100054 -0.095232554 -0.04712823 0.15296617 -0.13208546 0.044724066 0.16678174
0.1383741 -0.13998948 -0.09278703 -0.054815445 0.03236603 -0.1943849 -0.005681953 0.15641686
0.023900941 0.09478528 0.07408668 0.12464132 -0.14715238 -0.032504126 -0.020399056 -0.16893661
0.06149484 -0.05573648 0.03229466 0.12034656 0.116195925 0.10129609 -0.03092584 -0.013723465
0.012557409 0.06236035 -0.07734219 -0.16065623 -0.04066798 0.09682842 -0.031640273 -0.00632792
0.0051907375 -0.09292323 0.09159948 -0.018686501 -0.058099512 -0.06521844 -0.026132027 0.032978404
-0.050455213 -0.024582373 0.03121227 0.07619532 -0.017711487 -0.18227766 -0.1254818 -0.031136507

network_body._body_endoder.seq_layers.2.bias f4 [128]
00000000: 2556 4abb 7c5d 8cbb 9f9c 6c3a 3a3a 173b
00000010: 0808 7cbb d892 5fbb cff9 3c3b 8f4c 363b
00000020: 9195 8abb 758d 7fbb 9686 a33a 363c 713b
00000030: 9a36 273b 409e 06bb 206b 373b 8a23 8c3b
00000040: 0c96 3e3b ce9b 1fbb 88fb c53a 464c 69bb
00000050: 9dff 96bb c7e5 48bb 77b7 0d3b 4bc2 ec3a
00000060: 0a52 213b 7807 f23a 97c7 76bb e259 61bb
00000070: 427a 203b f944 603b 05a1 fa3a 336b 88bb
00000080: f198 133b f1d2 b83b 0958 3a3b cc26 b23b
00000090: 459a 4ebb 4dc1 21bb 8abd 93bb 0d13 823b
000000a0: c1d0 7e3b 52d1 84bb a75b 8dbb 5eaa ccba
000000b0: ecac 07ba fd4e a93a bb0e a6bb 9168 97bb
000000c0: f37c 15bb 01d2 c9ba 9df8 953b ab83 073b
000000d0: b460 473b 459a 513b 7b89 2bb9 4ef5 59bb
000000e0: b35e 813b d011 8cbb c9dd 93bb 1eb1 40bb
000000f0: ff73 69bb 7e70 7dbb bfdb 373a 29d5 083b
00000100: c775 51bb 60ff 66bb 8e3c 3dbb bddc ddba
00000110: fb17 4e3b bf68 6fbb 8e78 403b dcd7 343b
00000120: 5933 64bb ec00 513b 7021 793b ac48 dbba
00000130: 7339 143b f023 cc3b 2611 bb3a a1d6 65bb
00000140: e1ac 863b 29ad 83bb 38ce 5fbb 3cd1 87bb
00000150: c390 e3ba 5bea d73a 198b 0dbb c713 7bbb
00000160: ff03 66bb 4fef ebba f51c 713b b59e 5ebb
00000170: 198e 5d3b b0a3 9abb 80e1 22bb e4a0 923b
00000180: 2c13 0abb bcc9 42bb d638 58bb 0cfe 483b
00000190: ce50 84bb cec1 943b f74e c8bb fffb 67bb
000001a0: 400c 813b 8afe 823b 8380 4b3b 27ee 753b
000001b0: 53f4 163b 545c 8f3b 8ccd 483b bf89 093b
000001c0: 4837 c33a 6bc1 b33b 9ae3 8e3b 8ebe 3dbb
000001d0: 4e63 83bb f299 5bbb 8c8e 16bb 843b cab9
000001e0: 260a 5dbb dcf2 52bb cde0 67bb da12 563b
000001f0: 1ccd 723b a4d4 48bb 8010 183b 07f0 8fbb
-0.00308741 -0.004283605 0.0009026024 0.0023075477 -0.0038456935 -0.0034114625 0.002883542 0.0027816629
-0.0042292555 -0.0038994227 0.0012476023 0.003680957 0.0025514723 -0.0020541102 0.0027987435 0.0042766975
0.0029081134 -0.0024354341 0.0015104869 -0.003559844 -0.004608108 -0.0030654536 0.0021624246 0.0018063275
0.002461555 0.0018465361 -0.0037655586 -0.003438585 0.0024486934 0.0034220798 0.0019121474 -0.00416317
0.002252158 0.0056403806 0.002843382 0.005436754 -0.0031525057 -0.0024681867 -0.004508679 0.003969556
0.0038881751 -0.0040532732 -0.0043139043 -0.0015614738 -0.00051756087 0.0012917217 -0.005067674 -0.0046206196
-0.0022810071 -0.0015397669 0.004576756 0.0020677845 0.003042263 0.003198282 -0.00016359046 -0.0033257785
0.0039480566 -0.0042745844 -0.004512523 -0.0029402445 -0.0035622118 -0.0038671787 0.0007013641 0.0020879006
-0.003196107 -0.003524743 -0.0028875205 -0.0016926747 0.00314474 -0.003653094 0.0029368731 0.0027594483
-0.0034820645 0.0031891419 0.0038014315 -0.0016730032 0.002261725 0.00622987 0.0014272078 -0.0035070556
0.0041099642 -0.004018445 -0.0034150016 -0.0041448157 -0.0017361868 0.0016473042 -0.0021597801 -0.0038311349
-0.0035097597 -0.0018000397 0.0036790941 -0.0033969108 0.003380662 -0.00471922 -0.0024853647 0.004474746
-0.0021068556 -0.0029722294 -0.0032992861 0.0030669002 -0.004037953 0.004539705 -0.006112929 -0.0035398004
0.003938228 0.0039976286 0.003105194 0.0037525983 0.0023033812 0.00437502 0.0030640094 0.0020986644
0.0014893794 0.0054857037 0.0043606283 -0.002895269 -0.004009641 -0.0033508507 -0.0022973148 -0.00038572785
-0.0033727973 -0.0032188212 -0.0035381794 0.0032665045 0.0037048524 -0.0030644322 0.0023203194 -0.004392627

action_model._continuous_distribution.mu.weight f4 [1, 128]
00000000: 6e3f e5bc 60d4 e3bb 2e88 e83a 7c29 4b3c
00000010: 5a62 18bc ddf0 99bb 3dcd 8e3c 7d97 da3c
00000020: 5917 45bb 3330 84bc e249 32b8 4bc9 663c
00000030: 8ec7 013d 2fb4 b8bb f865 263c faf1 923c
00000040: 60a4 433c 87a8 8dbc cb70 943c 9d45 93bb
00000050: 3988 d6bb 6263 7abc aa3b ac3b ea08 9f3b
00000060: 45fd 663c 7c1f 8b3c 2aee 02bc 77d0 0fbd
00000070: 32c2 533c 23dc 2a3d c34c 923a d606 b1bc
00000080: 7658 d13c b213 2c3b b503 113b 9488 483c
00000090: 073e 1fbc 2bcd 38bd 291d 0dbd 8daf 1c3d
000000a0: 30bc ac3c 71ad a1bb 0077 38bc a76e 29bc
000000b0: 6f7c fe39 28a6 0ab9 bb83 99ba 0071 a4bb
000000c0: c8ed 00bd cf78 32bb 5aee d93b e062 fd3b
000000d0: 9dc2 3f3d a960 5e3a 1194 093a bc09 4fbb
000000e0: c4e5 bf3c 8df1 a4ba b068 96bb a3e5 b6bb
000000f0: e7fc 00bb cba2 96bc 1ad4 ecba b4a1 823b
00000100: aff7 0abc 35ba dcbb e617 8bbc c056 79bc
00000110: 4969 6c3c ff2e 26bc a45d 8f3c fc4a c23b
00000120: 60d3 abbb d2fe 993c 0da5 6c3c 00e2 91bc
00000130: 3ae2 b53b dbb8 073c ae2f 4639 66f0 85bc
00000140: 2de4 483c aafa 16bb 3eb1 82bb 9791 9ebc
00000150: 7945 ccbc 1859 163d 0fff b2bb 5080 efba
00000160: f3ac a9bb 6a29 71bc 687f a13c dda9 b9bc
00000170: 9311 e83b 0f47 c8ba f33b 40bc 8aaa bf3c
00000180: dbac bebb 4e9b b4bc 764c 14bd e644 563b
00000190: db1d baba 0109 013c 31ce a139 8f2a d4bb
000001a0: edf2 883c 4890 4d3c 9889 e03b c946 053c
000001b0: 56ba e93b 8a60 753c 9461 123d 851d 593c
000001c0: 10af 8d3b 089d e23b ca56 f83c 8d72 10bc
000001d0: bd67 0bbc 1991 ecbb 563e e5bc e1e5 ef3a
000001e0: 3997 c1bc 725e f3ba fccc 97bc 6641 e83c
000001f0: b157 563c ffb7 34bc bef2 263c a681 3fbc
-0.027984347 -0.0069528073 0.001774078 0.012400027 -0.009300793 -0.0046979026 0.01743185 0.026683563
-0.003007373 -0.016136264 -4.2507316e-05 0.014086078 0.03168445 -0.005636714 0.010156147 0.017937649
0.0119410455 -0.017292274 0.01812019 -0.0044943825 -0.0065470007 -0.015282484 0.005256136 0.0048533576
0.01409847 0.016982786 -0.007991353 -0.035110917 0.012924718 0.041713845 0.0011161793 -0.021609705
0.025554877 0.0026256857 0.0022127454 0.012239594 -0.009719378 -0.04511754 -0.034451637 0.038253356
0.021085829 -0.004934006 -0.011258841 -0.010341323 0.00048539366 -0.00013222604 -0.0011712232 -0.0050183535
-0.031476766 -0.0027232652 0.006650728 0.007732734 0.046816457 0.00084830314 0.0005248199 -0.0031591495
0.02342499 -0.0012584195 -0.0045901164 -0.005581574 -0.0019681992 -0.018388173 -0.0018068582 0.0039865617
-0.008481904 -0.006736065 -0.01697917 -0.015218437 0.014429399 -0.010143041 0.017500706 0.005929349
-0.0052437037 0.018798266 0.014443648 -0.01780796 0.00555065 0.008283819 0.00018900514 -0.016349982
0.012261433 -0.002303759 -0.003988414 -0.019356532 -0.02493547 0.03670606 -0.0054625343 -0.0018272493
-0.005178088 -0.014719347 0.019714072 -0.022664005 0.007082173 -0.0015279966 -0.011733043 0.023396749
-0.005818946 -0.022046711 -0.03620573 0.0032694875 -0.0014199571 0.007875682 0.00030861938 -0.0064748
0.016717399 0.012546606 0.00685234 0.008134552 0.0071328087 0.01497663 0.03573759 0.013251667
0.0043238476 0.0069156922 0.030314822 -0.008816374 -0.00850862 -0.0072194454 -0.027983826 0.0018302762
-0.023631679 -0.0018567576 -0.018530361 0.028351497 0.013082431 -0.011030196 0.01018971 -0.011688625

action_model._discrete_distribution.branches.0.weight f4 [1, 128]
00000000: 704b cdbb 7b20 c338 d51f b6bb 17fa fab8
00000010: d369 60bb d09e 74bc 181f 6abc 3d2c e33b
00000020: b066 82bc 4b5f 663c 3b35 f23a b1ba 853c
00000030: 7b90 4f3c b666 cc3b 3205 903b c564 d23b
00000040: 5b24 9c3c 63db 393a 334c 0ebc 14f3 1f3c
00000050: cf35 063c 9fa7 9d3b f94e 043d 9163 15bb
00000060: bfec 3d3b a970 b03b 679b 493b 4a82 ed3b
00000070: 4be1 783c 934b f93a ff70 2bbc 7a03 b73b
00000080: cb0a a8bb 6c00 833b 206a dbbb 4b6b c53b
00000090: c820 83bc 7978 45bc a00a ec3b d00a 893c
000000a0: db1d f8ba 26c3 90bb 4eec b4bb a128 183c
000000b0: 9919 9abc 4c62 b3ba 9570 c83a 7fdb fb3b
000000c0: 8da4 81bc 58d4 dfbb bc42 3a3c 7a0b 19bb
000000d0: b7f0 d9bb 5b09 663c 1314 743b 322a dd3b
000000e0: 2268 883c 94b5 1e3b 4701 efba c799 08bc
000000f0: f7ee b4bb 0f6c efba 07ff 7dbc 94d2 063b
00000100: a443 3dbc 2591 1f3c 4f1c ca3b db4f ab3c
00000110: 0d0e d13b ed4b de3b bb08 efbb 6d92 583c
00000120: 0d18 50bb db08 cd38 c81b 51bc 401b 863c
00000130: c938 0cba a06e 693c f986 3f3b 3760 94bb
00000140: 2f80 263c c3a3 e6bb e27f 4cbc d79b 4e3a
00000150: 7208 fd3a b2db 6f3b 3e56 c33b 13e0 efbb
00000160: 45d2 d5bb 253a 0fbc 2b1d a23b 96de 49bb
00000170: 01d6 8e3b bd00 25bc 516e 9cbb d1ef 90bb
00000180: a3ad 85bb 1cf7 a93a abad e33b 9650 2abb
00000190: dd90 a73b 9802 dcba 3438 a4bb e415 023a
000001a0: 0278 993b 23a1 bfbb cfc5 11bb 8627 c4bb
000001b0: 9320 c4bb 4aa0 553b c0da 1e3c 6b11 2e3b
000001c0: 4206 f9ba ea6d 9ebb 33aa 3c3b be5f 2cbc
000001d0: 20b4 22bb aa4b 70bb 6fa9 ebbb 2b98 943a
000001e0: 63ed 0a3a 1a65 6fbb c30b 11ba e49e c43b
000001f0: 6dec 743b 6514 46ba eaa3 52bc ada3 ddbb
-0.0062650964 9.3043745e-05 -0.005557994 -0.00011967512 -0.0034242764 -0.014930442 -0.01428964 0.006932764
-0.015918106 0.014060806 0.0018478999 0.016324373 0.012668724 0.00623783 0.0043951506 0.006420704
0.019060304 0.0007089881 -0.0086851595 0.009762544 0.00819154 0.0048112418 0.032301877 -0.0022794942
0.0028980223 0.005384524 0.0030762793 0.0072481977 0.015190433 0.0019019715 -0.010463952 0.0055851312
-0.0051282397 0.003997853 -0.0066960007 0.006024753 -0.016006842 -0.012052649 0.007203415 0.016728789
-0.0018929796 -0.0044177948 -0.005521334 0.00928703 -0.018811034 -0.0013685911 0.0015292341 0.007686078
-0.015825534 -0.0068307333 0.01136845 -0.0023352788 -0.00665101 0.014040316 0.003724341 0.006749415
0.016651217 0.0024217116 -0.0018234634 -0.008337445 -0.005521651 -0.0018266457 -0.015502698 0.0020572292
-0.011551771 0.009739195 0.0061679254 0.020912101 0.006379849 0.0067839534 -0.007294742 0.013218504
-0.0031752617 9.776811e-05 -0.012762971 0.016370416 -0.0005349038 0.014247566 0.0029224737 -0.0045280713
0.010162397 -0.007038565 -0.0124816615 0.00078814983 0.0019304885 0.0036599454 0.0059612086 -0.007320413
-0.00652531 -0.00874189 0.0049473247 -0.0030802838 0.0043590073 -0.010070977 -0.004773893 -0.0044231196
-0.004079537 0.0012967321 0.006948193 -0.0025987974 0.0051137046 -0.0016785441 -0.0050115827 0.00049623684
0.0046834955 -0.0058480664 -0.0022243147 -0.005986157 -0.0059853285 0.003259676 0.009695709 0.0026560675
-0.0018999057 -0.00483488 0.002878797 -0.010520874 -0.00248266 -0.0036666193 -0.007191829 0.0011336853
0.00052996556 -0.0036528767 -0.00055330637 0.0060003866 0.0037372366 -0.00075561396 -0.012856463 -0.0067638964

exp_avg f4 [128, 6]
00000000: e6bd 4f38 3bb4 4837 0000 0000 ab02 a637
00000010: 54d5 54b4 0000 0000 b7f1 e8b8 1a51 e5b7
00000020: 0000 0000 7493 bbb6 a6ae 01b5 0000 0000
00000030: a455 6938 b219 f0b7 0000 0000 e73a 7036
00000040: aef6 e134 0000 0000 a0c2 9937 98fc bb37
00000050: 0000 0000 9020 4035 f308 cc33 0000 0000
00000060: c186 a738 72fd 5f36 0000 0000 440c 4938
00000070: fed1 0535 0000 0000 1247 b337 85a2 4638
00000080: 0000 0000 743e 8fb6 7aad 7634 0000 0000
00000090: 6422 0738 d811 b636 0000 0000 c4b0 5437
000000a0: 8dcd b4b4 0000 0000 2184 61b8 5ab0 ce37
000000b0: 0000 0000 9c1f 68b7 fe88 01b5 0000 0000
000000c0: 1f4c 2839 6925 eb37 0000 0000 0ccb 4f39
000000d0: 9df2 9835 0000 0000 e917 6838 fb1f f237
000000e0: 0000 0000 e413 3938 8c27 67b4 0000 0000
000000f0: 3cfa efb8 766c 4eb8 0000 0000 4243 51b8
00000100: d84f 5434 0000 0000 89a8 4a38 cea8 8737
00000110: 0000 0000 b5b2 7038 0611 6534 0000 0000
00000120: 8a13 a5b8 4e21 8f36 0000 0000 88c6 d4b7
00000130: 5eae 71b4 0000 0000 7067 49b8 a2c1 29b7
00000140: 0000 0000 ab74 29b7 f453 79b3 0000 0000
00000150: 54b6 b237 75b0 8437 0000 0000 383b b9b6
00000160: 3795 8934 0000 0000 d827 fe37 07be b237
00000170: 0000 0000 5601 1437 6cf1 a9b4 0000 0000
00000180: 3afd 0e39 d25b 1937 0000 0000 4c70 11b8
00000190: eee8 8c35 0000 0000 d935 c537 b22c 8d37
000001a0: 0000 0000 8a86 2137 7200 44b3 0000 0000
000001b0: e5e0 a338 1f76 af37 0000 0000 0f91 2fb8
000001c0: b759 4435 0000 0000 79fc 4737 7859 03b7
000001d0: 0000 0000 5b9c 7237 87d8 0433 0000 0000
000001e0: 7379 b8b8 08bd 9db7 0000 0000 9149 fbb7
000001f0: b499 1fb4 0000 0000 ca96 8037 0be8 c937
00000200: 0000 0000 be08 9d38 2dbb 5533 0000 0000
00000210: 0294 9eb8 2189 cdb8 0000 0000 8c12 58b8
00000220: c4c5 ecb4 0000 0000 068b 98b7 f47e cd36
00000230: 0000 0000 f0fd 08b8 8612 80b4 0000 0000
00000240: 8515 04b9 f781 a6b8 0000 0000 c4aa cdb8
00000250: b8b0 d134 0000 0000 5248 0b39 509a 5e38
00000260: 0000 0000 d464 5e38 ae8f 66b4 0000 0000
00000270: d3c0 79b8 3d11 2bb8 0000 0000 aae3 29b7
00000280: 2ac8 4e34 0000 0000 47d9 8cb7 f0ae 27b4
00000290: 0000 0000 20a2 8ab5 d0f4 7ab4 0000 0000
000002a0: 4573 c538 c695 9f37 0000 0000 472a 8a38
000002b0: bb2a 6135 0000 0000 bca2 00b8 80b3 a636
000002c0: 0000 0000 8a4d d3b7 fcbc b7b4 0000 0000
000002d0: e223 3a37 42a0 f5b6 0000 0000 005d 0238
000002e0: 7071 2e32 0000 0000 9a84 02b8 e2d3 eeb7
000002f0: 0000 0000 4400 70b7 282c b3b4 0000 0000
00000300: c097 5a37 d4d9 c936 0000 0000 c65c 86b7
00000310: fd73 9b34 0000 0000 26ad 4736 0c5b 3cb6
00000320: 0000 0000 808b 4f35 07b0 75b4 0000 0000
00000330: 02f8 8eb8 d0a0 57b8 0000 0000 8053 33b5
00000340: 5c0e 87b4 0000 0000 05fa f536 f4a9 07b8
00000350: 0000 0000 fa88 f737 3daf ffb3 0000 0000
00000360: 2307 90b8 6125 e537 0000 0000 805e 3b36
00000370: 6d19 97b4 0000 0000 5afb d3b6 ec2c a535
00000380: 0000 0000 68d3 4ab5 6ad5 abb2 0000 0000
00000390: 24bc 1cb8 47f5 0ab8 0000 0000 b253 87b7
000003a0: 2074 6832 0000 0000 fcb9 4238 18c4 8536
000003b0: 0000 0000 9b37 8c38 bace d134 0000 0000
000003c0: 16c3 7bb8 d995 75b8 0000 0000 3cd3 23b8
000003d0: 1e48 cab4 0000 0000 1788 e037 6cc9 2037
000003e0: 0000 0000 c987 a336 4cad c133 0000 0000
000003f0: 22d0 3ab8 67a0 07b7 0000 0000 6859 8eb8
4.9529503e-05 1.1962892e-05 0.0 1.9789984e-05 -1.9821647e-07 0.0 -0.00011107645 -2.7336693e-05
0.0 -5.5902e-06 -4.831039e-07 0.0 5.5631288e-05 -2.8622195e-05 0.0 3.5797073e-06
4.2089e-07 0.0 1.832965e-05 2.240976e-05 0.0 7.157296e-07 9.501118e-08 0.0
7.9882804e-05 3.3377114e-06 0.0 4.7933558e-05 4.985194e-07 0.0 2.1371558e-05 4.7358237e-05
0.0 -4.2690026e-06 2.2973646e-07 0.0 3.2218537e-05 5.4261e-06 0.0 1.2677341e-05
-3.367717e-07 0.0 -5.3767235e-05 2.4639234e-05 0.0 -1.3835637e-05 -4.8255595e-07 0.0
0.00016050086 2.8031604e-05 0.0 0.00019816699 1.1395492e-06 0.0 5.533538e-05 2.886354e-05
0.0 4.412596e-05 -2.1527939e-07 0.0 -0.00011443018 -4.921524e-05 0.0 -4.989212e-05
1.9773086e-07 0.0 4.8317514e-05 1.617186e-05 0.0 5.7386893e-05 2.133348e-07 0.0
-7.8714525e-05 4.2656093e-06 0.0 -2.5364818e-05 -2.2508308e-07 0.0 -4.8018468e-05 -1.0118269e-05
0.0 -1.0100349e-05 -5.8051185e-08 0.0 2.1304157e-05 1.5817795e-05 0.0 -5.5203236e-06
2.5626807e-07 0.0 3.0297713e-05 2.1307742e-05 0.0 8.8217985e-06 -3.165436e-07 0.0
0.0001363651 9.140889e-06 0.0 -3.467528e-05 1.0498604e-06 0.0 2.3509305e-05 1.6829323e-05
0.0 9.627673e-06 -4.563521e-08 0.0 7.8143355e-05 2.091663e-05 0.0 -4.1858348e-05
7.314624e-07 0.0 1.1920108e-05 -7.8290395e-06 0.0 1.4460728e-05 3.0930575e-08 0.0
-8.7964254e-05 -1.8803883e-05 0.0 -2.9955789e-05 -1.4863946e-07 0.0 1.5329006e-05 2.406912e-05
0.0 7.487972e-05 4.9763162e-08 0.0 -7.561596e-05 -9.800704e-05 0.0 -5.1515686e-05
-4.410232e-07 0.0 -1.818455e-05 6.1242554e-06 0.0 -3.2661424e-05 -2.3855335e-07 0.0
-0.00012596518 -7.939705e-05 0.0 -9.806969e-05 3.9057863e-07 0.0 0.00013283014 5.307264e-05
0.0 5.3022828e-05 -2.147269e-07 0.0 -5.9545808e-05 -4.078563e-05 0.0 -1.0126192e-05
1.9258064e-07 0.0 -1.6790478e-05 -1.5616729e-07 0.0 -1.0328986e-06 -2.3372127e-07 0.0
9.415163e-05 1.902402e-05 0.0 6.5882276e-05 8.388121e-07 0.0 -3.0669136e-05 4.968082e-06
0.0 -2.5189267e-05 -3.422391e-07 0.0 1.1094819e-05 -7.3202254e-06 0.0 3.108103e-05
1.0153926e-08 0.0 -3.111791e-05 -2.8470477e-05 0.0 -1.4305177e-05 -3.3373476e-07 0.0
1.3029145e-05 6.0156253e-06 0.0 -1.6017246e-05 2.8955392e-07 0.0 2.9754096e-06 -2.806718e-06
0.0 7.731651e-07 -2.2881441e-07 0.0 -6.817283e-05 -5.1409763e-05 0.0 -6.6804205e-07
-2.5156157e-07 0.0 7.330675e-06 -3.234479e-05 0.0 2.950848e-05 -1.19062385e-07 0.0
-6.8677844e-05 2.7316333e-05 0.0 2.7920178e-06 -2.8144441e-07 0.0 -6.317551e-06 1.2306532e-06
0.0 -7.55585e-07 -2.000407e-08 0.0 -3.7368518e-05 -3.3130196e-05 0.0 -1.6132228e-05
1.3530581e-08 0.0 4.6426416e-05 3.986537e-06 0.0 6.6860775e-05 3.9079697e-07 0.0
-6.002475e-05 -5.855211e-05 0.0 -3.9058956e-05 -3.7677904e-07 0.0 2.6766253e-05 9.58364e-06
0.0 4.873586e-06 9.0187854e-08 0.0 -4.4539694e-05 -8.083974e-06 0.0 -6.787741e-05

exp_avg_sq f4 [128, 6]
00000000: 8307 a131 77b5 0732 0000 0000 1688 7931
00000010: b464 632b 0000 0000 b5d6 c332 5ca1 0233
00000020: 0000 0000 35f2 b632 a115 b12c 0000 0000
00000030: 09c8 6a32 4aa9 0832 0000 0000 8c82 0732
00000040: ca72 8b2b 0000 0000 0560 c130 aba6 4631
00000050: 0000 0000 2708 e230 6f08 082b 0000 0000
00000060: 58f2 4632 4a20 6032 0000 0000 ca8a 5332
00000070: 17f4 0b2c 0000 0000 fd82 3f31 9869 b231
00000080: 0000 0000 e0e5 b131 78d8 582b 0000 0000
00000090: 68ae cf30 5139 8430 0000 0000 9ca8 5330
000000a0: 4518 372a 0000 0000 efe2 1332 2393 0f32
000000b0: 0000 0000 096a 3a32 59e4 852b 0000 0000
000000c0: 2e55 a533 7d36 ba33 0000 0000 d2e0 1234
000000d0: eecb 5c2d 0000 0000 eae0 8e31 98d9 6431
000000e0: 0000 0000 16ea 7331 b31d 712b 0000 0000
000000f0: 5cbd 7a32 1ebe 9d32 0000 0000 2789 3232
00000100: 135d 2d2c 0000 0000 212f fb31 b135 3632
00000110: 0000 0000 9a31 4232 4077 bf2b 0000 0000
00000120: d4c0 2732 e33c 9332 0000 0000 aca5 3132
00000130: 4e5f ea2b 0000 0000 899e 6031 f8e6 d331
00000140: 0000 0000 cb07 e731 6822 862b 0000 0000
00000150: 20fc fd30 79b3 6831 0000 0000 d566 5731
00000160: a097 132b 0000 0000 21a7 b331 27d6 5a31
00000170: 0000 0000 56f6 4631 297a 1d2b 0000 0000
00000180: b663 0033 6179 1933 0000 0000 5497 ab32
00000190: fe0e aa2c 0000 0000 807a 0731 7275 2831
000001a0: 0000 0000 b649 4031 2c33 e02a 0000 0000
000001b0: 1f68 2a32 cef4 7932 0000 0000 8fcc 1632
000001c0: 3c5c 052c 0000 0000 9825 b130 f9fb ea30
000001d0: 0000 0000 8cde bf30 f277 862a 0000 0000
000001e0: 1244 5332 9361 8332 0000 0000 1571 9932
000001f0: 3bdf 3c2c 0000 0000 b637 f531 2a22 ab31
00000200: 0000 0000 c7f2 3132 11c4 822b 0000 0000
00000210: 6163 e232 45a5 2733 0000 0000 8924 c632
00000220: e084 d12c 0000 0000 04c7 cb30 a605 ab30
00000230: 0000 0000 da5e 6331 ed0e 1e2a 0000 0000
00000240: 2c36 f032 4b93 0333 0000 0000 599c a332
00000250: e55f 932c 0000 0000 5642 9932 2404 d532
00000260: 0000 0000 bd87 8b32 7f2b 6c2c 0000 0000
00000270: 8c9a 9a31 2914 a531 0000 0000 d638 5831
00000280: 0aaa 1e2b 0000 0000 1328 6130 8037 9a30
00000290: 0000 0000 2e2a c430 e6d3 232a 0000 0000
000002a0: 014c aa32 e902 f232 0000 0000 2e11 ec32
000002b0: daa7 902c 0000 0000 149c 1332 901a af31
000002c0: 0000 0000 113c 1332 bdb3 5c2b 0000 0000
000002d0: 1063 fa30 a087 d330 0000 0000 c764 a531
000002e0: 99e2 8a2a 0000 0000 1dc4 8031 0052 b531
000002f0: 0000 0000 50fd 6431 de37 8d2b 0000 0000
00000300: 9420 bd30 fc88 f930 0000 0000 cdb5 9530
00000310: cd9a 9e2a 0000 0000 b79d 7130 3811 a130
00000320: 0000 0000 9f0e 5f30 cf86 042a 0000 0000
00000330: 93ad 1432 8d00 6332 0000 0000 7298 2b32
00000340: 7668 182c 0000 0000 6063 a730 9f72 1b31
00000350: 0000 0000 d1c7 a930 b69e 932a 0000 0000
00000360: 91c0 a131 1ab1 b131 0000 0000 5fa4 1231
00000370: d98d 4e2b 0000 0000 880f 4f30 a516 6d30
00000380: 0000 0000 127b 8730 2e17 c829 0000 0000
00000390: a35c d730 d9f8 1631 0000 0000 7b23 0931
000003a0: 6b94 eb2a 0000 0000 07d1 f131 0be0 c631
000003b0: 0000 0000 7e54 5332 fd62 892b 0000 0000
000003c0: 9fa3 2c32 ba7f 8132 0000 0000 87d4 2a32
000003d0: d73b 2c2c 0000 0000 2c2f c430 dc3f 0f31
000003e0: 0000 0000 c008 a630 92e0 942a 0000 0000
000003f0: e398 0332 322b d131 0000 0000 7087 3d32
4.6865707e-09 7.8992946e-09 0.0 3.6311625e-09 8.0786354e-13 0.0 2.2798625e-08 3.041474e-08
0.0 2.1297732e-08 5.033044e-12 0.0 1.3666075e-08 7.954734e-09 0.0 7.887717e-09
9.908404e-13 0.0 1.4069889e-09 2.8907532e-09 0.0 1.6445981e-09 4.832861e-13 0.0
1.15802195e-08 1.3045858e-08 0.0 1.2313373e-08 1.9888585e-12 0.0 2.7868616e-09 5.1924864e-09
0.0 5.1775118e-09 7.7039026e-13 0.0 1.5110801e-09 9.620554e-10 0.0 7.700096e-10
1.6262085e-13 0.0 8.608125e-09 8.3571505e-09 0.0 1.08507345e-08 9.513598e-13 0.0
7.698905e-08 8.671211e-08 0.0 1.3679099e-07 1.2550834e-11 0.0 4.1583137e-09 3.3302054e-09
0.0 3.5494216e-09 8.5661616e-13 0.0 1.4594971e-08 1.836366e-08 0.0 1.03921485e-08
2.4636445e-12 0.0 7.3104194e-09 1.0606002e-08 0.0 1.1303564e-08 1.3604465e-12 0.0
9.764523e-09 1.714074e-08 0.0 1.0340425e-08 1.6653152e-12 0.0 3.2686407e-09 6.1671663e-09
0.0 6.723871e-09 9.530822e-13 0.0 1.8479831e-09 3.3862462e-09 0.0 3.134507e-09
5.2435313e-13 0.0 5.228586e-09 3.1844907e-09 0.0 2.8952818e-09 5.5947136e-13 0.0
2.989301e-08 3.5733482e-08 0.0 1.9975836e-08 4.833355e-12 0.0 1.9714719e-09 2.4513978e-09
0.0 2.7981577e-09 3.98259e-13 0.0 9.918977e-09 1.454937e-08 0.0 8.77766e-09
1.8951637e-12 0.0 1.288913e-09 1.7097356e-09 0.0 1.3960331e-09 2.388641e-13 0.0
1.2297294e-08 1.5294779e-08 0.0 1.7862968e-08 2.6840325e-12 0.0 7.136772e-09 4.980639e-09
0.0 1.0357957e-08 9.291475e-13 0.0 2.6355055e-08 3.903303e-08 0.0 2.3066848e-08
5.9548894e-12 0.0 1.4826758e-09 1.2443493e-09 0.0 3.3086764e-09 1.4038397e-13 0.0
2.7964312e-08 3.0634776e-08 0.0 1.9046796e-08 4.1886377e-12 0.0 1.784171e-08 2.4798346e-08
0.0 1.6243456e-08 3.3561762e-12 0.0 4.49956e-09 4.804424e-09 0.0 3.1464444e-09
5.6368853e-13 0.0 8.191147e-10 1.1220749e-09 0.0 1.4272865e-09 1.4550825e-13 0.0
1.9825167e-08 2.8173831e-08 0.0 2.7481828e-08 4.1113614e-12 0.0 8.592014e-09 5.09619e-09
0.0 8.570184e-09 7.840914e-13 0.0 1.8218049e-09 1.5390818e-09 0.0 4.813589e-09
2.4670958e-13 0.0 3.747586e-09 5.2771156e-09 0.0 3.3322358e-09 1.0034159e-12 0.0
1.3760819e-09 1.8156068e-09 0.0 1.0892848e-09 2.8173853e-13 0.0 8.7899416e-10 1.1719186e-09
0.0 8.1147705e-10 1.1770726e-13 0.0 8.6542e-09 1.3213264e-08 0.0 9.988172e-09
2.1658487e-12 0.0 1.2179093e-09 2.2620623e-09 0.0 1.235316e-09 2.6222573e-13 0.0
4.707609e-09 5.171512e-09 0.0 2.133923e-09 7.3382755e-13 0.0 7.532823e-10 8.625228e-10
0.0 9.857521e-10 8.885805e-14 0.0 1.5669638e-09 2.1969326e-09 0.0 1.9956292e-09
4.1847371e-13 0.0 7.037787e-09 5.788029e-09 0.0 1.2301028e-08 9.76191e-13 0.0
1.0048921e-08 1.507566e-08 0.0 9.9436255e-09 2.4475888e-12 0.0 1.4274284e-09 2.0845539e-09
0.0 1.2080577e-09 2.6445908e-13 0.0 7.659966e-09 6.0876113e-09 0.0 1.1032043e-08

exp_avg f4 [128]
00000000: d46c 9837 fcc1 3938 55d4 21b8 e123 12b7
00000010: a0ae 3fb8 24ac b0b7 6a7c 0138 778a 3938
00000020: 7114 dbb8 a589 a537 440b 98b7 8a0e a4b7
00000030: ca16 ad37 8c97 b236 c012 c5b7 b06a f337
00000040: ffd5 c9b8 e257 8c36 be9f 8cb8 9a45 3eb6
00000050: 889f 6437 c915 99b6 8994 2938 0672 b737
00000060: d42b 16b8 141d a537 5317 94b7 58bb b337
00000070: 3243 a1b8 f296 0338 38c5 79b5 ad52 0038
00000080: a0aa deb7 f3f4 af37 8675 c137 fd1d 3737
00000090: 796e d837 6218 f635 1067 a6b5 d942 16b8
000000a0: 1ae0 1038 2cb6 0ab7 a0a3 a837 425f b1b7
000000b0: 3c65 0e35 b604 c238 cedf e1b6 74eb 10b7
000000c0: 7b8d c2b8 0fc1 6eb8 90ec e535 e02f 90b5
000000d0: 232b beb8 a0b2 b7b7 c0de 61b5 233d 8437
000000e0: 6ee6 7eb7 94d2 b8b7 7218 4737 006e c1b7
000000f0: eede 0cb8 3aac b6b7 7265 9cb6 8ebd 50b7
00000100: 834b 1638 0697 51b7 ee72 fcb6 c09d 2337
00000110: 59f7 52b7 9a5b c7b7 0016 04b7 9e65 95b7
00000120: da8d 7237 68d0 cc36 8b2e bb37 9e4f a637
00000130: b03f c536 46f3 7c37 2aad 07b8 6429 aeb7
00000140: 00c8 4eb2 f2d0 e5b7 2945 5ab7 e933 7bb7
00000150: 9c59 9437 ebb4 2937 6609 47b8 264a a137
00000160: be66 47b8 8210 a4b8 d851 6ab8 5e5c 1a38
00000170: 6612 6d37 4ec5 47b9 5466 07b8 8a14 5f37
00000180: c890 bc36 d1e5 8fb7 1ac6 1438 fb88 8eb7
00000190: e80e a0b7 f28c 40b8 dcbb 3037 0255 41b6
000001a0: 1a11 9e37 5e89 19b8 d881 a835 7a2b 3d37
000001b0: 68b7 2eb8 b190 2cb8 72e0 3037 3f0a 9c36
000001c0: f781 acb7 1bf6 dc37 252f e537 fc45 53b8
000001d0: cae6 d2b7 6ede 3bb7 6077 7db6 9b5e da37
000001e0: 4083 4936 00a6 4238 62c7 36b8 6c02 d5b6
000001f0: ca7f e637 0424 4bb8 5ad9 5bb7 99fe d5b7
1.8170489e-05 4.42881e-05 -3.858314e-05 -8.710632e-06 -4.570058e-05 -2.1060994e-05 3.0871866e-05 4.4236393e-05
-0.00010446541 1.9733629e-05 -1.8125058e-05 -1.9557094e-05 2.0633819e-05 5.3224558e-06 -2.3492961e-05 2.9017538e-05
-9.624287e-05 4.182556e-06 -6.7054745e-05 -2.835272e-06 1.3627003e-05 -4.5622915e-06 4.0431074e-05 2.1868396e-05
-3.5803605e-05 1.9683073e-05 -1.7653836e-05 2.1425702e-05 -7.689594e-05 3.1373413e-05 -9.304672e-07 3.0594576e-05
-2.6543916e-05 2.0975689e-05 2.3062119e-05 1.0914632e-05 2.580065e-05 1.8335525e-06 -1.2397959e-06 -3.5825044e-05
3.4540986e-05 -8.267856e-06 2.0103354e-05 -2.1144402e-05 5.304644e-07 9.251518e-05 -6.731577e-06 -8.63789e-06
-9.276994e-05 -5.692342e-05 1.7130678e-06 -1.074277e-06 -9.067941e-05 -2.1898479e-05 -8.4143176e-07 1.5764095e-05
-1.5193231e-05 -2.2032567e-05 1.1867016e-05 -2.3058616e-05 -3.358622e-05 -2.177629e-05 -4.660972e-06 -1.24419e-05
3.5833113e-05 -1.2492534e-05 -7.523565e-06 9.752286e-06 -1.25745655e-05 -2.3765304e-05 -7.872935e-06 -1.7809503e-05
1.4457351e-05 6.1039354e-06 2.231381e-05 1.9825817e-05 5.8784717e-06 1.5077012e-05 -3.234778e-05 -2.076169e-05
-1.2036253e-08 -2.7396225e-05 -1.3009915e-05 -1.4972852e-05 1.7684702e-05 1.0115308e-05 -4.745405e-05 1.9227224e-05
-4.7540983e-05 -7.823204e-05 -5.586617e-05 3.6802485e-05 1.41305845e-05 -0.0001905162 -3.228181e-05 1.3296618e-05
5.6196914e-06 -1.7153945e-05 3.5470446e-05 -1.6991506e-05 -1.9080428e-05 -4.5907633e-05 1.0534157e-05 -2.8808722e-06
1.8843031e-05 -3.6605976e-05 1.2554765e-06 1.12754005e-05 -4.1655643e-05 -4.114275e-05 1.0542675e-05 4.650355e-06
-2.0564517e-05 2.6340645e-05 2.732088e-05 -5.03715e-05 -2.514142e-05 -1.1197857e-05 -3.7769423e-06 2.603168e-05
3.0027732e-06 4.6407804e-05 -4.357787e-05 -6.3481766e-06 2.7477643e-05 -4.8432514e-05 -1.3104023e-05 -2.5510135e-05

exp_avg_sq f4 [128]
00000000: 6476 b431 92ad f332 b619 d631 b499 3c31
00000010: 3fdd 4d32 a08d 9631 c0dd 8b30 398e c131
00000020: 7a2b 9f33 bfcb af31 9c25 8a32 ea3c 0b32
00000030: a73f 3232 533a c931 d87d 5c31 f4eb 5931
00000040: b051 0033 9152 2031 3e0f 4e32 6c4b b230
00000050: 618d 8232 4ff0 ac31 047b 1733 8bd7 7430
00000060: 632f e732 36b1 b732 0efc 8c31 3c60 6a30
00000070: f133 d432 6d5b 9a31 78c0 c130 e996 c231
00000080: 8113 d830 09ac 5130 39fb 5b32 6c90 be30
00000090: e6f2 9631 f862 0d30 d3bc 2e31 c164 bf31
000000a0: 04dc 7632 795a d930 4399 b831 889a 4e31
000000b0: c32c 2630 0ede ac32 cd30 1931 036f 5032
000000c0: 51af 9732 719f ca32 d111 3831 e36c 1f32
000000d0: 64aa e532 7d09 0431 daed 7430 e3b3 e431
000000e0: b230 8130 3953 8731 c495 1932 72ab 0831
000000f0: 5eea e131 b212 b730 a307 6a30 6bff 9430
00000100: dff0 da31 69f4 a931 637e d330 5c32 7c30
00000110: dc9e 0430 8c54 0d31 d95f 3930 b77c b630
00000120: 9299 0631 5a1a c631 dc9a f030 01a4 d730
00000130: d960 1f31 8dde 2632 f6de 5431 6484 bc31
00000140: ecc9 0831 0bcb 8931 f3ce db2f 8f66 2832
00000150: 1b0d 4631 eea5 4d30 2d19 3d33 f274 ad32
00000160: 87ef 0e32 f560 a032 beed e031 7bb6 fe30
00000170: bf86 3b30 74ea a933 0176 3b31 2ba3 0a31
00000180: d980 b933 c7b7 4d32 c967 8d31 8dc0 1731
00000190: 43b8 c631 0c4c ec31 24fd 9732 65da 0631
000001a0: 1b87 2531 36f5 3932 1080 1a32 cd3a 4231
000001b0: 03a0 2531 eca3 8c32 f6da 1d32 339c 8c2f
000001c0: 707b 1232 ed99 9330 a397 0531 1167 4632
000001d0: 3dc9 0331 9921 8731 d451 4e33 7ea2 ab31
000001e0: f0f7 1b32 1365 ca31 65d2 7332 4b9e 6132
000001f0: 2f75 0133 455c c332 9ab1 7131 85e7 9f30
5.252149e-09 2.8367854e-08 6.2311427e-09 2.744497e-09 1.1982876e-08 4.3816755e-09 1.0176606e-09 5.633208e-09
7.411923e-08 5.1163336e-09 1.6082417e-08 8.104715e-09 1.03754365e-08 5.8565006e-09 3.2085747e-09 3.171178e-09
2.9876617e-08 2.3329998e-09 1.1994244e-08 1.2972641e-09 1.5198284e-08 5.0331788e-09 3.526931e-08 8.907299e-10
2.6913488e-08 2.138459e-08 4.1031916e-09 8.526546e-10 2.4703668e-08 4.492384e-09 1.4097301e-09 5.6632996e-09
1.5721612e-09 7.6278234e-10 1.2804599e-08 1.3865367e-09 4.393189e-09 5.1436144e-10 2.5427667e-09 5.570286e-09
1.436911e-08 1.5814542e-09 5.3725286e-09 3.0064786e-09 6.045406e-10 2.0124414e-08 2.229217e-09 1.2132435e-08
1.7658438e-08 2.35884e-08 2.6785651e-09 9.279776e-09 2.6736593e-08 1.9213922e-09 8.910469e-10 6.656124e-09
9.399825e-10 3.9384784e-09 8.939825e-09 1.988806e-09 6.5750063e-09 1.3320316e-09 8.5139557e-10 1.0841011e-09
6.372019e-09 4.9463336e-09 1.5388192e-09 9.174863e-10 4.8247073e-10 2.056626e-09 6.7438816e-10 1.3277689e-09
1.958686e-09 5.7655543e-09 1.7506312e-09 1.5689922e-09 2.3192597e-09 9.713074e-09 3.09768e-09 5.486571e-09
1.9905384e-09 4.010308e-09 3.9982914e-10 9.802206e-09 2.8820242e-09 7.4814366e-10 4.402789e-08 2.0193031e-08
8.31995e-09 1.8670542e-08 6.546286e-09 1.8532796e-09 6.822169e-10 7.9123225e-08 2.727916e-09 2.0174393e-09
8.638171e-08 1.1974357e-08 4.115439e-09 2.2082844e-09 5.7835066e-09 6.8771495e-09 1.7693829e-08 1.962371e-09
2.4087459e-09 1.0824172e-08 8.993098e-09 2.826414e-09 2.4101616e-09 1.6372688e-08 9.188389e-09 2.5576838e-10
8.526385e-09 1.0739406e-09 1.9440243e-09 1.15485514e-08 1.91774e-09 3.9328367e-09 4.8037535e-08 4.9952282e-09
9.078562e-09 5.8904646e-09 1.41923e-08 1.3132715e-08 3.014173e-08 2.2742947e-08 3.517107e-09 1.1634574e-09
