Assets/Models/SliderBehavior/SliderBehavior.onnx (onnx, 77770 bytes, 6 tensors)

network_body._body_endoder.seq_layers.0.weight f4 [128, 6]
0.3532607 -0.71977824 0.147966 -0.2914192 -0.5040441 -0.1203611 0.8958963 -0.72097486
-0.33307227 -0.25586283 0.50691813 -0.13287473 0.51304674 0.25970367 0.099438734 -0.09293857
-0.39647368 0.8486198 0.14005123 0.13523693 0.14033584 0.018752838 -0.5583576 -0.16875799
-0.46941587 -0.50425744 -0.19867712 0.5209601 0.2809461 -0.10586279 0.30014652 -0.3530241
0.21023569 -0.84866416 0.07169595 -0.68448466 0.054715127 -0.31664488 -0.42900494 0.13961825
-0.19251187 0.03533594 0.047838513 0.50003016 0.7924077 -0.3185532 0.095730186 0.29689628
-0.023169832 0.16057225 -0.5897111 0.43627313 -0.28365344 -1.148348 -0.8449755 -0.23097713
-0.3329547 -0.3895138 0.31071728 -0.32176685 -0.2754702 0.066506594 -0.045529094 -0.43558618
0.392856 -0.08619801 0.38658142 -0.5911515 0.471939 0.29450843 -0.40844107 0.42203322
-0.07416298 -0.5783794 0.11156214 0.21036163 -0.43383935 -0.49675938 -0.5085664 0.56417346
-0.45892733 0.4217319 0.5082543 0.1543767 -0.5204751 -0.04294328 0.30221727 0.5054894
-0.50265545 -0.056912128 0.3731796 0.12139494 0.7976052 0.21012281 -0.4216381 -0.4681897
-0.053650416 0.31518996 0.32334334 -0.28141826 -0.73086894 -0.5540875 0.42661542 -0.2687072
-0.53886724 0.06584368 0.44729528 0.18420592 -0.21812381 -0.506322 -1.2843418 -0.5477475
-0.04110576 0.35305732 -0.28851023 0.1366674 -0.17946686 0.30793175 0.37376288 0.70743674
0.006424793 -0.3811641 0.5140472 0.9220573 0.015433889 0.0033093307 0.23928264 0.0071449294
0.07257137 0.17802028 -0.35302228 0.11662425 0.16307014 0.17744637 0.10953617 -0.40370038
-0.10328825 0.3826733 1.0991987 -0.7843103 0.032680683 -0.48982435 0.19127052 -0.33495823
0.58331335 -0.15959868 0.28251666 0.4105725 0.48962936 0.19898742 0.22802505 -0.0558471
0.5569884 0.24563208 -0.22001514 0.44841814 0.15438113 -0.026606984 0.72922504 0.5175105
-0.479923 -0.04505223 1.0210978 -0.2130417 -0.47550267 0.22111978 0.26444438 0.7179392
0.30607146 0.561064 -0.8403769 0.21634312 0.04681319 0.4241004 -0.28698325 0.073391326
0.14593701 0.45263356 0.6142794 -0.61307913 0.34035647 0.34096587 0.5224739 -0.22490093
0.124134794 0.10995346 0.37802225 0.07909472 0.047444683 0.13781008 0.050350137 -0.15810499
0.028518843 -0.119014785 0.045193773 0.6984398 -0.008150691 0.6577635 0.026337976 0.2406042
0.4155882 0.020916354 0.5418162 0.23747425 0.5284145 0.14635499 -0.5434927 0.20686899
0.63057727 0.6188549 -0.57804173 0.37863424 0.1674273 -0.015266286 -0.015940173 -0.5315324
-0.4713376 0.20234911 -0.27857628 -0.454433 0.335433 -0.59093785 0.5547263 -0.056694236
0.18147182 -0.46029055 -0.34945935 1.2781538 0.001333653 -0.75195354 -0.084234424 0.3406389
-0.30708897 -0.0626603 0.37635714 -0.53504366 0.08105955 -0.1865994 0.093405455 -0.102224626
-0.28167826 0.27025357 0.053267915 -0.449333 0.7666316 -1.3836638 0.35045555 -0.22467366
-0.8440449 0.3700327 -0.07583053 -0.7574073 0.14027548 -0.12675357 -0.28431347 0.3419629
00000000: 96de b43e 6343 38bf 6684 173e e634 95be
00000010: 0909 01bf e17f f6bd 7659 653f cf91 38bf
00000020: 7388 aabe 7400 83be 63c5 013f 5010 08be
00000030: 0857 033f e1f7 843e 89a6 cb3d 9456 bebd
00000040: 99fe cabe 263f 593f 9769 0f3e 8d7b 0a3e
00000050: 33b4 0f3e 8d9f 993c 86f0 0ebf e5ce 2cbe
00000060: 4757 f0be 0417 01bf 0472 4bbe a45d 053f
00000070: 2bd8 8f3e 97ce d8bd ceac 993e 93bf b4be
00000080: 0648 573e 0e42 59bf 54d5 923d 633a 2fbf
00000090: f81c 603d 471f a2be 89a6 dbbe 16f8 0e3e
000000a0: d521 45be 6bbc 103d 51f2 433d fa01 003f
000000b0: 3bdb 4a3f 6819 a3be 300e c43d ca02 983e
000000c0: a9ce bdbc 0d6d 243e 4ff7 16bf 315f df3e
000000d0: 063b 91be 11fd 92bf 5050 58bf 4585 6cbe
000000e0: 0a79 aabe 5a6e c7be 5616 9f3e a0be a4be
000000f0: 6e0a 8dbe 9c34 883d b77c 3abd 2705 dfbe
00000100: 6c24 c93e 9588 b0bd 00ee c53e b455 17bf
00000110: fda1 f13e cfc9 963e 301f d1be bd14 d83e
00000120: c3e2 97bd ac10 14bf b17a e43d 0a69 573e
00000130: 3120 debe 3f57 febe 6831 02bf ac6d 103f
00000140: 86f8 eabe 3eed d73e f41c 023f ed14 1e3e
00000150: db3d 05bf 4be5 2fbd 39bc 9a3e c167 013f
00000160: 07ae 00bf b11c 69bd 6611 bf3e e99d f83d
00000170: db2f 4c3f 6f2a 573e f3e0 d7be 8fb6 efbe
00000180: 8ac0 5bbd 9460 a13e 428d a53e 0e16 90be
00000190: 3a1a 3bbf aed8 0dbf 566d da3e fd93 89be
000001a0: 34f3 09bf 0dd9 863d e303 e53e 7aa0 3c3e
000001b0: d95b 5fbe 529e 01bf 5065 a4bf 2e39 0cbf
000001c0: 835e 28bd eec3 b43e 9db7 93be 8af2 0b3e
000001d0: 29c6 37be 3ba9 9d3e d95d bf3e 931a 353f
000001e0: 1287 d23b f127 c3be 9998 033f f20b 6c3f
000001f0: 6cde 7c3c 5be1 583b 8206 753e 0320 ea3b
00000200: 4ca0 943d f34a 363e 56bf b4be b2d8 ee3d
00000210: dcfb 263e 80b4 353e 8054 e03d d1b1 cebe
00000220: ca88 d3bd c1ed c33e 8bb2 8c3f 8fc8 48bf
00000230: 2edc 053d 42ca fabe 6bdc 433e a57f abbe
00000240: 0654 153f d66d 23be 06a6 903e 8f36 d23e
00000250: b3b0 fa3e 5cc3 4b3e 667f 693e eebf 64bd
00000260: cb96 0e3f fa86 7b3e a64b 61be 1097 e53e
00000270: 1616 1e3e e4f6 d9bc 7eae 3a3f 917b 043f
00000280: 78b8 f5be b088 38bd 55b3 823f 9a27 5abe
00000290: 1675 f3be 396d 623e 4165 873e ddca 373f
000002a0: 66b5 9c3e e4a1 0f3f f122 57bf 0d89 5d3e
000002b0: 30bf 3f3d b023 d93e 78ef 92be 314e 963d
000002c0: 8370 153e 96bf e73e 6a41 1d3f c1f2 1cbf
000002d0: 3443 ae3e 1493 ae3e d9c0 053f 6e4c 66be
000002e0: 623a fe3d 482f e13d 228c c13e 6afc a13d
000002f0: 5b55 423d 161e 0d3e f23b 4e3d 46e6 21be
00000300: 59a0 e93c 06be f3bd 1b1d 393d f3cc 323f
00000310: 7a8a 05bc 3063 283f bdc2 d73c f360 763e
00000320: fac7 d43e c658 ab3c 77b4 0a3f 732c 733e
00000330: 2c46 073f 15de 153e 5622 0bbf 77d5 533e
00000340: 836d 213f 466d 1e3f 8bfa 13bf 59dc c13e
00000350: 1072 2b3e 721f 7abc f794 82bc 8212 08bf
00000360: 2953 f1be 9b34 4f3e 8da1 8ebe 71ab e8be
00000370: e0bd ab3e b447 17bf 8b02 0e3f 3738 68bd
00000380: c0d3 393e 34ab ebbe 56ec b2be 8b9a a33f
00000390: f8cd ae3a 0780 40bf 1983 acbd 3968 ae3e
000003a0: c43a 9dbe 0b54 80bd e2b1 c03e 9ff8 08bf
000003b0: 8d02 a63d ea13 3fbe 5c4b bf3d 255b d1bd
000003c0: 2238 90be ad5e 8a3e 752f 5a3d fa0e e6be
000003d0: f841 443f e51b b1bf e96e b33e da10 66be
000003e0: 5413 58bf ed74 bd3e 094d 9bbd 72e5 41bf
000003f0: 60a4 0f3e b0cb 01be 8991 91be c315 af3e

network_body._body_endoder.seq_layers.0.bias f4 [128]
-0.0076640057 -0.036307443 0.015747217 -0.0282486 0.021524508 -0.0034680795 -0.0058330474 -0.039299756
-0.01895012 -0.049851086 -0.051800344 -0.010126431 0.005033809 0.041175187 -0.044418592 -0.00869577
-0.056626387 -0.034428358 -0.0061369045 -0.0040600714 0.0006242434 0.027615549 -0.017725173 -0.035434604
0.012135508 -0.01338674 0.031182557 0.011719066 -0.034641836 0.023031283 0.025414674 0.034786344
-0.0007275054 -0.020001546 -0.015757421 -0.0053085256 -0.04067018 0.01735325 0.02648118 -0.051867686
-0.05542666 -0.035406634 -0.0148657495 -0.023493493 0.026242103 0.002966854 -0.021542003 -0.017719544
0.0007161231 0.08379315 -0.033123925 -0.06054512 -0.020957006 0.0094490005 -0.057047993 -0.010784143
-0.024334827 -0.024564007 0.006031427 -0.05044352 -0.041249953 0.002866851 -0.026298415 -0.03873013
-0.048639275 -0.040107407 -0.007800673 -0.02127478 -0.01396507 0.060771342 -0.007923249 -0.0041655754
-0.037566423 -0.012416674 -0.021499487 -0.0016288632 -0.019711763 -0.051704627 -0.021451356 0.011987221
-0.033809483 -0.03702147 -0.0347191 0.012279746 0.016750826 -0.032220002 -0.06357913 -0.0031135888
-0.0886947 -0.049762174 -0.0031896734 -0.044124946 -0.021964516 -0.044550978 -0.033762965 -0.051335134
-0.0017203956 -0.07948842 0.02821366 0.0051917974 -0.015253297 0.01046438 -0.05061259 0.009112396
0.0502109 -0.0452922 -0.006361479 -0.00890873 0.0011569664 -0.066633955 -0.00970532 -0.007610067
-0.015660897 0.0015705734 -0.020675609 0.0047082556 -0.0077144504 -0.025555132 -0.052345995 -0.015844954
-0.011506252 0.0041800374 -0.008599268 0.044356592 0.011046153 -0.043982975 -0.034690715 -0.05597862
00000000: 5722 fbbb 1db7 14bd 4f00 813c 9c69 e7bc
00000010: 2a54 b03c b848 63bb 2623 bfbb c8f8 20bd
00000020: 483d 9bbc a730 4cbd 992c 54bd 54e9 25bc
00000030: a7f2 a43b 50a7 283d 45f0 35bd b478 0ebc
00000040: 12f1 67bd c004 0dbd 1618 c9bb 590a 85bb
00000050: 44a4 233a 013a e23c 6234 91bc e023 11bd
00000060: 02d4 463c 0f54 5bbc 9072 ff3c 5301 403c
00000070: 99e4 0dbd 1aac bc3c 6f32 d03c 207c 0e3d
00000080: 10b6 3eba 48da a3bc b515 81bc 24f3 adbb
00000090: c695 26bd 6728 8e3c 0fef d83c 3673 54bd
000000a0: 1107 63bd 8c06 11bd 798f 73bc 6d75 c0bc
000000b0: aef9 d63c 8d6f 423b db78 b0bc 9428 91bc
000000c0: 35ba 3b3a be9b ab3d f4ac 07bd 29fe 77bd
000000d0: 07ae abbc fbcf 1a3c 28ab 69bd f9af 30bc
000000e0: d559 c7bc 753a c9bc 47a3 c53b dd9d 4ebd
000000f0: b6f5 28bd c7e1 3b3b c66f d7bc 7ca3 1ebd
00000100: fa39 47bd aa47 24bd ca9c ffbb 7348 aebc
00000110: c0cd 64bc 5feb 783d 84d0 01bc 617f 88bb
00000120: 40df 19bd 4e6f 4bbc b11f b0bc 947f d5ba
00000130: 907a a1bc 3bc8 53bd c1ba afbc 0d66 443c
00000140: d07b 0abd d3a3 17bd 9d35 0ebd fd30 493c
00000150: 0739 893c 1ff9 03bd c635 82bd 5a0d 4cbb
00000160: 91a5 b5bd 6cd3 4bbd d709 51bb 5cbc 34bd
00000170: eeee b3bc 167b 36bd 094b 0abd ca44 52bd
00000180: e67e e1ba d3ca a2bd 5520 e73c f41f aa3b
00000190: f7e8 79bc ca72 2b3c 264f 4fbd 294c 153c
000001a0: f2a9 4d3d 5084 39bd f473 d0bb ecf5 11bc
000001b0: 5aa5 973a 6277 88bd 1003 1fbc de5d f9bb
000001c0: 484b 80bc b3db cd3a e55f a9bc b647 9a3b
000001d0: 80c9 fcbb ff58 d1bc c168 56bd 47cd 81bc
000001e0: b884 3cbc b2f8 883b f2e3 0cbc 42af 353d
000001f0: ecfa 343c 7e27 34bd da17 0ebd d649 65bd

network_body._body_endoder.seq_layers.2.weight f4 [128, 128]
0.09986004 0.02494544 0.105190694 0.046896424 -0.22565791 -0.00024875507 -0.0945561 -0.057219066
-0.046383534 -0.09286254 -0.06935351 -0.029245785 -0.0068119797 -0.02490964 -0.012176104 -0.09005926
0.028090257 -0.27389917 -0.11519615 0.036119267 -0.03645283 0.038130123 0.16959481 0.020304767
-0.12099381 0.03030409 0.082404785 -0.04222132 0.06827438 -0.007165956 -0.032228075 -0.10372966
-0.07193059 0.11575927 0.031467464 0.1644723 -0.15157013 0.15963404 0.089874 0.036731467
-0.07616556 0.007065169 0.20218803 0.023571452 0.047484815 -0.0111926 -0.024573622 -0.056688562
-0.00310683 -0.014574299 0.07696365 0.052060477 0.14261308 -0.08084724 0.034081563 0.047464963
-0.10199682 0.091134794 0.03225515 -0.1592313 0.010668797 0.021074569 -0.095028736 -0.17089184
-0.015240417 -0.08111681 -0.15297568 0.038622838 0.108780116 0.026716784 0.089246385 0.05813692
0.046968337 0.13660398 0.110988505 0.067797236 0.0041635334 -0.09758994 -0.043766104 -0.10062699
-0.082433015 -0.03063621 -0.13835107 -0.038953148 -0.07591594 0.086678915 0.04660484 0.03575898
-0.07021541 0.04099613 0.013307304 0.16813107 -0.07234009 -0.014501578 -0.12824856 0.17970714
0.08258999 0.06476133 0.22845179 0.052772418 0.08943209 -0.06303426 -0.025618633 -0.022804338
-0.2064472 0.07936183 -0.009053042 0.1384749 0.0019360288 -0.04712735 -0.10361116 0.026424006
0.0012059415 -0.19701634 -0.10609579 -0.022772025 0.124355376 0.016157417 0.029111553 -0.17920974
-0.08692675 -0.0640378 0.012584106 -0.1363177 -0.11309482 0.028660191 -0.1060432 -0.10685212
-0.12920055 0.005617283 -0.018834285 0.011993982 0.062401615 0.041967835 -0.014569028 0.13842052
0.040998083 0.05464031 0.010274301 -0.038645897 0.07080819 -0.09233324 -0.015601923 -0.074880585
0.06391747 0.070831604 0.087797925 0.08704693 -0.09494258 0.037868008 -0.061788455 0.032274444
-0.10533754 0.17514971 0.03242233 -0.03419033 0.08198933 0.037298143 0.042443004 -0.011192021
-0.018754544 -0.069131464 0.19111319 0.09036331 -0.09989696 0.057295248 0.09552796 0.03717247
-0.0029456592 0.0036819824 -0.08162075 -0.03622557 0.14268683 0.047733802 0.10091383 0.010138532
-0.13817434 -0.13512927 0.041043304 -0.068315886 -0.039282095 -0.053765804 -0.046973575 0.043595426
0.010996016 -0.07782108 -0.11181126 -0.034482792 0.007652366 -0.09090337 -0.15701808 0.043458518
-0.08474449 0.034407217 -0.073711425 -0.09428443 0.0419911 0.0300502 0.042942166 -0.051894397
-0.013206485 -0.024021173 0.14789808 0.04354388 0.13907388 0.019256128 0.027981773 0.08087934
-0.026217965 0.034060683 0.073132366 -0.044112615 0.11498803 0.059218433 -0.15430565 0.062123783
0.04976801 -0.11593298 0.13006885 -0.16298908 -0.006249475 0.069271855 -0.0650259 0.044271775
0.17273964 0.0027439687 0.06877151 -0.06653313 0.11442944 -0.1462203 0.091556996 -0.011676397
-0.09921415 0.035068873 -0.022996083 -0.120348565 -0.028011851 -0.13296442 0.08687995 -0.11582024
-0.06556651 -0.063145995 0.039100308 0.009938593 -0.0647219 -0.013123236 -0.013106766 0.023364186
-0.11243217 0.0628432 0.13084981 -0.10453404 0.017288145 0.035929188 0.050047804 -0.025194142
00000000: 6c83 cc3d 615a cc3c 386e d73d 7716 403d
00000010: de12 67be 576b 82b9 a1a6 c1bd 8a5e 6abd
00000020: a9fc 3dbd b72e bebd 3709 8ebd db94 efbc
00000030: 0737 dfbb 4d0f ccbc 487e 47bc fd70 b8bd
00000040: 8a1d e63c 833c 8cbe f6eb ebbd ccf1 133d
00000050: 904f 15bd 552e 1c3d 43aa 2d3e 2f56 a63c
00000060: 9acb f7bd 4840 f83c d7c3 a83d 43f0 2cbd
00000070: 70d3 8b3d 65d0 eabb 9601 04bd 3770 d4bd
00000080: 5850 93bd 3213 ed3d 07e4 003d 6d6b 283e
00000090: 3335 1bbe 1b77 233e dc0f b83d bc73 163d
000000a0: b0fc 9bbd ef82 e73b 610a 4f3e eb18 c13c
000000b0: 707f 423d 2b61 37bc 9f4e c9bc 4432 68bd
000000c0: f59b 4bbb 0ac9 6ebc 1e9f 9d3d 5e3d 553d
000000d0: 2a09 123e 3d93 a5bd 1c99 0b3d 9f6a 423d
000000e0: b5e3 d0bd e1a4 ba3d fa1d 043d 880d 23be
000000f0: 2ecc 2e3c 93a4 ac3c 6d9e c2bd 45fe 2ebe
00000100: f1b2 79bc 9220 a6bd a8a5 1cbe fb32 1e3d
00000110: 1cc8 de3d 28dd da3c cfc6 b63d fb20 6e3d
00000120: df61 403d eae1 0b3e f14d e33d 47d9 8a3d
00000130: 406e 883b 3cdd c7bd 1644 33bd 8615 cebd
00000140: a4d2 a8bd caf8 fabc e7ab 0dbe 568d 1fbd
00000150: d179 9bbd b784 b13d b7e4 3e3d 0278 123d
00000160: 19cd 8fbd 8feb 273d e106 5a3c 8d2a 2c3e
00000170: 0b27 94bd 0798 6dbc 9753 03be 2605 383e
00000180: f124 a93d 97a1 843d 44ef 693e e427 583d
00000190: 2c28 b73d 1b18 81bd 2bde d1bc 2ad0 babc
000001a0: e566 53be 7588 a23d 3653 14bc 5dcc 0d3e
000001b0: 59c2 fd3a 9c08 41bd 1632 d4bd 2877 d83c
000001c0: af10 9e3a a7be 49be c048 d9bd 668c babc
000001d0: 08ae fe3d 8f5c 843c 5a7b ee3c c282 37be
000001e0: a706 b2bd 4026 83bd 912d 4e3c de96 0bbe
000001f0: 429e e7bd c7c8 ea3c 2d2d d9bd 49d5 dabd
00000200: 264d 04be 2f11 b83b 5c4a 9abc 6882 443c
00000210: d698 7f3d 77e6 2b3d efb2 6ebc 1cbe 0d3e
00000220: 9bed 273d 85ce 5f3d 8b55 283c 294b 1ebd
00000230: e203 913d 3619 bdbd 359f 7fbc fe5a 99bd
00000240: 2ae7 823d 2910 913d 66cf b33d a945 b23d
00000250: 4171 c2bd 7c1b 1b3d e415 7dbd 3532 043d
00000260: 35bb d7bd 725a 333e 47cd 043d 290b 0cbd
00000270: 06ea a73d f0c5 183d b7d8 2d3d bd5e 37bc
00000280: 21a3 99bc cc94 8dbd 2db3 433e 6610 b93d
00000290: c796 ccbd 6cae 6a3d 2aa4 c33d 2942 183d
000002a0: f60b 41bb 6a4d 713b c828 a7bd 4361 14bd
000002b0: 7f1c 123e 8584 433d e9ab ce3d 161c 263c
000002c0: 937d 0dbe 545f 0abe 061d 283d 33e9 8bbd
000002d0: 43e6 20bd 8839 5cbd 5d67 40bd 1e91 323d
000002e0: a228 343c a960 9fbd 4dfd e4bd d43d 0dbd
000002f0: b3c0 fa3b 8c2b babd 59c9 20be 8f01 323d
00000300: 858e adbd 95ee 0c3d 04f6 96bd 3218 c1bd
00000310: dcfe 2b3d d62b f63c 20e4 2f3d 388f 54bd
00000320: 0360 58bc 0dc8 c4bc 9872 173e 115b 323d
00000330: 6269 0e3e 07bf 9d3c 083a e53c 11a4 a53d
00000340: 0fc7 d6bc 3783 0b3d 6cc6 953d 6eaf 34bd
00000350: d87e eb3d 078f 723d 4d02 1ebe 8275 7e3d
00000360: 8ad9 4b3d 456e edbd c530 053e 9ce6 26be
00000370: 65c8 ccbb 67de 8d3d 4d2c 85bd 5256 353d
00000380: a9e2 303e 28d4 333b 14d8 8c3d 8642 88bd
00000390: fb59 ea3d c6ba 15be 3c82 bb3d 5c4e 3fbc
000003a0: ca30 cbbd 61a4 0f3d 4862 bcbc 4f79 f6bd
000003b0: 1c79 e5bc d327 08be 1dee b13d 2933 edbd
000003c0: bc47 86bd b052 81bd a527 203d 7bd5 223c
000003d0: ea8c 84bd d702 57bc c3bd 56bc 4066 bf3c
000003e0: d642 e6bd f0b3 803d 7efd 053e f115 d6bd
000003f0: de9f 8d3c 7c2a 133d edfe 4c3d f263 cebc

network_body._body_endoder.seq_layers.2.bias f4 [128]
-0.007609871 -0.014610263 0.009615887 -0.016568543 -0.02948766 -0.023815287 -0.032531645 -0.017643804
-0.020550294 -0.009121909 -0.0054648654 -0.010455824 -0.022900878 -0.016085215 -0.018414332 0.0043793446
0.009459393 -0.02064747 0.013146094 -0.029663838 -0.014548675 -0.012201066 -0.02148418 -0.011816122
-0.014921513 -0.011228764 -0.014199414 -0.0048786234 -0.016266495 -0.032952193 -0.006820588 -0.002945028
-0.008613605 -0.0014613505 -0.015424161 -0.013213666 -0.0073317094 -1.47890305e-05 -0.015311576 -0.009820687
0.010987876 -0.01192317 -0.0067160977 -0.014251905 -0.02238068 0.015490931 -0.009226558 -0.021356458
0.0058921 -0.0035837844 -0.006157648 -0.0019382094 -0.018828703 0.008472802 0.0005335244 0.006790751
-0.01903237 -0.026553908 -0.013784216 -0.04877581 -0.0132537 -0.013449775 -0.022956923 -0.019501084
-0.002545224 -0.008600412 -0.019926876 -0.015137463 -0.013348327 -0.024125375 -0.01130306 -0.02438547
0.0047648065 -0.0198083 -0.011986763 -0.023326503 -0.03300336 -0.0073499973 0.018446723 -0.020785311
-0.0017921622 -0.017102176 -0.027627409 -0.0164462 0.01122304 0.027632307 -0.014850207 -0.008111962
-0.008318669 -0.010721484 -0.0024355177 -0.012837136 -0.012659126 -0.00488598 -0.009420811 -0.0067473366
-0.03254807 -0.0009197158 -0.0020591135 -0.014638078 0.00334397 -0.023553435 -0.0051568504 -0.03217678
0.0036707793 -0.015732557 -0.026209958 -0.021661144 -0.0026045858 -0.016450303 -0.01400066 -0.03889864
-0.012740576 -0.03671824 -0.008285481 -0.010455035 -0.041422397 -0.017286815 -0.012040741 -0.008204143
0.0029890072 -0.02730256 -0.016395176 -0.011103803 0.005123236 -0.027144013 -0.014549121 -0.041828495
00000000: 3a5c f9bb e25f 6fbc f48b 1d3c c1ba 87bc
00000010: 1b90 f1bc 4718 c3bc e73f 05bd bd89 90bc
00000020: 1759 a8bc 0f74 15bc 9d12 b3bb e84e 2bbc
00000030: 9f9a bbbc 24c5 83bc a7d9 96bc 9b80 8f3b
00000040: 92fb 1a3c e224 a9bc b762 573c 9401 f3bc
00000050: 915d 6ebc fbe6 47bc 97ff afbc 6898 41bc
00000060: 5d79 74bc daf8 37bc a9a4 68bc dcdc 9fbb
00000070: 5041 85bc e1f8 06bd 3d7f dfbb 5f01 41bb
00000080: 1420 0dbc c98a bfba 9fb5 7cbc 227e 58bc
00000090: d63e f0bb 671e 78b7 68dd 7abc f2e6 20bc
000000a0: 7e06 343c 6659 43bc b612 dcbb d280 69bc
000000b0: b057 b7bc adcd 7d3c fd2a 17bc bdf3 aebc
000000c0: 8412 c13b eddd 6abb 18c6 c9bb 840b feba
000000d0: a73e 9abc 82d1 0a3c 37dc 0b3a f384 de3b
000000e0: c6e9 9bbc 9587 d9bc 31d7 61bc 25c9 47bd
000000f0: 0c26 59bc 725c 5cbc 2810 bcbc bdc0 9fbc
00000100: c6cd 26bb bee8 0cbc b03d a3bc 1f03 78bc
00000110: f1b2 5abc 94a2 c5bc 7830 39bc 0ac4 c7bc
00000120: 1822 9c3b 0445 a2bc 2164 44bc 3917 bfbc
00000130: 882e 07bd 3fd8 f0bb 951d 973c f545 aabc
00000140: fce6 eaba dd19 8cbc e052 e2bc 2eba 86bc
00000150: d7e0 373c 265d e23c 484e 73bc 09e8 04bc
00000160: 074b 08bc 2aa9 2fbc 359d 1fbb da52 52bc
00000170: 3968 4fbc 921a a0bb bf59 1abc c318 ddbb
00000180: 2051 05bd 1519 71ba 31f2 06bb 8dd4 6fbc
00000190: 8226 5b3b 22f3 c0bc ccfa a8bb cdcb 03bd
000001a0: 7591 703b 90e1 80bc 44b6 d6bc b672 b1bc
000001b0: b3b1 2abb c9c2 86bc 0663 65bc 2e54 1fbd
000001c0: d9bd 50bc dd65 16bd d3bf 07bc 984b 2bbc
000001d0: 88aa 29bd 149d 8dbc 8746 45bc ab6a 06bc
000001e0: 38e3 433b 9ea9 dfbc 2d4f 86bc baec 35bc
000001f0: d2e0 a73b 1f5d debc 705f 6ebc 5b54 2bbd

action_model._continuous_distribution.mu.weight f4 [1, 128]
-0.0059738653 -0.0063983477 -0.038869787 -0.0050562355 -0.0017410383 -5.3040526e-06 0.0009133443 -0.0031077934
-0.00019485877 -0.02263858 -0.03659505 -0.012430715 0.000100575286 -0.03171197 -0.008179766 0.019918961
-0.043114204 -0.0048688357 -0.027398696 -0.003858538 0.013160405 0.0047399383 -0.0020072437 -0.0054146266
-0.0118407 -0.013000184 -0.0037146804 0.014615063 -0.0012887411 -6.745117e-05 0.0034849755 -0.00044508997
-0.006171414 0.017161494 0.01975978 -0.0047574556 -0.011034381 -0.036514875 -0.0032570085 0.00042786077
0.001788539 -0.010731663 -0.017404128 -0.016316384 0.0012562354 -0.02075495 -0.008945473 -0.0020733944
-0.042770207 -0.033372767 -0.012617635 -0.019098785 0.0033711623 0.0147094345 -0.029486673 -0.019363724
-0.0030192235 -0.0021553617 -0.009816136 -0.0002424974 -0.014616041 -0.034776624 -0.010410188 0.00017776372
-0.013181721 -0.021388827 -0.0016335133 -0.02105818 -0.0049187946 0.0018756092 0.0031889873 -0.00062169513
-0.018859316 -0.0052585728 -0.0034269607 -0.0005088466 0.0011997155 -0.013547976 -0.06008596 -0.0061049704
-0.028821638 0.000275402 -0.009711115 0.0011450542 -0.053830225 -0.07674455 0.0070140734 0.012918754
-0.0314175 -0.00094516494 -0.012184869 -0.022060672 -0.0066667646 -0.007534578 -0.00621263 -0.005083742
0.004572827 -0.021919515 -0.02110088 0.0032104999 0.009270322 0.0003055899 0.011329219 -0.002317083
-0.033070717 -0.031031193 -0.005797941 -0.00090230163 -0.031898968 -0.0044235177 -0.01203651 0.0011558731
-0.0017027784 -0.00096897106 -0.01648243 -0.0025056284 8.749222e-05 -0.030526489 -0.0067816973 -0.01115125
-0.044693 0.0035846555 -0.0016384629 0.007885777 -0.03807478 -0.0050028446 -0.022672776 0.0011810625
00000000: 6ac0 c3bb 3ba9 d1bb ed35 1fbd c7ae a5bb
00000010: 8d33 e4ba 77f9 b1b6 806d 6f3a 1fac 4bbb
00000020: 0153 4cb9 8b74 b9bc b1e4 15bd 33aa 4bbc
00000030: f2eb d238 69e4 01bd 6d04 06bc 172d a33c
00000040: 8598 30bd c18a 9fbb 3b73 e0bc 87df 7cbb
00000050: bd9e 573c 7c51 9b3b f68b 03bb 2e6d b1bb
00000060: 7fff 41bc b9fe 54bc ff71 73bb 0474 6f3c
00000070: faea a8ba 9274 8db8 3064 643b f75a e9b9
00000080: 9339 cabb 4396 8c3c 43df a13c 6ee4 9bbb
00000090: 8cc9 34bc 9f90 15bd 8973 55bb 8052 e039
000000a0: 696d ea3a dbd3 2fbc 1a93 8ebc f0a9 85bc
000000b0: 44a8 a43a 4906 aabc 0890 12bc c9e1 07bb
000000c0: d02f 2fbd e2b1 08bd 32ba 4ebc 0e75 9cbc
000000d0: b8ee 5c3b d7ff 703c 098e f1bc aca0 9ebc
000000e0: 2ade 45bb f840 0dbb dcd3 20bc e646 7eb9
000000f0: 1f78 6fbc ef71 0ebd 7e8f 2abc 1666 3a39
00000100: 25f8 57bc 9f37 afbc 9c1b d6ba 3482 acbc
00000110: d72d a1bb 00d7 f53a 54fe 503b 41f9 22ba
00000120: da7e 9abc 1b50 acbb dc96 60bb 1e64 05ba
00000130: c63f 9d3a 54f8 5dbc b21c 76bd 340c c8bb
00000140: 5b1b ecbc d563 9039 5e1b 1fbc a515 963a
00000150: 157d 5cbd 3f2c 9dbd 50d6 e53b 2ea9 533c
00000160: a3af 00bd f2c4 77ba 0ba3 47bc 95b8 b4bc
00000170: e074 dabb 9fe4 f6bb 5193 cbbb 8595 a6bb
00000180: a7d7 953b 8e90 b3bc c1db acbc 4067 523b
00000190: 8ce2 173c 9537 a039 309e 393c 34da 17bb
000001a0: 2975 07bd 2135 febc a7fc bdbb 7088 6cba
000001b0: 7ea8 02bd 28f3 90bb c834 45bc aa80 973a
000001c0: c32f dfba 8c02 7eba 2906 87bc 7835 24bb
000001d0: 077c b738 b012 fabc 0039 debb bcb3 36bc
000001e0: 0210 37bd 8aec 6a3b b1c1 d6ba 5933 013c
000001f0: 4df4 1bbd e7ee a3bb 42bc b9bc e2cd 9a3a

action_model._discrete_distribution.branches.0.weight f4 [1, 128]
-0.0035798003 -0.007083772 0.009824964 0.012629121 0.0028676868 -0.00045619122 -0.01253502 0.01723711
0.0016415723 0.00076458487 0.012507096 -0.01320264 0.009947596 0.009226142 -0.016229935 0.0017099215
-0.0013083081 -0.0068665924 0.0027058753 -0.010736666 0.006021227 -0.0066976934 -0.009259099 0.003601898
0.010052793 -0.00080881704 0.0065629743 0.014604479 0.006622595 -0.01369826 -0.0055043115 0.0006842587
-0.007861497 0.008116375 -0.004768449 -0.0003454464 -0.0042088563 -0.0020683303 -0.0057083303 0.002371028
0.0096017625 0.004482646 0.004635963 0.009903061 -0.0036183528 -0.0068463045 0.010323253 0.006139317
-0.009265649 -0.006517929 -0.0021364943 0.0074470392 0.008551936 -0.00061193126 0.007072221 0.0055081374
0.00689733 0.01239635 -0.016709255 -0.003367487 -0.0028663303 -0.009486168 0.0010405565 0.008908684
-0.007773238 -0.010059678 -0.011469869 -0.007815133 -0.013291227 0.01798121 -0.009660526 -0.0011266657
-0.0019635956 -0.00084914354 -0.0036804837 0.0063685775 -0.007929803 0.0023124155 -0.008944351 0.00036476928
0.0041564386 -0.015825769 0.011023159 0.007328468 -0.0121089835 0.0185072 -0.0067272843 0.009527157
0.007977151 0.022140276 0.0009952937 0.007835816 -0.010646558 0.0016680483 0.0020384004 0.0028382968
-0.0024571863 -0.0066620368 0.0071489955 0.017473815 -0.0023485895 -0.013786793 0.005168063 -0.00018575105
0.011304569 0.021116046 0.016426655 -0.0030714923 0.0048128306 -0.0015733856 0.0048686005 0.00080891245
-0.016267877 0.009394677 -0.0044475812 -0.005002535 -0.0053565986 0.0076627606 0.003976875 -0.0063345465
0.018294232 -0.024529632 -0.0055877613 0.000833857 -0.002942654 0.0082601635 -0.004741705 -0.0016740041
00000000: 159b 6abb fd1e e8bb e3f8 203c 5fea 4e3c
00000010: cdef 3b3b f32c efb9 af5f 4dbc d734 8d3c
00000020: 072a d73a 6c6e 483a 90ea 4c3c e34f 58bc
00000030: 3efb 223c 3f29 173c a4f4 84bc 721f e03a
00000040: 897b abba 2701 e1bb 0e55 313b d7e8 2fbc
00000050: b74d c53b 5378 dbbb 7ab3 17bc d20d 6c3b
00000060: 78b4 243c cb06 54ba 380e d73b a047 6f3c
00000070: 5a02 d93b ab6e 60bc 835d b4bb d35f 333a
00000080: 82cd 00bc 8bfa 043c a640 9cbb 081d b5b9
00000090: 72ea 89bb d38c 07bb f20c bbbb 4063 1b3b
000000a0: b650 1d3c 29e3 923b 47e9 973b 7340 223c
000000b0: e321 6dbb f756 e0bb dd22 293c 532c c93b
000000c0: f3ce 17bc 5a94 d5bb 6d04 0cbb 4b06 f43b
000000d0: 6b1d 0c3c 036a 20ba 17be e73b 9b7d b43b
000000e0: ff02 e23b 0f1a 4b3c d9e1 88bc 0fb1 5cbb
000000f0: 0bd9 3bbb df6b 1bbc 4863 883a bbf5 113c
00000100: a5b6 febb 59d1 24bc 1eec 3bbc 0b0b 00bc
00000110: 72c3 59bc 554d 933c 2f47 1ebc a1ac 93ba
00000120: abaf 00bb 0f99 5eba 4534 71bb 80af d03b
00000130: 01ec 01bc e58b 173b 548b 12bc 813e bf39
00000140: bc32 883b 0ba5 81bc 7b9a 343c a523 f03b
00000150: c264 46bc 699c 973c 8d70 dcbb cb17 1c3c
00000160: 99b2 023c 865f b53c 8474 823a cb61 003c
00000170: e76e 2ebc 6aa2 da3a af96 053b b802 3a3b
00000180: bf08 21bb 374d dabb 1f42 ea3b 3f25 8f3c
00000190: cbea 19bb 00e2 61bc db58 a93b 2bc6 42b9
000001a0: cd36 393c 8ffb ac3c 3191 863c 174b 49bb
000001b0: f3b4 9d3b 0f3a ceba c888 9f3b 320d 543a
000001c0: 3644 85bc 22ec 193c 04bd 91bb 4eec a3bb
000001d0: 6886 afbb e517 fb3b 7250 823b 0792 cfbb
000001e0: c9dd 953c 5ef2 c8bc 8a19 b7bb 3297 5a3a
000001f0: 8bd9 40bb a355 073c 4e60 9bbb 426a dbba
