config/results/b1/SliderBehavior/checkpoint.pt (torch, 446946 bytes, 41 tensors)

network_body.observation_encoder.processors.0.normalizer.running_mean f4 [6]
000000 e3 c9 64 c1 7b 21 63 c0 00 00 00 00 66 00 69 c1
       -14.299289 -3.5489185 0.0 -14.562597
000010 36 f6 bf c0 00 00 00 00
       -5.998805 0.0

network_body.observation_encoder.processors.0.normalizer.running_variance f4 [6]
000000 58 bb 41 47 36 00 60 46 00 00 80 3f 0c a3 7f 46
       49595.344 14336.053 1.0 16360.762
000010 ae f8 13 42 00 00 80 3f
       36.99285 1.0

network_body.processors.0.normalizer.running_mean f4 [6]
000000 e3 c9 64 c1 7b 21 63 c0 00 00 00 00 66 00 69 c1
       -14.299289 -3.5489185 0.0 -14.562597
000010 36 f6 bf c0 00 00 00 00
       -5.998805 0.0

network_body.processors.0.normalizer.running_variance f4 [6]
000000 58 bb 41 47 36 00 60 46 00 00 80 3f 0c a3 7f 46
       49595.344 14336.053 1.0 16360.762
000010 ae f8 13 42 00 00 80 3f
       36.99285 1.0

network_body._body_endoder.seq_layers.0.weight f4 [128, 6]
000000 d1 06 e0 3e c4 9c 41 3f a0 37 84 be 14 f6 5f be
       0.437552 0.7562983 -0.25823689 -0.21871215
000010 9e 92 3d 3d fb 20 24 3d 88 9f 96 be df a2 7a 3f
       0.046282403 0.040070515 -0.29418588 0.9790477
000020 92 ba 29 3f c2 94 3d 3d eb c0 71 3f 9b a8 a5 3e
       0.6630031 0.046284445 0.94434994 0.32355198
000030 7f de e3 be c6 8c 61 3e bd 7e ea 3d b7 4b a0 bd
       -0.4450569 0.22026357 0.11449955 -0.078269415
000040 63 09 cb 3e 5e d8 8e 3d b2 e0 8b 3e 7f c2 98 3d
       0.396556 0.069748625 0.27319866 0.07458972
000050 a3 fb d8 be b4 a0 c8 3d 6d 25 32 3f 5e c2 4c 3c
       -0.42379484 0.09796277 0.6958836 0.012497513
000060 83 4f d4 be d1 17 06 bf c3 d3 dc 3d ca d0 5f 3e
       -0.41466913 -0.5238009 0.10782578 0.2185699
000070 1b 3c ba be 66 6f 82 be b3 00 6c 3e 23 68 a9 3e
       -0.36373982 -0.25475615 0.23047142 0.33087263
000080 93 48 e6 be cf de 27 bd 4a 67 c3 bd 7b 63 0b 3f
       -0.44977245 -0.04098397 -0.09541185 0.5444867
000090 48 af b9 bd 18 99 ec be 9e 10 f0 3e 10 23 8b 3e
       -0.09066635 -0.4621055 0.46887678 0.27175188
0000a0 50 4b 79 3e fe 67 d7 3e 50 6d d6 3e 78 85 0b bf
       0.24345136 0.42071527 0.41880274 -0.5450053
0000b0 bf d6 f1 be 8f 32 b2 be 8d d1 19 3f 29 f6 64 bf
       -0.4723415 -0.34804198 0.60085374 -0.8943811
0000c0 cd 2d 14 3f 7c 1d 27 3e ef 03 31 bf 59 0a 0d 3f
       0.57882386 0.16319841 -0.6914663 0.55093914
0000d0 a7 69 21 3f 0e c9 30 3e 9a ea 40 3e 8b 30 10 3f
       0.6305184 0.17264196 0.18839493 0.5632407
0000e0 b4 4b 89 3e d6 55 ae be 50 8a aa 3d c9 d3 3d be
       0.2681557 -0.34049863 0.08327162 -0.18537821
0000f0 98 97 27 bf 47 7b ea 3e 31 65 b2 bc 17 76 aa 3c
       -0.6546569 0.45797178 -0.021776767 0.020808263
000100 77 43 99 be af 6d a0 3e 3c a9 31 3f ac c7 89 3d
       -0.29934284 0.31333682 0.69398856 0.067275375
000110 fc 41 37 bf bc 73 d9 be 69 3c c6 bc 23 bb a9 3e
       -0.7158506 -0.4247111 -0.024198728 0.33150586
000120 23 e1 fd 3d 9e 25 1d 3e 3d cb 69 be 85 b4 1c 3e
       0.12396457 0.15346381 -0.22831436 0.15303238
000130 a3 50 21 3e 88 18 da be 70 6d 3d bf 1f 31 16 3f
       0.15753417 -0.4259684 -0.73995113 0.586687
000140 7b 98 95 bd 90 5d 68 3d 54 ac f5 3e ce 0f b2 be
       -0.07304474 0.056729853 0.47983038 -0.34777683
000150 00 20 f4 bb 92 86 96 be c0 85 21 3e 7b 56 05 bf
       -0.0074501038 -0.29399544 0.15773678 -0.52085084
000160 84 d1 88 bc ce 2e 0d 3e ed 70 97 bf ad 98 20 bc
       -0.016701467 0.13787386 -1.1831337 -0.009802026
000170 c4 2e 17 bf 20 4d 8e 3e e1 7b 66 bf 42 97 93 3e
       -0.59055734 0.27793217 -0.90032774 0.28826338
000180 08 ad 6c be aa f8 5e 3d 54 ae 3e 3f 3d 45 ed 3e
       -0.23112881 0.054436363 0.74484754 0.46341887
000190 c9 04 96 3e a1 86 a9 3e fd 47 3e 3e 9c 5a 3a 3f
       0.29300526 0.33110526 0.18582149 0.7279451
0001a0 72 93 d7 bd db af 49 be 16 03 09 3f 9d 76 0d 3e
       -0.1052617 -0.1969599 0.53520334 0.13814779
0001b0 08 35 a1 be b1 62 99 be f2 70 23 3f f2 9d 35 be
       -0.31485772 -0.29958108 0.63844216 -0.17736033
0001c0 78 8c 34 bf fd a6 2a 3e 61 ca 96 be ec 9a 73 be
       -0.7052684 0.16665263 -0.29451278 -0.23789567
0001d0 39 cf 30 bf 28 26 7e be 8e a0 8b be 23 a1 88 3e
       -0.69066197 -0.24819243 -0.2727093 0.26685438
0001e0 ac 42 37 3f 58 4d 94 3c cf 21 01 3f 4a c2 77 be
       0.7158611 0.018103287 0.5044221 -0.24195209
0001f0 45 5b 30 3e 05 b9 1f bf 92 ea 46 bf e9 2c c2 bc
       0.17222317 -0.6239169 -0.77701676 -0.023703055
000200 e7 17 5d be 41 5f c1 bd 31 52 73 be 27 5b 72 be
       -0.2159115 -0.09441996 -0.23761822 -0.23667584
000210 0e 9e b6 be 35 bf 4c be 91 0d a9 3d 59 94 88 3e
       -0.3566746 -0.19994815 0.08254541 0.2667568
000220 c4 6e 9b 3e 7d fd 67 3e df ce e1 3e b0 40 b2 3d
       0.30357945 0.22655292 0.44103143 0.087037444
000230 c7 6e b3 3e 23 80 27 3f 95 fa 95 3c 37 bf 15 be
       0.35045454 0.65429896 0.018307963 -0.14623724
000240 72 2a 37 3c 96 67 ec bb 5f 5f 4e bf 95 8b 0f bd
       0.011179553 -0.007214497 -0.80614275 -0.035045225
000250 d4 bb 0e bf 38 31 1d bf 6e ae dd 3e 7b 16 cb be
       -0.5575535 -0.61403227 0.43297142 -0.3966559
000260 87 82 87 3e 88 b6 61 bd 97 c7 21 3d db b8 e1 be
       0.26466772 -0.055105716 0.039496984 -0.44086346
000270 02 fe 67 3e 8a c2 ae 3e 42 9a 73 3e 52 65 ae 3d
       0.2265549 0.34132797 0.23789313 0.08515419
000280 67 f7 58 be 99 ca 92 3e 29 19 16 3f 8d 88 2f 3e
       -0.21188127 0.28670195 0.5863214 0.17141934
000290 7d 86 1d bf 74 ae c8 3e 32 e4 05 bf 22 a3 9c 3e
       -0.6153334 0.39195597 -0.52301323 0.3059321
0002a0 d3 36 bb 3c 83 b8 cb 3e c9 54 da 3c ba c2 ad bd
       0.02285329 0.3978921 0.026651757 -0.08484407
0002b0 34 68 6d 3e 16 9b 32 bf 0d 09 a2 be e7 99 c8 be
       0.23184282 -0.6976789 -0.3164753 -0.39179918
0002c0 0b 83 98 3e 51 2e ea bd db d0 96 3d d1 dc 09 3f
       0.29787478 -0.114346154 0.07364055 0.53852564
0002d0 79 9d 85 3f e5 ba 22 be ec 95 1e 3f da 0e 40 3f
       1.0438682 -0.15891607 0.6194751 0.7502266
0002e0 0e 40 47 3e 9d 98 9e 3d 12 c2 17 3e 34 0c 8c 3e
       0.19458029 0.077439524 0.14820126 0.2735306
0002f0 5e fd 3b bf 4c 83 ab 3e c1 48 00 bf 20 69 8d 3e
       -0.7343348 0.3349861 -0.50111014 0.27619267
000300 e7 23 33 3e 4e ca b2 bd c5 84 3d bf f3 d7 df 3e
       0.17494164 -0.08729993 -0.74030715 0.43719444
000310 cd 32 86 3d 0c ae bc bd be 2b 5b be 39 42 0b bf
       0.06552658 -0.09212884 -0.21403405 -0.5439792
000320 fd 8c ac be 04 3d 29 be 7f 23 99 be 40 41 c4 3e
       -0.33701316 -0.16527182 -0.29909894 0.38331032
000330 4c 36 1b be 5d d3 29 3e c9 1b e0 3e 93 6e 03 bf
       -0.15157431 0.16584535 0.43771198 -0.513406
000340 41 78 a1 3d 4a 1b 82 3d d0 bf 4c be 3f 00 9d bc
       0.07884265 0.06352861 -0.19995046 -0.019165156
000350 c2 2e f4 3d 63 87 22 be 90 04 39 3e 5a 8b 4c be
       0.11922981 -0.15871958 0.18068147 -0.19975033
000360 3f 3b 98 3d 88 5b 94 3e 63 ed 8b be 41 ff 5e 3b
       0.07433175 0.28976083 -0.2732955 0.0034026655
000370 9c 23 61 bd 53 be 61 bf 9d 23 6f 3e 06 29 6e 3d
       -0.0549656 -0.88181037 0.23353429 0.05814459
000380 aa 12 a5 bd 28 1b dd bd de 39 83 3e 6d 77 90 3e
       -0.080602005 -0.10796195 0.25630087 0.28216115
000390 78 54 7d 3e b4 ca e2 be 4d 13 a1 3e 5b 0f a4 be
       0.24739254 -0.44295275 0.31460038 -0.32042965
0003a0 37 44 f4 3e 58 3c b5 be 3e 42 09 3f 5e 8d 1e bf
       0.47708294 -0.353976 0.536167 -0.6193446
0003b0 dd df 73 bd 47 20 b3 bd 3d 96 4c be b8 50 2a be
       -0.059539665 -0.08746391 -0.19979186 -0.16632354
0003c0 02 60 99 3e e4 34 17 3f 82 27 50 3e 2d e7 af be
       0.2995606 0.5906508 0.20327571 -0.3435606
0003d0 52 79 81 3c 03 e7 b6 be 94 5c 2c bc 5d fb da 3c
       0.01580492 -0.35723123 -0.010520119 0.026731187
0003e0 7a 8c cd 3d cb ff e7 bd 4e e7 29 bf 6d 1f f5 3e
       0.100365594 -0.113280855 -0.6636857 0.47875538
0003f0 eb 77 0f be 9a d4 17 3e 12 48 48 bd e7 48 43 3f
       -0.14010589 0.14827195 -0.048896857 0.76283115

network_body._body_endoder.seq_layers.0.bias f4 [128]
000000 fb ba 31 38 c0 c4 76 38 71 a0 56 3a 52 a5 c7 b9
       4.2374228e-05 5.8834208e-05 0.000818736 -0.0003807941
000010 6a d7 5a 3a 0e 0f 9b 38 2b dd 20 ba c1 42 0a ba
       0.0008348139 7.39378e-05 -0.0006136472 -0.00052742293
000020 9d 9e 07 b9 35 33 c1 39 10 75 56 ba 55 ec 4d b9
       -0.00012933691 0.0003684998 -0.0008180896 -0.00019638364
000030 e9 ae 54 ba 77 05 88 b9 3a d8 65 37 a6 1d e6 39
       -0.0008113222 -0.00025944013 1.3699808e-05 0.00043891108
000040 dd 67 c2 b9 2f 30 a1 38 12 89 69 ba 24 48 6d 3a
       -0.00037079948 7.686053e-05 -0.00089086697 0.00090515823
000050 bc 5c 66 39 ce d6 63 ba 8a 3c fd b9 ae f0 f5 39
       0.00021969056 -0.0008691371 -0.00048301026 0.00046909362
000060 7d ec 1c ba 16 89 fe b9 51 3c cb 38 ab 54 66 38
       -0.0005986167 -0.00048548792 9.691029e-05 5.4915126e-05
000070 ff e6 48 ba 97 8b 11 3a 81 55 53 b9 a6 ee f3 39
       -0.00076638156 0.00055521115 -0.00020154381 0.0004652638
000080 20 5d 51 ba b8 88 49 3a bb 57 0b ba 8f e7 40 3a
       -0.0007986594 0.0007687914 -0.0005315502 0.00073587237
000090 7c c1 20 3a e2 d6 18 ba b2 42 8d b8 2a 0e c0 b9
       0.0006132347 -0.000583036 -6.735827e-05 -0.00036631647
0000a0 ae 2d 09 ba 75 c0 29 ba cf 03 3d 3a e2 01 4f ba
       -0.0005232942 -0.0006475517 0.00072103454 -0.0007896704
0000b0 6a 70 ff b8 8e f5 36 ba 48 f8 06 ba 31 5b 81 b9
       -0.00012180286 -0.00069793395 -0.0005148691 -0.0002467274
0000c0 44 ea d2 b9 e8 0e 1f ba a1 6a 67 ba 11 76 38 ba
       -0.00040228863 -0.000606759 -0.00088278396 -0.0007036636
0000d0 ec 27 01 3a 14 2d 5e 3a 74 9b 59 ba a2 2d 1b 3a
       0.00049269083 0.0008475345 -0.00083010574 0.00059195806
0000e0 d5 95 59 b8 ee f0 a5 b9 75 7a 29 39 8b 4d c2 b8
       -5.1876374e-05 -0.0003165076 0.00016162715 -9.2650844e-05
0000f0 ef e8 05 ba 69 fe 52 ba ab 58 79 b8 d4 b2 3f 3a
       -0.0005108257 -0.00080487743 -5.9448805e-05 0.0007312719
000100 f3 ed 43 3a f3 b4 65 3a b4 52 0d b9 55 bc 3f 3a
       0.0007474117 0.000876262 -0.00013477617 0.00073141354
000110 85 cf 4b 3a 41 b2 38 ba 38 6f ec b9 96 a5 6a 3a
       0.0007774758 -0.0007045605 -0.00045096292 0.0008951066
000120 89 de f1 b9 f0 50 86 b9 52 56 d6 b8 76 da 24 ba
       -0.00046132904 -0.00025618775 -0.000102203936 -0.0006288657
000130 c5 7a 54 ba fb 3b 84 ba e7 f3 0f 39 5f 4e 11 3a
       -0.0008105452 -0.0010088676 0.00013728403 0.0005542989
000140 8a ce d9 39 90 cc 64 ba 03 25 8a b9 27 b2 05 3a
       0.0004154335 -0.0008727992 -0.00026348987 0.0005100094
000150 3a 33 55 b9 7f e4 18 3a 82 e9 24 b8 b8 6b 4f ba
       -0.00020332346 0.00058323884 -3.9318118e-05 -0.00079124747
000160 2c b7 e0 39 60 65 6e 39 4e bf 6f 3a b6 1b 0f ba
       0.00042861083 0.00022735214 0.0009145633 -0.00054591463
000170 54 f9 15 ba 84 97 50 3a dd 53 ff 39 02 84 dc 38
       -0.0005721052 0.0007957148 0.00048699873 0.00010515006
000180 3a 30 74 ba fd db 22 39 0a c2 5f 3a cb 5d ae b9
       -0.00093150476 0.00015531476 0.0008535689 -0.00033257747
000190 59 be 51 3a e6 5d cb b8 a7 fa 6a ba 77 22 61 ba
       0.00080010813 -9.697284e-05 -0.0008963742 -0.00085882045
0001a0 2d 74 07 ba 01 b7 6b 3a b0 34 4e ba 33 bf 5a ba
       -0.0005167153 0.0008991808 -0.00078661274 -0.0008344531
0001b0 f6 11 61 ba 70 36 1a 3a d3 a9 72 b9 65 b8 42 3a
       -0.0008585745 0.00058827456 -0.00023142183 0.00074279896
0001c0 4f d6 5c 39 42 e6 05 39 4f cc d5 b9 1a b2 14 ba
       0.00021060671 0.00012769646 -0.00040778748 -0.0005672291
0001d0 95 e4 36 3a a2 4c 5b 3a 5f df 2d ba c7 86 25 3a
       0.00069768104 0.0008365606 -0.0006632711 0.0006314334
0001e0 1d c7 3c 3a 84 bb d2 39 47 35 88 b9 7f 01 df b9
       0.0007201301 0.0004019403 -0.00025979636 -0.0004253499
0001f0 51 53 db 39 96 1c 22 3a 75 b8 f0 39 bb e0 91 39
       0.0004183301 0.0006184069 0.00045913798 0.00027823992

network_body._body_endoder.seq_layers.2.weight f4 [128, 128]
000000 24 08 22 be 19 3b 52 bd c3 03 1b bd a5 9d cc bd
       -0.15823418 -0.05132589 -0.037845384 -0.09991006
000010 e1 9b b3 bd df b9 cb bd ba 85 84 3d 31 b2 8a bd
       -0.08769966 -0.099475615 0.06470819 -0.067722686
000020 e8 5e df bd 4e 54 53 bd 3c a7 9a 3d ca c3 9c 3d
       -0.10906774 -0.05159407 0.07551429 0.07654531
000030 64 cd 3a 3d 77 c1 d0 bd 66 16 eb bd af 61 4e bc
       0.045606032 -0.101931505 -0.114788815 -0.012596532
000040 8d 1f 93 bd e4 c7 1a 3d ef 6d 9f bb 4c 79 76 bd
       -0.07183752 0.037788287 -0.0048654 -0.06017427
000050 b6 27 2b be 05 58 18 3e 4b 51 d5 3d fe 35 b9 3c
       -0.16714367 0.14877327 0.10415896 0.022608753
000060 43 4b 93 bd 8c 3c 2c be f3 3b 96 bd 8a 1f 06 be
       -0.071920894 -0.16819972 -0.07335653 -0.13097969
000070 cf 89 87 3d 70 d8 0e 3e 31 09 cc 3c f3 ed 18 3d
       0.06618082 0.13949752 0.024906727 0.0373363
000080 bb 7f 1f bd a5 ad a3 bd 35 66 02 3e d9 81 83 bc
       -0.038940173 -0.079921044 0.12734301 -0.016053127
000090 b0 68 8a 3d 36 52 04 bd 99 4b a8 bd 41 34 5b 3c
       0.06758249 -0.032304965 -0.08217544 0.0133791575
0000a0 42 7d d7 3d 77 c9 73 bd 12 d4 f0 3d e4 34 7f 3c
       0.10521938 -0.059518304 0.11759199 0.015576575
0000b0 0d 1d 0d 3e 9b 3b 63 3e 60 ed bc 3d fb 09 93 3d
       0.13780613 0.22190706 0.09224963 0.07179638
0000c0 37 cb 7c 3d 11 36 63 bb f2 03 9e 3d c8 94 60 3d
       0.06171724 -0.0034669677 0.07715596 0.05482939
0000d0 3d 1e 0a bd 0e e4 e9 bd f6 df a7 3d 7f 48 8e bc
       -0.033720244 -0.11420451 0.08197014 -0.017368553
0000e0 70 88 eb bc 64 de fa bd 73 2a 83 3c 62 c8 f5 bd
       -0.028751582 -0.12249449 0.016011452 -0.120011106
0000f0 72 cc a9 3d 29 c9 16 3e bc 1e 5f bc e9 0c 45 bd
       0.08290948 0.14725174 -0.0136181675 -0.048108015
000100 be f0 82 bd 41 2d 71 be fb c9 e0 3c e8 e1 42 bc
       -0.06393574 -0.23552419 0.027440062 -0.011894681
000110 a8 a8 43 3d c2 d0 8f bd 28 e0 9d 3a 97 70 8b ba
       0.047768265 -0.07022239 0.0012044953 -0.0010638413
000120 a8 7c 68 bc 4e 8b 19 bd 4a b8 9a bd ce 24 92 3d
       -0.014189877 -0.037486367 -0.075546816 0.07135926
000130 f9 4c e3 3c 46 e5 41 3e a5 26 b7 bd 9b 34 c1 bd
       0.027746664 0.18935117 -0.08942918 -0.09433862
000140 4e cb 00 bd 66 c7 42 be c6 d6 8c bd 62 89 ed 3c
       -0.031443886 -0.19021377 -0.06876902 0.028996173
000150 71 9b a8 3c cb 06 3f be 18 b8 24 be 77 a4 03 3e
       0.020581933 -0.18654935 -0.16085851 0.12855707
000160 02 5e 33 3d bc b3 09 3d 86 5d 81 be 9e 81 b3 bc
       0.043790825 0.033618674 -0.25266665 -0.021912392
000170 9f 8c 30 3e 33 71 00 be 9e c4 98 3d c1 34 cd bd
       0.17241143 -0.12543182 0.07459377 -0.10019828
000180 9f 35 1a 3d 5f ef 34 3d a3 1a 7c bd bf 38 de bc
       0.037648793 0.044173595 -0.06154884 -0.027126668
000190 1c c3 11 3e bc 99 6b be b4 b5 77 bd 35 b1 71 bd
       0.14234585 -0.23007864 -0.06047602 -0.05900689
0001a0 8f 8b f6 3d a4 01 1c be ac b4 3c 3e f3 d7 a3 bd
       0.120383374 -0.15235001 0.18428296 -0.080001734
0001b0 9e fa 48 bd a7 cd a2 bd 7f 79 a2 3c 35 b9 7a bd
       -0.049067132 -0.07949381 0.019833324 -0.061211783
0001c0 0b 7b 46 bd cb 8c 04 bd 91 6f 9b 3c 0e 7b 95 bc
       -0.048457187 -0.032360833 0.018974097 -0.018247154
0001d0 82 67 cc bd 17 dd aa bd 91 e8 94 3d 08 95 67 bd
       -0.0998068 -0.08342951 0.07270921 -0.05653861
0001e0 61 13 0b be 57 25 47 3e 76 e0 5f bd 45 35 dd bd
       -0.13581611 0.19447838 -0.054657422 -0.10801176
0001f0 96 78 3d 3c 3a 59 64 3d 73 73 bb 3d e5 2b 3e 3d
       0.011564394 0.055749156 0.091528796 0.04642858
000200 ed 5f 55 3d a7 85 fa 3d b3 93 b1 3c 1d 16 ab 3d
       0.052093435 0.122325234 0.021676874 0.08353827
000210 5b 54 e2 bd 90 56 44 3d c4 dc 2e bd 76 b6 ba 3c
       -0.11051246 0.047934115 -0.042691007 0.022792082
000220 19 64 a1 3d 70 fb 16 3d 07 be e3 bc 43 11 85 3c
       0.0788042 0.036860883 -0.027800573 0.016243583
000230 38 43 3f bd 09 e6 e4 3c 9f f9 8b bd 94 39 1a bd
       -0.046694964 0.02794172 -0.06834721 -0.037652567
000240 fa d2 77 3c e2 9c 45 bd c2 7c a8 bc 04 2b 18 be
       0.015125984 -0.04824532 -0.020567302 -0.14860159
000250 36 28 04 bd 9c b5 d0 3d 7f 6b 8c bd 5b 21 51 3e
       -0.03226491 0.10190889 -0.06856441 0.2042288
000260 6d e8 38 bd 18 3c 36 3e 72 d2 da 3d 05 3b 94 3c
       -0.045143533 0.17796361 0.106846705 0.018094549
000270 0c 83 54 3d 2e bf 4f 3d d2 b1 0d bd ef 99 3c bd
       0.05188279 0.050719433 -0.03459341 -0.04604524
000280 2a 24 c2 bd 3a 95 c3 3b 12 d8 91 bc a1 58 30 3d
       -0.09479554 0.005968717 -0.017803226 0.043053273
000290 87 ae 03 3e 2a d4 0a 3d fd 6a a7 bb ad 33 fe 3c
       0.12859546 0.03389374 -0.0051091895 0.0310305
0002a0 35 2a 0a 3e 15 09 0b 3d d0 19 3a bd 0d 29 12 be
       0.13492663 0.03394421 -0.045434773 -0.14273472
0002b0 29 00 02 3e 4a e5 49 bd e7 35 d6 bd 81 a0 05 3d
       0.12695374 -0.049290933 -0.104595 0.03262377
0002c0 39 7a e1 3d b3 7b 14 3d 37 ca 5c bd 58 53 9b bd
       0.1100964 0.03625078 -0.053903785 -0.07584256
0002d0 05 dc 1f be 38 84 17 3c dd 5c 00 be 62 42 0d 3d
       -0.15611275 0.009247832 -0.12535425 0.034487136
0002e0 85 70 00 3e b9 2d 08 bd 2c e8 41 bd a8 b5 09 3e
       0.12542923 -0.03324673 -0.047340557 0.13448203
0002f0 b4 9a 95 3d ca 52 5c 3c 7c 07 e8 3b ed 0f bb 3d
       0.07304898 0.013447473 0.0070809703 0.09133897
000300 ac 45 96 bd a3 b8 b7 3b d5 c9 d8 bd bc 60 c8 3d
       -0.073375076 0.005606727 -0.105853714 0.097840756
000310 c4 22 0f 3e 07 bd c3 3d db cf 79 bd 41 50 02 bd
       0.13978106 0.095575385 -0.060989242 -0.031814817
000320 d2 91 a0 3c 2f bc d5 bc 51 4f 8e bd 1b 2e 73 bd
       0.019600783 -0.02609071 -0.06948722 -0.05937014
000330 e1 66 c0 3c 46 ab bd bb f9 f9 f3 3c 5e 2d ed bc
       0.023486556 -0.0057882397 0.029782282 -0.028952297
000340 61 32 ae bd ef f6 ed 3c b0 d4 d0 bb a9 dd 77 bd
       -0.08505703 0.029048411 -0.0063730106 -0.060514126
000350 94 f1 e9 3c 22 10 bb 3d de 63 08 be ae eb 9f 3d
       0.028557576 0.091339365 -0.13319346 0.07808624
000360 f9 48 6f bc dd 14 ad 3c 88 e9 e3 bc f7 37 1a be
       -0.0146048 0.021128112 -0.027821317 -0.15060411
000370 01 54 b3 bd 24 ea 41 3e c3 b1 29 3d ca c1 01 3e
       -0.08756257 0.18936974 0.041429292 0.12671581
000380 e4 6f 1a bd 25 ab 96 bc 72 c7 f9 3c d0 bb 11 be
       -0.037704363 -0.018392155 0.03049061 -0.14231801
000390 2c 32 20 3c a6 47 44 3d 50 32 5a 3d df eb e2 bd
       0.009777587 0.04791989 0.053270638 -0.11080145
0003a0 a3 3c 10 3e 5d 36 57 bd b3 1e d4 3d be 6e 17 be
       0.14085631 -0.05254208 0.10357418 -0.14788339
0003b0 34 11 77 3d b1 dd dd bc e2 15 03 3d 57 44 0d 3e
       0.06031914 -0.02708325 0.03200329 0.13795601
0003c0 97 ba 89 3d 4b db 5c bd 62 00 6e bd 24 ea 04 3d
       0.06725042 -0.05392007 -0.058105834 0.032449856
0003d0 b0 cc 06 3e 6f b1 5e 3d 49 8d fe bb 7e a3 bc 3c
       0.1316402 0.054368433 -0.0077683073 0.023027178
0003e0 d4 c4 01 bd 80 5e ac bb 43 5a 29 bd 7f 70 1c bd
       -0.03168185 -0.0052602887 -0.041345846 -0.038193222
0003f0 1a e9 88 3b 71 77 e6 bc 2f f4 f4 bb 24 8f fb bd
       0.0041781785 -0.028133126 -0.007475398 -0.12283161

network_body._body_endoder.seq_layers.2.bias f4 [128]
000000 3d 3c 54 ba ef d5 22 3a 36 de 1b 3a 36 20 81 39
       -0.00080961344 0.0006211688 0.0005945893 0.00024628796
000010 93 ba 0c ba ba 0a 5d 3a 62 90 59 ba 72 6a d1 39
       -0.0005368378 0.00084320793 -0.0008299408 0.00039942894
000020 05 f5 6f 3a 76 48 42 ba ef 01 31 3a 01 29 1a ba
       0.0009153637 -0.000741131 0.0006752302 -0.0005880744
000030 23 0e 2b 3a 71 6d cd b9 5c 26 3d ba 46 7a 27 ba
       0.0006525239 -0.00039182187 -0.0007215494 -0.00063887646
000040 27 45 1b 3a d5 23 22 3a c3 f0 17 3a 2e f8 34 3a
       0.0005923085 0.0006185149 0.0005796069 0.0006903437
000050 39 06 5f 3a 80 51 36 3a b4 72 0f 3a 5b 45 1b 3a
       0.0008507702 0.00069548935 0.0005472109 0.00059231155
000060 2c 89 5a ba 0d 84 08 ba 4b d3 67 3a 20 a6 a0 39
       -0.000833648 -0.00052076654 0.0008843436 0.0003064135
000070 17 0c 0f ba 63 0d e2 39 c0 30 55 3a 9e d7 08 3a
       -0.00054568186 0.00043116053 0.00081325695 0.0005220118
000080 98 c6 49 ba aa 70 8f b9 7e da 5c ba 51 2d 0d ba
       -0.0007697134 -0.00027359027 -0.0008424892 -0.0005385476
000090 4c cc 3a 3a 54 1a 03 3a 2b fc 58 3a a4 35 16 3a
       0.00071257795 0.00050011766 0.0008277322 0.0005730039
0000a0 e7 22 4a ba 9f 16 27 ba 3c 32 38 ba d5 c5 25 ba
       -0.00077108893 -0.0006373915 -0.00070265285 -0.000632373
0000b0 53 6f 5e ba bb 4f 5e 3a 71 df 2a 3a ac 72 ef b9
       -0.00084852165 0.00084805087 0.0006518281 -0.0004567107
0000c0 ab b9 39 ba 10 26 47 3a f0 d9 55 ba ed 3f 4e ba
       -0.00070848566 0.00075969193 -0.00081577804 -0.0007867802
0000d0 ce e3 2b ba 27 b4 06 ba 2c d7 36 ba 83 11 58 3a
       -0.0006557078 -0.0005138539 -0.0006974812 0.00082423555
0000e0 41 0c 0b 3a 9c 74 4a 3a c1 26 b8 39 26 cf 10 3a
       0.0005304255 0.00077230646 0.0003512409 0.00055240316
0000f0 2e 3c 34 3a 3a ce f7 39 8d 87 03 3a 3f cb 1c ba
       0.00068754226 0.00047265162 0.0005017452 -0.0005981214
000100 0a 51 4e 3a ee a4 e3 39 ce 77 21 3a 6e 2b 05 ba
       0.0007870352 0.00043419696 0.0006159515 -0.0005080019
000110 54 56 5c ba 68 34 e6 b9 6b 6f dc 39 fc f0 44 ba
       -0.0008405198 -0.00043908064 0.00042044683 -0.0007512716
000120 8d 36 25 3a e6 71 7a 39 b2 7a 1d ba ba fd 2d ba
       0.0006302379 0.00023884288 -0.0006007358 -0.00066372345
000130 70 45 2b ba a6 8a 09 ba 08 6b 7e 39 dc 57 70 b9
       -0.00065334793 -0.00052467955 0.000242632 -0.00022920914
000140 4d 95 54 ba 71 9d 03 ba f2 93 ce 39 0a 35 98 39
       -0.0008109406 -0.0005020714 0.0003940161 0.00029031216
000150 c2 8f 4b 3a fc 51 53 3a 0a 69 22 ba 2f 19 39 ba
       0.0007765257 0.0008061228 -0.00061954616 -0.00070609426
000160 33 8b 5c 3a 67 ca 0c 3a 51 61 03 ba 0d c3 29 3a
       0.0008413076 0.00053707365 -0.00050117547 0.0006475903
000170 62 78 2f ba 71 4f 0b 3a ee a1 e7 b9 33 4e 2c 3a
       -0.00066936587 0.0005314267 -0.000441804 0.0006572932
000180 3c e2 f0 39 df fb a5 39 96 ef 4d b9 3f 40 42 3a
       0.00045944925 0.0003165891 -0.00019639576 0.0007410086
000190 51 9e 62 ba 36 06 31 ba f2 a6 19 ba 5c f3 3d 3a
       -0.0008644807 -0.00067529397 -0.00058613636 0.0007246041
0001a0 4f fc 31 3a 98 6d 19 3a fe f6 3c 3a d3 e7 ae 39
       0.0006789611 0.00058528176 0.00072084356 0.0003336059
0001b0 18 67 21 3a bb 34 f6 b9 19 2f 4b 3a d9 fc 22 b9
       0.0006157025 -0.00046960064 0.00077508535 -0.00015543717
0001c0 ab 11 28 ba 22 06 1c ba d8 2d 44 3a 68 df 22 ba
       -0.0006411324 -0.00059518416 0.0007483638 -0.00062130997
0001d0 e4 e7 15 3a 95 75 2b 3a 4b 9a 2d 3a d2 d2 a8 b9
       0.00057184533 0.00065406534 0.0006622418 -0.0003220053
0001e0 d4 25 1a 3a e9 b6 f4 b9 40 0a 2d 3a c2 57 25 3a
       0.00058802706 -0.00046675585 0.00066009536 0.00063073274
0001f0 d0 7d f3 39 c4 ed 3c ba 42 cd 5a 3a bd 2a 2a ba
       0.0004644231 -0.00072070607 0.0008346626 -0.0006491354

action_model._continuous_distribution.mu.weight f4 [1, 128]
000000 10 55 45 3c d6 03 05 bc 1e fb 85 bb b9 27 d3 bb
       0.012044206 -0.00811859 -0.0040887734 -0.0064439443
000010 df de 71 3a 62 57 b2 ba 50 02 55 3c 08 91 8d bb
       0.0009226631 -0.0013606364 0.01300104 -0.0043202676
000020 55 53 e4 ba 60 0c 3f 3b 6b 9b f7 bc 9c 37 77 3c
       -0.0017419854 0.0029151663 -0.030225476 0.015088942
000030 32 b0 20 bc 82 23 96 3c 06 c5 89 3a d0 dd f6 3a
       -0.009807633 0.018327478 0.0010510988 0.0018834416
000040 47 81 f0 bc 2a 84 02 bd 6c 90 bc bc 69 a4 2b bd
       -0.02935852 -0.031864323 -0.023018084 -0.04190484
000050 c6 33 22 bc 0f 24 84 bc 15 22 bd bc 6e f3 6e 39
       -0.009900039 -0.016130475 -0.02308754 0.00022788133
000060 aa a0 01 3d e4 47 cb 3c 16 9e 0b bd b2 d7 20 bc
       0.03164736 0.024814554 -0.03408631 -0.009817051
000070 7e bf 8f 3c 50 47 9c bc 63 60 75 bc 16 0d 70 ba
       0.017547365 -0.019076973 -0.014976594 -0.00091572234
000080 d5 1e 45 3c ab 2f 2b 3c d9 9d c2 3b bb 1a ed 3c
       0.012031277 0.010448377 0.005939227 0.02894341
000090 e9 00 d4 bc 60 bb 30 bc dd 55 a1 bc 10 3b 9f ba
       -0.02587934 -0.010786861 -0.019694263 -0.0012148339
0000a0 77 b1 22 3c 7a 14 86 3c f7 a7 8a 3c 37 7b 26 3b
       0.009930006 0.016367186 0.016925795 0.0025403032
0000b0 09 23 05 3c c5 c2 b5 bb 57 cc 96 bc 5b 0c 2e 3c
       0.008126029 -0.0055469 -0.018407984 0.010623063
0000c0 d8 0a a8 3b 0c 70 37 bc 86 6f 8a 3b cc 4e 25 3c
       0.005128246 -0.011196148 0.0042247204 0.010089587
0000d0 b2 ef 37 3c e1 b4 d7 3b fa 12 bf 3a 2a 0c 28 bc
       0.011226581 0.0065828417 0.0014577799 -0.010256806
0000e0 91 ce f5 bc bd 07 24 bd 7c cc 61 bc e2 e1 38 bc
       -0.030005725 -0.040046442 -0.013781663 -0.011284323
0000f0 da 0e cf bc e8 2b 76 ba 66 fa 79 bc 7a 65 16 3c
       -0.025275636 -0.0009390698 -0.015257454 0.009179467
000100 f6 2a aa bb a0 fe dd ba ce de 9f bc 81 39 31 3c
       -0.0051931096 -0.0016936846 -0.019515421 0.010816933
000110 7a b5 cc 3b 5a 80 85 3b d2 aa 1a bd 21 97 f9 3c
       0.0062472196 0.0040741386 -0.037760563 0.030467572
000120 b8 1d 78 bc cc 7d 60 bc 15 da bc 3c e4 74 73 3a
       -0.015143804 -0.013701867 0.023053208 0.00092871324
000130 75 8c 42 3c b6 52 83 3d be c7 88 bc 5a 64 04 3c
       0.011874308 0.0641226 -0.016696807 0.008080566
000140 a0 d3 eb 3b 74 3e 10 3b f2 04 4e bc b2 78 81 bc
       0.0071968585 0.0022009881 -0.012574421 -0.015804622
000150 42 28 6f bc dd 4f 7b bc e5 b7 1a 3c 59 f3 3c 3c
       -0.014597001 -0.015338865 0.009443258 0.011532628
000160 81 e1 1b bd 08 4b cf bc aa 6d fc 3b 57 f3 ce bc
       -0.038056854 -0.025304332 0.0077035027 -0.025262518
000170 68 90 0d 3c 67 43 3c bc 25 ff 80 3c eb 0e 0b bd
       0.008640386 -0.011490679 0.015746662 -0.033949774
000180 be e2 2d bc 42 6a 6e bb 72 d7 18 3d af 6a a8 bb
       -0.010613142 -0.0036379253 0.03731484 -0.005139671
000190 cb 93 c1 3c 56 7a 68 3b cd 44 71 3c df 68 8d bb
       0.023630043 0.0035473309 0.014725876 -0.00431548
0001a0 9f 3e c0 ba 73 c1 e3 bc a5 b4 ed bb f6 54 4e bc
       -0.00146671 -0.027802205 -0.0072542005 -0.012593498
0001b0 2a f6 3b bb e6 02 f1 3c 7d 7a 83 bc 7d cd f7 3c
       -0.002868066 0.029420327 -0.016049618 0.030249352
0001c0 4b 22 b3 3c 2e 98 e8 3c f8 04 c0 bc 35 ef ac 3c
       0.021866938 0.028392877 -0.02343987 0.021110157
0001d0 6d 07 cc bb c7 05 c1 bc 5b 9a 1e bc 36 ad 10 3b
       -0.006226471 -0.023562325 -0.009680356 0.0022075898
0001e0 21 b7 0d bc 36 75 ad 3c 1c 4a 98 bb bc 37 a8 bc
       -0.008649618 0.021174055 -0.0046475064 -0.020534389
0001f0 06 ab 74 bc a6 b8 bc 3c 27 64 3a bc 24 f4 97 3b
       -0.014933353 0.023037266 -0.011376417 0.004637258

action_model._discrete_distribution.branches.0.weight f4 [1, 128]
000000 e8 63 71 3b d3 c9 21 bc 12 87 0c 3c c4 26 a6 3b
       0.003683323 -0.009874779 0.008577125 0.005070539
000010 ab 1a 37 bc 55 eb 17 3a 26 a7 24 3c 37 1c 16 3c
       -0.011175792 0.000579526 0.010049617 0.009162
000020 d0 a7 0c 3c 94 36 91 3b 08 0a 8a bb 1a ff 5f bb
       0.0085849315 0.004431555 -0.0042126216 -0.0034179152
000030 4c b1 85 bc c8 ed 3b 3c a7 d7 33 3c 2d 85 1a bc
       -0.016319893 0.011470266 0.0109767085 -0.009431166
000040 07 d5 07 39 ae 01 c2 bc ed a6 99 bb 23 f7 45 bc
       0.00012953962 -0.023682442 -0.0046890886 -0.012082848
000050 b5 0f e3 bb 50 db 87 3b 70 46 8a 3c 85 4c 83 bb
       -0.0069293627 0.004146017 0.01687929 -0.0040069246
000060 43 81 18 bb 5a 1d 1d bc 9a 3f e0 3b df 41 79 bb
       -0.0023270405 -0.0095895175 0.0068435194 -0.0038033647
000070 f2 31 6b bb 30 b6 55 3c 67 41 5b bc 26 49 8f bb
       -0.0035887924 0.013043925 -0.013382292 -0.0043727336
000080 5f 77 05 3b 7d 10 d4 bb 4a 6c bc 3b 8f a3 0f bb
       0.002036534 -0.006471692 0.0057502137 -0.0021917557
000090 45 53 f8 3b 23 d2 83 3b ec 8c 84 bb 68 60 19 bc
       0.007578286 0.004022853 -0.0040451195 -0.009361364
0000a0 58 b6 12 bb 3b 21 83 3b 02 44 90 bb 98 0c 08 3c
       -0.0022386517 0.004001764 -0.0044026384 0.008303784
0000b0 5a 4b 2f bc 17 16 bb 3c 43 97 98 3a df 42 20 bb
       -0.010699118 0.022837682 0.0011641759 -0.002445392
0000c0 22 fc f0 3a 43 37 0f 3b b3 80 c6 bb a2 44 8f bc
       0.0018385688 0.0021853007 -0.0060578226 -0.017488781
0000d0 af 39 65 bb b6 dd 1f 3c 82 31 ca ba 22 2a 92 3b
       -0.003497701 0.00975745 -0.0015426131 0.004460589
0000e0 27 d2 65 bc df e0 36 3c ff 43 81 3b 53 ba 9b 3b
       -0.014027155 0.011162012 0.0039448733 0.004752436
0000f0 a4 d4 99 bc ec 61 8a bb 6b 36 6a bc 27 f2 03 3c
       -0.018778153 -0.004223099 -0.014295201 0.008053339
000100 cc 8e 9a bc 24 5c 0b 3c 25 c7 e3 3b 8d e1 60 ba
       -0.018866919 0.008505855 0.00695123 -0.00085785316
000110 d2 b9 6d 3b c2 5d ee bb a3 b6 43 3c 67 54 82 3b
       0.0036274088 -0.0072743604 0.011945399 0.0039773467
000120 25 cb 6d 3c 58 b8 f3 bb a0 c9 82 37 6b 8b 66 3b
       0.014513765 -0.007437747 1.5591097e-05 0.0035178314
000130 5c 04 a3 3b 8b 0d 0a 3c 4a c1 c9 bb 83 f1 a9 3b
       0.004974885 0.00842608 -0.006157075 0.005186261
000140 8a fe 9c 3c 3e a0 93 bb 2d 59 dd bb ff b4 a9 ba
       0.019164342 -0.0045051863 -0.0067550153 -0.0012947618
000150 d7 f8 2e 3b c9 76 ca 3c b6 a2 9e bc d8 72 ca b8
       0.0026698613 0.024714844 -0.019364696 -9.653502e-05
000160 52 be d6 b9 38 e6 59 bb 38 4a 4c 3b f3 8b 44 3c
       -0.0004095906 -0.0033248793 0.0031172168 0.011996257
000170 dc a6 3f bc 39 47 4a bc f0 3b 0a bc f0 5a d8 3b
       -0.011697497 -0.012346082 -0.008437142 0.0066026375
000180 e6 00 9a bb 02 2c a6 39 33 38 b5 3a e5 d4 cc bb
       -0.004699814 0.00031694776 0.0013825953 -0.006250965
000190 c9 06 1d 3b 77 93 9a 3b 49 1b 09 ba d6 e8 1e bc
       0.0023960343 0.004717286 -0.0005230201 -0.009699067
0001a0 f3 24 9e bb 8a 82 bf bb f4 92 ca 3a 06 34 b8 ba
       -0.004826182 -0.005844419 0.0015455172 -0.001405359
0001b0 42 b9 15 ba 5a f1 02 bc 7b 54 19 3c 28 e7 7c 3c
       -0.00057115045 -0.007992113 0.009358521 0.015435971
0001c0 c7 e0 87 bb d1 e2 4b bb 1b 12 1a 3c 43 15 9d bb
       -0.0041466686 -0.0031110535 0.009403731 -0.0047937944
0001d0 2a 52 e2 3a ed d6 9e 3b 27 8d 70 3c bf e6 b5 3a
       0.0017266918 0.0048473985 0.014682091 0.0013877972
0001e0 b9 48 3a 3c fd f7 7c 3a 69 23 9a 3a 9e 5e 90 bb
       0.0113698775 0.000964999 0.0011759821 -0.0044058105
0001f0 5d e8 1c bc 1f 74 0c 3c 23 fc 1e 3b b5 60 ea 3b
       -0.009576884 0.008572607 0.0024259172 0.0071526417

exp_avg f4 [128, 6]
000000 78 ed 68 38 d4 4a 0d 37 00 00 00 00 9e a1 45 36
       5.553427e-05 8.421677e-06 0.0 2.944936e-06
000010 f6 fb 1d b4 00 00 00 00 24 5a 20 36 db cf 10 37
       -1.4713427e-07 0.0 2.3894327e-06 8.631464e-06
000020 00 00 00 00 46 be b8 b5 e9 31 27 b3 00 00 00 00
       0.0 -1.3764445e-06 -3.892811e-08 0.0
000030 7d 49 21 38 61 6d 97 b7 00 00 00 00 c9 2b c9 36
       3.8453833e-05 -1.8051536e-05 0.0 5.995364e-06
000040 cb a6 08 35 00 00 00 00 5d e6 0f b7 95 82 be 36
       5.0906664e-07 0.0 -8.5771e-06 5.677643e-06
000050 00 00 00 00 7c 9c 0b 36 dc b9 91 b3 00 00 00 00
       0.0 2.08037e-06 -6.785896e-08 0.0
000060 62 03 d5 37 85 03 98 37 00 00 00 00 38 f6 6a b7
       2.5393154e-05 1.8121451e-05 0.0 -1.4004814e-05
000070 9a 6b 0d 35 00 00 00 00 fd bc 0d 38 a0 f4 ea b4
       5.2683174e-07 0.0 3.379303e-05 -4.3763885e-07
000080 00 00 00 00 d8 c3 8e b5 a6 fe 94 b3 00 00 00 00
       0.0 -1.0636822e-06 -6.938107e-08 0.0
000090 33 6f c0 b6 2c a0 3e b5 00 00 00 00 33 eb 45 37
       -5.734991e-06 -7.1013596e-07 0.0 1.1796877e-05
0000a0 7e ea 0c b4 00 00 00 00 35 55 50 b8 44 2a 25 b8
       -1.3123824e-07 0.0 -4.967042e-05 -3.937843e-05
0000b0 00 00 00 00 54 f6 de 37 07 65 ad b4 00 00 00 00
       0.0 2.6579168e-05 -3.2297268e-07 0.0
0000c0 2b 51 69 b8 21 01 16 b8 00 00 00 00 b3 26 ab 34
       -5.5627122e-05 -3.576384e-05 0.0 3.187939e-07
0000d0 a6 a3 09 34 00 00 00 00 c1 d4 fd 38 cd 8d cc b6
       1.2818654e-07 0.0 0.000121036086 -6.0961816e-06
0000e0 00 00 00 00 3d 38 2c b5 5e 54 aa 34 00 00 00 00
       0.0 -6.415683e-07 3.1726353e-07 0.0
0000f0 7e 4f dd b8 e6 2d 96 35 00 00 00 00 7b ca 86 b5
       -0.00010552908 1.1189229e-06 0.0 -1.0042708e-06
000100 07 05 ab b5 00 00 00 00 af f4 51 b8 91 1e c5 b7
       -1.2741956e-06 0.0 -5.0057362e-05 -2.3498464e-05
000110 00 00 00 00 15 c1 9c 37 ba 93 ed 33 00 00 00 00
       0.0 1.868656e-05 1.1063044e-07 0.0
000120 89 70 03 b7 79 00 86 37 00 00 00 00 f2 70 c9 b6
       -7.83441e-06 1.5974265e-05 0.0 -6.0034154e-06
000130 92 22 4e b4 00 00 00 00 b1 36 c5 b6 c6 01 ca 36
       -1.9197822e-07 0.0 -5.8774244e-06 6.0202756e-06
000140 00 00 00 00 1f 29 51 36 45 a7 0c 31 00 00 00 00
       0.0 3.1167363e-06 2.0467763e-09 0.0
000150 01 20 d2 b7 88 c8 66 b6 00 00 00 00 7f ea 35 37
       -2.5048854e-05 -3.4389395e-06 0.0 1.0843039e-05
000160 5d 8c f3 33 00 00 00 00 f7 56 65 37 e5 af 81 b7
       1.1341101e-07 0.0 1.3669712e-05 -1.5459906e-05
000170 00 00 00 00 99 cb 65 36 c0 f1 06 34 00 00 00 00
       0.0 3.4242169e-06 1.256767e-07 0.0
000180 8c d8 d7 b6 24 36 25 b7 00 00 00 00 e0 5a 78 b5
       -6.4327087e-06 -9.847372e-06 0.0 -9.251944e-07
000190 63 1e 16 32 00 00 00 00 b2 96 8b 38 31 c4 c3 36
       8.738058e-09 0.0 6.656106e-05 5.8342926e-06
0001a0 00 00 00 00 9f 61 d8 36 39 8d 16 b4 00 00 00 00
       0.0 6.448666e-06 -1.4021215e-07 0.0
0001b0 ba 57 cb b7 d7 4f f0 35 00 00 00 00 fa d5 eb 36
       -2.4240337e-05 1.790463e-06 0.0 7.028456e-06
0001c0 e5 f5 19 b5 00 00 00 00 9c 45 d4 37 07 a4 0e b7
       -5.7354765e-07 0.0 2.5304784e-05 -8.50205e-06
0001d0 00 00 00 00 ac dc 5d b7 1a 26 17 35 00 00 00 00
       0.0 -1.3224006e-05 5.630733e-07 0.0
0001e0 43 d9 46 b8 59 40 98 b7 00 00 00 00 c4 26 e0 36
       -4.740922e-05 -1.8149776e-05 0.0 6.680233e-06
0001f0 19 3a 0c 35 00 00 00 00 00 c6 7b b8 d1 04 80 37
       5.223861e-07 0.0 -6.0027465e-05 1.5261032e-05
000200 00 00 00 00 4e 87 99 36 69 db 76 b5 00 00 00 00
       0.0 4.575507e-06 -9.1961425e-07 0.0
000210 47 15 97 b7 80 28 f8 35 00 00 00 00 fe 0b a0 b6
       -1.801051e-05 1.8489227e-06 0.0 -4.7697677e-06
000220 89 2f 42 b3 00 00 00 00 0c f5 51 37 c6 4a 42 36
       -4.5212378e-08 0.0 1.2514425e-05 2.8951777e-06
000230 00 00 00 00 17 3d 65 37 ff 54 8e 34 00 00 00 00
       0.0 1.3663687e-05 2.6511404e-07 0.0
000240 78 90 a9 b7 7e 5d a0 b6 00 00 00 00 70 9d fe b4
       -2.0213643e-05 -4.7792555e-06 0.0 -4.7425738e-07
000250 55 0e f3 b3 00 00 00 00 80 a6 08 b8 32 d7 f7 b7
       -1.1318176e-07 0.0 -3.2579992e-05 -2.9544903e-05
000260 00 00 00 00 93 1a 17 37 77 9c 1e b4 00 00 00 00
       0.0 9.006489e-06 -1.4771818e-07 0.0
000270 43 bb 0a b8 d8 4d 07 b7 00 00 00 00 70 2e 6d 36
       -3.3076165e-05 -8.0647515e-06 0.0 3.5342782e-06
000280 e5 86 4b 34 00 00 00 00 0f 5c 36 37 4f a6 b5 36
       1.8954923e-07 0.0 1.0869479e-05 5.413581e-06
000290 00 00 00 00 f3 b0 a1 36 70 f0 60 32 00 00 00 00
       0.0 4.8187735e-06 1.3093185e-08 0.0
0002a0 f5 28 ce b7 99 d3 49 37 00 00 00 00 61 e0 50 b5
       -2.4576186e-05 1.20298e-05 0.0 -7.781255e-07
0002b0 1c 18 ad b4 00 00 00 00 63 38 36 37 b5 8a 3a 36
       -3.2241303e-07 0.0 1.0861174e-05 2.7796898e-06
0002c0 00 00 00 00 ca 22 a0 b6 a1 fe b4 33 00 00 00 00
       0.0 -4.7724216e-06 8.42822e-08 0.0
0002d0 87 46 8f 38 24 f0 97 38 00 00 00 00 7c 87 42 37
       6.831908e-05 7.244971e-05 0.0 1.1594846e-05
0002e0 a3 74 a8 b4 00 00 00 00 46 36 81 37 8a 6c 83 35
       -3.1377303e-07 0.0 1.5403271e-05 9.79185e-07
0002f0 00 00 00 00 94 28 be b4 87 fe a4 33 00 00 00 00
       0.0 -3.5419782e-07 7.6831434e-08 0.0
000300 2f e6 e8 b7 d1 d8 25 b7 00 00 00 00 eb b3 3b 37
       -2.7763743e-05 -9.885248e-06 0.0 1.1187959e-05
000310 e1 5b 03 b5 00 00 00 00 d5 55 12 38 1b c6 19 37
       -4.8935004e-07 0.0 3.488905e-05 9.165636e-06
000320 00 00 00 00 ed 13 be b7 e3 61 30 35 00 00 00 00
       0.0 -2.2659044e-05 6.5707553e-07 0.0
000330 a7 99 60 b8 8e 77 a2 36 00 00 00 00 9c c7 aa 36
       -5.354886e-05 4.841894e-06 0.0 5.0896324e-06
000340 5f 87 a2 b4 00 00 00 00 73 ee ea 37 d3 3e 62 36
       -3.0273347e-07 0.0 2.800601e-05 3.3713193e-06
000350 00 00 00 00 b0 92 2a b6 d0 bd 8e 34 00 00 00 00
       0.0 -2.5417357e-06 2.6587668e-07 0.0
000360 d6 da f8 37 75 19 50 37 00 00 00 00 7f cf 66 b5
       2.9665807e-05 1.2403693e-05 0.0 -8.5983623e-07
000370 f9 a4 49 34 00 00 00 00 64 2a bc b8 ee 67 d1 b7
       1.87796e-07 0.0 -8.9724344e-05 -2.4963138e-05
000380 00 00 00 00 cf e5 99 37 ef af 14 b5 00 00 00 00
       0.0 1.8346034e-05 -5.5390313e-07 0.0
000390 cd 27 76 b7 a3 fb 0d b6 00 00 00 00 94 b4 6f 35
       -1.46720095e-05 -2.115711e-06 0.0 8.9297214e-07
0003a0 19 54 15 33 00 00 00 00 ff cf 01 b8 53 11 e4 b7
       3.4768252e-08 0.0 -3.0949708e-05 -2.7187785e-05
0003b0 00 00 00 00 d1 ed 30 37 5d ba a4 b3 00 00 00 00
       0.0 1.0545788e-05 -7.6707444e-08 0.0
0003c0 a1 1c 6a b8 88 86 e6 36 00 00 00 00 65 10 76 b6
       -5.581661e-05 6.8701956e-06 0.0 -3.66664e-06
0003d0 a3 44 74 b4 00 00 00 00 ee 7a 75 b8 58 6e 07 b6
       -2.2749241e-07 0.0 -5.852704e-05 -2.0180796e-06
0003e0 00 00 00 00 ad 44 1e 37 4d 96 ee b4 00 00 00 00
       0.0 9.433524e-06 -4.4440313e-07 0.0
0003f0 c4 dc 93 38 3e 2c 20 38 00 00 00 00 4f ef 8d 36
       7.050627e-05 3.8188176e-05 0.0 4.2299866e-06

exp_avg_sq f4 [128, 6]
000000 44 36 ec 2e 08 0a 2b 2e 00 00 00 00 de 9d c0 2d
       1.0741677e-10 3.8889808e-11 0.0 2.189798e-11
000010 1a 5e 1b 28 00 00 00 00 8a 4c ca 2b 21 2a 48 2c
       8.6246335e-15 0.0 1.4374207e-12 2.8445096e-12
000020 00 00 00 00 06 62 87 2a 87 ed e3 25 00 00 00 00
       0.0 2.4048835e-13 3.9539178e-16 0.0
000030 72 1e 8c 2e 8d 42 16 2e 00 00 00 00 ef 09 a3 2c
       6.371871e-11 3.416516e-11 0.0 4.6338415e-12
000040 f9 2f 31 28 00 00 00 00 a3 c4 32 2c c2 4a 34 2c
       9.835876e-15 0.0 2.5404477e-12 2.5621037e-12
000050 00 00 00 00 a1 5a 64 2c df 28 47 26 00 00 00 00
       0.0 3.2451058e-12 6.9097385e-16 0.0
000060 46 e5 12 2e 70 d1 be 2d 00 00 00 00 ee a6 02 2e
       3.3400192e-11 2.1693508e-11 0.0 2.970684e-11
000070 7c 58 6c 28 00 00 00 00 4f 52 35 2e d7 2a 06 2d
       1.3119819e-14 0.0 4.122774e-11 7.6265305e-12
000080 00 00 00 00 03 29 0a 2d f0 4f a0 27 00 00 00 00
       0.0 7.853498e-12 4.449559e-15 0.0
000090 f2 15 2d 2c b6 b4 26 2c 00 00 00 00 68 47 0d 2d
       2.459696e-12 2.3690334e-12 0.0 8.030777e-12
0000a0 8a 08 3d 27 00 00 00 00 58 75 4f 2f 40 8c 8e 2e
       2.6233648e-15 0.0 1.8868229e-10 6.482326e-11
0000b0 00 00 00 00 ae 75 79 2e 2f 7b 03 29 00 00 00 00
       0.0 5.6720566e-11 2.9194688e-14 0.0
0000c0 e6 96 1a 2f 42 d6 7f 2e 00 00 00 00 8e e9 4d 2e
       1.4059828e-10 5.8170586e-11 0.0 4.681904e-11
0000d0 7e fa 71 28 00 00 00 00 31 b0 ee 2f 05 23 0d 2f
       1.3432504e-14 0.0 4.341714e-10 1.2836317e-10
0000e0 00 00 00 00 bb e1 8b 2e ba 39 2f 29 00 00 00 00
       0.0 6.361086e-11 3.8907876e-14 0.0
0000f0 f6 5c be 2f 82 fc 07 2f 00 00 00 00 71 9f 47 2e
       3.462685e-10 1.2367887e-10 0.0 4.5388974e-11
000100 d7 31 ae 29 00 00 00 00 c9 2c 26 2f 0b b3 f7 2d
       7.735798e-14 0.0 1.5113523e-10 2.816016e-11
000110 00 00 00 00 30 06 31 2e 15 49 9e 28 00 00 00 00
       0.0 4.0250636e-11 1.7573218e-14 0.0
000120 b2 ab d4 2d 23 d2 2a 2d 00 00 00 00 b0 61 d6 2b
       2.4177858e-11 9.710041e-12 0.0 1.5232728e-12
000130 be 38 01 27 00 00 00 00 cd 63 60 2c 90 6a 85 2c
       1.7933106e-15 0.0 3.1887715e-12 3.791918e-12
000140 00 00 00 00 88 74 4a 2b bb 57 f0 25 00 00 00 00
       0.0 7.1926536e-13 4.1692812e-16 0.0
000150 13 6a 4d 2e 76 14 5f 2c 00 00 00 00 9d 40 47 2d
       4.6705816e-11 3.1701564e-12 0.0 1.1326187e-11
000160 40 50 c6 27 00 00 00 00 b9 3f 5a 2d ad 5c 22 2d
       5.5043047e-15 0.0 1.2406015e-11 9.229212e-12
000170 00 00 00 00 55 a4 8e 2b 1d 12 b9 26 00 00 00 00
       0.0 1.0135318e-12 1.2841863e-15 0.0
000180 ef 50 a8 2c 36 e5 74 2c 00 00 00 00 ea 57 a4 2c
       4.7838326e-12 3.4801723e-12 0.0 4.6709208e-12
000190 5a 95 b9 26 00 00 00 00 77 70 25 2f 03 34 44 2e
       1.2877436e-15 0.0 1.5046618e-10 4.4611436e-11
0001a0 00 00 00 00 d8 32 0b 2e 40 a7 44 28 00 00 00 00
       0.0 3.16501e-11 1.0916452e-14 0.0
0001b0 ff db db 2d c1 dc d2 2d 00 00 00 00 91 2e ca 2c
       2.4995115e-11 2.397227e-11 0.0 5.746355e-12
0001c0 6b 15 73 28 00 00 00 00 88 03 06 2e 45 b8 db 2d
       1.3493854e-14 0.0 3.047121e-11 2.497925e-11
0001d0 00 00 00 00 8b 18 e5 2c f8 fe 4d 28 00 00 00 00
       0.0 6.5112963e-12 1.14350735e-14 0.0
0001e0 c0 75 26 2f 6d 12 db 2d 00 00 00 00 f6 d6 00 2e
       1.5139445e-10 2.49056e-11 0.0 2.9294754e-11
0001f0 4c 43 ae 28 00 00 00 00 e0 c9 0f 2f 39 80 7a 2e
       1.9347066e-14 0.0 1.3077495e-10 5.6957303e-11
000200 00 00 00 00 cd db 87 2d af 2c 1b 29 00 00 00 00
       0.0 1.5445334e-11 3.445567e-14 0.0
000210 7e 88 35 2d 0c bd 0f 2b 00 00 00 00 5d 0b 9e 2c
       1.0318966e-11 5.106616e-13 0.0 4.4918917e-12
000220 07 1b 6a 26 00 00 00 00 d6 c9 9a 2d 42 56 8a 2c
       8.122169e-16 0.0 1.7597406e-11 3.9317724e-12
000230 00 00 00 00 55 ea 3e 2e 5e 77 78 27 00 00 00 00
       0.0 4.3409127e-11 3.4481623e-15 0.0
000240 f4 e6 82 2d 97 b1 16 2c 00 00 00 00 5a 88 0d 2d
       1.4881853e-11 2.1414864e-12 0.0 8.045198e-12
000250 b6 9a d1 26 00 00 00 00 81 25 61 2e 2b c3 09 2e
       1.4544223e-15 0.0 5.1192387e-11 3.1323538e-11
000260 00 00 00 00 64 b9 8b 2d 34 84 1e 28 00 00 00 00
       0.0 1.58848e-11 8.799429e-15 0.0
000270 df 7d 3e 2e 7c 87 b6 2d 00 00 00 00 9d f2 e4 2c
       4.3312794e-11 2.0751172e-11 0.0 6.5070852e-12
000280 f9 ff bd 27 00 00 00 00 2e c8 de 2c 0a b1 d3 2b
       5.2735564e-15 0.0 6.331844e-12 1.504159e-12
000290 00 00 00 00 92 8e a8 2c 9b 88 5c 26 00 00 00 00
       0.0 4.7906757e-12 7.651297e-16 0.0
0002a0 35 9e c7 2d ae 8c 6e 2d 00 00 00 00 d9 19 fb 2b
       2.2693939e-11 1.3559971e-11 0.0 1.7841797e-12
0002b0 c3 c9 a1 27 00 00 00 00 db 34 32 2d 22 21 52 2c
       4.4905227e-15 0.0 1.0129865e-11 2.9861187e-12
0002c0 00 00 00 00 8b 64 43 2c 1b 0c ee 26 00 00 00 00
       0.0 2.776698e-12 1.6517849e-15 0.0
0002d0 54 67 c9 2f 61 3e 40 2f 00 00 00 00 b0 bc 61 2f
       3.6635106e-10 1.748446e-10 0.0 2.0530666e-10
0002e0 05 d7 25 29 00 00 00 00 bc 98 16 2d 12 26 03 2c
       3.682386e-14 0.0 8.560427e-12 1.8637353e-12
0002f0 00 00 00 00 39 9a 5c 2c 91 a2 a6 26 00 00 00 00
       0.0 3.1349491e-12 1.1562628e-15 0.0
000300 43 e6 04 2e e8 88 66 2d 00 00 00 00 21 94 9e 2d
       3.021784e-11 1.3104386e-11 0.0 1.8028303e-11
000310 2b 4a 54 28 00 00 00 00 88 a4 68 2e 47 88 09 2e
       1.1784447e-14 0.0 5.2896826e-11 3.1271232e-11
000320 00 00 00 00 16 30 b1 2d 91 31 e1 28 00 00 00 00
       0.0 2.0143925e-11 2.5001514e-14 0.0
000330 80 da ad 2e d5 44 0f 2e 00 00 00 00 ab 8b 1d 2d
       7.9059426e-11 3.257557e-11 0.0 8.955429e-12
000340 64 56 45 28 00 00 00 00 a8 67 c7 2d 9b b7 29 2d
       1.095443e-14 0.0 2.2669713e-11 9.647306e-12
000350 00 00 00 00 04 98 93 2c a0 ba 8d 27 00 00 00 00
       0.0 4.1948684e-12 3.93377e-15 0.0
000360 e5 d9 02 2e e4 e4 0e 2d 00 00 00 00 27 d7 97 2d
       2.9752107e-11 8.122589e-12 0.0 1.726226e-11
000370 b6 85 a2 27 00 00 00 00 4b 69 98 2f f2 6b 81 2e
       4.5109002e-15 0.0 2.7723454e-10 5.885416e-11
000380 00 00 00 00 3c b7 a5 2e d0 13 2d 29 00 00 00 00
       0.0 7.53588e-11 3.84309e-14 0.0
000390 87 64 56 2d 24 b6 fc 2a 00 00 00 00 ec 3e d9 2b
       1.2186813e-11 4.4890578e-13 0.0 1.5436242e-12
0003a0 5f cc 87 26 00 00 00 00 03 f2 b1 2e e3 df e0 2d
       9.422902e-16 0.0 8.092018e-11 2.5565277e-11
0003b0 00 00 00 00 e7 07 1a 2e 82 d3 34 28 00 00 00 00
       0.0 3.5022565e-11 1.0037871e-14 0.0
0003c0 34 ad c8 2e 89 e8 a7 2d 00 00 00 00 c3 0d 68 2d
       9.125714e-11 1.9088968e-11 0.0 1.3190729e-11
0003d0 ca 48 07 28 00 00 00 00 11 58 d9 2e 8e c4 f6 2d
       7.509789e-15 0.0 9.883661e-11 2.805425e-11
0003e0 00 00 00 00 29 eb b0 2d aa aa 92 28 00 00 00 00
       0.0 2.0113316e-11 1.628327e-14 0.0
0003f0 71 66 57 2f 4c 65 9b 2e 00 00 00 00 91 ad 29 2f
       1.959053e-10 7.066578e-11 0.0 1.5432124e-10

exp_avg f4 [128]
000000 00 fc 09 37 75 07 12 36 5e b4 ee b7 56 8e 7e 36
       8.22451e-06 2.1760036e-06 -2.8455801e-05 3.79318e-06
000010 e3 08 f7 b7 05 22 82 36 5b 27 f6 36 a6 71 97 37
       -2.9448833e-05 3.8782623e-06 7.335953e-06 1.8053524e-05
000020 05 6e f0 b6 57 c4 94 b7 9e 5e 95 38 43 80 cf b6
       -7.1653653e-06 -1.7734403e-05 7.1224975e-05 -6.1840124e-06
000030 25 0a 34 37 a5 b1 f5 b3 78 b7 d4 b6 ed b8 eb b6
       1.0731198e-05 -1.1441015e-07 -6.339451e-06 -7.025074e-06
000040 6e 1d 03 b5 28 7e 03 37 58 78 06 38 aa 03 04 b8
       -4.884413e-07 7.8375815e-06 3.206017e-05 -3.1474665e-05
000050 3a f3 f4 b7 42 9b 57 38 5d 9a 29 36 97 a0 78 b7
       -2.9200328e-05 5.140459e-05 2.5272814e-06 -1.4819342e-05
000060 60 49 d4 36 37 88 0a 37 02 c3 31 b7 af 76 44 b5
       6.3266343e-06 8.257156e-06 -1.0595426e-05 -7.31884e-07
000070 78 2e 97 37 f1 14 9e b6 52 21 93 37 62 1b 90 b6
       1.8022241e-05 -4.711205e-06 1.7539282e-05 -4.294722e-06
000080 97 75 e5 37 aa 0d 1a b8 21 f4 8d 37 af 57 79 b7
       2.7353684e-05 -3.6729187e-05 1.6922191e-05 -1.4861972e-05
000090 14 1e 30 b7 45 dd 01 38 ac 6c 02 b6 cb df 8f 36
       -1.0497421e-05 3.096207e-05 -1.9434765e-06 4.287785e-06
0000a0 67 58 55 37 2b 62 d0 37 92 0d 44 b8 5f 3c f1 37
       1.2716372e-05 2.4841245e-05 -4.674268e-05 2.8757551e-05
0000b0 0a 37 83 b5 03 be 9d 37 c0 f8 3a 37 d7 3d 91 b6
       -9.776279e-07 1.880434e-05 1.1144381e-05 -4.328536e-06
0000c0 a8 85 95 36 68 dc 7c 37 51 14 36 38 71 18 8d 37
       4.4561057e-06 1.5071688e-05 4.3411103e-05 1.6819891e-05
0000d0 aa 3b ea b6 18 ad c7 b7 2b 22 1b 38 e1 84 18 b8
       -6.9806892e-06 -2.3803252e-05 3.69867e-05 -3.6363377e-05
0000e0 05 ec e1 b7 bf b7 f5 36 dc 78 19 36 00 03 11 b6
       -2.6931995e-05 7.32296e-06 2.2869126e-06 -2.160843e-06
0000f0 76 24 94 37 63 ed d0 37 19 2e fa b7 84 92 65 b7
       1.7659953e-05 2.4906074e-05 -2.9823788e-05 -1.3683577e-05
000100 ef 3a 4a b7 63 4d 55 b8 64 02 0a 36 08 f9 e4 b7
       -1.205386e-05 -5.085523e-05 2.0564994e-06 -2.7295682e-05
000110 b8 ea 16 b8 3b 09 ef 37 a1 19 af 36 fd dd 1a b7
       -3.5981386e-05 2.8495318e-05 5.21839e-06 -9.230801e-06
000120 18 00 63 37 43 6d b9 34 60 45 fc b6 e1 07 b3 37
       1.3530276e-05 3.4538434e-07 -7.5182616e-06 2.1342132e-05
000130 b4 2d 3f 37 de 84 71 37 fc 72 4f b6 a4 59 a3 b6
       1.1395128e-05 1.4395655e-05 -3.0912333e-06 -4.868214e-06
000140 64 24 73 b7 36 28 8e 37 20 70 d8 b5 92 cd 90 b7
       -1.44924015e-05 1.6946444e-05 -1.6125887e-06 -1.7261864e-05
000150 b6 90 d9 36 d9 d8 c2 b7 75 1d 0b 37 77 77 f2 37
       6.4839505e-06 -2.322758e-05 8.291904e-06 2.8904278e-05
000160 6e b5 15 b7 bd 6d c2 b5 83 d8 80 b7 48 d7 0c 37
       -8.9233345e-06 -1.4486064e-06 -1.535961e-05 8.394774e-06
000170 c4 b5 2d 38 f6 1d 50 b7 87 36 40 b7 2b d4 af b7
       4.1415697e-05 -1.2404742e-05 -1.1456787e-05 -2.0960424e-05
000180 be f6 e3 37 96 e3 81 b6 09 78 cd b8 65 c3 d2 36
       2.7175407e-05 -3.870994e-06 -9.79752e-05 6.2812346e-06
000190 a6 bf 27 b7 3f 8d d7 b6 08 a5 c4 37 29 29 49 38
       -9.998597e-06 -6.4239425e-06 2.344187e-05 4.7960468e-05
0001a0 68 56 12 37 34 bc 0b b8 72 c3 01 38 b7 f0 07 38
       8.722396e-06 -3.331546e-05 3.093802e-05 3.241069e-05
0001b0 77 7a 3c 37 13 c6 63 b7 7b 41 c6 37 9b be 02 b8
       1.1234187e-05 -1.3576372e-05 2.3633931e-05 -3.117193e-05
0001c0 4c 14 31 b7 44 6a b2 36 d3 59 21 37 fc a3 5e 37
       -1.0554748e-05 5.3171843e-06 9.617262e-06 1.3270412e-05
0001d0 82 1f de b7 2c 9e 8e b7 4b dc d8 37 44 56 26 b7
       -2.6479134e-05 -1.7001374e-05 2.5851788e-05 -9.914456e-06
0001e0 ec 13 b8 b7 8e 9c 1f b7 da 17 78 b5 9f 49 4a 37
       -2.1943786e-05 -9.513589e-06 -9.242191e-07 1.20572795e-05
0001f0 a8 f6 75 b7 49 7f 3d b7 0d 15 77 b6 c0 36 8e b6
       -1.4660567e-05 -1.1294914e-05 -3.6818121e-06 -4.2383035e-06
