Assets/Models/SliderBehavior1/SliderBehavior/SliderBehavior-2332.onnx (onnx, 77770 bytes, 6 tensors)

network_body._body_endoder.seq_layers.0.weight f4 [128, 6]
0.5721314 -0.027628366 -0.19067693 -0.29420242 0.43462694 -0.14261068 -0.10490685 -0.13049361
-0.7299208 -0.4114933 -0.050229143 -0.019877348 -0.012415794 0.18650463 -0.6249311 0.31312317
0.53076124 0.3512528 -0.2557836 -0.12010906 0.06818102 0.43519136 0.1497734 -0.18987809
-0.10773672 0.012005911 0.3317142 0.6270079 -0.010707679 0.13136485 -0.20703056 0.54561013
-0.46317 0.51457465 1.0529293 0.2822229 0.20397449 0.4622325 0.29648566 0.6041431
0.6613095 -0.51906365 0.024869578 0.37973544 0.06925416 0.588713 -0.0070517426 1.3146031
-0.06579473 -0.5566027 0.3853038 0.10309987 0.46394414 0.64134693 0.052595016 0.10999693
0.61759007 -0.2654399 0.0936356 0.87251717 0.8037577 -0.24289024 0.24278238 -0.16883811
0.05248174 -0.10669027 0.45187393 0.2726465 -0.30320725 0.3592689 0.29572272 0.78848404
-0.39798605 0.65079606 -0.6842233 0.005774016 -0.3756335 -0.08087074 0.299077 0.07443367
-0.10777778 0.038596563 0.29748195 0.49944437 0.26064596 0.6767193 -0.08381295 -0.53695536
-0.12142251 0.5156326 0.29395258 0.10924423 -0.5749501 0.43667585 -0.17074004 -0.26281017
0.0641895 0.71699053 -0.5253838 0.23717476 0.52458686 0.4972083 -0.6354654 0.20514537
-0.18279932 -0.091715656 -0.1709375 0.22661234 -0.078749776 -0.32546955 -0.10360049 -0.08580276
0.3774507 -1.141781 -0.5939474 -0.36982045 0.58443975 0.078740835 -0.5690374 0.40649435
-0.5413077 0.12863734 0.6365275 0.0691842 -0.21405275 0.09457789 0.30036035 -0.26722264
-0.28685945 0.06336033 -0.19550748 0.22874573 0.8235107 0.40363067 -0.75663936 0.52404726
-0.039413936 0.95676947 0.1779933 0.7540343 -0.4765062 -0.47031087 -0.08463086 -0.27082396
-0.0052846773 -0.25076595 0.038676858 0.15576512 -0.10213905 -0.23304915 -0.29538822 -0.029246239
-0.10432828 0.7089437 0.11092253 -0.70695895 0.16938366 0.09207987 -0.7712446 0.20121832
0.005448008 -0.003536861 -0.2769445 0.042969294 0.103983134 -0.084280595 -0.4392283 -0.26077732
-0.3543125 0.12688431 0.7859236 -0.12783358 -0.2725283 -0.2927618 0.531787 0.33168977
0.12532443 0.39399502 0.8501341 -0.12165285 0.48718598 -0.17152071 0.37167826 -0.19651924
0.34274936 0.065293536 0.011897985 0.66309357 0.0491517 0.3682765 -0.19381438 0.48543692
-0.38262206 0.48797986 -0.12170467 -0.35849652 -0.67222756 -0.014943168 -0.29270384 0.019623948
-0.009611648 0.08065626 -0.09918635 0.3045373 -0.059709728 -0.5722375 -0.26115236 -0.07479215
0.13235924 1.3654997 -0.31291783 0.56067634 -0.19901647 -0.20980269 0.44088045 -0.28022435
0.107246116 0.09122952 0.22768195 -0.113326736 0.037226465 -0.36352465 0.46371755 -0.34586364
-0.42323238 0.7625238 1.1029718 0.13800189 -0.48784432 -0.53777325 0.97824407 0.09063521
-0.17143998 -0.050195638 0.64259243 -0.480748 -0.50739384 -0.20285228 -0.2796878 0.10243657
0.21276473 0.29130286 0.5731019 -0.25715065 0.001495468 0.46505037 0.43149292 0.26193368
-0.1880239 -0.05298396 0.2700576 -0.7805535 0.22867654 -0.1433511 -0.09129246 0.097353674
00000000: 3477 123f e254 e2bc d040 43be b3a1 96be
00000010: 6c87 de3e 8908 12be 67d9 d6bd 1ea0 05be
00000020: 17dc 3abf 40af d2be 13bd 4dbd d2d5 a2bc
00000030: 9d6b 4bbc 12fb 3e3e 7cfb 1fbf ae51 a03e
00000040: f8df 073f 68d7 b33e 11f6 82be bdfb f5bd
00000050: 7ea2 8b3d 67d1 de3e 335e 193e 676f 42be
00000060: 12a5 dcbd 71b4 443c 72d6 a93e 9783 203f
00000070: 436f 2fbc 8284 063e d2ff 53be 1bad 0b3f
00000080: 9e24 edbe 2abb 033f 63c6 863f 857f 903e
00000090: b0de 503e bda9 ec3e f8cc 973e 1fa9 1a3f
000000a0: 944b 293f 5be1 04bf 49bb cb3c af6c c23e
000000b0: 20d5 8d3d e5b5 163f 4e12 e7bb ea44 a83f
000000c0: 63bf 86bd 847d 0ebf 8a46 c53e 0626 d33d
000000d0: 168a ed3e 502f 243f df6d 573d 1246 e13d
000000e0: 621a 1e3f bde7 87be 05c4 bf3d 495d 5f3f
000000f0: 11c3 4d3f 38b8 78be f29b 783e e6e3 2cbe
00000100: 18f7 563d 6e80 dabd 055c e73e 5298 8b3e
00000110: fb3d 9bbe 18f2 b73e f868 973e 17da 493f
00000120: d4c4 cbbe 929a 263f 4229 2fbf f533 bd3b
00000130: 0953 c0be 8f9f a5bd 9f20 993e ae70 983d
00000140: 99ba dcbd 6e17 1e3d 8e4f 983e 2cb7 ff3e
00000150: 6373 853e 7a3d 2d3f 20a6 abbd e875 09bf
00000160: 5dac f8bd 8000 043f f480 963e 70bb df3d
00000170: ee2f 13bf fa93 df3e 7ad6 2ebe 0e8f 86be
00000180: c975 833d b18c 373f 8d7f 06bf f1dd 723e
00000190: 534b 063f 1692 fe3e dcad 22bf a111 523e
000001a0: bf2f 3bbe 6bd5 bbbd 3d0a 2fbe 110d 683e
000001b0: 9047 a1bd f2a3 a6be 7e2c d4bd 5cb9 afbd
000001c0: 3841 c13e e125 92bf f00c 18bf 1b59 bdbe
000001d0: d89d 153f e042 a13d 6fac 11bf 0720 d03e
000001e0: 2493 0abf 82b9 033e 77f3 223f 72b0 8d3d
000001f0: a530 5bbe 0eb2 c13d d5c8 993e 68d1 88be
00000200: 3edf 92be 10c3 813d 1d33 48be 523c 6a3e
00000210: 99d1 523f aea8 ce3e 1eb3 41bf f627 063f
00000220: 8270 21bd d8ee 743f e043 363e 6408 413f
00000230: 9ff8 f3be 96cc f0be f252 adbd 70a9 8abe
00000240: 162b adbb 6564 80be a06b 1e3d e480 1f3e
00000250: 472e d1bd 70a4 6ebe 203d 97be cf95 efbc
00000260: 11aa d5bd 567d 353f 5a2b e33d 43fb 34bf
00000270: e972 2d3e 5f94 bc3d 4970 45bf 2d0c 4e3e
00000280: 3485 b23b aeca 67bb abcb 8dbe 9200 303d
00000290: 1cf5 d43d 4e9b acbd 88e2 e0be 9b84 85be
000002a0: 7368 b5be f6ed 013e 4a32 493f cee6 02be
000002b0: d488 8bbe e0e4 95be 3123 083f 3ed3 a93e
000002c0: 0c55 003e b7b9 c93e 63a2 593f 2125 f9bd
000002d0: 7170 f93e 20a3 2fbe 9d4c be3e 573c 49be
000002e0: d87c af3e 9eb8 853d c4ef 423c 80c0 293f
000002f0: 4b53 493d bd8e bc3e 4777 46be 308b f83e
00000300: 0ae7 c3be 7fd8 f93e 4c40 f9bd db8c b7be
00000310: 1b17 2cbf 30d4 74bc 47dd 95be 67c2 a03c
00000320: 2c7a 1dbc 1c2f a53d 3722 cbbd 50ec 9b3e
00000330: 3092 74bd 287e 12bf c3b5 85be a02c 99bd
00000340: 2e89 073e b2c8 ae3f c436 a0be 7c88 0f3f
00000350: f9ca 4bbe 84d6 56be 15bb e13e 9179 8fbe
00000360: daa3 db3d 8bd6 ba3d 7525 693e d917 e8bd
00000370: c77a 183d e71f babe 636c ed3e 0a15 b1be
00000380: eab1 d8be c234 433f 2e2e 8d3f 5e50 0d3e
00000390: bbc6 f9be 82ab 09bf 346e 7a3f f49e b93d
000003a0: f68d 2fbe f199 4dbd f080 243f 9a24 f6be
000003b0: 90e4 01bf 82b8 4fbe 3d33 8fbe 44ca d13d
000003c0: ffde 593e a625 953e ceb6 123f 40a9 83be
000003d0: 9403 c43a 151b ee3e a4ec dc3e 2c1c 863e
000003e0: 5689 40be b505 59bd fd44 8a3e 5bd2 47bf
000003f0: 2f2a 6a3e a1ca 12be 8bf7 babd 5d61 c73d

network_body._body_endoder.seq_layers.0.bias f4 [128]
-0.06106468 -0.030288171 -0.0073218383 -0.030253863 -0.07704842 0.039580766 -0.033277597 -0.008301944
-0.045714237 -0.0028600928 -0.06125976 -0.11597208 -0.004762041 -0.09819908 0.0012720085 -0.12357609
-0.020734068 -0.008720373 -0.00047325427 -0.0347433 -0.059925318 -0.032539 -0.054226685 -0.01425772
-0.00077489624 -0.06614762 -0.0117036095 -0.027374897 -0.018643532 -0.028106116 -0.057628423 -0.0024980768
-0.017481102 -0.03204901 0.036503233 -0.046136353 -0.018279225 -0.019724958 0.022796988 -0.07725372
-0.0013282286 -0.012563251 -0.053517703 -0.075849265 -0.058974322 -0.0323317 0.008251663 -0.16053683
0.031138465 0.019532517 -0.102847315 -0.07605622 -0.015016327 0.022936594 -0.027088147 -0.0011965644
0.0064573414 -0.08505535 -0.10226324 -0.10794291 -0.026790993 -0.0093424 -0.003522477 -0.0062639383
-0.012298347 -0.08758805 -0.10695286 0.03385445 0.0039488305 -0.07840352 0.03378818 -0.07966576
-0.018059244 -0.0036348556 -0.0318646 -0.07165492 -0.011289924 -0.017463733 -0.079163566 0.008793666
-0.042504486 -0.055455018 -0.03695422 -0.12593128 -0.015806856 -0.011567833 -0.023857744 -0.018264726
-0.015362402 -0.024485594 -0.0009838633 0.005657986 0.018588375 -0.043310665 -0.0031756826 -0.030556161
-0.18086506 -0.048660886 0.014387309 0.0058201323 -0.018207446 -0.031525712 -0.13027571 -0.0021525205
-0.04304726 -0.0574283 -0.077419885 -0.057879295 -0.05969944 0.0034793331 -0.013701175 -0.06532053
0.0025738406 -0.14372297 -0.03072695 0.007902262 -0.0088429265 -0.033423968 -0.0120823 -0.015272672
-0.10465427 -0.05016153 0.024203574 -0.04067713 0.0157374 -0.051333398 0.0023488784 0.013848361
00000000: f51e 7abd e61e f8bc 08ec efbb f3d6 f7bc
00000010: 90cb 9dbd 711f 223d 174e 08bd e004 08bc
00000020: da3e 3bbd 6570 3bbb 84eb 7abd c582 edbd
00000030: e50a 9cbb 991c c9bd 86b9 a63a 7615 fdbd
00000040: 7eda a9bc e5df 0ebc 1d1f f8b9 fe4e 0ebd
00000050: 4074 75bd 9d47 05bd cd1c 5ebd 3699 69bc
00000060: 6822 4bba 6778 87bd 7fc0 3fbc 5241 e0bc
00000070: 52ba 98bc cc3e e6bc c80b 6cbd c6b6 23bb
00000080: 8734 8fbc d345 03bd 6a84 153d 79f9 3cbd
00000090: 50be 95bc 3c96 a1bc c0c0 ba3c 3337 9ebd
000000a0: f517 aeba 18d6 4dbc 6135 5bbd dc56 9bbd
000000b0: 0f8f 71bd 3f6e 04bd fc31 073c c463 24be
000000c0: 1816 ff3c a802 a03c 9da1 d2bd 5dc3 9bbd
000000d0: 0a07 76bc 86e5 bb3c f6e7 ddbc 0ad6 9cba
000000e0: 1b98 d33b 8031 aebd 646f d1bd 2c11 ddbd
000000f0: c978 dbbc de10 19bc 5cd9 66bb b941 cdbb
00000100: 027f 49bc 5d61 b3bd 1a0a dbbd f7aa 0a3d
00000110: 3165 813b 0692 a0bd 7a65 0a3d cd27 a3bd
00000120: fbf0 93bc c236 6ebb 7484 02bd d1bf 92bd
00000130: 60f9 38bc 1a10 8fbc 8220 a2bd 4f13 103c
00000140: 2f19 2ebd cd24 63bd 4f5d 17bd 21f4 00be
00000150: 617d 81bc 0287 3dbc 5171 c3bc e89f 95bc
00000160: 96b2 7bbc 0396 c8bc f9f4 80ba a066 b93b
00000170: a646 983c 8666 31bd 1d1f 50bb ea50 fabc
00000180: b134 39be a350 47bd bfb8 6b3c cfb6 be3b
00000190: c827 95bc 1b21 01bd ff66 05be 4d11 0dbb
000001a0: 5352 30bd f039 6bbd 518e 9ebd d712 6dbd
000001b0: 6687 74bd 8605 643b e57a 60bc c5c6 85bd
000001c0: e1ad 283b 1d2c 13be 16b7 fbbc 7d78 013c
000001d0: ece1 10bc 92e7 08bd d7f4 45bc 3b3a 7abc
000001e0: fa54 d6bd 2d76 4dbd 9346 c63c 109d 26bd
000001f0: b8eb 803c f842 52bd a4ef 193b 3ce4 623c

network_body._body_endoder.seq_layers.2.weight f4 [128, 128]
-0.021356424 0.03395157 0.0044524176 -0.042253736 0.016596781 -0.045111645 -0.10050111 0.09284336
0.027133778 -0.08656584 -0.16028354 0.038062267 -0.11495314 0.04699462 0.0032835796 -0.03372
-0.09566484 0.009300696 0.05975532 0.06259561 0.06537815 0.01968553 0.11483601 0.06793097
-0.022230612 0.03885554 0.006374219 -0.04661156 0.059929457 -0.08331345 0.10336914 0.13549964
-0.031096313 -0.010327013 0.023638083 0.049794827 -0.18448082 0.006410319 0.07211794 -0.06847906
-0.03512075 0.07442371 0.03256435 -0.119120404 0.018926812 0.088291556 0.10079821 -0.047139842
0.0035904972 0.138607 -0.005125902 -0.06268785 -0.05964536 -0.027467651 -0.016036918 0.006971571
-0.026240967 0.010100516 -0.008617904 -0.093915455 -0.14020248 0.048468772 -0.07236252 -0.09863224
-0.11385253 -0.07309759 -0.0033228346 0.057775393 0.12636764 0.009237518 -0.017251339 -0.06546398
0.027186489 -0.097260416 0.081422515 -0.147939 0.009833599 -0.09511281 -0.07848944 0.024097126
0.105702244 0.06915232 -0.009233505 0.13260782 0.045041688 -0.04840312 0.0052527254 -0.10575446
-0.017305627 -0.004912319 -0.07402391 -0.081255384 0.02482475 0.044102415 0.041514244 0.024224088
0.070258655 -0.0529982 -0.015862953 -0.08533966 -0.09043194 -0.07282407 -0.059512842 -0.10346413
0.008002367 0.0017149613 -0.1304959 0.25527805 0.11497875 0.027873835 0.059363145 -0.01931311
0.09155538 0.028139632 0.060340725 -0.08978423 0.06603137 -0.07531135 0.045763988 0.0068696616
-0.1383385 -0.027844075 -0.027757624 -0.032133758 -0.05924571 -0.038689062 -0.060099002 0.025429476
0.05677588 -0.033212442 -0.015072085 -0.039466415 -0.0788792 0.039219107 0.017564686 -0.1720785
0.009156575 0.012403841 0.056883354 -0.12461711 -0.12875272 0.030660676 -0.121705666 0.23063278
-0.045761384 -0.02027933 -0.0014182437 0.11106834 0.066285074 -0.10144359 0.05686243 -0.108046316
-0.14641306 0.15232854 0.1253276 -0.11487307 -0.26212323 -0.0967868 -0.14015251 0.00841561
-0.12374214 -0.02050488 -0.006156041 0.14468904 -0.01622105 -0.12406024 -0.079805814 -0.11602254
-0.047032706 -0.10695178 0.09846403 0.13169463 0.03402619 0.10033326 -0.043995794 -0.017864872
0.065517545 -0.06881901 -0.04241694 -0.020759529 0.09844268 -0.021457396 -0.08366501 0.07684271
0.031097794 -0.04657802 0.02559544 -0.03018677 0.032320924 0.04130629 0.023602676 -0.030188449
-0.076135285 -0.035635207 0.037671454 -0.029644243 0.035800144 -0.121266775 0.15652394 -0.04026284
-0.12322265 -0.05687847 0.042805243 0.08088711 -0.09070737 -0.097717896 -0.12715517 0.10519194
-0.061779287 -0.121473484 -0.034769803 -0.0009516529 -0.07970097 0.033370037 -0.053189516 -0.11839364
-0.081877075 -0.10394277 0.0137854945 -0.07168595 0.00026716376 -0.14224175 -0.016196894 0.042001132
-0.20015325 0.1239764 0.06784226 -0.022760967 0.1564327 0.0884605 -0.031048732 0.03308336
0.018562548 0.03697607 0.15694451 -0.0107614435 -0.09378316 -0.1470403 -0.043952692 -0.108159594
0.06847055 0.05044713 0.019955223 0.0012705964 0.034737278 -0.04813884 0.05713241 0.03462791
0.031541206 -0.29586875 0.03429379 0.08704759 -0.054864597 0.028557932 -0.03078135 -0.07644339
00000000: abf3 aebc cd10 0b3d 96e5 913b 4112 2dbd
00000010: f9f5 873c fdc6 38bd 87d3 cdbd a924 be3d
00000020: a847 de3c 6e49 b1bd 5e21 24be 2ee7 1b3d
00000030: 8d6c ebbd 6e7d 403d 5331 573b fc1d 0abd
00000040: edeb c3bd f261 183c ffc1 743d 2132 803d
00000050: fbe4 853d 8c43 a13c 242f eb3d 641f 8b3d
00000060: f91c b6bc fd26 1f3d d3de d03b c3eb 3ebd
00000070: 9778 753d 3ea0 aabd 33b3 d33d 6bc0 0a3e
00000080: b2bd febc a232 29bc a7a4 c13c a9f5 4b3d
00000090: 8ae8 3cbe a70d d23b 92b2 933d c03e 8cbd
000000a0: c7da 0fbd 756b 983d 3262 053d 66f5 f3bd
000000b0: 670c 9b3c 34d2 b43d 4b6f ce3d b515 41bd
000000c0: 8c4e 6b3b feee 0d3e 2ff7 a7bb 7d62 80bd
000000d0: b14e 74bd d703 e1bc db5f 83bc c771 e43b
000000e0: 4cf7 d6bc a27c 253c 1c32 0dbc bf56 c0bd
000000f0: 3d91 0fbe 3187 463d cd32 94bd b3ff c9bd
00000100: 842b e9bd 30b4 95bd eac3 59bb e4a5 6c3d
00000110: 8566 013e f558 173c ae52 8dbc fb11 86bd
00000120: 33b6 de3c 7830 c7bd d9c0 a63d 527d 17be
00000130: 1b1d 213c 81ca c2bd 12bf a0bd 5667 c53c
00000140: 6b7a d83d bb9f 8d3d 2148 17bc 58ca 073e
00000150: a27d 383d 5a42 46bd 0e1f ac3b cb95 d8bd
00000160: 88c4 8dbc 85f7 a0bb d999 97bd 3969 a6bd
00000170: 465d cb3c bca4 343d d70a 2a3d 9871 c63c
00000180: c5e3 8f3d a414 59bd 06f3 81bc 8fc6 aebd
00000190: 6234 b9bd c924 95bd bdc3 73bd 00e5 d3bd
000001a0: 5c1c 033c 8dc8 e03a b8a0 05be ceb3 823e
000001b0: fb79 eb3d ab57 e43c c526 733d 8736 9ebc
000001c0: 6381 bb3d 1685 e63c d627 773d cbe0 b7bd
000001d0: 743b 873d d63c 9abd 0573 3b3d e61a e13b
000001e0: 9ca8 0dbe 4219 e4bc f563 e3bc b09e 03bd
000001f0: a1ab 72bd 6c78 1ebd 5f2a 76bd 7a51 d03c
00000200: d38d 683d c509 08bd e8f0 76bc 89a7 21bd
00000210: 6b8b a1bd 37a4 203d d1e3 8f3c 5935 30be
00000220: 7605 163c 7b39 4b3c 85fe 683d 4137 ffbd
00000230: c1d7 03be 192c fb3c d240 f9bd 002b 6c3e
00000240: 4a70 3bbd d620 a6bc 5de4 b9ba cc77 e33d
00000250: 78c0 873d a8c1 cfbd 94e8 683d 6347 ddbd
00000260: 4eed 15be 03fc 1b3e e155 003e 9242 ebbd
00000270: 0435 86be 2838 c6bd 2484 0fbe a0e1 093c
00000280: 856c fdbd daf9 a7bc 9db8 c9bb 5d29 143e
00000290: 02e2 84bc 4c13 febd 3b71 a3bd 3a9d edbd
000002a0: 5ea5 40bd 8909 dbbd 82a7 c93d f5da 063e
000002b0: 0c5f 0b3d 867b cd3d ef34 34bd 5a59 92bc
000002c0: 102e 863d fbf0 8cbd 63bd 2dbd e30f aabc
000002d0: 519c c93d 6cc7 afbc 9058 abbd b65f 9d3d
000002e0: cdc0 fe3c 98c8 3ebd 87ad d13c 3f4a f7bc
000002f0: f262 043d c930 293d 665a c13c c44d f7bc
00000300: d1ec 9bbd 39f6 11bd 624d 1a3d 7cd8 f2bc
00000310: 2ca3 123d b75a f8bd d047 203e a6ea 24bd
00000320: 285c fcbd 66f9 68bd 8d54 2f3d 24a8 a53d
00000330: c9c4 b9bd 5220 c8bd f734 02be df6e d73d
00000340: 470c 7dbd 17c7 f8bd c86a 0ebd 5878 79ba
00000350: 433a a3bd 05af 083d 40dd 59bd 5d78 f2bd
00000360: 2baf a7bd f2df d4bd 8edc 613c 15d0 92bd
00000370: 1d12 8c39 d2a7 11be 59af 84bc 6109 2c3d
00000380: f9f4 4cbe 57e7 fd3d e2f0 8a3d 3575 babc
00000390: e52f 203e c72a b53d e959 febc 6b82 073d
000003a0: 7c10 983c 3874 173d 10b6 203e c450 30bc
000003b0: 6311 c0bd bb91 16be bd07 34bd c782 ddbd
000003c0: 4a3a 8c3d a6a1 4e3d 2379 a33c 248a a63a
000003d0: ad48 0e3d 3b2d 45bd ad03 6a3d ffd5 0d3d
000003e0: 5a31 013d 1c7c 97be a577 0c3d 0246 b23d
000003f0: b3b9 60bd 53f2 e93c 2b29 fcbc 5a8e 9cbd

network_body._body_endoder.seq_layers.2.bias f4 [128]
-0.020934608 -0.039475735 -0.019117575 -0.015372116 -0.02122374 -0.0170239 -0.015473176 -0.024931245
-0.020036733 -0.013738953 -0.013866107 -0.017742071 -0.017899927 -0.017984971 -0.053725544 -0.029927395
-0.015531157 -0.01731551 -0.040316395 -0.03799992 -0.01300478 -0.031845096 -0.042169772 -0.023859886
-0.032872252 -0.012078171 -0.015141251 -0.037458044 -0.01763815 -0.053398486 -0.014425438 -0.065225914
-0.044468354 -0.008067373 -0.022268508 -0.016418092 -0.009054886 -0.03303338 -0.019484371 -0.047480986
-0.030057862 -0.030738415 -0.024363352 -0.025669241 -0.017069094 -0.0013039517 -0.014786725 -0.03162547
-0.023504281 -0.023335971 -0.01971671 -0.040621106 -0.021600332 -0.036094695 -0.021000167 -0.037784647
-0.02482253 -0.03839534 -0.022844743 -0.017248346 -0.03562901 -0.021659458 -0.016676642 -0.032926124
-0.013946757 -0.02087636 -0.023005864 -0.033691224 -0.012945329 -0.042967938 -0.04724455 -0.0050337226
-0.057696138 -0.031660754 -0.019523714 -0.024354368 -0.03421458 -0.015203817 -0.01925909 -0.048866414
-0.036613766 -0.020056816 -0.035759494 -0.026424864 -0.023819454 -0.042392176 -0.03926583 -0.029080583
-0.025416838 -0.023661582 -0.008413208 -0.039928384 -0.04989287 -0.024874713 -0.017054435 -0.011979141
-0.013833715 -0.04975199 -0.011496614 -0.015256447 -0.042694584 0.00795619 -0.019528793 -0.023302272
-0.045734465 -0.044612247 -0.02170182 -0.037017908 -0.024946444 -0.005860264 -0.024293551 -0.023427136
-0.02558275 0.008324053 -0.029545527 -0.031589832 -0.033309933 -0.010713945 -0.017908055 -0.046318293
-0.023849096 -0.042604413 -0.030732043 -0.02144228 -0.04851804 -0.039500944 -0.023081604 -0.017624697
00000000: 0e7f abbc 4fb1 21bd 769c 9cbc 54db 7bbc
00000010: 69dd adbc b575 8bbc 3483 7dbc 9c3c ccbc
00000020: 1324 a4bc 5819 61bc ab2e 63bc d257 91bc
00000030: dea2 92bc 3855 93bc 510f 5cbd 4c2a f5bc
00000040: 6576 7ebc 42d9 8dbc ce22 25bd cea5 1bbd
00000050: 0012 55bc 0170 02bd 36ba 2cbd cf75 c3bc
00000060: 0ea5 06bd 85e3 45bc 0213 78bc 9b6d 19bd
00000070: e27d 90bc 5fb8 5abd ac58 6cbc 2a95 85bd
00000080: 7324 36bd 042d 04bc 726c b6bc 3c7f 86bc
00000090: f25a 14bc 024e 07bd b09d 9fbc 6c7b 42bd
000000a0: e83b f6bc 21cf fbbc a795 c7bc 4d48 d2bc
000000b0: 7cd4 8bbc 5ce9 aaba 0544 72bc b589 01bd
000000c0: 0d8c c0bc 142b bfbc f084 a1bc 5162 26bd
000000d0: 2ef3 b0bc 08d8 13bd 8b08 acbc 13c4 1abd
000000e0: 9e58 cbbc 6f44 1dbd e624 bbbc 674c 8dbc
000000f0: baef 11bd 2d6f b1bc 749d 88bc 8bdd 06bd
00000100: f080 64bc e604 abbc cb76 bcbc cfff 09bd
00000110: a518 54bc 26ff 2fbd 8083 41bd edf1 a4bb
00000120: c952 6cbd b5ae 01bd 32f0 9fbc d082 c7bc
00000130: 9624 0cbd 6e19 79bc 3dc5 9dbc 2628 48bd
00000140: 51f8 15bd 314e a4bc 8c78 12bd f578 d8bc
00000150: 0421 c3bc 6ba3 2dbd 35d5 20bd 673a eebc
00000160: f936 d0bc efd5 c1bc 8dd7 09bc f28b 23bd
00000170: 775c 4cbd 0ec6 cbbc beb5 8bbc 2944 44bc
00000180: cea6 62bc bec8 4bbd 4b5c 3cbc 2df6 79bc
00000190: 84e0 2ebd ae5a 023c d9fa 9fbc 68e4 bebc
000001a0: 1054 3bbd 55bb 36bd 04c8 b1bc 17a0 17bd
000001b0: 7c5c ccbc 7507 c0bb 4503 c7bc 44ea bfbc
000001c0: ea92 d1bc 9c61 083c 7609 f2bc 5764 01bd
000001d0: ff6f 08bd 8b89 2fbc eab3 92bc 40b8 3dbd
000001e0: 2e5f c3bc f781 2ebd c4c1 fbbc b8a7 afbc
000001f0: daba 46bd becb 21bd a215 bdbc ab61 90bc

action_model._continuous_distribution.mu.weight f4 [1, 128]
0.000861143 -0.000607111 -0.00042625013 0.004884907 -0.012848556 0.00063327025 -0.009072279 -0.0010582816
0.0024271945 0.007124996 -0.0013614015 -0.007583835 -0.010967351 0.007657908 0.014298768 -0.002838064
-0.0020045002 -0.0060262824 -0.0016910126 0.010168334 -0.00076666026 0.017000977 0.0087133935 -0.0010792989
0.0021996528 -0.0035693161 -0.018588137 0.01604154 -0.003969553 -0.0009809162 -0.009238592 0.015802668
-0.0074424436 0.0013855455 0.00018558658 -0.020379849 0.0008228721 -0.0012959576 0.00019295739 0.010399838
-0.0049807653 0.0033904267 -0.00037891217 0.01791935 -0.0026570337 0.0070340065 -0.0021089758 0.001986657
-0.0034529956 -0.0033793321 0.0031207823 -0.00902458 -0.004492878 0.009356023 -0.0030021134 -0.0023366308
0.0027193665 0.008717027 0.007858144 -0.00081901456 0.003268151 -0.004667975 -0.007871819 0.002039827
-0.0001443555 0.0077409027 0.00094086444 -0.008287293 -0.027100388 -0.0023004173 0.00040631116 -0.012535419
0.0012312788 0.009357906 -0.00019204231 -0.00080857676 0.006728967 0.0026702303 -0.0017810587 0.011061993
0.005353027 -0.00021976448 0.0026133242 -0.0033341986 0.009588978 0.013126157 -0.0005888784 0.006560399
-0.0025785272 -0.0025101868 0.0071166097 0.0116594555 -0.009584492 0.025950052 0.007307815 -0.0035160503
-0.00023734939 0.0041509643 0.003729728 0.00095275947 -0.010326316 0.0039908867 -0.0032844364 0.0026215422
0.01501607 -0.02108611 0.00015109638 -0.0039834683 -0.003200234 -0.022031808 0.0029318335 -0.007459039
0.0078112404 -0.00018043788 -0.0001570365 0.012783699 -0.0035094756 -0.0057174643 0.0036832716 0.00077447813
-0.0007984014 -0.012424718 0.0020921754 0.0011734822 0.0021772787 -0.00039787748 -0.005344971 -0.016286874
00000000: 54be 613a 8826 1fba 537a dfb9 9211 a03b
00000010: c082 52bc 0c02 263a e5a3 14bc 0ab6 8aba
00000020: 9111 1f3b cc78 e93b 0e71 b2ba d281 f8bb
00000030: 67b0 33bc 30ef fa3b 6145 6a3c d0fe 39bb
00000040: ef5d 03bb 1f78 c5bb f8a4 ddba 1599 263c
00000050: b3f9 48ba a245 8b3c 9fc2 0e3c 4377 8dba
00000060: 0d28 103b 30eb 69bb 2646 98bc 8c69 833c
00000070: 0613 82bb 1692 80ba 775d 17bc 9974 813c
00000080: bedf f3bb 319b b53a 059a 4239 a4f3 a6bc
00000090: 03b6 573a 1fdd a9ba 9b54 4a39 1564 2a3c
000000a0: b035 a3bb ec31 5e3b bba8 c6b9 9acb 923c
000000b0: a121 2ebb 867d e63b be36 0abb 9332 023b
000000c0: a74b 62bb c977 5dbb 0a86 4c3b d5db 13bc
000000d0: fe38 93bb 014a 193c 1bbf 44bb 2922 19bb
000000e0: 6637 323b dcd1 0e3c 72bf 003c 23b3 56ba
000000f0: 7a2e 563b d0f5 98bb cdf8 00bc 9eae 053b
00000100: 225e 17b9 66a7 fd3b 58a4 763a 6dc7 07bc
00000110: a201 debc 99c2 16bb 2906 d539 5c61 4dbc
00000120: dc62 a13a e751 193c f75e 49b9 abf6 53ba
00000130: ab7e dc3b 08ff 2e3b 6a72 e9ba 5d3d 353c
00000140: 7268 af3b 9470 66b9 4e44 2b3b 9282 5abb
00000150: 171b 1d3c 180f 573c f65e 1aba 9ef8 d63b
00000160: 82fc 28bb f281 24bb 7332 e93b 4d07 3f3c
00000170: 4608 1dbc 3495 d43c 6576 ef3b 896d 66bb
00000180: fee0 78b9 d004 883b 746e 743b 9bc2 793a
00000190: b52f 29bc fcc5 823b b33f 57bb 2ece 2b3b
000001a0: f605 763c c7bc acbc a06f 1e39 c187 82bb
000001b0: 04bb 51bb 0d7c b4bc 0124 403b f46a f4bb
000001c0: 6ff5 ff3b ed33 3db9 2aaa 24b9 b872 513c
000001d0: 3bff 65bb 9159 bbbb 0b63 713b 5906 4b3a
000001e0: d04b 51ba 0b91 4bbc e11c 093b 87cf 993a
000001f0: adb0 0e3b 369a d0b9 de24 afbb 0d6c 85bc

action_model._discrete_distribution.branches.0.weight f4 [1, 128]
0.014920421 -0.0040851906 0.0036106785 -0.012620362 -0.0026916123 0.00080063456 0.01953809 0.00400068
-0.0077779675 -0.004821228 0.009369779 -0.00042773254 -0.011347358 -0.0027019808 -0.002271921 0.0052515343
0.0022454492 1.3707627e-05 -0.010537749 -0.0111117475 0.0024229689 0.008182301 0.0019833397 0.009855342
-0.016591078 -0.011430509 0.0049723424 0.011743708 -0.012415532 0.0010451975 0.0010154104 0.002062915
0.0076560588 0.008414689 0.0055415737 0.0014164743 0.025001375 0.0037744157 0.0010241634 0.0028155574
0.0014072424 -0.001234823 0.0056844023 0.010718566 0.0052708923 -0.0035827947 -0.008438822 0.010979968
0.0047755665 -0.005920173 0.02442931 -0.019328475 -0.0038758267 0.015114985 0.0051316554 -0.0044309604
0.014237178 0.010362355 0.017470656 0.012909365 -0.00895709 0.00093237165 0.0016891778 0.0017115398
-0.0063958326 0.022515781 0.0054994724 0.0028015776 0.0053187725 0.01036518 0.00979937 -0.010763856
0.005553229 0.009882176 -0.006527418 -0.004946957 -0.012539803 -0.0062199854 -0.002125757 0.003517797
0.007048679 -0.0039170324 -0.018394452 0.005133908 -0.0003612075 -0.001422469 0.0017974975 -0.014192978
-0.003398545 0.0029145805 -0.0010987823 0.0020056476 -0.013785237 0.0038958185 0.009918372 0.0082988115
-0.008182243 0.0026040638 -0.0097583 0.008852403 -0.010538597 -0.0075723985 -0.000742048 0.011487484
0.008575007 -0.002127099 -0.01037896 -0.008576146 0.0017134689 -0.0031053424 0.009800094 -0.00771475
-0.007379215 -0.006715788 0.0011687902 -0.0036183388 -0.010641816 0.0022201797 0.0070764534 -0.005790337
0.0069993734 0.0069689252 -0.0055244593 0.0034884647 0.007507955 -0.006740422 -0.0013953877 -0.0018893362
00000000: c874 743c 10dd 85bb 22a1 6c3b a3c5 4ebc
00000010: c365 30bb ade1 513a 580e a03c 2318 833b
00000020: 52de febb 64fb 9dbb b483 193c 4a41 e0b9
00000030: 45ea 39bc b713 31bb 82e4 14bb 1015 ac3b
00000040: 6328 133b cff9 6537 86a6 2cbc 0c0e 36bc
00000050: acca 1e3b 0f0f 063c ebfa 013b 4d78 213c
00000060: 03ea 87bc 0847 3bbc 08ef a23b ae68 403c
00000070: 846a 4bbc 02ff 883a 8517 853a f831 073b
00000080: addf fa3b c4dd 093c 1796 b53b fea8 b93a
00000090: afcf cc3c 305c 773b 393d 863a 3785 383b
000000a0: 3873 b83a c9d9 a1ba 3944 ba3b ed9c 2f3c
000000b0: 73b7 ac3b 52cd 6abb fc42 0abc 53e5 333c
000000c0: 5b7c 9c3b 03fe c1bb fa1f c83c c056 9ebc
000000d0: 9501 7ebb d8a4 773c 7227 a83b 9731 91bb
000000e0: 0d43 693c dec6 293c 9f1e 8f3c cd81 533c
000000f0: c2c0 12bc 676a 743a 6767 dd3a bf55 e03a
00000100: 2294 d1bb 0473 b83c eb34 b43b ac9a 373b
00000110: 1949 ae3b b7d2 293c 898d 203c e25a 30bc
00000120: dcf7 b53b dae8 213c f3e3 d5bb 151a a2bb
00000130: bf73 4dbc 05d1 cbbb 4950 0bbb d78a 663b
00000140: 9bf8 e63b 735a 80bb f6af 96bc 573a a83b
00000150: 7360 bdb9 2472 baba 029a eb3a aa89 68bc
00000160: 20ba 5ebb 8c02 3f3b 0405 90ba 2f71 033b
00000170: 7adb 61bc fd50 7f3b ab80 223c bdf7 073c
00000180: d10e 06bc f1a8 2a3b 47e1 1fbc ab09 113c
00000190: 14aa 2cbc e221 f8bb 0086 42ba 0036 3c3c
000001a0: 307e 0c3c cd66 0bbb 830c 2abc f782 0cbc
000001b0: 7a96 e03a 0083 4bbb 9390 203c 03cc fcbb
000001c0: 58cd f1bb 1d10 dcbb 1732 993a a721 6dbb
000001d0: 035b 2ebc 6f80 113b 98e1 e73b debc bdbb
000001e0: 005b e53b 955b e43b 8606 b5bb ba9e 643b
000001f0: 4b05 f63b c2de dcbb 71e5 b6ba 9aa3 f7ba
