results/SliderBehavior-jgf-000/SliderBehavior/SliderBehavior-3906.onnx (onnx, 78648 bytes, 8 tensors)

network_body.observation_encoder.processors.0.normalizer.running_mean f4 [6]
00000000: c5aa 6cc1 1deb 64c0 0000 0000 0daa 6bc1
00000010: 6af3 bfc0 0000 0000
-14.791692 -3.5768502 0.0 -14.729016 -5.9984636 0.0

network_body._body_endoder.seq_layers.0.weight f4 [128, 6]
00000000: d69f a03e f797 4dbe 3bf6 7fbe 8d01 473d
00000010: 4a5b 09bf 7a8e 813e 873f 093f 002c 27be
00000020: 7d66 6bbe 2516 c93d bdd7 efbe 3ba4 163e
00000030: 894b 19bf f78d 97be f2f4 203f abad 193f
00000040: 8d6c d0be 51a8 85be eafd 80be d5b2 c03e
00000050: c09a 11be fe54 1f3e ea7e bdbe 8b17 aabc
00000060: d747 803d 6659 05bf 9c27 af3e ded2 a1bc
00000070: b64e c33d 59d0 833f 7c00 b03b 3d89 e33e
00000080: 7f58 c0bd 1b7a 7e3e 7300 73be 7e65 a03d
00000090: 1924 ef3e 5183 4dbe 1ae0 75bd ea0b d8bc
000000a0: 4965 7dbe 9ab5 00be 15f5 14be 235e bfbd
000000b0: 0e19 f73d 9d5d 173d e072 ce3e 13de 74be
000000c0: b1df 0e3f 03e1 07bf f42e 853d 4ded aebe
000000d0: 322d bbbc b2b8 9d3e 1ffd c2be f281 b8bd
000000e0: c5ee 5dbe 4c3e 9ebd 5687 063f 2e00 97be
000000f0: bf46 94be 8c8c 003f 33fe 54bf 201c 1dbf
00000100: a4fa f93c e68a be3e a989 983e a0b1 e1bc
00000110: 40f2 8cbd 733a 9fbe 63e7 02bf 5f5c f73e
00000120: bc5a e93d 33df f43c 21ba 463f 0995 f53e
00000130: 9d4c 173f 8193 4e3d a062 4e3e 4a7e 383f
00000140: 1b5c a8be 38f7 2cbf 9824 1a3f fe9f cdbe
00000150: 5a91 92bd 0193 52bf 7f7f d3be cbe9 3fbe
00000160: 32ca 82be 1e6e 973e 4870 cd3e 12c4 d53e
00000170: 5520 103e d0fe 003f 7060 40bf 8a20 f13e
00000180: eb4d 12bf 90a3 21be 08a7 8f3e fb67 3ebd
00000190: 0147 fcbe e5e6 95be e40f 8f3c d8e6 13bf
000001a0: 6c8e 043e 5229 3b3f 5a27 253c 77a5 3ebf
000001b0: f0f8 63bf 0df2 f0be 9598 a23c 66a6 db3e
000001c0: 8212 d6be 2a09 70bd 19e7 2c3f c5e5 c03e
000001d0: c6ec 97bf af41 97be 01b1 bb3e ac2b efbe
000001e0: b6ff 8b3e 5c99 a1be f117 213f 1764 fbbe
000001f0: deab a63d 10e2 94be 7b68 09be 249f 6bbf
00000200: 31e8 8f3e 72b9 533f 7f5d 513e 74f1 67be
00000210: b721 293d 864c 9d3e 9acd 3abf 74ba 273f
00000220: 82d6 073f b009 e33e 804e fe3c 3fb8 29be
00000230: 3dc8 15be e3e9 3cbe ec4d 80be cc8c 0c3f
00000240: 408a 7bbe 20d0 f0bc d28c d4be 374c 273f
00000250: 962f bbbe eff2 d8bd 5820 893f 567d 98be
00000260: 33b9 51be 7cc4 803e d6ea 443e 2953 843d
00000270: c514 1cbf 0772 5f3f 6bc8 283e 0fcf 46bf
00000280: 9189 6a3e c87e eabe ca69 113f ac8b 53bf
00000290: 58a8 0ebf 9a93 05be 98ff a7be f85f 80be
000002a0: 0904 d3be 3dbe dd3e fe89 9ebd b5e1 a63e
000002b0: 338d a13d 7306 3d3e 34c7 9abe 93a2 263f
000002c0: 57ee 453d 824b 80be 4168 8c3f 0563 a4be
000002d0: 8085 debe 3079 563e e0bb 423f aa46 a2be
000002e0: 0a98 a93f 06c7 43bf 9286 a1be cceb 853d
000002f0: 1fb8 efbc 60d2 53bf 7646 cfbe ef19 5e3f
00000300: 158e efbe 9fbe bcbe 4642 02bf 3d8b 133f
00000310: ae59 223f f93f 79bd 55f5 d23e 9c01 15bf
00000320: 5b89 4bbe c5cd 36bf cbf9 3bbb e70e 8b3e
00000330: 75c6 c13e a61c 93be b953 98be 065b af3e
00000340: 26dc 733c e7dc a3bd 64c8 13be bac0 54bf
00000350: b637 d33e 316c 9b3e dc3e 94bd 695d c6bd
00000360: c3d5 d73b 07ae f73e 1829 353e c555 153f
00000370: a5de ef3e 3a1d e5be 63b4 653f a65f 013f
00000380: bc65 2c3f 876e fdbe 8e49 89bd c5d2 f53d
00000390: 680d f63e 7d77 093f 702d 723e dcf2 bc3e
000003a0: a251 c03e d3dc e9bd 36c4 433d 946e 993e
000003b0: 2073 073e 3fdb a0be da52 92be ec2a 92be
000003c0: b32a 05bf 306f 943e a862 5dbe 59b0 e03e
000003d0: 622f 683f 94a4 e13e 95d9 5fbc 3f4a 2bbe
000003e0: 491d a5be 2f08 9a3e d3e5 27bf 5522 7bbe
000003f0: f6be 16bf 2ce8 e03e 14a9 463e 03bb 253f
0.31371945 -0.20077501 -0.24996273 0.048585463 -0.5365492 0.25304013 0.5361256 -0.16325378
-0.22988315 0.09818677 -0.46844283 0.14711086 -0.5988088 -0.29600498 0.62873757 0.6003062
-0.40707818 -0.26104978 -0.2519372 0.37636438 -0.14219189 0.15559766 -0.3701089 -0.02076318
0.06263702 -0.52089536 0.34209907 -0.01975387 0.09536497 1.0297958 0.0053711515 0.44440642
-0.09391879 0.24851267 -0.2373064 0.07831858 0.46707228 -0.20069624 -0.060028173 -0.026372869
-0.24745668 -0.12569275 -0.14546616 -0.09344127 0.12065326 0.03695451 0.40322018 -0.2391284
0.55810076 -0.53077716 0.06503096 -0.3416542 -0.0228487 0.30804974 -0.3808374 -0.0900916
-0.21673115 -0.07726726 0.52550256 -0.29492325 -0.28960225 0.5021446 -0.8320038 -0.6137104
0.030515023 0.37215346 0.29792526 -0.027550519 -0.06882143 -0.3109928 -0.5113432 0.4831266
0.11394259 0.029891586 0.7762776 0.47965267 0.5910128 0.05043364 0.2015481 0.720677
-0.3288277 -0.67564726 0.6021209 -0.40161127 -0.0715663 -0.8225556 -0.4130821 -0.18741529
-0.25544888 0.295762 0.40124726 0.41751152 0.14074834 0.50388813 -0.7514715 0.47095138
-0.57150143 -0.1578505 0.28057122 -0.046485882 -0.49272922 -0.2927772 0.017463632 -0.57774115
0.12944955 0.73109925 0.010080183 -0.7447123 -0.89051723 -0.4705967 0.019848147 0.4290039
-0.41810995 -0.05860249 0.6754013 0.376753 -1.1869133 -0.295423 0.3665848 -0.46713006
0.2734353 -0.31562316 0.62927157 -0.490998 0.0813825 -0.29078722 -0.13418762 -0.92039704
0.28106835 0.8270484 0.20445822 -0.22650701 0.04129192 0.30722445 -0.72969973 0.6551888
0.5306169 0.44343328 0.031043291 -0.1657419 -0.14627166 -0.18448596 -0.2505945 0.5490234
-0.24564457 -0.029396117 -0.41513687 0.6535067 -0.36559743 -0.10593211 1.0712996 -0.29783124
-0.20480804 0.25149906 0.19230208 0.06461174 -0.6096919 0.87283367 0.16482703 -0.77659696
0.2290404 -0.4579985 0.56802046 -0.82635 -0.5572562 -0.13044587 -0.3281219 -0.25073218
-0.41214016 0.43309203 -0.07741164 0.32594076 0.0788826 0.18459491 -0.30230105 0.6509182
0.048323 -0.25057608 1.0969316 -0.32106796 -0.43461227 0.20944667 0.76067924 -0.31694537
1.3249524 -0.7647556 -0.31547982 0.06539115 -0.0292626 -0.8274288 -0.40483445 0.8675832
-0.46788087 -0.36864182 -0.50882375 0.57634336 0.6341809 -0.060852025 0.41202798 -0.5820558
-0.19876616 -0.7140773 -0.0028682824 0.27159807 0.37846723 -0.28732795 -0.29751375 0.34249133
0.01488403 -0.08001118 -0.14431912 -0.8310658 0.41253442 0.3035598 -0.07238552 -0.09685785
0.0065867617 0.4837496 0.17691457 0.58334 0.46849552 -0.4474886 0.89728373 0.5053657
0.67342734 -0.49498388 -0.067034826 0.12003092 0.48057103 0.5369795 0.23650146 0.36904037
0.3756228 -0.11419072 0.047794543 0.29967177 0.1322751 -0.31417271 -0.28578836 -0.28548372
-0.5201828 0.2899108 -0.21619666 0.43884543 0.906973 0.44070876 -0.013662715 -0.16727541
-0.32248905 0.3008437 -0.6558506 -0.24524815 -0.58885133 0.43927133 0.19400436 0.6473848

network_body._body_endoder.seq_layers.0.bias f4 [128]
00000000: d3b6 69bb aa09 913b 2cd6 013b c1f6 2c39
00000010: a0ff 64bb 09c5 0cbb 74b0 11bb 0608 b6b9
00000020: 27e6 943b 9544 6c3b 1430 453b f4fc 7b39
00000030: eab8 923a c7c3 47bb 0b7f 53bb 8c02 933b
00000040: 8fdb 53bb e109 9539 0b00 063a f53e 5e3b
00000050: a914 023b 7b74 513a 4273 f2b8 1a26 50bb
00000060: abf9 cc3a 6a20 22bb 5bf8 1fbb 5ef4 533b
00000070: 3f78 17ba f7d8 053b 3eff cbba 08e1 4f3b
00000080: 103c fd3a 3c39 82bb 91c6 29bb 74e6 41b9
00000090: 806a f33a 163e 643b 0bd9 a43a 9dc9 483b
000000a0: 381a 8d3a 2cc0 1f3b 31fa 323b d6b8 ef39
000000b0: 0281 bdba 96fc 45bb 9f53 27bb e0f3 ce3a
000000c0: c673 123b 9aca 003a f9c3 17ba 7ae0 2c3a
000000d0: f79c 7f3b 7019 54b7 734f 7d3b 9ae2 22bb
000000e0: 8129 953a 1162 393b 4637 f43a 851f 5fb8
000000f0: ee6f 9ebb e618 6ab8 462d 8ab9 0781 393b
00000100: f819 d03a 7394 5b3b 2fcd 0c3b e5e7 343b
00000110: 2f8f 223b 8741 29ba 58cf 1dbb 8f53 7d3b
00000120: ba61 3fbb bf4e 10bb 3f38 4fbb e9df 66bb
00000130: 0116 89bb 65e3 353b d177 2cbb 136f 523b
00000140: 9b63 9839 e644 0a3a a173 89ba f66a 22bb
00000150: cfbc 84b9 a570 3dbb 676b f9b9 3ae1 89ba
00000160: 04fa 993a 04c7 003b 282a 653b 3afe 103a
00000170: ccdc 463b b078 f8b9 4727 04ba fc53 6e3b
00000180: 7d0a 06bb d5e0 5bb9 44e4 473a c28f 87bb
00000190: 6f09 503b a569 1d3b ce42 493b ce8b 4b3b
000001a0: a344 38bb a330 89ba 94e5 833a a4fc 71ba
000001b0: d564 383a 18ba 49bb 9410 04ba eaa0 053b
000001c0: a754 8d3b 2d3c 7ebb 4cc4 683b 5f13 31bb
000001d0: a38d 743a a0f8 56bb db8b 853a 057e 72ba
000001e0: 0dda 143b 7ce9 6abb 369f 40bb b8cd 26bb
000001f0: 7ff3 5f3b 8ff2 963b 2fc9 e4ba a4cb 503a
-0.003566195 0.004426201 0.0019811494 0.00016495121 -0.0034942403 -0.0021479747 -0.0022230418 -0.00034719723
0.004544038 0.003605162 0.0030088471 0.00024031458 0.0011194025 -0.0030481683 -0.0032271768 0.0044863876
-0.0032326912 0.00028426855 0.0005111701 0.0033912037 0.001984874 0.0007990074 -0.00011560928 -0.0031760992
0.0015638372 -0.0024738559 -0.0024409506 0.00323417 -0.0005778111 0.002042351 -0.0015563739 0.0031719822
0.0019320268 -0.003974108 -0.0025905708 -0.00018491765 0.0018571168 0.0034827045 0.0012576891 0.003063775
0.001076526 0.0024376018 0.002730977 0.00045723346 -0.0014458003 -0.0030210367 -0.002553202 0.0015789233
0.0022346838 0.00049130025 -0.0005789395 0.0006594729 0.003900347 -1.2642107e-05 0.0038652092 -0.0024854303
0.0011380167 0.0028287212 0.0018632195 -5.3196698e-05 -0.0048351204 -5.5813136e-05 -0.00026355142 0.0028305666
0.001587688 0.003350523 0.0021484604 0.002760404 0.0024804582 -0.0006456603 -0.0024079885 0.003865454
-0.0029202537 -0.0022019593 -0.0031619219 -0.0035228676 -0.0041835313 0.0027753946 -0.0026316533 0.0032109662
0.0002906591 0.0005274549 -0.0010486731 -0.0024782992 -0.00025317675 -0.0028906253 -0.00047573002 -0.0010519393
0.0011747484 0.0019649873 0.0034967754 0.0005531047 0.0030344008 -0.00047392165 -0.0005041253 0.0036365977
-0.002045303 -0.00020969224 0.0007625262 -0.0041370103 0.0031743904 0.0024019268 0.0030709985 0.0031058672
-0.0028117083 -0.0010466765 0.0010062926 -0.0009231067 0.0007034068 -0.0030781087 -0.0005037871 0.0020390102
0.00431307 -0.0038793192 0.0035517393 -0.0027019603 0.0009328967 -0.0032802 0.0010188775 -0.0009250346
0.0022712976 -0.0035844734 -0.0029391772 -0.0025452208 0.0034172235 0.004606552 -0.0017454977 0.0007964915

network_body._body_endoder.seq_layers.2.weight f4 [128, 128]
00000000: 3b87 a0bd a1f5 8dbc c9e5 9638 687a a73d
00000010: 2608 173e 7c00 68bd 5561 013d fdda 2cbd
00000020: b480 fabd 7437 01be 7065 183d df23 b5bd
00000030: dc4a bcbd 6850 043e 6b75 aa3c 77ec f6bd
00000040: eb92 b63c 0196 96bb 6deb dfbc a295 313d
00000050: f5f0 163d 8ee0 34bd e011 93bd 4abc b5bd
00000060: f00d 9a3d bcd4 7bbd 8273 b83c 0377 fe3a
00000070: 0639 95be a1a4 393e 2b0d 2a3d 2d98 ab3d
00000080: 547b 183e d3c6 cc3d 913e 85bd 2ae7 163e
00000090: 5a5d 033e 8a1f 9b3c 3575 533d 0cd3 d73d
000000a0: 0a66 bebc f1ee 4c39 aa7f a7bd 8ede 10bd
000000b0: 3ba2 7ebb 5d1c 0c3d 9974 9c3d efa6 ca3c
000000c0: 26da b83d 7dc8 6f3e a149 dbbb ef9b 9bbc
000000d0: bdba 363b 6bc7 b53d 525f cabc 9157 2f3d
000000e0: 75a8 aa3d 7d31 a83d 9a43 7d3d 7655 e5bd
000000f0: 61d6 45be 666c 533a bc7d 4b3e 605c 5abd
00000100: 3a84 7abd 1222 073e 9362 33be 2c2d 0b3c
00000110: bb2d b3bd dd46 b23d 3a15 833d e215 12be
00000120: 93bb 2b3e 999d 45bc 7655 c73d b4f1 6e3d
00000130: 9cae e63d f65f 93bd a76e ebbd 5be8 bc3d
00000140: 50c9 c6bd a196 a6bd 5100 543d e73d 343c
00000150: 7e4b 11bd b47a d8bd 7a51 e5bd 28c8 ffbd
00000160: 73cb 943d daa3 60bd 681f 233e 37ff c23d
00000170: 3788 4dbd 7643 f13d 6d30 26bd 8905 ad3c
00000180: 8168 40be d90c bcbc b5d3 35be 2801 03bd
00000190: ca6a 1abe 46dc 8cbd 0e26 573c d62e 483e
000001a0: 5240 b63c 7bea 523d 86ca a3bb 83b4 28bd
000001b0: 2d01 203e e644 643a 8e8e d0bd 72ec 0ebd
000001c0: 9ca7 6cbd 43c0 eb3d 2d00 f9bd ab03 c2bc
000001d0: 4b25 2cbd 3d8c 183e f967 ae3d 57c7 19bd
000001e0: 1783 e2bc 41ca 3f3d e648 013e 3d0e 213e
000001f0: 3608 79bd 1884 97bd faa2 79bc f901 353d
00000200: 938f 373d f16e 073d 58d0 84bd a120 e9bd
00000210: b822 66bd be17 ff3c c4b3 a7bc 4adb 3b3e
00000220: 98cf 9a3c f3dc 0bbe 68ef f63c 57b8 d6bc
00000230: 0c5f 6fbc 763f 52bd 86c3 cbbc 1e5f 57bc
00000240: 60ea 2cbe 6b5c 07bc 614a 9f3c 488c 8d3d
00000250: d4f6 c5bc 10bb 1d3e 73a7 06be 43db 79bd
00000260: 8c46 76bc 7dd0 8dbd 2f35 313c b81d 623e
00000270: a61d 303d e99e b13d 0152 b6bc 0aa9 a53d
00000280: a421 27bc 33a3 ac3d 2b77 efbd 0b1f 0b3e
00000290: 5389 633e bcce 3abe 8ff2 65be ccf2 d83b
000002a0: f255 27bd 0037 8e3d d42f a3bc e30b 8b3d
000002b0: 1e83 0d3c 53e3 6d3d 5183 7a3c 2f45 9abd
000002c0: 7e40 893c 5e2a b03d f730 983b 95d8 d1bc
000002d0: 1916 35bd 0af3 ccbd bc8b a23c da83 3a3e
000002e0: 733c 5eba 96a7 b23c cbf0 cbbd 73c9 5abd
000002f0: 44a9 fe3c 7fe2 373d 5571 423d fe04 9cbb
00000300: 3c2e 3f3e 1b72 3f3d 65fb 9e3d fd21 6abd
00000310: 66e9 02be 4520 4a3d c66b 92bd 07f2 83bc
00000320: ae12 aabd 306a b6bd 85b7 acbd 26a3 103e
00000330: b953 4bbe 109b 37bc 1e9c 8dbb 1b69 7a3d
00000340: ef06 c1bc a4c4 84bd 15a0 003d 8661 cc3d
00000350: 831c 193e 2966 0c3e 541a 79bc b7d6 ce3d
00000360: d05c 12be cc18 e6bb afb0 743c c88c 10be
00000370: 66ad 373d 753d 143e 9b64 3bbd c0fe b13d
00000380: 393a b4bd ba7f ab3c f516 1abe 6180 adbd
00000390: eed3 b9bc a785 d13c 4dce 403c 2a5a 1b3d
000003a0: ed08 24bd 4ead e23c 087c 323e 9920 093e
000003b0: 80bc 543d fa64 143d 341a 753c 2672 763d
000003c0: 3299 1cbe cc83 5c3c ccf9 00be 32a1 c33d
000003d0: 5ee0 e3bd c0b4 d4bd 9ac9 0a3d fd01 c7bb
000003e0: 41c0 183d 2601 f3bc f543 883d c42c ab3d
000003f0: 93f0 f0bc 208f 96bd 3723 823d ed3f bf3d
-0.07838293 -0.017329039 7.195358e-05 0.08177644 0.14749202 -0.056641087 0.031586964 -0.04220103
-0.122315794 -0.1261881 0.037206113 -0.088447325 -0.09193966 0.12921298 0.020807942 -0.12056821
0.022286853 -0.0045955186 -0.02733394 0.04335559 0.03685089 -0.044159465 -0.07181144 -0.08873804
0.075221896 -0.061482176 0.022516016 0.001941413 -0.29145068 0.18129207 0.041516464 0.083786346
0.14890796 0.0999886 -0.06506074 0.1473662 0.1282858 0.018935937 0.05162545 0.10538301
-0.023242015 0.00019543969 -0.08178647 -0.035368495 -0.003885402 0.034206737 0.07639427 0.024737803
0.090259835 0.23416324 -0.006692127 -0.018995253 0.00278823 0.088759266 -0.024703655 0.04280812
0.08332912 0.08212564 0.061832048 -0.11197941 -0.1932006 0.0008065164 0.19872183 -0.053310752
-0.061161257 0.1319659 -0.17518072 0.0084946565 -0.08748957 0.08704922 0.06400533 -0.1426616
0.16770773 -0.0120615 0.09733097 0.058335975 0.11263773 -0.071960375 -0.11495715 0.09224006
-0.09706366 -0.08134199 0.051758114 0.011001087 -0.035472386 -0.10570279 -0.11197181 -0.12489349
0.07265367 -0.05484376 0.1592995 0.095213346 -0.050178733 0.11780445 -0.040573526 0.021120803
-0.18789865 -0.022955345 -0.17756541 -0.031983525 -0.150798 -0.06877951 0.013131632 0.19549116
0.022247467 0.05149315 -0.004998508 -0.041187774 0.15625449 0.00087077764 -0.1018344 -0.03489346
-0.057777032 0.115112804 -0.12158237 -0.02368339 -0.042027753 0.14897247 0.08515925 -0.03754362
-0.0276504 0.046823744 0.12625465 0.15728088 -0.060798846 -0.07398242 -0.015236611 0.044191334
0.044814657 0.033064786 -0.06485051 -0.113831766 -0.056185454 0.03113925 -0.020471461 0.18345371
0.018897817 -0.13658504 0.030143455 -0.026210947 -0.014610063 -0.051330052 -0.024873506 -0.013145236
-0.16886282 -0.00826178 0.019444646 0.06911522 -0.024165548 0.1540339 -0.13149814 -0.06100012
-0.015031468 -0.069245316 0.010815903 0.2208165 0.042997025 0.08672888 -0.0222559 0.08088882
-0.010200892 0.08429565 -0.11692651 0.1358606 0.22220354 -0.18242925 -0.2245581 0.0066207405
-0.04085345 0.06944084 -0.019920267 0.067893766 0.008637218 0.05807812 0.015290097 -0.07532727
0.016754385 0.08601831 0.004644509 -0.02561597 -0.044210527 -0.100072935 0.019842021 0.1821436
-0.00084776356 0.021808427 -0.09958037 -0.053414773 0.031086572 0.044893738 0.047471363 -0.0047613373
0.18669981 0.04673968 0.077627935 -0.05716132 -0.12784347 0.04934718 -0.071494624 -0.016106619
-0.08304344 -0.089069724 -0.08433441 0.14124736 -0.19856156 -0.011206403 -0.004321589 0.061135393
-0.023562877 -0.06482819 0.031402666 0.099795386 0.14952283 0.13710846 -0.015204031 0.10099547
-0.14293218 -0.007021999 0.014934703 -0.14116204 0.0448431 0.14476569 -0.04575024 0.08691168
-0.088001676 0.020934928 -0.1504782 -0.08471752 -0.022684064 0.025576426 0.011767936 0.037927784
-0.040047575 0.027670529 0.17430127 0.13391341 0.05193758 0.03622911 0.014959861 0.060167454
-0.15292814 0.013459157 -0.1259529 0.0955223 -0.11126779 -0.10386038 0.03388367 -0.006073235
0.037292723 -0.029663634 0.06653587 0.08358148 -0.02941159 -0.07351518 0.06354373 0.09338365

network_body._body_endoder.seq_layers.2.bias f4 [128]
00000000: ffbd f23a 8bb1 263a 6eed 173b 0dca 11bb
00000010: e21d 07b9 f1f0 6e3a 1563 0a3b 9cd2 be3a
00000020: aa62 6bbb ad16 863b cf8a 4a3b fa48 f4ba
00000030: 7913 833b 7dfb 453b d241 f43a d0ce e03a
00000040: 230c 24bb d149 1d3b eaec c73a 6b0f 75ba
00000050: 04d5 463b 23c0 c4ba 8186 7bba 85ff e8ba
00000060: 8aa5 213b 659b b83a f78f 1cbb d1d4 443b
00000070: 58e0 273b e3dd 7cbb 206a cc39 c15c faba
00000080: 7174 d03a 5fa4 bab8 886b 0a3b 7741 743b
00000090: 7eff 16bb 780b 053b a63d 8b3b f8e9 a33a
000000a0: cb08 393b a5b0 0a3b 46f9 e63a 2167 b4ba
000000b0: ddce 3ebb 9a82 233a c231 223b e18f baba
000000c0: da30 023a 4da3 10bb 22a7 7dba 84f3 053b
000000d0: 22f9 f13a 60d9 b03a 5c17 75bb 951b 3aba
000000e0: aef9 b43a 7893 aaba fa12 0c3b 16b0 033b
000000f0: c847 38bb 1601 d6ba 4da8 8a3b 5fe6 2bbb
00000100: d114 283b fa39 40ba 3a5b 763b e6fb c13a
00000110: d910 0abb af6e 4fbb e74c 0f3b 33f6 51bb
00000120: 53d2 6dbb 8cd9 1abb f009 403b ca60 41bb
00000130: 3905 2abb 9d9c 423b e857 3a3b e81f 253b
00000140: 9644 1a3b 147e 7d3a cd59 27bb f2cc 6a3b
00000150: 38ee 823b 11c9 d03a ceac 52bb 5fda c8ba
00000160: 969d c03a 6f5c 0fbb cdae 293b 3c15 7a3b
00000170: 24c8 71b8 1c22 dcba 998f c7ba 19c9 f43a
00000180: d926 ac3a 5d92 023b 5d85 1f3b 49e0 b3ba
00000190: 669f c83a 16ce 5c3b c0b5 c33a 2b1b a13a
000001a0: 965c bd3a ae20 0fbb 71ea 8fba 96ad d8ba
000001b0: 031b 4b3b b7ea 98ba 2a21 12bb d90d 243b
000001c0: db7a fa3a fa5c 133a 807e 5abb 6d66 ce3a
000001d0: df96 fc3a 7cbf 203b b8b9 243b 8ef1 1c3b
000001e0: 0b51 6f3a 9eb2 0a3b 1cb5 eeba 9f7b 7a3a
000001f0: 0ee5 033b 25a6 70bb 67f2 ac3a 01ac 223b
0.0018519758 0.00063588534 0.002318229 -0.0022245676 -0.00012885735 0.00091148826 0.0021116186 0.0014558616
-0.0035916963 0.0040920586 0.003090549 -0.0018637471 0.004000124 0.0030209713 0.0018635339 0.0017151479
-0.0025031648 0.0024000297 0.0015253101 -0.0009348306 0.003033937 -0.0015010874 -0.0009594933 -0.0017776346
0.002466532 0.0014084397 -0.002388952 0.0030034075 0.0025615897 -0.0038584403 0.0003898898 -0.0019101129
0.0015903843 -8.899788e-05 0.0021121223 0.0037270465 -0.0023040469 0.0020301025 0.0042492924 0.0012505641
0.0028234 0.0021162417 0.0017621897 -0.0013763645 -0.0029115 0.00062374177 0.0024748896 -0.0014233553
0.0004966386 -0.002206999 -0.0009676089 0.0020439336 0.0018461088 0.0013492517 -0.0037397956 -0.0007099447
0.001380732 -0.001301392 0.0021373616 0.002009397 -0.0028118957 -0.0016327228 0.004231489 -0.0026229841
0.0025647173 -0.0007332858 0.0037590996 0.0014799803 -0.002106717 -0.0031651666 0.0021865906 -0.0032037615
-0.0036288693 -0.0023628203 0.0029302798 -0.0029507154 -0.0025943054 0.00296954 0.0028433744 0.002519602
0.0023539416 0.0009669971 -0.0025535703 0.0035827723 0.003995683 0.0015929063 -0.0032146457 -0.0015323869
0.0014695402 -0.0021875163 0.0025891543 0.003815963 -5.7645273e-05 -0.0016794833 -0.001522529 0.0018675654
0.0013134136 0.0019923665 0.0024340965 -0.0013723458 0.0015306293 0.0033692173 0.0014931485 0.0012291422
0.0014447148 -0.0021839547 -0.0010979903 -0.0016531225 0.0030991442 -0.001166663 -0.00222976 0.0025032668
0.00191101 0.00056214596 -0.003333956 0.0015747078 0.0019271037 0.0024528196 0.002513511 0.0023947689
0.0009129203 0.0021163593 -0.0018211934 0.0009555164 0.002012554 -0.0036720124 0.00131948 0.002482176

action_model._continuous_distribution.mu.weight f4 [1, 128]
00000000: b89b 5f3c ca2b bd3a d904 503c 4ce1 ffbc
00000010: 3ff2 e73b bcc6 d839 fe64 173c bf7a fc3b
00000020: aabe d7bb e95e bd3c a184 ef3b 4665 b9bc
00000030: 5807 343c 371b 9c3c bafc 553c 4929 aa3b
00000040: 854c 82bc 4cbd 273c 50a7 f33b 54df 78bc
00000050: 0e43 c33b 5163 dabb 0306 d6bc 7627 08bc
00000060: e5c4 db3b b935 d83c 6b2c 3dbc 1ef5 533c
00000070: 1588 a03b 430f b8bc fa07 763c 7855 11bc
00000080: 34e2 383d b44a 363b 54a7 ed3b c17f 593c
00000090: c55a 0dbd 8e67 003d 5bd9 b03c b636 a93c
000000a0: c6e7 ae3b cf46 a53b e430 c03c 4e3e 00bc
000000b0: 235b f9bb 4170 cebc d8c0 9d3c 0750 43bc
000000c0: d88b 143c ad9d 10bd 1218 bcbc d359 a23c
000000d0: 8201 2b3c dbd5 d63b 65fb 92bc 40e0 ccbb
000000e0: 954e e83b 9811 6bbc 6b6d 613c a007 a43b
000000f0: d2cf 1bbc bc51 a7bb 4d1d 883c 1d1e e4bb
00000100: 6768 1b3d 8e14 44bc 1d46 053d 21c2 f63c
00000110: 7760 aabc 5916 58bc 39ba 243c 52ef 03bc
00000120: bbca c1bc c4a8 20ba 9dcd ef3b bf1a 2abc
00000130: fd57 40bb 76ce ec3b 3272 fa3b d183 a73c
00000140: b5d5 983c 3145 633c 4c37 9ebb 8ce1 2e3c
00000150: dffa 8a3c b2d3 f13b 3322 24bc 9edd b5bc
00000160: 7fa4 263c fcbc f239 ac1b f43c 1030 873c
00000170: 5d91 853c 2d32 dcbb abb0 eebc 472c f13b
00000180: 9877 f73b 460d 893c 6127 ca3c 40ec 3fba
00000190: 8e52 673c 9737 473c c8a4 b13b a015 073c
000001a0: 93b1 263c b049 6dbc d2f5 8fbc 49c1 9ebc
000001b0: de15 3d3c 8f09 8abc 80b2 c4bc 4870 063c
000001c0: c056 293b f9d7 343b 259e 64bc 2439 f23b
000001d0: aee0 9c3c 68ea 203d 1eda c63b c487 963c
000001e0: f139 263c 25bd 023b f930 8f39 a28b 953c
000001f0: 89a1 3a3c 6269 0ebc cf9b 473c 09a3 813c
0.013647966 0.0014432606 0.012696468 -0.03123536 0.0070784385 0.000413468 0.009240387 0.007705062
-0.006584008 0.023116546 0.007309512 -0.022631299 0.010988079 0.019055946 0.013060743 0.00519291
-0.015905628 0.010238003 0.0074357167 -0.015189964 0.0059589213 -0.0066646715 -0.026125913 -0.0083101895
0.0067068213 0.026392804 -0.011546235 0.012936858 0.0048990347 -0.022468215 0.01501655 -0.008870475
0.0451376 0.0027815523 0.007252613 0.013275088 -0.034510393 0.031348757 0.021588018 0.020655971
0.005337688 0.0050438414 0.023460813 -0.007827355 -0.0076097413 -0.025200011 0.019256994 -0.0119209355
0.0090665445 -0.03530662 -0.022960696 0.019818222 0.010437371 0.0065562553 -0.01794214 -0.0062523186
0.007089446 -0.014347456 0.013758997 0.005005792 -0.009509997 -0.005106179 0.016615534 -0.0069615976
0.037941363 -0.011967791 0.03253757 0.030121865 -0.020797951 -0.013188922 0.010054165 -0.008052664
-0.02365624 -0.00061286637 0.007318212 -0.010382353 -0.002934932 0.0072267605 0.0076430077 0.020448597
0.018656591 0.013871477 -0.0048283692 0.010673892 0.016965328 0.0073799724 -0.010017919 -0.022200402
0.010171055 0.0004629864 0.029798351 0.01650241 0.016304666 -0.0067198486 -0.029136976 0.0073600146
0.0075520985 0.016729962 0.02467698 -0.0007321276 0.014118804 0.01215925 0.005421255 0.008244902
0.010174173 -0.0144829005 -0.017573271 -0.019379275 0.011540858 -0.016850261 -0.024010897 0.008205481
0.002583906 0.002759455 -0.01395372 0.0073920656 0.019150104 0.039286047 0.006068482 0.018375285
0.01014565 0.0019949165 0.00027311573 0.018255059 0.011391052 -0.008692117 0.012183144 0.015824812

action_model._discrete_distribution.branches.0.weight f4 [1, 128]
00000000: 7a22 fa39 70e0 d73b 07b0 47bc 133a aabc
00000010: cb79 2138 8a25 623b db6e 083a fb05 743c
00000020: ad8f a53b 1228 0ebc 87f4 80bb 9b9c 2a3c
00000030: d511 e8bc fd85 243c 40e3 53bb 75bb 79bb
00000040: 51ec 943b 4328 ec3b d7bd 45ba 69a0 933b
00000050: 10bc ce3a 3bf7 34bb f791 38bb f3be 073c
00000060: 25fe 30bc a9ad 9aba a73e ec3b 2b1e 1abc
00000070: abcf 433b 8647 313b 48ed 16bc bfca 063c
00000080: d52c b93b e717 0eba 52f5 933b 8010 be3b
00000090: e9e1 483b 2606 1e3c e0e4 c23a d048 debb
000000a0: dc7e 06bc 3c44 cb3b eb50 25bc b6e4 3bbb
000000b0: af6f 2dbc 0b56 0bbc b8bd 133c 4260 e6bb
000000c0: b72a 75bc 2aec 613a 9e44 14bb 8fdb 2a3c
000000d0: 6dd8 5a3b 2a08 413a d6ac 1b3c 6992 84ba
000000e0: ec99 9cbc 33ad e83b e692 1e3c 27cc 16bc
000000f0: 0f73 9f3b ff66 f7bb 7af0 ffba 96cd 04bb
00000100: eb95 533c 0fac 5fbb c2ee 7b3c 1193 1ebc
00000110: 8a70 193b 1c8b 24bc f84d a13b bc17 99bc
00000120: 66af 95bc cae8 a9ba c7f7 9abb b217 57bc
00000130: 17c5 a7bb dac9 e3bb 4501 ecbb 6755 223c
00000140: c5e3 be3b 4f73 3b3b cbd0 87bc 0d74 51bb
00000150: 9ae8 a1bb 43a1 9dbb 5589 e4bb fd94 703c
00000160: a76f f23b 8f08 fb3b 8fd3 d5bb cda1 5c3b
00000170: 43ac a7bb f05a 06bc 559c 7ebb ca30 fe3b
00000180: 7fe0 50bb 8dcd bcbb 371a 5abb ffeb 913b
00000190: db03 11bc 9370 9cbb 5b18 03bc 2f25 2fba
000001a0: 0b12 e2bb 489a c4bb d583 15bb 039d 623b
000001b0: 1349 6cbc 9757 00bb d54d 903b ddd4 aab9
000001c0: 631a d23b 5be1 3b3c 482c 75bb c7de 1439
000001d0: e5c7 79bb 0b62 19bc 505b ca3b 3501 20bc
000001e0: 4184 1bbb 2195 243c 2e22 453c 8e41 ab3b
000001f0: 0133 c0ba 97dd 9e3b 42a5 7a3c 2c4e 2a3c
0.00047709403 0.0065880343 -0.012187964 -0.020779645 3.849882e-05 0.0034507238 0.0005204507 0.014894004
0.005052528 -0.008676546 -0.0039354 0.010413314 -0.028328815 0.010041711 -0.0032331496 -0.0038106118
0.0045447727 0.007206948 -0.0007543242 0.0045052064 0.00157726 -0.002761318 -0.0028163174 0.008285272
-0.01080278 -0.0011801022 0.007209617 -0.009406607 0.0029878418 0.0027050688 -0.009211846 0.008227049
0.0056510963 -0.0005420432 0.0045153284 0.005800307 0.003065223 0.009645021 0.0014869235 -0.0067835823
-0.008208957 0.0062032025 -0.010090093 -0.0028670258 -0.0105857095 -0.008504401 0.0090174 -0.007030518
-0.014963797 0.000861826 -0.0022623907 0.010428323 0.003339316 0.0007363582 0.0095016565 -0.0010114434
-0.019116364 0.007100725 0.009678578 -0.009203947 0.004866011 -0.00755012 -0.0019526624 -0.002026414
0.012914161 -0.0034129655 0.0153767485 -0.009678618 0.0023413026 -0.010042932 0.0049226247 -0.018688075
-0.018272113 -0.0012963053 -0.0047292444 -0.013128208 -0.0051199305 -0.006951553 -0.0072023 0.009908057
0.005825492 0.0028602665 -0.016579052 -0.003196004 -0.0049410583 -0.0048104837 -0.006974379 0.014683959
0.007398564 0.0076609324 -0.006525464 0.0033665777 -0.0051169707 -0.008200392 -0.0038850505 0.007757281
-0.0031872091 -0.0057618083 -0.0033279785 0.0044531818 -0.008851017 -0.004774162 -0.008001412 -0.0006681261
-0.0068991235 -0.005999837 -0.0022814174 0.003457845 -0.014421719 -0.0019583458 0.0044038096 -0.00032583522
0.006411837 0.011467303 -0.0037410427 0.00014197371 -0.0038113531 -0.009361754 0.006175436 -0.009765913
-0.0023729953 0.010045321 0.012032075 0.0052263206 -0.0014663638 0.004848193 0.01529819 0.010394614

onnx::Div_70 f4 [6]
00000000: a7cc 4940 4216 d83f 360f 833c 72c1 a83f
00000010: c646 c73d 360f 833c
3.153116 1.6881793 0.015998464 1.3184035 0.09730296 0.015998464
